Task assignment/drl4vrp/vrp/10/19_07_57.994352/checkpoints/2/critic.pt (torch, 29011 bytes, 9 tensors)

static_encoder.conv.weight f4 [128, 2, 1]
0.15040913 -0.19917832 0.15512796 0.2169953 -0.12986179 -0.07061343 0.09276192 0.15005869
0.1297574 0.19538921 0.20286918 -0.2233298 -0.1258516 -0.19262274 -0.13127702 0.10710546
0.07910693 0.20535624 -0.13302277 0.0776624 -0.12516247 -0.019609328 0.1021318 0.10533274
0.09903298 -0.11396718 -0.19735807 -0.18991134 -0.16763543 0.0796657 -0.13737595 0.06834466
0.031425875 0.14523782 0.15265886 0.18680446 -0.12408936 0.20286581 0.17985085 -0.15225446
0.16337311 -0.13109498 0.1718231 -0.12597974 -0.0511176 -0.13621129 0.03537206 -0.033353616
-0.17902285 0.1768374 -0.082593456 -0.17872183 -0.113185614 -0.16918667 -0.14483091 -0.19450794
0.14278105 -0.097905874 0.094282046 0.09606256 0.088107474 0.09734731 -0.04323218 -0.024295438
-0.028471623 0.0033830518 -0.19846442 -0.10349091 -0.0438223 -0.021356136 0.14233704 0.01916243
-0.19616044 0.18534794 0.07591127 -0.13052322 -0.080673724 -0.0008900161 0.2145501 -0.12805969
-0.016126838 -0.025086699 -0.21173763 0.06247121 -0.009835404 0.103016265 0.0964358 -0.027874367
-0.17752138 0.03939513 0.18188414 0.13144259 -0.08848309 0.15530096 -0.04797287 -0.17329624
-0.013029183 -0.025174184 -0.119436085 -0.15376103 -0.12715293 -0.08446179 -0.050127346 0.083908275
-0.13343136 0.18745379 -0.14138888 -0.038193543 0.040409353 0.032344397 0.024753524 -0.023189647
0.07836796 0.060808916 0.11654531 0.017485943 -0.20219949 -0.123111375 0.034449074 0.20234899
-0.19648433 -0.089813486 0.06959594 0.124215275 0.037626866 0.1513406 0.0030095172 0.120869726
-0.19065084 -0.15925553 -0.058430005 0.08403899 -0.042126883 -0.08674691 -0.10940027 -0.21062797
0.15389729 0.07365674 -0.10522496 -0.10217152 0.04246353 0.1945503 0.07431293 0.021264376
0.1588869 -0.19302945 -0.046780236 0.21609075 -0.117117174 0.13541965 -0.057333138 -0.06890166
0.01662996 0.014745004 0.20861591 -0.0543558 0.07837199 -0.0052222055 -0.067072764 0.221408
-0.19214143 -0.08319039 -0.15417911 0.009251434 0.19942874 0.1234208 0.04311724 -0.076616436
0.08584879 -0.039095562 -0.058497116 0.1567666 0.12645173 0.1247578 0.21083632 0.13956763
0.12681189 0.1784491 0.13031214 -0.057030447 0.092282616 -0.15671855 0.06967247 0.043584768
0.1466109 -0.06123567 -0.06913391 -0.14848666 0.09659736 -0.18758479 -0.118824385 0.042694747
-0.20933947 0.20413116 0.09370686 0.07261996 0.20578088 -0.18945628 -0.1588997 0.049732257
0.14145005 0.12022726 0.052274767 0.14520867 0.22437555 -0.16882485 0.060527183 0.18957795
0.0664437 -0.21159846 0.19928746 -0.08595874 0.06624403 -0.018483939 0.15460074 -0.07056095
0.14598387 -0.15389346 -0.1256383 -0.11074114 0.12639417 0.16180958 0.1912744 -0.16331665
0.059187077 -0.035958197 -0.047870368 -0.18353909 -0.0008999823 0.17574663 0.12711339 0.019058479
-0.037402704 0.2121419 -0.023351764 -0.18162581 -0.13424923 -0.13258024 0.11501962 0.041461203
-0.17637423 0.19693382 -0.13098939 0.14388603 -0.009263473 -0.14453708 0.21171057 0.13637261
0.052699253 -0.012225161 0.026430972 0.17658918 0.00857375 -0.15751702 -0.21340142 -0.1948877
00000000: da04 1a3e 67f5 4bbe ddd9 1e3e 0434 5e3e
00000010: 7dfa 04be c69d 90bd f6f9 bd3d fca8 193e
00000020: 20df 043e 1c14 483e f0bc 4f3e 91b0 64be
00000030: 3edf 00be e53e 45be 7c6d 06be 1b5a db3d
00000040: d002 a23d e848 523e 1f37 08be 770d 9f3d
00000050: 972a 00be bea3 a0bc 7a2a d13d b1b8 d73d
00000060: ced1 ca3d a067 e9bd 3c18 4abe 1e78 42be
00000070: 9fa8 2bbe c527 a33d 48ac 0cbe 49f8 8b3d
00000080: 6bb8 003d 39b9 143e 9b52 1c3e ab49 3f3e
00000090: 9022 febd 0ebc 4f3e d22a 383e 98e8 1bbe
000000a0: 484b 273e c33d 06be 65f2 2f3e d500 01be
000000b0: b060 51bd f97a 0bbe 4be2 103d cd9d 08bd
000000c0: c451 37be dd14 353e c226 a9bd db02 37be
000000d0: dccd e7bd 453f 2dbe 8e4e 14be 172d 47be
000000e0: 3235 123e e082 c8bd f216 c13d 73bc c43d
000000f0: b171 b43d 075e c73d 3a14 31bd 3a07 c7bc
00000100: 523d e9bc 31b6 5d3b 423a 4bbe 0bf3 d3bd
00000110: 037f 33bd 10f3 aebc cdc0 113e 87fa 9c3c
00000120: 48de 48be dacb 3d3e 5e77 9b3d e1a7 05be
00000130: 4438 a5bd f84f 69ba 05b3 5b3e 1422 03be
00000140: 6e1c 84bc 9f82 cdbc c0d1 58be d0e1 7f3d
00000150: ad24 21bc 31fa d23d 2280 c53d c958 e4bc
00000160: 2ac8 35be ca5c 213d d63f 3a3e e398 063e
00000170: 9f36 b5bd 3707 1f3e 337f 44bd 9274 31be
00000180: 5b78 55bc 173a cebc e89a f4bd 8873 1dbe
00000190: 6134 02be 4efa acbd 5552 4dbd 1ad8 ab3d
000001a0: 3ba2 08be e3f3 3f3e 3fc8 10be d570 1cbd
000001b0: 4784 253d 8f7b 043d e7c7 ca3c 37f8 bdbc
000001c0: 627f a03d c512 793d 4faf ee3d ae3e 8f3c
000001d0: 620d 4fbe d121 fcbd 791a 0d3d 9334 4f3e
000001e0: 3033 49be 22f0 b7bd 5188 8e3d 9464 fe3d
000001f0: a11e 1a3d 08f9 1a3e 523b 453b 8c8a f73d
00000200: f939 43be e213 23be 4d54 6fbd a21c ac3d
00000210: 3d8d 2cbd 5da8 b1bd 400d e0bd dcae 57be
00000220: 4097 1d3e 58d9 963d 2f80 d7bd 4d3f d1bd
00000230: 3dee 2d3d 3238 473e 6131 983d a132 ae3c
00000240: 3fb3 223e 83a9 45be a29c 3fbd e546 5d3e
00000250: 21db efbd 73ab 0a3e 27d6 6abd 501c 8dbd
00000260: 8e3b 883c 0795 713c 699f 553e 30a4 5ebd
00000270: 7e81 a03d 091f abbb 725d 89bd c7b8 623e
00000280: b9c0 44be b95f aabd 21e1 1dbe 5493 173c
00000290: 0c37 4c3e 0bc4 fc3d b49b 303d 14e9 9cbd
000002a0: 7ed1 af3d ab22 20bd ac9a 6fbd 6c87 203e
000002b0: 907c 013e 0481 ff3d 7ae5 573e d1ea 0e3e
000002c0: fada 013e 5cbb 363e 8c70 053e c298 69bd
000002d0: abfe bc3d d47a 20be 71b0 8e3d f185 323d
000002e0: 2b21 163e 41d2 7abd 1496 8dbd e30c 18be
000002f0: d6d4 c53d 3a16 40be 335a f3bd b0e0 2e3d
00000300: 165d 56be c207 513e 62e9 bf3d c6b9 943d
00000310: 39b8 523e d400 42be 9ab6 22be 0db4 4b3d
00000320: 48d8 103e b639 f63d 111e 563d 95b1 143e
00000330: b4c2 653e 6ce0 2cbe 5aeb 773d b920 423e
00000340: a213 883d 44ad 58be 0312 4c3e 230b b0bd
00000350: f3aa 873d a16b 97bc a84f 1e3e 4282 90bd
00000360: cc7c 153e 3f96 1dbe 54a7 00be 40cc e2bd
00000370: 796d 013e 69b1 253e 70dd 433e 7b3c 27be
00000380: 266e 723d e748 13bd b813 44bd acf1 3bbe
00000390: caec 6bba edf6 333e 032a 023e 8720 9c3c
000003a0: 9433 19bd ba3b 593e 334c bfbc 1efc 39be
000003b0: a178 09be 1dc3 07be 688f eb3d 39d3 293d
000003c0: 729b 34be 05a9 493e 1522 06be dc56 133e
000003d0: d2c5 17bc 8701 14be a8ca 583e 43a5 0b3e
000003e0: 2cdb 573d 0b4c 48bc c485 d83c cbd3 343e
000003f0: ea78 0c3c 244c 21be e785 5abe a490 47be

static_encoder.conv.bias f4 [128]
0.10840356 -0.43770948 -0.21361196 -0.14079101 0.31015122 -0.23485793 0.32971346 0.07180996
-0.43655372 0.24802689 0.26844436 0.69190276 0.4661939 0.41936192 0.037639063 -0.2767186
0.47003314 0.53617626 0.64625007 0.4501618 0.31150603 0.5829118 -0.38014504 -0.38866046
0.5495138 0.2582506 0.22711879 -0.5067903 -0.33374074 0.5241635 0.31676856 -0.34813505
0.43340522 0.10795012 -0.18829128 0.13943416 -0.5364578 -0.31868103 0.48709038 0.34772238
0.015432825 0.38559684 0.36798805 0.24269308 0.10369218 -0.051765427 -0.64967716 -0.20562202
0.5379458 -0.42343572 0.36665812 0.05571389 -0.69636625 0.24960697 0.21777043 -0.06935098
-0.686259 -0.5471518 0.337342 -0.41500297 0.33568746 0.5672932 -0.59440416 -0.4608181
0.6104673 -0.0035416258 0.37422463 0.083878234 -0.3077556 -0.041128892 -0.519482 -0.35574722
-0.34472704 -0.25244847 0.62366754 -0.045800686 0.08860895 -0.36333892 0.15910666 -0.4994588
-0.06039697 0.11564504 -0.18662344 0.23828895 -0.60289186 0.69388324 -0.11492127 -0.591407
-0.037982143 0.3759914 0.19220427 -0.66530156 -0.12545985 0.5716899 0.63357 -0.4399152
-0.6502526 -0.07998367 0.40833804 0.56226444 0.61189735 -0.00475037 -0.6519674 0.40359023
-0.68862957 0.17227715 0.20537074 0.13550259 0.5017024 -0.4346144 0.69626194 -0.6096822
0.6151719 -0.31100434 -0.1284372 0.12421611 0.4894214 -0.44042546 -0.03132078 0.35219523
0.08073184 -0.12768742 0.6274823 0.37151787 0.43051723 0.35263267 -0.56407374 -0.06539128
00000000: b002 de3d 751b e0be 18bd 5abe 852b 10be
00000010: 24cc 9e3e 997e 70be 34d0 a83e 1a11 933d
00000020: f883 dfbe c3fa 7d3e 8a71 893e 8a20 313f
00000030: f8b0 ee3e 9bb6 d63e 6b2b 1a3d 0fae 8dbe
00000040: 2fa8 f03e d942 093f a570 253f 9c7b e63e
00000050: b87d 9f3e b539 153f 5fa2 c2be 81fe c6be
00000060: f0ac 0c3f 6c39 843e d491 683e 02bd 01bf
00000070: 11e0 aabe 942f 063f 7d2f a23e c23e b2be
00000080: 4ae7 dd3e f414 dd3d 6ecf 40be d4c7 0e3e
00000090: 4c55 09bf 292a a3be e963 f93e ab08 b23e
000000a0: f6d9 7c3c f36c c53e ee68 bc3e 8984 783e
000000b0: 915c d43d fc07 54bd 3e51 26bf 948e 52be
000000c0: d1b6 093f 91cc d8be 9dba bb3e 3f34 643d
000000d0: 0f45 32bf f898 7f3e 36ff 5e3e e307 8ebd
000000e0: abae 2fbf 2412 0cbf 17b8 ac3e 457b d4be
000000f0: 3adf ab3e 213a 113f df2a 18bf 5af0 ebbe
00000100: 9647 1c3f 9f1a 68bb 5f9a bf3e 5ac8 ab3d
00000110: 2492 9dbe c576 28bd c6fc 04bf 8024 b6be
00000120: 1080 b0be ed40 81be ada8 1f3f 8099 3bbd
00000130: 9c78 b53d 8f07 babe dbec 223e 10b9 ffbe
00000140: d062 77bd 4fd7 ec3d 371a 3fbe 0502 743e
00000150: 1f57 1abf 55a2 313f d85b ebbd 7366 17bf
00000160: 2a93 1bbd f281 c03e 32d1 443e 3451 2abf
00000170: 8c78 00be 455a 123f a531 223f 913c e1be
00000180: f476 26bf 7ace a3bd af11 d13e 90f0 0f3f
00000190: 4ea5 1c3f fea8 9bbb 56e7 26bf 61a3 ce3e
000001a0: 074a 30bf 6c69 303e b54c 523e 31c1 0a3e
000001b0: 926f 003f c785 debe 393e 323f 2214 1cbf
000001c0: e87b 1d3f f63b 9fbe 0b85 03be 0465 fe3d
000001d0: 7195 fa3e 727f e1be 384a 00bd ef52 b43e
000001e0: bc56 a53d 7ec0 02be aea2 203f 9737 be3e
000001f0: c16c dc3e 458c b43e 2367 10bf ddeb 85bd

dynamic_encoder.conv.weight f4 [128, 2, 1]
0.17289066 -0.16580534 -0.0070782257 0.09009744 0.05399735 -0.12086218 0.09087686 0.028251288
0.13083452 -0.12105508 0.11598094 0.17721221 0.05942226 0.1885542 -0.074345484 0.2283449
0.019428678 0.1579507 -0.08131996 0.10635665 -0.13879247 -0.19585063 -0.1783653 -0.17112519
0.064451836 0.13107495 -0.16639638 0.15148464 -0.16690764 0.15371397 0.14239426 -0.04563344
0.13459887 0.062130123 0.119289786 -0.17571707 -0.19569494 0.21637647 -0.0764069 -0.18946066
-0.10119274 0.09204913 0.14160779 0.1276054 0.004457513 -0.11435585 -0.07358133 -0.19272457
0.09838673 -0.10946083 -0.12632735 -0.19036959 0.06711992 0.21719036 0.011424651 -0.1356543
0.1607647 -0.081146136 0.1713365 -0.014432757 -0.08140342 0.15821302 -0.07022516 -0.18725747
0.16922241 0.08607981 0.15932451 -0.07713775 -0.18434004 -0.09233379 -0.00013066783 0.0803474
0.16855362 0.0026025895 0.006122191 0.06817237 -0.057960007 0.20298605 -0.05630722 -0.088335015
-0.098681115 0.150669 0.19249003 0.06977962 -0.15174577 0.13153854 0.18579641 0.12253423
-0.15726483 0.18188128 -0.13561307 -0.21070173 0.1260887 -0.09591918 0.15238068 -0.06627605
0.025429685 0.013571219 0.16813682 -0.18854782 -0.034656167 0.14438605 -0.18872067 -0.13892946
-0.15348504 0.019859452 0.12484914 -0.0038277206 0.19867046 -0.14069709 0.11208209 -0.012973492
-0.032768797 0.19224726 -0.2016865 -0.19560638 -0.064181454 -0.06575077 0.02982401 -0.15732428
0.21855168 0.0659307 -0.004539697 -0.017357096 -0.07807517 -0.19274288 -0.21464337 -0.06552206
-0.2080284 0.16131367 -0.16901538 -0.17748241 0.09270301 0.21910599 0.18535402 0.07788214
0.040642153 -0.0732479 0.14644323 0.1653236 0.21606667 0.0016232075 0.18016219 -0.17405136
0.09895492 0.16427724 0.055643804 0.0022693132 0.105689496 0.077483624 -0.02027747 -0.17717022
-0.17144969 -0.09219678 0.1911599 0.060638137 0.13148428 0.22643949 0.15193824 0.06356338
-0.11202372 -0.06241359 0.14488453 -0.07947949 -0.018769475 -0.17444737 0.04137567 -0.03732558
0.19639488 -0.074288994 -0.08676287 0.06604257 0.1329019 -0.16444497 0.15721272 -0.16271539
0.05443518 -0.06901686 0.08201097 0.1863317 -0.21452634 -0.17805238 -0.046621554 0.11288014
0.1863936 0.1138803 -0.02610851 -0.122596644 0.13187748 0.17489877 0.037685346 0.008864718
-0.17747684 0.08538053 0.02010656 -0.09130967 -0.08663229 -0.031082168 -0.07639659 -0.12520784
-0.14197321 0.0735866 -0.09612089 0.20352012 0.14368267 -0.14251472 0.1028248 -0.16355422
-0.20247342 0.027838638 0.08722161 -0.061503023 -0.19226384 -0.19627468 0.1437884 0.040174007
-0.01167157 -0.07777793 -0.11146042 0.07576794 -0.092198476 0.057224907 -0.08185714 -0.06747145
0.13501629 0.060895275 -0.18347402 0.066722535 -0.20306471 -0.03370483 0.02582477 0.121416934
0.049681563 0.02531171 -0.09544133 0.08651021 -0.050309677 -0.13982835 0.0013332544 -0.22684853
0.1389591 -0.12776732 0.17568503 0.17985468 0.08144024 0.17815258 0.1868077 0.15274602
-0.20570394 -0.09041794 -0.086609915 0.11314631 0.09179902 -0.18479058 0.09581418 0.17523836
00000000: 400a 313e e0c8 29be 76f0 e7bb 0285 b83d
00000010: 532c 5d3d 9786 f7bd a61d ba3d 3f6f e73c
00000020: 7cf9 053e baeb f7bd 6a87 ed3d 1e77 353e
00000030: c164 733d 5a14 413e 7242 98bd 3fd3 693e
00000040: e428 9f3c d4bd 213e 148b a6bd 84d1 d93d
00000050: 9d1f 0ebe 118d 48be 65a5 36be 713b 2fbe
00000060: 53ff 833d 8338 063e d063 2abe ca1e 1b3e
00000070: d6e9 2abe 3267 1d3e cdcf 113e 21ea 3abd
00000080: 49d4 093e 287c 7e3d 344e f43d 2def 33be
00000090: 4164 48be cb91 5d3e 397b 9cbd fa01 42be
000000a0: 243e cfbd 4184 bc3d a201 113e fdaa 023e
000000b0: 5410 923b 6633 eabd cfb1 96bd 9759 45be
000000c0: fb7e c93d 002d e0bd f55b 01be 3ff0 42be
000000d0: 2b76 893d 2667 5e3e 762e 3b3c f6e8 0abe
000000e0: 809f 243e f22f a6bd d672 2f3e 5f77 6cbc
000000f0: d6b6 a6bd 9802 223e 35d2 8fbd 6cc0 3fbe
00000100: a448 2d3e 9d4a b03d f725 233e 66fa 9dbd
00000110: a3c3 3cbe 8019 bdbd e103 09b9 2d8d a43d
00000120: 5299 2c3e 3590 2a3b a99c c83b f59d 8b3d
00000130: 7967 6dbd 93db 4f3e 66a2 66bd fde8 b4bd
00000140: 5319 cabd f948 1a3e 1b1c 453e 9ee8 8e3d
00000150: 3e63 1bbe 0ab2 063e 6a41 3e3e 3af3 fa3d
00000160: 080a 21be 163f 3a3e 27de 0abe 32c2 57be
00000170: 651d 013e 4671 c4bd ae09 1c3e bdbb 87bd
00000180: ea51 d03c d159 5e3c 0f2c 2c3e ae12 41be
00000190: a0f3 0dbd f0d9 133e fe3f 41be 8643 0ebe
000001a0: 2f2b 1dbe 4ab0 a23c e8b0 ff3d 7fda 7abb
000001b0: 4570 4b3e e612 10be 4b8b e53d c58e 54bc
000001c0: 9338 06bd 77dc 443e e886 4ebe 0a4d 48be
000001d0: 9171 83bd 57a8 86bd 7b51 f43c 9e19 21be
000001e0: 03cc 5f3e ad06 873d bdc1 94bb 7830 8ebc
000001f0: e0e5 9fbd 645e 45be 79cb 5bbe 6e30 86bd
00000200: 6605 55be 692f 253e 5e12 2dbe f3bd 35be
00000210: 13db bd3d 525d 603e 72cd 3d3e ac80 9f3d
00000220: 6378 263d ff02 96bd 37f5 153e 974a 293e
00000230: 9540 5d3e cec1 d43a 707c 383e 853a 32be
00000240: e1a8 ca3d 4b38 283e c2ea 633d c2b8 143b
00000250: bc73 d83d bcaf 9e3d f01c a6bc 1c6c 35be
00000260: 8290 2fbe aad1 bcbd 6cbf 433e b25f 783d
00000270: d1a3 063e c1df 673e b395 1b3e 842d 823d
00000280: b16c e5bd 64a5 7fbd 9c5c 143e 25c6 a2bd
00000290: 71c2 99bc 55a2 32be 8979 293d b5e2 18bd
000002a0: bd1b 493e d424 98bd bbb0 b1bd 5441 873d
000002b0: 7017 083e 4364 28be 5ffc 203e dd9e 26be
000002c0: 6cf7 5e3d b658 8dbd 5ef5 a73d bdcd 3e3e
000002d0: cbac 5bbe 5d53 36be 3ef6 3ebd b42d e73d
000002e0: f7dd 3e3e 133a e93d 84e1 d5bc f313 fbbd
000002f0: e40a 073e aa18 333e f35b 1a3d 523d 113c
00000300: 7dbc 35be fddb ae3d 83b6 a43c 9000 bbbd
00000310: 456c b1bd 08a0 febc d175 9cbd 7c36 00be
00000320: 6d61 11be 92b4 963d 07db c4bd 9467 503e
00000330: 8d21 133e 61ef 11be cf95 d23d c27a 27be
00000340: 3155 4fbe db0d e43c 3ea1 b23d 98ea 7bbd
00000350: d0e0 44be 3bfc 48be 443d 133e 808d 243d
00000360: 1d3a 3fbc 094a 9fbd 5c45 e4bd 392c 9b3d
00000370: 8ed2 bcbd aa64 6a3d b7a4 a7bd 792e 8abd
00000380: b641 0a3e 536d 793d 9de0 3bbe d3a5 883d
00000390: 32f0 4fbe 130e 0abd 788e d33c 71a9 f83d
000003a0: e57e 4b3d 815a cf3c be76 c3bd 442c b13d
000003b0: 8511 4ebd 2a2f 0fbe 98c0 ae3a fb4a 68be
000003c0: 4b4b 0e3e 70d5 02be c7e6 333e d32b 383e
000003d0: 24ca a63d a16d 363e 854a 3f3e 7469 1c3e
000003e0: 0ea4 52be 0a2d b9bd 8a60 b1bd 41b9 e73d
000003f0: 2001 bc3d be39 3dbe 3a3a c43d af71 333e

dynamic_encoder.conv.bias f4 [128]
0.22787979 -0.630346 0.28678456 -0.0478565 -0.10478675 0.3512458 -0.66989505 0.31339028
-0.24110709 -0.4832157 0.37877706 0.14120097 0.4405457 0.40033776 -0.50499254 -0.34848014
0.08303663 -0.5367281 -0.667965 0.57504123 -0.32895774 -0.3591028 0.40984794 -0.6558571
-0.22436139 -0.5290726 -0.30496538 0.56683797 0.10759231 -0.18966728 -0.19664855 -0.20806608
0.18042085 -0.5407997 0.2652953 -0.30784547 0.55906105 -0.23929733 0.049736045 0.1564594
0.17068386 -0.23031391 0.59129745 0.3387383 0.6016079 -0.2733504 0.39998582 -0.56972307
0.21452172 0.35188472 0.535219 -0.42687798 -0.3531942 -0.6236054 -0.24190207 -0.33321965
-0.4432393 -0.61201745 0.64957166 -0.16671531 0.19129321 0.6275279 -0.08581243 0.25957233
0.27673694 0.48779306 0.47695312 0.4703327 -0.084876955 0.65094054 -0.65811104 -0.2715213
0.53098476 -0.68189704 -0.6339682 0.694073 0.13563663 0.123008944 0.4750231 -0.071132
0.58007747 -0.5136368 -0.20609042 -0.4638109 -0.08699911 0.12198079 -0.34822595 -0.039488662
0.35333607 0.28611732 0.5322602 0.46832278 -0.021618234 -0.3938608 -0.69783825 0.014481726
0.36419412 0.08001742 -0.33266 0.21842416 0.49245018 0.27856854 0.111848876 0.62273717
0.07695857 -0.3779528 -0.5573287 -0.6366281 -0.44376594 0.33715895 -0.66333663 0.41480482
0.1205246 -0.24642646 0.20006725 -0.15229847 0.41363436 -0.56246763 -0.66942066 0.04939359
-0.5591428 0.6255311 -0.5624357 0.42937773 -0.36266857 -0.32746807 -0.11964571 0.13950832
00000000: 5259 693e 5b5e 21bf 6dd5 923e 2d05 44bd
00000010: 709a d6bd 7dd6 b33e 3e7e 2bbf b174 a03e
00000020: c7e4 76be 0c68 f7be 11ef c13e fd96 103e
00000030: 358f e13e 12f9 cc3e 3147 01bf fd6b b2be
00000040: 1c0f aa3d 0367 09bf c1ff 2abf e735 133f
00000050: 266d a8be 52dc b7be 97d7 d13e 40e6 27bf
00000060: febe 65be 4d71 07bf 6c24 9cbe 4b1c 113f
00000070: 5b59 dc3d 2438 42be 3d5e 49be 460f 55be
00000080: 3ec0 383e d971 0abf c9d4 873e ec9d 9dbe
00000090: a01e 0f3f 5c0a 75be 06b8 4b3d e536 203e
000000a0: c0c7 2e3e 69d7 6bbe 455f 173f 1b6f ad3e
000000b0: fa02 1a3f 95f4 8bbe f1ca cc3e 5fd9 11bf
000000c0: 95ab 5b3e 3c2a b43e 1d04 093f c08f dabe
000000d0: dfd5 b4be 9aa4 1fbf 2db5 77be c49b aabe
000000e0: 43f0 e2be 2dad 1cbf 544a 263f 6bb7 2abe
000000f0: 5ee2 433e aba5 203f 6dbe afbd aae6 843e
00000100: 77b0 8d3e 03c0 f93e 3333 f43e 73cf f03e
00000110: f8d3 adbd 0aa4 263f f779 28bf d704 8bbe
00000120: 9eee 073f ce90 2ebf bd4b 22bf c5ae 313f
00000130: 54e4 0a3e 1dec fb3d 3a36 f33e a7ad 91bd
00000140: f57f 143f b47d 03bf 5e09 53be 9f78 edbe
00000150: 972c b2bd 10d1 f93d ac4a b2be ddbe 21bd
00000160: 77e8 b43e f87d 923e 3442 083f 01c8 ef3e
00000170: b918 b1bc 1fa8 c9be 87a5 32bf c344 6d3c
00000180: a777 ba3e 2ce0 a33d 6952 aabe 95aa 5f3e
00000190: 6e22 fc3e 89a0 8e3e 0611 e53d b46b 1f3f
000001a0: 749c 9d3d 0883 c1be 18ad 0ebf 0ffa 22bf
000001b0: 4a35 e3be 19a0 ac3e 6ed0 29bf 4c61 d43e
000001c0: 9ad5 f63d 3857 7cbe 6ede 4c3e 21f4 1bbe
000001d0: e2c7 d33e e1fd 0fbf 275f 2bbf ef50 4a3d
000001e0: fc23 0fbf ce22 203f c9fb 0fbf 66d7 db3e
000001f0: b2af b9be e5a9 a7be cf08 f5bd 45db 0e3e

fc1.weight f4 [20, 256, 1]
-0.14272806 0.097463265 0.06439775 -0.11048803 0.102473244 0.040203676 -0.12326509 -0.087055
0.102102205 -0.12902117 0.13178834 -0.09423294 0.12934655 -0.08002097 0.13790885 0.03323199
-0.003535509 -0.006857902 -0.08525969 -0.07014911 0.12572211 0.09148258 0.086219594 0.07362951
-0.09638484 0.09760617 -0.108791634 -0.0807623 -0.0324018 0.002740398 -0.041053824 0.063210785
0.14409155 0.08118664 0.005460158 -0.08730276 -0.06747309 -0.0049262196 0.14464355 -0.08368065
-0.092129655 0.116923094 -0.0022366345 0.08521809 -0.026799075 0.14659038 -0.052181706 -0.049032934
-0.09991634 -0.028823093 -0.0957828 0.13660213 0.117428035 -0.12098247 0.035930857 -0.058394715
-0.1348617 0.0567919 0.12308988 0.098594815 0.034532115 0.13200265 -0.0718028 -0.08355078
-0.12036585 -0.030113257 -0.021872684 -0.04837431 0.12653473 -0.016062096 0.058880866 0.11294487
-0.105083555 0.033741638 -0.101879664 0.098301455 -0.04981087 0.13341993 0.124586165 -0.0009871274
-0.047756992 -0.06040875 -0.11458752 -0.028267182 0.11968276 0.13995111 -0.13660493 -0.14706795
-0.12633239 0.05125557 0.09953217 -0.06452944 0.11710635 0.07815537 0.05331713 -0.10604259
0.09445658 0.06887044 0.0012270361 0.05210477 -0.08381309 -0.06060125 0.10536349 -0.13596177
-0.13945293 0.00716871 0.08637501 0.088643804 0.05030662 0.012636498 0.06863949 -0.06218517
-0.04779654 -0.11389002 0.12705904 0.05839576 0.0028864443 0.0955188 0.13572028 0.06599191
0.1420426 0.105924934 0.03978069 0.035534725 -0.0762742 -0.015721977 -0.0855761 -0.12887254
0.027449176 -0.0021054298 -0.03871981 0.036807165 0.024744391 0.13319144 0.06236632 0.12900865
0.13681841 0.077563345 0.1194402 -0.11810961 0.03764634 0.10854909 0.14040506 -0.051696472
-0.11298206 -0.060590222 0.14126772 -0.10333352 0.051725835 0.034095034 0.0011057109 0.09130889
0.066731066 0.06877823 0.02521503 0.01680091 -0.021701053 0.11318785 -0.032790944 -0.12677163
0.0699909 0.10714218 0.01821281 -0.029270746 0.06942904 0.14024043 -0.11722231 -0.055006437
-0.035203874 0.046376497 0.08946462 -0.075353004 -0.063818984 0.054932013 -0.096475415 0.005970046
0.14296424 0.062219635 -0.13548487 -0.06946052 0.034337774 0.023677468 0.12608829 -0.01700452
-0.03393434 0.14087075 -0.07825482 0.10899678 -0.14389871 -2.4929643e-05 -0.017510757 -0.104393534
0.13454205 -0.02224344 -0.12465349 -0.099650756 0.06858325 0.016044274 0.0034762323 0.1015736
-0.12260908 -0.031304657 0.021676674 -0.0466192 -0.1146384 0.0060117543 -0.12085856 0.026359767
0.024859607 0.042958394 -0.010257423 -0.022133127 0.116265446 -0.105118245 0.14020562 -0.12714908
-0.03929574 -0.018513083 0.065776825 -0.10706909 -0.11592996 0.10114506 -0.0750383 -0.034864224
0.14268687 -0.14088896 0.110608816 -0.11855905 0.095151484 0.1472438 0.10045752 -0.046882354
-0.12756471 0.043845057 -0.12268256 -0.04245636 -0.0052621067 0.08241776 -0.14453228 -0.07601641
0.049761176 0.11427182 -0.13822053 -0.13650736 -0.06729086 -0.06265446 0.090224445 0.09826115
-0.070001364 -0.103544064 -0.11322656 -0.053736374 0.052653357 -0.027229242 -0.063529186 0.05967562
00000000: 4e27 12be d29a c73d f8e2 833d 8c47 e2bd
00000010: 7edd d13d 9cac 243d 6872 fcbd e449 b2bd
00000020: f61a d13d 201e 04be 86f3 063e 33fd c0bd
00000030: 6c73 043e 09e2 a3bd fa37 0d3e 441e 083d
00000040: 00b4 67bb 40b8 e0bb a29c aebd 56aa 8fbd
00000050: 4cbd 003e 385b bb3d e693 b03d 12cb 963d
00000060: 6a65 c5bd bee5 c73d 26ce debd b466 a5bd
00000070: c0b7 04bd 4098 333b 0e28 28bd a874 813d
00000080: bc8c 133e 2e45 a63d 20eb b23b cacb b2bd
00000090: 552f 8abd 206c a1bb 701d 143e c360 abbd
000000a0: 79ae bcbd 6075 ef3d 8094 12bb d286 ae3d
000000b0: bc89 dbbc ca1b 163e 7cbc 55bd c2d6 48bd
000000c0: f0a0 ccbd 681e ecbc c629 c4bd 6ee1 0b3e
000000d0: 1c7e f03d a8c5 f7bd 3c2c 133d 4c2f 6fbd
000000e0: 2f19 0abe a09e 683d 8c16 fc3d 14ec c93d
000000f0: 8c71 0d3d b42b 073e 590d 93bd ac1c abbd
00000100: 5f82 f6bd 14b0 f6bc 582e b3bc 2424 46bd
00000110: 5292 013e a894 83bc 102d 713d a44f e73d
00000120: 0c36 d7bd ac34 0a3d 49a6 d0bd 4652 c93d
00000130: 7c06 4cbd 3c9f 083e 0827 ff3d 8062 81ba
00000140: d69c 43bd 2a6f 77bd ddac eabd 9490 e7bc
00000150: 3c1c f53d 584f 0f3e 2ae2 0bbe fb98 16be
00000160: 475d 01be 5cf1 513d 86d7 cb3d 0328 84bd
00000170: 74d5 ef3d ec0f a03d 1063 5a3d dc2c d9bd
00000180: 7472 c13d f20b 8d3d 80d4 a03a d06b 553d
00000190: 33a6 abbd 0439 78bd d0c8 d73d 9039 0bbe
000001a0: c0cc 0ebe 80e7 ea3b 62e5 b03d e28a b53d
000001b0: 500e 4e3d 5009 4f3c dc92 8c3d e0b5 7ebd
000001c0: 4ec6 43bd 2c3f e9bd c41b 023e 6430 6f3d
000001d0: 802a 3d3b 5c9f c33d 42fa 0a3e c426 873d
000001e0: 9e73 113e 2cef d83d 14f1 223d dc8c 113d
000001f0: a635 9cbd 60cb 80bc 8642 afbd 2af7 03be
00000200: 18dd e03c 40fb 09bb aa98 1ebd 1cc3 163d
00000210: c0b4 ca3c 5663 083e d473 7f3d d81a 043e
00000220: 201a 0c3e 88d9 9e3d 109d f43d 74e3 f1bd
00000230: 0c33 1a3d fc4e de3d 58c6 0f3e aebf 53bd
00000240: 2363 e7bd 742d 78bd 7ca8 103e 86a0 d3bd
00000250: 78de 533d 3ca7 0b3d 80ed 903a 2800 bb3d
00000260: 4caa 883d 9adb 8c3d c08f ce3c 10a2 893c
00000270: 68c6 b1bc 08cf e73d cc4f 06bd 6cd0 01be
00000280: 6457 8f3d 5c6d db3d 0833 953c 34c9 efbc
00000290: d030 8e3d 309b 0f3e 4012 f0bd 6e4e 61bd
000002a0: f031 10bd 48f5 3d3d 3a39 b73d ad52 9abd
000002b0: 87b3 82bd 6400 613d e794 c5bd 60a0 c33b
000002c0: 3865 123e 04da 7e3d 8cbc 0abe 5141 8ebd
000002d0: c4a5 0c3d 40f7 c13c 4a1d 013e 104d 8bbc
000002e0: bcfe 0abd 6c40 103e 1044 a0bd b439 df3d
000002f0: 2f5a 13be 0020 d1b7 b872 8fbc 47cc d5bd
00000300: 64c5 093e e037 b6bc 544a ffbd b215 ccbd
00000310: 6075 8c3d 486f 833c 80d1 633b d205 d03d
00000320: 781a fbbd 5039 00bd 4893 b13c c6f3 3ebd
00000330: 8ac7 eabd 40fe c43b b184 f7bd 70f0 d73c
00000340: 60a6 cb3c 24f5 2f3d c00e 28bc 8850 b5bc
00000350: 941c ee3d 3c48 d7bd 1092 0f3e 5e33 02be
00000360: 92f4 20bd c0a8 97bc 00b6 863d 0a47 dbbd
00000370: b06c edbd 2425 cf3d aead 99bd cacd 0ebd
00000380: 821c 123e 3245 10be e086 e23d 16cf f2bd
00000390: c8de c23d 14c7 163e acbc cd3d b607 40bd
000003a0: 53a0 02be e096 333d fe40 fbbd b8e6 2dbd
000003b0: c06d acbb a4ca a83d 4500 14be 7eae 9bbd
000003c0: 60d2 4b3d 5807 ea3d af89 0dbe 96c8 0bbe
000003d0: cacf 89bd fb50 80bd 98c7 b83d 243d c93d
000003e0: e05c 8fbd e90e d4bd 54e3 e7bd ac1a 5cbd
000003f0: 0cab 573d dc0f dfbc 971b 82bd 6c6e 743d

fc1.bias f4 [20]
-0.030291744 -0.0012483965 -0.013208009 -0.04352929 -0.016725145 -0.012494139 -0.051966727 -0.020742832
0.02990052 -0.0060078474 -0.028090067 0.046160698 -0.036145218 -0.05931538 0.009323381 -0.027167965
0.060681675 -0.01648151 0.013204865 -0.020230085
00000000: 6426 f8bc 3ca1 a3ba 6866 58bc c54b 32bd
00000010: 2c03 89bc 38b4 4cbc 10db 54bd dfec a9bc
00000020: eff1 f43c 7add c4bb 241d e6bc 0013 3d3d
00000030: 020d 14bd aff4 72bd 18c1 183c 5a8f debc
00000040: 598d 783d 3b04 87bc 3859 583c 90b9 a5bc

fc2.weight f4 [20, 20, 1]
-0.011222899 -0.02626682 0.21878946 0.20568271 -0.0053659678 0.0031225588 0.15493685 -0.04389174
-0.36028782 0.12866075 -0.19562837 -0.32376805 -0.17374496 -0.20715947 0.19141573 0.089253396
-0.016635697 0.38745642 0.08498995 -0.21299408 0.30188978 -0.052825253 0.1422652 -0.15930338
0.08026144 0.3153222 -0.05783134 -0.038626704 0.15876737 0.19079155 -0.30901533 -0.28493226
-0.20079775 0.1532722 0.34848195 -0.05879351 -0.3851463 0.1782044 0.24222602 0.17736065
0.2000165 0.12088263 -0.380367 0.31827682 -0.28310737 -0.30769846 0.074165255 0.007217511
-0.24480829 -0.30021778 -0.2016534 -0.24847807 0.10954532 -0.29134822 -0.073513985 0.050452888
0.34615883 0.3240114 0.12508076 -0.0017716289 0.38047564 0.27376187 -0.13524038 0.082135044
0.321109 0.21782951 -0.28024015 0.0634489 -0.02304365 0.29026484 -0.10984939 -0.17695417
-0.06947264 -0.095444605 -0.06831175 0.37104785 -0.1244726 -0.21524398 0.24990475 0.3834654
0.1935376 -0.06192464 0.15325725 -0.10767322 -0.060806096 -0.03286644 -0.13353202 0.1944207
-0.09242882 0.29591078 0.02796176 0.36126179 -0.074917585 0.32947475 -0.028326362 0.085014045
-0.15583073 -0.3734845 0.1561689 0.15729487 0.18679583 -0.11038033 0.2234754 -0.02746768
0.3525306 -0.16104224 0.24066451 0.02493963 -0.10851765 0.1299029 0.34271944 0.3637405
0.37845623 -0.33760828 0.28407586 0.19465975 0.38538405 0.017601442 -0.23526542 0.12275612
0.36780816 0.21422797 -0.01740855 -0.32970345 0.23450416 -0.31727287 -0.23355933 0.21965696
-0.05866388 -0.32263637 -0.22569546 0.020567983 0.1759277 -0.13813329 0.16691655 0.018567516
0.13245142 0.036084954 0.13534929 0.2582512 0.08272132 0.31502676 0.36544895 0.07959545
0.08635166 -0.21618056 0.32178247 -0.08905679 0.31079268 0.04853326 0.06622797 -0.004858136
0.10195279 0.19824034 -0.28996667 -0.23671563 -0.29360673 -0.2662661 -0.15422115 0.3843925
0.34342605 -0.08641132 0.22259188 -0.38329673 0.36499166 -0.007830819 -0.10600605 0.2194552
0.03906064 -0.19560312 0.027965099 0.3129542 -0.24332356 0.34222007 -0.35852206 -0.38165796
-0.10351595 0.3048499 0.056339856 -0.12196678 0.10406795 0.38413313 0.26484418 -0.23753981
0.16856813 -0.3259214 -0.29456028 0.22916718 -0.048319425 0.18312426 -0.22854066 -0.20548044
0.23084539 -0.03784757 0.09007588 -0.18219295 0.14681505 0.24586098 -0.30659097 -0.17279544
-0.01239565 0.04904449 -0.25726095 0.23850615 0.2462632 -0.37341735 0.27914038 -0.076379605
0.16829117 0.37401876 -0.015877157 0.15449911 0.20054078 -0.38234264 -0.36107522 0.3242314
0.09487232 0.30731222 -0.102182895 0.02287957 -0.06972048 -0.25034544 -0.12794167 -0.08223361
0.14856386 -0.105365396 -0.28226072 -0.17776749 -0.19013968 -0.3248452 0.27139235 -0.07859799
0.35986382 -0.07500264 -0.14629924 -0.35109627 0.17791057 -0.06913939 0.1934219 0.16758305
-0.38225275 -0.040275544 0.25919956 -0.06802726 0.056031615 0.3341956 -0.14113227 -0.09359881
-0.15361093 -0.24014464 0.3320498 0.22849089 -0.34377897 -0.27645826 -0.031040758 0.09089109
00000000: 40e0 37bc 842d d7bc 580a 603e 7d9e 523e
00000010: 00d5 afbb d8a3 4c3b c4a7 1e3e d3c7 33bd
00000020: a577 b8be a5bf 033e ce52 48be edc4 a5be
00000030: 33ea 31be 9d21 54be 7c02 443e 7cca b63d
00000040: 9647 88bc b060 c63e 360f ae3d 1f1b 5abe
00000050: 4c91 9a3e 4b5f 58bd f8ad 113e 6d20 23be
00000060: 1c60 a43d e971 a13e 8ee0 6cbd 0937 1ebd
00000070: ea93 223e dc5e 433e 4237 9ebe a4e2 91be
00000080: ed9d 4dbe 63f3 1c3e 3a6c b23e 77d1 70bd
00000090: e531 c5be 377b 363e 190a 783e 089e 353e
000000a0: 20d1 4c3e 5091 f73d 77bf c2be 2ef5 a23e
000000b0: 73f3 90be a78a 9dbe f4e3 973d df80 ec3b
000000c0: 06af 7abe 25b6 99be 3b7e 4ebe 0971 7ebe
000000d0: 4c59 e03d 982b 95be 808e 96bd b0a7 4e3d
000000e0: bb3b b13e d2e4 a53e 2c15 003e 0036 e8ba
000000f0: b4cd c23e 842a 8c3e 747c 0abe 6b36 a83d
00000100: 6668 a43e b30e 5f3e a37b 8fbe 7ff1 813d
00000110: 09c6 bcbc 989d 943e b8f8 e0bd 7933 35be
00000120: ac47 8ebd 7678 c3bd 08e7 8bbd fcf9 bd3e
00000130: 7eeb febd eb68 5cbe 08e7 7f3e 9455 c43e
00000140: b82e 463e b1a4 7dbd 78ef 1c3e c783 dcbd
00000150: d00f 79bd f69e 06bd 9ebc 08be 3816 473e
00000160: 524b bdbd 9e81 973e 1010 e53c 4ef7 b83e
00000170: 646e 99bd eab0 a83e b00c e8bc d81b ae3d
00000180: 1792 1fbe 5c39 bfbe bdea 1f3e e811 213e
00000190: 6847 3f3e 150f e2bd bcd6 643e e603 e1bc
000001a0: e47e b43e 42e8 24be c270 763e 324e cc3c
000001b0: 803e debd 4405 053e ec78 af3e 323c ba3e
000001c0: 04c5 c13e feda acbe 6472 913e e354 473e
000001d0: 0f51 c53e e630 903c 6be9 70be 9067 fb3d
000001e0: 5a51 bc3e 945e 5b3e 609c 8ebc e4ce a8be
000001f0: dc21 703e 9771 a2be 2d2a 6fbe c1ed 603e
00000200: 8949 70bd 9830 a5be b61c 67be 307e a83c
00000210: 6426 343e d072 0dbe 2cec 2a3e e71a 983c
00000220: 58a1 073e d1cd 133d 0199 0a3e 8039 843e
00000230: cc69 a93d 304b a13e 201c bb3e f002 a33d
00000240: 24d9 b03d 705e 5dbe acc0 a43e 6863 b6bd
00000250: 3820 9f3e d0ca 463d 88a2 873d 0031 9fbb
00000260: a0cc d03d 84ff 4a3e 8376 94be 9565 72be
00000270: 9f53 96be 0854 88be 26ec 1dbe 18cf c43e
00000280: 8ad5 af3e 6bf8 b0bd 20ef 633e 783f c4be
00000290: 30e0 ba3e d64c 00bc b319 d9bd ddb8 603e
000002a0: 0dfe 1f3d 2f4c 48be 1017 e53c 883b a03e
000002b0: d029 79be 7837 af3e 3490 b7be ac68 c3be
000002c0: 2c00 d4bd 4915 9c3e 9fc4 663d b8c9 f9bd
000002d0: 9421 d53d 19ad c43e a899 873e a33d 73be
000002e0: 209d 2c3e 2bdf a6be 9bd0 96be cdaa 6a3e
000002f0: 97ea 45bd ed84 3b3e 9006 6abe 7769 52be
00000300: bc62 6c3e 0e06 1bbd b479 b83d ca90 3abe
00000310: af56 163e fbc2 7b3e 7ef9 9cbe 4af1 30be
00000320: 2017 4bbc e0e2 483d b5b7 83be f53a 743e
00000330: 6c2c 7c3e 8f30 bfbe 7deb 8e3e e96c 9cbd
00000340: 8554 2c3e 637f bf3e d010 82bc 0435 1e3e
00000350: 905a 4d3e 6ac2 c3be dade b8be a801 a63e
00000360: 6b4c c23d 0758 9d3e 4445 d1bd f06d bb3c
00000370: 9cc9 8ebd 472d 80be 2403 03be 186a a8bd
00000380: 2021 183e d0c9 d7bd 7a84 90be ae08 36be
00000390: fab3 42be 1c52 a6be f0f3 8a3e fcf7 a0bd
000003a0: 1240 b83e fc9a 99bd 78cf 15be e4c2 b3be
000003b0: 302e 363e f498 8dbd 6410 463e e49a 2b3e
000003c0: a2b6 c3be f8f7 24bd ceb5 843e e051 8bbd
000003d0: 6881 653d b01b ab3e fa84 10be bcb0 bfbd
000003e0: 2f4c 1dbe 7ae8 75be 6e02 aa3e 84f9 693e
000003f0: cc03 b0be f08b 8dbe 3049 febc 1c25 ba3d

fc2.bias f4 [20]
0.19084357 -0.18990289 -0.051410835 0.09092816 0.1597751 0.11616498 0.035909444 -0.18184555
0.12668905 -0.0685246 0.18853503 0.11781743 0.14150053 -0.04796964 0.015687615 -0.07129507
-0.08683637 -0.1729124 0.19122209 -0.2222627
00000000: 7f6c 433e e775 42be 2b94 52bd 8b38 ba3d
00000010: 159c 233e e8e7 ed3d c815 133d b835 3abe
00000020: c6ba 013e a056 8cbd 540f 413e 444a f13d
00000030: 84e5 103e d07b 44bd 5083 803c 2603 92bd
00000040: 44d7 b1bd f30f 31be b9cf 433e d598 63be

fc3.weight f4 [1, 20, 1]
0.17610115 -0.3878715 -0.13052677 -0.1064403 -0.2574348 0.31117195 0.23637807 0.49944347
-0.12878479 0.13928187 0.14027312 0.5130313 0.14928782 0.48668018 0.4717192 0.3324778
0.35267872 -0.100664884 0.02714935 0.09688163
00000000: dc53 343e 1897 c6be cfa8 05be 5ffd d9bd
00000010: 7ece 83be ee51 9f3e 180d 723e 0eb7 ff3e
00000020: 29e0 03be e89f 0e3e c2a3 0f3e 0556 033f
00000030: e8de 183e 252e f93e 2e85 f13e 883a aa3e
00000040: 4e92 b43e 6429 cebd 5068 de3c e069 c63d
