Task assignment/drl4vrp/vrp/10/19_07_57.994352/checkpoints/5/actor.pt (torch, 734651 bytes, 14 tensors)

static_encoder.conv.weight f4 [128, 2, 1]
0	0xbe5816f6	-0.21102509
1	0x3e1b8344	0.15186793
2	0x3e25d373	0.16193943
3	0x3be034eb	0.006842246
4	0xbe0f35f9	-0.13985433
5	0x3d66909f	0.056290265
6	0xbe28a506	-0.16469201
7	0xbd77be30	-0.06048411
8	0x3e12d021	0.14337207
9	0x3e020c19	0.12699927
10	0xbdfd35c5	-0.12363771
11	0xbd57971d	-0.052634347
12	0x3e74d37e	0.23908803
13	0xbccf20f3	-0.025284266
14	0xbe20389d	-0.15646596
15	0x3e45dccf	0.19322513
16	0xbe70ea23	-0.23526816
17	0x3d41cc8e	0.04731422
18	0x3e17ce65	0.14824827
19	0x3de78569	0.11304743
20	0xbe3f3cce	-0.18675539
21	0xbda9c070	-0.08288658
22	0xbe3aa6a6	-0.18227634
23	0xbe466943	-0.19376092
24	0xbda46204	-0.080265075
25	0xbe5b5fe7	-0.21423303
26	0xbe741491	-0.2383597
27	0xbb89e4aa	-0.004208167
28	0x3e6afbab	0.22947566
29	0xbe0119f0	-0.1260755
30	0x3e60075a	0.21877804
31	0x3c9b35e2	0.018946592
32	0x3e84dc03	0.25949106
33	0x3b55a488	0.003259929
34	0xbe44ff76	-0.19238076
35	0xbd0628b6	-0.03275367
36	0xbd1fca23	-0.039011132
37	0x3e39f94d	0.18161507
38	0xbe904a55	-0.2818171
39	0xbd4ca9c2	-0.04996658
40	0x3e51f648	0.20504105
41	0xbe4cae9b	-0.19988482
42	0xbe1b4aa9	-0.151652
43	0xbdf13e0f	-0.11779415
44	0xbd050361	-0.032473926
45	0xbd9a21ea	-0.07526
46	0x3e476dcb	0.19475476
47	0xbdc70d59	-0.09719343
48	0x3dd0b149	0.101900645
49	0x3cb31564	0.021860786
50	0x3e6e2b8c	0.232588
51	0x3c1ddbea	0.009634951
52	0x3d748b38	0.05970308
53	0x3d27d2e0	0.04097259
54	0xbe69daa7	-0.22837315
55	0xbd2cd2bf	-0.04219317
56	0xbe462ffb	-0.1935424
57	0x3db33185	0.087496795
58	0xba10febc	-0.00055311224
59	0x3e4b417d	0.198492
60	0xbe038685	-0.12844284
61	0x3c43271d	0.011911181
62	0xbe228c7f	-0.15873908
63	0xbd4196d6	-0.04726299
64	0x3e8df3a7	0.27724954
65	0xbe00b734	-0.12569886
66	0x3e4705ac	0.19435757
67	0xbe0d1d0f	-0.13780616
68	0xbda7689a	-0.08174248
69	0x3dae5d60	0.085139036
70	0xbe5f4ee7	-0.21807443
71	0x3dcdcf74	0.10049334
72	0xbe1c7fe9	-0.15283169
73	0xbe26eba4	-0.16300827
74	0xbde479b7	-0.11156028
75	0x3dfc8a86	0.12331109
76	0x3de19a24	0.11015728
77	0x3dde366b	0.10850223
78	0x3e4fb210	0.20282769
79	0xbdc73031	-0.09725989
80	0xbe3922a7	-0.18079625
81	0x3d1df121	0.038560037
82	0xbe0eb497	-0.13936077
83	0x3df86860	0.12129283
84	0xbe392915	-0.18082078
85	0xbe2e5941	-0.17026235
86	0x3e57a3ae	0.21058533
87	0xbd9fab6e	-0.077963695
88	0x3d6475cd	0.055776406
89	0xbafc333a	-0.0019241341
90	0x3e32d600	0.17464447
91	0x3df01449	0.11722619
92	0x3e4576b5	0.19283564
93	0x3d4a869a	0.049444772
94	0x3e81d8af	0.2536063
95	0xbcd6f1b4	-0.0262383
96	0x3d9d7905	0.07689098
97	0x3d9bb747	0.07603317
98	0x3e0f1aa4	0.13975006
99	0xbe06c849	-0.1316234
100	0x3e851ff1	0.26000932
101	0xbc5bb5b8	-0.013410024
102	0xbd14b380	-0.036303997
103	0xbdda3aba	-0.106557325
104	0xbd0972d8	-0.03355679
105	0x3dc0e4eb	0.09418663
106	0xbe12034e	-0.14259073
107	0xbe51a621	-0.2047353
108	0x3c88ea1e	0.016713198
109	0xbdc93a24	-0.098255426
110	0xbcbf2190	-0.023331434
111	0x3c7685b9	0.01504653
112	0x3e644b9f	0.22294472
113	0x3e548e07	0.20757304
114	0xbe703f02	-0.23461536
115	0x3e540517	0.20705067
116	0x3e7f8e6a	0.2495667
117	0x3d25056d	0.040288378
118	0x3e3c2883	0.18374829
119	0x3dbbb4c5	0.091653384
120	0x3de92133	0.113832854
121	0xbd2fffc8	-0.04296854
122	0x3e184d80	0.14873314
123	0xbe4f4e71	-0.20244767
124	0xbe85416b	-0.26026472
125	0xbe346a15	-0.17618592
126	0x3dcf45de	0.10120748
127	0x3e150004	0.14550787
128	0x3e1e4842	0.15457252
129	0x3d1a0559	0.037602756
130	0xbe815c2d	-0.25265637
131	0xbd6e446f	-0.058170732
132	0xbe3b3d8b	-0.18285196
133	0xbe18cf9c	-0.14922947
134	0xbd3e4c34	-0.04645939
135	0xbc659599	-0.014012718
136	0xbe8ee6bf	-0.2791042
137	0x3cc5b9b6	0.024136405
138	0xbbc181e0	-0.005905375
139	0x3e4d7f51	0.20068099
140	0x3de893cd	0.11356316
141	0x3e523079	0.20526303
142	0xbd9e56c6	-0.077313945
143	0xbba9824e	-0.005173004
144	0xbdb33627	-0.08750563
145	0xbdf4d75b	-0.11955138
146	0x3e00fd86	0.12596712
147	0x3e07abfb	0.13249199
148	0x3de3c373	0.11121263
149	0x3b3f9d8e	0.0029238197
150	0x3d4dbb4f	0.05022746
151	0xbbf18aec	-0.007371297
152	0xbdd11415	-0.102089085
153	0x3cc89524	0.024485178
154	0x3e1c42e1	0.15259887
155	0x3d1e80f4	0.038697198
156	0x3e6f8e1c	0.23394054
157	0x3e0af45e	0.13569781
158	0xbe355930	-0.17709804
159	0xbe532b4d	-0.20621987
160	0xbdd9088f	-0.105973355
161	0xbe550aef	-0.20804952
162	0xbe82870c	-0.25493658
163	0xbe1d1ea3	-0.15343718
164	0xbe2f2106	-0.17102441
165	0xbe02621f	-0.12732743
166	0xbe85a334	-0.26101077
167	0xbd742f68	-0.059615523
168	0xbe82204c	-0.25415266
169	0xbbacbfd9	-0.0052718935
170	0x3d98ff70	0.07470596
171	0x3e0b145b	0.13581984
172	0x3e7fd5ca	0.24983898
173	0xbe339bcc	-0.175399
174	0xbc3bb674	-0.011457074
175	0xbdb1259d	-0.08649752
176	0xbce956ad	-0.028483713
177	0xbdac5df7	-0.0841636
178	0xbe616901	-0.22012712
179	0xbd2cdc20	-0.042202115
180	0x3e2fcb34	0.1716736
181	0x3dff41e7	0.12463742
182	0xbe7d43b1	-0.24732853
183	0xbd95f88e	-0.07322799
184	0xbd8abea7	-0.06774645
185	0xbd92b836	-0.07164042
186	0xbe140129	-0.14453568
187	0x3e1440d0	0.14477849
188	0x3e657f92	0.22411945
189	0xbccec5f0	-0.025240868
190	0xbdc05c95	-0.093926586
191	0xbd38b620	-0.045095563
192	0xbe5387ce	-0.20657274
193	0xbe471010	-0.19439721
194	0xbc9ca0fc	-0.019119732
195	0x3e176c37	0.14787374
196	0xbe709be9	-0.23496975
197	0x3e1f2cc4	0.1554442
198	0x3da98ef4	0.08279219
199	0xbe58080a	-0.21096817
200	0x3de9b13c	0.11410758
201	0x3d5f550a	0.05452446
202	0xbe26f473	-0.16304187
203	0x3d903253	0.070408486
204	0x3e518155	0.20459493
205	0xbe3ba7f2	-0.18325785
206	0x3caae2e6	0.020860147
207	0x3d0c2d10	0.034222662
208	0xbe78edd0	-0.24309468
209	0x3c59d1e6	0.013294673
210	0xbd931237	-0.071812086
211	0xbca58d23	-0.0202089
212	0xbe1be94b	-0.15225713
213	0xbd734bad	-0.059398342
214	0xbe5224ce	-0.20521852
215	0x3beffadd	0.0073236064
216	0x3e34b314	0.17646438
217	0xbe1282c3	-0.14307694
218	0x3db74d91	0.089503415
219	0xbd0ece8b	-0.034864943
220	0x3e60b253	0.21943025
221	0xbdc471d2	-0.09592022
222	0xbe766310	-0.24061227
223	0xbc3ac7f3	-0.011400211
224	0x3e36fdce	0.17870256
225	0xbd673790	-0.056449473
226	0xbe43f61b	-0.1913685
227	0x3d74e3f8	0.05978772
228	0x3e7cbb8f	0.24680923
229	0x3c850b5d	0.01624077
230	0xbe06b37e	-0.13154408
231	0x3e22d4a2	0.15901425
232	0x3d962db6	0.073329374
233	0xbe387992	-0.18015125
234	0x3e5fbbda	0.21849003
235	0xbd8eda2c	-0.06975207
236	0x3d9edb17	0.07756632
237	0x3ddeb69b	0.10874673
238	0x3e289488	0.1646291
239	0xbd1e2ead	-0.038618732
240	0x3e5cfb94	0.21580344
241	0x3b2cd7b4	0.0026373686
242	0xbe8658ab	-0.26239523
243	0xbe328a27	-0.17435513
244	0x3e20e5fc	0.15712732
245	0x3e423cfa	0.18968573
246	0x3e10379d	0.14083715
247	0x3e352fc8	0.17694008
248	0x3e4a54f1	0.19758965
249	0xbdc805f4	-0.097667605
250	0x3e1502c4	0.14551836
251	0xbdb5c5fb	-0.088756524
252	0xbe1bc129	-0.15210404
253	0xbc4ba353	-0.012429076
254	0xbe18e1fb	-0.14929955
255	0x3c93255a	0.017962147

static_encoder.conv.bias f4 [128]
0	0xbed71372	-0.42007023
1	0xbe8cd9ee	-0.27510017
2	0x3f2cf441	0.675602
3	0x3d637da3	0.05553974
4	0xbf35e111	-0.7104655
5	0x3eb439b3	0.3520027
6	0xbecfd10d	-0.4058918
7	0xbf220233	-0.63284606
8	0x3e957759	0.29192618
9	0x3e0bb023	0.1364141
10	0xbf079dc3	-0.529751
11	0x3f0be89a	0.54651797
12	0x3ebf1474	0.37320292
13	0xbf0fe6ff	-0.5621185
14	0x3ede0284	0.43361294
15	0x3eda29bf	0.42609975
16	0x3cb83f0c	0.022491
17	0xbf1c6220	-0.61087227
18	0xbf323cf9	-0.69624287
19	0x3e0e381f	0.13888596
20	0xbd54ac8f	-0.051922377
21	0x3e9f5adc	0.31124008
22	0xbea4679e	-0.32110304
23	0x3c0e5280	0.008686662
24	0xbbb2cbeb	-0.005456438
25	0xbf2e8aab	-0.6818034
26	0x3ee97d3a	0.45603353
27	0x3e035fd0	0.12829518
28	0xbee81beb	-0.453338
29	0x3e6125d5	0.21987088
30	0x3e19ff82	0.15038875
31	0x3d5fc2a0	0.05462897
32	0x3d4c2edd	0.04984938
33	0x3f2cb49f	0.67463106
34	0x3ccdab2c	0.025106035
35	0x3f0fdc54	0.5619557
36	0xbebe12a6	-0.37123603
37	0x3f184a19	0.59488064
38	0x3f0affe3	0.542967
39	0xbf248dee	-0.6427907
40	0xbeb1cd39	-0.34726885
41	0xbee02944	-0.43781483
42	0xbf065dbe	-0.5248679
43	0x3f090c58	0.5353446
44	0x3d4884e8	0.048954874
45	0x3f18a710	0.5962992
46	0x3ebbcd7e	0.36680216
47	0x3ed1f4fb	0.41007218
48	0xbf2f7931	-0.685443
49	0x3e5dcb67	0.21659623
50	0xbe7e8e77	-0.24859034
51	0x3eb671f5	0.35633817
52	0x3f36617f	0.7124252
53	0xbeb5f535	-0.3553864
54	0x3ea186a6	0.3154804
55	0x3ef5c26d	0.47999898
56	0x3ed61a93	0.4181715
57	0xbeb4a51b	-0.35282215
58	0x3f1477ce	0.5799531
59	0x3f1becbb	0.609081
60	0x3f03bc56	0.5145925
61	0x3de63a83	0.11241629
62	0x3d7d3d9c	0.061826333
63	0xbe9ef275	-0.31044355
64	0xbe376895	-0.17910989
65	0xbed5059a	-0.41605836
66	0x3ed7592e	0.42060226
67	0xbed50603	-0.4160615
68	0x3e70bd47	0.23509704
69	0xbed81d79	-0.42209986
70	0xbde9e1d6	-0.11420028
71	0x3f17f538	0.5935855
72	0x3eeebe3c	0.46629512
73	0x3d6f2564	0.058385268
74	0x3eecc7b4	0.4624611
75	0x3e416cd6	0.18889174
76	0x3e073050	0.13202024
77	0x3eff76d0	0.49895334
78	0x3ed70283	0.41994104
79	0xbf0371cd	-0.5134552
80	0xbf1470a1	-0.5798436
81	0xbf324578	-0.6963725
82	0xbf3001e1	-0.68752867
83	0x3ea7f037	0.32800457
84	0xbef27400	-0.47354126
85	0xbf266c2a	-0.65008795
86	0xbee0ece5	-0.43930736
87	0x3f1a0d8f	0.6017694
88	0x3e0742d7	0.13209091
89	0x3ef81ee4	0.48461068
90	0x3eef9458	0.46792865
91	0xbed0f6f8	-0.40813422
92	0x3ed0e30f	0.40798232
93	0x3f240a01	0.64077765
94	0x3f0009ff	0.5001525
95	0xbd938856	-0.072037384
96	0xbe7c928a	-0.24665275
97	0xbebcdf7d	-0.36889258
98	0xbe6f6750	-0.23379254
99	0xbe740cd6	-0.23833022
100	0xbed2bc61	-0.41159347
101	0x3e56c10a	0.20972076
102	0xbf270931	-0.652484
103	0xbf085144	-0.53249
104	0xbf31a242	-0.6938821
105	0xbeed623e	-0.46364015
106	0x3ebcbe8b	0.36864123
107	0x3f1debcf	0.6168794
108	0xbe3156f5	-0.17318328
109	0xbf36d26e	-0.7141484
110	0x3ed0b1b9	0.40760592
111	0xbf03991b	-0.51405495
112	0x3f32fb6f	0.6991491
113	0x3f140cb9	0.57831913
114	0x3e7b80dc	0.24560875
115	0x3ef966b0	0.48711157
116	0xbea698b4	-0.32538378
117	0x3dcd256a	0.10016902
118	0xbe0ef069	-0.13958897
119	0xbee23c58	-0.44186664
120	0xbdf1ef38	-0.118132055
121	0x3d2c1e13	0.04202087
122	0x3d927f6b	0.07153209
123	0xbdd226a3	-0.102612756
124	0x3e8ae6d9	0.27129248
125	0x3d93367a	0.07188125
126	0xbe83606c	-0.25659502
127	0x3dd5f464	0.104470044

dynamic_encoder.conv.weight f4 [128, 2, 1]
0	0x3e02582b	0.12728946
1	0x3e8d01d8	0.2754047
2	0x3d8b6a2d	0.06807361
3	0x3e3cf432	0.18452528
4	0xbe0d1339	-0.13776864
5	0xbe98fed1	-0.2988191
6	0xbe01a4e7	-0.12660562
7	0x3e98a8ca	0.29816276
8	0xbdbc1bdd	-0.09185002
9	0xbea48241	-0.32130626
10	0x3e1c8b82	0.15287593
11	0x3e0ea2b3	0.13929252
12	0x3da8f35d	0.08249543
13	0xbe352dc4	-0.1769324
14	0x3dec23d8	0.11530274
15	0xbe1bc5e6	-0.15212211
16	0x3d2af67e	0.04173898
17	0xbe9d4442	-0.3071614
18	0x3de1a840	0.11018419
19	0x3e0658c0	0.13119793
20	0xbd57d9cd	-0.052697945
21	0x3e779f30	0.24181819
22	0x3dcff226	0.10153608
23	0xbea561fb	-0.32301316
24	0x3dcf6857	0.10127323
25	0xbdfa61c4	-0.122256786
26	0x3e156510	0.14589334
27	0xbe9a0eb6	-0.3008935
28	0x3cdcd3e3	0.026956504
29	0x3e83e65e	0.25761694
30	0x3deab9cb	0.114612184
31	0x3e9be0f6	0.3044507
32	0xbd7d3d2c	-0.061825916
33	0x3e7f2f9b	0.24920504
34	0x3ba86f00	0.0051401854
35	0xbe9e373f	-0.30901524
36	0xbd79eeaa	-0.061018623
37	0x3ea06301	0.31325534
38	0xbd39e95b	-0.04538856
39	0x3e828484	0.25491726
40	0x3e42552d	0.18977804
41	0x3e97ef5b	0.296748
42	0xbd9a94fe	-0.07547949
43	0x3e197ade	0.14988276
44	0xbe34d72a	-0.17660204
45	0x3e663703	0.22481923
46	0x3dea163e	0.114300236
47	0x3e0cf204	0.13764197
48	0xbd790643	-0.060796987
49	0x3e6e9852	0.23300293
50	0x3d661a93	0.056177687
51	0x3e727c8d	0.23680325
52	0x3d37010e	0.04467874
53	0xbe93fb42	-0.28902632
54	0xbe1958d8	-0.14975297
55	0x3ea49607	0.32145712
56	0x3e317cea	0.17332807
57	0xbe2488a3	-0.16067748
58	0xbe4fec1c	-0.20304912
59	0xbe9d0f40	-0.30675697
60	0xbd328d34	-0.043591693
61	0x3eabe1c7	0.33570692
62	0xbe2b1ce0	-0.16710234
63	0xbe06de9c	-0.13170856
64	0xbd88efb4	-0.06686345
65	0xbe766f07	-0.24065791
66	0x3d3091ea	0.043107904
67	0x3e474571	0.19460084
68	0x3e3770c6	0.17914113
69	0xbe599adc	-0.2125048
70	0xbdf94536	-0.12171404
71	0x3e7b39fd	0.2453384
72	0xbda350a4	-0.07974365
73	0x3e975e4b	0.29564127
74	0xbe08a8a5	-0.13345583
75	0x3eab0fd4	0.33410513
76	0x3d9e4aea	0.077291325
77	0x3e36fdce	0.17870256
78	0x3db54954	0.08851877
79	0x3e893feb	0.26806578
80	0xbe3abf57	-0.18237053
81	0x3e8e2d38	0.27768874
82	0xbcb1aedd	-0.021689827
83	0xbe802eba	-0.2503565
84	0x3ddc0877	0.10743802
85	0xbe927b98	-0.2860992
86	0xbc8f3af8	-0.017484173
87	0x3e3ca6b2	0.18422964
88	0x3c15b8ac	0.0091382675
89	0x3e7b8c33	0.245652
90	0x3e51671d	0.20449491
91	0x3e629cda	0.22130147
92	0x3d18853d	0.03723644
93	0x3e2cf99e	0.16892096
94	0xbe52166a	-0.20516363
95	0x3e23af34	0.15984803
96	0x3e30e212	0.17273739
97	0xbdfb3aba	-0.122670606
98	0x3e2a3141	0.16620351
99	0x3e99e130	0.30054617
100	0xbe491d7f	-0.19640158
101	0x3e595245	0.2122279
102	0xbe47003c	-0.19433683
103	0x3ea7ebe0	0.32797146
104	0x3cc0bf4b	0.023528716
105	0x3e70b2bc	0.23505682
106	0xbca69e3d	-0.020339126
107	0x3e1108c5	0.14163502
108	0xbe51dbee	-0.20494053
109	0xbe883c24	-0.26608384
110	0xbcff04dd	-0.031130249
111	0xbe238f01	-0.1597252
112	0xbe11994a	-0.14218631
113	0xbea30b5f	-0.31844613
114	0x3e4109cc	0.18851393
115	0x3e0afaee	0.13572285
116	0xbe5cf807	-0.2157899
117	0xbe8188b7	-0.25299618
118	0x3e382323	0.17982154
119	0xbdf729ca	-0.120685175
120	0x3e0892ae	0.13337204
121	0xbe2a64d6	-0.16640028
122	0x3e05dac7	0.13071738
123	0xbe072c95	-0.132006
124	0xbe2e68c6	-0.17032155
125	0x3e94a6b5	0.29033437
126	0xbcf43748	-0.029811516
127	0xbe878658	-0.26469684
128	0xbe53b0e5	-0.20672949
129	0xbe798fba	-0.24371234
130	0xbe4bea88	-0.19913685
131	0xbea94363	-0.33059224
132	0x3dc1a9ed	0.09456239
133	0x3ea5119e	0.32240003
134	0x3d81abf3	0.06331625
135	0x3e644b57	0.22294365
136	0xbdb415de	-0.08793233
137	0x3e4a2271	0.19739701
138	0x3e02bbcc	0.12766951
139	0x3ea1df04	0.3161546
140	0x3e43abdb	0.19108526
141	0x3e98367a	0.29729062
142	0x3d261703	0.04054929
143	0x3e8b45f2	0.27201802
144	0xbda225bf	-0.07917356
145	0xbe739db9	-0.23790635
146	0xbdc05d73	-0.09392824
147	0xbe8a8199	-0.27052
148	0xbe22842c	-0.15870732
149	0xbe87c82a	-0.265199
150	0x3d834d7f	0.064112656
151	0xbe5d76c7	-0.21627341
152	0xbe0cc521	-0.13747074
153	0x3e07a309	0.13245787
154	0xbe332405	-0.17494209
155	0x3e85d61f	0.26139924
156	0x3d2d3cda	0.04229436
157	0xbe9db966	-0.3080551
158	0x3e1551dd	0.1458201
159	0xbe92886c	-0.28619707
160	0x3e179674	0.14803487
161	0xbe230edc	-0.15923637
162	0xbe1dd318	-0.15412557
163	0xbe89055d	-0.26761904
164	0x3e0c43eb	0.13697784
165	0x3e9ef897	0.31049034
166	0xbe101dae	-0.14073822
167	0xbe98411c	-0.29737175
168	0x3a673660	0.0008820053
169	0xbe991c7e	-0.2990455
170	0xbb02ac94	-0.001993929
171	0xbe961877	-0.2931554
172	0x3e196a0d	0.14981861
173	0x3e1d6523	0.15370612
174	0xbe0a409d	-0.1350121
175	0x3e40e154	0.18835956
176	0xbe380fb1	-0.17974736
177	0x3e299474	0.16560537
178	0x3e4a46ba	0.19753543
179	0xbe598e7a	-0.21245757
180	0x3e193f21	0.14965488
181	0x3e105db8	0.14098251
182	0x3cdc8474	0.026918627
183	0x3e8bb59a	0.27286988
184	0x3c6b55e0	0.014363736
185	0xbe790c33	-0.2432106
186	0xbde63608	-0.112407744
187	0x3eaab679	0.3334234
188	0x3e379639	0.17928399
189	0x3e8392f6	0.2569806
190	0x3d2d366e	0.042288236
191	0xbe8af7e8	-0.27142262
192	0x3c808f4f	0.015693335
193	0xbe7ab580	-0.244833
194	0x3e611d8a	0.21983925
195	0x3e66abeb	0.22526519
196	0x3e14fe27	0.14550076
197	0x3eac177b	0.33611664
198	0x3c87141a	0.016489077
199	0xbe16767e	-0.14693639
200	0xbe0ccd18	-0.13750112
201	0xbe4ade2a	-0.19811311
202	0xbe082c6a	-0.13298193
203	0xbe73df56	-0.23815665
204	0xbe04e35b	-0.12977354
205	0x3e886c56	0.26645154
206	0x3dcc67ca	0.09980734
207	0x3e13604c	0.14392203
208	0x3e483836	0.19552693
209	0x3e607e6a	0.21923223
210	0x3e160ea5	0.14654024
211	0x3e32acac	0.17448682
212	0x3e31d090	0.17364717
213	0xbe8e7678	-0.2782476
214	0xbe4eb888	-0.2018758
215	0x3e8c71f4	0.2743069
216	0x3e46dd68	0.19420397
217	0x3e1669e8	0.14688838
218	0xbd4538b0	-0.048149765
219	0x3e8cb68f	0.2748303
220	0x3e36b64b	0.17842977
221	0xbe64844b	-0.22316091
222	0xbe121528	-0.14265883
223	0x3e5db1ad	0.21649809
224	0x3daf4b85	0.08559326
225	0xbe4bda20	-0.19907427
226	0xbe012f99	-0.12615813
227	0xbe0e1f16	-0.13879046
228	0x3dedae39	0.11605496
229	0xbe487e5c	-0.19579452
230	0xbc4036b6	-0.011731794
231	0x3e161d75	0.14659674
232	0xbe0c6a05	-0.13712318
233	0x3e469b86	0.19395265
234	0x3db4a92f	0.08821332
235	0xbe9d20b5	-0.30689016
236	0xbe5f8f01	-0.21831895
237	0xbe94cd98	-0.29063106
238	0x3df72ac0	0.12068701
239	0xbe085a91	-0.13315798
240	0xbd023cf1	-0.0317964
241	0x3e050bba	0.12992755
242	0x3d7e33dd	0.06206118
243	0x3e3bda8e	0.18345091
244	0xbe12acac	-0.14323682
245	0xbea642bc	-0.3247279
246	0x3d8546bd	0.06507633
247	0xbe9a7229	-0.30165222
248	0xbde50205	-0.11182026
249	0xbe88ad89	-0.26694897
250	0xbe25958f	-0.16170333
251	0xbe3d81bb	-0.1850652
252	0xbd293a79	-0.04131553
253	0xbe9b2071	-0.30298188
254	0x3d85029f	0.064946406
255	0xbe6874d9	-0.22700824

dynamic_encoder.conv.bias f4 [128]
0	0x3ede3189	0.43397167
1	0x3ea32b83	0.31869134
2	0x3f267140	0.65016556
3	0x3e0b6f0d	0.13616581
4	0xbe2c0118	-0.16797292
5	0x3e8a8735	0.2705628
6	0x3ed37db6	0.41306847
7	0xbef366dc	-0.47539413
8	0x3d04999f	0.032373067
9	0xbe117535	-0.14204867
10	0xbe649919	-0.22324027
11	0xbdda3618	-0.10654849
12	0x3f25a600	0.6470642
13	0x3e6d842c	0.23194951
14	0x3e471603	0.1944199
15	0x3e188f51	0.14898421
16	0x3f26ca05	0.6515201
17	0x3e3d3c20	0.18479967
18	0xbdeaf7d2	-0.11473049
19	0xbd87e21b	-0.06634923
20	0x3e41b628	0.18917143
21	0x3e791e38	0.24327934
22	0x3efe3df4	0.4965664
23	0x3dc90b9e	0.09816669
24	0xbe948db8	-0.29014373
25	0x3f1d7c58	0.6151786
26	0xbe7398e3	-0.2378879
27	0x3e6c2f1c	0.23064846
28	0x3f21ebcf	0.6325044
29	0xbebd9946	-0.37031
30	0x3e9ae85d	0.30255404
31	0x3ef7df86	0.48412722
32	0x3f0321bf	0.5122337
33	0x3e1f0bc6	0.15531835
34	0xbee545f4	-0.44779932
35	0xbecc7a1d	-0.39936915
36	0xbebdf3f5	-0.37100187
37	0xbe8bb894	-0.2728926
38	0xbda59f58	-0.08087033
39	0xbf0509a2	-0.51967824
40	0x3f07e433	0.5308258
41	0x3e975eb1	0.2956443
42	0x3f0f76f7	0.560409
43	0xbdcdb226	-0.10043745
44	0xbe1ef18e	-0.15521833
45	0xbe3712d2	-0.17878273
46	0xbebede3e	-0.37278932
47	0x3e1c9913	0.15292768
48	0x3f1556c4	0.5833552
49	0xbda95616	-0.08268373
50	0xbd908feb	-0.070587
51	0x3ea769f0	0.3269801
52	0x3e87956d	0.2648119
53	0x3eed177a	0.46306974
54	0xbea3fc3d	-0.3202838
55	0x3edbeb48	0.42952943
56	0x3f175178	0.59108686
57	0xbf21c1b4	-0.6318619
58	0xbe9467cb	-0.28985438
59	0x3e8620c7	0.26196882
60	0x3ede524b	0.4342216
61	0x3eacbf7e	0.33739847
62	0xbe5e10e7	-0.21686135
63	0x3e026d71	0.12737061
64	0xbed07bc2	-0.4071942
65	0xbd756ba4	-0.059917107
66	0xbf119662	-0.5687009
67	0xbf106486	-0.56403387
68	0x3ead259c	0.33817756
69	0x3ed9bd00	0.42527008
70	0x3f3661d4	0.71243024
71	0xbe6cf3f9	-0.23139943
72	0x3f18ffc7	0.59765285
73	0xbef06d53	-0.46958408
74	0x3d5ce804	0.053932205
75	0x3f23a2d4	0.6392033
76	0x3f014218	0.50491476
77	0x3eb80221	0.35939124
78	0xbe597cee	-0.21239063
79	0xbe974828	-0.29547238
80	0xbd7ac7b0	-0.061225593
81	0x3ea96a05	0.330887
82	0xbd7bae4d	-0.061445523
83	0xbf2f31c5	-0.6843532
84	0xbebf48bb	-0.37360176
85	0x3ecbc05e	0.39795202
86	0xbddc0dc4	-0.10744813
87	0xbe6982d0	-0.22803807
88	0x3dec8239	0.115482755
89	0xbf2f4baf	-0.6847486
90	0xbcddeecb	-0.027091404
91	0xbd4e492e	-0.05036276
92	0xbe68ad85	-0.22722442
93	0x3f301e26	0.68796
94	0xbe22fe47	-0.15917312
95	0xbd53acb2	-0.051678367
96	0xbed10caa	-0.40829974
97	0xbf0843fc	-0.53228736
98	0x3f05b027	0.5222191
99	0xbf2be62c	-0.6714809
100	0xbf307a9c	-0.6893709
101	0x3d31bd66	0.043393515
102	0xbf1bd356	-0.6086935
103	0x3f0e4ef9	0.5558925
104	0x3e99fa6b	0.30073866
105	0xbf03730e	-0.51347435
106	0xbdeed727	-0.11662131
107	0x3ee8a390	0.45437288
108	0x3ecaf1c2	0.39637572
109	0x3ead8c4c	0.338961
110	0xbec8ab5f	-0.39193246
111	0xbe5e25f2	-0.21694162
112	0x3e5af207	0.21381389
113	0x3e08fa92	0.13376835
114	0xbeec6f54	-0.46178687
115	0xbd23072d	-0.039801765
116	0xbe71a15b	-0.23596708
117	0x3df5d4e9	0.120035
118	0xbe933380	-0.2875023
119	0xbe2a417c	-0.16626543
120	0x3da57110	0.080782056
121	0xbea72cd3	-0.32651386
122	0x3f0144a5	0.5049537
123	0xbf0e70e7	-0.55641025
124	0x3f0d07eb	0.55090207
125	0x3ea3d901	0.32001498
126	0xbeb397ce	-0.35076755
127	0xbed74bfa	-0.42050153

decoder.conv.weight f4 [128, 2, 1]
0	0xbe447b8e	-0.19187757
1	0xbdf69949	-0.120409556
2	0x3de467a6	0.11152582
3	0xbd850fe8	-0.064971745
4	0x3d5b2675	0.053503472
5	0xbdb20679	-0.08692641
6	0xbe0b869c	-0.13625568
7	0xbb1b378e	-0.0023684236
8	0x3e363a3b	0.1779565
9	0x3e4c5d61	0.19957496
10	0xbdf2bd48	-0.11852509
11	0xbdc38bf0	-0.09548175
12	0x3e19b3ad	0.15009947
13	0x3d45df52	0.048308678
14	0xbb5a0908	-0.0033269543
15	0x3e4ceb65	0.20011671
16	0x3d8bdb00	0.0682888
17	0x3e3bbd91	0.18334033
18	0xbe2aef91	-0.1669295
19	0x3e0e0ff7	0.13873278
20	0x3e56ad8a	0.20964637
21	0x3e3fd167	0.18732224
22	0x3d34483d	0.044014204
23	0x3e4f3b0a	0.20237365
24	0xbd49efe6	-0.04930105
25	0x3ce2687e	0.027637716
26	0xbcb913bb	-0.022592416
27	0xbd448481	-0.047977928
28	0x3e2c8ff6	0.16851792
29	0xbddd930a	-0.10819061
30	0xbe2ef34f	-0.17085002
31	0xbdf1e9e4	-0.11812189
32	0xbd4b9ec2	-0.04971195
33	0x3dc44ef5	0.09585372
34	0x3db97ff2	0.09057607
35	0xbe38428a	-0.17994133
36	0xbd725421	-0.059162263
37	0x3e26e292	0.16297367
38	0x3e6c4396	0.23072657
39	0x3d2b6b3e	0.04185032
40	0x3e481f35	0.19543155
41	0xbe11a4e0	-0.14223051
42	0xbe256f9f	-0.16155861
43	0x3e05f47b	0.13081543
44	0xbe0b87df	-0.1362605
45	0xbe3eac71	-0.18620469
46	0x3d03d555	0.03218587
47	0x3df6f32c	0.120581
48	0x3daa14d8	0.08304757
49	0xbe21ce8e	-0.1580145
50	0xbe41885b	-0.18899672
51	0xbe1d4c14	-0.15361053
52	0xbc9c87d6	-0.01910774
53	0x3d220f4a	0.039565362
54	0x3ddd0cbc	0.107934445
55	0x3e04c9c7	0.12967597
56	0xbd8439aa	-0.06456311
57	0xbd4945c9	-0.049138818
58	0x3e128095	0.14306863
59	0xbccd5ecf	-0.025069622
60	0xbdff6339	-0.12470097
61	0x3d5eab97	0.05436286
62	0xbdf0539b	-0.117346965
63	0xbe0b9413	-0.13630705
64	0xbe3a6aba	-0.18204775
65	0x3e60a045	0.21936138
66	0x3cfd9236	0.030953508
67	0x3d7f9b5e	0.06240403
68	0x3c60824f	0.013702943
69	0x3c2f48ad	0.01069848
70	0x3baf7b97	0.005355309
71	0xbe4d17d1	-0.20028616
72	0x3d14fdc4	0.036374822
73	0x3e54d346	0.2078372
74	0x3da01d2e	0.078180656
75	0xbe242821	-0.16030933
76	0x3e39075a	0.1806921
77	0x3e05a458	0.13050973
78	0x3d82518f	0.06363212
79	0x3db6479d	0.08900378
80	0x3e1c04a0	0.1523614
81	0x3deca87d	0.11555574
82	0xbd6861d8	-0.056733936
83	0x3dad7c6c	0.08470997
84	0x3d219a20	0.039453626
85	0x3d35524a	0.04426793
86	0xbd203708	-0.039114982
87	0x3d5b1915	0.053490717
88	0x3d928c8b	0.07155713
89	0xbdaceb23	-0.08443286
90	0xbdb3e5d4	-0.087840706
91	0xbe2e04b8	-0.16993988
92	0x3d0e8a28	0.034799725
93	0xbe015f3c	-0.12633985
94	0x3d9af911	0.07567037
95	0x3e17e802	0.14834598
96	0xbda6e704	-0.081495315
97	0x3e4ca1cf	0.199836
98	0x3e00a5ad	0.125632
99	0xbaadcf16	-0.0013260569
100	0x3e6eb652	0.23311737
101	0x3e3bece8	0.18352091
102	0x3d3cf5ed	0.04613297
103	0x3c0805ab	0.008302133
104	0x3d8b0b4f	0.06789266
105	0xbdf0b31a	-0.11752911
106	0x3e0ae1b8	0.13562667
107	0x3e1b8047	0.15185653
108	0x3ca9f263	0.020745462
109	0x3d022a29	0.03177849
110	0xbe2592ce	-0.16169283
111	0x3cdc852b	0.026918968
112	0xbdd107b5	-0.10206548
113	0xbd0aeb20	-0.03391564
114	0x3d95c816	0.07313554
115	0x3dee1744	0.11625531
116	0x3decae79	0.115567155
117	0x3dc24e1f	0.09487557
118	0x3de49ceb	0.11162742
119	0xbe3ab876	-0.18234429
120	0x3b120850	0.0022282787
121	0x3e0feea3	0.14055876
122	0x3e36d17b	0.17853348
123	0x3d8ca21f	0.0686686
124	0xbe5cf7cb	-0.215789
125	0x3e36abcc	0.17838973
126	0xbdfaf39d	-0.12253497
127	0xbe4c9fab	-0.19982783
128	0xbd0d0793	-0.03443105
129	0xbb5ed267	-0.0033999921
130	0xbe5dff5f	-0.21679448
131	0xbd6a5418	-0.057209104
132	0xbe30c4a7	-0.17262517
133	0x3e3c91cb	0.1841499
134	0x3d790ed7	0.060805168
135	0x3e34a463	0.17640834
136	0xbdcdebe3	-0.100547574
137	0x3d82c9f4	0.06386176
138	0xbbd41173	-0.0064718067
139	0x3e29b7fa	0.16574088
140	0xbde58334	-0.11206666
141	0x3c61231f	0.013741284
142	0x3df761cb	0.120791994
143	0x3e2f9b14	0.17149001
144	0xbe12cd1b	-0.14336054
145	0x3bb78665	0.005600738
146	0x3d04146b	0.032246035
147	0xbdd8e793	-0.10591044
148	0xbe606668	-0.21914065
149	0xbd170753	-0.03687222
150	0xbe0eaa0b	-0.13932054
151	0x3e31105a	0.17291394
152	0xbcc27965	-0.023739526
153	0x3dda1468	0.106484234
154	0x3d105f07	0.035246875
155	0xbdda0fe4	-0.10647562
156	0x3def8e51	0.116970666
157	0xba2f1c35	-0.00066799234
158	0xbd9aa598	-0.07551116
159	0x3d202e59	0.0391067
160	0x3df85741	0.12126017
161	0xbd0858ae	-0.033287697
162	0x3d572ffc	0.052535996
163	0xbe3ac02e	-0.18237373
164	0x3b8acf52	0.0042361403
165	0x3d01615f	0.031587
166	0x3e503eb0	0.20336413
167	0x3e44944c	0.19197196
168	0xbddd9f2e	-0.10821377
169	0x3e0bab27	0.13639508
170	0xbcff7214	-0.031182326
171	0x3e04e37f	0.12977408
172	0x3e0c09ab	0.13675563
173	0xbc6fa5be	-0.014626918
174	0x3decf7b9	0.11570687
175	0x3e2645d1	0.1623757
176	0x3e1ce3a0	0.15321207
177	0x3a3b1bf8	0.00071376516
178	0xbe3ea802	-0.18618777
179	0xbdc13ebe	-0.09435795
180	0xbe2eeaad	-0.17081709
181	0xbe0167ed	-0.12637301
182	0xbd8d3eaf	-0.068967216
183	0x3dd70de7	0.105006985
184	0x3d0643a8	0.032779366
185	0x3b3c2b14	0.00287122
186	0x3df69fe9	0.12042219
187	0x3e2651ad	0.16242094
188	0xbe0bc88e	-0.13650724
189	0x3df8e7b5	0.121535696
190	0xbe42b7ed	-0.19015475
191	0xbdebea2f	-0.11519276
192	0xbdb464c1	-0.0880828
193	0x3ddf7473	0.10910883
194	0x3c9f3b99	0.019437598
195	0xbe1bb1fb	-0.15204613
196	0xbce6983d	-0.028148765
197	0x3e45993b	0.19296734
198	0x3e3a0726	0.1816679
199	0x3df64fec	0.12026963
200	0xbe310821	-0.17288257
201	0x3d634d34	0.05549355
202	0xbca6e1d7	-0.02037136
203	0x3d9af687	0.075665526
204	0xbe07d34f	-0.13264202
205	0x3d2313a2	0.039813645
206	0xbc12ccb8	-0.008959942
207	0xbd66b6cd	-0.056326676
208	0x3cccf10d	0.025017286
209	0x3db72a10	0.0894357
210	0x3b87968c	0.0041378196
211	0x3d7383aa	0.059451737
212	0xbe0ee01c	-0.13952678
213	0x3d72adf4	0.059247926
214	0xbd48dae0	-0.04903686
215	0x3e118149	0.14209475
216	0xbdd6713f	-0.10470819
217	0x3dabfff4	0.083984286
218	0x3e16d4d8	0.14729631
219	0x3c33daf0	0.010977492
220	0xbe39e62a	-0.18154207
221	0x3cbd2ea4	0.023093529
222	0x3e2c7a41	0.16843511
223	0x3e135179	0.14386548
224	0xbb31c783	-0.0027126975
225	0x3ce59b53	0.028028166
226	0x3e3be6af	0.18349718
227	0xbdfd8a81	-0.12379933
228	0xbb6501c8	-0.0034943689
229	0xbe3ced57	-0.18449913
230	0xbd6132cc	-0.054980084
231	0x3d35a898	0.044350237
232	0x3e0159e9	0.12631954
233	0xbd27c4ab	-0.04095904
234	0xbe1a3b8e	-0.15061781
235	0xbe3444ac	-0.17604321
236	0x3e2286a7	0.15871678
237	0xbdc295dd	-0.095012404
238	0x3dee0a99	0.11623115
239	0xbe48a0b8	-0.1959256
240	0x3e208361	0.15675117
241	0xbd29da2c	-0.04146783
242	0x3e2e2364	0.17005688
243	0xbd7f7a24	-0.06237234
244	0x3e398fe9	0.18121304
245	0xbd7f32f0	-0.062304437
246	0xbdc66e7d	-0.09689043
247	0x3d072e4e	0.033003144
248	0x3e0ba5fd	0.13637538
249	0x3e34433c	0.17603773
250	0xbd553b8c	-0.05205874
251	0x3e22ce1b	0.15898935
252	0xbdf87506	-0.121316954
253	0xbe1b1270	-0.15143752
254	0x3dc7f7d5	0.09764067
255	0x3e553c0b	0.20823686

decoder.conv.bias f4 [128]
0	0xbe3fc0f3	-0.18725948
1	0x3d50475f	0.050849315
2	0x3f07c719	0.53038174
3	0xbdef7178	-0.11691564
4	0xbead0a46	-0.337969
5	0x3e0f61e3	0.14002185
6	0xbe71b4c0	-0.23604107
7	0x3d50f9dc	0.051019534
8	0x3e13706d	0.14398356
9	0x3ed4fb16	0.41597813
10	0xbf05efc0	-0.52318954
11	0x3f22a9d4	0.6354039
12	0xbef581c2	-0.4795056
13	0x3d9ba953	0.076006554
14	0x3e8c2497	0.27371666
15	0xbf0cbc64	-0.5497496
16	0x3e59a917	0.21255909
17	0x3f3121d6	0.69192255
18	0xbea0d099	-0.31409147
19	0xbe804ff2	-0.25060993
20	0xbf2c71ab	-0.67360944
21	0xbe811cd6	-0.25217313
22	0x3ed7f1c8	0.42176652
23	0x3e037044	0.12835795
24	0x3f22f8b6	0.6366075
25	0xbec72c94	-0.38901198
26	0xbf1cac46	-0.6120037
27	0xbe539b76	-0.20664772
28	0xbe81d1cc	-0.25355375
29	0x3e8e87c0	0.27837944
30	0x3f1a0ef8	0.6017909
31	0x3b39e7fa	0.0028367029
32	0xbe35df59	-0.17760982
33	0x3e83e4b6	0.2576043
34	0x3df3b6a0	0.11900067
35	0x3f0102c4	0.50394845
36	0xbee49664	-0.4464599
37	0x3f19d7d9	0.6009498
38	0x3e725e73	0.23668842
39	0x3e7e0ac8	0.248088
40	0x3db3539c	0.087561816
41	0x3ee2aede	0.44274038
42	0xbe0929f9	-0.13394918
43	0xbef5e3c9	-0.4802535
44	0xbd2cc1f2	-0.04217715
45	0x3f02658b	0.5093619
46	0xbe806c5b	-0.2508267
47	0xbdfe1662	-0.12406613
48	0x3e131485	0.14363296
49	0x3f0c9ea8	0.5492959
50	0xbe358396	-0.17725977
51	0x3e4c7ee3	0.19970278
52	0x3ed75502	0.42057043
53	0xbc8e39b2	-0.017361496
54	0xbee7ba0d	-0.45259133
55	0xbf2dc423	-0.67877406
56	0xbe08d779	-0.13363446
57	0xbc125274	-0.008930791
58	0x3ee1a000	0.44067383
59	0xbe741ba8	-0.23838675
60	0xbf0f2b5a	-0.55925524
61	0xbe91b998	-0.2846191
62	0x3ef04f50	0.4693551
63	0xbe5e2cf5	-0.21696837
64	0x3e6f46d6	0.23366866
65	0x3efab8d5	0.4896914
66	0xbf0fe708	-0.562119
67	0x3f1ac90f	0.6046304
68	0xbf249384	-0.6428759
69	0x3f13dc40	0.5775795
70	0xbdd1f11f	-0.10251068
71	0xbeb2c167	-0.3491318
72	0xbf0c8717	-0.5489363
73	0xbeea2644	-0.4573232
74	0x3ecf7cc4	0.40524876
75	0x3edba61d	0.42900172
76	0x3da5f8e8	0.08104116
77	0x3da9a719	0.082838245
78	0xbdbd7a53	-0.09251847
79	0x3f1c1c26	0.6098045
80	0xbf0f1b34	-0.55900884
81	0x3e828d50	0.25498438
82	0xbec7a57d	-0.38993445
83	0xbe2a1e1e	-0.16613051
84	0x3eaa4fea	0.33264095
85	0xbee9b5af	-0.45646426
86	0x3ef07d63	0.46970662
87	0xbe71d991	-0.23618151
88	0xbee53272	-0.4476505
89	0x3f08bf4d	0.534169
90	0xbdf74111	-0.12072957
91	0x3e7660c2	0.24060348
92	0x3efc2199	0.49244383
93	0x3cbe06c5	0.023196587
94	0xbf119489	-0.5686727
95	0x3e21adfe	0.15789029
96	0xbe9dc7f2	-0.3081661
97	0x3f22b5cd	0.63558656
98	0xbf05a8ad	-0.52210504
99	0xbd890e62	-0.066921964
100	0x3de443c1	0.111457355
101	0x3f242b8e	0.6412896
102	0x3eed62c2	0.4636441
103	0x3ec8374f	0.39104697
104	0xbf1951b6	-0.59890306
105	0xbec1257f	-0.3772392
106	0x3e98a63a	0.2981432
107	0x3e9ab5a9	0.3021672
108	0xbcb2503e	-0.021766778
109	0x3f23b096	0.63941324
110	0xbe317c6d	-0.17332621
111	0xbd96299f	-0.07332157
112	0x3f1216d4	0.5706608
113	0x3f2ae4b3	0.6675522
114	0x3e92617e	0.28590006
115	0xbde63660	-0.1124084
116	0x3e23e98b	0.16007058
117	0xbf181c39	-0.59418064
118	0x3c9150bd	0.017738694
119	0x3e85d4c6	0.26138896
120	0x3e647853	0.22311525
121	0x3eef94e4	0.46793282
122	0xbf05f993	-0.52333945
123	0x3f19a540	0.60017776
124	0xbeef2c92	-0.46713692
125	0x3d108d3b	0.035290938
126	0xbef00ea7	-0.4688618
127	0xbe73bf86	-0.23803529

pointer.v f4 [1, 1, 128]
0	0xbde4324a	-0.111424044
1	0x3e197f96	0.14990076
2	0xbdcf9f84	-0.10137847
3	0xbe0a1e66	-0.13488159
4	0xbe1b2ee2	-0.15154603
5	0x3e32851b	0.17433588
6	0x3cf52767	0.029926015
7	0x3db79382	0.08963682
8	0x3df62756	0.120192215
9	0x3dd8e4dc	0.105905265
10	0x3db7c5d6	0.08973281
11	0x3d8d713a	0.06906362
12	0x3d907f81	0.070555694
13	0xbe23ca99	-0.15995254
14	0x3dbe235a	0.092840865
15	0xbde4777f	-0.111556046
16	0xbd90df1b	-0.07073804
17	0x3c10a0ae	0.0088273715
18	0x3de3e9ef	0.11128604
19	0xbdc54933	-0.09633102
20	0xbdbe3b33	-0.09288635
21	0x3b0b7c26	0.0021283715
22	0x3d301edc	0.04299818
23	0xbcad6b7c	-0.021169417
24	0xbdd0543d	-0.10172317
25	0xbd990644	-0.07471898
26	0xbdbffada	-0.09374018
27	0x3dfa246d	0.12213979
28	0x3e159753	0.14608507
29	0x3ded47d7	0.11585968
30	0xbdcea547	-0.10090118
31	0xbe12645b	-0.14296095
32	0xbd8eabb3	-0.06966343
33	0x3d65e728	0.05612865
34	0xbde6b60b	-0.11265191
35	0x3d4300da	0.047608234
36	0x3e151157	0.14557396
37	0xbe08c68e	-0.13356993
38	0x3dc1846d	0.09449086
39	0xbb7f3e79	-0.0038947149
40	0x3d54a602	0.05191613
41	0x3d71909c	0.0589758
42	0x3d8e539c	0.06949541
43	0x3d696180	0.05697775
44	0x3d32cba0	0.043651223
45	0xbdbce81d	-0.092239596
46	0x3d9cbfd4	0.07653776
47	0x3d9f48dc	0.07777569
48	0x3d2eadb1	0.042646114
49	0xbe0625b9	-0.13100328
50	0xbe2f1022	-0.17095998
51	0xbe30e9cf	-0.17276691
52	0xbe0a72ed	-0.13520403
53	0xbc007a9f	-0.007841735
54	0xbdf92b27	-0.12166434
55	0xbe0ca15e	-0.13733432
56	0xbcae509f	-0.021278678
57	0xbcccd0d8	-0.025001928
58	0x3e0e8502	0.13917926
59	0x3de097c5	0.10966448
60	0xbdcfde4d	-0.101498224
61	0xbdc91b5d	-0.09819672
62	0x3de73511	0.112894185
63	0x3d273584	0.04082252
64	0xbdb9b180	-0.090670586
65	0xbd231019	-0.039810274
66	0x3d552993	0.0520416
67	0xbe10138b	-0.14069955
68	0xbe115b4b	-0.14194982
69	0x3d89e96b	0.06733974
70	0x3dddaf82	0.10824491
71	0x3db918b1	0.09037913
72	0x3ddcf41f	0.1078875
73	0xbd51ab94	-0.05118902
74	0xbe341630	-0.17586589
75	0xbce2bca8	-0.027677849
76	0x3d9a781a	0.07542439
77	0xbdb0ce24	-0.08633068
78	0xbe3005b2	-0.17189673
79	0xbcd7ea53	-0.026356852
80	0x3cfab4b7	0.03060375
81	0xbe0e0e33	-0.13872604
82	0xbe153289	-0.14570059
83	0x3d885901	0.06657601
84	0xbe2a4f4a	-0.16631809
85	0x3dcaa9ed	0.09895692
86	0xbd344dfe	-0.04401969
87	0xbd97095d	-0.07374833
88	0x3da80fe0	0.08206153
89	0x3e0799ec	0.1324231
90	0xbdb49e10	-0.088192105
91	0xbd7c0db3	-0.061536502
92	0xbdab0aa0	-0.08351636
93	0xbdb50229	-0.08838303
94	0x3d337fc4	0.04382302
95	0xbe14f5c2	-0.14546874
96	0x3e168f58	0.14703119
97	0xbdb88712	-0.090101376
98	0xbe0008b5	-0.12503321
99	0x3a78847a	0.000948019
100	0xbdf92c7b	-0.12166687
101	0x3cd6ac4c	0.026205204
102	0x3d983739	0.07432408
103	0xbd549158	-0.051896423
104	0xbe1316c9	-0.1436416
105	0xbe30867e	-0.17238805
106	0x3dbb5e1b	0.091488086
107	0xba44afd8	-0.00075030094
108	0x3e08bd9d	0.13353582
109	0x3df7c381	0.12097836
110	0x3dee112d	0.1162437
111	0x3df94212	0.12170805
112	0x3ddf8aea	0.10915168
113	0x3d3c52a7	0.04597726
114	0x3d75cc24	0.060009137
115	0x3e1786b0	0.14797473
116	0xbdf786a1	-0.12086225
117	0xbe0dc72d	-0.13845511
118	0xbe29f5b9	-0.16597642
119	0xbdb940ce	-0.09045564
120	0xbe08d0a8	-0.13360846
121	0xbe147aaf	-0.14499925
122	0xbcb15aa7	-0.021649672
123	0xbcc7930d	-0.024362111
124	0xbd8b9e91	-0.068173535
125	0x3db0a4f6	0.08625214
126	0xbde9ada6	-0.11410074
127	0xbe126e71	-0.14299943

pointer.W f4 [1, 128, 256]
0	0xba9c9473	-0.0011946097
1	0xbc4d1967	-0.012518263
2	0xbbffc09a	-0.0078049423
3	0xbb5c8d03	-0.0033653385
4	0xbb92f85c	-0.004485173
5	0x3c0a9081	0.008457304
6	0xbb6df54f	-0.0036309545
7	0xb9bff1ca	-0.00036610506
8	0x3bdac05e	0.006675764
9	0xbc95c86b	-0.018284043
10	0xbc0fe536	-0.0087826755
11	0x3c8fc604	0.017550476
12	0x3c7e6c47	0.015528745
13	0xbb15a551	-0.0022834132
14	0x3a13fd44	0.00056453445
15	0x3b82c745	0.00399104
16	0xbc19b316	-0.009381076
17	0xbbf9c042	-0.007621796
18	0xbc2a8998	-0.0104087815
19	0xbb8ec5db	-0.0043570823
20	0x3c525ff6	0.012840262
21	0x3bd55589	0.0065104407
22	0x3ad5de7e	0.0016316918
23	0x3c2ec09a	0.010666037
24	0x3c368243	0.011139455
25	0x3bd41e7e	0.0064733615
26	0xbb2cfeac	-0.0026396913
27	0xbbf4cf10	-0.007470973
28	0xbc6189a8	-0.01376573
29	0x399e0573	0.00030140168
30	0x3c45351b	0.012036587
31	0xbb71e525	-0.0036910262
32	0xbc379fe6	-0.011207556
33	0xbbee8266	-0.0072787283
34	0xbbf984d9	-0.0076147136
35	0x3c4a29b1	0.012339042
36	0x3c0bc675	0.008531203
37	0x3c2f8fdf	0.010715454
38	0x3ba582e7	0.005051005
39	0x3c20bf89	0.009811291
40	0x3b434650	0.0029796548
41	0xb892679e	-6.981123e-05
42	0xbbd324f4	-0.006443614
43	0xbbd92ee5	-0.0066279047
44	0x3bc1a379	0.00590938
45	0x3b893750	0.004187502
46	0xbbb2ca61	-0.0054562544
47	0x3bc6e835	0.0060701617
48	0xbc64ec8e	-0.013972415
49	0xbbdc5f5a	-0.006725234
50	0x3c03e19b	0.008049394
51	0x3c29fdb5	0.01037543
52	0xbb5580f5	-0.0032578085
53	0xbb7e2dab	-0.0038784544
54	0x3c3b34c4	0.0114261545
55	0xbc4072f3	-0.011746156
56	0xbacd3a93	-0.0015657715
57	0x3bb630f4	0.005560035
58	0xbbabc3e2	-0.005241857
59	0xbc628ce7	-0.013827539
60	0x3c6aea2b	0.014338057
61	0x3c44eac8	0.012018867
62	0x3c1a36bd	0.009412465
63	0xba5a2346	-0.0008321296
64	0x3b8b3a7f	0.0042489166
65	0xba88c986	-0.0010436035
66	0x3c776bd7	0.015101395
67	0xbaad587a	-0.0013225221
68	0xbc10a785	-0.008829002
69	0xbc3d71c9	-0.011562773
70	0xbc801177	-0.015633328
71	0xbbb87c7a	-0.005630073
72	0x3b8f8fcf	0.004381157
73	0x3c0f56b2	0.008748697
74	0x3b3ca000	0.002878189
75	0x3b870bd3	0.0041212826
76	0x3ab39f9c	0.0013704184
77	0x39585772	0.00020631941
78	0xbc45dcba	-0.012076551
79	0xbbdadac0	-0.006678909
80	0x3be99d62	0.007129357
81	0x3b32c7cc	0.0027279733
82	0xbba5aff8	-0.0050563775
83	0xbbba5b39	-0.005687144
84	0x3bf3a549	0.007435475
85	0xbc21afda	-0.009868586
86	0x3b6a8351	0.0035783837
87	0x3c041131	0.008060739
88	0x3af84097	0.0018940148
89	0x3c82118e	0.015877511
90	0xbc000b9c	-0.007815268
91	0xbb993169	-0.0046750796
92	0x3c2d75da	0.01058718
93	0xbbb82f50	-0.0056208745
94	0x3be02a45	0.0068409764
95	0x3b7e307c	0.0038786223
96	0x3c21903d	0.009861049
97	0xbc2f53ad	-0.010701102
98	0x3c2aa153	0.010414439
99	0xba288ad7	-0.000642938
100	0xbbbff950	-0.005858578
101	0xbb7cecf8	-0.0038593393
102	0x3b414fcf	0.0029497033
103	0xbc751cc4	-0.014960472
104	0x3b29f2e0	0.0025932118
105	0xbc1b45d2	-0.009477096
106	0xbc18acdb	-0.009318556
107	0xbc0df761	-0.008664937
108	0x3c280749	0.010255643
109	0xbc54ccb9	-0.012988263
110	0x3c30d94a	0.010793993
111	0x3bcb0b9d	0.006196453
112	0x3be81423	0.0070824786
113	0xbc164328	-0.009171285
114	0x3c0188a8	0.007906117
115	0xbc0804ad	-0.008301896
116	0x3c6525b5	0.013986041
117	0x3a98f360	0.0011669211
118	0x3bbf972e	0.0058468794
119	0x3be7c713	0.007073292
120	0x3c37da13	0.011221427
121	0xbbb63683	-0.0055606975
122	0xbc61305c	-0.01374444
123	0x3b85a2e3	0.0040782555
124	0xbc258b80	-0.01010406
125	0x3af05f55	0.0018338958
126	0xb9fa6b0f	-0.0004776348
127	0x3bcb441e	0.0062031886
128	0xbc3fd549	-0.011708566
129	0xbc4dbd48	-0.012557335
130	0x3d052b50	0.03251201
131	0xbdb003ff	-0.08594512
132	0xbb12ac16	-0.0022380403
133	0x3b86e1a7	0.0041162553
134	0xbcc04da4	-0.023474522
135	0x3b87c1a2	0.004142956
136	0x3c821da3	0.015883273
137	0x3cdbe355	0.026841799
138	0xbcd12b1f	-0.025533257
139	0x3b22382f	0.0024752726
140	0xbcdc0afa	-0.026860703
141	0xbc7a92bd	-0.015293774
142	0x3c801b14	0.015637912
143	0x3c6f93f9	0.014622682
144	0x3ccc14fd	0.024912352
145	0xbcd6a5d7	-0.026202125
146	0xbb955702	-0.0045574913
147	0xbcfcb1ba	-0.030846465
148	0xbd79f4f0	-0.061024606
149	0x3bcf0e40	0.0063188374
150	0xbc7ae798	-0.015314005
151	0xbd625695	-0.055258352
152	0x3d10aa84	0.035318866
153	0xbcd3f815	-0.02587513
154	0x3c37e091	0.011222974
155	0xbccc7847	-0.024959696
156	0xbc387a6c	-0.011259656
157	0x3d4d64fb	0.05014513
158	0x3c36bb66	0.011153078
159	0xbd8ee1e9	-0.06976683
160	0xbd21251b	-0.039342027
161	0xbbb01b00	-0.0053743124
162	0x3d97c928	0.074114144
163	0x3c8d1b1d	0.017224843
164	0xbd2d2100	-0.0422678
165	0x3cb88bab	0.022527536
166	0x3cfdec5f	0.0309965
167	0xbcb549dc	-0.022129945
168	0xbc978710	-0.01849702
169	0x3c045b9a	0.00807848
170	0xbca76602	-0.020434383
171	0x3c490438	0.012269072
172	0x3cb4d9e9	0.022076564
173	0x3ca92f0b	0.020652315
174	0x3d09b134	0.03361626
175	0x3b4e1f7a	0.0031451867
176	0xbca3a949	-0.019978182
177	0xbae6ab74	-0.0017598704
178	0xbce3780f	-0.02776721
179	0x3bd85f82	0.0066031823
180	0x3d04b20a	0.032396354
181	0xbd0cce55	-0.03437646
182	0xbb8ac60e	-0.0042350357
183	0x3c817437	0.015802486
184	0x3d316820	0.043312192
185	0x3c821e80	0.015883684
186	0x3bc3357b	0.005957303
187	0x3c3ea5de	0.0116362255
188	0x3c884fff	0.016639708
189	0xbd8fc22b	-0.070194565
190	0xbd88abe3	-0.0667341
191	0x3bfa9860	0.007647559
192	0xbb212816	-0.0024590543
193	0xbc9cfc90	-0.0191634
194	0xbc85dabc	-0.016339652
195	0xbca6b146	-0.020348202
196	0x3d1298fa	0.03579042
197	0x3c08d034	0.008350421
198	0x3e130595	0.14357598
199	0x3cf0fcf7	0.029417498
200	0x3c75bcde	0.014998643
201	0x3d6ec390	0.05829197
202	0x3c827c84	0.015928514
203	0x3c152e03	0.009105208
204	0x3cd383d4	0.025819696
205	0x3cbefbe1	0.023313465
206	0x3cac8ae1	0.021062316
207	0xbc96373c	-0.018336885
208	0xbcadb706	-0.021205436
209	0xbd18665a	-0.037206985
210	0xbcb57ab2	-0.022153232
211	0x3c8b6d4e	0.017019894
212	0xbca76df6	-0.020438176
213	0xbbd9a639	-0.0066421297
214	0xbd3791f5	-0.04481693
215	0x3c996a36	0.018727403
216	0xbc7f0baf	-0.01556675
217	0x3c095706	0.008382564
218	0x3cb51117	0.022102876
219	0xbd05f2b6	-0.03270217
220	0x3c5d4f80	0.013507724
221	0x3d211da2	0.0393349
222	0x3bacb036	0.0052700294
223	0xbcdf3234	-0.027245618
224	0xbd0963fa	-0.03354261
225	0xba4670b0	-0.00075698923
226	0x3c8a03b9	0.016847478
227	0xbd3cf0ad	-0.046127964
228	0xbc79bb8c	-0.015242469
229	0x3cf07910	0.029354602
230	0xbd21e17c	-0.03952168
231	0xbb653342	-0.003497318
232	0xbceab72c	-0.028651796
233	0xbc90cc5a	-0.017675567
234	0x3b6f4c02	0.003651381
235	0x3c25def2	0.010123955
236	0xbd4240c0	-0.04742503
237	0xbbe7ee40	-0.007077962
238	0xbbb4a719	-0.0055130837
239	0xbbc92619	-0.006138575
240	0x3bad9776	0.0052975966
241	0x3c47f750	0.01220496
242	0x3bfb2af3	0.007665032
243	0x3cb05890	0.021526605
244	0xbd091f96	-0.03347739
245	0xbc5dd96b	-0.013540606
246	0x3d5f0635	0.05444928
247	0xbd0f68d3	-0.035012078
248	0xbc8088ab	-0.015690168
249	0xbd69f403	-0.057117473
250	0x3d73f350	0.059558213
251	0x3e158da2	0.1460481
252	0xbbb85c58	-0.0056262426
253	0xbd2b60f4	-0.04184051
254	0xbc99159c	-0.018687062
255	0x3c753e63	0.014968487

pointer.gru.weight_ih_l0 f4 [384, 128]
0	0xbd306645	-0.04306628
1	0xbd02f01a	-0.03196726
2	0xbd60f19e	-0.054917924
3	0xbd3b4426	-0.04571929
4	0xbd06365d	-0.03276669
5	0xbdb0e135	-0.08636705
6	0x3d2a47a0	0.041572213
7	0x3db6fa22	0.08934428
8	0xbdc80af3	-0.097677134
9	0xbdddb661	-0.10825802
10	0x3de78bda	0.113059714
11	0x3cc76b15	0.024343053
12	0xbd8e7210	-0.069553494
13	0xbd8a57fa	-0.067550614
14	0x3d60594b	0.054772656
15	0xbda9506e	-0.08267294
16	0xbcf28571	-0.029604645
17	0x3db685be	0.08912228
18	0x3dc3fdc3	0.095698856
19	0xbd70db07	-0.05880263
20	0xbccf3505	-0.025293836
21	0x3c781229	0.0151410485
22	0xbdcc144f	-0.09964811
23	0x3c8bb095	0.017051974
24	0xbd4f636a	-0.050631918
25	0x3dcbdee0	0.099546194
26	0x39835115	0.00025046678
27	0x3d16892b	0.036751907
28	0xbcb87f01	-0.022521498
29	0xbdad4298	-0.084599674
30	0x3ca41c63	0.020033067
31	0xbd955509	-0.0729161
32	0x3d75715f	0.059922572
33	0x3d374c24	0.044750348
34	0xbdbf4594	-0.09339443
35	0xbd9f4f7c	-0.07778832
36	0x3de8b286	0.11362176
37	0xbdd84877	-0.105606966
38	0x3d48c37d	0.049014557
39	0x3d32988a	0.043602504
40	0xbd25441a	-0.04034815
41	0xbd14eec2	-0.03636051
42	0x3d23d4b7	0.039997783
43	0x3cc304ae	0.023805942
44	0x3ddd5eed	0.10809121
45	0x3dad83ec	0.08472428
46	0x3d6002d5	0.0546902
47	0xbdac5c11	-0.08415998
48	0xbcb512b2	-0.022103641
49	0xbde6d2ec	-0.11270699
50	0x3db41b35	0.08794252
51	0x3d960edd	0.07327054
52	0x3aa380ed	0.0012474336
53	0xbd7228c0	-0.059120893
54	0xbd317c26	-0.043331288
55	0x3dc83e0e	0.09777461
56	0x3dc4a7cd	0.09602318
57	0x3daf943d	0.08573196
58	0xbdad5a19	-0.084644504
59	0xbd8d0056	-0.0688483
60	0x3c1fcbcc	0.009753179
61	0xbd287835	-0.041130263
62	0xbc1cbf39	-0.009567075
63	0xbc0702eb	-0.008240442
64	0xbd6595df	-0.05605113
65	0xbd8541c8	-0.065066874
66	0xbcae6311	-0.021287473
67	0xbd09be60	-0.03362882
68	0x3d23d1d9	0.03999505
69	0xbcababc6	-0.020955931
70	0xbd79c9ca	-0.060983457
71	0x3c47f6a0	0.012204796
72	0x3d1689a9	0.036752377
73	0xbd01a14b	-0.03164796
74	0xbdf32f11	-0.118742116
75	0x3d4dbfa6	0.0502316
76	0x3da852ff	0.08218955
77	0xbd26cc59	-0.040722225
78	0x3ba28018	0.0049591176
79	0x3dbed863	0.09318616
80	0xbd956234	-0.072941214
81	0x3dbf16c8	0.09330517
82	0x3ce4484e	0.027866509
83	0xbd9beec7	-0.076139025
84	0x3d8edf5d	0.06976197
85	0xbcc33f0f	-0.02383378
86	0x3b953aa3	0.004554109
87	0xbc9149f1	-0.017735453
88	0x3d2122c4	0.039339796
89	0xbdda6168	-0.1066311
90	0x3cb84f57	0.02249877
91	0xbceca4df	-0.02888721
92	0xbd622d07	-0.055218723
93	0xbd4ed6dd	-0.05049788
94	0xbd36ef6a	-0.044661917
95	0xbc13f499	-0.009030485
96	0xbdc110f1	-0.094270594
97	0xbce669ad	-0.028126562
98	0xbc1437ee	-0.009046538
99	0x3d76d67a	0.060263135
100	0xbda8ca63	-0.08241727
101	0xbd286a51	-0.041117016
102	0xbdd81d7a	-0.10552497
103	0xbd6d02bf	-0.057863947
104	0x3cb58abc	0.02216088
105	0x3d8d7ff0	0.06909168
106	0x3dab2ae8	0.08357793
107	0xbc88d828	-0.016704634
108	0x3dd788e8	0.1052416
109	0xbc1f4066	-0.009719944
110	0xbdb990ac	-0.09060797
111	0xbd11ce4c	-0.03559713
112	0x3da585a6	0.08082132
113	0xbdef5718	-0.11686534
114	0xbdc188e2	-0.094499364
115	0xbc616609	-0.013757237
116	0xbd6ae2b9	-0.057345126
117	0x3c9b0b80	0.018926382
118	0x3da6b94a	0.0814081
119	0xbcfb1f98	-0.030654714
120	0x3c6f468d	0.014604223
121	0xbda1dd2c	-0.07903513
122	0x3db6a400	0.08917999
123	0x3da9a46c	0.08283314
124	0x3d0e7285	0.034777183
125	0xbcf8f9d5	-0.030392567
126	0xbc80820e	-0.015687015
127	0xbd1a7dda	-0.037717678
128	0xbd012c13	-0.031536173
129	0x3d1f6d90	0.038922846
130	0x3c5de68f	0.013543739
131	0xbd3a6888	-0.045509845
132	0x3c8e99c9	0.017407315
133	0x3cd96fc6	0.026542556
134	0xbd9424d1	-0.07233585
135	0xbddafded	-0.10692964
136	0xbd6140fb	-0.05499361
137	0x3d8963eb	0.06708511
138	0x3d0f9fe4	0.035064593
139	0x3dcceca0	0.1000607
140	0x3d80c23f	0.062870495
141	0xbd595ce7	-0.053067114
142	0x3da1be5b	0.078976355
143	0xbd0a1590	-0.03371197
144	0x3dd52b0d	0.10408602
145	0x3db80d54	0.08986917
146	0xbd1f4434	-0.038883403
147	0xbc7c003b	-0.015380914
148	0xbd83f0f5	-0.06442443
149	0xbd78c094	-0.06073053
150	0x3daf8d0f	0.08571827
151	0x3d8714cc	0.065957636
152	0x3cdf3220	0.027245581
153	0x3cd8e61a	0.026476908
154	0x3d2c8fbc	0.042129263
155	0x3d814794	0.063124806
156	0xbd2b5a1c	-0.041833982
157	0xbd00fcb9	-0.031491015
158	0xbd3f51d0	-0.04670888
159	0xbd010a96	-0.031504236
160	0xbdb3cdc8	-0.08779484
161	0xbdbb2786	-0.09138398
162	0xbddd5e0c	-0.10808954
163	0xbda7e4bf	-0.08197927
164	0x3bb1b9ad	0.0054237456
165	0xbd1097cf	-0.035301026
166	0xbdb6ebcd	-0.08931694
167	0xbdd6d2a2	-0.10489394
168	0x3d6f1301	0.058367733
169	0x3c9e9813	0.019359624
170	0xbd6311fe	-0.05543708
171	0xbd5f87f4	-0.054573014
172	0x3d04067f	0.032232758
173	0xbdb2b6ef	-0.08726298
174	0xbd5a7a7c	-0.053339466
175	0x3d8f1345	0.06986097
176	0x3d56ffd3	0.052490067
177	0x3d9736dc	0.073835105
178	0xbd85d446	-0.065346286
179	0xb8c4d4e6	-9.385664e-05
180	0xbd8e126e	-0.06937109
181	0x3ba57a24	0.0050499607
182	0xbc78e059	-0.015190207
183	0xbda5cc53	-0.080956124
184	0x3d74a435	0.059726913
185	0xbd205436	-0.03914281
186	0xbd41fc76	-0.047359906
187	0xbcce598b	-0.025189182
188	0xbdc3a552	-0.09553017
189	0x3ce69098	0.02814512
190	0x3ca758e2	0.020428125
191	0xbd4e5f37	-0.050383773
192	0xbd874079	-0.06604094
193	0xbdc9b729	-0.09849388
194	0x3dc19a2d	0.09453235
195	0xbc48cc1f	-0.0122556975
196	0xbd096f3b	-0.033553343
197	0xbd994d8b	-0.07485493
198	0xbda9c18a	-0.08288868
199	0x3d3fa6a9	0.0467898
200	0x3d25a002	0.0404358
201	0x3dd830c8	0.10556179
202	0xbda2a7b7	-0.07942145
203	0x3da18381	0.078864105
204	0xbda16e74	-0.078823954
205	0xbddeea0d	-0.108844854
206	0x3d499205	0.04921152
207	0x3bf1a0b1	0.0073738922
208	0x3d0cfe68	0.03442231
209	0xbd5190fa	-0.05116365
210	0x3c0ea147	0.008705444
211	0xbcd68ac2	-0.026189212
212	0x3dcd1fab	0.10015806
213	0xbd5f9fd6	-0.05459579
214	0xbcfaa8f6	-0.030598145
215	0xb93ba352	-0.00017894551
216	0x3d67f597	0.056630697
217	0x3cbec2f5	0.023286322
218	0x3c2bb4b8	0.010480098
219	0xbd762804	-0.060096756
220	0x3dcd7e13	0.100338124
221	0xbd272238	-0.040804118
222	0xbc8a1ec5	-0.016860375
223	0xbd8f2264	-0.06988981
224	0x3d1e810a	0.03869728
225	0xbd253504	-0.040333763
226	0x3dc922c9	0.09821088
227	0xbd2171ab	-0.039415043
228	0x3cd76927	0.026295258
229	0xbcd0db9a	-0.02549534
230	0xbd87238e	-0.065985784
231	0xbd9368c8	-0.0719772
232	0xbd9b202e	-0.07574497
233	0xbd1c0605	-0.03809168
234	0xbcb7a113	-0.022415673
235	0x3d4b17ae	0.04958313
236	0x3d46fd9f	0.048581716
237	0x3a5d8b37	0.00084512256
238	0xbcc1075c	-0.02356308
239	0x3d500829	0.050789032
240	0x3db84dd7	0.08999222
241	0xbd93d6be	-0.07218693
242	0xbdb3133a	-0.087439016
243	0x3be7e2b6	0.0070765866
244	0xbd15e618	-0.036596388
245	0xbdb45b44	-0.0880647
246	0xbc02874f	-0.00796683
247	0xbda6594e	-0.08122502
248	0xbda4b7bf	-0.08042859
249	0xbd4810e6	-0.04884424
250	0xbd2b0e35	-0.041761596
251	0xbd0bbe95	-0.0341173
252	0x3dd0d54f	0.101969354
253	0xbd9db0f5	-0.076997675
254	0xbdb7fa9c	-0.08983347
255	0xbd338a69	-0.04383317
