Task assignment/drl4vrp/vrp/10/19_07_57.994352/checkpoints/5/critic.pt (torch, 29011 bytes, 9 tensors)

static_encoder.conv.weight f4 [128, 2, 1]
0	0x3e17268b	0.14760797
1	0xbe4dc3ef	-0.20094274
2	0x3e1d5c13	0.15367155
3	0x3e5d5f5a	0.21618405
4	0xbe065af6	-0.13120636
5	0xbd92421b	-0.07141515
6	0x3dc13926	0.09434728
7	0x3e1abfd3	0.15112238
8	0x3e06f2d8	0.13178575
9	0x3e493878	0.19650447
10	0x3e4e7d30	0.20164943
11	0xbe64ef94	-0.22357017
12	0xbe03db39	-0.12876596
13	0xbe472b1f	-0.19450043
14	0xbe03c096	-0.12866434
15	0x3dde9550	0.10868323
16	0x3da81d17	0.082086734
17	0x3e544305	0.20728691
18	0xbe0b0605	-0.13576515
19	0x3d9b6e81	0.07589436
20	0xbe037098	-0.1283592
21	0xbcb71c71	-0.02235243
22	0x3dcb9e87	0.09942346
23	0x3dd4310d	0.10360918
24	0x3dc936e3	0.09824922
25	0xbdeaed20	-0.11471009
26	0xbe4d24c1	-0.20033552
27	0xbe4474b6	-0.19185147
28	0xbe2ef697	-0.17086254
29	0x3d9e9dc4	0.07744935
30	0xbe0f6840	-0.14004612
31	0x3d889168	0.06668359
32	0x3d07b77a	0.03313396
33	0x3e15add2	0.14617088
34	0x3e1ef52e	0.15523216
35	0x3e40ecaa	0.1884028
36	0xbdf8af57	-0.121428184
37	0x3e517175	0.20453437
38	0x3e3adeb7	0.18249021
39	0xbe1a38ac	-0.15060681
40	0x3e2a0c3f	0.16606234
41	0xbe048592	-0.12941578
42	0x3e2d01f4	0.16895276
43	0xbe02e368	-0.12782061
44	0xbd5c5c51	-0.053798977
45	0xbe0d3678	-0.1379031
46	0x3d1d20bd	0.0383613
47	0xbd009162	-0.031388648
48	0xbe3a18d9	-0.18173541
49	0x3e334e87	0.17510425
50	0xbda3e29a	-0.08002205
51	0xbe355c6c	-0.17711037
52	0xbde2dea3	-0.11077621
53	0xbe2bb7a5	-0.16769274
54	0xbe11aa01	-0.14225008
55	0xbe456741	-0.1927767
56	0x3e14d06e	0.14532635
57	0xbdc4e452	-0.09613861
58	0x3dc5c272	0.09656228
59	0x3dc754eb	0.09732994
60	0x3db9e290	0.090764165
61	0x3dcac93c	0.09901664
62	0xbd25bb40	-0.04046178
63	0xbcb87179	-0.022515045
64	0xbd003982	-0.031304844
65	0x3accc2a4	0.0015621972
66	0xbe4e3b49	-0.20139803
67	0xbdd7daf7	-0.10539811
68	0xbd287bae	-0.041133575
69	0xbca0ea6c	-0.019643031
70	0x3e0f0f3a	0.13970652
71	0x3c8f17f6	0.01746748
72	0xbe4a5e3a	-0.19762507
73	0x3e3d09ae	0.18460724
74	0x3da0f39a	0.07858963
75	0xbe03e2c3	-0.12879471
76	0xbda02498	-0.0781948
77	0x3a2619ac	0.0006336223
78	0x3e5e2412	0.21693447
79	0xbe019ddf	-0.1265788
80	0xbc9c4a01	-0.019078257
81	0xbcdce832	-0.026966188
82	0xbe561803	-0.20907597
83	0x3d835acc	0.064138025
84	0xbc45bd5a	-0.012069071
85	0x3dcff93a	0.10154958
86	0x3dc0066d	0.093762256
87	0xbcf246fb	-0.029574862
88	0xbe3922a3	-0.18079619
89	0x3d1814f8	0.037129372
90	0x3e3d4717	0.1848415
91	0x3e0883d0	0.13331532
92	0xbdaf57f1	-0.08561695
93	0x3e20e9fe	0.15714261
94	0xbd3a5cc1	-0.045498613
95	0xbe2fd269	-0.17170109
96	0xbc2a61ed	-0.010399324
97	0xbcc0acfc	-0.023519985
98	0xbdfa3360	-0.1221683
99	0xbe1f35e4	-0.15547901
100	0xbe05763f	-0.13033389
101	0xbdb146e3	-0.08656099
102	0xbd4802c6	-0.04883077
103	0x3dad0e66	0.08450012
104	0xbe0585c8	-0.13039315
105	0x3e4200df	0.18945645
106	0xbe13b412	-0.1442416
107	0xbd241655	-0.04006036
108	0x3d2fb84b	0.042900365
109	0x3d0ac587	0.033879783
110	0x3cb76dfa	0.022391308
111	0xbcc9aa3a	-0.024617303
112	0x3d9b99e1	0.075977094
113	0x3d733f16	0.059386335
114	0x3df24385	0.118292846
115	0x3c996d55	0.018728891
116	0xbe4c8cd7	-0.19975601
117	0xbdf911bb	-0.12161585
118	0x3d1a0692	0.037603922
119	0x3e51562d	0.2044303
120	0xbe4704ae	-0.19435379
121	0xbdb54fe8	-0.088531315
122	0x3d92d424	0.07169369
123	0x3e007e88	0.12548268
124	0x3d24db74	0.04024835
125	0x3e1caba7	0.15299855
126	0x3bbb8ab6	0.0057233227
127	0x3dfbefee	0.12301622
128	0xbe40a592	-0.1881316
129	0xbe2177e0	-0.15768385
130	0xbd6487b8	-0.055793494
131	0x3daeb51c	0.085306376
132	0xbd3606f0	-0.04444021
133	0xbdb48d60	-0.08816028
134	0xbde601bf	-0.11230802
135	0xbe59901a	-0.21246377
136	0x3e213020	0.15741014
137	0x3d9bb2ca	0.07602461
138	0xbdd1da0e	-0.10246669
139	0xbdcda6bf	-0.1004157
140	0x3d28b74e	0.041190438
141	0x3e46bd4b	0.19408147
142	0x3d92f3e3	0.07175424
143	0x3ca125f9	0.019671427
144	0x3e2599b9	0.16171922
145	0xbe43c5fe	-0.19118497
146	0xbd48cfbd	-0.04902624
147	0x3e5bdc3d	0.21470733
148	0xbdeb1edf	-0.114804976
149	0x3e0c0cec	0.13676804
150	0xbd76382b	-0.06011216
151	0xbd90aefa	-0.07064624
152	0x3c9efeea	0.019408662
153	0x3c872105	0.016495237
154	0x3e53af3d	0.20672317
155	0xbd631fe4	-0.055450335
156	0x3d9ae96f	0.07564055
157	0xbbe3f1b9	-0.006956306
158	0xbd836b9e	-0.06417011
159	0x3e64a0a4	0.22326905
160	0xbe4212f6	-0.18952546
161	0xbda6f921	-0.08152986
162	0xbe20c95c	-0.15701813
163	0x3bf28cc5	0.007402035
164	0x3e4e4ed5	0.2014726
165	0x3dffd473	0.12491693
166	0x3d259211	0.040422503
167	0xbda0740d	-0.07834635
168	0x3db57704	0.08860591
169	0xbd18f1b2	-0.037339874
170	0xbd7b0ef0	-0.061293542
171	0x3e1eb2b9	0.15497865
172	0x3dfffdad	0.12499557
173	0x3dfdbcba	0.12389512
174	0x3e555d69	0.20836414
175	0x3e0d5fbd	0.13806053
176	0x3dfe5048	0.12417656
177	0x3e350306	0.17676935
178	0x3e079766	0.13241348
179	0xbd647e81	-0.055784706
180	0x3dbf5130	0.09341657
181	0xbe1fdd56	-0.15611777
182	0x3d8b6e6e	0.06808172
183	0x3d2ff06e	0.0429539
184	0x3e13ab85	0.14420898
185	0xbd80596a	-0.062670544
186	0xbd8ba7a3	-0.068190835
187	0xbe1786d2	-0.14797524
188	0x3dca9c86	0.09893136
189	0xbe3ea63c	-0.18618101
190	0xbdedd369	-0.11612589
191	0x3d35fdad	0.044431377
192	0xbe5378b0	-0.20651507
193	0x3e52e015	0.20593293
194	0x3dc7982d	0.09745822
195	0x3d99d1a2	0.075106874
196	0x3e5555ea	0.20833555
197	0xbe405eb3	-0.18786125
198	0xbe25b5ab	-0.16182582
199	0x3d43eec1	0.047835115
200	0x3e13af2a	0.14422289
201	0x3df9cbb1	0.12197054
202	0x3d613bc8	0.054988652
203	0x3e166a43	0.14688973
204	0x3e67cf7e	0.22637746
205	0xbe2b7b0b	-0.16746156
206	0x3d6ca953	0.057778668
207	0x3e4052db	0.18781607
208	0x3d82fdd8	0.06396073
209	0xbe5a373d	-0.21310134
210	0x3e4d8a15	0.20072205
211	0xbdae807c	-0.085206
212	0x3d81cc02	0.063377395
213	0xbca69ec5	-0.02033938
214	0x3e1f00dc	0.15527672
215	0xbd8fcfeb	-0.07022079
216	0x3e180d4d	0.14848824
217	0xbe1bfe9f	-0.15233849
218	0xbdfb7b6d	-0.12279401
219	0xbddf0ad1	-0.10890735
220	0x3dfd3802	0.12364198
221	0x3e23e4ca	0.16005245
222	0x3e414e15	0.18877442
223	0xbe28cac5	-0.164836
224	0x3d7cdc1a	0.061733343
225	0xbd0cefc2	-0.03440834
226	0xbd4f1b34	-0.050563052
227	0xbe3d941e	-0.18513533
228	0x3b169af8	0.0022980552
229	0x3e36092a	0.17776933
230	0x3dfec633	0.12440147
231	0x3c8df66b	0.017329415
232	0xbd23e495	-0.040012915
233	0x3e577e3b	0.21044247
234	0xbcaba3ef	-0.020952193
235	0xbe3847e6	-0.17996177
236	0xbe06b7a1	-0.13155986
237	0xbe05ff92	-0.13085774
238	0x3de5cbf7	0.11220544
239	0x3d227157	0.03965887
240	0xbe331f25	-0.1749235
241	0x3e4a1bda	0.19737187
242	0xbe08c7a2	-0.13357404
243	0x3e11a8f1	0.14224602
244	0xbbe2a3d9	-0.006916505
245	0xbe12a0dd	-0.14319177
246	0x3e55fc2e	0.2089698
247	0x3e09dad9	0.1346239
248	0x3d4ccdc9	0.05000094
249	0xbc64a6d1	-0.013955788
250	0x3cc2336e	0.023706164
251	0x3e3309d1	0.17484213
252	0x3bc11610	0.0058925226
253	0xbe230277	-0.15918909
254	0xbe5d9f47	-0.2164279
255	0xbe498536	-0.19679722

static_encoder.conv.bias f4 [128]
0	0x3ddd626f	0.1080979
1	0xbee01316	-0.4376456
2	0xbe5a9bd8	-0.21348512
3	0xbe0fb099	-0.1403221
4	0x3e9eb2e6	0.30995864
5	0xbe6f5c61	-0.23375084
6	0x3ea8a861	0.32940963
7	0x3d936b4f	0.07198202
8	0xbedf54fd	-0.43619528
9	0x3e7dae23	0.24773459
10	0x3e8888c7	0.26666853
11	0x3f311095	0.6916593
12	0x3eedd14d	0.46448746
13	0x3ed68982	0.41901785
14	0x3d19612b	0.037446182
15	0xbe8db8b5	-0.27679983
16	0x3ef0a6ad	0.47002164
17	0x3f094628	0.53622675
18	0x3f257b6e	0.64641464
19	0x3ee68795	0.45025316
20	0x3e9f8800	0.31158447
21	0x3f1526f3	0.58262557
22	0xbec2c526	-0.38041037
23	0xbec6bc83	-0.38815698
24	0x3f0c9f4a	0.54930556
25	0x3e84506f	0.25842616
26	0x3e68b8fa	0.22726813
27	0xbf01992d	-0.5062435
28	0xbeaa98b2	-0.33319622
29	0x3f0613bc	0.5237386
30	0x3ea246b3	0.31694564
31	0xbeb21308	-0.34780145
32	0x3eddbfd4	0.43310416
33	0x3ddcec31	0.107872374
34	0xbe409057	-0.18805061
35	0x3e0e384c	0.13888663
36	0xbf092f2b	-0.535876
37	0xbea30225	-0.31837574
38	0x3ef96cf9	0.48715952
39	0x3eb205e3	0.34770116
40	0x3c79dc47	0.015250272
41	0x3ec585a9	0.38578537
42	0x3ebc2d80	0.36753464
43	0x3e783f61	0.24242927
44	0x3dd36c61	0.10323406
45	0xbd53d220	-0.051714063
46	0xbf263bf7	-0.6493525
47	0xbe524831	-0.20535351
48	0x3f09c1d7	0.538114
49	0xbed8e08f	-0.42358825
50	0x3ebb85bd	0.36625472
51	0x3d6348d0	0.05548936
52	0xbf321f5c	-0.695791
53	0x3e7f35b2	0.24922827
54	0x3e5f0476	0.21779045
55	0xbd8df701	-0.06931878
56	0xbf2fab2e	-0.68620574
57	0xbf0bec9a	-0.546579
58	0x3eacc994	0.33747542
59	0xbed4468b	-0.4146007
60	0x3eabed45	0.3357946
61	0x3f113a3c	0.56729484
62	0xbf18245a	-0.5943047
63	0xbeeb537b	-0.45962128
64	0x3f1c513e	0.61061466
65	0xbb684fbe	-0.003544792
66	0x3ebf7423	0.37393293
67	0x3dab674e	0.08369313
68	0xbe9d3f85	-0.30712524
69	0xbd26e72b	-0.040747803
70	0xbf04b81f	-0.51843446
71	0xbeb6357c	-0.3558768
72	0xbeb05620	-0.34440708
73	0xbe814bb5	-0.25253072
74	0x3f1fa2ca	0.6235777
75	0xbd3c3667	-0.04595032
76	0x3db5e9a7	0.08882456
77	0xbeba0cb9	-0.36337832
78	0x3e22a655	0.15883763
79	0xbeff910f	-0.49915358
80	0xbd76796d	-0.060174394
81	0x3dec4b95	0.11537854
82	0xbe3ed0f8	-0.18634403
83	0x3e73a0e6	0.23791847
84	0xbf1a48a4	-0.6026709
85	0x3f319278	0.6936412
86	0xbdebb56d	-0.115092136
87	0xbf176f6c	-0.5915439
88	0xbd1ccc32	-0.038280673
89	0x3ec06c9f	0.3758287
90	0x3e44a602	0.19203952
91	0xbf2a3ee5	-0.6650222
92	0xbe0085e7	-0.1255108
93	0x3f12569b	0.571634
94	0x3f222cc8	0.6334958
95	0xbee0f9dc	-0.43940628
96	0xbf266387	-0.64995617
97	0xbda37093	-0.07980456
98	0x3ed12144	0.40845692
99	0x3f0fdc10	0.56195164
100	0x3f1cb135	0.61207896
101	0xbb983d67	-0.0046459916
102	0xbf26ca92	-0.6515285
103	0x3ece8004	0.40332043
104	0xbf3045f6	-0.6885675
105	0x3e300749	0.17190279
106	0x3e51dabe	0.204936
107	0x3e09fce8	0.13475382
108	0x3f00739f	0.50176424
109	0xbede5af7	-0.43428776
110	0x3f322b67	0.69597477
111	0xbf1c21ea	-0.6098925
112	0x3f1d81f4	0.6152642
113	0xbe9f43d0	-0.31106424
114	0xbe033b08	-0.12815487
115	0x3dfddbcb	0.12395438
116	0x3efa67c7	0.489073
117	0xbee11c19	-0.4396675
118	0xbcfe317a	-0.031029452
119	0x3eb42b49	0.35189274
120	0x3da41815	0.08012406
121	0xbe02e459	-0.1278242
122	0x3f2093e2	0.6272565
123	0x3ebe15b0	0.3712592
124	0x3edc1f56	0.42992657
125	0x3eb4682e	0.35235733
126	0xbf106ebf	-0.56418985
127	0xbd864eab	-0.065579735

dynamic_encoder.conv.weight f4 [128, 2, 1]
0	0x3e310ce4	0.17290074
1	0xbe3e2622	-0.18569234
2	0xbbeb1986	-0.0071746735
3	0x3de2ca9d	0.11073802
4	0x3d5dfc7a	0.05419586
5	0xbe0d3ee6	-0.13793525
6	0x3db85e61	0.09002376
7	0x3d42bc7e	0.04754304
8	0x3e0641dc	0.13111061
9	0xbe1e5a21	-0.15464069
10	0x3ded6dac	0.11593184
11	0x3e25806c	0.1616227
12	0x3d74855f	0.059697505
13	0x3e2e4fca	0.17022625
14	0xbd98ece3	-0.074670576
15	0x3e7e941a	0.24861184
16	0x3ca6de95	0.020369807
17	0x3e3dd50e	0.18538305
18	0xbda63688	-0.0811587
19	0x3e024265	0.1272064
20	0xbe0e2aa4	-0.13883454
21	0xbe5dc524	-0.21657234
22	0xbe36461d	-0.17800184
23	0xbe466f76	-0.19378456
24	0x3d834c79	0.064110704
25	0x3e1945a0	0.14967966
26	0xbe2aa481	-0.16664316
27	0x3e2ee860	0.17080832
28	0xbe2a21e1	-0.16614486
29	0x3e0dc08a	0.13842979
30	0x3e1219b7	0.14267622
31	0xbd84c7f4	-0.064834505
32	0x3e099092	0.13434055
33	0x3da53a9a	0.08067818
34	0x3df3f0bb	0.1191115
35	0xbe21b376	-0.15791115
36	0xbe486b7e	-0.19572255
37	0x3e6f804a	0.23388782
38	0xbd9c5962	-0.07634236
39	0xbe56f413	-0.20991544
40	0xbdceb5c4	-0.10093263
41	0x3d9b6dde	0.07589315
42	0x3e10c243	0.14136605
43	0x3e17ef47	0.14837371
44	0x3b879a6e	0.0041382825
45	0xbdc62d65	-0.09676627
46	0xbd947816	-0.07249467
47	0xbe570694	-0.20998603
48	0x3dc92384	0.09821227
49	0xbdbb525f	-0.091465704
50	0xbe0188ce	-0.12649843
51	0xbe30af66	-0.17254409
52	0x3d899871	0.06718529
53	0x3e77a78a	0.24185005
54	0x3c3f556f	0.011678084
55	0xbe1b1969	-0.15146412
56	0x3e241e9b	0.160273
57	0xbd834c12	-0.06410994
58	0x3e2f3eba	0.17113772
59	0x3b44f493	0.0030053004
60	0xbda61463	-0.08109357
61	0x3e0f65f1	0.14003731
62	0xbd8e8082	-0.06958105
63	0xbe54d8b4	-0.2078579
64	0x3e2cc8aa	0.16873422
65	0x3d9674d6	0.073465034
66	0x3e23e9c0	0.16007137
67	0xbdc7d94d	-0.09758244
68	0xbe3d07d4	-0.18460017
69	0xbd9b4fd6	-0.07583587
70	0xb995d1ca	-0.000285758
71	0x3dc9904e	0.09841977
72	0x3e2c177f	0.16805838
73	0xbc5c70af	-0.0134546
74	0x3bcd963e	0.006274014
75	0x3dafbf54	0.08581415
76	0xbd706133	-0.058686446
77	0x3e68f0bd	0.22748084
78	0xbd680aac	-0.056650802
79	0xbd95891c	-0.07301542
80	0xbdcacfcf	-0.099029176
81	0x3e32fb4e	0.17478678
82	0x3e44e21b	0.19226877
83	0x3dbf9582	0.09354688
84	0xbe1c2c34	-0.15251237
85	0x3e00bc67	0.1257187
86	0x3e3e60dc	0.18591636
87	0x3dd54e2b	0.104153
88	0xbe216a81	-0.15763284
89	0x3e4e1bd6	0.20127806
90	0xbe0a7a25	-0.13523157
91	0xbe6a0a08	-0.22855389
92	0x3e008233	0.12549667
93	0xbda1935d	-0.078894354
94	0x3e1c5814	0.15267974
95	0xbdaf54ac	-0.08561072
96	0x3cc88c73	0.024481034
97	0x3d015bfd	0.031581867
98	0x3e2c43c8	0.16822731
99	0xbe5642db	-0.20923941
100	0xbd0f0e0d	-0.03492551
101	0x3e2792b7	0.16364561
102	0xbe415cf7	-0.1888312
103	0xbdf5eb0e	-0.12007724
104	0xbe1cda27	-0.15317594
105	0x3ac64512	0.0015126786
106	0x3e00aaed	0.12565203
107	0xbc3d932d	-0.011570734
108	0x3e4bb938	0.19894874
109	0xbe245ec3	-0.16051774
110	0x3de52ed6	0.11190574
111	0x3baaa9e0	0.005208239
112	0xbd06daf8	-0.03292367
113	0x3e5891ec	0.21149415
114	0xbe4e4e68	-0.20147097
115	0xbe50da98	-0.20395887
116	0xbd8344a0	-0.064095736
117	0xbdae88aa	-0.0852216
118	0x3cf325d1	0.029681118
119	0xbe0e9c89	-0.13926901
120	0x3e5f671a	0.21816674
121	0x3d665416	0.056232534
122	0xbba03944	-0.004889639
123	0x3ab6bd6a	0.0013941948
124	0xbd9f3698	-0.07774085
125	0xbe5932a1	-0.2121072
126	0xbe5bacb4	-0.214526
127	0xbdb48d67	-0.08816033
128	0xbe55b402	-0.20869449
129	0x3e226d6e	0.15862057
130	0xbe2d8c67	-0.1694809
131	0xbe235f07	-0.15954219
132	0x3dbd1e6a	0.09234317
133	0x3e73000b	0.23730485
134	0x3e3d8bf6	0.18510422
135	0x3dc6cc5c	0.09706947
136	0x3d260ec2	0.040541418
137	0xbd694810	-0.05695349
138	0x3e15bf6f	0.14623807
139	0x3e3d1bb1	0.18467595
140	0x3e5d6c4f	0.21623348
141	0x3ca0203c	0.01954662
142	0x3e385ea7	0.18004857
143	0xbe23cbc2	-0.15995696
144	0x3dca27ce	0.098708734
145	0x3e3b7483	0.18306164
146	0x3d64f975	0.055901963
147	0xbc853f47	-0.016265525
148	0x3dd8ec56	0.105919525
149	0x3d70ef42	0.058821924
150	0xbca83632	-0.020533655
151	0xbe25dddf	-0.16197918
152	0xbe2f2733	-0.17104797
153	0xbde9f9bd	-0.11424587
154	0x3e426607	0.18984233
155	0x3da75452	0.0817038
156	0x3e065d27	0.13121472
157	0x3e7b1327	0.24519025
158	0x3e1b4e63	0.15166621
159	0x3da9a7fa	0.08283992
160	0xbde60036	-0.11230509
161	0xbd35eaf0	-0.044413507
162	0x3e14d9fa	0.14536276
163	0xbdc7cfb4	-0.09756413
164	0xbc9739fe	-0.01846027
165	0xbe472296	-0.19446787
166	0x3d2ae5d1	0.041723076
167	0xbd64f161	-0.05589426
168	0x3e494280	0.19654274
169	0xbdbfc7a3	-0.093642496
170	0xbdb2dea0	-0.087338686
171	0x3d941b68	0.0723179
172	0x3e08703e	0.13324067
173	0xbe3b7ecb	-0.18310086
174	0x3e212762	0.1573768
175	0xbe3b4c0a	-0.18290725
176	0x3d5f6a40	0.054544687
177	0xbdb11086	-0.0864573
178	0x3da68dad	0.08132491
179	0x3e553110	0.20819497
180	0xbe5bfa0a	-0.21482101
181	0xbe2cfb89	-0.16892828
182	0xbd3e7b21	-0.046504144
183	0x3dc070ff	0.09396552
184	0x3e3d81e1	0.18506576
185	0x3e022bbe	0.12711999
186	0xbcd2a83c	-0.025714986
187	0xbe114215	-0.14185365
188	0x3e0778e0	0.13229704
189	0x3e271b9e	0.16319129
190	0x3d1b11d5	0.037858803
191	0xbbf38819	-0.0074319956
192	0xbe35b996	-0.17746577
193	0x3d88a524	0.06672123
194	0x3ca2cc0f	0.019872693
195	0xbd99073c	-0.07472083
196	0xbdb009a1	-0.085955866
197	0xbd49f51d	-0.049306024
198	0xbd9bfd7a	-0.07616706
199	0xbe14e12d	-0.14539023
200	0xbe11a49b	-0.14222948
201	0x3dbdd60d	0.092693426
202	0xbdc56a56	-0.096394226
203	0x3e63891a	0.22220269
204	0x3e13185a	0.14364758
205	0xbe262bfe	-0.16227719
206	0x3dd1fef1	0.10253704
207	0xbe14de48	-0.14537919
208	0xbe4f653e	-0.20253465
209	0x3d404af7	0.046946492
210	0x3db2bad2	0.087270394
211	0xbd31b84e	-0.043388657
212	0xbe448725	-0.19192179
213	0xbe5b9a4d	-0.2144558
214	0x3e138eb5	0.14409907
215	0x3cb582db	0.022157123
216	0xbc3a1a51	-0.011358813
217	0xbdc54a92	-0.09633364
218	0xbde5bc30	-0.112175345
219	0x3da5e106	0.080995604
220	0xbdbce3e8	-0.09223157
221	0x3d945c7c	0.072442025
222	0xbda88435	-0.082283415
223	0xbd506dae	-0.05088585
224	0x3e0a020f	0.13477348
225	0x3da3175c	0.0796344
226	0xbe3b7ce0	-0.18309355
227	0x3d45f10a	0.048325576
228	0xbe4f68fb	-0.2025489
229	0xbd6e50d5	-0.058182556
230	0x3cd5f3da	0.026117254
231	0x3de9c3d4	0.114143044
232	0x3d4bf9c8	0.049798757
233	0x3bcfcc09	0.0063414616
234	0xbdc0ea47	-0.09419685
235	0x3dabf278	0.083958566
236	0xbd4ecbd5	-0.050487358
237	0xbdf972e3	-0.12180116
238	0x3ad046a1	0.001589019
239	0xbe8062b9	-0.2507532
240	0x3e0e32f9	0.13886632
241	0xbde0faf7	-0.10985368
242	0x3e32c8ac	0.17459363
243	0x3e4bc891	0.19900729
244	0x3da688a6	0.08131532
245	0x3e496711	0.19668223
246	0x3e3ece30	0.18633342
247	0x3e2f6f6f	0.17132352
248	0xbe5185ba	-0.20461169
249	0xbd9f6540	-0.07782984
250	0xbdb0becc	-0.086301416
251	0x3dc33e51	0.0953337
252	0x3dbbbca1	0.091668375
253	0xbe2e0150	-0.16992688
254	0x3dc3c05a	0.095581725
255	0x3e258e1a	0.16167489

dynamic_encoder.conv.bias f4 [128]
0	0x3e695bf5	0.22788985
1	0xbf2164ac	-0.6304424
2	0x3e92ef74	0.28698313
3	0xbd4783bb	-0.048709612
4	0xbdd609a7	-0.1045106
5	0x3eb3d014	0.3511969
6	0xbf2b6c37	-0.66962
7	0x3ea04a19	0.31306532
8	0xbe75ee17	-0.24016605
9	0xbef752e5	-0.4830543
10	0x3ec1e994	0.37873518
11	0x3e10f646	0.14156446
12	0x3ee1627c	0.4402045
13	0x3eccd8bc	0.40009105
14	0xbf011535	-0.50422984
15	0xbeb2470b	-0.34819826
16	0x3da987b2	0.08277835
17	0xbf0972b7	-0.53690666
18	0xbf2b0191	-0.66799265
19	0x3f133a1d	0.5751055
20	0xbea84b12	-0.32869774
21	0xbeb7fc05	-0.35934463
22	0x3ed1adc0	0.40952873
23	0xbf279f07	-0.6547703
24	0xbe65ecae	-0.22453567
25	0xbf077c85	-0.52924377
26	0xbe9c1bd9	-0.30489996
27	0x3f112ce7	0.5670914
28	0x3ddb579c	0.107100695
29	0xbe426c41	-0.18986608
30	0xbe490d08	-0.19633877
31	0xbe54666d	-0.20742197
32	0x3e384040	0.1799326
33	0xbf0a40e4	-0.54005265
34	0x3e87b2b5	0.2650353
35	0xbe9db242	-0.30800062
36	0x3f0efe2b	0.5585658
37	0xbe74e293	-0.23914556
38	0x3d48be47	0.049009588
39	0x3e1fdcce	0.15611574
40	0x3e2e6c82	0.1703358
41	0xbe6c116c	-0.23053521
42	0x3f172d0d	0.5905312
43	0x3ead7ed1	0.33885816
44	0x3f19ead8	0.6012397
45	0xbe8bc29b	-0.2729691
46	0x3ecc7d56	0.39939374
47	0xbf11c5c1	-0.56942374
48	0x3e5ab2e7	0.21357308
49	0x3eb43617	0.35197517
50	0x3f08f27b	0.53494996
51	0xbeda9e36	-0.4269883
52	0xbeb4ad54	-0.3528849
53	0xbf1f6ffe	-0.6228026
54	0xbe776c3c	-0.24162382
55	0xbeaab2ea	-0.33339626
56	0xbee3048d	-0.4433941
57	0xbf1c9f0d	-0.6118019
58	0x3f264ff1	0.6496573
59	0xbe2adcdf	-0.16685818
60	0x3e437d75	0.19090827
61	0x3f208eba	0.62717783
62	0xbdaf0f25	-0.085478105
63	0x3e84f60d	0.25968972
64	0x3e8d592a	0.2760709
65	0x3ef982fd	0.4873275
66	0x3ef40405	0.47659317
67	0x3ef0aeb9	0.47008303
68	0xbdae08cd	-0.08497772
69	0x3f26969b	0.65073556
70	0xbf286f03	-0.6579439
71	0xbe8b13bb	-0.2716349
72	0x3f07de77	0.5307383
73	0xbf2e7fe4	-0.68163896
74	0xbf223ca2	-0.6337377
75	0x3f319df7	0.6938166
76	0x3e0b4da7	0.13603841
77	0x3df9395b	0.12169143
78	0x3ef312e5	0.47475353
79	0xbd923c46	-0.071404025
80	0x3f146d83	0.579796
81	0xbf035e61	-0.51315886
82	0xbe52b84f	-0.2057812
83	0xbeed4b15	-0.46346346
84	0xbdb1df1f	-0.08685135
85	0x3df8a32a	0.12140496
86	0xbeb21e49	-0.3478873
87	0xbd2112e8	-0.03932467
88	0x3eb4f6d3	0.35344562
89	0x3e922404	0.28543103
90	0x3f082ee8	0.53196573
91	0x3eefd766	0.46844023
92	0xbcbbf97e	-0.022946116
93	0xbec97489	-0.39346722
94	0xbf328a07	-0.69741863
95	0x3c701c64	0.014655206
96	0x3eba791b	0.3642052
97	0x3da3658a	0.079783514
98	0xbea9f9c8	-0.3319838
99	0x3e5fe6c3	0.21865372
100	0x3efc00d9	0.49219397
101	0x3e8e7cb6	0.27829522
102	0x3de4fea8	0.11181384
103	0x3f1f58dc	0.62244964
104	0x3d9d7c5d	0.07689736
105	0xbec17ca6	-0.37790412
106	0xbf0e96ae	-0.5569867
107	0xbf22e5b5	-0.63631755
108	0xbee30c4c	-0.4434532
109	0x3eac4261	0.33644393
110	0xbf29d297	-0.6633696
111	0x3ed4296e	0.41437858
112	0x3df65654	0.120281845
113	0xbe7bf37b	-0.24604599
114	0x3e4d65a8	0.2005831
115	0xbe1ba779	-0.15200604
116	0x3ed3d73f	0.41375157
117	0xbf0fac57	-0.56122345
118	0xbf2b6aca	-0.6695982
119	0x3d4b5d26	0.04964938
120	0xbf0f2a0e	-0.55923545
121	0x3f1fdb47	0.62443966
122	0xbf1003f9	-0.5625606
123	0x3edb993b	0.42890343
124	0xbeb92089	-0.36157635
125	0xbea78177	-0.3271596
126	0xbdf54d4f	-0.11977636
127	0x3e0e9e4f	0.13927577

fc1.weight f4 [20, 256, 1]
0	0xbe12274e	-0.14272806
1	0x3dc79ad2	0.097463265
2	0x3d83e2f8	0.06439775
3	0xbde2478c	-0.11048803
4	0x3dd1dd7e	0.102473244
5	0x3d24ac9c	0.040203676
6	0xbdfc7268	-0.12326509
7	0xbdb249e4	-0.087055
8	0x3dd11af6	0.102102205
9	0xbe041e20	-0.12902117
10	0x3e06f386	0.13178834
11	0xbdc0fd33	-0.09423294
12	0x3e04736c	0.12934655
13	0xbda3e209	-0.08002097
14	0x3e0d37fa	0.13790885
15	0x3d081e44	0.03323199
16	0xbb67b400	-0.003535509
17	0xbbe0b840	-0.006857902
18	0xbdae9ca2	-0.08525969
19	0xbd8faa56	-0.07014911
20	0x3e00bd4c	0.12572211
21	0x3dbb5b38	0.09148258
22	0x3db093e6	0.086219594
23	0x3d96cb12	0.07362951
24	0xbdc5656a	-0.09638484
25	0x3dc7e5be	0.09760617
26	0xbddece26	-0.108791634
27	0xbda566b4	-0.0807623
28	0xbd04b7c0	-0.0324018
29	0x3b339840	0.002740398
30	0xbd28280e	-0.041053824
31	0x3d8174a8	0.063210785
32	0x3e138cbc	0.14409155
33	0x3da6452e	0.08118664
34	0x3bb2eb20	0.005460158
35	0xbdb2cbca	-0.08730276
36	0xbd8a2f55	-0.06747309
37	0xbba16c20	-0.0049262196
38	0x3e141d70	0.14464355
39	0xbdab60c3	-0.08368065
40	0xbdbcae79	-0.092129655
41	0x3def7560	0.116923094
42	0xbb129480	-0.0022366345
43	0x3dae86d2	0.08521809
44	0xbcdb89bc	-0.026799075
45	0x3e161bca	0.14659038
46	0xbd55bc7c	-0.052181706
47	0xbd48d6c2	-0.049032934
48	0xbdcca0f0	-0.09991634
49	0xbcec1e68	-0.028823093
50	0xbdc429c6	-0.0957828
51	0x3e0be16e	0.13660213
52	0x3df07e1c	0.117428035
53	0xbdf7c5a8	-0.12098247
54	0x3d132c3c	0.035930857
55	0xbd6f2f4c	-0.058394715
56	0xbe0a192f	-0.1348617
57	0x3d689ea0	0.0567919
58	0x3dfc168c	0.12308988
59	0x3dc9ec14	0.098594815
60	0x3d0d718c	0.034532115
61	0x3e072bb4	0.13200265
62	0xbd930d59	-0.0718028
63	0xbdab1cac	-0.08355078
64	0xbdf6825f	-0.12036585
65	0xbcf6b014	-0.030113257
66	0xbcb32e58	-0.021872684
67	0xbd462424	-0.04837431
68	0x3e019252	0.12653473
69	0xbc8394a8	-0.016062096
70	0x3d712d10	0.058880866
71	0x3de74fa4	0.11294487
72	0xbdd7360c	-0.105083555
73	0x3d0a34ac	0.033741638
74	0xbdd0a649	-0.101879664
75	0x3dc95246	0.098301455
76	0xbd4c067c	-0.04981087
77	0x3e089f3c	0.13341993
78	0x3dff2708	0.124586165
79	0xba816280	-0.0009871274
80	0xbd439cd6	-0.047756992
81	0xbd776f2a	-0.06040875
82	0xbdeaacdd	-0.11458752
83	0xbce79094	-0.028267182
84	0x3df51c3c	0.11968276
85	0x3e0f4f58	0.13995111
86	0xbe0be22a	-0.13660493
87	0xbe1698fb	-0.14706795
88	0xbe015d47	-0.12633239
89	0x3d51f15c	0.05125557
90	0x3dcbd786	0.09953217
91	0xbd842803	-0.06452944
92	0x3defd574	0.11710635
93	0x3da00fec	0.07815537
94	0x3d5a6310	0.05331713
95	0xbdd92cdc	-0.10604259
96	0x3dc17274	0.09445658
97	0x3d8d0bf2	0.06887044
98	0x3aa0d480	0.0012270361
99	0x3d556bd0	0.05210477
100	0xbdaba633	-0.08381309
101	0xbd783904	-0.06060125
102	0x3dd7c8d0	0.10536349
103	0xbe0b3990	-0.13596177
104	0xbe0eccc0	-0.13945293
105	0x3beae780	0.00716871
106	0x3db0e562	0.08637501
107	0x3db58ae2	0.088643804
108	0x3d4e0e50	0.05030662
109	0x3c4f0950	0.012636498
110	0x3d8c92dc	0.06863949
111	0xbd7eb5e0	-0.06218517
112	0xbd43c64e	-0.04779654
113	0xbde93f2c	-0.11389002
114	0x3e021bc4	0.12705904
115	0x3d6f3064	0.05839576
116	0x3b3d2a80	0.0028864443
117	0x3dc39f5c	0.0955188
118	0x3e0afa42	0.13572028
119	0x3d8726c4	0.06599191
120	0x3e11739e	0.1420426
121	0x3dd8ef2c	0.105924934
122	0x3d22f114	0.03978069
123	0x3d118cdc	0.035534725
124	0xbd9c35a6	-0.0762742
125	0xbc80cb60	-0.015721977
126	0xbdaf4286	-0.0855761
127	0xbe03f72a	-0.12887254
128	0x3ce0dd18	0.027449176
129	0xbb09fb40	-0.0021054298
130	0xbd1e98aa	-0.03871981
131	0x3d16c31c	0.036807165
132	0x3ccab4c0	0.024744391
133	0x3e086356	0.13319144
134	0x3d7f73d4	0.06236632
135	0x3e041ad8	0.12900865
136	0x3e0c1a20	0.13681841
137	0x3d9ed988	0.077563345
138	0x3df49d10	0.1194402
139	0xbdf1e374	-0.11810961
140	0x3d1a330c	0.03764634
141	0x3dde4efc	0.10854909
142	0x3e0fc658	0.14040506
143	0xbd53bfae	-0.051696472
144	0xbde76323	-0.11298206
145	0xbd782d74	-0.060590222
146	0x3e10a87c	0.14126772
147	0xbdd3a086	-0.10333352
148	0x3d53de78	0.051725835
149	0x3d0ba73c	0.034095034
150	0x3a90ed80	0.0011057109
151	0x3dbb0028	0.09130889
152	0x3d88aa4c	0.066731066
153	0x3d8cdb9a	0.06877823
154	0x3cce8fc0	0.02521503
155	0x3c89a210	0.01680091
156	0xbcb1c668	-0.021701053
157	0x3de7cf08	0.11318785
158	0xbd064fcc	-0.032790944
159	0xbe01d06c	-0.12677163
160	0x3d8f5764	0.0699909
161	0x3ddb6d5c	0.10714218
162	0x3c953308	0.01821281
163	0xbcefc934	-0.029270746
164	0x3d8e30d0	0.06942904
165	0x3e0f9b30	0.14024043
166	0xbdf01240	-0.11722231
167	0xbd614e6e	-0.055006437
168	0xbd1031f0	-0.035203874
169	0x3d3df548	0.046376497
170	0x3db7393a	0.08946462
171	0xbd9a52ad	-0.075353004
172	0xbd82b387	-0.063818984
173	0x3d610064	0.054932013
174	0xbdc594e7	-0.096475415
175	0x3bc3a060	0.005970046
176	0x3e126538	0.14296424
177	0x3d7eda04	0.062219635
178	0xbe0abc8c	-0.13548487
179	0xbd8e4151	-0.06946052
180	0x3d0ca5c4	0.034337774
181	0x3cc1f740	0.023677468
182	0x3e011d4a	0.12608829
183	0xbc8b4d10	-0.01700452
184	0xbd0afebc	-0.03393434
185	0x3e10406c	0.14087075
186	0xbda04410	-0.07825482
187	0x3ddf39b4	0.10899678
188	0xbe135a2f	-0.14389871
189	0xb7d12000	-2.4929643e-05
190	0xbc8f72b8	-0.017510757
191	0xbdd5cc47	-0.104393534
192	0x3e09c564	0.13454205
193	0xbcb637e0	-0.02224344
194	0xbdff4a54	-0.12465349
195	0xbdcc15b2	-0.099650756
196	0x3d8c7560	0.06858325
197	0x3c836f48	0.016044274
198	0x3b63d180	0.0034762323
199	0x3dd005d2	0.1015736
200	0xbdfb1a78	-0.12260908
201	0xbd003950	-0.031304657
202	0x3cb19348	0.021676674
203	0xbd3ef3c6	-0.0466192
204	0xbdeac78a	-0.1146384
205	0x3bc4fe40	0.0060117543
206	0xbdf784b1	-0.12085856
207	0x3cd7f070	0.026359767
208	0x3ccba660	0.024859607
209	0x3d2ff524	0.042958394
210	0xbc280ec0	-0.010257423
211	0xbcb55088	-0.022133127
212	0x3dee1c94	0.116265446
213	0xbdd7483c	-0.105118245
214	0x3e0f9210	0.14020562
215	0xbe02335e	-0.12714908
216	0xbd20f492	-0.03929574
217	0xbc97a8c0	-0.018513083
218	0x3d86b600	0.065776825
219	0xbddb470a	-0.10706909
220	0xbded6cb0	-0.11592996
221	0x3dcf2524	0.10114506
222	0xbd99adae	-0.0750383
223	0xbd0ecdca	-0.034864224
224	0x3e121c82	0.14268687
225	0xbe104532	-0.14088896
226	0x3de286e0	0.110608816
227	0xbdf2cf16	-0.11855905
228	0x3dc2dec8	0.095151484
229	0x3e16c714	0.1472438
230	0x3dcdbcac	0.10045752
231	0xbd4007b6	-0.046882354
232	0xbe02a053	-0.12756471
233	0x3d3396e0	0.043845057
234	0xbdfb40fe	-0.12268256
235	0xbd2de6b8	-0.04245636
236	0xbbac6dc0	-0.0052621067
237	0x3da8caa4	0.08241776
238	0xbe140045	-0.14453228
239	0xbd9bae7e	-0.07601641
240	0x3d4bd260	0.049761176
241	0x3dea0758	0.11427182
242	0xbe0d89af	-0.13822053
243	0xbe0bc896	-0.13650736
244	0xbd89cfca	-0.06729086
245	0xbd8050fb	-0.06265446
246	0x3db8c798	0.090224445
247	0x3dc93d24	0.09826115
248	0xbd8f5ce0	-0.070001364
249	0xbdd40ee9	-0.103544064
250	0xbde7e354	-0.11322656
251	0xbd5c1aac	-0.053736374
252	0x3d57ab0c	0.052653357
253	0xbcdf0fdc	-0.027229242
254	0xbd821b97	-0.063529186
255	0x3d746e6c	0.05967562

fc1.bias f4 [20]
0	0xbcf82664	-0.030291744
1	0xba8b8f7e	-0.0010647622
2	0xbc586668	-0.013208009
3	0xbd324bd7	-0.043529358
4	0xbc89032c	-0.016725145
5	0xbc4cb480	-0.012494206
6	0xbd54db16	-0.05196675
7	0xbcac9bc9	-0.021070378
8	0x3cf4f1c6	0.029900443
9	0xbbc4dda0	-0.006007865
10	0xbce61d24	-0.028090067
11	0x3d3d1300	0.046160698
12	0xbd140d02	-0.036145218
13	0xbd725dbc	-0.059171423
14	0x3c18c118	0.009323381
15	0xbce01248	-0.027352467
16	0x3d77939f	0.060443517
17	0xbc892e45	-0.016745696
18	0x3c5858fe	0.013204811
19	0xbca5b990	-0.020230085

fc2.weight f4 [20, 20, 1]
0	0xbc37e040	-0.011222899
1	0xbcf7cf87	-0.030250324
2	0x3e600a58	0.21878946
3	0x3e529e7d	0.20568271
4	0xbbafd500	-0.0053659678
5	0x3b4ca4d2	0.003122617
6	0x3e1ea7c4	0.15493685
7	0xbd34c460	-0.04413259
8	0xbeb877a5	-0.36028782
9	0x3e03bfa5	0.12866075
10	0xbe4852ce	-0.19562837
11	0xbea5c4ed	-0.32376805
12	0xbe31ea33	-0.17374496
13	0xbe5761e4	-0.21033436
14	0x3e44027c	0.19141573
15	0x3db613cf	0.08890497
16	0xbc8495b4	-0.016184665
17	0x3ec6ae1b	0.38804707
18	0x3dae0f3c	0.084989995
19	0xbe5a1b1f	-0.21299408
20	0x3e9a914c	0.30188978
21	0xbd585f52	-0.05282528
22	0x3e11adf8	0.1422652
23	0xbe23206d	-0.15930338
24	0x3da4601c	0.08026144
25	0x3ea171e9	0.3153222
26	0xbd6ce093	-0.05783136
27	0xbd1e3710	-0.03862673
28	0x3e2293ea	0.15876737
29	0x3e435edc	0.19079155
30	0xbe9e3742	-0.30901533
31	0xbe91e2a4	-0.28493226
32	0xbe4d9ded	-0.20079775
33	0x3e1cf363	0.1532722
34	0x3eb26c3a	0.34848195
35	0xbd70d17e	-0.058793537
36	0xbec531e5	-0.3851463
37	0x3e367b37	0.1782044
38	0x3e780a19	0.24222602
39	0x3e359e08	0.17736065
40	0x3e4cd120	0.2000165
41	0x3dff9f22	0.12481524
42	0xbec2bf77	-0.380367
43	0x3ea2f52e	0.31827682
44	0xbe90f373	-0.28310737
45	0xbe9d8aa7	-0.30769846
46	0x3d97e3f4	0.074165255
47	0x3bf2e737	0.007412817
48	0xbe7aaf06	-0.24480829
49	0xbe99b625	-0.30021778
50	0xbe4e7e3b	-0.2016534
51	0xbe7e7109	-0.24847807
52	0x3de0594c	0.10954532
53	0xbe9391b9	-0.28822115
54	0xbd968e80	-0.073513985
55	0x3d4fe448	0.050754815
56	0x3eb0fa92	0.3456617
57	0x3ea5915b	0.3233746
58	0x3e00152c	0.12508076
59	0xbae83600	-0.0017716289
60	0x3ec2cdb4	0.38047564
61	0x3e8e50a9	0.27795914
62	0xbe0a7c74	-0.13524038
63	0x3da83664	0.08213499
64	0x3ea46866	0.321109
65	0x3e5f0eb3	0.21782951
66	0xbe8f7ba3	-0.28024015
67	0x3d82c787	0.06385713
68	0xbcbcc613	-0.023043668
69	0x3e949d98	0.29026484
70	0xbde0f8b8	-0.10984939
71	0xbe353379	-0.17695417
72	0xbd8e47ac	-0.06947264
73	0xbdbc9ba7	-0.09209376
74	0xbd8be708	-0.06831175
75	0x3ebe3ddb	0.37156567
76	0xbdff8bf0	-0.12477863
77	0xbe5ce1a8	-0.21570456
78	0x3e7fe708	0.24990475
79	0x3ec45594	0.3834654
80	0x3e462eb8	0.1935376
81	0xbd7da4be	-0.06192469
82	0x3e1cef78	0.15325725
83	0xbddc83ca	-0.10767324
84	0xbd790fd0	-0.060806096
85	0xbd069eff	-0.032866474
86	0xbe08bc9e	-0.13353202
87	0x3e471638	0.1944207
88	0xbdbd4b56	-0.09242885
89	0x3e97819e	0.29591078
90	0x3ce51010	0.02796176
91	0x3eb8f74e	0.36126179
92	0xbd996e64	-0.074917585
93	0x3ea8b0ea	0.32947475
94	0xbce80cb0	-0.028326362
95	0x3dae1bd1	0.08501399
96	0xbe1f9217	-0.15583073
97	0xbebf395c	-0.3734845
98	0x3e1feabd	0.1561689
99	0x3e2111e8	0.15729487
100	0x3e3f4768	0.18679583
101	0xbdea6222	-0.114444986
102	0x3e64d6bc	0.2234754
103	0xbce103c4	-0.027467616
104	0x3eb47ee4	0.3525306
105	0xbe24e842	-0.16104224
106	0x3e7670c2	0.24066451
107	0x3cca658a	0.02470662
108	0xbdde3e80	-0.10851765
109	0x3e050544	0.1299029
110	0x3eaf78ec	0.34271944
111	0x3eba3c32	0.3637405
112	0x3ec1c504	0.37845623
113	0xbeae8e72	-0.34093052
114	0x3e917264	0.28407586
115	0x3e46fbb3	0.19431953
116	0x3ec58d60	0.38584423
117	0x3c951c5d	0.018202001
118	0xbe70e96b	-0.23526542
119	0x3dfb6790	0.12275612
120	0x3ebc515a	0.36780816
121	0x3e574f33	0.21026306
122	0xbc8e9c60	-0.01740855
123	0xbea8cee4	-0.32970345
124	0x3e7021dc	0.23450416
125	0xbea27197	-0.31727287
126	0xbe6f2a2d	-0.23355933
127	0x3e60b027	0.21942197
128	0xbd704987	-0.05866387
129	0xbea53098	-0.32263637
130	0xbe671cb6	-0.22569546
131	0x3ca87e30	0.020567983
132	0x3e342664	0.1759277
133	0xbe10ae98	-0.14129102
134	0x3e2aec2c	0.16691655
135	0x3c954d34	0.01822529
136	0x3e081892	0.13290623
137	0x3d163c9c	0.036678895
138	0x3e0a9901	0.13534929
139	0x3e843980	0.2582512
140	0x3da969cc	0.08272132
141	0x3ea14b30	0.31502676
142	0x3ebb1c20	0.36544895
143	0x3da302f0	0.07959545
144	0x3db0d924	0.08635166
145	0xbe5d5e70	-0.21618056
146	0x3ea4c0ac	0.32178247
147	0xbdb66368	-0.08905679
148	0x3e9f2038	0.31079268
149	0x3d46cad0	0.04853326
150	0x3d87a288	0.06622797
151	0xbb9f3100	-0.004858136
152	0x3dd0cca0	0.10195279
153	0x3e4aff84	0.19824034
154	0xbe947683	-0.28996667
155	0xbe726595	-0.23671563
156	0xbe96539f	-0.29360673
157	0xbe885408	-0.2662661
158	0xbe1dec26	-0.15422115
159	0x3ec4cf18	0.3843925
160	0x3eafd58a	0.34342605
161	0xbda8f401	-0.08249665
162	0x3e63ef20	0.22259188
163	0xbec43f78	-0.38329673
164	0x3ebae030	0.36499166
165	0xbc004d10	-0.007830873
166	0xbdd919b3	-0.10600605
167	0x3e60ec41	0.21965124
168	0x3d1ffe0a	0.03906063
169	0xbe484c2f	-0.19560312
170	0x3ce51710	0.027965099
171	0x3ea03b88	0.3129542
172	0xbe7929d0	-0.24332356
173	0x3eb0ce46	0.34532374
174	0xbeb79034	-0.35852206
175	0xbec34113	-0.38135585
176	0xbdd5035f	-0.104010336
177	0x3e9bc24d	0.30421677
178	0x3d66c490	0.0563398
179	0xbdf9c9b8	-0.12196678
180	0x3dd52194	0.10406795
181	0x3ec2a49e	0.38016218
182	0x3e8799a8	0.26484418
183	0xbe733da3	-0.23753981
184	0x3e2c9d20	0.16856813
185	0xbea6df2b	-0.3259214
186	0xbe96d09b	-0.29456028
187	0x3e6a6abc	0.22892278
188	0xbd45ea95	-0.048319418
189	0x3e3b84ed	0.18312426
190	0xbe6a0690	-0.22854066
191	0xbe526977	-0.20548044
192	0x3e6c62bc	0.23084539
193	0xbd27fc94	-0.04101236
194	0x3db879b4	0.09007588
195	0xbe3aed05	-0.18254478
196	0x3e16cb21	0.14725925
197	0x3e7c5bda	0.24644414
198	0xbe9cf97e	-0.30659097
199	0xbe30f14a	-0.17279544
200	0xbc4b1720	-0.01239565
201	0x3d389334	0.04506226
202	0xbe83b7b5	-0.25726095
203	0x3e743af5	0.23850615
204	0x3e7c2c6c	0.2462632
205	0xbebf308f	-0.37341735
206	0x3e8eeb7d	0.27914038
207	0xbd9ced9c	-0.07662508
208	0x3e2c5485	0.16829117
209	0x3ebf7f63	0.37401876
210	0xbc8210d0	-0.015877157
211	0x3e1e3504	0.15449911
212	0x3e4d5a90	0.20054078
213	0xbec56243	-0.3855153
214	0xbeb8deda	-0.36107522
215	0x3ea5d363	0.32387838
216	0x3dc335e6	0.09531765
217	0x3e9da4a9	0.30789688
218	0xbdd1453e	-0.10218285
219	0x3cbb6df0	0.02287957
220	0xbd8ec99c	-0.06972048
221	0xbe802d47	-0.25034544
222	0xbe030324	-0.12794167
223	0xbda86a18	-0.08223361
224	0x3e182120	0.14856386
225	0xbdd7c9d0	-0.105365396
226	0xbe90847a	-0.28226072
227	0xbe3608ae	-0.17776749
228	0xbe42b3fa	-0.19013968
229	0xbea6521c	-0.3248452
230	0x3e8af3f0	0.27139235
231	0xbda0f7fc	-0.07859799
232	0x3eb84012	0.35986382
233	0xbd999afc	-0.07500264
234	0xbe15cf78	-0.14629924
235	0xbeb3c2e4	-0.35109627
236	0x3e362e30	0.17791057
237	0xbd8d98f4	-0.06913939
238	0x3e461064	0.1934219
239	0x3e2b9ae4	0.16758305
240	0xbec3b6a2	-0.38225275
241	0xbd24f7f8	-0.040275544
242	0x3e84b5ce	0.25919956
243	0xbd8b51e0	-0.06802726
244	0x3d658168	0.056031615
245	0x3eab1bb0	0.3341956
246	0xbe1084fa	-0.14113227
247	0xbdbfb0bc	-0.09359881
248	0xbe1d4c2f	-0.15361093
249	0xbe75e87a	-0.24014464
250	0x3eaa026e	0.3320498
251	0x3e69f984	0.22849089
252	0xbeb003cc	-0.34377897
253	0xbe8d8bf0	-0.27645826
254	0xbcfe4930	-0.031040758
255	0x3dba251c	0.09089109

fc2.bias f4 [20]
0	0x3e433781	0.19064142
1	0xbe4275e7	-0.18990289
2	0xbd51f0e5	-0.051255126
3	0x3dbafbcf	0.0913006
4	0x3e239c15	0.1597751
5	0x3ded81e2	0.11597039
6	0x3d1247fe	0.03571319
7	0xbe3a35b8	-0.18184555
8	0x3e01e3cf	0.12684558
9	0xbd8cc297	-0.068730526
10	0x3e40d916	0.18832812
11	0x3df14a44	0.11781743
12	0x3e10e584	0.14150053
13	0xbd454266	-0.048159026
14	0x3c808350	0.015687615
15	0xbd920326	-0.07129507
16	0xbdb1d744	-0.08683637
17	0xbe30e802	-0.17276004
18	0x3e437f03	0.1909142
19	0xbe6398d5	-0.2222627

fc3.weight f4 [1, 20, 1]
0	0x3e350d04	0.17680746
1	0xbec69718	-0.3878715
2	0xbe04e209	-0.1297685
3	0xbded14bf	-0.11576223
4	0xbe83ce7e	-0.2574348
5	0x3e9fdf5c	0.31225097
6	0x3e71b17e	0.23602864
7	0x3effb70e	0.49944347
8	0xbe03c3a5	-0.12867601
9	0x3e0e3229	0.13886322
10	0x3e1041d7	0.14087616
11	0x3f035605	0.5130313
12	0x3e18dee8	0.14928782
13	0x3ef973e8	0.48721242
14	0x3ef1852e	0.4717192
15	0x3eaa3a88	0.3324778
16	0x3eb4924e	0.35267872
17	0xbdcdd6a8	-0.10050708
18	0x3ce2a2b5	0.027665475
19	0x3dc669e0	0.09688163
