Task assignment/drl4vrp/vrp/10/19_07_57.994352/checkpoints/9/critic.pt (torch, 29011 bytes, 9 tensors)

static_encoder.conv.weight f4 [128, 2, 1]
00000000: 99e5 173e 12f3 4dbe 541b 1f3e a374 5e3e
00000010: 8a0c 04be a1a6 8fbd 9b86 c03d c77a 1a3e
00000020: 6128 043e a019 473e af23 533e a60a 63be
00000030: d7de 02be ebff 46be 050d 05be fa68 dd3d
00000040: 2243 a63d a520 543e e411 0abe 9787 9b3d
00000050: 8775 09be 4df5 ddbc dad2 cd3d 3fa1 d43d
00000060: 1dec bf3d bff6 f1bd bb4c 4cbe 4675 44be
00000070: 6f50 2dbe 1349 a03d 10ab 0dbe 2551 8a3d
00000080: adfc fb3c 8ae0 133e b255 1d3e 730e 403e
00000090: 4665 fbbd 1af3 503e 0308 393e b50e 1bbe
000000a0: d768 283e 8e2e 05be dffd 2d3e cebd 02be
000000b0: 9efe 56bd 009d 0cbe 257d 1b3d 6daa ffbc
000000c0: ede0 38be f782 333e eb85 a6bd c6ca 35be
000000d0: 37a8 e5bd 3120 2cbe 066e 11be b18d 44be
000000e0: eea2 143e f54d c3bd 1c80 bf3d 01e8 c33d
000000f0: 830b b73d 8fe4 c93d e651 29bd 1b5f b9bc
00000100: 1bcc f8bc 6a92 dd3a 7f7f 4cbe 9dd9 d5bd
00000110: 6eb8 2cbd 0313 a2bc 61ce 0d3e 1fbe 833c
00000120: 752a 46be a66d 403e 7558 9f3d d2b6 03be
00000130: 1ec9 a2bd 9759 3639 7e92 5c3e cd70 02be
00000140: 7629 91bc e5fe d8bc 9f76 57be 9352 823d
00000150: 97c0 49bc bbc8 cd3d 261b c23d 2f84 f0bc
00000160: 8604 38be 4312 1a3d 4f8e 3b3e 59a3 073e
00000170: 7737 b1bd 90c8 203e 0480 3ebd 5dbb 2fbe
00000180: d96a 41bc b554 c4bc fc48 f7bd 77bd 1ebe
00000190: 38b1 04be 4689 b1bd e431 4dbd 1f1c ac3d
000001a0: 7d99 05be 8aac 423e def4 12be a9f5 23bd
000001b0: 0b12 283d ccc5 073d 7f9a c43c 23aa c4bc
000001c0: e829 a03d 599b 793d f421 f43d 3e3d b23c
000001d0: bafe 4dbe 735c fabd 3e24 193d 1094 513e
000001e0: c800 48be b4eb b5bd 0ccf 8f3d f0d7 ff3d
000001f0: 165b 1f3d 08bd 1c3e 9509 2d3c d99b 023e
00000200: ec01 42be d5dc 21be e37a 69bd b058 ad3d
00000210: 5934 34bd dc69 b4bd 9209 e3bd c8e8 58be
00000220: d164 203e d4a8 9b3d ff90 d3bd 6a01 cebd
00000230: 470a 3b3d 74ec 483e 95bc 953d 5443 a53c
00000240: fadb 243e 85ae 43be f66b 42bd d364 5c3e
00000250: c1f9 eebd 76fe 0a3e b26f 70bd 5b81 8fbd
00000260: ab83 933c 7c13 833c 4661 553e 309f 60bd
00000270: a010 9d3d e9a4 dcbb a97c 85bd ea76 643e
00000280: db32 43be 993c a7bd d4aa 1fbe a91b f93b
00000290: 233b 4d3e 2f1b ff3d 5362 273d 050e a1bd
000002a0: c523 b33d d27a 19bd bca2 76bd 6de4 1e3e
000002b0: 07ae 003e 05d0 fd3d d4e5 563e c202 0e3e
000002c0: b832 003e 5a15 353e 0d0f 053e a3b1 69bd
000002d0: a43b b83d edae 21be b2b5 933d 6c2f 3f3d
000002e0: 9817 153e 327e 7fbd ffde 8dbd f670 18be
000002f0: 1863 c63d f35f 3fbe 1c0d efbd 67df 373d
00000300: 9f70 54be 45cb 523e 8aba c43d 4995 983d
00000310: 99ca 533e f9f4 40be c6b7 24be 8fc7 433d
00000320: 2747 123e 5dca f83d 9ccc 5a3d bdc4 153e
00000330: 203a 683e f214 2bbe f59b 703d 776b 403e
00000340: 3a33 873d bb47 59be 02aa 4a3e 778a b0bd
00000350: 704f 833d 6e9f a6bc 0106 1a3e e820 9abd
00000360: 9c51 163e 9ca5 1cbe 6299 fdbd 5e4d dfbd
00000370: 6658 ff3d a319 243e f99e 423e 7324 28be
00000380: 5426 763d aeff 0ebd c0a8 46bd 26dc 3bbe
00000390: e88e 9b3a db9f 353e 174e 003e 3060 8d3c
000003a0: adbd 20bd 7e68 573e 8dbc 8cbc d587 34be
000003b0: 937f 07be e2f1 05be 13db e73d e4e9 223d
000003c0: dcf1 34be dce5 493e 414e 07be 3925 123e
000003d0: 3434 20bc 9c2f 14be b9fd 563e 34f5 093e
000003e0: 53bf 4e3d 62f5 69bc 90a5 c93c ba22 333e
000003f0: 5c46 f13b 8975 22be f4a9 5bbe 0276 48be
0.14833678 -0.20112255 0.15537769 0.21724181 -0.12895408 -0.07014204 0.09400674 0.15085898
0.12906028 0.19443369 0.20619081 -0.22172031 -0.12780319 -0.19433562 -0.12993248 0.10811038
0.08118273 0.20715578 -0.13483387 0.07594221 -0.1342374 -0.027094508 0.10049982 0.10382318
0.09371207 -0.11814641 -0.19951145 -0.19185361 -0.16925214 0.07826438 -0.13834786 0.06753758
0.030760134 0.14441124 0.15364721 0.18755512 -0.12275176 0.20405236 0.18069462 -0.15142329
0.16446243 -0.1300604 0.16991375 -0.12767717 -0.052488916 -0.13731766 0.037961144 -0.031209195
-0.18054552 0.17530428 -0.081310116 -0.17753133 -0.11213725 -0.16809155 -0.14202127 -0.19194676
0.14515278 -0.095363535 0.09350607 0.095657356 0.089377426 0.09858047 -0.04133787 -0.022628358
-0.030370763 0.0016904597 -0.19970511 -0.10441897 -0.042168073 -0.019784456 0.13848259 0.016081868
-0.19352134 0.18791828 0.07780544 -0.12862709 -0.07948516 0.00017390247 0.21540257 -0.12738343
-0.017719965 -0.02648873 -0.21041344 0.06363406 -0.012313983 0.10048052 0.094778344 -0.029359905
-0.17970476 0.037615072 0.18316005 0.13245906 -0.08653157 0.15701509 -0.046508804 -0.17161317
-0.01180526 -0.023966173 -0.120744675 -0.15501963 -0.12958229 -0.08668761 -0.050096408 0.08403801
-0.13046832 0.19011131 -0.14351222 -0.0400292 0.041032832 0.03314762 0.02399945 -0.024006909
0.07820493 0.060939167 0.119205385 0.021757718 -0.20116702 -0.122246645 0.03738808 0.20466638
-0.19531548 -0.088828474 0.07021913 0.12492359 0.038905226 0.15306485 0.010561367 0.12754764
-0.18946046 -0.15806897 -0.05700196 0.084641814 -0.043995235 -0.088092536 -0.1108581 -0.21182549
0.15663458 0.07600561 -0.1033039 -0.100588635 0.045664098 0.1962145 0.0731136 0.020173706
0.1609954 -0.19109543 -0.04746624 0.21522836 -0.116687305 0.13573632 -0.05870027 -0.070070945
0.01800712 0.016000502 0.20837888 -0.054839313 0.076691866 -0.006733526 -0.06517918 0.22310987
-0.19062369 -0.08165855 -0.1559251 0.0076021743 0.2004209 0.12456357 0.040865254 -0.07864002
0.08747057 -0.037470646 -0.06021379 0.15516825 0.12566386 0.12393192 0.2098611 0.1386824
0.12519348 0.17683926 0.12994023 -0.057054173 0.089957505 -0.15789385 0.0721239 0.046676084
0.14559782 -0.06237621 -0.06927299 -0.14886841 0.096868694 -0.18688945 -0.11672422 0.044890787
-0.20746087 0.20585354 0.09605892 0.07450349 0.20682754 -0.1884345 -0.16085729 0.047797736
0.14284955 0.12147973 0.053417787 0.14625831 0.22678423 -0.16707209 0.058742482 0.18790995
0.066015676 -0.21218769 0.19791415 -0.0862016 0.06411636 -0.020339694 0.15041353 -0.075258076
0.14679569 -0.1529755 -0.12382771 -0.109034285 0.124680325 0.16025405 0.19005956 -0.16420154
0.060095146 -0.034911804 -0.048500776 -0.18345699 0.0011868151 0.17736761 0.12529789 0.01725778
-0.03924339 0.21035954 -0.017179752 -0.17629941 -0.1323226 -0.13080552 0.11321082 0.039773837
-0.17670387 0.1971659 -0.13213445 0.14272012 -0.009778071 -0.14471287 0.20995225 0.13472444
0.05047543 -0.014279695 0.02461508 0.17493716 0.007363124 -0.15865149 -0.2145155 -0.19576266

static_encoder.conv.bias f4 [128]
00000000: bcbd da3d 69f5 dfbe 8e4b 5abe 0a75 0ebe
00000010: 895c 9e3e 9455 6dbe 5f13 a83e 43bc 943d
00000020: 04b5 debe 4e7d 7c3e 9077 853e f9ce 303f
00000030: 1377 eb3e 65df d53e 084b 163d 32f4 8dbe
00000040: 1572 f03e 5061 093f a0ac 253f f3c4 e63e
00000050: 68d4 9f3e 90dd 143f 6a29 c3be 56f0 c5be
00000060: ab5e 0c3f 7ab4 843e 576f 693e 941a 01bf
00000070: ac9f a9be 5bee 053f 72ad a23e db7a b1be
00000080: 132b dd3e 19de db3d 0d80 3fbe e1df 0b3e
00000090: dfb9 08bf 1659 a2be 83be f93e c831 b23e
000000a0: 7144 6c3c f9e7 c53e 5e36 bb3e 3035 773e
000000b0: f5fb d03d f6af 51bd ffef 25bf 4317 51be
000000c0: c8f3 093f df44 d9be c2c4 ba3e bf6a 623d
000000d0: b2a1 31bf fee0 7d3e 5e73 5f3e cdca 8ebd
000000e0: 34a0 2fbf 9222 0bbf 5612 ad3e dc77 d3be
000000f0: 233c ac3e 5955 113f 3fdf 17bf 94b3 e8be
00000100: 7582 1c3f 93dd 58bb 9ce2 be3e 0ae6 a93d
00000110: 616f 9cbe 6c2c 22bd 5a3c 04bf eb8d b6be
00000120: 68ab afbe 7992 81be 05a9 1f3f 1d1d 3fbd
00000130: 478a b73d 3d33 babe e99a 213e 7bfd febe
00000140: 005c 72bd ed14 ea3d 72af 3dbe 5028 723e
00000150: 5a04 1abf 794e 313f a6dc ecbd c194 17bf
00000160: 7950 21bd 255a c03e ade4 433e fdbe 29bf
00000170: 052b 01be 7243 123f 653e 223f 0824 e0be
00000180: d717 26bf 0d8e a1bd 0c74 d13e ce88 0f3f
00000190: 23e4 1c3f 1218 84bb 7966 26bf 98ee cd3e
000001a0: 9954 30bf d1a1 2f3e 6c7d 503e ad22 073e
000001b0: 2296 003f e0c3 ddbe 28e6 313f d24b 1cbf
000001c0: 8aa9 1d3f 473b 9fbe bb33 02be 3c6d fb3d
000001d0: 6ac1 f93e ab0c dfbe 105a f4bc ee96 b33e
000001e0: a0a8 a23d d7a1 03be 587e 203f ff86 bd3e
000001f0: b747 db3e 6bd5 b33e db9a 10bf 1c4c 87bd
0.1068072 -0.4374192 -0.21317884 -0.13911834 0.30929974 -0.23177177 0.3282728 0.072624706
-0.4349748 0.24657175 0.2606778 0.69065815 0.45989284 0.41772 0.03669265 -0.2772537
0.46962038 0.5366411 0.6471653 0.45072135 0.3121674 0.5815058 -0.38117534 -0.38659924
0.5483195 0.25918943 0.22796379 -0.5043118 -0.33129632 0.52316827 0.31772953 -0.34664044
0.43196926 0.10735721 -0.18701191 0.13659622 -0.53408617 -0.31708592 0.4877816 0.34803605
0.014420615 0.38653544 0.36564916 0.24141383 0.10204307 -0.0511932 -0.6481933 -0.2041903
0.53887606 -0.42435357 0.3647824 0.055277582 -0.6938735 0.24792859 0.21821353 -0.06972275
-0.68603826 -0.54349625 0.33803052 -0.41302383 0.3363963 0.56770855 -0.5932502 -0.45449507
0.6113656 -0.0033091053 0.37282264 0.082958296 -0.30553725 -0.039593145 -0.5165459 -0.3565515
-0.3431046 -0.25307062 0.6236728 -0.046658624 0.08961921 -0.36367217 0.1578175 -0.49802765
-0.05916977 0.114297725 -0.18523958 0.2364819 -0.6016289 0.69260365 -0.11565523 -0.59211355
-0.039383385 0.37568775 0.19130202 -0.6630705 -0.12614067 0.57134163 0.63376456 -0.4377749
-0.64880127 -0.07888422 0.4090885 0.5606812 0.6128561 -0.0040311897 -0.6500011 0.40221095
-0.68879086 0.17151572 0.20360345 0.13196822 0.50229084 -0.43313503 0.69491816 -0.6105319
0.6158682 -0.31099913 -0.12715046 0.12276694 0.48780376 -0.43564352 -0.029828101 0.35076088
0.07942319 -0.12854706 0.62692785 0.37017056 0.42828152 0.35123762 -0.5648629 -0.066063136

dynamic_encoder.conv.weight f4 [128, 2, 1]
00000000: c5a0 313e 920a 51be 92f5 f1bb 64ff 043e
00000010: 8c2b 613d 7ce2 1dbe 2bda b23d a0fa 853d
00000020: 7ed6 073e 5429 3abe c2e4 ed3d f7de 163e
00000030: e909 793d bd70 1e3e 2377 9bbd 727b 883e
00000040: 7d14 ab3c 7729 5b3e e1cb a5bd e9b1 173e
00000050: afb1 0dbe a7f1 71be 46dd 34be fc5e 5bbe
00000060: 55ff 7f3d d9ff 283e 6eb9 2bbe 6236 403e
00000070: ae33 27be ceb8 043e 1239 133e d6e0 a6bd
00000080: 2172 083e de0a c63d 15fb f23d 6c3b 11be
00000090: a508 49be 936b 803e f97f 9bbd 1294 6abe
000000a0: 7336 ccbd 23e3 803d d0fc 0f3e 67be 2b3e
000000b0: ca6a 343b 0810 a9bd 154a 8ebd 6b51 65be
000000c0: 27ea c73d 5894 9bbd 555d 02be 4d97 20be
000000d0: 0a39 893d c4f4 873e 7509 473c 3940 2ebe
000000e0: 6b5a 223e cba0 51bd f78a 2e3e 0449 9a3c
000000f0: b7d9 a3bd efbb ff3d 52cd 8abd 1b6b 67be
00000100: 0dcc 2b3e 4d32 733d a5fd 253e 72f2 ebbd
00000110: ae21 3ebe f677 80bd 3d79 8bba 5c82 eb3d
00000120: 9547 2b3e 2f77 fabc ec8f d23b cfab d63d
00000130: 935c 78bd ee59 823e 123b 6ebd 97c5 80bd
00000140: 26c5 cdbd cce4 483e 4ab1 433e cfae ed3d
00000150: b718 20be 68b7 ef3d 4ff9 3e3e 9004 b43d
00000160: 18ae 22be 7991 5f3e 4c3c 09be 0ef3 7abe
00000170: 562d fd3d 873d 88bd 1f85 1d3e b661 d1bd
00000180: 5010 b23c 5dc9 3e3d 0fd9 2c3e 4d0f 6abe
00000190: e4b9 13bd 91c2 383e f807 42be 2a1d d4bd
000001a0: 0391 1bbe e023 63bc 16be 033e 0afa 8bbc
000001b0: 5ce6 4c3e e399 36be ac7d e33d 1b24 af3c
000001c0: 09f1 09bd 2a7e 6a3e 00c9 4cbe c116 5bbe
000001d0: c915 82bd b42c d2bd ed76 ed3c 3fa2 fdbd
000001e0: 0642 5e3e 1590 2d3d e496 c7bb 0093 8d3c
000001f0: 159f 9cbd 59df 6abe 36b5 5abe 2a62 e1bd
00000200: f66f 5abe 3c58 2e3e 95c4 2ebe f553 14be
00000210: 0646 ba3d 926c 813e 5562 3c3e 9b62 e83d
00000220: 2a22 243d dbdb 31bd efb0 143e 9140 4e3e
00000230: 8e6b 5d3e bb61 183d 7a22 383e a7c9 1abe
00000240: 5410 c83d 922e 4c3e 1420 693d 7c51 04bd
00000250: bd39 db3d fad7 2f3d cf17 b8bc bc36 1cbe
00000260: 8b55 2dbe 9088 09be 60a4 3f3e 06f9 ca3d
00000270: 1a34 053e 92d8 853e 230c 1a3e dc18 cc3d
00000280: 7a29 e8bd b00b ecbc 73b4 163e 2a9f e5bd
00000290: efb4 8dbc d5cd 59be 1ffb 2f3d e0c1 92bd
000002a0: 4e05 4a3e fc83 e4bd 25ae b7bd fa46 bd3d
000002b0: 75d1 093e 8e5f 4cbe 7b01 223e df49 4ebe
000002c0: f4a5 613d fbd6 d2bd 0c67 a23d 3728 6a3e
000002d0: 01a8 5dbe 7096 2ebe 97a3 3bbd fd6f 9e3d
000002e0: 21c8 393e 0866 153e a202 c5bc 776f 22be
000002f0: 1548 093e 892d 1e3e e2f6 1d3d 96b2 b9bc
00000300: 9485 35be ae4a 4b3d 5ed4 9a3c 9fd3 7bbd
00000310: 5f5d abbd db30 82bd bccf 99bd 721b 28be
00000320: 86b3 12be 3bc8 df3d c2bb c7bd c769 743e
00000330: cdc4 133e 62fd 38be 629d cf3d 2677 05be
00000340: 45f2 4fbe f99e 853d 62e4 b13d 5985 dfbc
00000350: 3056 43be 8f39 6cbe 2ec7 143e 8984 dd3b
00000360: e847 25bc 7555 e5bd 3a91 ebbd c062 b23d
00000370: 1071 bdbd dad7 b33d 329c abbd c55d 17bd
00000380: c1f7 083e 00bc c43d 7614 3abe 26fe 053d
00000390: 419d 4dbe c4f7 a6bd fe00 de3c 83f4 f63d
000003a0: 43b2 4e3d b86c 2bbc 03a1 b5bd f5bf d23d
000003b0: 0f9c 51bd 3e7b d8bd 289a 343b 615e 8bbe
000003c0: 728c 0d3e 8057 c0bd 7110 303e 1db1 5b3e
000003d0: 8ab7 a53d f30c 5d3e d031 3d3e 0890 3f3e
000003e0: 72b5 4ebe c5c0 84bd bd2f aebd 3ccb a53d
000003f0: c7cd ba3d 8cb2 23be 8c82 c33d f583 1c3e
0.17346485 -0.20414189 -0.0073840106 0.12988049 0.05497317 -0.15418428 0.087330185 0.065419436
0.13265416 -0.18179828 0.11615898 0.14733492 0.060800467 0.15472694 -0.07591083 0.2665668
0.020883793 0.21402536 -0.080955274 0.14813961 -0.13837312 -0.2362734 -0.17662534 -0.21422952
0.062499363 0.16503848 -0.16769955 0.18770745 -0.16328308 0.12961122 0.1437724 -0.08148353
0.13324787 0.096700415 0.11864296 -0.14182824 -0.19632204 0.25082073 -0.07592768 -0.22908047
-0.09971323 0.06293323 0.14061284 0.16771851 0.0027529472 -0.08255011 -0.06947724 -0.2239434
0.09761458 -0.07596654 -0.12730916 -0.15682717 0.067003325 0.2655393 0.012148251 -0.17016686
0.15854804 -0.051178735 0.17045198 0.018833645 -0.0800051 0.12487017 -0.06777443 -0.22599451
0.16777058 0.059374142 0.16210039 -0.11520852 -0.18567535 -0.06272881 -0.001064099 0.114994735
0.16726525 -0.03057441 0.006425848 0.10481989 -0.06063516 0.25459236 -0.058161803 -0.06287687
-0.10047369 0.19618529 0.19110599 0.11605608 -0.15634428 0.11704904 0.18649791 0.08789933
-0.15886724 0.21832837 -0.13401908 -0.2450678 0.12362163 -0.066523604 0.15382813 -0.10223715
0.021736294 0.046578754 0.16879676 -0.228574 -0.03606595 0.18042971 -0.18948352 -0.10357125
-0.15192036 -0.013863534 0.12865481 -0.017087001 0.2000975 -0.1783214 0.111079544 0.021379521
-0.033677135 0.2289969 -0.1999855 -0.21395399 -0.063518114 -0.10262433 0.028987372 -0.123844616
0.21704873 0.042373735 -0.0060909856 0.01728201 -0.0764753 -0.22936763 -0.21358189 -0.110050514
-0.21331772 0.17025846 -0.17067178 -0.14485152 0.09095387 0.25278145 0.18396886 0.113469325
0.040071644 -0.04342256 0.1452062 0.20141818 0.2162306 0.037202578 0.17981902 -0.15115987
0.09768739 0.1993964 0.056915358 -0.032304272 0.10704372 0.04293058 -0.02247229 -0.15255255
-0.16927163 -0.13431 0.18715048 0.09910779 0.13008156 0.26141793 0.15043692 0.09965679
-0.11336036 -0.028814167 0.14717273 -0.11211999 -0.01729819 -0.21269925 0.042964097 -0.07165885
0.19728586 -0.111579865 -0.08968762 0.09242053 0.13458808 -0.19958326 0.15820877 -0.20145367
0.055089906 -0.102949105 0.07929811 0.22866903 -0.2164612 -0.17049575 -0.04581031 0.07736204
0.1814275 0.14589703 -0.024049107 -0.15862833 0.13406403 0.15447058 0.038565524 -0.022668164
-0.17726737 0.049631767 0.018900093 -0.061481114 -0.083674185 -0.06356975 -0.07510325 -0.1641672
-0.14326295 0.10926863 -0.09752609 0.23868476 0.14430542 -0.18065408 0.1013744 -0.13033733
-0.20307262 0.06524462 0.08686139 -0.027285265 -0.19075847 -0.23068832 0.14529106 0.006760184
-0.010087945 -0.1119794 -0.11502309 0.08710241 -0.092500806 0.08781405 -0.08379401 -0.03695466
0.1337576 0.09606171 -0.18171868 0.032713078 -0.20079519 -0.08152726 0.027100082 0.12058356
0.050462972 -0.010462932 -0.08868601 0.10290519 -0.05117422 -0.105703816 0.0027557705 -0.27220443
0.13823107 -0.09391689 0.17193772 0.21454282 0.08091648 0.21586971 0.18476033 0.18707287
-0.20186403 -0.0648208 -0.08505199 0.080954045 0.0912128 -0.15986079 0.09546384 0.15284713

dynamic_encoder.conv.bias f4 [128]
00000000: d8ef 693e 6b72 21bf 5155 933e 2d8c 52bd
00000010: 6ee0 d2bd dded b33e ef23 2bbf 87a7 9f3e
00000020: 5a67 75be 3b38 f7be 0826 c23e 1e5f 123e
00000030: 488f e03e 454e cc3e a759 00bf 5bb7 b1be
00000040: d94a a73d 6791 09bf d728 2bbf 5255 133f
00000050: 37ab a7be bb5e b8be 25f8 d03e 41d9 26bf
00000060: 5d89 66be adb1 07bf b533 9cbe b84b 113f
00000070: 48cf d73d 0320 43be b0ef 47be d08c 52be
00000080: a343 373e ebbb 09bf c825 873e 4418 9ebe
00000090: 33ca 0e3f c8ba 74be e6c2 403d b250 1e3e
000000a0: dcf1 2c3e 3c42 6dbe ea31 163f 0acb ad3e
000000b0: f099 193f b023 8bbe 9287 cb3e 767a 11bf
000000c0: 64e3 573e b880 b43e bda7 083f bef3 dabe
000000d0: bf08 b4be 37ab 1ebf 183f 76be 391f abbe
000000e0: 5267 e3be b33d 1cbf d075 263f bb92 2bbe
000000f0: 6158 423e fd3f 203f a177 acbd cd71 853e
00000100: 2efb 8a3e ebe6 f83e eb4d f33e e219 f03e
00000110: 1dff aebd fa52 263f 396f 28bf d731 8bbe
00000120: 8d9b 073f 7a3d 2ebf f1f2 21bf eb1e 313f
00000130: 4c1f 0d3e 04b6 f33d 607e f23e b8c0 94bd
00000140: 5e28 143f c6e7 02bf b387 51be 72a8 ecbe
00000150: 8659 b0bd a5d3 f33d b06d b1be 7caa 1dbd
00000160: 493e b53e 5b1a 913e 6dc3 073f 5d32 f03e
00000170: 49c7 d9bc 2c9a c8be 3d16 32bf 96b0 7b3c
00000180: 1993 ba3e 9a67 a13d bbce a8be a8fd 603e
00000190: 6a79 fb3e 59e8 8d3e 8757 e63d ac0c 1f3f
000001a0: 4b62 9c3d 43b2 c1be 784a 0ebf 9497 22bf
000001b0: b865 e2be 1bcd aa3e 3fe4 29bf 7063 d33e
000001c0: bb41 f43d 168b 7abe 6431 4f3e d7a5 1abe
000001d0: 552e d43e 2f43 0ebf cc97 2bbf 8f24 503d
000001e0: ac53 0fbf 352d 1f3f 1d1e 10bf 0ccb da3e
000001f0: 60b8 b7be b8dd a6be 2a3c f6bd 627f 0e3e
0.228454 -0.6306521 0.2877603 -0.051403213 -0.10296713 0.35142413 -0.66851705 0.311825
-0.23965207 -0.48285088 0.3791964 0.14294097 0.43859315 0.39903465 -0.501368 -0.34710202
0.08168573 -0.5373749 -0.6685919 0.57552063 -0.32747814 -0.36009774 0.4081432 -0.65175253
-0.22513337 -0.53005487 -0.305082 0.5675616 0.10537583 -0.1905518 -0.19525027 -0.20561528
0.17896895 -0.53802365 0.26396012 -0.30877888 0.5577728 -0.23899376 0.04706087 0.1546047
0.16889137 -0.23169798 0.5866991 0.3394397 0.60000515 -0.27175665 0.3975187 -0.56827486
0.21082836 0.35254455 0.5338095 -0.42764086 -0.35162923 -0.61980003 -0.24047506 -0.33422258
-0.44414765 -0.61031646 0.6502352 -0.16755192 0.18979026 0.6259764 -0.08421255 0.26063386
0.2714476 0.48613676 0.47520384 0.46894747 -0.08544753 0.6497036 -0.6579471 -0.27186462
0.52971727 -0.68062556 -0.63261324 0.691878 0.1378147 0.11899951 0.4736204 -0.07263321
0.57874095 -0.5113491 -0.20461921 -0.46222264 -0.08610825 0.11905602 -0.34653997 -0.038492665
0.35399082 0.2834042 0.5303257 0.46913424 -0.026584284 -0.39180124 -0.6956518 0.015361926
0.36440352 0.078810886 -0.32970223 0.21971762 0.4911607 0.2771633 0.11247163 0.6212871
0.076359354 -0.37831315 -0.5558238 -0.6351254 -0.4421823 0.33359608 -0.663639 0.41286802
0.119265996 -0.2446712 0.20233685 -0.15102325 0.414416 -0.55571264 -0.670285 0.050816115
-0.5598705 0.62178355 -0.5629595 0.42733037 -0.35882854 -0.32591033 -0.12023194 0.1391578

fc1.weight f4 [20, 256, 1]
00000000: 4e27 12be d29a c73d f8e2 833d 8c47 e2bd
00000010: 7edd d13d 9cac 243d 6872 fcbd e449 b2bd
00000020: f61a d13d 201e 04be 86f3 063e 33fd c0bd
00000030: 6c73 043e 09e2 a3bd fa37 0d3e 441e 083d
00000040: 00b4 67bb 40b8 e0bb a29c aebd 56aa 8fbd
00000050: 4cbd 003e 385b bb3d e693 b03d 12cb 963d
00000060: 6a65 c5bd bee5 c73d 26ce debd b466 a5bd
00000070: c0b7 04bd 4098 333b 0e28 28bd a874 813d
00000080: bc8c 133e 2e45 a63d 20eb b23b cacb b2bd
00000090: 552f 8abd 206c a1bb 701d 143e c360 abbd
000000a0: 79ae bcbd 6075 ef3d 8094 12bb d286 ae3d
000000b0: bc89 dbbc ca1b 163e 7cbc 55bd c2d6 48bd
000000c0: f0a0 ccbd 681e ecbc c629 c4bd 6ee1 0b3e
000000d0: 1c7e f03d a8c5 f7bd 3c2c 133d 4c2f 6fbd
000000e0: 2f19 0abe a09e 683d 8c16 fc3d 14ec c93d
000000f0: 8c71 0d3d b42b 073e 590d 93bd ac1c abbd
00000100: 5f82 f6bd 14b0 f6bc 582e b3bc 2424 46bd
00000110: 5292 013e a894 83bc 102d 713d a44f e73d
00000120: 0c36 d7bd ac34 0a3d 49a6 d0bd 4652 c93d
00000130: 7c06 4cbd 3c9f 083e 0827 ff3d 8062 81ba
00000140: d69c 43bd 2a6f 77bd ddac eabd 9490 e7bc
00000150: 3c1c f53d 584f 0f3e 2ae2 0bbe fb98 16be
00000160: 475d 01be 5cf1 513d 86d7 cb3d 0328 84bd
00000170: 74d5 ef3d ec0f a03d 1063 5a3d dc2c d9bd
00000180: 7472 c13d f20b 8d3d 80d4 a03a d06b 553d
00000190: 33a6 abbd 0439 78bd d0c8 d73d 9039 0bbe
000001a0: c0cc 0ebe 80e7 ea3b 62e5 b03d e28a b53d
000001b0: 500e 4e3d 5009 4f3c dc92 8c3d e0b5 7ebd
000001c0: 4ec6 43bd 2c3f e9bd c41b 023e 6430 6f3d
000001d0: 802a 3d3b 5c9f c33d 42fa 0a3e c426 873d
000001e0: 9e73 113e 2cef d83d 14f1 223d dc8c 113d
000001f0: a635 9cbd 60cb 80bc 8642 afbd 2af7 03be
00000200: 18dd e03c 40fb 09bb aa98 1ebd 1cc3 163d
00000210: c0b4 ca3c 5663 083e d473 7f3d d81a 043e
00000220: 201a 0c3e 88d9 9e3d 109d f43d 74e3 f1bd
00000230: 0c33 1a3d fc4e de3d 58c6 0f3e aebf 53bd
00000240: 2363 e7bd 742d 78bd 7ca8 103e 86a0 d3bd
00000250: 78de 533d 3ca7 0b3d 80ed 903a 2800 bb3d
00000260: 4caa 883d 9adb 8c3d c08f ce3c 10a2 893c
00000270: 68c6 b1bc 08cf e73d cc4f 06bd 6cd0 01be
00000280: 6457 8f3d 5c6d db3d 0833 953c 34c9 efbc
00000290: d030 8e3d 309b 0f3e 4012 f0bd 6e4e 61bd
000002a0: f031 10bd 48f5 3d3d 3a39 b73d ad52 9abd
000002b0: 87b3 82bd 6400 613d e794 c5bd 60a0 c33b
000002c0: 3865 123e 04da 7e3d 8cbc 0abe 5141 8ebd
000002d0: c4a5 0c3d 40f7 c13c 4a1d 013e 104d 8bbc
000002e0: bcfe 0abd 6c40 103e 1044 a0bd b439 df3d
000002f0: 2f5a 13be 0020 d1b7 b872 8fbc 47cc d5bd
00000300: 64c5 093e e037 b6bc 544a ffbd b215 ccbd
00000310: 6075 8c3d 486f 833c 80d1 633b d205 d03d
00000320: 781a fbbd 5039 00bd 4893 b13c c6f3 3ebd
00000330: 8ac7 eabd 40fe c43b b184 f7bd 70f0 d73c
00000340: 60a6 cb3c 24f5 2f3d c00e 28bc 8850 b5bc
00000350: 941c ee3d 3c48 d7bd 1092 0f3e 5e33 02be
00000360: 92f4 20bd c0a8 97bc 00b6 863d 0a47 dbbd
00000370: b06c edbd 2425 cf3d aead 99bd cacd 0ebd
00000380: 821c 123e 3245 10be e086 e23d 16cf f2bd
00000390: c8de c23d 14c7 163e acbc cd3d b607 40bd
000003a0: 53a0 02be e096 333d fe40 fbbd b8e6 2dbd
000003b0: c06d acbb a4ca a83d 4500 14be 7eae 9bbd
000003c0: 60d2 4b3d 5807 ea3d af89 0dbe 96c8 0bbe
000003d0: cacf 89bd fb50 80bd 98c7 b83d 243d c93d
000003e0: e05c 8fbd e90e d4bd 54e3 e7bd ac1a 5cbd
000003f0: 0cab 573d dc0f dfbc 971b 82bd 6c6e 743d
-0.14272806 0.097463265 0.06439775 -0.11048803 0.102473244 0.040203676 -0.12326509 -0.087055
0.102102205 -0.12902117 0.13178834 -0.09423294 0.12934655 -0.08002097 0.13790885 0.03323199
-0.003535509 -0.006857902 -0.08525969 -0.07014911 0.12572211 0.09148258 0.086219594 0.07362951
-0.09638484 0.09760617 -0.108791634 -0.0807623 -0.0324018 0.002740398 -0.041053824 0.063210785
0.14409155 0.08118664 0.005460158 -0.08730276 -0.06747309 -0.0049262196 0.14464355 -0.08368065
-0.092129655 0.116923094 -0.0022366345 0.08521809 -0.026799075 0.14659038 -0.052181706 -0.049032934
-0.09991634 -0.028823093 -0.0957828 0.13660213 0.117428035 -0.12098247 0.035930857 -0.058394715
-0.1348617 0.0567919 0.12308988 0.098594815 0.034532115 0.13200265 -0.0718028 -0.08355078
-0.12036585 -0.030113257 -0.021872684 -0.04837431 0.12653473 -0.016062096 0.058880866 0.11294487
-0.105083555 0.033741638 -0.101879664 0.098301455 -0.04981087 0.13341993 0.124586165 -0.0009871274
-0.047756992 -0.06040875 -0.11458752 -0.028267182 0.11968276 0.13995111 -0.13660493 -0.14706795
-0.12633239 0.05125557 0.09953217 -0.06452944 0.11710635 0.07815537 0.05331713 -0.10604259
0.09445658 0.06887044 0.0012270361 0.05210477 -0.08381309 -0.06060125 0.10536349 -0.13596177
-0.13945293 0.00716871 0.08637501 0.088643804 0.05030662 0.012636498 0.06863949 -0.06218517
-0.04779654 -0.11389002 0.12705904 0.05839576 0.0028864443 0.0955188 0.13572028 0.06599191
0.1420426 0.105924934 0.03978069 0.035534725 -0.0762742 -0.015721977 -0.0855761 -0.12887254
0.027449176 -0.0021054298 -0.03871981 0.036807165 0.024744391 0.13319144 0.06236632 0.12900865
0.13681841 0.077563345 0.1194402 -0.11810961 0.03764634 0.10854909 0.14040506 -0.051696472
-0.11298206 -0.060590222 0.14126772 -0.10333352 0.051725835 0.034095034 0.0011057109 0.09130889
0.066731066 0.06877823 0.02521503 0.01680091 -0.021701053 0.11318785 -0.032790944 -0.12677163
0.0699909 0.10714218 0.01821281 -0.029270746 0.06942904 0.14024043 -0.11722231 -0.055006437
-0.035203874 0.046376497 0.08946462 -0.075353004 -0.063818984 0.054932013 -0.096475415 0.005970046
0.14296424 0.062219635 -0.13548487 -0.06946052 0.034337774 0.023677468 0.12608829 -0.01700452
-0.03393434 0.14087075 -0.07825482 0.10899678 -0.14389871 -2.4929643e-05 -0.017510757 -0.104393534
0.13454205 -0.02224344 -0.12465349 -0.099650756 0.06858325 0.016044274 0.0034762323 0.1015736
-0.12260908 -0.031304657 0.021676674 -0.0466192 -0.1146384 0.0060117543 -0.12085856 0.026359767
0.024859607 0.042958394 -0.010257423 -0.022133127 0.116265446 -0.105118245 0.14020562 -0.12714908
-0.03929574 -0.018513083 0.065776825 -0.10706909 -0.11592996 0.10114506 -0.0750383 -0.034864224
0.14268687 -0.14088896 0.110608816 -0.11855905 0.095151484 0.1472438 0.10045752 -0.046882354
-0.12756471 0.043845057 -0.12268256 -0.04245636 -0.0052621067 0.08241776 -0.14453228 -0.07601641
0.049761176 0.11427182 -0.13822053 -0.13650736 -0.06729086 -0.06265446 0.090224445 0.09826115
-0.070001364 -0.103544064 -0.11322656 -0.053736374 0.052653357 -0.027229242 -0.063529186 0.05967562

fc1.bias f4 [20]
00000000: 6426 f8bc d530 deb9 6866 58bc d74b 32bd
00000010: 2c03 89bc 80b4 4cbc 16db 54bd 277c b4bc
00000020: c6f1 f43c a0dd c4bb 241d e6bc 0013 3d3d
00000030: 020d 14bd 6a4d 6fbd 18c1 183c 64bd e7bc
00000040: 1ca6 733d 7b4b 91bc fe58 583c 90b9 a5bc
-0.030291744 -0.00042379522 -0.013208009 -0.043529358 -0.016725145 -0.012494206 -0.05196675 -0.022031857
0.029900443 -0.006007865 -0.028090067 0.046160698 -0.036145218 -0.058423437 0.009323381 -0.02828855
0.059484586 -0.017736187 0.013204811 -0.020230085

fc2.weight f4 [20, 20, 1]
00000000: 40e0 37bc db25 01bd 580a 603e 7d9e 523e
00000010: 00d5 afbb d2a4 4c3b c4a7 1e3e bf7e 39bd
00000020: a577 b8be a5bf 033e ce52 48be edc4 a5be
00000030: 33ea 31be 8ef2 57be 7c02 443e 9010 b43d
00000040: 78f7 87bc a0aa c63e 3c0f ae3d 1f1b 5abe
00000050: 4c91 9a3e 525f 58bd f8ad 113e 6d20 23be
00000060: 1c60 a43d e971 a13e 93e0 6cbd 1037 1ebd
00000070: ea93 223e dc5e 433e 4237 9ebe a4e2 91be
00000080: ed9d 4dbe 63f3 1c3e 3a6c b23e 7ed1 70bd
00000090: e531 c5be 377b 363e 190a 783e 089e 353e
000000a0: 20d1 4c3e 5bfb 003e 77bf c2be 2ef5 a23e
000000b0: 73f3 90be a78a 9dbe f4e3 973d cb40 0a3c
000000c0: 06af 7abe 25b6 99be 3b7e 4ebe 0971 7ebe
000000d0: 4c59 e03d 765a 93be 808e 96bd ea5c 533d
000000e0: 071f b13e 1383 a53e 2c15 003e 0036 e8ba
000000f0: b4cd c23e 0cf2 8e3e 747c 0abe 6436 a83d
00000100: 6668 a43e b30e 5f3e a37b 8fbe 4334 853d
00000110: 13c6 bcbc 989d 943e b8f8 e0bd 7933 35be
00000120: ac47 8ebd 7aac bbbd 08e7 8bbd 16c0 be3e
00000130: 38c0 febd 5fe9 5cbe 08e7 7f3e 9455 c43e
00000140: b82e 463e bea4 7dbd 78ef 1c3e ca83 dcbd
00000150: d00f 79bd ff9e 06bd 9ebc 08be 3816 473e
00000160: 564b bdbd 9e81 973e 1010 e53c 4ef7 b83e
00000170: 646e 99bd eab0 a83e b00c e8bc d11b ae3d
00000180: 1792 1fbe 5c39 bfbe bdea 1f3e e811 213e
00000190: 6847 3f3e 22f9 ecbd bcd6 643e c403 e1bc
000001a0: e47e b43e 42e8 24be c270 763e 8820 c13c
000001b0: 803e debd 4405 053e ec78 af3e 323c ba3e
000001c0: 04c5 c13e acd4 aebe 6472 913e 9c00 463e
000001d0: 8a5a c53e 311a 953c 6be9 70be 9067 fb3d
000001e0: 5a51 bc3e ff04 563e 609c 8ebc e4ce a8be
000001f0: dc21 703e 9771 a2be 2d2a 6fbe b186 5f3e
00000200: 8749 70bd 9830 a5be b61c 67be 307e a83c
00000210: 6426 343e cb3a 11be 2cec 2a3e d268 8d3c
00000220: d3b0 073e 5931 163d 0199 0a3e 8039 843e
00000230: cc69 a93d 304b a13e 201c bb3e f002 a33d
00000240: 24d9 b03d 705e 5dbe acc0 a43e 6863 b6bd
00000250: 3820 9f3e d0ca 463d 88a2 873d 0031 9fbb
00000260: a0cc d03d 84ff 4a3e 8376 94be 9565 72be
00000270: 9f53 96be 0854 88be 26ec 1dbe 18cf c43e
00000280: 8ad5 af3e 1c9f a6bd 20ef 633e 783f c4be
00000290: 30e0 ba3e 104d 00bc b319 d9bd d6f8 613e
000002a0: 0afe 1f3d 2f4c 48be 1017 e53c 883b a03e
000002b0: d029 79be 0905 b13e 3490 b7be 03d2 c2be
000002c0: 8e71 d4bd 19b4 9b3e 90c4 663d b8c9 f9bd
000002d0: 9421 d53d 88fb c13e a899 873e a33d 73be
000002e0: 209d 2c3e 2bdf a6be 9bd0 96be 5a3a 693e
000002f0: 95ea 45bd ed84 3b3e 9006 6abe 7769 52be
00000300: bc62 6c3e 2c4c 2abd b479 b83d e6f0 3bbe
00000310: d45b 163e 4d51 7c3e 7ef9 9cbe 4af1 30be
00000320: 2017 4bbc 7148 333d b5b7 83be f53a 743e
00000330: 6c2c 7c3e 8f30 bfbe 7deb 8e3e 1551 9fbd
00000340: 8554 2c3e 637f bf3e d010 82bc 0435 1e3e
00000350: 905a 4d3e 41ac c5be dade b8be db50 a53e
00000360: 2c56 c23d 509f 9d3e 3e45 d1bd f06d bb3c
00000370: 9cc9 8ebd 472d 80be 2403 03be 186a a8bd
00000380: 2021 183e d0c9 d7bd 7a84 90be ae08 36be
00000390: fab3 42be 1c52 a6be f0f3 8a3e fcf7 a0bd
000003a0: 1240 b83e fc9a 99bd 78cf 15be e4c2 b3be
000003b0: 302e 363e f498 8dbd 6410 463e e49a 2b3e
000003c0: a2b6 c3be f8f7 24bd ceb5 843e e051 8bbd
000003d0: 6881 653d b01b ab3e fa84 10be bcb0 bfbd
000003e0: 2f4c 1dbe 7ae8 75be 6e02 aa3e 84f9 693e
000003f0: cc03 b0be f08b 8dbe 3049 febc 1c25 ba3d
-0.011222899 -0.031530242 0.21878946 0.20568271 -0.0053659678 0.003122617 0.15493685 -0.04528689
-0.36028782 0.12866075 -0.19562837 -0.32376805 -0.17374496 -0.21088621 0.19141573 0.087922215
-0.016597494 0.38802052 0.084989995 -0.21299408 0.30188978 -0.05282528 0.1422652 -0.15930338
0.08026144 0.3153222 -0.05783136 -0.03862673 0.15876737 0.19079155 -0.30901533 -0.28493226
-0.20079775 0.1532722 0.34848195 -0.058793537 -0.3851463 0.1782044 0.24222602 0.17736065
0.2000165 0.12595885 -0.380367 0.31827682 -0.28310737 -0.30769846 0.074165255 0.008438299
-0.24480829 -0.30021778 -0.2016534 -0.24847807 0.10954532 -0.28779954 -0.073513985 0.05160228
0.34593984 0.32326564 0.12508076 -0.0017716289 0.38047564 0.27919042 -0.13524038 0.08213499
0.321109 0.21782951 -0.28024015 0.06504109 -0.023043668 0.29026484 -0.10984939 -0.17695417
-0.06947264 -0.09163757 -0.06831175 0.37255925 -0.124390066 -0.21573399 0.24990475 0.3834654
0.1935376 -0.06192469 0.15325725 -0.10767324 -0.060806096 -0.032866474 -0.13353202 0.1944207
-0.09242885 0.29591078 0.02796176 0.36126179 -0.074917585 0.32947475 -0.028326362 0.08501399
-0.15583073 -0.3734845 0.1561689 0.15729487 0.18679583 -0.11570956 0.2234754 -0.027467616
0.3525306 -0.16104224 0.24066451 0.023575082 -0.10851765 0.1299029 0.34271944 0.3637405
0.37845623 -0.3414663 0.28407586 0.1933617 0.38545638 0.018200966 -0.23526542 0.12275612
0.36780816 0.20900343 -0.01740855 -0.32970345 0.23450416 -0.31727287 -0.23355933 0.21828724
-0.05866387 -0.32263637 -0.22569546 0.020567983 0.1759277 -0.14182584 0.16691655 0.017261896
0.13251047 0.036668155 0.13534929 0.2582512 0.08272132 0.31502676 0.36544895 0.07959545
0.08635166 -0.21618056 0.32178247 -0.08905679 0.31079268 0.04853326 0.06622797 -0.004858136
0.10195279 0.19824034 -0.28996667 -0.23671563 -0.29360673 -0.2662661 -0.15422115 0.3843925
0.34342605 -0.081358165 0.22259188 -0.38329673 0.36499166 -0.007830873 -0.10600605 0.2206758
0.03906063 -0.19560312 0.027965099 0.3129542 -0.24332356 0.34574154 -0.35852206 -0.3805085
-0.10373221 0.3041084 0.0563398 -0.12196678 0.10406795 0.37887216 0.26484418 -0.23753981
0.16856813 -0.3259214 -0.29456028 0.22776166 -0.048319418 0.18312426 -0.22854066 -0.20548044
0.23084539 -0.04157655 0.09007588 -0.18353614 0.14683467 0.24640389 -0.30659097 -0.17279544
-0.01239565 0.043770257 -0.25726095 0.23850615 0.2462632 -0.37341735 0.27914038 -0.07779137
0.16829117 0.37401876 -0.015877157 0.15449911 0.20054078 -0.38607982 -0.36107522 0.3228825
0.09489092 0.30785608 -0.10218285 0.02287957 -0.06972048 -0.25034544 -0.12794167 -0.08223361
0.14856386 -0.105365396 -0.28226072 -0.17776749 -0.19013968 -0.3248452 0.27139235 -0.07859799
0.35986382 -0.07500264 -0.14629924 -0.35109627 0.17791057 -0.06913939 0.1934219 0.16758305
-0.38225275 -0.040275544 0.25919956 -0.06802726 0.056031615 0.3341956 -0.14113227 -0.09359881
-0.15361093 -0.24014464 0.3320498 0.22849089 -0.34377897 -0.27645826 -0.031040758 0.09089109

fc2.bias f4 [20]
00000000: 4252 423e e775 42be 3cec 4ebd 60c3 bc3d
00000010: 159c 233e dac3 eb3d 24c7 0e3d b835 3abe
00000020: 83a4 023e 8992 8ebd 5df0 3f3e 444a f13d
00000030: 84e5 103e 18af 48bd 5083 803c 2603 92bd
00000040: 44d7 b1bd e4a8 2fbe a346 423e d598 63be
0.18976691 -0.18990289 -0.05051826 0.09216952 0.1597751 0.11511965 0.034857884 -0.18184555
0.12758069 -0.06961543 0.18744035 0.11781743 0.14150053 -0.048995107 0.015687615 -0.07129507
-0.08683637 -0.1715427 0.18972258 -0.2222627

fc3.weight f4 [1, 20, 1]
00000000: b2c8 343e 1897 c6be 23f5 04be 1537 f9bd
00000010: 7ece 83be fe8e 9f3e d2bf 703e 0eb7 ff3e
00000020: 6eb0 03be 6db7 0d3e c5cf 0f3e 0556 033f
00000030: e8de 183e a247 f93e 2e85 f13e 883a aa3e
00000040: 4e92 b43e ccda ccbd 6bd3 e03c e069 c63d
0.17654684 -0.3878715 -0.12984137 -0.12168709 -0.2574348 0.31163782 0.23510674 0.49944347
-0.12860271 0.13839503 0.14044102 0.5130313 0.14928782 0.48687464 0.4717192 0.3324778
0.35267872 -0.1000267 0.027444562 0.09688163
