Task assignment/drl4vrp/vrp/10/20_22_33.603681/checkpoints/8/actor.pt (torch, 734651 bytes, 14 tensors)

static_encoder.conv.weight f4 [128, 2, 1]
00000000: db20 d83d 1d92 913d 3153 ba3d 3f45 c5bd
00000010: d1b1 26be 54b4 9fbd 3806 3dbd e89f 69bd
00000020: e317 893d 476e 08be 1281 a63d 8d9c 233e
00000030: 3035 553e 7636 0cbe 8ae4 cd3d 61fc b2bd
00000040: e723 8cbd a270 e3bd cb99 1a3e 1d49 533e
00000050: fedf cf3d bd14 00be 04c7 68bd c190 99bc
00000060: 8fda 0c3e bf79 06be 5aab fcbd a902 bb3d
00000070: 921d 16be 9b70 eebd 4a73 413c ea2e fb3d
00000080: 5a93 08be 5cd4 f3bd 5d67 2fbe 4ab6 abbd
00000090: 844f 993d 34a8 df3c 860e f8bc 0814 40bd
000000a0: 9ad5 d73c 8ee2 893c 090f 923d 2b8e 623c
000000b0: 5e57 abbd 9648 003e 3dbb 3abb e1d4 06be
000000c0: ec53 22be a6d5 2b3e d0e0 ff3d c811 f4bb
000000d0: 53b4 1abd c9e5 15be a339 f23d 9a44 29bd
000000e0: d270 a63d d2ae 42be cd1e 423d 8442 21be
000000f0: 2132 1d3c 1697 dc3d 1125 87bd 42d5 1dbc
00000100: 5243 0cbe 2a7e 4c3e af2c 373e 02b0 303e
00000110: 9d42 45be d053 b13d 480b 0dbe ed8f 61bc
00000120: 2285 a7bc e320 0dbe 76ce 003d 51d0 a3bd
00000130: 9c21 543d 8e7b 293e 5292 4ebe 7c1c 35be
00000140: 47ef 0bbe b39d 17bd f8de 273e bc14 163e
00000150: fdee 6a3d 21e4 153e f570 c5bd f4c9 63bd
00000160: a334 1fbd 69de 7a3c 732e 7f3c d81f f6bd
00000170: 5f6e fbbd ab3d 9fbc 1b61 98bd e216 ac3d
00000180: 091a e1ba 5108 9dbd d693 09be 9ed1 ef3d
00000190: f3d0 8e3d 7878 c83d d6d8 2cbe 69e0 16be
000001a0: 4640 033e 7d2e 16be c738 d0bc 9740 a73d
000001b0: b034 553e 00ad 4cbe f62a 073e 1539 3fbe
000001c0: 289a 40bc c412 413e bdaf 2b3c 1f96 30be
000001d0: fb52 9abd f1ee ce3c 279a 0d3e 37fc 873d
000001e0: d459 acbd de3e 0b3c a56e 1bbe 0975 373e
000001f0: 51ee 593d 7fe2 1a3e a2a2 c93d cfbe 8c3d
00000200: 3c93 bf3d 8ed5 8cbd f6c9 e2bd 4626 ffbd
00000210: d159 83bd 010f 48be fdde 713d b663 20bc
00000220: 976e 9c3b ce48 1abe 9331 1f3e c2e7 7ebd
00000230: 5c6c 4abe 50ad 063d 1c86 353e 1e8f a4bd
00000240: 4621 0f3a b4a9 15be a32f 34bd cd8e 3bbe
00000250: e890 2dbd 8795 d9bd 0319 f5bc 0200 a03d
00000260: 6cef 593d 3021 f6bd f4f8 883b bd6e 0fbe
00000270: 80bb 14bd 7361 c33d 5582 65bc 06c3 b6bd
00000280: 4f39 19be d02f 68bd 3677 2e3e 936f 683d
00000290: 8370 413d 90c2 9338 7c2c 4a3e 7cb5 0ebe
000002a0: bb2a 53be c895 03be b37c 2f3e 9a15 f1bd
000002b0: d8f5 4d3e d81a 8a3c 3c63 213e 5d8b e8bd
000002c0: 12cb 143e 9749 76bd 48c9 573e 695d 32be
000002d0: a9ef 833d ebf9 243e ee43 adbd 2e6b 223e
000002e0: 49e2 9a3d 60db 4d3e 96e1 313e 2491 14be
000002f0: 2609 0fbd 6dcb 003e c32e d9bc 6397 dabd
00000300: 2936 b4bd 08d2 26be e52c 1bbe ecce 46be
00000310: 5b6b c73b c6b5 21be bf69 61bc 28a0 09bd
00000320: 4d8b d2bd bd5c 503e 223f 5e3d abcd 183d
00000330: f0b2 90bd 6530 9bbc 476f 4b3e 8403 413d
00000340: 8c15 6b3d 903c c33d 554f 793d ade2 70bd
00000350: 605e 093d d333 3a3e 2819 24be a690 79bd
00000360: 0e30 3a3e 3925 0b3d 8ca3 f5bd dd74 a8bd
00000370: 7424 21be 126f 90bc a013 383e 0779 753d
00000380: ed1f b13d 78ee 453e e93d 023e d629 30be
00000390: 603a 2cbd 54d1 64bd e2c5 f73c 38ad 29be
000003a0: ba17 c8bb 16f8 2e3e f71c 31be 14e1 e13b
000003b0: 2054 c0bd 5844 ef3c f29d 88bc 4a48 acbd
000003c0: 3c99 3a3d e097 3b3e 57d3 4abc 0b7a 1fbc
000003d0: aea1 aebd b553 81bc e288 0f3d 9c12 69bd
000003e0: 2617 96bd 757c f9bc ede7 0d3e 1844 3d3e
000003f0: dd7b 193e b69c 393e 55d9 503e ebe0 823d
0.10553142 0.07107947 0.09097899 -0.09632348 -0.16278769 -0.07798067 -0.04614851 -0.057037264
0.06694009 -0.13323317 0.08130087 0.15977688 0.2082107 -0.1369265 0.10053356 -0.08739544
-0.06842785 -0.111054674 0.1509773 0.20633359 0.10150145 -0.12507911 -0.05683042 -0.018745782
0.13755248 -0.1313238 -0.1233737 0.09131367 -0.14659718 -0.116425715 0.011807272 0.122648075
-0.1333746 -0.11905739 -0.17129274 -0.08384378 0.074858695 0.027301885 -0.030280363 -0.046894103
0.02634697 0.016831663 0.07131774 0.013827841 -0.08366273 0.1252769 -0.002849295 -0.13167144
-0.15852326 0.16780719 0.124940515 -0.0074484088 -0.037769627 -0.14638437 0.118273996 -0.04132519
0.081269875 -0.19012001 0.047392655 -0.1574803 0.009594471 0.10771005 -0.06598867 -0.009633364
-0.13697556 0.19970003 0.17888139 0.17254642 -0.19263692 0.08658564 -0.13773835 -0.013767225
-0.020449225 -0.13782077 0.031446896 -0.079987176 0.051789865 0.16551039 -0.20173004 -0.17686647
-0.13665496 -0.037015628 0.1639365 0.14656347 0.057356823 0.14637806 -0.096406855 -0.05561252
-0.038868558 0.015311816 0.015575039 -0.120177925 -0.12276911 -0.019438585 -0.074403964 0.08402802
-0.0017173897 -0.07667602 -0.13435301 0.11709903 0.06973448 0.097886026 -0.16879591 -0.14734043
0.12817487 -0.14666171 -0.025417699 0.081666164 0.2082088 -0.1998787 0.13199982 -0.18674119
-0.011755504 0.18854815 0.010478911 -0.17244767 -0.075353585 0.02526042 0.13828336 0.06639903
-0.08415571 0.008498875 -0.15178926 0.17915739 0.05320579 0.15125464 0.09845473 0.06872331
0.093542546 -0.0687667 -0.11073677 -0.12458472 -0.064136155 -0.19536974 0.05905055 -0.009789398
0.0047739255 -0.15066835 0.15546255 -0.06223274 -0.19767898 0.032880127 0.1772694 -0.0803511
0.0005459975 -0.14615518 -0.043990742 -0.18316193 -0.04237452 -0.10624223 -0.029919153 0.078125015
0.053206846 -0.12018049 0.004180068 -0.14007087 -0.036311626 0.09540071 -0.014008124 -0.089239165
-0.14963268 -0.056686223 0.17037663 0.05674703 0.04722644 7.045746e-05 0.19743532 -0.13936418
-0.20621769 -0.12850106 0.17137413 -0.11771698 0.20113313 0.016858503 0.15760511 -0.113547064
0.1453059 -0.060128774 0.21072876 -0.17418446 0.06442196 0.16110961 -0.08460222 0.15861198
0.07562692 0.20103216 0.1737121 -0.14508492 -0.034920834 0.12577601 -0.026511556 -0.10673406
-0.08799393 -0.16291058 -0.15153845 -0.19414872 0.006085796 -0.15791997 -0.013758122 -0.033600003
-0.10280476 0.20347877 0.054259427 0.037305515 -0.070653796 -0.018943975 0.19866668 0.047122493
0.057393596 0.09533036 0.060866673 -0.058809925 0.03353727 0.18183832 -0.16025221 -0.060928963
0.18182394 0.033971045 -0.11994085 -0.08225415 -0.15736562 -0.017631087 0.17976236 0.059929874
0.086486675 0.1932925 0.1271893 -0.17203459 -0.04204786 -0.055863693 0.030245725 -0.16569984
-0.006106344 0.17086825 -0.17296205 0.0068932865 -0.093910456 0.029207394 -0.016676877 -0.084122255
0.045556292 0.18319654 -0.012379489 -0.009733687 -0.08526932 -0.015786985 0.03504265 -0.056902513
-0.07328634 -0.030454854 0.13858004 0.18483007 0.14988656 0.18126187 0.20395406 0.06390556

static_encoder.conv.bias f4 [128]
00000000: bd0d 2a3f fbb4 d33e ac6b 34bf c7f4 96bd
00000010: fa46 90be 6159 a73e aee1 4dbd 79fc a13e
00000020: 73ab 19bf 61c8 013e 5f6e 1b3f a2e1 92be
00000030: 7c80 d9bc 7e3c ec3d 7b78 253f 03df 19bf
00000040: d8c3 ce3e a023 4c3e 5655 f5be 1a43 2d3f
00000050: bbf8 e33e 0b54 d23e 58da 993e 850a 873e
00000060: 41fe c9bd fb7e 083f 3416 313f 875d 0c3f
00000070: 1d49 af3e cba1 383d ac3b 0f3e ff8a b8ba
00000080: 14df 1dbe e392 1f3f bc3f 6d3e ce82 f33e
00000090: 9822 403e fc02 96be bf30 0fbf 2da8 7a3d
000000a0: 25f4 b63e 8dab 9fbd 0d5d e23d ebeb c33e
000000b0: 9e9d 423a d0d1 87be 4cf3 1abf ba9f df3c
000000c0: f0b5 91be 3285 ca3e 73ae d13d 0e3d c8be
000000d0: 4354 fcbe bf3d f1be 1d49 9e3e 4dd8 323f
000000e0: 740a be3e 7cc9 2e3f 68d8 113f 80a6 f33d
000000f0: 316d 08bf 0502 0d3f 6d78 193f ef65 c2be
00000100: 2e13 33bf ae7e 00bf f17b 9cbe 4d83 26bf
00000110: 10bb 2c3f 5a8b 273e d946 8cbe b691 4cbe
00000120: 7ac9 27bf 7561 973e 4a5b aebd 7e9f b0be
00000130: f813 d2be 2f30 043d 1c3b 623e 4e43 68be
00000140: edbf 9d3e cd50 663d 2052 233f 9606 603e
00000150: dc15 cf3e 0d23 a53e 5786 763e 3882 0c3f
00000160: 2537 023f 192d e5bd 83cb f73e c245 28bf
00000170: c24b c0be 00f1 13bf 1164 a6be 9de4 d23e
00000180: 25e4 7b3e 4dcb 203f bbf9 983d d73f e9be
00000190: 3e63 62be 6a1b 07be d71a d9be b499 033f
000001a0: 22ff a83b 54d1 acbd 3a49 9b3d 7776 39be
000001b0: 3a26 0d3f bfe0 623e 5857 463d 0c8c d9be
000001c0: e79f a1be 4908 25bf b6ae 423c 6e0c 83be
000001d0: 5c8d 6abe d13a 5a3d ad82 023f f4b8 96be
000001e0: ea9d d03e e12e 0dbe 290c 2abf 93af 19bf
000001f0: 0d96 48be 419e 093f 6e8b 32bf 2e11 f7be
0.6642721 0.41349015 -0.70476794 -0.07370906 -0.2817915 0.32685378 -0.050264053 0.31637934
-0.60027236 0.12674095 0.6071529 -0.2868777 -0.026550524 0.115349755 0.64636964 -0.60105914
0.40383792 0.19935465 -0.4791667 0.67680514 0.44525704 0.41079745 0.30049396 0.26375213
-0.09862948 0.53318757 0.69174504 0.5483021 0.34235469 0.045076173 0.13987607 -0.001407951
-0.15417129 0.62333506 0.23168844 0.47560734 0.18763196 -0.29299152 -0.55933756 0.06119554
0.35733142 -0.077963926 0.11052904 0.3826593 0.00074239995 -0.26527262 -0.6052749 0.027297843
-0.2845912 0.39554745 0.10238352 -0.3910908 -0.49283037 -0.4711742 0.30915156 0.698613
0.3711735 0.6827619 0.56970835 0.11896992 -0.5329161 0.55081207 0.5994938 -0.37968394
-0.6995114 -0.501933 -0.3056331 -0.650441 0.67472935 0.16361752 -0.27397802 -0.1997746
-0.65541804 0.2956654 -0.08513506 -0.34496683 -0.4103086 0.032272514 0.22092861 -0.22681925
0.3081049 0.0562294 0.6379719 0.21877512 0.40446365 0.32253304 0.24074684 0.548862
0.50865394 -0.11190242 0.48397455 -0.6573144 -0.375578 -0.5778961 -0.3249822 0.41190043
0.24598749 0.6281021 0.07469507 -0.45556518 -0.2210817 -0.13194051 -0.4240329 0.5140641
0.0051573673 -0.08438364 0.07582326 -0.18111597 0.55136454 0.22156046 0.04842314 -0.4248966
-0.31567308 -0.6446577 0.011882475 -0.2559542 -0.22905487 0.053278748 0.50980645 -0.29437983
0.4074548 -0.13787414 -0.66424805 -0.6003353 -0.1958849 0.537571 -0.69744 -0.48255295

dynamic_encoder.conv.weight f4 [128, 2, 1]
00000000: 9c29 11be 253a 113e 6793 553d 8598 0a3e
00000010: 0b44 fabb 4b04 c23c 2538 4fbe f729 4b3e
00000020: 0ab0 4f3e 4c0e ed3c 2702 013d 75c0 fe3c
00000030: 4ae6 033e 754f 43be f0b6 3cbe f74d 133e
00000040: c29d ac3a f7d6 0a3e 8d12 babc 9069 94bd
00000050: cbfd 52be 97b0 bfbd 6858 15be 457c e83d
00000060: ab9a 043e ad82 ac3d 00e0 97bd 2753 423d
00000070: 2037 48be 7d53 41be 4ad9 f6bd 802f 06be
00000080: 8718 253e aef0 d83d 5820 e1bd 000f 423e
00000090: fa82 163e 5117 b93d 6188 4c3e 10c2 40bd
000000a0: ff8e f63d cef9 483e d697 33be e553 1abe
000000b0: f601 54be 317f c43b 1008 223e ea6f ef3d
000000c0: 8510 893d 6a42 f9bd 64cc 8f3d 8565 0d3e
000000d0: 8d12 36be 5660 4a3c 9482 7d3d 0cf4 413e
000000e0: 7a6e 6fbd ad76 2a3e 3993 e2bd 9e9a 0fbe
000000f0: f067 01be 2f92 353e 9870 333e 4e40 8ebd
00000100: e4e2 3dbe a80e d2bd 1401 f5bd 1de4 81bd
00000110: 6375 3bbd 7182 9abd 414f 343e cc14 833d
00000120: 87cb 42be d92b df3c 042f 93bd 3aff 523e
00000130: a336 403e 2723 27be f831 cf3b 4688 0abe
00000140: 50fd d9bc 993b c4bd 17cf 9b3b 8f81 15be
00000150: 21cd 95bd f18c 1bbe a021 ef3d f6e0 393c
00000160: 8b9e 2e3d 842a 173e c837 403e dddb 2bbe
00000170: 6316 47bc 005d 3b3e ec36 0dbe 4390 d63d
00000180: 3196 22bd 9c7c 74bd 531d b8bd 1eb2 1dbe
00000190: ea66 74bd afff 293e 1fb4 833c c376 b9bd
000001a0: 6091 f73d 95d7 703d 4326 083d 7b70 473e
000001b0: 2e97 543e bd4d f73d 240b 9bbb 2429 22be
000001c0: 755f bc3d 3988 d2bd 7578 513e 431d f43d
000001d0: 2d8b 4abe ef6e 4c3d d649 1cbe e867 2dbe
000001e0: 36af 103d 3f44 ff3d ddbb 04be 3b21 2e3e
000001f0: 7c98 a0bc 61d3 433d 2375 1abd f2a1 89bd
00000200: 10cc c53c 1ada b8bd f895 343e 23de 44be
00000210: 6e32 95bc bbe4 083e 699a 56be d1b6 d6bd
00000220: 9582 59be 7e9f 383e b134 4ebe 2e1f 653d
00000230: 36f4 df3c 6629 dd3d e206 533e 8d3d 58be
00000240: b504 3abe 9f69 2f3e afa1 873b a526 02bc
00000250: f0e0 18be 529d 193e 4416 34be 6765 14be
00000260: b244 653c 0384 003e b6bb fcbc 0fb3 d9bd
00000270: 7fae 523e 8ff7 c4bc 8387 883d 58e7 17be
00000280: 8f1e 9ebb 7867 493d d2f8 89bd 26ef bebc
00000290: c415 153e b6cf e03d feaf 2fbe 96c2 f53d
000002a0: d3e5 ddbd dd1e 4fbd 40e5 05bd 1312 76bc
000002b0: c732 a73d 4dd9 4e3e e727 53be b801 d83d
000002c0: 13ca d13d 590e 203d 831d cdbc 5ce1 fbbd
000002d0: d942 2b3d a456 333c faf3 353e afcb 13be
000002e0: b043 1e3e b064 07be c8c7 5abe f46c 1bbe
000002f0: b996 583d a644 ebbc 5ea6 cbbd 3cb9 113e
00000300: a1ad 31be eb4e 12bd f8b3 40be e924 dc3d
00000310: a2db 02bd c43c 7cbd 085f 3bbe ba52 03be
00000320: 9c6c abbd 1e8f 37be a56d 483e ff27 23be
00000330: 0927 523e f8d4 9a3c 479e 15bc 177c 1a3e
00000340: c2dd 46bb 9274 45be bc97 893a d35e 6f3b
00000350: 98f7 c63d 17de 2dba 0965 333e 2adc babd
00000360: c338 233e 48fd a93c caf2 60bd cfdf 25be
00000370: 0177 34be b72f cb3a 560e 4f3e e3f3 a1bd
00000380: 58b0 eb3d ad43 afbd a5ec 4e3d 8b80 d0bc
00000390: 0213 ecbd 8d4a 493e d809 a2bd 30cc 383e
000003a0: e1b2 b0bd 2489 be3c 9ff7 1f3d 2f3a d43d
000003b0: 96b0 5f3d 43b8 e2bd 3d71 78bd 2eb6 70bd
000003c0: abe0 0e3e c72c 103e a945 0fbe 3f5e ae3d
000003d0: 3455 353e 7a98 40be 2348 b13d 1a3e ac3c
000003e0: 757b 5ebd 684d 2c3e 83be 6fbd ccf6 363e
000003f0: 4672 d93d 9045 f1ba 734f f4bd 8a8b e93d
-0.14176029 0.14182337 0.052142527 0.13534744 -0.007637506 0.023683688 -0.20236261 0.19840227
0.20281997 0.028937481 0.031496193 0.03109763 0.12880817 -0.19073279 -0.1842916 0.1438521
0.0013169574 0.13558565 -0.022713924 -0.07246697 -0.20604627 -0.09359854 -0.14584506 0.113518275
0.12949626 0.08423362 -0.074157715 0.04744258 -0.19552279 -0.18879505 -0.12053163 -0.13104057
0.16122638 0.10592781 -0.10992497 0.18951035 0.14698401 0.090376504 0.199739 -0.047060072
0.12038993 0.19626543 -0.1753839 -0.15071066 -0.20703873 0.0059966077 0.15823388 0.11691268
0.06692604 -0.121708706 0.07021406 0.13808258 -0.17780514 0.01235207 0.061892107 0.18940753
-0.058454968 0.16646834 -0.11063237 -0.14023826 -0.12637305 0.17731546 0.1752342 -0.06945859
-0.18543583 -0.10256702 -0.11963096 -0.06342337 -0.045766246 -0.07544411 0.17608358 0.06400451
-0.19022952 0.027242588 -0.07186702 0.20605174 0.18770842 -0.16322003 0.0063230954 -0.13528547
-0.026610047 -0.0958168 0.0047549116 -0.14600204 -0.07314516 -0.15190484 0.11676335 0.011345139
0.042631667 0.14762312 0.18771279 -0.1678309 -0.0121513335 0.18297195 -0.13790482 0.104767345
-0.039694015 -0.05968915 -0.08989968 -0.15399978 -0.05966846 0.16601442 0.0160771 -0.09055855
0.12088275 0.058799345 0.033239614 0.19476502 0.20760795 0.12075374 -0.0047315527 -0.15836006
0.091978945 -0.10279889 0.20456107 0.11919644 -0.19779654 0.049910482 -0.15262541 -0.16934168
0.035323344 0.12464189 -0.12962289 0.17004864 -0.01960396 0.04780901 -0.037709367 -0.06720342
0.024145156 -0.090259746 0.17635334 -0.19225363 -0.018212523 0.13368504 -0.2095734 -0.10484088
-0.2124122 0.18029591 -0.20137288 0.05593794 0.027338129 0.10798912 0.20608094 -0.2111723
-0.18165858 0.17130135 0.0041391472 -0.007943784 -0.14929557 0.15001419 -0.17586619 -0.14491807
0.013993429 0.12550358 -0.030851226 -0.10629856 0.20574377 -0.024043826 0.06666472 -0.14834344
-0.00482542 0.04917094 -0.06736912 -0.023307394 0.14559084 0.10977118 -0.1715698 0.12000005
-0.10834851 -0.050566543 -0.032689333 -0.015018958 0.08163982 0.20200081 -0.2062069 0.10547203
0.10243621 0.039076183 -0.025038486 -0.12298843 0.041811798 0.01094595 0.17768851 -0.14433168
0.15455508 -0.13222003 -0.21365273 -0.15178281 0.052878115 -0.028719258 -0.099438414 0.14230818
-0.1735139 -0.035719793 -0.18818653 0.107492276 -0.03194774 -0.061581388 -0.1829797 -0.12824526
-0.08370325 -0.17925689 0.19573076 -0.15933226 0.20522703 0.01890038 -0.009131975 0.15086399
-0.003034458 -0.1928275 0.0010497491 0.0036525025 0.097151935 -0.000663252 0.1751901 -0.09124024
0.15939622 0.020750657 -0.05491904 -0.16198657 -0.17623521 0.0015501891 0.20220312 -0.07907846
0.11508244 -0.0855783 0.05051865 -0.025451919 -0.11527063 0.19657345 -0.07912034 0.18046641
-0.086278684 0.023258753 0.03905451 0.1036266 0.054611765 -0.110703014 -0.060654867 -0.05876749
0.13952892 0.14079581 -0.13991417 0.0851407 0.17708284 -0.18808165 0.08656337 0.021025706
-0.054316957 0.16826403 -0.058531296 0.17867583 0.10617499 -0.0018407572 -0.11929216 0.11403568

dynamic_encoder.conv.bias f4 [128]
00000000: d695 583e 7bdb f3be 3f33 ddbe 9040 9d3e
00000010: f263 2c3f 2979 fe3e b5e7 a33e e19e f53c
00000020: 18c8 233f 33ea da3d 7719 193c 01e4 17bf
00000030: a2a4 b23e fe44 3cbe 169e 7dbd 3f4e ab3d
00000040: 9ec1 bbbe 53c7 113f 8220 f9be 1128 2abf
00000050: e828 723e ff39 e9be c8a8 243f dc7a 27be
00000060: aea6 843e acb0 4dbe f631 723e 6e38 86bd
00000070: 5b0f b0be f983 e43d 8396 7c3e 9689 923e
00000080: bd5e 02bf 65af dd3d ed4f 093f c510 133f
00000090: 8f25 a5be aa48 1c3f b948 2abd 23dd 003f
000000a0: b9bd 133f 955e 5b3e fb84 ffbe c555 16bf
000000b0: 43fb 593e 559d 51bd 80fb 29be 23bc 4cbe
000000c0: c59f e43e ae50 1b3f 2d80 3cbd 0a49 cbbe
000000d0: 4b4d 333f 0eb8 e8be d185 f9be c4b2 f9be
000000e0: 200d cebe 2da8 d33e 6e00 be3d baae 243e
000000f0: 18e1 2fbf 6e1b 513e 8376 b33d 3d8b 1e3f
00000100: e850 1f3f 21a9 b8be d791 003d 7913 983e
00000110: 4c05 1d3f 46c5 703d 5f24 063c 6152 d2be
00000120: 5573 47bd bb36 10bf 33a1 2bbf 1758 1fbf
00000130: bb97 5bbc 8159 8c3e 2801 9b3e 8c9a d9bd
00000140: 9d8c 1c3f 9632 e53c f501 e3be 1de4 b73d
00000150: e7e2 13bf e3dd 903d 83c9 13bf e524 ee3e
00000160: 3fc6 103f b8f9 323e be7a f3bd 6879 f93e
00000170: b40b 37be 9a80 bbbe 4c0c 9ebe bd5e 873e
00000180: 2c56 193f 896e d2be 9381 69be 73a2 fbbe
00000190: 36b0 273f adca 27ba 9c99 14bf 1bfb 253d
000001a0: 5366 31bf 6fbf 283d 38e8 c43e d34b 27bf
000001b0: 8c9a 14bf 970b 4c3c a898 cabd 7d90 c7be
000001c0: 8f24 283f 0693 b8be 3660 123f 3f71 cdbe
000001d0: 9862 c63c a2b3 a13d 8c00 233f 962d ce3d
000001e0: 5a95 043f 3420 b83e d301 77be 2234 613e
000001f0: c023 603e efac ac3e b282 d53e 947d a43e
0.21150908 -0.47628388 -0.4320316 0.3071332 0.67340004 0.49701813 0.32012716 0.029982986
0.63977194 0.10689201 0.00934445 -0.5933228 0.3489123 -0.18385693 -0.06191834 0.08364534
-0.36671156 0.5694477 -0.48657614 -0.66467386 0.23648417 -0.4555206 0.6432004 -0.16355461
0.25908417 -0.20086926 0.23651871 -0.06553732 -0.34386715 0.11157984 0.2466679 0.28620595
-0.5092581 0.108244695 0.5363758 0.57447463 -0.32255217 0.61048377 -0.04157326 0.5033743
0.5771137 0.21422799 -0.49906144 -0.58724624 0.21287255 -0.051175434 -0.16599846 -0.19993643
0.44653144 0.6066998 -0.046020675 -0.39704162 0.70039815 -0.45452923 -0.48734906 -0.487692
-0.4024439 0.41339245 0.09277426 0.16082278 -0.6870284 0.2042062 0.08762839 0.6193121
0.6223283 -0.36066535 0.031389084 0.29702356 0.6133621 0.058781885 0.0081873825 -0.41078475
-0.048693974 -0.5633351 -0.67042845 -0.6224379 -0.013402875 0.27412036 0.3027432 -0.106251806
0.6115206 0.027978223 -0.4433743 0.08979056 -0.577681 0.070735715 -0.5772936 0.46512523
0.565525 0.17478073 -0.118886456 0.48725438 -0.17875558 -0.36621553 -0.30868757 0.26439467
0.5989711 -0.41099957 -0.22803335 -0.49147376 0.6550325 -0.00064007455 -0.5804689 0.040522676
-0.6929676 0.04119819 0.3845842 -0.65350074 -0.5804832 0.012453935 -0.09892398 -0.38977423
0.65680784 -0.3604967 0.57178056 -0.40125462 0.024216935 0.0789559 0.6367271 0.100672886
0.5179039 0.3596207 -0.2412179 0.21992543 0.21888638 0.33725688 0.41701275 0.32127059

decoder.conv.weight f4 [128, 2, 1]
00000000: 6e53 ee3b ce5c 27be 76e4 59be 705d 1fbe
00000010: 4d62 fbbd 50bc dabc 7c2d 0b3e 63fe 3d3e
00000020: 7d40 15bd 3994 de3d b988 493d e672 3abe
00000030: 2c3f ac3d 45f3 523e 6ed2 39be 9e2c 84bd
00000040: 2dca b63d 6329 8f3d 98fb f3bd d555 87bd
00000050: 9882 c7bd 02e3 e2bd ec0d 303e acce 3bbe
00000060: 846c babc 2f2a fe3d 9769 153e e6a9 843d
00000070: e88c 06be d944 cf3b d15b 41be c9ea f8bd
00000080: f37e ff3c ec01 32be 07ef 253e 9d57 443e
00000090: 7ff1 7e3d 5f29 d03d 5c1e e6bd eb2f 2cbd
000000a0: 68e6 403e b8dd 853c c786 6c3d af64 a6bd
000000b0: 48e3 9d3d 47ed 43bc 458d 573e 04ad b8bd
000000c0: 44e3 853d d357 593e d341 e5bd 987c 32bc
000000d0: a026 203e 25e1 9bbc 1d97 76bd 6a05 a23a
000000e0: a980 a0bd 28d9 d53d abd3 2e3e c95a 043e
000000f0: 59fa cebc 992d 58be 31c4 35bd 0576 de3d
00000100: 40c9 fbbd e959 1bbe bd5b 943d 5c63 06be
00000110: 7325 9e3d abd9 18be e76f a33d b0a5 5c3d
00000120: d1f6 2e3e 9f14 17bd 407e efbd b03d 3e3e
00000130: b1b9 323e 3930 313e 1c4c 443d 2e9b bcbd
00000140: bcb9 033e 4231 44be 5360 043d 7803 793b
00000150: 5689 4f3e f94b 263e f22c c1bd 6b4c a5bd
00000160: ffe1 1d3c dafa 163e 8415 00be 9e84 cf3d
00000170: eedb 17be 02e1 2abe c792 47be 7a38 24be
00000180: 07de 2fbe de61 0abe 3dba 153b e649 a7bc
00000190: dc72 553e 993b 1fbe 8f48 45bd 311d 1f3e
000001a0: bd46 303e 080c 3a3e c1bf 03be 9372 233d
000001b0: ee71 40be ed63 413e 98e8 333e 5734 933d
000001c0: cadd 10be 6246 73bd f807 35be b81d 31be
000001d0: 37b9 453e 4fab d9bd 03c7 22bd 6ce0 4e3e
000001e0: 9d1f 343e 113a 463e 9d8c 413e c23c d9bd
000001f0: d72d ffbd dd05 303d ada5 493e 6310 d33c
00000200: 9421 423d d0a7 3e3e 34c7 7d3d c87d 6abd
00000210: 4fa0 6ab9 f8a5 e4bd 2ef1 d3bd 0f34 653d
00000220: 95cc af3a de40 1abd b417 e2bc de94 083e
00000230: 2d4d 333e 7077 17be 485a 08be 4bb9 4bbe
00000240: 5634 a5bd 862c 50be a389 99bc 99ac f43d
00000250: fe05 533e 047c 753d 6d43 363e 03f3 d13b
00000260: 9da8 b63c 4f73 473b 6110 2abe 84bf 533e
00000270: 028a 2fbb 5dbb 16be c87a cd3d 1b6f 133e
00000280: ba52 1ebe a91b a2bd ac41 3bbd 6aaa 38be
00000290: 0e92 3c3e f20d ebbd 8169 f73d fa2c a43d
000002a0: 0a43 39be 741a 3cbe 6ef3 11be 644a 6d3d
000002b0: 9b85 16be 5e17 1cbd 19fe 873d dbf3 3dbe
000002c0: 29ee 903d fc39 433e 4e2c c5bc dab3 27be
000002d0: 6e06 abbd a228 6bbc 120f 473e 8bca 46be
000002e0: 651b 013e 58e4 27be a05e 08be 4a45 cc3d
000002f0: e397 343e 60e7 db3d e4af f83d 15bc a7bd
00000300: a5fb 093e 6787 7fbd eb50 6ebd 1e89 053d
00000310: 45f5 1bbe bd80 213e 1cc4 c2bb df87 31bd
00000320: 5d0e c8bc 07a9 193e 5c91 f13c c1e1 c4bd
00000330: 50d3 f63d ee36 b5bd 1f71 e9bd 40e3 52be
00000340: 6176 1bbc 46e2 29be 8951 083e 507c 19be
00000350: 5f17 f03d 22f2 80bd 4a0b 9ebd b551 65bd
00000360: b82f 3c3d 3968 523e 806b 103e ed5a 3abe
00000370: 1fb1 0abe 3951 e53d ae5b bebb 8c55 80bd
00000380: a3e2 dabd 2de9 f6bd 9c0c 9bbd a811 33bc
00000390: 6f31 d23d 5ce3 e83d 4d67 083e 2384 5e3d
000003a0: 8783 253e ee36 98bd 1d27 5abe cca0 4bbc
000003b0: 9610 1f3e 890f 473e cd53 e33d 5d5c 083c
000003c0: ff94 49be 57a6 91bd f46c 5a3e 5ae4 ab3d
000003d0: 12c3 4dbe 7743 753d 6c2f aabd 174d 4cbe
000003e0: cf48 94bd 3017 b53d 5481 52be 6f68 f03d
000003f0: eb0a fe3d 9828 d83d 8cef c83d 1b34 1bbd
0.007273129 -0.16343996 -0.21278557 -0.15562987 -0.12274609 -0.026701123 0.1359157 0.18554072
-0.036438454 0.10868115 0.049202655 -0.18207893 0.084104866 0.20600612 -0.18146679 -0.064538226
0.08925281 0.06990316 -0.11913222 -0.06608168 -0.09741706 -0.110784546 0.17192811 -0.18340558
-0.022756822 0.1241039 0.1459106 0.06477718 -0.13139689 0.006325346 -0.18882681 -0.12154157
0.031188464 -0.17383546 0.16204463 0.19174047 0.062242027 0.10164141 -0.11236259 -0.042037886
0.18837893 0.016341075 0.05774572 -0.081246726 0.07709366 -0.011958427 0.21049984 -0.09017375
0.06537488 0.21224909 -0.111941956 -0.010893963 0.15639734 -0.019028256 -0.060202707 0.0012361233
-0.0783704 0.1044181 0.17072932 0.12925257 -0.02526586 -0.21111144 -0.044376556 0.10862354
-0.12294245 -0.15171017 0.0724406 -0.1312384 0.077219866 -0.14926784 0.07980328 0.05386895
0.1708634 -0.0368849 -0.11694002 0.1857822 0.17453648 0.17303552 0.047924146 -0.09209286
0.12863821 -0.19159415 0.032318424 0.0037996452 0.20267233 0.16239919 -0.09432401 -0.08071216
0.009636401 0.1474413 -0.12508208 0.101327166 -0.1482999 -0.16687396 -0.19489585 -0.16037169
-0.1717454 -0.13513896 0.0022846602 -0.02042098 0.20844597 -0.15550078 -0.0481649 0.1553848
0.17214485 0.18168652 -0.12866117 0.03990419 -0.1879346 0.18885775 0.17569196 0.071877174
-0.14147106 -0.059393294 -0.17678821 -0.17296493 0.19308935 -0.10628378 -0.039740574 0.20202798
0.17590185 0.19358088 0.18901296 -0.10607292 -0.12459915 0.04297434 0.19692107 0.02576465
0.047395304 0.18618703 0.061957553 -0.05724886 -0.00022375699 -0.111644685 -0.10348736 0.05595785
0.0013412411 -0.03765952 -0.027599193 0.13338038 0.17509909 -0.14791656 -0.1331569 -0.19894902
-0.08066623 -0.20329484 -0.018742388 0.11946983 0.20607755 0.059932724 0.17799158 0.006407143
0.022297198 0.003043372 -0.1660781 0.20678526 -0.002678514 -0.14719911 0.10033184 0.14397852
-0.15461245 -0.07915432 -0.045716926 -0.18033758 0.1841509 -0.11477269 0.1208067 0.08016391
-0.1809198 -0.18369466 -0.14253017 0.057932273 -0.14699404 -0.038108222 0.06640262 -0.18550055
0.070766754 0.19065088 -0.024068978 -0.16377202 -0.08350836 -0.014352949 0.19439343 -0.19413202
0.12608106 -0.163957 -0.13317347 0.09974153 0.17636065 0.10737491 0.121429235 -0.08190171
0.13474901 -0.06238499 -0.05818264 0.03260147 -0.15230282 0.15771766 -0.005943788 -0.043342467
-0.024420911 0.15005885 0.029488258 -0.09613372 0.120520234 -0.08848368 -0.11398529 -0.20594501
-0.009488673 -0.16590223 0.13312353 -0.14988828 0.11723208 -0.06296183 -0.07716997 -0.055986125
0.045943946 0.2054757 0.14103508 -0.18198748 -0.13544129 0.111971326 -0.005809269 -0.06266317
-0.10687759 -0.120561935 -0.075707644 -0.010929503 0.10263335 0.1137149 0.13320656 0.054325234
0.16163455 -0.07432352 -0.21303983 -0.012428474 0.15533671 0.1943952 0.11099968 0.008322802
-0.19685744 -0.07111805 0.21330625 0.08393164 -0.20093945 0.059878793 -0.08309826 -0.19951282
-0.0724045 0.08842313 -0.20557147 0.11738669 0.12404426 0.10554618 0.09811315 -0.03789149

decoder.conv.bias f4 [128]
00000000: 99a7 b6be 593b 8fbe 7187 883e 7c78 a0be
00000010: 3590 9a3e 9ff8 803c 2980 19bf 752b 733e
00000020: 558b eebd b25b fbbe 4bc0 683e 5cd6 5e3e
00000030: a384 2abf 2a10 c6be 534a 213f 0db5 1c3f
00000040: 8742 133f 1e23 bc3d 6c3a 84be 26aa 663e
00000050: 0790 dabc e2c3 003f 007a 493e 96a1 a63e
00000060: b828 63bd 9ba7 a13e 423d 98be 3dc4 1c3f
00000070: 9bd6 afbe 2f8b 84be 7e0f 053f 133c 1b3d
00000080: b560 123f ed89 ad3e ca4f 263f 1dac 193e
00000090: 3d91 d0be 88ba dabe e96d 6fbd e875 843d
000000a0: 32cf 2ebf 6283 0a3f c958 033f 52a7 9dbc
000000b0: f433 b2bd fab4 1abf b3cf 87be 8782 e7be
000000c0: 4666 0dbf af4a 173e 341d a5be d553 173f
000000d0: e791 c63e 71be e3be 7899 263f 7d93 153f
000000e0: 706f 17bf e4dc 393c 58b3 81be ed60 a13c
000000f0: bd56 073f dbb1 c9be ea71 9b3e 5be8 11bf
00000100: c492 adbe 3bf1 e1bc 98bc 253f e58d 1a3f
00000110: 5707 05be 54d3 29bc a510 143e 5948 263f
00000120: ae87 e0be 99d4 123f 1227 1f3f 3f01 343e
00000130: 779a 203f 5a27 e13c e983 08bf 7b3a 1bbf
00000140: 975d 31bd 5f4b eabe 8b3a d73e 8845 19bd
00000150: 636b 1f3f cf5d 89be dde6 2b3f 33da d2be
00000160: 222d 90be a7c4 bfbe a8ee bb3e 8dec b9be
00000170: 7adb d9be 758d 31bd 58c4 543e fbd7 853e
00000180: 3ea5 f73e 9df8 27bf dc3a 2fbf cb7d 0c3f
00000190: 6b75 a83d 82fe eabe 4f30 083f edb8 d33e
000001a0: 5d2d 27be 0885 bcbe de9a 753d 9b94 c8be
000001b0: d2f8 a7be e87e 293f 01a4 9fbe c7e1 f6be
000001c0: 6998 26bf b77c db3e ec4d 843d e93b 633e
000001d0: 80ab c2be c7d2 21bf 47ec 103f ab0c 85be
000001e0: 6c0f 4d3e 628e 203f 7ca7 afbd c30f 053e
000001f0: ba36 2dbe 39b2 edbe 3e50 1d3f 3876 173e
-0.35674742 -0.27974966 0.26665834 -0.31341922 0.30188146 0.015743552 -0.5996118 0.23747046
-0.11647669 -0.49093395 0.22729604 0.21761459 -0.6660864 -0.38684207 0.63004035 0.6121376
0.5752339 0.091863856 -0.25825822 0.22525844 -0.026680006 0.50298893 0.19675446 0.32545155
-0.055458754 0.31573185 -0.29734236 0.61236936 -0.34343418 -0.2588744 0.51976764 0.037899088
0.57178813 0.33894292 0.649655 0.15007062 -0.40735808 -0.42720437 -0.058454428 0.06467801
-0.68284905 0.54106724 0.5130735 -0.019244824 -0.087013155 -0.604324 -0.2652565 -0.45216772
-0.5523418 0.14774583 -0.32248843 0.5911229 0.3878319 -0.44481233 0.65077925 0.58428174
-0.59154415 0.011344168 -0.2533214 0.019699538 0.5286673 -0.39393505 0.30360347 -0.5699517
-0.33901036 -0.027580848 0.64740896 0.60372764 -0.12991081 -0.010365326 0.14459474 0.64954144
-0.43853515 0.5735565 0.6216899 0.175786 0.62735695 0.027484585 -0.5332628 -0.6063611
-0.043302145 -0.4576063 0.42036852 -0.037419826 0.62273234 -0.26829383 0.67149144 -0.41182098
-0.28159434 -0.3745472 0.36705518 -0.36313286 -0.4255026 -0.043347795 0.20778024 0.26141343
0.48368257 -0.6561373 -0.6844919 0.54879445 0.08225521 -0.458973 0.53198713 0.41352025
-0.16325898 -0.36820245 0.059962146 -0.39175877 -0.32807022 0.6620927 -0.31179813 -0.4821913
-0.6507631 0.42868587 0.06460175 0.22190823 -0.3802147 -0.63212246 0.5661053 -0.25986227
0.20025414 0.6271726 -0.08576867 0.12994294 -0.16915408 -0.46425036 0.61450565 0.1479119

pointer.v f4 [1, 1, 128]
00000000: 714b 76bd 3461 af3d 7677 94bd 07f9 88bd
00000010: 1869 cbbd 445a 87bd d2fb ad3d eb97 463c
00000020: 4128 a0bd edb2 b3bd 30b7 013e f6cd 143e
00000030: a1e3 cc3d 96e2 b23c 93ec 80bd a213 0f3e
00000040: 73d8 17be 95d8 513d febe 043e ada2 033d
00000050: 73cc ce3d 794d a03d f0a8 f4bd 5592 a43d
00000060: 35ff 97bd 09b1 01be 30ad fdbd ecad bebd
00000070: f7c0 dd3b 474f 81bd 8de5 143e 5c47 4d3c
00000080: 1a72 153e 1f7c 11be e8c0 bebc 773b d2bd
00000090: a4ab c53d 244b 3ebd 9d91 853d a358 583a
000000a0: aee5 e73d bbb4 1c3d 6294 28bd cb39 0a3e
000000b0: e875 243d 55a5 0fbe c833 113e dea4 1ebd
000000c0: d005 b6bd 751e 093d 70f0 363d 0491 d1bd
000000d0: 939a 0d3e 5212 083d b680 bc3d a3d2 8dbd
000000e0: 1b79 c13d 814c af3c 0909 55bd 687a cd3c
000000f0: 653e 213b ac07 d43d 9574 683d 9aaf 02be
00000100: 1bae 983c f466 c3bd 8013 163e 9e2f 22bd
00000110: d984 193c 671e 14be a2f2 12be 3267 0ebe
00000120: fbdc 9bbc f346 f83d bf8e d83d c61d 92bd
00000130: ee46 0f3e 971b ebbb 6b8f a9bd 4d28 103e
00000140: e597 ff3d 614d 033e e857 85bb 2926 49bd
00000150: 59e1 c23c d6d2 553d 101e 233d 24d3 b0bd
00000160: 8bdb 9b3d 7a56 053e aa2e bd3d 2867 8ebd
00000170: f062 84bd c208 15bb 4972 aa3d 3a28 f83d
00000180: c0b7 94bd c6f2 b6bd b0aa 16bd a2d6 0abe
00000190: 8c89 17be 931c f53b 605e 373d 729a d63d
000001a0: bf37 fabd c660 a5bd 2339 0e3e 432e 313d
000001b0: 90d2 9abd 5c83 95bc 5fc0 273d 0794 00be
000001c0: 6670 0a3e 7a51 123e 3809 c5bb 7f8e f0bd
000001d0: 4099 963d 94fe eb3d 28eb 273d 73b7 f43d
000001e0: 1eb6 b3bd 82f1 86bd da90 2abd 83a0 f3bd
000001f0: 4e71 a4bd 1adb 92bd c783 b5bd 214a 05bd
-0.06013054 0.08563462 -0.07249348 -0.06688123 -0.099321544 -0.06609014 0.084952965 0.012121181
-0.07820178 -0.08774362 0.12667537 0.14531693 0.10004354 0.02183656 -0.06295123 0.13972333
-0.14828663 0.05123194 0.12963483 0.03213756 0.10097589 0.07827277 -0.11946285 0.08035723
-0.07421724 -0.1266519 -0.123865485 -0.09310517 0.006767388 -0.06313949 0.14540692 0.01252922
0.14594308 -0.14207505 -0.023285344 -0.10265248 0.096518785 -0.04645838 0.06521914 0.0008252954
0.11323105 0.038258296 -0.041157134 0.13498609 0.040151507 -0.14027913 0.14179909 -0.03873145
-0.088878274 0.03347631 0.044662893 -0.10232738 0.13828497 0.033220597 0.09204237 -0.069249414
0.09446927 0.021398785 -0.05201057 0.025082782 0.002460384 0.10353026 0.056751806 -0.12762299
0.018637707 -0.09541121 0.14655876 -0.039596193 0.009370052 -0.14464723 -0.1435037 -0.13906553
-0.01902627 0.121229075 0.10574102 -0.07134585 0.13991901 -0.00717492 -0.08279308 0.14077874
0.124801435 0.12822486 -0.004069317 -0.049108658 0.023789095 0.052203022 0.03982359 -0.08634022
0.07610234 0.1302127 0.09237416 -0.06953269 -0.06464183 -0.0022740816 0.083225794 0.121170476
-0.0726161 -0.08933024 -0.036783874 -0.13558438 -0.14798564 0.007480213 0.044767737 0.10478677
-0.12217664 -0.08075099 0.13888983 0.04325701 -0.07559693 -0.018251114 0.040954944 -0.12556468
0.13519439 0.14288893 -0.006013062 -0.11745929 0.07353449 0.11523166 0.040995747 0.11949053
-0.087749705 -0.06589033 -0.041642047 -0.118958496 -0.08029424 -0.071706966 -0.08863025 -0.032541398

pointer.W f4 [1, 128, 256]
00000000: 7d55 313c 79c7 e83a e9a8 50bc 7abc bebb
00000010: 2a86 59bc 565d df39 4cf6 193b 19e2 9cbb
00000020: 68c2 4a3c 5307 7a39 ceab 80bb c42b 793b
00000030: b6d0 9d3b 87d9 263c 4f7f 313b 3c8f d03b
00000040: 81f0 53bb 570b de3b 0e36 4dba 0ffd 583c
00000050: c026 a63b 9bce 0c3b b90d cc38 31b8 b8ba
00000060: 837d 22bc acee bbbb 3ecb a7bb f652 cfbb
00000070: 9738 55bc 81b3 d63a a492 edbb 9060 49bc
00000080: de87 203c 090a 65bb 82ad b0ba 0630 9e3b
00000090: 26e6 3b3c 0702 d939 351b 673b f2c6 19bc
000000a0: f133 babb d99b a63a f242 abbb bfa2 2bbb
000000b0: f5f6 523c 29e8 1d3c e2ca 233c 9392 81bb
000000c0: ce31 b73b f190 67bb 17e2 88bb 332e 26bc
000000d0: e2cb 4bbb 85c3 e7bb 38bc 8c39 9d26 cc3b
000000e0: 9eac 40bc e951 4a3c 551f fa3a 3fac 433c
000000f0: 9353 36bc ece1 1f3c 231b 103c f36f 533c
00000100: fa02 71bc a827 e43a 5d72 603b 82d1 983b
00000110: a796 bb3b d034 453b e5d6 5e3c a42f 0ebb
00000120: 3945 a73a 0aa5 e33b 5247 32bc f4da cebb
00000130: fe17 febb ae17 003c 305a 84bb 7d1c 60bb
00000140: fdac b63b 527c c33b e7a4 4ebc b58e c3bb
00000150: 5627 813a c068 233b e00c e03b a562 303c
00000160: fb60 e23b 4898 65bc 4248 df3b 95a7 e83b
00000170: 1189 363b 34b7 2dbc 40ee 21bc 4815 0f3b
00000180: e7a2 043c bb8c 44bc fadc 0bbc 525f 9cba
00000190: ec40 0fbb 1ca1 e4bb b205 963b 876d fd3b
000001a0: 26a0 13ba 7a45 d0bb 6e17 a6bb de27 103a
000001b0: 5195 de3b 2f36 2fbc 2aeb 193c c830 64bc
000001c0: 8f35 0dbb 9b53 11bc 20f2 203c 5ffa 26bc
000001d0: e17e ea3b d7ea 00bb 807f 14bc 2b46 87ba
000001e0: 0bef 2abb 05cb 9fbb d07e 1f3c 4ced 27bb
000001f0: a976 22bb b818 143c 09eb 883a 5830 4ebc
00000200: b4b3 a1bb b691 93bb ed69 dbb9 7d9c a7bb
00000210: ae4d 2fbc 683b 803c 2b83 853a 72ef 053c
00000220: 4876 54bc 01dd a03b ee19 ac3a 3639 babb
00000230: cef9 28bc b48c 963c 607b 003c 2f9f 7fbc
00000240: f52c 2a3c 778c 223c 8d95 a13b fa42 863b
00000250: 9fe4 bd3a db09 6b3c 02b2 9cbb dced e7bb
00000260: 712d 82bc 5d95 1fbb 26d7 e0bb 6dcb d1bb
00000270: 3114 87bb ea20 94ba fcb3 f03b be92 94bb
00000280: 522f 043c ad1b 423b e70a 11bb 89fd 443c
00000290: fbe2 603c 3d04 d7b9 b698 92bc 585d 74bc
000002a0: 2206 2ebb 0e6f 483c e40d d4bb 5bc5 9d3b
000002b0: f9e3 8bbb fbf8 70bc ae98 1cbb cc1d 273c
000002c0: 371b 23bc 0eab f1ba 1ae9 5fbb 5865 11bc
000002d0: 52a4 5fbb 8acd 87bb fe7b 243c 3f9f 8a3c
000002e0: 1810 143c 4b96 7339 b281 f83b 319f e83b
000002f0: 34ad 80bc 4161 233c 9da4 083b cb51 94bc
00000300: 9fa2 b7ba 541e 13bc 251d 93bc e78b 95bc
00000310: 908e 943a 27b3 2d3c 2a25 10bc bbef 77ba
00000320: 3c04 f6bb 2d33 813c bbcd b939 c00e 983b
00000330: c4a9 4ebc bf89 93bb 70df 843c 2213 20bc
00000340: 5234 5e3c a32f b2bb 683c 463b 24f5 843c
00000350: 058c aabb 6af1 a63b 6d12 0d3c 1175 543c
00000360: 448f 3f3c 1712 e3bb 5f8b e43b 209f 89bb
00000370: d87a df3b 50aa 3bbb 349b af3a 6b3b f8bb
00000380: 15f8 8a3c 7740 0a3c 304a 1d3c 5367 47bc
00000390: 61e6 283b 6275 aabb 8181 b6b9 17a4 7c3c
000003a0: e1bd b93b bf05 10bb d217 433b 3495 5fbb
000003b0: 2d42 ce3b c5bb cebb 22c5 de3b 5846 20bc
000003c0: c3a9 b3bb 2c51 dbbb 3378 013c 85c2 2dbc
000003d0: 3f1d 69bb 7e84 77bb c561 533c a063 27bc
000003e0: 680a fe3b e621 c9bb 266b 32bc b752 e6bb
000003f0: 18f8 96bc c516 09bc abb9 913b 7ff2 70bc
0.010823605 0.0017759643 -0.012735584 -0.005820808 -0.013276616 0.00042603415 0.0023492752 -0.004787695
0.012375452 0.00023844586 -0.0039267307 0.003802047 0.00481614 0.0101836985 0.0027083938 0.006364731
-0.0032339396 0.006776254 -0.0007828184 0.013243928 0.0050705373 0.002148545 9.730034e-05 -0.0014092979
-0.00991762 -0.005735239 -0.005120664 -0.0063270284 -0.01301398 0.0016380401 -0.007250147 -0.012291089
0.009798018 -0.0034948608 -0.0013479444 0.004827502 0.011468446 0.00041390976 0.003526402 -0.009385811
-0.0056824614 0.0012711241 -0.0052264864 -0.0026189534 0.012876262 0.009637871 0.0099971015 -0.0039542406
0.005590654 -0.0035334195 -0.0041773426 -0.010142851 -0.0031096865 -0.0070728683 0.00026843115 0.006230189
-0.011759905 0.01234863 0.0019082824 0.011942922 -0.011128324 0.009758454 0.008795532 0.012905109
-0.014710182 0.0017406838 0.0034247853 0.004663647 0.0057247463 0.0030091293 0.01360104 -0.0021695876
0.0012761719 0.0069471644 -0.010881262 -0.0063127223 -0.007754325 0.007818146 -0.0040390715 -0.0034196668
0.005574821 0.005965748 -0.012612558 -0.0059679397 0.0009853642 0.0024934262 0.0068374723 0.010765706
0.0069085336 -0.014013357 0.0068140337 0.0071000555 0.0027852694 -0.010602761 -0.009883463 0.0021832753
0.00809548 -0.011996443 -0.008536572 -0.0011930263 -0.0021858765 -0.0069772135 0.0045783157 0.007734004
-0.0005631469 -0.0063559385 -0.005068711 0.0005499105 0.0067927022 -0.010694071 0.009394446 -0.013927646
-0.0021546816 -0.008870031 0.009823352 -0.010191529 0.0071562384 -0.0019671225 -0.0090636015 -0.0010320594
-0.0026082422 -0.0048764967 0.009734824 -0.0025623618 -0.0024789965 0.0090390965 0.0010446022 -0.012584768
-0.0049347524 -0.004503454 -0.00041849856 -0.0051150904 -0.010699673 0.015653327 0.0010186186 0.008174764
-0.012967654 0.004909158 0.0013130286 -0.0056830896 -0.010313464 0.01837764 0.007841915 -0.015601917
0.010386695 0.009921185 0.004931158 0.0040973397 0.001448769 0.014345611 -0.0047819624 -0.0070779156
-0.015890809 -0.0024350502 -0.006861585 -0.006402424 -0.00412228 -0.0011301313 0.0073456746 -0.0045340946
0.008067923 0.0029618547 -0.0022131742 0.012023338 0.013725991 -0.00041011153 -0.017895084 -0.014914833
-0.0026553948 0.012233509 -0.0064713825 0.0048147864 -0.00426912 -0.014707799 -0.0023894715 0.010199975
-0.009955219 -0.0018437819 -0.003416604 -0.00887426 -0.0034125042 -0.004144375 0.010039328 0.016921638
0.00903704 0.00023230274 0.0075838203 0.007099055 -0.01570759 0.009971918 0.002085007 -0.018105408
-0.0014010257 -0.008979399 -0.017958233 -0.018255187 0.0011333991 0.010601795 -0.008797923 -0.0009458025
-0.007507829 0.015771473 0.0003543923 0.00464043 -0.0126137175 -0.0045025046 0.016219825 -0.009770187
0.013562279 -0.0054378076 0.0030248407 0.016230173 -0.00520468 0.005094697 0.00861035 0.012967364
0.011691872 -0.0069296467 0.006974622 -0.0041998774 0.006820064 -0.002863545 0.0013397695 -0.0075754425
0.016963998 0.008438221 0.009600207 -0.0121706305 0.0025772082 -0.0052019814 -0.00034810233 0.015419981
0.0056683873 -0.0021976081 0.0029768837 -0.0034116032 0.00629451 -0.006309005 0.0067984024 -0.009782396
-0.0054828837 -0.006693026 0.007902193 -0.010605459 -0.003557041 -0.003776818 0.012901728 -0.010216624
0.0077527054 -0.006138074 -0.010889804 -0.0070289033 -0.018428847 -0.008367245 0.004447182 -0.014706253

pointer.gru.weight_ih_l0 f4 [384, 128]
00000000: dd7e 72ba 6732 853b c6cd 96bd ef63 dbbd
00000010: f38f 98bc 7cdc 28bd 0c30 bdbc 46da 31bd
00000020: e564 52bd dd6a c4bd 84ef bcbd b0ec 95bd
00000030: 8f68 c93d ae3e ccbc 777f ca3d 736a 883d
00000040: 152b 0b3d 7098 fcbc dd27 803d 16d3 763c
00000050: a299 633d 1439 863c c938 013b d8dd 94bd
00000060: 10be 0bbc 9b8a 393c 0ab6 86bd 0f0f e13c
00000070: e2dd d13b f285 043d 746a b0bd 588d 12bd
00000080: e11d 2c3d 7f6f 4f3b fe3f dabd b925 933d
00000090: 21c1 b23d ca4a 193d 5a1e 85bd fca8 ca3c
000000a0: e829 5abc 3865 7b3d c9d9 8d3d 1afd 9cbd
000000b0: 28f4 69bc 33ed db3c a87f a6bd e1cd b2bb
000000c0: 08ee b6bd 2597 b33d 37ec d53d 51fe 22bd
000000d0: bf4c b23d 1893 953c 3138 71bd 02ff bc3c
000000e0: 03eb cdbd bd65 a73d 3104 a5bd d270 513d
000000f0: cb82 cc3c 24c8 17bd 9692 cfbd d856 fb3c
00000100: f25f 25bd f386 a13d 0b7d 19bd 5b0f cd3d
00000110: 46d8 4cbc 7e01 673d d823 813a 8b2b b1bd
00000120: 938e c33d b3f6 9c3d c234 963c 81b8 acbd
00000130: baf1 adbd e6ca 9bbd d55f d83d 9fab 933d
00000140: b5f9 3cbd 313c 8c3c 32ba 6bbb 766a b33a
00000150: 831e 95bc 0ad4 343d 518f c7bc 0da9 55bc
00000160: c2e9 333d 2507 16bc bf00 d03d 064c 7b3c
00000170: 7317 be3d 52bb 353d 3f49 643b b347 85bc
00000180: 69d3 18b9 ed27 793d 20d0 afbd 923a bfbd
00000190: ce4b 9dbd d286 5f3b 70a1 203d 83a2 c73d
000001a0: 2280 563d a584 a53d 4109 8e3d e234 89bd
000001b0: 5d1f 823b a4dc 9ebd 0cb2 9abd 4bb4 5bbb
000001c0: 517c d93d cf0e 55bd dd2f 853d 5e77 84bd
000001d0: d767 a13d 0ab1 84bd 841f c6bd 35f8 f03c
000001e0: ecfe 38bd b513 4c3c 48d1 91bd e8d6 7dbc
000001f0: b2ad 153d 4222 61bd aee3 b9bc 3b87 53bc
00000200: a097 b83d b80c 7a3d d50d a9bd f71c a2bd
00000210: adea c7bd 0aa8 40bd 5e4d 52bd da08 713d
00000220: 663f 8cbd 06c4 fdbc cc6c 8ebd 49b2 1e3c
00000230: 9bf2 acbd 708f a83d fbda 40bd 774f ce3d
00000240: 704f afbd 6e74 cbbc 13a5 d33d e69a 59bd
00000250: 2965 93bc e5dc c1bc 8f1a c63b df20 083c
00000260: d194 923d a110 963d 9df2 bb3d dca3 bdbd
00000270: a907 93bc 11e8 82bc 25d6 81bd f929 99bc
00000280: 1340 803d f318 e3bc 7d25 2dbd b356 cc3d
00000290: 7607 be3d 2bfc eb3b eb38 26bd fca7 9b3c
000002a0: ba21 9a3d 9dd0 dcbc 0453 a33d 4619 acbd
000002b0: 011a a63d fe32 a53d a21d c13d 7ce6 9a3d
000002c0: 799e 1c3d b9b1 ffbc 88b7 a8bc 664b a0bd
000002d0: b221 45bd e728 10bc 645e cb3d 1c49 ad3d
000002e0: 0384 cabd 305e 573c f32d bc3d 86ce f5bc
000002f0: c93b 763d ef47 3e3d ad26 3f3d 9781 b2bd
00000300: fc3c 90bd 3d47 9d3d 27ed 233d f022 b53d
00000310: bfd7 333d 8872 1bbd 9db6 2ebd 51a7 8e3d
00000320: d2b9 093d 84f4 afbd c69e b9bc e792 d3bd
00000330: a2c0 9fbc f121 9c3d 5149 ddbd d8bf bdbd
00000340: df56 a4bd e6ca 58bd b7cd a73d 3e38 51ba
00000350: c313 2a3d d4aa d03d 91da 87bd 0ec9 d33c
00000360: 7be9 3b3c 2e31 09bd 262a cf3d d05a 70bd
00000370: 9ecf b43c c146 d83d 4bbc 32bd 2cf0 bb3d
00000380: aae7 e13c 2c69 a93d 49cc fabc d396 db3c
00000390: fd3d b2bc ee0d 053d f7c0 dbbd 0781 59bb
000003a0: a7d1 5d3d 747f 273d 8eca 4e3d a241 a13d
000003b0: 77cc b13d 202e 1cbc f70b bebd 4877 c03d
000003c0: 3016 b73d c2ab d33b de73 81bd 1c30 a0bc
000003d0: ded0 1ebb 4d5b 213d e75a 6cbb 7cd9 babc
000003e0: 621a d73a 31d1 99bd c5e4 c23c 3c93 ee3c
000003f0: 03ad 903d 727d b7bd 7f5c 56bd 2a3b a8bd
-0.00092504715 0.0040648463 -0.07363467 -0.1071242 -0.018623328 -0.041225895 -0.0230942 -0.043421052
-0.05136575 -0.09590695 -0.092253715 -0.07320535 0.09834396 -0.024932232 0.09887593 0.066609286
0.033976633 -0.030834407 0.06257603 0.015064975 0.055566438 0.016384639 0.0019717684 -0.07268876
-0.008529201 0.01132455 -0.0657769 0.027473 0.0064046243 0.032354303 -0.08614054 -0.035779327
0.042020682 0.003165215 -0.10656737 0.071849294 0.08728243 0.03742484 -0.0649993 0.024738781
-0.013315655 0.061375827 0.06926305 -0.07665463 -0.014279403 0.026846504 -0.08129817 -0.0054566716
-0.089321196 0.08769063 0.10445445 -0.039793316 0.087060444 0.018258616 -0.05889148 0.023070816
-0.100545906 0.08173702 -0.0805744 0.051132984 0.02496471 -0.037056103 -0.10135381 0.030681059
-0.040374704 0.07887068 -0.037472766 0.100126944 -0.0125027355 0.056397907 0.0009852601 -0.08650883
0.09548678 0.07664242 0.018335704 -0.08433629 -0.08493371 -0.07607059 0.105651535 0.072104685
-0.046136577 0.017118545 -0.0035969135 0.0013688344 -0.018203026 0.04414753 -0.02436033 -0.013040793
0.0439241 -0.009156977 0.10156392 0.01533795 0.09281816 0.044368096 0.0034833697 -0.01626954
-0.00014574606 0.06082909 -0.085846186 -0.09337343 -0.07680474 0.0034107459 0.03921646 0.097477935
0.05236829 0.080819406 0.06935359 -0.0669954 0.003971024 -0.077569276 -0.07553491 -0.003352421
0.106194146 -0.052016076 0.0650327 -0.0646808 0.07881134 -0.0647908 -0.0967398 0.02941523
-0.045164987 0.01245587 -0.07119995 -0.015493132 0.036542602 -0.05496431 -0.022691574 -0.012910659
0.09013295 0.061047286 -0.082545914 -0.07915681 -0.09761558 -0.047035255 -0.051343314 0.058846332
-0.0684803 -0.03097726 -0.06954345 0.009686061 -0.08444711 0.082304835 -0.047083836 0.100737505
-0.085600734 -0.024835791 0.1033422 -0.05312624 -0.017992573 -0.023664901 0.0060456465 0.008308618
0.07157291 0.073273905 0.09177134 -0.09259769 -0.017947989 -0.015979799 -0.06339673 -0.018696772
0.06262221 -0.027721858 -0.04227208 0.09977474 0.09278767 0.0072016916 -0.040581625 0.019001
0.07525964 -0.026954943 0.07974818 -0.08403258 0.081104286 0.080663666 0.0942948 0.07563493
0.03823707 -0.031212674 -0.020595327 -0.07826881 -0.048127837 -0.008798814 0.09930113 0.0846121
-0.098884605 0.013145015 0.091884516 -0.030005705 0.06011561 0.04645532 0.046667743 -0.087161236
-0.07042882 0.07679603 0.040021088 0.088445544 0.043906923 -0.037951022 -0.042654622 0.06965507
0.033624478 -0.085915595 -0.022658717 -0.10330754 -0.019501034 0.07623661 -0.108049996 -0.09265107
-0.08024382 -0.052927874 0.08193534 -0.0007981098 0.041522752 0.10188833 -0.06633485 0.025852706
0.01146924 -0.033494167 0.10115461 -0.058680356 0.022071656 0.1056037 -0.0436366 0.091766685
0.027576286 0.08272013 -0.030614989 0.026805317 -0.021758074 0.032483988 -0.107301645 -0.0033188479
0.05415502 0.040893033 0.05048614 0.078738466 0.08681577 -0.009532481 -0.09279626 0.09397751
0.08939779 0.006459684 -0.06320928 -0.01955419 -0.0024233381 0.03939371 -0.0036064924 -0.022808783
0.0016411061 -0.07510603 0.023790726 0.029122941 0.07064249 -0.08959474 -0.052334305 -0.0821441

pointer.gru.weight_hh_l0 f4 [384, 128]
00000000: 0dad efbc c045 49bc 0a1b b3bd a7a1 bc3d
00000010: 8392 bc3d dcbd 61bd e0ac 1bbd f0ad 07bc
00000020: 64ff c23c 7188 bc3c ac65 bf3c acdb 7bbd
00000030: 41f5 8a3d 7bbc acbd f53e 99bd 39cd 79bd
00000040: 890b 0f3c 450e 41bd 4791 a93c 118a bebd
00000050: f07e dcbc fbe7 45bb 34e4 8e3c 8217 3d3d
00000060: 34b6 d03c b2c0 703c f394 923d 30dc 09bd
00000070: 66ae bfbd 9967 cd3d b958 ac3d 2660 dcbd
00000080: 0f5c 4dbd 8b2b 993d c27f 1b3d 86f8 763d
00000090: 8486 a3bd d275 7a3d f95b b7bc 6528 cd3d
000000a0: 2991 89bd 34de d3bc 781b dd3b 1b6e 0ebc
000000b0: 76ba 1f3d 7128 b23d 4af1 4b3b e9f5 16bd
000000c0: b45f 2fbd fe93 223c 01ab 693c 379a 893d
000000d0: 72f7 7b3d 7d2d a9bc e84e 38bd fb3f 52bd
000000e0: 33f6 a63d 6f74 cebd 2e4a 6d3d a4a5 cbbd
000000f0: 4819 bdbd 92bd 84bd d550 d03d 9ad7 89bc
00000100: 883b 6e3c d317 bd3d 044e e8bc 7c09 923c
00000110: d223 17bd 8425 7abd 8446 d83c 2826 70bc
00000120: 3825 cfbc 2601 6e3d 55e8 90bd d5d7 0e3c
00000130: dbd0 b4bd 0cf9 413c afd9 763a e34f cdbd
00000140: 5064 dabd dee3 db3c 4a5f 2f3d 1e1a 743d
00000150: 892a 60bd e95f d63d cc2d f9bc e5f2 d73d
00000160: f492 72bc 7a57 91bd 29dd ab3d 1ab1 d13c
00000170: 2167 adbc d253 683d e876 ec3b f602 86bc
00000180: 78e3 71bc 112a bd3d f39d aebd 0247 0d3d
00000190: 7ef3 5a3d a415 48bd 3714 a63d 9b08 b4bd
000001a0: 36d1 2abd 8d3b c23d 9919 c3bd 907c 85bc
000001b0: 8323 62bd 2297 313d cca1 273d 28fa ddbc
000001c0: 07fc c6bd 3074 dc3d 288e 92bd 234b 823d
000001d0: 0aa2 3a3d 8e35 3f3d 435d 90bd a48d a0bd
000001e0: 33a5 9c3d 2280 f5bb e9be b63c 2b1f 993d
000001f0: 2961 43bd fe93 4e3d 91fe e53c cf33 b03d
00000200: 2c4a 983d f60c 5a3d 570d 8bbd 1396 f13c
00000210: 204a d53c 3eec 513d 14a5 d33d aad7 0ebd
00000220: c909 bbbd ecc2 ce3d eb00 d03d 2264 e23c
00000230: 1efa b8bd f896 a5bc d757 063d 01f5 ed3c
00000240: 1e42 993d bb9e 523d e483 bbbd f8d5 bf3d
00000250: 7ab9 a4bd bbf8 16bd ce33 36bd 596f 003d
00000260: 920f 633c 54bd 1cbd 1ffd e43c faec 583c
00000270: 74d9 b03c c4c9 d9bd 7e82 963c 8a03 1ebd
00000280: 95b7 bebd 5cff 1d3c a249 2dba ad7b 833d
00000290: af34 823d ffed 543d da00 93bd 3dd5 bd3d
000002a0: 7c6d a9ba a301 31bd 8de1 9cbd 9180 843d
000002b0: 54b4 68bd ea7e cdbc 4691 c6bd f1df 9fbd
000002c0: bfca 8cbd b7a1 c0bd 27a3 93bd 3410 4bbd
000002d0: 74e1 323d 2796 9abd 2377 883d 0276 3ebb
000002e0: 6c8c 4bbd b38c 843d 7c54 babd 7aa4 3e3d
000002f0: 1739 8e3d dd4d c73d fe2a a4bd 53a8 2dbd
00000300: d004 ca3d 5bd7 383d 60ad adbb ec4d f6bc
00000310: 5ef3 f23c 0647 8ebd 76e4 d8bd c9c3 c9bc
00000320: 670a c93d cf25 8e3c ce54 573d df43 5e3d
00000330: 8af7 463d 3e64 4dbc 76a0 b3bd 1ef5 943c
00000340: 7ffe 9e3d 205d 313d 5d95 eebc 7797 d33d
00000350: cd4d 1a3a 7dde d6bd 2cbe 8d3d 04fc 083d
00000360: 4bcb c13d 640e a23c f33f febc c382 673b
00000370: 6c6b 92bd 3a17 663d 4e3b 1e3d d1a3 4bbd
00000380: 595d 9d3d 6b91 d6bd e265 04bd 8e87 443d
00000390: 1a44 2f3d 329b 543d b231 383d 62a0 86bd
000003a0: ea1a a8bc cfbd 32bd a336 ddbd 212a a63c
000003b0: be65 88bc 1f50 5abc 9b1a 8cbd bcef c1bd
000003c0: d065 b5bd 55e0 82bd 72de 84bd f941 a33d
000003d0: c7a1 8a3d ba22 1f3d a3a9 483d 0d4c 5a3d
000003e0: 36f7 343d 7808 09bd 491b a93d f686 d63d
000003f0: 096d 4bbd 0fc2 34bd eeb3 563d 2a9a 533d
-0.029257322 -0.012284696 -0.08745392 0.0921052 0.092076324 -0.055112705 -0.038006663 -0.008281216
0.02380342 0.02301428 0.02336391 -0.061488792 0.0678506 -0.08434387 -0.07482711 -0.06098673
0.008730778 -0.04713275 0.020699156 -0.09303678 -0.026915997 -0.0030198086 0.0174428 0.046164997
0.025477506 0.01469438 0.07157316 -0.033657253 -0.09359436 0.10029525 0.0841536 -0.10760526
-0.050136622 0.07479008 0.037963636 0.060295604 -0.07984641 0.06114752 -0.022382723 0.1001747
-0.0671714 -0.02586279 0.0067476593 -0.008693243 0.038996182 0.0869912 0.0031119161 -0.036855612
-0.04281588 0.009922979 0.014261962 0.06718867 0.06151528 -0.020651573 -0.044997126 -0.051330548
0.081524275 -0.10080802 0.05793207 -0.09943703 -0.09233338 -0.0648147 0.101716675 -0.01682644
0.014540561 0.0923306 -0.028357513 0.017826788 -0.036899395 -0.061070934 0.026400812 -0.014657535
-0.025286302 0.058106564 -0.07075564 0.008718451 -0.088288985 0.011839163 0.00094165927 -0.10025003
-0.10663664 0.026842054 0.042815484 0.05959522 -0.054728065 0.10467512 -0.030417345 0.10544375
-0.014805544 -0.07096763 0.08391792 0.025597144 -0.02116734 0.056720562 0.007216323 -0.016358834
-0.014763705 0.09236539 -0.0852622 0.034491546 0.05345487 -0.048848763 0.081093244 -0.08790704
-0.041703425 0.09484015 -0.09526367 -0.016294748 -0.055209648 0.043357022 0.040925786 -0.027096823
-0.09716039 0.107643485 -0.071560204 0.063619874 0.04556469 0.046681933 -0.07049038 -0.07839516
0.07648697 -0.0074920813 0.02230783 0.07476648 -0.04770008 0.050434105 0.028075488 0.08603632
0.07436022 0.053235017 -0.06789654 0.029490506 0.026036322 0.05125069 0.103342205 -0.034873642
-0.09132726 0.10095772 0.10156425 0.027635638 -0.09032081 -0.02021359 0.032798614 0.029047491
0.07483314 0.05142091 -0.091560155 0.09366983 -0.08043189 -0.0368583 -0.044483 0.03135619
0.013858693 -0.038266495 0.027952729 0.013240093 0.021588065 -0.10634187 0.01837277 -0.038577594
-0.09312359 0.009643402 -0.00066103984 0.06420074 0.06357705 0.051984783 -0.07177897 0.092691876
-0.0012926306 -0.04321445 -0.07660208 0.064698346 -0.0568126 -0.025084931 -0.096956775 -0.07806385
-0.06874608 -0.09405845 -0.07208853 -0.049576 0.04367204 -0.075481705 0.066633485 -0.0029062037
-0.049694464 0.06472149 -0.09098145 0.046543576 0.06944483 0.09731648 -0.080160126 -0.042396855
0.09864199 0.045127254 -0.005300209 -0.030066453 0.029657062 -0.069471404 -0.105904505 -0.02462949
0.09816437 0.017352013 0.05257111 0.054263946 0.048575915 -0.012536107 -0.0877084 0.018183287
0.07763385 0.0433017 -0.029123956 0.10331624 0.0005886227 -0.10491655 0.06921038 0.033443466
0.09462603 0.019782253 -0.031036353 0.0035325743 -0.07149395 0.056174494 0.038630776 -0.049716774
0.0768382 -0.10476955 -0.032323726 0.047980838 0.042789556 0.05190582 0.04496927 -0.06573559
-0.020520646 -0.043638047 -0.10801437 0.02028376 -0.016650077 -0.013324766 -0.06841012 -0.09469554
-0.0885731 -0.06390444 -0.064877406 0.07971568 0.06769138 0.038851477 0.048989903 0.053295184
0.04418107 -0.033455342 0.08257157 0.104749605 -0.04966453 -0.04413038 0.052417688 0.051660694
