Task assignment/drl4vrp/vrp/10/20_22_33.603681/checkpoints/8/critic.pt (torch, 29011 bytes, 9 tensors)

static_encoder.conv.weight f4 [128, 2, 1]
000000 40 53 e9 bd 30 52 d2 bd 92 e4 55 3e 4e 92 4e 3d
       -0.11392832 -0.10269582 0.20887974 0.050432496
000010 97 ba 64 3e 13 28 18 bc a4 d7 db 3d 37 a9 63 3d
       0.22336803 -0.009286898 0.107344896 0.055581298
000020 da 64 e4 bd 72 e3 64 3d 85 36 16 be fa 29 ad bd
       -0.111520484 0.05588097 -0.14669235 -0.08455272
000030 cd b0 5c be 6f 83 ab bc 37 b0 92 bd fd 1e 03 3e
       -0.21551819 -0.020936696 -0.071625166 0.1280479
000040 96 a1 c2 bd 47 06 47 3e 5e db 25 3e 3b 24 5c 3e
       -0.09503476 0.19435988 0.16196963 0.21498196
000050 f7 69 3f 3c da 0b 0b 3e a8 dc c8 3d a5 be 61 3e
       0.011682979 0.1357874 0.09807712 0.22045381
000060 00 0a 61 be 8a 94 49 be a6 e6 0b bd 9d 83 0a 3e
       -0.21976471 -0.1968557 -0.03415551 0.13526769
000070 41 4d 2a be 07 7a 0f bd 6e bc fe bd e8 9a ac 3d
       -0.16631033 -0.035028484 -0.12438284 0.084279835
000080 5e dc 1a be 54 c0 43 be 61 26 22 3e f8 78 05 bd
       -0.15123126 -0.19116336 0.15834953 -0.032586068
000090 c3 a9 a6 3c 3b bb e9 bd 85 e4 bd bd 6b 61 4b be
       0.02034462 -0.114126645 -0.09272102 -0.19861381
0000a0 7d d6 55 3e d3 b9 3c be cb 0c 51 be cd cc 34 3e
       0.20882602 -0.18430261 -0.20415036 0.1765625
0000b0 4b e7 2e 3e ff d0 38 3e 09 70 30 3e 67 08 ab 3c
       0.17080419 0.18048476 0.17230238 0.02087803
0000c0 1c df ee 3d 79 fd 17 3e 08 e4 2d 3e 87 f0 c3 bd
       0.116636485 0.14842786 0.16981518 -0.09567361
0000d0 03 56 18 3e ed 06 95 bd ba 90 25 be 72 f2 11 be
       0.14876561 -0.072767116 -0.1616849 -0.14252642
0000e0 23 cf 92 3d e1 92 00 3e 00 1d 2f 3e 99 74 40 be
       0.071684144 0.1255603 0.17100906 -0.18794478
0000f0 6c 17 8f bd df 3a f4 3d ee 85 5e 3e 6a 91 56 3e
       -0.06986889 0.11925291 0.21730778 0.20953909
000100 2d 35 28 3c 14 b0 3c 3e 61 c7 b8 bd 2c 4e f7 bd
       0.010266584 0.18426543 -0.090224035 -0.12075457
000110 29 7b 44 3d 76 13 d5 bc 65 6e 80 3d 33 43 0d 3e
       0.047969017 -0.026010256 0.06271056 0.13795166
000120 d3 ee 1f be 4f e9 fc bc b0 be 21 3e 13 68 e8 bd
       -0.15618448 -0.030872969 0.15795398 -0.113479756
000130 86 79 06 be f1 f0 3a 3e 64 07 07 be 7d e0 44 3e
       -0.13132295 0.18255974 -0.13186413 0.1922626
000140 58 a0 51 be e3 d6 fb 3d 0b 1c 21 be fd ee a9 3d
       -0.20471323 0.12296846 -0.15733354 0.082975365
000150 ae 2c c8 bd 7b 30 ec 3b 47 26 55 be 16 c4 4b bd
       -0.09774147 0.0072079278 -0.20815383 -0.04974755
000160 1a b1 cc 3d bd e0 1c 3e b1 a7 c8 bc 03 87 56 be
       0.09994717 0.15320106 -0.024494024 -0.2094994
000170 bc 0c e8 3d 9b 66 86 bd f9 50 17 be 2f 73 10 3e
       0.11330554 -0.06562539 -0.14776982 0.14106439
000180 92 ad 2d be b9 ff 86 bd df 8f ed 3d 08 f3 96 bc
       -0.16960743 -0.06591744 0.11599707 -0.018426433
000190 bc 13 2c be ec 17 a4 3d f5 15 1c 3e 06 55 6e 3d
       -0.16804403 0.08012375 0.15242751 0.058186553
0001a0 c6 97 01 be 1c d5 f9 3c 36 09 59 bd 3b 44 ed bd
       -0.12655553 0.030497126 -0.0529873 -0.115852796
0001b0 ef 1f 71 bd 18 5b 39 bd 92 3c af bc 86 63 88 3d
       -0.058868345 -0.04525289 -0.021391187 0.066596076
0001c0 53 85 bc bd 3b 6f 17 be 72 8b 98 3c 9b 87 2b 3d
       -0.09205117 -0.14788525 0.01862118 0.04187737
0001d0 9c af 3a be 41 0e d8 3d 6d 19 55 bd 66 2a 2b be
       -0.18231052 0.10549594 -0.0520262 -0.16715392
0001e0 26 52 bb 3d 1d a0 dc bd ff dd cd bd 0e 17 fa bd
       0.09146528 -0.10772727 -0.10052108 -0.122114286
0001f0 1b f4 da bd 1e 89 3a 3e 93 8b cd bd 18 ac 47 bd
       -0.10691091 0.18216369 -0.10036387 -0.048748106
000200 40 bc 33 3e 1b 79 02 3e 8a 6f 08 be a7 f9 5e be
       0.1755228 0.1274151 -0.13323799 -0.21774922
000210 54 ef 86 bc c3 86 56 bd 95 0a 80 bd 88 a2 6e bd
       -0.016471542 -0.052374613 -0.06252018 -0.05826047
000220 9d ca 5d 3e df 4e 1b 3e 59 f2 18 be af 34 49 3d
       0.21659322 0.15166806 -0.14936198 0.04912251
000230 0c 77 5f 3d 96 01 52 be 67 d2 8b 3d c2 88 8c bd
       0.05455689 -0.20508417 0.068272404 -0.06862022
000240 8b f3 2a 3e e1 a6 7b 3d 7b f5 02 be 86 47 d9 3d
       0.16694467 0.061438445 -0.12788956 0.10609345
000250 a8 8e 23 3e ee 39 d6 3d 6f 13 61 3e cc 8b cf bc
       0.15972388 0.10460268 0.2198007 -0.025335215
000260 44 d9 48 bc e7 2a fa bd ea 4a 24 3e 73 75 37 3e
       -0.012258831 -0.12215214 0.16044202 0.17915897
000270 2b 19 7d 3d 9b a1 dc 3d 6c 52 a8 3b af 18 b7 3c
       0.06179158 0.10773011 0.0051367786 0.022350637
000280 4d fe 34 3e 2a 12 02 be 81 ab cb bd 4b 01 34 bd
       0.17675133 -0.12702242 -0.09944821 -0.043946546
000290 20 b3 0d 3e d7 50 32 3c b1 07 8f bd d8 a0 d8 bd
       0.13837862 0.0108835315 -0.06983889 -0.105775535
0002a0 d1 db 06 bd d5 8e a3 bd 45 1c 2d be d3 70 3f 3e
       -0.032924477 -0.079862274 -0.16905315 0.18695383
0002b0 f5 7c cb 3d 9b ff 9d 3d a1 3f 17 be d6 bf d3 bc
       0.09935943 0.077147685 -0.14770366 -0.02584831
0002c0 ea 22 58 be a6 e3 3f 3e 13 cb 09 be f1 9b 18 be
       -0.21107069 0.18739185 -0.13456373 -0.14903237
0002d0 d8 b8 30 3e 71 91 2c 3e 50 8a 15 3e bb 1a f7 3c
       0.17258012 0.16852356 0.14603543 0.030164113
0002e0 e5 b2 e4 3d 72 f3 c7 bb 3a f5 44 3e 14 77 ca bc
       0.11166934 -0.006102019 0.19234172 -0.024714984
0002f0 e9 c5 57 bd e3 0d 5b 3e 8c 4e 05 be d9 2c 60 be
       -0.052678976 0.21392016 -0.13018245 -0.21892108
000300 4d fc 9b bd b9 cd e1 3d fd 7d 14 be ac cf ae bd
       -0.07616482 0.110255666 -0.14501186 -0.08535704
000310 bc 3d 4f bd c2 cc 2e 3e 10 13 d9 3b 08 fc eb 3c
       -0.050595984 0.17070296 0.006624587 0.028806701
000320 d8 63 4b bd 01 d9 52 bd 2d 53 21 3e 53 ef 02 3e
       -0.049655765 -0.051476482 0.15754385 0.12786607
000330 28 f1 d9 bd fe a3 f4 bd 64 d0 93 3c 71 42 61 be
       -0.106417 -0.119453415 0.018043704 -0.21998002
000340 53 60 42 be 9f e4 46 bc 5a 30 52 3e 92 12 51 3e
       -0.18982057 -0.012139468 0.20526257 0.2041724
000350 b7 35 66 3c 9a 83 ce bd 50 88 ff 3c 3e e5 5a 3e
       0.014050893 -0.10083695 0.031192929 0.21376511
000360 87 79 44 be 32 bb bd 3d 09 38 07 be 8d 5b 84 bd
       -0.19186984 0.0926422 -0.1320497 -0.064627744
000370 d2 f8 1a be da 51 b6 bd be f8 e3 bd 3e e5 37 3e
       -0.1513398 -0.08902331 -0.11131428 0.17958543
000380 da 9e eb 3a 14 2c 4b be 77 c2 52 3d bb a8 1a be
       0.0017976419 -0.19841033 0.051454987 -0.15103428
000390 d2 01 9f 3d 03 be 62 bb 3f cc 40 3e b4 f5 48 be
       0.07764019 -0.003459812 0.18827914 -0.19624978
0003a0 9d 59 3f be 23 8a b2 bd 13 34 83 bd d1 23 64 3c
       -0.18686529 -0.08717754 -0.06406417 0.013924555
0003b0 66 f5 c6 bd e5 cf 07 3e c2 b1 4b 3e 8b 1f d1 3d
       -0.09714775 0.13262899 0.19892028 0.102110945
0003c0 57 ca 4c 3d 3b 51 98 3d fb 59 39 bd a1 0b 57 3e
       0.049997654 0.074373685 -0.045251828 0.2100053
0003d0 02 4d 7d 3d 6b 77 a4 bd ac 22 04 3e 7b a9 1b 3e
       0.06184102 -0.0803059 0.12903851 0.1520137
0003e0 b8 c5 3f be 56 12 aa bd 96 58 ce bd 88 ac b2 3d
       -0.18727767 -0.083042786 -0.1007549 0.08724314
0003f0 ad c8 2b be de f0 d1 3c 05 d7 77 bc c7 42 11 3d
       -0.1677577 0.02562755 -0.015126948 0.035464074

static_encoder.conv.bias f4 [128]
000000 1c a9 2b be 21 d0 dc 3e c6 ee 0b 3f b8 5a ee 3d
       -0.16763729 0.4312754 0.54661214 0.11638397
000010 44 18 76 3e 21 76 e1 be a1 cb 08 bf 16 2f cc 3e
       0.24032694 -0.44035438 -0.53435713 0.39879674
000020 af 77 03 bf 4c e6 8c 3d 55 76 13 bf 22 9d 0d 3f
       -0.513545 0.06879863 -0.57602435 0.5531789
000030 6f 6e 95 3e bb 2e b4 3e ff 7e 33 bf 94 67 c9 3e
       0.29185817 0.35191903 -0.70115656 0.39336836
000040 2e a4 d7 be 6e 58 61 be 2f e0 1c bf 1b 9d 8d 3e
       -0.42117447 -0.2200639 -0.61279577 0.27658924
000050 d9 e2 89 3e 3e d3 32 3f 6a af b2 3e 87 03 d5 bc
       0.26930884 0.6985358 0.34899455 -0.026002659
000060 f2 e1 d4 3e 33 72 db 3e 05 de ae bd b6 c8 2b 3f
       0.41578633 0.42860565 -0.085384406 0.67103136
000070 3c fb 1c be 48 80 99 3e c4 1f e0 be 75 a0 2a 3e
       -0.15330213 0.29980683 -0.43774235 0.16662772
000080 26 ab fa be b5 6c 0e be 9d a2 a4 3e b5 7b a4 3b
       -0.489587 -0.13908656 0.32155314 0.00501963
000090 c3 9b fe 3d de 37 1e bf 08 95 3c 3d 97 48 44 be
       0.12432053 -0.61803997 0.046040565 -0.19168316
0000a0 b6 66 a9 3d 3f 2c 2e bf c6 26 24 3d cb d6 18 bf
       0.08271544 -0.68036264 0.04007604 -0.5970275
0000b0 3e 05 e9 ba d4 9e 8c be 34 48 ea 3e 76 72 a5 be
       -0.0017778052 -0.27464926 0.45758212 -0.3231389
0000c0 71 3a 11 3f b5 05 74 be 68 87 2c bf 3f 28 06 bf
       0.567298 -0.23830302 -0.67394114 -0.5240516
0000d0 e8 a7 98 3e 62 9d 58 3d 7b 26 f0 3e fd 04 14 bf
       0.29815602 0.052884467 0.46904358 -0.5782011
0000e0 6c 28 9a be 4b f2 20 bf cd b8 f6 3d 22 bf 60 3e
       -0.30108964 -0.6286971 0.12046967 0.21947911
0000f0 e1 f6 2f 3f db 6b 81 3e f9 c6 8c be 08 b5 35 bf
       0.6873608 0.252776 -0.27495554 -0.70979357
000100 d3 56 2d 3f 6c 1e 76 be 54 1d 41 3d d2 2a 5e be
       0.6771061 -0.24035043 0.04714711 -0.21696022
000110 70 f1 a4 3b b5 82 c1 be 4a b4 f9 3e e1 0e 0d bf
       0.0050336644 -0.37795034 0.48770362 -0.5510083
000120 eb 91 1c bf 1b 94 be be 7e 53 15 bf 6c 4d d0 3e
       -0.61160153 -0.3722237 -0.58330524 0.40684068
000130 4b 46 6b be 94 b9 f1 be aa 24 1f 3e 4a aa fe be
       -0.22976033 -0.47211897 0.1554133 -0.49739295
000140 a2 2c 31 bf 7a f0 ed 3e e9 5e 0f bf 9b aa c1 3e
       -0.6920873 0.46472532 -0.56004196 0.37825474
000150 0b 69 ac be 0f f0 d1 3e a0 1c f4 3e 42 48 d3 bd
       -0.3367389 0.41003463 0.4767809 -0.103165165
000160 62 14 33 be 2b 57 38 be 3e 54 43 3e 1c fc 1b bf
       -0.17488244 -0.18002002 0.19075105 -0.60931563
000170 ab f5 d6 3e d0 7d a6 3e 79 26 ad bd 91 4c e7 be
       0.41984305 0.32517862 -0.08454604 -0.45175603
000180 71 c5 2c bf 27 d1 11 3f 10 39 1f bf 9a 26 08 bf
       -0.6748877 0.56959766 -0.62196445 -0.531839
000190 bf d5 a1 be c7 a5 d4 3d 50 15 2c bf 3d a7 00 be
       -0.31608388 0.10383182 -0.6722002 -0.12563796
0001a0 61 1a c4 3e 6f e8 16 bd 6c 5e e1 be ee 4e 1c 3f
       0.38301376 -0.03684276 -0.4401735 0.6105794
0001b0 a1 7f 73 3e a4 42 f9 3e 2b 55 7c 3e 9d af f1 3e
       0.23779155 0.48683655 0.24641864 0.47204295
0001c0 05 2c cb 3d b0 8d 60 be ed 66 eb be 28 38 7f bd
       0.099205054 -0.2192905 -0.45976964 -0.062309414
0001d0 dc ce f9 bc 42 00 0b bf d5 81 05 bf ba 67 24 3f
       -0.030494146 -0.5429727 -0.5215123 0.64220774
0001e0 b9 a7 5e be 7d 1e 9a bb 7c 44 c4 be 49 07 d5 bd
       -0.21743669 -0.0047033415 -0.383335 -0.1040178
0001f0 b1 74 e3 be b5 7b b1 be d8 23 ac bd 41 be d5 3e
       -0.44424966 -0.34664693 -0.08405274 0.41746715

dynamic_encoder.conv.weight f4 [128, 2, 1]
000000 47 86 19 3e e9 28 4b 3c bd d7 f2 bc dc 1f 45 be
       0.14992629 0.01239989 -0.029643888 -0.19250435
000010 b6 90 d4 3d 3f 3d 14 be da ac 16 3e f3 a5 87 3c
       0.10379164 -0.14476489 0.14714375 0.016558623
000020 bf 05 50 3e dc 39 ab bd 4b 0c 45 3e 6a b8 88 3d
       0.20314692 -0.08360645 0.1924297 0.06675799
000030 43 aa e4 3d fe 6a 00 3e 64 97 b6 bd d2 db ef 3d
       0.11165287 0.12540814 -0.08915594 0.11711849
000040 7f 9f 33 3e a3 0f 3d 3e 9d f7 4b 3e 81 6f 23 be
       0.17541312 0.18462996 0.19918676 -0.15960504
000050 40 a7 f8 3a 54 1b 22 3d 5e f1 02 be 4e 33 06 3e
       0.0018970743 0.039576843 -0.12787387 0.13105509
000060 5a d9 fd 3d ad b3 05 3e 87 20 02 3e a4 43 3e 3e
       0.12394972 0.13056822 0.1270772 0.1858049
000070 81 e2 a2 3d 05 ad 10 bd 0c a9 37 bc 9c 79 7c 3d
       0.079533584 -0.035321254 -0.0112097375 0.061639413
000080 0d 98 a3 3d f9 93 b7 bc 87 15 13 3e 5d 16 f2 bd
       0.07987986 -0.022409426 0.14363681 -0.11820672
000090 38 fd ca bd c7 1f d6 bd 98 dd 7b bd 14 0d 79 3d
       -0.09911579 -0.1045528 -0.061490625 0.060803488
0000a0 17 1c 0a be d3 b4 f4 3d cd c0 20 3e c5 bc 51 3e
       -0.13487278 0.11948552 0.15698548 0.20482166
0000b0 a6 2a 42 bd a8 59 3c be d6 e1 02 3e c6 c8 0f 3e
       -0.047403954 -0.18393576 0.12781462 0.14041433
0000c0 94 e5 07 3e 52 fe 06 be 40 29 c7 3d e2 9b 91 3d
       0.13271171 -0.13182953 0.09724665 0.071098104
0000d0 95 d9 60 bd e3 15 36 be e0 62 3a be 25 bb 5c 3d
       -0.054895002 -0.17781787 -0.1820178 0.053889412
0000e0 cc f1 9c 3c 0f 1f 59 3e 12 d8 09 be f1 ce 4d 3e
       0.019158266 0.21203254 -0.1346133 0.20098473
0000f0 3f 01 b4 bd 6f 0e 08 3e 53 ff 3f be 6f 65 2f be
       -0.087893 0.13286756 -0.18749742 -0.17128538
000100 b0 41 75 bd 7a 3f fd bd 72 1b b5 3c 1c df 89 3c
       -0.059877098 -0.12365623 0.022107814 0.01683002
000110 a3 af 3b be ba e9 b7 3c 90 b7 1c be 92 1d d7 38
       -0.18328719 0.022450317 -0.15304399 0.00010257507
000120 0a 16 ce bc b8 9d 16 be b8 b3 ed 3d e9 7a 18 3e
       -0.025156993 -0.14708602 0.11606544 0.14890637
000130 bd 31 3d be 50 05 c3 bd 7f 88 50 bd fb f4 8e bc
       -0.18476005 -0.09522498 -0.050911423 -0.0174508
000140 c5 eb 20 3e 91 6c ba bc c9 79 94 bd f9 11 10 be
       0.15714939 -0.022756847 -0.07249791 -0.14069356
000150 d7 f5 43 be 36 f7 f0 bd 0e 71 46 3e 88 10 30 be
       -0.19136749 -0.11765902 0.19379064 -0.17193806
000160 86 50 55 be 2a f7 1c 3d f7 eb 19 3e 43 04 47 be
       -0.20831499 0.03832165 0.1503142 -0.1943522
000170 c5 34 f1 bd bc de f8 3d 89 97 21 3e 4a 56 c0 bd
       -0.11777643 0.12151858 0.15780462 -0.09391458
000180 78 d0 89 3d 40 12 10 bd 5f 64 8f bc de 92 32 be
       0.067292154 -0.035173655 -0.017503915 -0.17438838
000190 c0 6f ca bd c8 49 08 be 9e 6f c2 bd 62 df ae bd
       -0.09884596 -0.13309395 -0.094939455 -0.08538701
0001a0 1d 73 8e bd 16 42 26 3e c3 e2 9d 3d 64 02 31 be
       -0.0695555 0.16236147 0.07709267 -0.17286068
0001b0 6f b8 1f 3e 5c 53 46 3e 59 47 ca bd 6e 2a 0f 3e
       0.155977 0.19367737 -0.0987689 0.1398103
0001c0 12 b6 f8 bc a2 0a f3 3d 87 18 4c be be 1b 2f 3e
       -0.030360255 0.118672624 -0.19931231 0.17100427
0001d0 fd 68 2d 3e e0 02 cf bd c1 d0 d8 3d b3 32 61 3d
       0.16934581 -0.1010797 0.10586692 0.05497999
0001e0 ae 7a 2d be cf f0 14 3d 43 3b 31 be 53 38 11 bc
       -0.1694133 0.036362465 -0.17307763 -0.008863526
0001f0 3e 46 ab bd 81 78 4c be 3f d2 1c be 3e 61 c2 3d
       -0.08363007 -0.19967844 -0.15314578 0.09491204
000200 b8 41 19 be 23 b1 cb 3c 43 95 ee 3d 83 d1 00 bc
       -0.14966476 0.024864739 0.11649563 -0.0078624515
000210 aa 9d 20 3e fd 79 4c 3e 64 80 13 3d 1d 8d 1e 3a
       0.15685144 0.1996841 0.036011115 0.0006048249
000220 4b 51 03 bd b7 75 15 be 2b ce 8b bd f4 a5 fe bd
       -0.03205995 -0.14595686 -0.06826433 -0.12433997
000230 7f dd 2f 3e 09 c9 b3 bd f6 4e cd bc 63 7e 2d be
       0.17174338 -0.08778579 -0.025062066 -0.16942744
000240 44 1b 0a be 9b 67 8d bc 77 e9 14 be ed 18 8d bc
       -0.13486964 -0.017261317 -0.14542185 -0.0172238
000250 71 03 9c 3b ad 8d 12 3e 81 2b 52 be 88 7f 7d bd
       0.0047611524 0.14311858 -0.20524408 -0.0618892
000260 02 98 74 bd f8 9c c7 bd 82 7c eb 3b 35 75 64 3d
       -0.05971528 -0.09746736 0.0071864733 0.05577584
000270 9c 7c fa 3c 9b 8c e2 3d 6f ce 11 bc e8 7c 27 3e
       0.030576997 0.110619746 -0.008899315 0.16356242
000280 4b 5e 27 be a8 59 44 3e 42 f4 f4 3b 20 b2 27 be
       -0.16344564 0.19174826 0.007475407 -0.16376543
000290 21 8b b6 bb 33 25 46 bd d6 8a a1 bd 28 13 d8 3c
       -0.0055707847 -0.04837532 -0.07887809 0.026376322
0002a0 1e 03 c8 bc 96 1a 38 bd d7 b3 f5 3d f7 2b c5 3d
       -0.024415549 -0.04494723 0.11997192 0.09627526
0002b0 a1 8a f9 3d fc 7c c5 3c dc c2 f2 bc 5c 38 fd bd
       0.121846445 0.024107449 -0.029633932 -0.12364265
0002c0 5d c4 a3 3c 7e 7c 25 be fd 35 d3 bd d4 66 5c bb
       0.019991094 -0.16160771 -0.10313032 -0.0033630626
0002d0 db 60 43 be 28 52 3d be e4 d6 0c bd db d6 11 3d
       -0.19079916 -0.18488371 -0.034384623 0.035605293
0002e0 6d 55 82 3d 84 f9 8d 3d 52 5c 4c be 53 0e d4 3b
       0.0636395 0.06932357 -0.19957092 0.006471434
0002f0 6c ab db bc 5d 65 db 3d 3d 9d 36 3e 6e db 99 bd
       -0.026815139 0.10712693 0.17833419 -0.07512556
000300 f4 3f 27 be b1 de 1e 3c 16 fd 2a 3e 27 7c 39 3e
       -0.1633299 0.009696648 0.16698107 0.18113767
000310 a1 16 40 3e 76 e2 2f 3e 17 f0 c3 3d d2 3c e2 3d
       0.18758632 0.17176232 0.09567278 0.11046757
000320 97 c8 25 be 82 f2 d9 3d ff 16 49 be 2e 51 47 bd
       -0.161898 0.10641958 -0.19637679 -0.048661403
000330 64 2f 6a 3c 87 3f 49 3e 06 6f 58 3e 67 47 f7 3d
       0.014293525 0.1965314 0.21136102 0.12074166
000340 5c b6 5e 3d f9 fa 88 3c 2a 23 0c be c7 e6 a9 bd
       0.05437313 0.016721236 -0.13685289 -0.082959704
000350 44 3f 1b 3e ac 94 00 be 48 ab 0f be 31 3b 09 be
       0.15160853 -0.12556714 -0.14030182 -0.13401486
000360 1f 33 14 3d fe b1 b6 bb 3b 3c 0d be a7 60 43 bd
       0.036181565 -0.0055754175 -0.13792507 -0.047699597
000370 df 2b 2c be ce 26 c9 3d fb f1 b6 3d f9 66 d8 3d
       -0.1681361 0.098218545 0.08932873 0.105665155
000380 74 86 57 be 2e 53 90 bd c2 d2 db 3d a6 f9 98 3d
       -0.21047384 -0.07047115 0.10733558 0.07469492
000390 a9 50 9a bd 9b b4 58 be a0 45 3d be e4 d1 38 3e
       -0.07534916 -0.21162646 -0.18483591 0.18048817
0003a0 d2 f7 31 bd 19 6c d1 bd a6 48 d9 3b 72 88 97 bc
       -0.04344923 -0.10225696 0.006630975 -0.01849768
0003b0 eb 5a 10 3d fa 2c 92 bd 3b 3b 37 be 78 04 9a 3c
       0.035242956 -0.07137485 -0.17893688 0.018800959
0003c0 30 4a 0f be e6 af 43 3e 0e fa 26 3e 8a 4a e5 3d
       -0.13993144 0.19110069 0.16306326 0.11195858
0003d0 c0 b4 aa bb 65 eb 9d 3b 12 5d 1a be ee 41 58 be
       -0.0052095354 0.004819321 -0.15074566 -0.211189
0003e0 97 d8 ac 3d 09 83 f6 bc 3b 3f 97 bd 69 51 45 3e
       0.08439749 -0.03009178 -0.07385107 0.19269337
0003f0 20 33 f0 bd 2e 74 07 be 75 0a 2c 3b 17 51 0d 3e
       -0.11728501 -0.13227913 0.002625135 0.13800465

dynamic_encoder.conv.bias f4 [128]
000000 73 fd 24 3f 6d 04 d4 3e 2c f9 9b 3e be 19 a1 3e
       0.6444923 0.41409627 0.3046354 0.31464952
000010 02 d0 1c bf 27 b5 07 bf 6d 33 e0 3e f2 df 93 3e
       -0.61254895 -0.5301079 0.43789235 0.28881794
000020 c2 c2 5b be 0c 7d c7 3e 1b a4 39 be 3f 64 0f bf
       -0.21461013 0.3896259 -0.18129008 -0.5601234
000030 2e 0f 2f bf 72 61 04 3e af 6a 91 3d 66 da 50 3e
       -0.6838254 0.12927797 0.071004264 0.20395812
000040 c5 bd 04 be bf f9 fc be 23 73 2b bd 23 25 32 3f
       -0.12963016 -0.4940929 -0.04185785 0.69587916
000050 0e ec c5 3d 7c c7 a2 be 84 aa 0e bf 99 21 89 be
       0.096641645 -0.3179282 -0.55728936 -0.26783445
000060 c1 40 22 3d 76 6a 1a 3f 35 81 0e be e6 31 03 bf
       0.039612535 0.60318696 -0.13916476 -0.51248014
000070 8b aa 9a be 12 0d d3 3e 58 9c ca be 09 21 0d 3f
       -0.3020824 0.4122091 -0.39572406 0.5512853
000080 c2 6f 2c bf 9c 55 29 bf 91 42 40 3e 0f 81 34 3f
       -0.6735803 -0.66146255 0.18775393 0.7050943
000090 2f 2d b7 be cd b3 0e bf 66 b5 ae 3d 1d d2 41 3e
       -0.3577666 -0.55743104 0.08530693 0.18927808
0000a0 6e da 96 3e cf 13 f4 3e 6d 99 08 be 9e 48 8d be
       0.29463524 0.47671363 -0.13339777 -0.27594465
0000b0 25 56 15 bd 0f 1f 0b bf f3 06 4a be e0 f4 19 3f
       -0.036459107 -0.54344267 -0.19729213 0.60139275
0000c0 1b 8b 14 3f a6 79 5b be 34 e8 91 bd 17 cb 89 be
       0.5802476 -0.21433124 -0.07124367 -0.26912758
0000d0 d4 7d f4 3e ca b9 9e bd 5a 80 42 3e 85 4c a7 3e
       0.4775225 -0.0775028 0.18994275 0.32675567
0000e0 dc fc 10 bf c3 62 f7 be 33 d3 d0 bd 2d 96 d9 be
       -0.5663583 -0.48317537 -0.10196533 -0.42497388
0000f0 65 79 b5 be 69 ed 10 3f 0e 0d 9d 3d 69 b6 80 3e
       -0.3544418 0.5661226 0.076685056 0.25139168
000100 8a 78 2e bf e9 29 01 3f 1e 8c cb 3e 80 f3 24 bd
       -0.6815268 0.50454575 0.39755338 -0.040271282
000110 87 6d 8c be ad 71 d9 3e 1b 17 12 3f 34 67 8f bd
       -0.27427313 0.4246954 0.57066506 -0.07002106
000120 1f ec 5c be dd 42 dc be 94 c1 e7 be 26 dd a5 be
       -0.21574448 -0.43019763 -0.45264876 -0.32395285
000130 f3 5e f0 3e 04 2e 00 bf 26 79 fb 3e 34 64 df be
       0.4694744 -0.50070214 0.49115866 -0.43631136
000140 c7 69 31 3f b7 f5 c7 be 23 2c 1d bf 93 00 44 be
       0.6930203 -0.39054653 -0.6139547 -0.19140844
000150 7e b1 15 3f 3b e7 1c 3f 97 27 fc 3c dc 24 dd bc
       0.58473957 0.6129033 0.030780597 -0.026995115
000160 eb 96 f4 be 0a 38 b4 be 7b 21 69 be a2 4b cb be
       -0.4777139 -0.35199004 -0.22766678 -0.3970614
000170 76 28 56 3d 45 9a e3 3e de 1d 1a bf 77 ee c6 3e
       0.05228468 0.44453636 -0.60201824 0.3885381
000180 8d 93 3d 3d 1a a3 33 bf 6c 5c 04 3f 7c 73 49 be
       0.046283294 -0.7017075 0.51703525 -0.1967296
000190 d4 66 15 be 1a 2f ea 3e 52 67 f8 3e 5b 0f 1f bf
       -0.14590007 0.4573906 0.48516327 -0.62132806
0001a0 90 83 12 3f 28 7c 10 bf 82 ec 11 3f fd af 0b bf
       0.57232 -0.5643945 0.5700151 -0.5456541
0001b0 b7 f7 2a 3f f1 45 b3 3e 69 86 1d 3f ea 66 10 3e
       0.6678423 0.350143 0.6153322 0.14101759
0001c0 ef 56 25 be f6 20 2b be bb 22 05 be 90 15 29 3f
       -0.16146444 -0.16711792 -0.1300153 0.66048527
0001d0 f2 35 2b bf 03 04 d3 3e d6 4d b1 be d0 49 13 3e
       -0.6687919 0.41213998 -0.34629697 0.14383626
0001e0 56 4c e0 3c 75 cc 81 3e 6a 77 a9 3e 27 da b6 3e
       0.02738015 0.253513 0.33098918 0.35713312
0001f0 f1 1e a5 3e ae 5e 52 3e 08 e1 d5 be cd 2a 2e bf
       0.3225017 0.2054393 -0.41773248 -0.6803406

fc1.weight f4 [20, 256, 1]
000000 8d dd d4 3d cd d6 ba 3d a8 35 1e 3e 8f bf ae bb
       0.1039382 0.09123001 0.15450156 -0.005332894
000010 b2 f5 84 bd ba b5 c2 3d 59 32 94 3d 41 b0 fb bd
       -0.06492175 0.09507318 0.072361656 -0.12289477
000020 9d 04 33 3d 6b 12 ad 3d d5 4d 7c 3d f6 9a 08 3d
       0.04370557 0.084507786 0.061597664 0.033350907
000030 72 9a dd bd 7e c9 b7 bd b6 45 1d be 21 f8 72 bd
       -0.10820474 -0.089739785 -0.15358624 -0.059318665
000040 14 b1 3f bd 27 11 91 bd 20 a1 7b bd 8c a0 06 be
       -0.046799734 -0.0708335 -0.061432958 -0.13147181
000050 4f 83 ac 3d 68 8b 72 b9 0a 0f d2 bd d0 cf 97 3d
       0.084234826 -0.00023130851 -0.10256775 0.07412684
000060 b6 df be 3d bb 4c 02 bd bc 70 e5 3d 08 ab 8b 3d
       0.09320013 -0.031811457 0.11203143 0.06819731
000070 77 33 b0 bd 82 53 7e 3d 72 4a 4a bd 4b c3 6f bd
       -0.08603566 0.062091358 -0.049387403 -0.058535855
000080 b0 0e d8 3d 1f eb 16 be 90 66 9c 3d 88 d5 f2 3d
       0.105496764 -0.14738129 0.0763675 0.11857134
000090 aa f6 f0 bd dc 4c d8 bd fd 2c a1 3d b0 c4 24 bd
       -0.117657974 -0.10561535 0.07869909 -0.04022664
0000a0 87 79 17 3e d7 ff 0e 3d b7 41 24 bd 3d bc aa bd
       0.14792453 0.034911957 -0.040101733 -0.08336685
0000b0 1e 02 49 3d 03 b0 4b bb 8d 12 7c 3d e1 d7 8e bd
       0.049074285 -0.0031080253 0.06154113 -0.069747694
0000c0 98 a4 b6 bd 50 a3 e1 3d d0 61 20 3d ab 2c 8d 3d
       -0.089181125 0.110174775 0.03915578 0.06893285
0000d0 37 32 b0 bd ec 56 18 be 32 f8 bd bd 70 6e 3d bd
       -0.08603328 -0.14876908 -0.09275855 -0.0462479
0000e0 dd 62 47 bb 7c 6a 99 3d 3a 55 45 bd 0b 34 0f 3e
       -0.0030423917 0.074910134 -0.04817698 0.13984697
0000f0 64 35 f0 bd c2 3a f5 3d 52 a0 99 bc 07 74 9e bc
       -0.117289335 0.11974098 -0.018753204 -0.019342436
000100 02 ee 94 3d b1 1f 8d 3d e7 ab 7b 3c cd 92 fe bd
       0.07271959 0.0689081 0.015360809 -0.12430344
000110 95 d2 e3 bd 44 34 9b bd 3c bf a9 3c 82 94 35 bd
       -0.1112415 -0.07578328 0.02072107 -0.04433108
000120 af a6 90 3d 91 cd 6f bd 8e 23 14 be 40 e8 12 3d
       0.07063042 -0.058545653 -0.14466688 0.035866022
000130 b7 3c 52 bd 32 f0 1b be 15 7b 4a 3d 41 db 00 bd
       -0.051327433 -0.15228346 0.049433786 -0.031459097
000140 a6 36 03 3e 83 8d ff bd dd 9e 2a bd 71 d8 ea bb
       0.12813815 -0.12478163 -0.04165541 -0.007166915
000150 33 3e 8a bc b7 cf 09 be 03 08 aa 3d 92 56 14 be
       -0.016875362 -0.13458143 0.08302309 -0.14486149
000160 54 2c a5 bd e4 c6 f6 bd d3 c7 c3 3d ef ce 36 3d
       -0.080650955 -0.12049654 0.09559598 0.04463094
000170 db 7b 23 3d ac 83 00 3e e1 84 fe 3d 62 07 11 be
       0.03991304 0.12550229 0.124276884 -0.14162973
000180 fd 2b 04 be f6 7d c5 3d e1 e8 05 3c a9 4b 7b 3d
       -0.12907405 0.09643166 0.008173198 0.061351452
000190 6e 12 d8 3d a1 10 95 3d 8c c6 b0 3d a0 e6 c6 bd
       0.1055039 0.07278562 0.0863162 -0.09711957
0001a0 55 c2 ad bd 9c a0 b2 bc 84 a0 ab 3d 60 f5 ba bd
       -0.084843315 -0.0218051 0.08380225 -0.09128833
0001b0 4a d2 f8 bd a5 ea 5c bd 4d c4 28 bc 9d 56 c6 bc
       -0.121494845 -0.053934712 -0.010300708 -0.024211222
0001c0 17 cb f9 3b fc 8b dd 3d 76 6c 15 be cd ae d6 bd
       0.007623087 0.108177155 -0.14592156 -0.10482559
0001d0 e8 8f 14 be 8a 72 6b 3d 91 5d 19 be 0f f6 d2 3d
       -0.14508021 0.05748228 -0.14977099 0.10300838
0001e0 f7 35 e1 3c e7 c5 45 bd 44 ad ed bd 54 97 8f bd
       0.027491553 -0.048284438 -0.116053134 -0.070112854
0001f0 c7 0d df 3d 5d d3 93 3c ab 75 1c 3d db 85 9f 3d
       0.108913 0.018045122 0.038198154 0.07789203
000200 8a 60 09 3e 77 fa e9 3c 2e bd cc 3d 3a 2c 20 3c
       0.13415733 0.028561814 0.09997021 0.009776169
000210 cb 5a 78 bd f5 f8 f7 bc 63 11 b3 3d 73 b4 95 3d
       -0.060633462 -0.03027008 0.08743551 0.073098086
000220 84 33 cc bc bb 7c c1 bd f6 fc 97 bd 3b 67 c0 3d
       -0.024926908 -0.094476186 -0.07421295 0.0939469
000230 50 e5 d6 bd 1a 0f 87 bd cc 3b 02 bd 97 56 cd 3d
       -0.10492957 -0.06594677 -0.031795308 0.10026281
000240 3b f1 09 be 4d b7 80 bc ec 9b 81 bd 49 e5 b2 bd
       -0.13470928 -0.015712405 -0.06328568 -0.08735139
000250 ea ee f5 3c 61 96 01 be 54 18 6e 3d 18 1f c8 3d
       0.03002115 -0.12655021 0.05812867 0.09771556
000260 ce 52 6a bd 4a 07 09 be 9f 51 0c be 58 0e b9 bd
       -0.057207875 -0.13381687 -0.13703011 -0.09035939
000270 49 3b a7 3d d4 9e ee bd c9 f6 e6 3d a7 b0 16 3e
       0.081656046 -0.11651388 0.11277539 0.14715825
000280 35 f0 f4 bd b4 76 2b bd 68 85 6c bc 82 62 ff 3d
       -0.11959878 -0.04186125 -0.014436103 0.12469961
000290 e0 c4 98 3d cd e8 09 be 33 29 1c bb 20 a8 b7 3d
       0.07459426 -0.13467713 -0.0023828268 0.08967614
0002a0 db 49 0c 3e 93 80 ed bd b2 50 3f bd 97 3b b8 bd
       0.13700049 -0.11596789 -0.046707816 -0.08995741
0002b0 49 a2 eb bd f0 54 e1 3d 2f 8d de 3d 86 0e 5c bd
       -0.11505563 0.11002529 0.108667724 -0.053724788
0002c0 d0 30 b2 bd c3 24 87 3d 27 16 12 be 18 e8 ab 3d
       -0.087007165 0.065988086 -0.14266263 0.08393878
0002d0 2a 1a 1e 3e bc 25 8f bd ef 26 e9 3d 07 04 fc 3d
       0.15439668 -0.06989619 0.11384379 0.12305456
0002e0 08 8e 2f bd 5c 34 c0 3d 80 a3 ed bc b4 3b 57 3d
       -0.04286006 0.09384987 -0.029008627 0.05254717
0002f0 e0 87 f1 bc d7 84 3c bd 10 5c a0 3d 06 6c b8 bd
       -0.029483736 -0.046025123 0.078300595 -0.09004979
000300 76 33 f4 bd 51 fc 10 3c d4 ae e7 bd 8a 98 04 bc
       -0.11923878 0.008849219 -0.11312643 -0.008093009
000310 d7 8f 49 3d 3e 34 dc 3c 1e 5b 4c 3d 89 aa 32 bd
       0.049209442 0.02688038 0.049891584 -0.043619666
000320 9f a2 ae bd ae ab 1a be 0c dc 69 3b 77 ec 4f bc
       -0.08527111 -0.15104553 0.0035684137 -0.012690655
000330 de ce 03 3e fa 0b 3a bd 8b 86 0a be 94 d3 66 ba
       0.12871882 -0.045421578 -0.13527887 -0.00088053313
000340 11 5b e0 bc 8f 4f cc 3c ab ca 0a 3e 92 57 a0 bc
       -0.027387174 0.02494028 0.13553874 -0.019573007
000350 45 62 8f bb 79 78 2c bd a5 54 02 bd 4a ed 01 be
       -0.0043757283 -0.04210708 -0.031819005 -0.12688175
000360 0c 0e 00 3e 7e f5 e6 bd dd 0d 69 bd 92 a0 0b 3d
       0.12505358 -0.11277293 -0.056897987 0.03408868
000370 00 98 7e bc 78 d2 e7 3d 89 c6 6d bd a1 57 0d 3d
       -0.015539169 0.113194406 -0.058050666 0.034507398
000380 1f aa c5 3d b2 42 6d 3d dc 1d c8 bc c9 d4 06 3d
       0.09651589 0.057924934 -0.0244283 0.03291777
000390 94 66 4f b9 c7 0f 99 bd 5a fe ca bd 68 5c fb 3d
       -0.00019779272 -0.074737124 -0.09911795 0.122734845
0003a0 7e 38 a8 3d 49 22 58 3d 7b f4 a4 bd e6 f7 a7 3b
       0.082139 0.052767072 -0.080544434 0.0051259873
0003b0 a5 9b 27 3c fb b9 09 3e f8 c0 1f 3d 5f 24 05 be
       0.01022998 0.13449852 0.03900239 -0.13002156
0003c0 18 94 15 be d1 8a cd bd d2 3c bf bd d3 0a 39 bd
       -0.14607275 -0.10036243 -0.093377724 -0.04517634
0003d0 6c e3 e7 bc a8 c1 a7 bd 62 6d 19 bc 65 51 b5 bc
       -0.028306685 -0.08191234 -0.009364458 -0.022133538
0003e0 ae 76 b7 bc f2 e1 44 bd 9b e3 f7 bc 60 d9 77 3d
       -0.022395458 -0.04806704 -0.030259898 0.06051004
0003f0 6f f5 a1 3d 8f 32 0b 3e 25 2d 12 be 84 d4 a2 3d
       0.07908141 0.13593505 -0.14275034 0.079506904

fc1.bias f4 [20]
000000 3a 26 27 3d 72 3f 65 bd e4 64 f6 bc 14 8b 72 bd
       0.04080794 -0.05596871 -0.030077405 -0.059214666
000010 42 57 06 bd fc b2 c4 3c 9a 98 1f 3d e4 23 17 3d
       -0.03279806 0.024011128 0.03896389 0.036899462
000020 d5 ec 15 bb 04 82 6e 3d 65 6d 47 3c c3 47 42 bc
       -0.0022876759 0.05822946 0.012172078 -0.01185793
000030 60 b7 cc 3b f8 23 08 3d 0c 7c 8f bc 80 7a 15 bc
       0.006247446 0.033237427 -0.017515205 -0.009123445
000040 50 10 14 bc 15 8e 10 3d db 0e 24 bd 5b d1 9e 3c
       -0.009037092 0.03529175 -0.04005323 0.019386938

fc2.weight f4 [20, 20, 1]
000000 7e a6 6a bc 85 7c 86 be fc 1b 8b 3d 48 81 1b 3e
       -0.014321921 -0.26266876 0.06792447 0.15186036
000010 87 a0 bd 3e 38 f5 63 be 6c d6 e3 3d 2e a5 a9 3e
       0.37036535 -0.22261512 0.11124882 0.33133835
000020 5a b6 24 3e bd f2 78 be 90 e4 fb 3d 8d 4e 1d 3e
       0.16085187 -0.24311347 0.12299454 0.15361996
000030 70 a5 b1 3c 81 a5 43 3d 98 34 5c 3e 58 52 c3 3e
       0.021685332 0.04776526 0.21504438 0.3814876
000040 b0 19 06 bd 8f 42 53 be 0a 5d bf be 97 7b 74 3e
       -0.03273934 -0.20630859 -0.3737567 0.23875271
000050 60 57 62 3c ce 4d c2 be 1d 01 ae be 40 50 3a be
       0.013814777 -0.37949985 -0.33985224 -0.18194675
000060 9e 74 86 3e 3a 50 bf 3e 50 1c 71 3e 78 76 a3 bd
       0.26260847 0.37365896 0.23545957 -0.079815805
000070 94 8c 75 3e 85 b1 98 be 91 64 ac be b0 3b 89 bd
       0.23979408 -0.29822937 -0.33670476 -0.067008376
000080 44 bb b1 be 60 77 27 3e f0 49 54 3d f0 ab 54 bd
       -0.34713185 0.16354132 0.051828325 -0.051921785
000090 4e 0a aa 3e 1d 90 72 be 88 e8 dd 3d 96 30 78 be
       0.33210987 -0.23687787 0.108353674 -0.24237284
0000a0 98 88 07 3d 3e e1 91 3e 1e 4b b3 3e 9a b1 a7 be
       0.03308925 0.2849216 0.35018247 -0.32752687
0000b0 5c 96 33 be 44 2a d0 3d d8 9c 7a be 50 9b 5d bd
       -0.17537826 0.101643115 -0.24473894 -0.054103196
0000c0 10 20 9a 3d 9a fc 06 be 10 bc c3 3c 58 6b 11 3e
       0.07525647 -0.13182297 0.023893386 0.14201105
0000d0 89 7b 18 be 7e f5 4e be 75 1d 12 be 78 37 67 bd
       -0.14890875 -0.20210835 -0.1426905 -0.056449383
0000e0 60 2e 48 bc 82 f4 8d 3e e0 4f a7 be d8 cb e7 3d
       -0.012218088 0.27725607 -0.32678127 0.11318177
0000f0 47 83 b0 be 8c 04 64 3e 6e 27 be 3e 8c 50 1d 3e
       -0.34475157 0.2226736 0.37139457 0.15362757
000100 b8 d6 76 3d 2c 01 a2 3d 78 79 fc 3d 70 76 8a bc
       0.060263366 0.0791038 0.12327856 -0.016902179
000110 70 ae 61 3e c9 ec 61 be 40 70 92 bd ac 97 c0 3e
       0.22039199 -0.22062983 -0.07150316 0.37615716
000120 50 53 03 be 0c c9 9b bd 2c 0f ea bd 8a ef a6 3e
       -0.1282475 -0.07606706 -0.11428675 0.3260463
000130 f4 79 1a 3e c3 15 78 be da a9 85 be 36 e2 96 3e
       0.15085584 -0.24227051 -0.2610615 0.2946946
000140 04 24 74 3e 70 c1 fe bc d7 65 91 be 00 67 9c bd
       0.23841864 -0.031098098 -0.2839801 -0.07636833
000150 07 e7 3f be e8 5e 87 3d ec f9 3d 3e a0 dd b9 3c
       -0.18740474 0.06609899 0.18552369 0.022688687
000160 60 11 95 bc 76 8b a9 3e 8c 3a f5 bd 60 86 12 3c
       -0.018196762 0.33114213 -0.119740576 0.00894317
000170 36 56 8a 3e 81 e5 c2 be d6 5c c0 3e ba f7 c0 be
       0.270189 -0.38065723 0.37570828 -0.37689
000180 38 ce 24 3e d6 9d 38 be f2 5a 7b be e4 a0 a7 be
       0.16094291 -0.1802896 -0.24546412 -0.32739937
000190 85 16 cc 3d 83 e4 93 be c3 93 8d be 22 ab 6b be
       0.09965233 -0.28885278 -0.27651796 -0.230145
0001a0 a8 f8 41 3e a5 8d b0 be 78 6b 79 3e 97 94 e7 bd
       0.18942511 -0.34483066 0.24357402 -0.11307638
0001b0 d3 65 bf 3e 15 80 b4 3e d1 a3 29 be 19 63 64 be
       0.37382373 0.3525397 -0.16566397 -0.22303428
0001c0 ac ba 7a 3e a7 f0 cc 3d ac 96 8a 3e df 3c a2 be
       0.24485272 0.10006838 0.2706808 -0.31687066
0001d0 60 8f ce bd 7e d2 85 3e 21 37 7e bc a8 b3 ff 3c
       -0.1008594 0.26137155 -0.015516073 0.031213596
0001e0 e7 65 97 be ef 5b 9b be d4 d8 b2 3e 70 f3 f0 bd
       -0.29569933 -0.30343577 0.34931052 -0.11765182
0001f0 46 3a 86 be 2c 23 40 3e 13 d9 80 be 33 e5 16 be
       -0.26216334 0.18763417 -0.25165614 -0.1473587
000200 c0 44 e1 3c ec 3c 94 3d f4 e2 50 3e c0 b4 ac 3d
       0.027498603 0.072381824 0.20399076 0.08432913
000210 e8 10 c6 be 8f 6d 96 be 3c 60 9c be f8 cd 58 bd
       -0.38684773 -0.29380462 -0.3054217 -0.052930802
000220 44 1e 81 be 20 b2 60 3c e0 1b 08 bc 3e bf 41 be
       -0.25218403 0.013714343 -0.008307427 -0.1892061
000230 4a c9 12 be 44 db 55 3e 7d 84 4e be ca 45 c1 be
       -0.14334598 0.20884424 -0.20167728 -0.37748557
000240 6f 52 23 3e 77 86 2d be 5a fe b8 3e 38 db a7 3d
       0.15949415 -0.16945826 0.36131555 0.081961095
000250 61 18 4f bd 1a ef ca 3d 10 09 b7 be 45 90 70 bd
       -0.05056036 0.09908886 -0.35749102 -0.058731336
000260 bb e5 a6 be 41 37 9a be 34 8b c2 bd 5a f0 bc 3e
       -0.32597145 -0.3012028 -0.09499207 0.36902124
000270 05 36 b0 be ec 04 0f be 7d 2f 9a 3e e0 f4 c8 3c
       -0.34416214 -0.13966721 0.30114356 0.024530828
000280 73 d5 8a be 20 4e 1f bd 71 b5 bc be da cf 45 be
       -0.27115974 -0.038892865 -0.3685718 -0.1931757
000290 30 6b ad 3e fd d4 2c be 5c c7 6c 3e fc 34 a5 3e
       0.3387084 -0.16878124 0.23122925 0.32266986
0002a0 84 c3 a7 3e 50 d9 ec 3d 2a 3e 9c 3e 20 9e 55 3d
       0.32766354 0.115648866 0.30516177 0.052152753
0002b0 a4 b1 af bd 34 5b 88 bd 20 9f 5a 3d ac a6 9f 3e
       -0.08578804 -0.066580206 0.05337441 0.31181848
0002c0 90 3f 36 3e 03 d2 b2 be 60 b6 c9 bd 83 c4 ad be
       0.17797685 -0.3492585 -0.098492384 -0.3393899
0002d0 8f 9c e9 bd da 82 46 3d 00 22 89 3b 06 e0 ad 3e
       -0.11406814 0.048464634 0.0041849613 0.3395998
0002e0 03 f1 f8 3d 18 b5 27 3e 80 92 59 bd 9e 80 9c 3e
       0.12155344 0.16377676 -0.05311823 0.30566877
0002f0 7d 41 44 be 6d 5d 83 3e 39 e6 b2 3d 52 41 96 3d
       -0.19165607 0.25657216 0.08735318 0.073366776
000300 9e 89 c0 3e f0 25 8b bd 9c 9b af 3e 88 72 8c 3d
       0.37604994 -0.067943454 0.34298408 0.068577826
000310 54 b4 3b 3e 0d 95 bf bc ee 2d 66 be ea f3 19 3d
       0.18330508 -0.023386503 -0.22478458 0.03758613
000320 5e 4b a1 be 1f 88 47 3e 20 47 b4 3d 60 5b f7 bd
       -0.31502813 0.1948552 0.088026285 -0.12077975
000330 0c ba b9 be c6 23 b5 3e ae b4 89 3e 54 e2 b9 3e
       -0.36274755 0.35378855 0.2689566 0.36305487
000340 6f 79 ae 3e 33 d4 78 be ce b5 b8 bd a0 06 10 3e
       0.3407702 -0.24299698 -0.090190515 0.14065027
000350 ae 93 a5 3e e5 ad 8d bd b1 4d 30 be b0 8a f5 3c
       0.32339233 -0.069179334 -0.17217137 0.029973358
000360 a0 2d bd bd b8 f3 a0 be 8f fa 9f 3e 9b 40 9a 3e
       -0.09237218 -0.31435943 0.3124585 0.30127415
000370 f0 dd 21 3e 13 ec 84 be 0f 16 ba be c2 e9 bb 3e
       0.15807319 -0.2596136 -0.36344954 0.3670178
000380 5b 12 40 be 18 64 2d be a2 52 be 3e 25 ef 9e be
       -0.18757002 -0.16932714 0.3717242 -0.31041828
000390 c0 5d 3e 3e 80 71 51 3b 30 11 c4 bc c4 02 8c bd
       0.1859045 0.003195852 -0.023933977 -0.06836465
0003a0 38 6e 9a be 00 91 19 3d 96 b1 b4 3e 48 e2 80 3e
       -0.30162215 0.0374918 0.35291737 0.2517264
0003b0 9b bb 92 be c0 10 7a 3d 88 2c b8 bd d0 05 73 bd
       -0.28658757 0.06105113 -0.08992869 -0.059331715
0003c0 5b 0c 99 be 93 26 29 3e 2a b5 ae 3e fc 01 bb be
       -0.2989224 0.16518621 0.34122592 -0.3652495
0003d0 21 bd 53 3e 14 72 a5 3d 40 9b 65 bd 19 c9 70 3e
       0.20677616 0.08078399 -0.05605626 0.23514213
0003e0 f7 51 95 bd a1 61 42 be b0 17 94 3e 16 65 01 bd
       -0.07291024 -0.18982555 0.28924322 -0.031590544
0003f0 34 5c 4c 3e f7 0d 25 3e ae 40 88 3e c8 21 9f bd
       0.19957048 0.16118608 0.26611847 -0.07770115

fc2.bias f4 [20]
000000 54 74 a2 bc 90 67 90 3d 34 c4 83 bd b0 d0 7c bd
       -0.01983086 0.07051003 -0.06433907 -0.061722457
000010 00 4e 00 3e 62 89 07 bd 2c 73 e3 3d 16 f4 3e be
       0.12529755 -0.033090003 0.11105952 -0.18647799
000020 78 bc 51 be f5 26 29 3e 6b 72 66 be 48 3a 19 3e
       -0.20482051 0.16518767 -0.22504584 0.14963639
000030 f5 8c db 3d 1a 30 be 3d 08 84 4a 3e ea ea 85 3c
       0.10720245 0.092865184 0.19776928 0.016347367
000040 b4 1a 1c bd a2 93 c1 3d 03 65 9d 3d 7c 86 56 3e
       -0.038111404 0.09451987 0.07685282 0.20949739

fc3.weight f4 [1, 20, 1]
000000 7e f2 ba be 99 1d 07 bf 67 fb fc be 36 8c a0 be
       -0.36513132 -0.5277954 -0.49410555 -0.31356972
000010 ae 31 99 be ee 73 a5 be a2 49 31 be 73 f9 68 be
       -0.29920715 -0.3231501 -0.17313245 -0.22751407
000020 0c 2c 69 be 4d 38 bd 3d a4 2f 21 be 28 97 d7 bd
       -0.22770709 0.09239254 -0.1574083 -0.10526878
000030 5b 70 f9 3d 86 4e 5b be b0 8e 8f bd c5 f8 f1 3d
       0.12179633 -0.21416673 -0.07009637 0.11815027
000040 10 44 9a bd b0 e0 a9 3e f7 26 8a 3e 18 10 68 be
       -0.07532513 0.33179235 0.26982853 -0.2266239
