Task assignment/drl4vrp/vrp/10/20_05_18.844960/checkpoints/1/actor.pt (torch, 734651 bytes, 14 tensors)

static_encoder.conv.weight f4 [128, 2, 1]
000000 de dc db 3d 77 f2 96 3d 63 36 bf 3d 9e 04 c4 bd
       0.107354864 0.07370465 0.09336545 -0.09571193
000010 25 b9 26 be fc 0a a3 bd 03 6a 3d bd d2 de 70 bd
       -0.16281565 -0.079610795 -0.04624368 -0.058806248
000020 d4 d6 89 3d cd 22 07 be 9b d5 a8 3d b2 d1 26 3e
       0.06730428 -0.13196869 0.08243867 0.1629093
000030 1c 09 57 3e 5a a3 0c be 27 21 d0 3d 22 66 af bd
       0.20999569 -0.13734189 0.10162573 -0.08564402
000040 88 7c 8c bd c3 4b e7 bd 36 3b 1c 3e b4 14 56 3e
       -0.0685969 -0.11293747 0.15256962 0.20906335
000050 30 b4 d0 3d d2 19 fd bd a3 b5 71 bd 6b ec b5 bc
       0.10190618 -0.123584405 -0.059011113 -0.02220746
000060 5a 6f 0d 3e d0 d4 04 be 1d 27 fe bd 7d 80 b7 3d
       0.13812009 -0.12971807 -0.12409804 0.08960054
000070 f8 7a 16 be 59 51 f2 bd 2f a6 40 3c b4 1e ff 3d
       -0.14695346 -0.11831922 0.011758371 0.12457028
000080 e8 a5 09 be a3 0f f5 bd 73 a5 2f be eb 55 af bd
       -0.13442194 -0.11965873 -0.17152958 -0.085613094
000090 44 4e 9a 3d de 3a ef 3c a1 c8 f9 bc bc e1 47 bd
       0.07534459 0.029202875 -0.030491175 -0.04879926
0000a0 44 22 df 3c 58 b7 9b 3c 65 bd 92 3d 9c c2 7f 3c
       0.027238019 0.019008324 0.071650304 0.015610363
0000b0 20 68 ad bd 7d e0 fd 3d 86 6c 44 bb fc 09 09 be
       -0.08467126 0.12396333 -0.0029971912 -0.13382715
0000c0 a0 1f 23 be 60 38 2a 3e 3d 18 00 3e 9b f7 bd bb
       -0.15930033 0.16623068 0.12509246 -0.005797339
0000d0 d6 4d 1d bd af 9c 18 be 64 dc f6 3d 02 1c 21 bd
       -0.03840431 -0.1490352 0.12053755 -0.03933335
0000e0 e9 c9 a7 3d fb cc 41 be e0 74 47 3d b4 d5 22 be
       0.08192808 -0.1892585 0.048695445 -0.15901834
0000f0 4c 77 1b 3c 50 40 e0 3d 95 bd 87 bd 5e 99 3a bc
       0.009488892 0.10949767 -0.06627957 -0.011389105
000100 75 c5 0c be f1 0b 4b 3e fb 51 37 3e ce 80 32 3e
       -0.13747199 0.19828774 0.17902367 0.17431948
000110 e0 be 45 be 1f c9 ad 3d cc 7e 0e be 28 e3 62 bc
       -0.19311094 0.084856264 -0.13915557 -0.013848104
000120 ea 07 a8 bc b6 46 0f be 1b db 09 3d 55 12 a7 bd
       -0.020511586 -0.13991818 0.03365622 -0.081577934
000130 34 68 54 3d 11 84 2b 3e 88 80 4f be 5a 10 35 be
       0.05185719 0.16749598 -0.20263875 -0.17682019
000140 15 3e 0c be 3e e8 1e bd 14 04 28 3e 57 e1 17 3e
       -0.13695557 -0.038795702 0.16407806 0.14832054
000150 73 78 6b 3d 55 ee 17 3e 9d 75 c6 bd 35 c2 6b bd
       0.057487916 0.1483701 -0.09690402 -0.057558257
000160 f0 ac 22 bd 3e 46 86 3c b2 21 81 3c 47 36 f5 bd
       -0.039715707 0.016390916 0.015763137 -0.11973243
000170 ad c2 fb bd 4a 07 ad bc 4d 16 99 bd e0 f9 a8 3d
       -0.12292991 -0.02112164 -0.07474957 0.08250785
000180 78 78 e9 ba 4c 46 a1 bd 56 32 0a be 74 6c ec 3d
       -0.0017812392 -0.07874736 -0.13495764 0.11544123
000190 c2 f6 90 3d e8 53 cd 3d 1b b1 2d be a1 90 16 be
       0.07078315 0.100257695 -0.16962092 -0.14703609
0001a0 e2 72 03 3e 76 a3 14 be 16 2f d6 bc 7d b3 aa 3d
       0.12836793 -0.1451548 -0.0261455 0.08335016
0001b0 1a 89 55 3e cf 11 4b be ae 1d 09 3e 70 4e 40 be
       0.20853081 -0.19831012 0.13390228 -0.18779922
0001c0 35 d7 46 bc 41 0e 42 3e 83 b3 2c 3c 26 d4 2f be
       -0.01213627 0.1895075 0.010540846 -0.17170772
0001d0 e3 e7 9a bd e9 38 c1 3c 07 42 0f 3e 11 10 8d 3d
       -0.0756376 0.023586707 0.13990031 0.0688783
0001e0 f1 8b ad bd e3 66 d9 3b b8 c2 1b be 9c e8 35 3e
       -0.08473957 0.0066345795 -0.15210998 0.17764515
0001f0 d4 cf 5a 3d b2 0b 1d 3e 2a 00 ca 3d a3 5a 90 3d
       0.053420857 0.15336493 0.098633125 0.070485376
000200 ad 32 c1 3d c0 4d 8f bd 4f 9e e4 bd d8 f8 ff bd
       0.09433494 -0.069972515 -0.111630075 -0.12498635
000210 d6 64 83 bd f6 03 4a be 52 8a 74 3d bf b8 01 bc
       -0.06415717 -0.19728073 0.059702225 -0.007917582
000220 b6 6f 9d 3b 67 4c 1c be 77 19 20 3e 6f 9e 81 bd
       0.0048045767 -0.1526352 0.15634714 -0.06329047
000230 ad a8 4a be a5 9e ff 3c a0 2a 36 3e 1c e7 a0 bd
       -0.19790907 0.031203577 0.17789698 -0.078565806
000240 c2 55 20 3a 63 9a 17 be f1 7e 34 bd b6 a9 3d be
       0.00061162945 -0.14804988 -0.044066373 -0.18521771
000250 10 de 2e bd d4 00 de bd 75 d7 04 bd 2c 2a a3 3d
       -0.042692244 -0.10840002 -0.03243204 0.07967028
000260 21 c4 5a 3d 2e 86 f3 bd 97 dc 77 3b d1 31 12 be
       0.0534097 -0.11890827 0.003782069 -0.14276816
000270 38 1f 1a bd e2 cf c6 3d 90 c0 6b bc 88 06 b9 bd
       -0.03762743 0.09707619 -0.014389172 -0.09034449
000280 51 94 19 be 53 ab 6f bd 63 5e 2f 3e f3 0d 71 3d
       -0.14997984 -0.058512997 0.1712585 0.058851194
000290 67 a5 42 3d 9d 71 ec 3a 27 74 4c 3e c0 a0 0c be
       0.04752102 0.001803923 0.19966184 -0.13733196
0002a0 76 4b 53 be 3f 57 05 be 17 3b 30 3e 7a 82 ed bd
       -0.20634255 -0.13021563 0.17210041 -0.11597152
0002b0 00 3f 50 3e be 5c a1 3c a0 b4 21 3e 53 3e e5 bd
       0.20336533 0.019697543 0.15791559 -0.11193528
0002c0 06 dd 15 3e b7 42 6e bd dc 1d 5a 3e 70 79 30 be
       0.14635095 -0.058169093 0.21300453 -0.17233825
0002d0 28 e4 85 3d 9e da 27 3e f4 c0 ad bd 69 0a 21 3e
       0.06537658 0.1639199 -0.084840685 0.15726627
0002e0 f0 73 9b 3d 93 0a 50 3e e9 2a 32 3e 70 f2 12 be
       0.07590473 0.20316534 0.17399181 -0.14350295
0002f0 64 b0 0f bd 77 77 ff 3d 44 8b db bc 88 36 df bd
       -0.03508033 0.12473958 -0.026799805 -0.10899073
000300 2e 62 b6 bd 9f 2e 2a be bc 10 1c be 78 1f 49 be
       -0.08905445 -0.16619347 -0.15240759 -0.1964091
000310 35 ef c6 3b 7a c2 23 be 98 03 6f bc 3a eb 13 bd
       0.006070996 -0.15992156 -0.014588259 -0.036113
000320 33 56 d3 bd f7 16 4f 3e d9 4d 5f 3d c6 3b 20 3d
       -0.103191756 0.20223604 0.0545176 0.039119504
000330 d5 ee 91 bd 7e 29 ab bc 2b b0 4b 3e d4 26 48 3d
       -0.07125632 -0.020893808 0.19891421 0.048865154
000340 7f 32 6b 3d 1b d2 c6 3d f6 33 81 3d 5f 05 71 bd
       0.057421204 0.09708043 0.06308739 -0.058843013
000350 75 73 09 3d cc 43 3c 3e 74 3c 24 be b6 3e 80 bd
       0.033557374 0.18385237 -0.16038686 -0.06261961
000360 3d 87 3a 3e 32 74 12 3d 01 d6 f5 bd 91 f0 ab bd
       0.18215652 0.035755344 -0.12003709 -0.08395494
000370 64 8c 21 be 36 36 9f bc 81 38 38 3e b7 61 7c 3d
       -0.15776211 -0.01943503 0.17990305 0.061616626
000380 62 85 b1 3d b8 fb 47 3e a1 9e 04 3e 0a 3f 30 be
       0.08668019 0.19529617 0.12951137 -0.17211547
000390 ed fb 31 bd 28 9f 72 bd 8e d2 fc 3c 72 bb 2a be
       -0.043453146 -0.059233814 0.030862119 -0.16673067
0003a0 ba 48 cb bb 01 d3 30 3e d3 1b 32 be 2d 84 fc 3b
       -0.006203738 0.17267992 -0.17393427 0.0077061863
0003b0 e4 89 c1 bd 5f 63 e0 3c 36 45 89 bc 12 8d b0 bd
       -0.09450129 0.027391134 -0.016756635 -0.08620657
0003c0 7d 29 3a 3d d4 60 3d 3e c6 a2 53 bc a5 49 40 bc
       0.045449723 0.18493968 -0.012917226 -0.011736308
0003d0 9f 60 b0 bd 9a 17 92 bc d0 a6 10 3d 47 56 63 bd
       -0.08612179 -0.01783352 0.035315335 -0.055502202
0003e0 1c 4b 98 bd a7 a2 f7 bc db 42 0e 3e e0 49 3f 3e
       -0.07436201 -0.030228926 0.13892691 0.18680525
0003f0 13 78 19 3e ea 4f 3b 3e 08 58 52 3e 88 b5 87 3d
       0.14987211 0.18292204 0.20541394 0.06626421

static_encoder.conv.bias f4 [128]
000000 ae da 29 3f 84 bd d2 3e 50 0b 34 bf 09 5a 94 bd
       0.66349304 0.41160214 -0.7032976 -0.07243735
000010 cd 9c 8f be a2 df a6 3e 68 1e 51 bd 37 9b a1 3e
       -0.28049317 0.32592493 -0.05105439 0.31563732
000020 e2 1c 19 bf 29 83 ff 3d 35 db 1b 3f b8 b2 92 be
       -0.59809697 0.12476189 0.6088136 -0.28651977
000030 22 5d e8 bc b9 b5 ec 3d 12 d6 25 3f bd 6a 19 bf
       -0.028364722 0.11558098 0.6477977 -0.59928495
000040 d4 f9 ce 3e 1d e2 4e 3e c4 0f f6 be b1 43 2d 3f
       0.4042498 0.20203443 -0.48058903 0.67681414
000050 9d 1f e3 3e eb f7 d0 3e 5a 72 9a 3e 23 48 87 3e
       0.44360057 0.40814146 0.30165368 0.26422223
000060 63 67 c8 bd cb 37 08 3f 3d 8c 30 3f 7d ad 0c 3f
       -0.097853445 0.53210133 0.68963987 0.5495222
000070 19 d7 ae 3e 1f df 3a 3d ba bd 0f 3e 17 b3 41 bb
       0.3414848 0.04562294 0.14037219 -0.0029556209
000080 3e ea 1b be 80 87 1f 3f 2c 43 6e 3e 51 34 f3 3e
       -0.15226075 0.6231613 0.23267812 0.47500852
000090 67 84 41 3e 2d dc 94 be 63 a1 0e bf 63 1f 7f 3d
       0.18898164 -0.2907423 -0.55715007 0.062285792
0000a0 c0 2f b8 3e 15 62 a1 bd 7a 2f e4 3d f0 98 c2 3e
       0.3597393 -0.07880036 0.11141868 0.38007307
0000b0 1c 17 21 3b 4c 94 88 be ef 98 1a bf a1 0d e3 3c
       0.0024580425 -0.26675642 -0.6038961 0.02771646
0000c0 4c f6 90 be 35 5b cb 3e 89 ef d2 3d 41 eb c6 be
       -0.2831291 0.39718023 0.10299594 -0.3885136
0000d0 0b 40 fb be 6c d6 f1 be 9b fa 9d 3e 70 6a 32 3f
       -0.49072298 -0.47233903 0.3085526 0.6969366
0000e0 f9 36 be 3e 2e a0 2e 3f 54 9a 11 3f 3d 71 f6 3d
       0.37151316 0.68213165 0.5687611 0.12033317
0000f0 f9 da 07 bf 9e 8e 0c 3f db 41 19 3f 91 9a c2 be
       -0.530685 0.54905117 0.5986611 -0.3800855
000100 1c f3 32 bf 0c c7 00 bf e1 08 9d be 9e de 25 bf
       -0.69902205 -0.5030372 -0.30670837 -0.6479281
000110 3b 73 2c 3f 9f 8f 25 3e e8 82 8b be 2f 09 4f be
       0.6736333 0.16168068 -0.2724831 -0.20218347
000120 50 67 27 bf 41 fd 96 3e c7 26 ae bd 0b af b0 be
       -0.6539202 0.29490092 -0.0850349 -0.34508547
000130 6c bb d0 be 5e 0f 0c 3d 24 67 60 3e 5f 00 69 be
       -0.40767992 0.034194343 0.21914345 -0.22754048
000140 77 7b 9e 3e 8b cf 71 3d 30 ea 22 3f b3 f1 5d 3e
       0.3095357 0.05903582 0.6363859 0.21674232
000150 0a bf cf 3e 56 95 a4 3e d7 c2 74 3e 34 da 0b 3f
       0.4057544 0.32145184 0.2390245 0.54629827
000160 a5 6f 02 3f f6 8d e4 bd c1 0f f7 3e 96 e5 27 bf
       0.50951606 -0.111598894 0.48254207 -0.65584695
000170 31 d2 c0 be 20 89 13 bf 39 b1 a6 be e5 4f d2 3e
       -0.37660363 -0.5763111 -0.32557085 0.4107658
000180 77 61 7b 3e 17 3e 21 3f 3f 17 9c 3d 18 25 ea be
       0.24548899 0.62985367 0.07621621 -0.45731425
000190 20 01 62 be 9b c2 06 be 73 46 d8 be 2c 07 03 3f
       -0.22070742 -0.13160174 -0.42241248 0.5118282
0001a0 c1 f9 45 3b 9a 83 ad bd 93 5e 97 3d cf 8f 37 be
       0.003020868 -0.08472367 0.073910855 -0.17925952
0001b0 3c 9d 0c 3f 1d b1 63 3e de d9 3d 3d 09 0e d9 be
       0.5492742 0.22235532 0.046350352 -0.4239352
0001c0 dd 3c a1 be 31 ea 24 bf eb c8 4a 3c a9 12 83 be
       -0.31491747 -0.6441985 0.012377004 -0.25600174
0001d0 2c 36 6c be 4c 8a 55 3d ee 0b 03 3f d4 0c 96 be
       -0.2306754 0.052133843 0.5119008 -0.29306662
0001e0 83 e1 d0 3e db 55 0d be bc d2 29 bf d2 50 19 bf
       0.40797052 -0.13802283 -0.6633718 -0.59888947
0001f0 69 bc 46 be 59 1c 09 3f 5a b2 32 bf 51 11 f8 be
       -0.1940781 0.5355888 -0.6980339 -0.4845071

dynamic_encoder.conv.weight f4 [128, 2, 1]
000000 0f 29 11 be bd a7 10 3e 6d 93 55 3d 38 d4 0a 3e
       -0.14175819 0.14126487 0.05214255 0.13557518
000010 b8 45 fa bb 68 ff c2 3c bf 37 4f be 52 d7 4a 3e
       -0.0076377057 0.023803428 -0.20236109 0.198087
000020 26 b0 4f 3e 3a 8c ec 3c 59 03 01 3d 5c 64 fc 3c
       0.20282039 0.028875459 0.031497333 0.030809574
000030 8c e6 03 3e 6c f5 42 be 00 b7 3c be c9 8c 12 3e
       0.12880915 -0.19038934 -0.18429184 0.14311518
000040 8f b0 ac 3a 41 06 0a 3e 24 11 ba bc 10 f6 93 bd
       0.0013175177 0.13478948 -0.022713251 -0.07224667
000050 e7 fd 52 be e6 77 c1 bd 30 58 15 be a6 41 e6 3d
       -0.20604669 -0.09446697 -0.14584422 0.1124299
000060 9e 9a 04 3e 68 09 ad 3d 43 e0 97 bd ba 03 41 3d
       0.12949607 0.0844906 -0.074158214 0.047122695
000070 0b 37 48 be 39 79 41 be 3f d9 f6 bd 21 62 05 be
       -0.19552247 -0.18893899 -0.12053155 -0.13025714
000080 4e 18 25 3e a9 5d d7 3d eb 1f e1 bd b6 ba 42 3e
       0.16122553 0.10515911 -0.10992416 0.19016537
000090 c7 82 16 3e 8b ad b8 3d b3 88 4c 3e 2a 4a 3c bd
       0.14698325 0.09017476 0.19974022 -0.045969166
0000a0 a2 8f f6 3d c6 62 49 3e 4a 97 33 be 05 20 19 be
       0.120391145 0.19666585 -0.17538181 -0.1495362
0000b0 90 01 54 be 1d 6d d7 3b b0 07 22 3e 6b f0 ee 3d
       -0.20703721 0.0065742866 0.15823245 0.1166695
0000c0 0a 11 89 3d 0c 5f f7 bd 28 cc 8f 3d 2e 23 0d 3e
       0.06692703 -0.12078676 0.070213616 0.13782951
0000d0 53 12 36 be 83 b1 3e 3c 6b 82 7d 3d 2f b2 41 3e
       -0.17780428 0.011639002 0.061891954 0.18915628
0000e0 02 6e 6f bd 68 59 29 3e e0 92 e2 bd 5d 96 0e be
       -0.05845452 0.16538012 -0.110631704 -0.13924547
0000f0 1a 68 01 be f0 31 34 3e a3 70 33 3e 6b 0a 8d bd
       -0.12637368 0.17597175 0.17523436 -0.06886753
000100 b1 e2 3d be ae 8e d1 bd d2 00 f5 bd 33 53 80 bd
       -0.18543507 -0.10232292 -0.11963047 -0.06265869
000110 5a 75 3b bd f9 75 99 bd d9 4e 34 3e 70 40 82 3d
       -0.045766212 -0.074932046 0.17608203 0.06359947
000120 8b cb 42 be 7e 5e df 3c ef 2e 93 bd be d5 52 3e
       -0.19022958 0.027266737 -0.07186686 0.20589349
000130 86 36 40 3e 5e b3 26 be 9a 45 cf 3b f1 3d 09 be
       0.18770799 -0.1627936 0.006325436 -0.13402535
000140 a3 fc d9 bc ea 3e c2 bd ad d5 9b 3b 87 bd 14 be
       -0.026609724 -0.09484656 0.0047556967 -0.14525424
000150 64 cd 95 bd 04 41 1b be d5 21 ef 3d 3f 97 43 3c
       -0.07314566 -0.1516152 0.11676375 0.011937915
000160 dd 9e 2e 3d 8f 6d 16 3e 95 37 40 3e 3b 8d 2b be
       0.042631973 0.14690231 0.18771203 -0.16753094
000170 14 16 47 bc a0 7a 3a 3e f8 36 0d be 60 31 d5 3d
       -0.01215126 0.1821084 -0.137905 0.10409808
000180 4b 97 22 bd 24 cb 77 bd bb 1d b8 bd ab f5 1d be
       -0.039695065 -0.060496464 -0.08990046 -0.15425746
000190 2f 68 74 bd 10 11 2a 3e b1 b2 83 3c 0d bd ba bd
       -0.05966967 0.16608071 0.016076418 -0.0911809
0001a0 c1 91 f7 3d 1a c3 69 3d 5b 26 08 3d 8f 78 46 3e
       0.12088347 0.05707083 0.033239704 0.19381927
0001b0 c9 96 54 3e 50 2c f5 3d d2 26 9b bb 6f ad 22 be
       0.20760645 0.119713426 -0.0047348524 -0.15886472
0001c0 59 5f bc 3d ec c4 d0 bd 39 78 51 3e 34 74 f5 3d
       0.091978736 -0.1019381 0.20456018 0.119850546
0001d0 b3 8b 4a be 93 ef 49 3d 00 4a 1c be 9f cc 2c be
       -0.19779854 0.04930074 -0.15262604 -0.16874932
0001e0 26 af 10 3d 78 2f ff 3d b7 bb 04 be 38 c8 2d 3e
       0.035323285 0.12460226 -0.12962233 0.16970909
0001f0 4a 94 a0 bc 26 b0 41 3d 0e 75 1a bd fe 43 87 bd
       -0.01960196 0.04728713 -0.03770929 -0.06604765
000200 86 cf c5 3c 3c 74 b6 bd ee 95 34 3e b5 ea 43 be
       0.024146806 -0.08908889 0.17635319 -0.19132502
000210 09 35 95 bc e8 2b 08 3e 73 9a 56 be 3a 88 d6 bd
       -0.018213766 0.13297999 -0.20957355 -0.10475202
000220 d1 82 59 be 94 f3 38 3e c7 34 4e be d2 d4 61 3d
       -0.21241309 0.18061668 -0.2013732 0.055134602
000230 27 f2 df 3c 09 9d db 3d a8 06 53 3e 10 73 58 be
       0.027337147 0.107233115 0.20608008 -0.21137643
000240 28 05 3a be 07 f6 2e 3e 25 ab 87 3b d4 fa dc bb
       -0.1816603 0.1708604 0.004140275 -0.006743768
000250 19 e1 18 be 27 55 18 3e e2 16 34 be c9 cf 14 be
       -0.14929618 0.14876233 -0.17586854 -0.14532389
000260 4a 4a 65 3c 8b 53 ff 3d db bb fc bc 2a cd d7 bd
       0.013994763 0.124671064 -0.030851295 -0.10537179
000270 13 ae 52 3e f4 f1 cb bc 79 86 88 3d c4 7a 16 be
       0.20574217 -0.024895646 0.066662736 -0.14695269
000280 aa 1a 9e bb e5 e9 46 3d a0 f9 89 bd 41 42 c5 bc
       -0.004824956 0.048562903 -0.06737065 -0.024079444
000290 fd 15 15 3e ac 23 e0 3d b0 b0 2f be c6 cd f5 3d
       0.14559169 0.10944304 -0.17157245 0.12002139
0002a0 dc e5 dd bd 4c 6c 4a bd b5 e6 05 bd 80 91 6a bc
       -0.10834858 -0.049419686 -0.032690722 -0.0143169165
0002b0 37 32 a7 3d dd 09 4f 3e e1 27 53 be cb bd d8 3d
       0.081638746 0.20218606 -0.20620681 0.10583075
0002c0 c3 c9 d1 3d f6 35 1d 3d f1 1f cd bc 91 97 fa bd
       0.10243561 0.03838154 -0.025039645 -0.1223594
0002d0 48 43 2b 3d c9 57 26 3c 17 f4 35 3e fa 1c 13 be
       0.04181221 0.010152766 0.17768894 -0.14366522
0002e0 4f 43 1e 3e c6 ee 06 be ba c7 5a be 0f 7f 1c be
       0.15455364 -0.13177022 -0.21365252 -0.15282844
0002f0 ca 96 58 3d 2c 54 ea bc 0f a6 cb bd 90 c7 11 3e
       0.05287818 -0.02860459 -0.099437825 0.14236283
000300 3d ad 31 be 1b db 12 bd 97 b4 40 be 05 64 db 3d
       -0.17351241 -0.035853487 -0.1881889 0.107124366
000310 12 db 02 bd 85 69 78 bd 07 5f 3b be c1 b3 02 be
       -0.031947203 -0.060647506 -0.18297969 -0.12763883
000320 ce 6b ab bd a5 71 36 be e9 6d 48 3e b0 77 22 be
       -0.083701715 -0.1781679 0.19573177 -0.1586597
000330 f6 26 52 3e d1 b6 9a 3c e2 a0 15 bc d2 47 1a 3e
       0.20522675 0.018886002 -0.009132596 0.1506646
000340 46 de 46 bb 3b 4b 45 be f9 c5 89 3a b8 a4 6f 3b
       -0.0030344888 -0.1926698 0.0010511271 0.0036566686
000350 88 f8 c6 3d 15 33 e0 ba 0f 65 33 3e 45 6f b9 bd
       0.09715372 -0.0017105067 0.1751902 -0.09054426
000360 9f 38 23 3e 9d 61 ac 3c d1 f5 60 bd b2 4a 26 be
       0.15939568 0.02104264 -0.05492193 -0.16239432
000370 13 77 34 be b3 2c 54 3a e5 0d 4f 3e 10 89 9f bd
       -0.17623548 0.0008093819 0.20220144 -0.077898145
000380 ea b0 eb 3d 50 73 af bd bf ec 4e 3d 82 fc ce bc
       0.11508353 -0.08566916 0.050518747 -0.02526689
000390 80 13 ec bd 11 f4 48 3e 47 0a a2 bd 6f ae 37 3e
       -0.11527157 0.19624354 -0.079121165 0.17937635
0003a0 66 b3 b0 bd 3c ce bd 3c 47 f6 1f 3d 0b 46 d4 3d
       -0.086279675 0.02316963 0.039053228 0.10364922
0003b0 26 b0 5f 3d 05 df e3 bd b5 73 78 bd b2 be 72 bd
       0.054611348 -0.11126522 -0.06065722 -0.059263892
0003c0 41 e0 0e 3e cc 01 10 3e 7c 45 0f be 72 90 ad 3d
       0.13952734 0.14063185 -0.1399135 0.084748164
0003d0 6d 55 35 3e ec e2 3f be 27 48 b1 3d 03 df ab 3c
       0.17708369 -0.18738908 0.0865634 0.020980364
0003e0 b2 7b 5e bd 32 6d 2b 3e d2 bf 6f bd 53 97 36 3e
       -0.054317184 0.16740873 -0.058532543 0.17831163
0003f0 64 72 d9 3d 37 4c 99 ba d5 4e f4 bd 43 85 ea 3d
       0.106175214 -0.0011695687 -0.119290985 0.11451199

dynamic_encoder.conv.bias f4 [128]
000000 61 96 58 3e 67 db f3 be 40 33 dd be c2 40 9d 3e
       0.21151115 -0.47628328 -0.43203163 0.3071347
000010 f7 63 2c 3f 4a 79 fe 3e c8 e7 a3 3e 8d 9e f5 3c
       0.67340034 0.4970191 0.32012773 0.02998283
000020 1f c8 23 3f 87 ea da 3d ad 16 19 3c f4 e3 17 bf
       0.63977236 0.10689264 0.009343785 -0.59332204
000030 98 a4 b2 3e 10 45 3c be bc 9d 7d bd 45 4e ab 3d
       0.348912 -0.1838572 -0.061918005 0.08364538
000040 b7 c1 bb be 62 c7 11 3f a7 20 f9 be fa 27 2a bf
       -0.3667123 0.5694486 -0.48657724 -0.6646725
000050 4e 29 72 3e b5 39 e9 be de a8 24 3f 32 7b 27 be
       0.23648569 -0.4555184 0.6432017 -0.16355589
000060 cf a6 84 3e ce b0 4d be 35 32 72 3e 6f 38 86 bd
       0.25908515 -0.20086977 0.23651965 -0.065537326
000070 54 0f b0 be 56 84 e4 3d 49 96 7c 3e a5 89 92 3e
       -0.34386694 0.111580536 0.24666704 0.2862064
000080 b4 5e 02 bf b0 af dd 3d f3 4f 09 3f a9 10 13 3f
       -0.50925756 0.10824525 0.5363762 0.57447296
000090 9c 25 a5 be a8 48 1c 3f 62 49 2a bd 4a dd 00 3f
       -0.32255256 0.61048365 -0.04157389 0.5033766
0000a0 bf bd 13 3f c5 5e 5b 3e 0c 85 ff be bd 55 16 bf
       0.57711405 0.2142287 -0.49906194 -0.58724576
0000b0 3e fb 59 3e 6c 9e 51 bd 86 fb 29 be 23 bc 4c be
       0.21287248 -0.051176473 -0.16599855 -0.19993643
0000c0 a8 9f e4 3e 9e 50 1b 3f a4 81 3c bd 24 49 cb be
       0.44653058 0.6066989 -0.046022072 -0.3970424
0000d0 58 4d 33 3f 0f b8 e8 be 00 86 f9 be 30 b3 f9 be
       0.7003989 -0.45452926 -0.48735046 -0.48769522
0000e0 1a 0d ce be 14 a8 d3 3e 83 ff bd 3d 9c ae 24 3e
       -0.4024437 0.4133917 0.092772506 0.16082233
0000f0 1d e1 2f bf 92 1b 51 3e b4 77 b3 3d 40 8b 1e 3f
       -0.6870287 0.20420673 0.08763066 0.6193123
000100 04 51 1f 3f 25 a9 b8 be a2 90 00 3d 6b 13 98 3e
       0.62232995 -0.36066547 0.031387933 0.29702315
000110 3f 05 1d 3f 4d c5 70 3d 83 1e 06 3c 7a 52 d2 be
       0.6133613 0.05878191 0.0081859855 -0.4107855
000120 d2 74 47 bd a8 36 10 bf 40 a1 2b bf 3e 58 1f bf
       -0.048695393 -0.563334 -0.6704292 -0.6224402
000130 b1 92 5b bc 7f 59 8c 3e e8 00 9b 3e 8a 9b d9 bd
       -0.013401673 0.2741203 0.3027413 -0.1062537
000140 a2 8c 1c 3f 09 2f e5 3c da 01 e3 be bb e2 b7 3d
       0.6115209 0.02797653 -0.4433735 0.08978792
000150 e5 e2 13 bf 43 dd 90 3d 8e c9 13 bf ed 24 ee 3e
       -0.5776809 0.07073452 -0.57729423 0.46512547
000160 2c c6 10 3f 64 f9 32 3e a4 7a f3 bd 6f 79 f9 3e
       0.56552386 0.17477947 -0.11888626 0.4872546
000170 26 0c 37 be 8e 80 bb be 48 0c 9e be c8 5e 87 3e
       -0.17875728 -0.36621517 -0.30868745 0.264395
000180 3e 56 19 3f d2 6e d2 be 71 81 69 be 72 a2 fb be
       0.5989722 -0.41100174 -0.22803284 -0.49147373
000190 50 b0 27 3f 33 90 27 ba 9d 99 14 bf 3c fa 25 3d
       0.65503407 -0.0006392032 -0.58046895 0.040521845
0001a0 51 66 31 bf cb c0 28 3d 6b e8 c4 3e ca 4b 27 bf
       -0.6929675 0.041199487 0.3845857 -0.6535002
0001b0 8b 9a 14 bf 30 fe 4b 3c c6 98 ca bd a4 90 c7 be
       -0.58048314 0.01245074 -0.098924205 -0.3897754
0001c0 9e 24 28 3f 01 93 b8 be 26 60 12 3f 58 71 cd be
       0.65680873 -0.36049655 0.5717796 -0.40125537
0001d0 78 60 c6 3c f6 b2 a1 3d 84 00 23 3f 45 2c ce 3d
       0.024215922 0.07895462 0.6367266 0.100670375
0001e0 41 95 04 3f 4c 20 b8 3e 9a 01 77 be 32 34 61 3e
       0.51790243 0.3596214 -0.24121705 0.21992567
0001f0 b4 23 60 3e c2 ac ac 3e bc 82 d5 3e b9 7d a4 3e
       0.2188862 0.33725554 0.41701305 0.3212717

decoder.conv.weight f4 [128, 2, 1]
000000 14 55 ee 3b ca 5c 27 be 4e e4 59 be 52 5d 1f be
       0.0072733257 -0.1634399 -0.21278498 -0.15562943
000010 78 62 fb bd 8e bc da bc 70 2d 0b 3e 53 fe 3d 3e
       -0.12274641 -0.026701238 0.13591552 0.18554048
000020 39 40 15 bd 52 94 de 3d 30 89 49 3d cb 72 3a be
       -0.0364382 0.108681336 0.049203098 -0.18207853
000030 8f 3f ac 3d 68 f3 52 3e 2b d2 39 be 2b 2c 84 bd
       0.0841056 0.20600665 -0.18146579 -0.06453737
000040 45 ca b6 3d 6a 29 8f 3d 68 fb f3 bd a3 55 87 bd
       0.089252986 0.06990321 -0.11913186 -0.06608131
000050 66 82 c7 bd e5 e2 e2 bd 19 0e 30 3e 85 ce 3b be
       -0.097416684 -0.11078433 0.17192878 -0.183405
000060 bf 6b ba bc 51 2a fe 3d ab 69 15 3e 1b aa 84 3d
       -0.022756455 0.12410415 0.1459109 0.064777575
000070 cd 8c 06 be 80 47 cf 3b cc 5b 41 be bd ea f8 bd
       -0.13139649 0.006325662 -0.18882674 -0.12154148
000080 68 7f ff 3c e5 01 32 be 23 ef 25 3e bd 57 44 3e
       0.031188682 -0.17383535 0.16204505 0.19174094
000090 83 f1 7e 3d 68 29 d0 3d 87 1e e6 bd 28 30 2c bd
       0.062242042 0.101641476 -0.112362914 -0.042038113
0000a0 56 e6 40 3e 2e dd 85 3c 53 87 6c 3d ac 64 a6 bd
       0.18837866 0.016340818 0.057746243 -0.081246704
0000b0 0f e3 9d 3d be ee 43 bc 6a 8d 57 3e bc ac b8 bd
       0.077093236 -0.011958776 0.21050039 -0.090173215
0000c0 5b e3 85 3d eb 57 59 3e 1a 42 e5 bd 8b 7d 32 bc
       0.06537505 0.21224944 -0.111942485 -0.01089419
0000d0 d0 26 20 3e ff df 9b bc a4 96 76 bd 95 11 a2 3a
       0.15639806 -0.019027708 -0.060202256 0.0012364859
0000e0 e7 80 a0 bd ff d8 d5 3d 91 d3 2e 3e c2 5a 04 3e
       -0.07837086 0.10441779 0.17072894 0.12925246
0000f0 87 f9 ce bc 7b 2d 58 be b3 c4 35 bd e2 75 de 3d
       -0.025265468 -0.211111 -0.04437704 0.10862328
000100 e9 c8 fb bd cf 59 1b be 06 5c 94 3d 4d 63 06 be
       -0.1229418 -0.15170978 0.072441146 -0.13123818
000110 99 25 9e 3d 88 d9 18 be 03 70 a3 3d 75 a5 5c 3d
       0.07722015 -0.14926732 0.07980349 0.05386873
000120 c1 f6 2e 3e e5 14 17 bd 71 7e ef bd a6 3d 3e 3e
       0.17086317 -0.03688516 -0.11694039 0.18578205
000130 d1 b9 32 3e 55 30 31 3e 79 4c 44 3d 1e 9b bc bd
       0.17453696 0.17303593 0.047924493 -0.09209274
000140 d5 b9 03 3e 38 31 44 be 60 60 04 3d c4 05 79 3b
       0.12863858 -0.191594 0.032318473 0.0037997821
000150 76 89 4f 3e 12 4c 26 3e fb 2c c1 bd 7f 4c a5 bd
       0.20267281 0.16239956 -0.094324075 -0.08071231
000160 8b e1 1d 3c c3 fa 16 3e b7 15 00 be 41 84 cf 3d
       0.009636293 0.14744096 -0.12508284 0.10132647
000170 b4 db 17 be d0 e0 2a be ee 92 47 be 9c 38 24 be
       -0.14829904 -0.16687322 -0.19489643 -0.1603722
000180 da dd 2f be b9 61 0a be 8a c0 15 3b 3c 49 a7 bc
       -0.17174473 -0.1351384 0.0022850358 -0.020420663
000190 f6 72 55 3e 7e 3b 1f be 00 48 45 bd 4a 1d 1f 3e
       0.20844635 -0.15550038 -0.048164368 0.15538517
0001a0 cc 46 30 3e 04 0c 3a 3e a1 bf 03 be 30 73 23 3d
       0.17214507 0.18168646 -0.1286607 0.039904773
0001b0 b9 71 40 be 13 64 41 3e bc e8 33 3e 8a 34 93 3d
       -0.18793382 0.18885832 0.1756925 0.071877554
0001c0 cf dd 10 be 83 46 73 bd 18 08 35 be d5 1d 31 be
       -0.14147113 -0.059393417 -0.17678869 -0.17296536
0001d0 3e b9 45 3e 4a ab d9 bd 5e c6 22 bd 7f e0 4e 3e
       0.19308946 -0.10628374 -0.03973996 0.20202826
0001e0 ea 1f 34 3e 53 3a 46 3e 82 8c 41 3e db 3c d9 bd
       0.17590299 0.19358186 0.18901256 -0.106073104
0001f0 b2 2d ff bd ce 05 30 3d a8 a5 49 3e 7d 10 d3 3c
       -0.124598876 0.042974286 0.19692099 0.025764698
000200 61 21 42 3d c4 a7 3e 3e 2e c7 7d 3d ed 7d 6a bd
       0.047395114 0.18618685 0.06195753 -0.057249
000210 b6 ef 6a b9 14 a6 e4 bd 87 f1 d3 bd 54 33 65 3d
       -0.00022405278 -0.111644894 -0.10348802 0.055957153
000220 32 c1 af 3a 01 41 1a bd fa 16 e2 bc ea 94 08 3e
       0.0013409017 -0.03765965 -0.027598847 0.13338056
000230 0c 4d 33 3e 93 77 17 be 3b 5a 08 be 3c b9 4b be
       0.1750986 -0.14791708 -0.1331567 -0.1989488
000240 15 34 a5 bd 6d 2c 50 be 07 89 99 bc a9 ac f4 3d
       -0.080665745 -0.20329447 -0.018742098 0.11946995
000250 f8 05 53 3e 11 7c 75 3d 78 43 36 3e 4f f5 d1 3b
       0.20607746 0.059932772 0.17799175 0.006407417
000260 04 a8 b6 3c b7 70 47 3b 69 10 2a be 74 bf 53 3e
       0.022296913 0.0030432174 -0.16607822 0.20678502
000270 61 86 2f bb 56 bb 16 be 75 7a cd 3d 08 6f 13 3e
       -0.0026782977 -0.147199 0.100331225 0.14397824
000280 db 52 1e be b3 1b a2 bd 69 41 3b bd 6a aa 38 be
       -0.15461294 -0.079154395 -0.045716677 -0.18033758
000290 00 92 3c 3e 0c 0e eb bd 37 69 f7 3d a4 2c a4 3d
       0.1841507 -0.114772886 0.12080615 0.08016327
0002a0 d8 42 39 be 46 1a 3c be b8 f3 11 be 79 49 6d 3d
       -0.18091905 -0.18369398 -0.14253128 0.057931397
0002b0 ab 85 16 be 4d 17 1c bd 62 fe 87 3d c8 f3 3d be
       -0.14699428 -0.03810816 0.066403165 -0.18550026
0002c0 01 ee 90 3d e8 39 43 3e ee 2b c5 bc cc b3 27 be
       0.07076646 0.19065058 -0.024068799 -0.16377181
0002d0 63 06 ab bd f3 27 6b bc 00 0f 47 3e 96 ca 46 be
       -0.083508275 -0.014352786 0.19439316 -0.19413218
0002e0 a4 1b 01 3e 2d e4 27 be 9a 5e 08 be 34 45 cc 3d
       0.126082 -0.16395636 -0.13317338 0.09974137
0002f0 dc 97 34 3e 53 e7 db 3d 43 b0 f8 3d ce bb a7 bd
       0.17636055 0.10737481 0.12142994 -0.08190118
000300 b3 fb 09 3e 5d 87 7f bd 6f 51 6e bd f3 88 05 3d
       0.13474922 -0.06238495 -0.05818313 0.032601308
000310 41 f5 1b be c4 80 21 3e 19 c5 c2 bb 30 88 31 bd
       -0.15230276 0.15771776 -0.005943906 -0.04334277
000320 2f 0e c8 bc 01 a9 19 3e f3 92 f1 3c 7d e1 c4 bd
       -0.024420826 0.15005876 0.029489016 -0.09613321
000330 92 d3 f6 3d cb 36 b5 bd 06 71 e9 bd 2e e3 52 be
       0.120520726 -0.088483416 -0.11398511 -0.20594475
000340 2b 7a 1b bc 59 e2 29 be 7b 51 08 3e 51 7c 19 be
       -0.009489576 -0.16590251 0.13312332 -0.14988829
000350 61 17 f0 3d 06 f2 80 bd f3 0a 9e bd 45 51 65 bd
       0.11723209 -0.06296162 -0.07716932 -0.055985708
000360 7a 2f 3c 3d 26 68 52 3e a3 6b 10 3e e1 5a 3a be
       0.045943715 0.20547542 0.1410356 -0.1819873
000370 08 b1 0a be 58 51 e5 3d 82 5a be bb 91 55 80 bd
       -0.13544095 0.11197156 -0.005809129 -0.062663205
000380 75 e2 da bd 18 e9 f6 bd 70 0c 9b bd 4e 10 33 bc
       -0.106877245 -0.12056178 -0.07570732 -0.01092918
000390 89 31 d2 3d 76 e3 e8 3d 5b 67 08 3e 03 84 5e 3d
       0.10263354 0.1137151 0.13320677 0.054325115
0003a0 b8 83 25 3e 9b 36 98 bd 24 27 5a be 7e a0 4b bc
       0.16163528 -0.0743229 -0.21303993 -0.012428401
0003b0 9f 10 1f 3e 7c 0f 47 3e 61 53 e3 3d 47 59 08 3c
       0.15533684 0.194395 0.11099888 0.008322067
0003c0 24 95 49 be 98 a6 91 bd c7 6c 5a 3e 1d e4 ab 3d
       -0.19685799 -0.07111853 0.21330558 0.083931185
0003d0 3d c3 4d be c2 42 75 3d 70 2f aa bd 1f 4d 4c be
       -0.20094009 0.05987812 -0.08309829 -0.19951294
0003e0 ea 48 94 bd f9 16 b5 3d 43 81 52 be 8c 68 f0 3d
       -0.0724047 0.08842272 -0.20557122 0.11738691
0003f0 da 0a fe 3d aa 28 d8 3d c8 ef c8 3d b9 33 1b bd
       0.124044135 0.10554631 0.0981136 -0.037891123

decoder.conv.bias f4 [128]
000000 93 a7 b6 be 34 3b 8f be 5a 87 88 3e 8d 78 a0 be
       -0.35674724 -0.27974856 0.26665765 -0.31341973
000010 3d 90 9a 3e 34 fa 80 3c 13 80 19 bf fb 2b 73 3e
       0.3018817 0.015744306 -0.5996105 0.23747246
000020 1f 8b ee bd 8c 5b fb be 69 c0 68 3e a9 d6 5e 3e
       -0.11647629 -0.49093282 0.22729649 0.21761574
000030 97 84 2a bf 11 10 c6 be 5d 4a 21 3f 0c b5 1c 3f
       -0.66608566 -0.38684133 0.63004094 0.61213756
000040 89 42 13 3f 92 23 bc 3d 64 3a 84 be 05 aa 66 3e
       0.575234 0.09186472 -0.258258 0.22525795
000050 67 91 da bc ec c3 00 3f b0 79 49 3e be a1 a6 3e
       -0.026680661 0.50298953 0.19675326 0.32545274
000060 4a 28 63 bd 76 a7 a1 3e 14 3d 98 be 47 c4 1c 3f
       -0.055458345 0.31573075 -0.297341 0.61236995
000070 b9 d6 af be 3e 8b 84 be 8b 0f 05 3f 55 3b 1b 3d
       -0.34343508 -0.25887483 0.5197684 0.03789838
000080 c9 60 12 3f 09 8a ad 3e d8 4f 26 3f 10 ac 19 3e
       0.5717893 0.33894375 0.6496558 0.15007043
000090 53 91 d0 be 9c ba da be 35 6d 6f bd f5 75 84 3d
       -0.40735874 -0.42720497 -0.058453757 0.06467811
0000a0 2e cf 2e bf 62 83 0a 3f d0 58 03 3f 45 a7 9d bc
       -0.6828488 0.54106724 0.5130739 -0.0192448
0000b0 4d 34 b2 bd 13 b5 1a bf 7e cf 87 be ac 82 e7 be
       -0.08701382 -0.6043255 -0.2652549 -0.45216882
0000c0 2b 66 0d bf e0 4a 17 3e 0e 1d a5 be dd 53 17 3f
       -0.5523402 0.14774656 -0.3224873 0.5911234
0000d0 ea 91 c6 3e 41 be e3 be 8f 99 26 3f 8b 93 15 3f
       0.387832 -0.4448109 0.6507806 0.5842826
0000e0 71 6f 17 bf ab d8 39 3c 5d b3 81 be 17 63 a1 3c
       -0.5915442 0.011343162 -0.25332156 0.01970057
0000f0 da 56 07 3f ee b1 c9 be e5 71 9b 3e 5d e8 11 bf
       0.528669 -0.39393562 0.30360332 -0.56995183
000100 d1 92 ad be 05 f1 e1 bc 93 bc 25 3f d0 8d 1a 3f
       -0.33901075 -0.027580747 0.64740866 0.6037264
000110 5b 07 05 be c9 d1 29 bc 4d 10 14 3e 5f 48 26 3f
       -0.12991087 -0.010364958 0.14459343 0.6495418
000120 99 87 e0 be a2 d4 12 3f 13 27 1f 3f 51 01 34 3e
       -0.43853453 0.573557 0.62169 0.17578627
000130 6e 9a 20 3f bc 26 e1 3c e0 83 08 bf 8f 3a 1b bf
       0.6273564 0.02748429 -0.53326225 -0.6063623
000140 39 5e 31 bd 5f 4b ea be 79 3a d7 3e 54 47 19 bd
       -0.04330275 -0.4576063 0.420368 -0.03742154
000150 77 6b 1f 3f 0c 5e 89 be db e6 2b 3f 14 da d2 be
       0.62273353 -0.26829565 0.6714913 -0.41182005
000160 34 2d 90 be 90 c4 bf be ae ee bb 3e 9e ec b9 be
       -0.28159487 -0.37454653 0.36705536 -0.36313337
000170 49 db d9 be 7a 8d 31 bd 4a c4 54 3e 23 d8 85 3e
       -0.42550114 -0.043347813 0.20778003 0.26141462
000180 46 a5 f7 3e a8 f8 27 bf d8 3a 2f bf bb 7d 0c 3f
       0.4836828 -0.65613794 -0.68449163 0.5487935
000190 94 75 a8 3d 5c fe ea be 5b 30 08 3f 05 b9 d3 3e
       0.08225551 -0.45897186 0.53198785 0.41352096
0001a0 ba 2d 27 be 0a 85 bc be 04 9b 75 3d 7f 94 c8 be
       -0.16326037 -0.3682025 0.059962288 -0.39175794
0001b0 e6 f8 a7 be f6 7e 29 3f eb a3 9f be c9 e1 f6 be
       -0.32807082 0.6620935 -0.31179747 -0.48219135
0001c0 64 98 26 bf cd 7c db 3e 09 4e 84 3d e1 3b 63 3e
       -0.6507628 0.42868653 0.064601965 0.2219081
0001d0 46 ab c2 be c7 d2 21 bf 44 ec 10 3f cc 0c 85 be
       -0.38021296 -0.63212246 0.5661051 -0.25986326
0001e0 35 0f 4d 3e 4f 8e 20 3f 5a a8 af bd cc 0f 05 3e
       0.20025332 0.62717146 -0.085770324 0.12994307
0001f0 de 36 2d be 27 b2 ed be 38 50 1d 3f 70 76 17 3e
       -0.16915461 -0.46424982 0.6145053 0.14791274

pointer.v f4 [1, 1, 128]
000000 01 ce 81 bd c8 cd b0 3d 75 2a 97 bd 6d 24 89 bd
       -0.0633812 0.08633 -0.07381145 -0.06696401
000010 b5 23 cc bd 1c 89 89 bd e1 bf b0 3d d1 67 66 3c
       -0.09967748 -0.06715605 0.08630348 0.014062838
000020 61 d3 9f bd e9 97 b4 bd 8b d7 02 3e 26 98 15 3e
       -0.07803989 -0.08818037 0.12777536 0.14608821
000030 02 95 ce 3d bb a3 b3 3c ee bf 7f bd 54 b7 10 3e
       0.10087015 0.021928659 -0.062438898 0.14132434
000040 64 38 18 be d4 d4 59 3d e8 89 05 3e 82 f6 0e 3d
       -0.14865261 0.053181484 0.13040888 0.034903057
000050 2b 40 d2 3d fb 28 a5 3d 9c b3 f3 bd e6 58 a7 3d
       0.10266145 0.08064457 -0.11899492 0.08171253
000060 43 68 9a bd e0 04 01 be 6b a3 fd bd d6 d9 c3 bd
       -0.075394176 -0.12599516 -0.12384685 -0.09563033
000070 21 e4 fd 3b 3e 82 85 bd d1 ba 16 3e 20 c8 81 3c
       0.0077481424 -0.06518982 0.14719702 0.015842497
000080 50 24 17 3e b7 5c 12 be d3 9a d0 bc a7 a6 d4 bd
       0.14759946 -0.1429318 -0.025464451 -0.10383349
000090 f0 22 c8 3d 98 42 3f bd 86 69 87 3d 25 a9 b6 ba
       0.09772289 -0.046694368 0.06611924 -0.0013935907
0000a0 33 4e ea 3d b3 2f 1d 3d 17 ef 2d bd 33 26 0b 3e
       0.114406966 0.038375568 -0.042464342 0.1358879
0000b0 00 57 28 3d ff dc 0f be f5 5a 12 3e b5 3c 28 bd
       0.041098595 -0.14049147 0.1429251 -0.04107352
0000c0 81 e3 b7 bd 2e 49 0e 3d 3e 88 3b 3d 67 7a d4 bd
       -0.0897894 0.03473776 0.045784228 -0.10374909
0000d0 ba d5 0e 3e 91 d4 0b 3d df 9c c0 3d 68 5c 91 bd
       0.13948718 0.034138266 0.09404921 -0.07097703
0000e0 fb c9 c2 3d b0 22 aa 3c 35 ac 5a bd 60 d9 e0 3c
       0.09511181 0.020768493 -0.053386886 0.027447402
0000f0 80 10 9b 3b c4 f7 d4 3d 8b fa 68 3d 5b 1c 05 be
       0.0047321916 0.1039882 0.05687956 -0.12999098
000100 6d 94 a6 3c 9a 85 c4 bd 4d 16 17 3e ba 98 29 bd
       0.020334447 -0.09595795 0.14754601 -0.041405417
000110 26 35 4a 3c 05 30 15 be 5c 38 13 be 0a c0 11 be
       0.012341773 -0.14569099 -0.14376968 -0.14233413
000120 88 8b af bc de 21 fb 3d ee df de 3d 17 f6 92 bd
       -0.021428838 0.12262319 0.10882555 -0.07175844
000130 d0 ad 10 3e 4a 7c 20 bc ee 8c ab bd 3b de 12 3e
       0.14128804 -0.009795258 -0.083764896 0.14342587
000140 bb dd 00 3e a1 01 05 3e 4e 8f 91 bb ba 59 55 bd
       0.12584583 0.12988903 -0.004442132 -0.052087523
000150 06 a2 ce 3c c4 71 5c 3d 4e 76 26 3d f4 cf b4 bd
       0.025223743 0.053819433 0.040640168 -0.088287264
000160 b1 dd 9e 3d 90 b4 07 3e 54 9c c0 3d ce a3 92 bd
       0.07757128 0.13252473 0.09404817 -0.071601495
000170 ce d2 89 bd f6 ad 86 bb 66 51 ac 3d 12 f8 fc 3d
       -0.06729661 -0.004110093 0.08413963 0.12352003
000180 f2 8a 98 bd e3 41 b8 bd 1d 7e 13 bd e9 ef 0c be
       -0.07448377 -0.08996942 -0.036008943 -0.13763393
000190 c4 b9 16 be 17 51 1a 3c a4 47 3e 3d c5 3b d8 3d
       -0.14719301 0.009418747 0.04645504 0.10558275
0001a0 de ef fc bd 31 c8 ab bd 33 f4 0d 3e ef 10 3c 3d
       -0.123504385 -0.08387793 0.13862686 0.045914587
0001b0 ea 0e 9d bd 2b ec 9f bc 72 34 2f 3d 4e 9e 01 be
       -0.0766886 -0.019521793 0.042774625 -0.12658045
0001c0 41 5d 0c 3e 93 8d 12 3e 94 8c 00 bc f6 63 f4 bd
       0.13707449 0.14311819 -0.007846016 -0.119331285
0001d0 fc 68 9a 3d ce 83 ee 3d 97 43 2b 3d eb 8c f4 3d
       0.075395554 0.116462335 0.041812506 0.119409405
0001e0 10 2a b4 bd ce cd 89 bd 63 dc 33 bd 9a 08 f4 bd
       -0.08797085 -0.06728707 -0.04391135 -0.11915703
0001f0 34 98 a6 bd 1c 4c 96 bd 16 15 b4 bd d7 3c 0b bd
       -0.08134499 -0.073387355 -0.08793084 -0.03399357

pointer.W f4 [1, 128, 256]
000000 57 a7 29 3c 3d 51 42 3b ee 8d 4b bc c5 57 a4 bb
       0.010354838 0.0029650473 -0.012423975 -0.0050153458
000010 98 b2 41 bc b8 b3 14 ba ec 29 58 3b 1f 59 73 bb
       -0.011822365 -0.0005672532 0.0032983972 -0.0037131978
000020 96 34 5a 3c 0a b3 18 ba 65 9b 2e bb de 53 82 3b
       0.0133182015 -0.0005825019 -0.0026642915 0.003977283
000030 c1 6a c3 3b 9e 85 16 3c 8c 25 54 3b d0 95 a4 3b
       0.005963654 0.00918713 0.0032371012 0.005022742
000040 c9 67 2e bb ae e6 e7 3b 48 a0 7d ba 9a 52 67 3c
       -0.0026612154 0.0070770597 -0.0009675068 0.014118815
000050 2e 10 95 3b 27 21 09 3b 10 b2 a6 ba b8 5a 2b b7
       0.004549048 0.0020924301 -0.0012717862 -1.0213516e-05
000060 62 38 36 bc c6 79 b3 bb 40 da 80 bb 43 87 bb bb
       -0.011121841 -0.005477163 -0.0039322674 -0.0057229116
000070 aa 2b 3d bc e4 7c 4d 3b a4 58 0d bc 04 9f 49 bc
       -0.011546055 0.0031354958 -0.008627091 -0.012305979
000080 6d 53 0a 3c e9 f6 87 bb a0 95 08 bb 50 c6 99 3b
       0.008442742 -0.004149307 -0.0020841137 0.00469283
000090 e0 58 51 3c 2c 2d fd 3a bc eb 1a 3b 2e 63 10 bc
       0.012777537 0.001931583 0.0023639044 -0.008812709
0000a0 c2 55 b7 bb a2 1f 2f 3a e4 a5 cf bb dd fd 12 bb
       -0.00559494 0.0006680434 -0.0063369144 -0.0022429146
0000b0 ce f2 46 3c 08 1a 36 3c 7e be 23 3c 07 e7 a9 bb
       0.01214285 0.011114605 0.009994147 -0.0051850113
0000c0 30 0a e6 3b 5c ed 97 bb 3d 89 a4 bb 22 bd 1c bc
       0.0070202574 -0.0046364497 -0.005021243 -0.009566577
0000d0 27 8f f2 ba c2 74 0c bc 9d 1a ba 3a f3 2f f8 3b
       -0.0018505797 -0.008572759 0.0014198605 0.0075740754
0000e0 1c 74 58 bc 1e a2 61 3c 9d c6 a9 3a 1a d7 3e 3c
       -0.013211276 0.013771562 0.0012952868 0.011647964
0000f0 e6 fd 3a bc b4 fb 0a 3c 1e 6c fa 3b 7b ba 4b 3c
       -0.011413073 0.008482862 0.007642283 0.012434597
000100 cb c2 5f bc 6f 1e 21 3b b6 78 96 3b f6 61 a6 3b
       -0.013657282 0.002458479 0.0045920266 0.005077596
000110 5a 4f ea 3b 68 35 73 3b 2a 32 58 3c 91 a9 bb ba
       0.0071505727 0.003711069 0.013195554 -0.0014317503
000120 76 a8 32 3b 00 f4 05 3c 9a 3b 20 bc 77 2d ff bb
       0.0027261055 0.00817585 -0.009779835 -0.0077874023
000130 8d 8e cd bb 43 48 17 3c 9e 24 b6 bb 37 c2 0b bb
       -0.006273097 0.009233537 -0.0055585643 -0.0021325478
000140 e0 20 bd 3b a9 67 be 3b ce dc 4c bc 7d ce a3 bb
       0.0057717413 0.005810697 -0.012503816 -0.0049989806
000150 6d a4 b6 3a f2 93 61 3b cd d5 e3 3b d4 4d 40 3c
       0.0013934501 0.0034420458 0.0069529773 0.011737306
000160 f4 78 f8 3b 52 12 54 bc 4b 7c bb 3b 66 35 ba 3b
       0.007582778 -0.012943821 0.005721604 0.005682635
000170 a2 0d dc 3a d5 f0 1b bc 54 3b 3a bc 1c 92 5e 3b
       0.0016788731 -0.009517868 -0.011366684 0.00339616
000180 97 49 14 3c 9d bd 37 bc ea 73 e8 bb 30 76 92 b8
       0.009050748 -0.011214641 -0.007093896 -6.983837e-05
000190 7a eb 6d bb 2f 82 f4 bb af 77 9a 3b 2a 4b fb 3b
       -0.0036303685 -0.007461808 0.0047139744 0.0076688724
0001a0 1a e7 c4 ba e8 1b aa bb 4e 54 d0 bb f9 d7 46 3a
       -0.0015022487 -0.005191315 -0.006357706 0.0007585283
0001b0 04 22 de 3b 3b 9b 27 bc 34 9b 18 3c e5 9c 66 bc
       0.0067789573 -0.010229881 0.009314347 -0.0140754925
0001c0 98 fb 51 bb 4e b5 f6 bb 06 ef 2d 3c 67 87 0e bc
       -0.003204083 -0.0075289374 0.01061607 -0.008699275
0001d0 4b 44 bb 3b 4f d9 13 bb 2d 0a 1e bc 74 e8 88 39
       0.0057149283 -0.0022559946 -0.009645981 0.00026113132
0001e0 69 50 7c bb 94 0d 89 bb 35 48 20 3c 8a 5e 96 ba
       -0.0038500077 -0.004182527 0.0097828405 -0.0011472267
0001f0 b6 f1 14 bb 14 89 06 3c 00 5a 97 39 d8 2f 50 bc
       -0.0022727079 0.008211393 0.0002886802 -0.012706719
000200 d8 18 07 bc fa 2f 00 bc 12 58 3d 3b 49 c6 f1 ba
       -0.008245669 -0.0078239385 0.0028891605 -0.0018445934
000210 e4 34 f2 bb 76 7c 4a 3c 31 50 81 3b 8f 2c 9f 3b
       -0.007391559 0.012358775 0.003946327 0.0048576067
000220 14 3f 1e bc 98 81 d8 3a ff cf 03 bb 7d 8d 1b bb
       -0.009658594 0.0016518114 -0.002011299 -0.0023735457
000230 5e b9 eb bb 2e dd 76 3c 71 63 93 3b 9d 07 49 bc
       -0.0071937284 0.015067382 0.0044979383 -0.012269882
000240 b2 53 e6 3b 0e b0 d5 3b e4 63 07 3c 3c d1 49 3a
       0.00702902 0.0065212315 0.008263562 0.000769872
000250 e3 d3 f4 ba ea c8 34 3c 2a a3 04 bc 03 db 2a bc
       -0.001867887 0.01103423 -0.008095542 -0.010428193
000260 e7 b1 4e bc 5a 50 bc bb 8b 11 27 bc 14 3a 1f bc
       -0.012615657 -0.0057468833 -0.010197054 -0.009718437
000270 f0 67 f4 bb 51 e3 a6 3a 0b e6 84 3b 91 93 b1 ba
       -0.0074586794 0.001273254 0.0040557436 -0.0013548007
000280 73 90 3a 3c 7f 99 b1 b9 c7 b8 b5 bb a6 4f 0e 3c
       0.011386978 -0.00033874434 -0.005545709 0.008685982
000290 15 89 29 3c 37 24 3e 3b e6 6e 6e bc e6 48 41 bc
       0.010347624 0.0029013285 -0.014552807 -0.0117971655
0002a0 2a ae c4 bb 86 34 17 3c f2 9e 1f bc 70 5c c1 3a
       -0.0060022073 0.009228831 -0.009742485 0.001475228
0002b0 51 cf c2 ba f4 d3 3a bc 86 ad 71 3a c4 74 e4 3b
       -0.001486281 -0.011403073 0.00092192774 0.0069719274
0002c0 0e d8 d9 bb a9 42 a9 bb fe 36 db bb 1d ef b6 bb
       -0.00664807 -0.005165417 -0.006689905 -0.0055827037
0002d0 e0 d1 c6 b8 dd 36 56 ba df 61 dc 3b 28 c3 5e 3c
       -9.480468e-05 -0.00081716274 0.0067255343 0.013596334
0002e0 d1 e7 bb 3b 7a 49 4b bb 5c 8a 8b 3b 24 d5 7a 3b
       0.005734422 -0.0031019137 0.004258437 0.0038274014
0002f0 f0 0a 4b bc bc 0c da 3b 2c 49 a0 ba 34 d6 71 bc
       -0.012392744 0.00665435 -0.0012228838 -0.014760543
000300 d8 fc fb 3a 55 fa b9 bb bd 48 70 bc b8 a1 74 bc
       0.0019225134 -0.005675594 -0.01466578 -0.014931135
000310 90 1e 10 bb 47 9d ef 3b 46 50 b4 bb 11 6d 1c 3b
       -0.0021990873 0.00731245 -0.0055027334 0.002386872
000320 08 7a 89 bb ed 30 4b 3c 03 7f 6d 3b 5f 89 02 3c
       -0.0041954555 0.0124018015 0.0036239035 0.007967322
000330 a7 65 18 bc ee 14 bd ba d9 93 53 3c bc ea d3 bb
       -0.00930158 -0.0014425793 0.012913668 -0.0064671915
000340 1d 2b 27 3c 91 3f 0e bc 0e de 99 b9 8e d9 53 3c
       0.01020315 -0.008682148 -0.00029347878 0.012930287
000350 e8 87 0c bc 10 dd e9 3a b5 6c ae 3b 5c 1d 1e 3c
       -0.008577324 0.0017842371 0.0053230175 0.0096505545
000360 8e 40 09 3c 6e 1b 6f bb d6 98 70 3b 65 cf 64 ba
       0.008377207 -0.0036484855 0.003671219 -0.0008728414
000370 40 f1 26 3c 52 36 f0 39 75 36 99 3b c2 cb 32 bc
       0.010189354 0.0004581684 0.0046756812 -0.010912837
000380 b7 50 5e 3c 04 95 a6 3b e3 eb 0e 3c c4 0b 11 bc
       0.013569049 0.005083682 0.008723232 -0.008852903
000390 5a d8 c1 3b 8e cd f2 ba de 34 42 3b ee 89 46 3c
       0.0059156837 -0.0018524395 0.0029633562 0.012117846
0003a0 7c 1f 22 3b 9b 6c 91 3a a5 8b 91 b9 a0 3d 0b b9
       0.0024738004 0.0011094989 -0.00027760598 -0.0001327903
0003b0 5b e2 43 3b 4f ad 1e bc 03 4d 1e 3c c2 c2 d2 bb
       0.0029889557 -0.009684875 0.009661916 -0.0064319083
0003c0 b3 b5 09 bb aa 31 5d bb a8 1b 35 3c dd 63 ef bb
       -0.0021012842 -0.0033751526 0.011053957 -0.007305606
0003d0 ee d4 49 b9 a7 d6 a3 ba 0c dd 1c 3c 50 79 e2 bb
       -0.00019248176 -0.0012499884 0.009574186 -0.0069114342
0003e0 1b e4 91 3b 3c 4f 39 bb d9 30 f8 bb ee 1a 73 bb
       0.004452241 -0.0028275987 -0.0075741825 -0.0037094909
0003f0 4e eb 77 bc 5a 24 3f bc e5 77 ff 3b 0c 04 3a bc
       -0.015131785 -0.011666382 0.007796275 -0.011353504

pointer.gru.weight_ih_l0 f4 [384, 128]
000000 72 7f 72 ba 53 32 85 3b c6 cd 96 bd ef 63 db bd
       -0.0009250558 0.004064837 -0.07363467 -0.1071242
000010 f0 8f 98 bc 7c dc 28 bd 10 30 bd bc 46 da 31 bd
       -0.018623322 -0.041225895 -0.023094207 -0.043421052
000020 e5 64 52 bd dd 6a c4 bd 84 ef bc bd b0 ec 95 bd
       -0.05136575 -0.09590695 -0.092253715 -0.07320535
000030 8f 68 c9 3d b0 3e cc bc 77 7f ca 3d 73 6a 88 3d
       0.09834396 -0.024932235 0.09887593 0.066609286
000040 16 2b 0b 3d 70 98 fc bc dd 27 80 3d 18 d3 76 3c
       0.033976637 -0.030834407 0.06257603 0.015064977
000050 a2 99 63 3d 18 39 86 3c dd 38 01 3b d8 dd 94 bd
       0.055566438 0.016384646 0.001971773 -0.07268876
000060 10 be 0b bc a0 8a 39 3c 0a b6 86 bd 14 0f e1 3c
       -0.008529201 0.011324555 -0.0657769 0.02747301
000070 d2 dd d1 3b f2 85 04 3d 74 6a b0 bd 58 8d 12 bd
       0.006404617 0.032354303 -0.08614054 -0.035779327
000080 e2 1d 2c 3d 9d 6f 4f 3b fe 3f da bd b9 25 93 3d
       0.042020686 0.003165222 -0.10656737 0.071849294
000090 21 c1 b2 3d ca 4a 19 3d 5a 1e 85 bd fc a8 ca 3c
       0.08728243 0.03742484 -0.0649993 0.024738781
0000a0 f6 29 5a bc 3a 65 7b 3d c9 d9 8d 3d 1a fd 9c bd
       -0.013315668 0.061375834 0.06926305 -0.07665463
0000b0 28 f4 69 bc 2c ed db 3c a8 7f a6 bd fd cd b2 bb
       -0.014279403 0.02684649 -0.08129817 -0.0054566846
0000c0 08 ee b6 bd 25 97 b3 3d 37 ec d5 3d 4e fe 22 bd
       -0.089321196 0.08769063 0.10445445 -0.039793305
0000d0 bf 4c b2 3d 14 93 95 3c 2f 38 71 bd 0c ff bc 3c
       0.087060444 0.018258609 -0.05889147 0.023070835
0000e0 03 eb cd bd bd 65 a7 3d 31 04 a5 bd d2 70 51 3d
       -0.100545906 0.08173702 -0.0805744 0.051132984
0000f0 d4 82 cc 3c 24 c8 17 bd 96 92 cf bd d4 56 fb 3c
       0.024964727 -0.037056103 -0.10135381 0.030681051
000100 f2 5f 25 bd f3 86 a1 3d 08 7d 19 bd 5b 0f cd 3d
       -0.040374704 0.07887068 -0.037472755 0.100126944
000110 48 d8 4c bc 7e 01 67 3d fd 23 81 3a 8b 2b b1 bd
       -0.012502737 0.056397907 0.0009852644 -0.08650883
000120 93 8e c3 3d b3 f6 9c 3d cc 34 96 3c 81 b8 ac bd
       0.09548678 0.07664242 0.018335722 -0.08433629
000130 ba f1 ad bd e6 ca 9b bd d5 5f d8 3d 9f ab 93 3d
       -0.08493371 -0.07607059 0.105651535 0.072104685
000140 b5 f9 3c bd 2c 3c 8c 3c 04 ba 6b bb 7d 6a b3 3a
       -0.046136577 0.017118536 -0.0035969028 0.0013688352
000150 80 1e 95 bc 0a d4 34 3d 4c 8f c7 bc 18 a9 55 bc
       -0.01820302 0.04414753 -0.024360321 -0.013040803
000160 c2 e9 33 3d 30 07 16 bc bf 00 d0 3d 00 4c 7b 3c
       0.0439241 -0.009156987 0.10156392 0.015337944
000170 73 17 be 3d 52 bb 35 3d 5d 49 64 3b b0 47 85 bc
       0.09281816 0.044368096 0.0034833767 -0.016269535
000180 48 d0 18 b9 ea 27 79 3d 20 d0 af bd 92 3a bf bd
       -0.0001457344 0.06082908 -0.085846186 -0.09337343
000190 ce 4b 9d bd a4 86 5f 3b 72 a1 20 3d 83 a2 c7 3d
       -0.07680474 0.0034107352 0.039216466 0.097477935
0001a0 22 80 56 3d a5 84 a5 3d 41 09 8e 3d e2 34 89 bd
       0.05236829 0.080819406 0.06935359 -0.0669954
0001b0 50 1f 82 3b a4 dc 9e bd 0c b2 9a bd 7b b4 5b bb
       0.003971018 -0.077569276 -0.07553491 -0.0033524323
0001c0 51 7c d9 3d cf 0e 55 bd dd 2f 85 3d 5e 77 84 bd
       0.106194146 -0.052016076 0.0650327 -0.0646808
0001d0 d7 67 a1 3d 0a b1 84 bd 84 1f c6 bd 34 f8 f0 3c
       0.07881134 -0.0647908 -0.0967398 0.029415227
0001e0 ec fe 38 bd c6 13 4c 3c 48 d1 91 bd e8 d6 7d bc
       -0.045164987 0.012455886 -0.07119995 -0.015493132
0001f0 b2 ad 15 3d 43 22 61 bd a4 e3 b9 bc 38 87 53 bc
       0.036542602 -0.054964315 -0.022691555 -0.012910657
000200 9f 97 b8 3d b4 0c 7a 3d d5 0d a9 bd f7 1c a2 bd
       0.090132944 0.06104727 -0.082545914 -0.07915681
000210 ac ea c7 bd 0a a8 40 bd 5f 4d 52 bd da 08 71 3d
       -0.09761557 -0.047035255 -0.051343318 0.058846332
000220 66 3f 8c bd 0c c4 fd bc cc 6c 8e bd 4b b2 1e 3c
       -0.0684803 -0.030977271 -0.06954345 0.009686063
000230 9d f2 ac bd 6f 8f a8 3d fa da 40 bd 78 4f ce 3d
       -0.08444712 0.08230483 -0.047083832 0.10073751
000240 6f 4f af bd 6a 74 cb bc 13 a5 d3 3d e5 9a 59 bd
       -0.08560073 -0.024835784 0.1033422 -0.053126235
000250 28 65 93 bc e1 dc c1 bc 97 1a c6 3b e6 20 08 3c
       -0.017992571 -0.023664894 0.00604565 0.008308625
000260 d1 94 92 3d a1 10 96 3d 9d f2 bb 3d da a3 bd bd
       0.07157291 0.073273905 0.09177134 -0.09259768
000270 aa 07 93 bc 11 e8 82 bc 24 d6 81 bd f8 29 99 bc
       -0.01794799 -0.015979799 -0.06339672 -0.01869677
000280 14 40 80 3d f2 18 e3 bc 7c 25 2d bd b3 56 cc 3d
       0.06262222 -0.027721856 -0.042272076 0.09977474
000290 75 07 be 3d 23 fc eb 3b ea 38 26 bd fc a7 9b 3c
       0.09278766 0.007201688 -0.04058162 0.019001
0002a0 b8 21 9a 3d 99 d0 dc bc 06 53 a3 3d 46 19 ac bd
       0.075259626 -0.026954936 0.0797482 -0.08403258
0002b0 01 1a a6 3d fc 32 a5 3d a1 1d c1 3d 7a e6 9a 3d
       0.081104286 0.08066365 0.094294794 0.07563491
0002c0 77 9e 1c 3d b7 b1 ff bc 8a b7 a8 bc 64 4b a0 bd
       0.03823706 -0.03121267 -0.02059533 -0.078268796
0002d0 b0 21 45 bd ef 28 10 bc 66 5e cb 3d 1e 49 ad 3d
       -0.04812783 -0.008798822 0.099301144 0.084612116
0002e0 05 84 ca bd 26 5e 57 3c f3 2d bc 3d 84 ce f5 bc
       -0.09888462 0.013145005 0.091884516 -0.0300057
0002f0 cd 3b 76 3d ed 47 3e 3d af 26 3f 3d 98 81 b2 bd
       0.060115624 0.046455313 0.04666775 -0.08716124
000300 fc 3c 90 bd 3d 47 9d 3d 28 ed 23 3d f2 22 b5 3d
       -0.07042882 0.07679603 0.04002109 0.08844556
000310 be d7 33 3d 88 72 1b bd 9c b6 2e bd 52 a7 8e 3d
       0.04390692 -0.037951022 -0.04265462 0.069655076
000320 d0 b9 09 3d 82 f4 af bd be 9e b9 bc e6 92 d3 bd
       0.03362447 -0.08591558 -0.022658702 -0.10330753
000330 9e c0 9f bc f1 21 9c 3d 53 49 dd bd d9 bf bd bd
       -0.019501027 0.07623661 -0.10805001 -0.09265108
000340 df 56 a4 bd e8 ca 58 bd b8 cd a7 3d f8 37 51 ba
       -0.08024382 -0.05292788 0.081935346 -0.0007981057
000350 c4 13 2a 3d d3 aa d0 3d 8f da 87 bd 09 c9 d3 3c
       0.041522756 0.10188832 -0.066334836 0.025852697
000360 7d e9 3b 3c 32 31 09 bd 27 2a cf 3d d3 5a 70 bd
       0.011469242 -0.033494182 0.10115462 -0.058680367
000370 99 cf b4 3c c1 46 d8 3d 49 bc 32 bd 2d f0 bb 3d
       0.022071647 0.1056037 -0.043636594 0.09176669
000380 af e7 e1 3c 2a 69 a9 3d 4e cc fa bc d7 96 db 3c
       0.027576296 0.082720116 -0.030614998 0.026805324
000390 fb 3d b2 bc ec 0d 05 3d f5 c0 db bd 0e 81 59 bb
       -0.02175807 0.03248398 -0.10730163 -0.0033188495
0003a0 a5 d1 5d 3d 71 7f 27 3d 8e ca 4e 3d a1 41 a1 3d
       0.05415501 0.040893022 0.05048614 0.07873846
0003b0 77 cc b1 3d 16 2e 1c bc f8 0b be bd 46 77 c0 3d
       0.08681577 -0.009532472 -0.092796266 0.093977496
0003c0 2e 16 b7 3d cc ab d3 3b de 73 81 bd 1a 30 a0 bc
       0.08939777 0.006459689 -0.06320928 -0.019554187
0003d0 f4 d0 1e bb 4b 5b 21 3d 99 5a 6c bb 7e d9 ba bc
       -0.0024233432 0.039393704 -0.0036064743 -0.022808786
0003e0 4b 1a d7 3a 2f d1 99 bd c3 e4 c2 3c 3c 93 ee 3c
       0.0016411034 -0.07510602 0.023790723 0.029122941
0003f0 03 ad 90 3d 73 7d b7 bd 7c 5c 56 bd 2a 3b a8 bd
       0.07064249 -0.089594744 -0.052334294 -0.0821441
