Task assignment/drl4vrp/vrp/10/19_07_57.994352/checkpoints/17/actor.pt (torch, 734651 bytes, 14 tensors)

static_encoder.conv.weight f4 [128, 2, 1]
000000 3c cd d0 be a7 84 5a 3e 6d 99 c5 3e b6 14 bf ba
       -0.4078158 0.21339665 0.38593617 -0.0014578316
000010 c7 08 a3 be ff d0 b2 3d bd a8 aa be 94 5e 92 bd
       -0.31842634 0.08731269 -0.33331862 -0.071469456
000020 49 09 af 3e f9 c8 28 3e eb 08 ae be d0 f5 8f bd
       0.34186772 0.16482915 -0.3399118 -0.07029307
000030 63 b3 ea 3e ec 72 20 bd 6d 25 98 be 28 7f 8b 3e
       0.45839986 -0.039172098 -0.29716054 0.2724545
000040 94 94 e0 be 23 27 87 3d 0c 5a b0 3e ff bc 13 3e
       -0.43863356 0.065992616 0.344437 0.14427565
000050 2a 14 c2 be aa 23 b1 bd 9c 7b c7 be 55 b8 81 be
       -0.3790601 -0.086493805 -0.38961494 -0.25335947
000060 30 07 8a be d5 ca ab be 4d c4 d9 be 53 b3 6a 3c
       -0.2695861 -0.33553186 -0.42532578 0.014324981
000070 e1 15 d6 3e bf 43 36 be d2 b5 d1 3e ca 19 ba 3b
       0.41813567 -0.1779928 0.4095903 0.005679344
000080 fe 7b e1 3e 00 85 83 bb ec 51 bd be 34 24 98 bc
       0.4403991 -0.0040136576 -0.36976564 -0.01857195
000090 49 b6 81 bd 8e 52 a4 3e 79 da e4 be 56 89 5b bd
       -0.06333596 0.32094234 -0.4469793 -0.05359777
0000a0 39 86 c0 3e 51 f7 7b be c5 00 b6 be f9 c5 1d be
       0.37602404 -0.24606062 -0.35547462 -0.15407552
0000b0 e5 24 76 be 83 cb 2d be 7a e0 b9 3e ce 9e 00 be
       -0.24037512 -0.16972165 0.36304075 -0.12560579
0000c0 1e 20 96 3e 25 a9 ca 3c 10 34 d6 3e 4c 83 e4 3a
       0.29321378 0.024738858 0.41836596 0.0017434149
0000d0 c8 1b 7d 3e 64 ab 72 3d ad bb cc be 84 3e 3c bd
       0.24717629 0.059245482 -0.39986935 -0.045958057
0000e0 bc 42 cc be 19 3d 0b 3e 02 b4 2c 3d f8 67 b2 3e
       -0.39894664 0.13597526 0.042163856 0.34844947
0000f0 af ba af be f4 7b ba 3c a2 26 a9 be 47 05 68 bd
       -0.34322116 0.022764184 -0.33037287 -0.056645658
000100 f4 a3 e4 3e d1 f0 1a be d9 c2 bf 3e c9 71 52 be
       0.44656336 -0.15130927 0.37453344 -0.20551218
000110 28 82 91 be 18 70 0f 3e 57 54 db be 0e 1c 0d 3e
       -0.28419614 0.14007604 -0.42837784 0.13780233
000120 cc 6c b7 be e3 8b 60 be 64 14 9a be 2d ff 3f 3e
       -0.35825193 -0.21928363 -0.30093682 0.18749686
000130 20 8d 9f 3e f2 cf 1b 3e 08 7c cf 3e b0 06 0c be
       0.31162357 0.15216044 0.40524316 -0.13674426
000140 eb d5 bd be 0b f9 8d 3d 66 2a aa be b3 57 4a 3e
       -0.3707727 0.06932267 -0.33235472 0.19760017
000150 d1 3c c1 be c0 16 5c be 2d dd d1 3e 79 96 00 be
       -0.37741712 -0.21493053 0.40989056 -0.12557401
000160 00 91 96 3e 71 64 e1 bc 83 9b b5 3e 84 96 0f 3e
       0.294075 -0.027513715 0.3547021 0.14022261
000170 ca 8a ca 3e b1 77 41 3d d9 09 e8 3e d5 73 58 bd
       0.39559013 0.047233287 0.45320013 -0.05284484
000180 71 58 88 3e 37 67 eb 3d 35 ba af 3e 0d ee 4f be
       0.26629975 0.11494296 0.34321752 -0.20305653
000190 7d 5d e8 3e 79 5f b9 bc f6 73 78 be fc 94 5d be
       0.45383826 -0.022628533 -0.24262986 -0.21638864
0001a0 ef 1c 41 be e0 06 37 3e 15 d5 ad be e4 7f 8f be
       -0.18858694 0.17873716 -0.3395163 -0.2802726
0001b0 a1 90 bb bc 2c 9b 86 be c6 2e 4a be a2 15 2b 3d
       -0.022896113 -0.26290262 -0.19744405 0.041768678
0001c0 08 db d0 3e 14 db 7f 3e 14 db dc be 50 28 8d 3e
       0.40792108 0.24985915 -0.43135893 0.27569818
0001d0 8e ee e3 3e 93 72 fb 3c 73 14 b5 3e 12 5e d5 3d
       0.4451794 0.030694282 0.35367164 0.10418333
0001e0 57 36 93 3e c1 29 bb bd ce 54 a4 3e cf a4 8a be
       0.28752396 -0.09138823 0.3209595 -0.27078864
0001f0 af 71 db be c3 5b 4e be be ed a3 3e 5a 0b 62 3e
       -0.4286017 -0.20152192 0.3201732 0.22074643
000200 86 da b9 3e 43 f0 2f 3d 47 8a e5 be 17 d6 54 bd
       0.36299533 0.04295374 -0.4483206 -0.051961984
000210 59 d7 c7 be 3c c5 41 be 1a 0d 73 be 4a d3 2d 3b
       -0.39031485 -0.18922895 -0.23735467 0.0026523643
000220 b2 af ee be 0f fb 10 3d 06 77 3b 3d 5d 9a b6 3e
       -0.4661842 0.035395678 0.045767806 0.35664645
000230 d0 38 85 3e 7e c2 8a 3e 01 e1 86 be 0e 19 13 3b
       0.26019907 0.2710151 -0.2634354 0.0022445354
000240 7d 1e 9f be 9b 8d 40 be fa 47 a5 3e ea 12 3f 3e
       -0.31077948 -0.18804018 0.32281476 0.18659559
000250 db f5 98 3e 17 1b cb bc 2a e3 75 3e 03 0c 5b bd
       0.29875073 -0.02479319 0.24012437 -0.053478252
000260 19 cd ac be 3f 59 3a 3d 4b 32 b0 3e fe 65 f3 3c
       -0.33750227 0.045495268 0.3441337 0.02971172
000270 c2 a6 da 3e 5f bf 21 3e a9 4a c1 be 21 10 8b be
       0.4270535 0.15795659 -0.37752274 -0.27160743
000280 2b 52 96 be 58 e4 9f be 32 08 e4 be 6d 77 32 be
       -0.29359564 -0.312289 -0.44537503 -0.1742837
000290 46 6b ac be e2 4b 1c be e5 3f ea be 8a 56 83 bd
       -0.33675593 -0.15263322 -0.45751873 -0.064129904
0002a0 ca 23 e7 be 43 cd 2d 3c ab b6 8d 3e 0d 32 5c 3e
       -0.45144492 0.01060802 0.27678427 0.21503468
0002b0 a7 28 eb 3e ad 2d 6b be fd e1 10 be 6f 9a 42 be
       0.45929453 -0.22966643 -0.14148708 -0.19004224
0002c0 58 16 6b be a5 2f 37 be e4 f4 e1 be 30 a6 3b bd
       -0.22957742 -0.17889269 -0.4413215 -0.045812786
0002d0 db 2a bd 3e 1b 0d 1f 3e 6a 6c e0 be d3 9c 95 bd
       0.3694676 0.15532343 -0.43832713 -0.073053025
0002e0 c6 5f 8e be 78 ce ef bd 08 57 aa be d6 b8 59 3e
       -0.27807444 -0.11709303 -0.33269525 0.21261916
0002f0 cc ee da 3e bd f6 52 bd 61 13 a6 be c9 d9 83 bd
       0.42760313 -0.05150484 -0.3243666 -0.064380236
000300 7b 50 cc be 84 61 74 be c2 3c 4a 39 00 57 a2 3e
       -0.39905152 -0.23865324 0.00019286855 0.31707
000310 24 9f db be d9 bf 50 3e dd 10 7b 3e ec ca ae be
       -0.42894852 0.20385684 0.24518152 -0.34139192
000320 32 bd a3 3e 46 f8 91 3d f2 62 c4 be 75 62 d3 3d
       0.31980282 0.071274325 -0.3835674 0.103215136
000330 8e f1 cc 3e 46 4c 80 be 86 ed 5d 3e f7 f4 a3 3d
       0.40028042 -0.25058192 0.21672639 0.08005708
000340 39 59 d6 be 2b 6a 1b 3d 79 f5 64 be e2 0f 1b bb
       -0.41864946 0.037943047 -0.22359265 -0.002366059
000350 97 f8 be be f8 a7 96 bd c7 8b d5 be b5 08 a7 3c
       -0.37299034 -0.07356256 -0.41708204 0.020389894
000360 f7 32 c3 3e 25 e7 45 be 5a d0 85 3e 81 ae 71 bd
       0.3812482 -0.19326456 0.26135522 -0.05900431
000370 81 c6 d8 3e 51 f8 15 be a0 0d db be 82 aa f4 3b
       0.42338946 -0.14645506 -0.42783833 0.007466615
000380 75 69 ad 3e 76 14 c8 bd 73 53 cd be 8f ab b4 3d
       0.3386952 -0.097695276 -0.4010273 0.08821785
000390 b5 09 e7 3e 5b 9b 25 3b 68 34 a8 be e2 ae 6f 3e
       0.45124593 0.00252696 -0.32852483 0.23406556
0003a0 4c 92 73 3e 6f 88 a1 be bb 12 d1 3e e5 45 cb bd
       0.23786277 -0.31549403 0.40834603 -0.09925441
0003b0 35 3f 88 3e 29 7e 2c 3e c2 78 c1 3e 58 a7 82 bd
       0.26610723 0.16845001 0.37787443 -0.063795745
0003c0 5a 53 c8 3e 32 c0 4c bb 5d dc df be a8 f7 4b be
       0.39126092 -0.0031242487 -0.4372281 -0.19918692
0003d0 4d 0c ae 3e da 0f 7e 3e d0 f7 95 3e 3a 62 68 3e
       0.3399376 0.24810734 0.29290628 0.2269372
0003e0 fb 42 c9 3e 10 8c 12 be 08 a4 ad 3e 1f cd 07 be
       0.39308915 -0.14311242 0.33914208 -0.13261841
0003f0 0d 31 b6 be 79 d6 86 3b e0 c1 b0 be df 49 fd 3c
       -0.35584298 0.0041149226 -0.34522915 0.030919014

static_encoder.conv.bias f4 [128]
000000 5d 16 c9 be 1c e9 95 be f2 ee 30 3f 07 a5 92 3d
       -0.39274874 -0.2927941 0.691146 0.07160383
000010 83 7f 3a bf 0a 94 be 3e 33 38 d8 be c0 25 18 bf
       -0.7285082 0.3722232 -0.42230377 -0.594326
000020 22 38 9d 3e f8 66 e5 3d 03 a7 fb be 88 05 10 3f
       0.30706888 0.1120128 -0.49150857 0.5625844
000030 ec ad c6 3e b6 43 07 bf a3 ee cf 3e 6d 06 ca 3e
       0.38804567 -0.52837694 0.40611753 0.39458027
000040 69 5c af 3b 16 9f 12 bf b9 dc 27 bf 94 29 1d 3e
       0.0053515923 -0.57273996 -0.6557117 0.15347892
000050 87 8d 86 bd c8 92 a7 3e 41 97 87 be f6 ca d6 bb
       -0.06569963 0.32729173 -0.26482585 -0.0065549565
000060 2d 80 c6 bc 3e 34 33 bf df 41 d1 3e 48 81 12 3e
       -0.02423104 -0.7000159 0.40870568 0.1430713
000070 b2 32 d7 be 16 68 45 3e ab 81 2a 3e 6f 6e 90 3d
       -0.42030865 0.19277987 0.16651027 0.070523135
000080 77 67 0c 3d 41 cf 23 3f 3a df 26 3d d2 6d 14 3f
       0.03427836 0.6398812 0.04074023 0.5798007
000090 89 72 ad be 19 d2 1a 3f 78 09 ff 3e 74 21 29 bf
       -0.33876446 0.60476834 0.49811912 -0.6606667
0000a0 6e 66 a2 be a3 06 ce be e6 22 fa be fc 80 00 3f
       -0.31718773 -0.40239438 -0.4885475 0.50196815
0000b0 a7 d2 6c 3c e2 9e 0e 3f 58 7e ab 3e 54 3a c4 3e
       0.01445452 0.55711186 0.3349483 0.3832575
0000c0 6d 32 32 bf 7d 5e 45 3e bd 92 86 be 8f 92 bb 3e
       -0.69608194 0.19274326 -0.26283827 0.36635253
0000d0 58 6a 30 3f 19 95 a6 be 34 b2 94 3e c5 90 ef 3e
       0.6891227 -0.32535627 0.29042208 0.46790138
0000e0 5d d4 c7 3e 4e 54 a9 be 63 34 0c 3f a6 e6 11 3f
       0.39029208 -0.33072132 0.54767436 0.56992567
0000f0 93 3a f0 3e 16 a8 c5 3d 45 60 a0 3d 1b a9 a6 be
       0.4691969 0.096512005 0.07830862 -0.32550892
000100 d2 a6 47 be b7 b0 c5 be 72 69 df 3e 48 e0 b8 be
       -0.1949723 -0.38611385 0.43635136 -0.36108613
000110 72 1f 7f 3e 19 eb d1 be a7 45 04 be ab 6e 1b 3f
       0.24914339 -0.40999678 -0.12917195 0.6071574
000120 af fb f6 3e 91 58 13 3d e5 f1 d6 3e 7a 38 12 3e
       0.48238894 0.035973135 0.41981426 0.14279357
000130 f8 3f 19 3e 2d 32 eb 3e 6f cd c7 3e 7b d0 f4 be
       0.14965808 0.4593672 0.3902392 -0.47815308
000140 8e d1 0a bf d0 c5 28 bf 1f e6 25 bf ce 89 af 3e
       -0.54226005 -0.6592684 -0.6480426 0.34284824
000150 f8 20 e3 be 24 60 28 bf 41 11 e9 be 67 7e 14 3f
       -0.4436109 -0.657717 -0.45520976 0.58005375
000160 1b cf 17 3e ef 9b 00 3f 0d 57 de 3e 81 c7 c1 be
       0.14825098 0.50237936 0.4342579 -0.37847522
000170 b6 97 d9 3e 12 e8 27 3f 79 7a ef 3e cb eb 2f bd
       0.4249856 0.65588486 0.46773127 -0.04294948
000180 02 ed 61 be a5 9e ad be 36 d0 5a be cf fd 7d be
       -0.22063068 -0.339101 -0.21368489 -0.24803852
000190 af f8 dc be bb db 66 3e a3 f7 2a bf 32 e4 05 bf
       -0.4315848 0.22544758 -0.66784114 -0.52301323
0001a0 67 c7 28 bf f4 67 d4 be 30 66 c6 3e 22 ce 22 3f
       -0.65929264 -0.4148556 0.38749838 0.63595784
0001b0 06 3c 40 be 79 5b 39 bf f8 9e c1 3e 8e eb f6 be
       -0.18772897 -0.724052 0.37816596 -0.4822659
0001c0 31 a8 28 3f 12 bc 18 3f 40 ea 61 3e ab b0 00 3f
       0.6588164 0.5966197 0.22062016 0.50269574
0001d0 eb 93 a9 be 4a b4 a6 3d 0a 80 1e be 78 7f ec be
       -0.33120665 0.08139856 -0.1547853 -0.46191
0001e0 42 dd 07 be 65 89 72 3d 49 65 50 3d 2c da f0 bd
       -0.13267997 0.05921306 0.050877843 -0.11760363
0001f0 94 93 7d 3e ce c4 5a 3d 51 07 65 be a4 90 f5 3d
       0.24763328 0.053410344 -0.22366072 0.11990479

dynamic_encoder.conv.weight f4 [128, 2, 1]
000000 44 4c fe 3d cd 97 c3 3e 50 24 85 3d 88 32 95 3e
       0.1241689 0.38201752 0.06501067 0.29140115
000010 aa f2 0a be 48 2e cf be d8 34 05 be e3 9b d1 3e
       -0.13569131 -0.40464997 -0.1300844 0.40939245
000020 2b 57 b5 bd 99 cd db be 7e 73 19 3e fb 03 7c 3e
       -0.088545166 -0.42930296 0.14985463 0.24610893
000030 1b 8e ac 3d d8 79 90 be ed 8b f2 3d 01 9b 84 be
       0.08425542 -0.2821796 0.11843095 -0.2589951
000040 5b f4 37 3d f0 fc d5 be 12 cd da 3d fa 3f 79 3e
       0.04491077 -0.41794538 0.10683645 0.24340811
000050 1a 55 61 bd 1c 98 b2 3e ba fa d6 3d d5 5c de be
       -0.0550128 0.34881675 0.10497041 -0.434302
000060 e0 4a d1 3d 4e a0 67 be a7 c2 17 3e 68 9c d0 be
       0.102193594 -0.22619745 0.14820348 -0.40744328
000070 f1 ec c0 3c ea 2a bb 3e 2d 0d e4 3d ce 24 d3 3e
       0.023550482 0.36556178 0.111353256 0.41239017
000080 3b 0e 85 bd b9 10 b6 3e a9 d1 fe 3b 97 cc d5 be
       -0.06496855 0.35559633 0.0077764583 -0.41757652
000090 6a a4 82 bd 90 19 d8 3e dc f2 45 bd 21 bd ba 3e
       -0.06379016 0.42207003 -0.048327312 0.3647242
0000a0 af f9 3e 3e 3f d8 ce 3e 4b 7d a1 bd ed 23 84 3e
       0.18649934 0.40399358 -0.07885226 0.2580866
0000b0 e2 3a 38 be 3f fc a9 3e ca 59 e3 3d af 2a 7b 3e
       -0.17991212 0.3320026 0.1110111 0.24528001
0000c0 b1 37 81 bd 37 a4 ad 3e b3 46 59 3d 2d a3 af 3e
       -0.063094504 0.33914348 0.05304594 0.3430418
0000d0 06 1a 45 3d 6f 7f cb be 15 d3 1c be c9 d8 dc 3e
       0.04812052 -0.39745662 -0.15314896 0.43134144
0000e0 58 0d 33 3e 3b 91 87 be 3b c3 4c be 23 b3 d3 be
       0.17485559 -0.2647799 -0.1999635 -0.41347608
0000f0 c4 71 40 bd 8b 3d e3 3e ec 33 29 be 76 8d 73 be
       -0.046983495 0.4438289 -0.16523713 -0.23784432
000100 51 e2 84 bd e5 6e b1 be 1a da 22 3d 07 eb 9a 3e
       -0.06488479 -0.34654918 0.03975878 0.30257437
000110 28 d3 3a 3e c6 c9 a3 be e5 3e fd bd 81 94 b3 3e
       0.18244612 -0.31989878 -0.12365512 0.35074237
000120 88 b3 a7 bd 38 c3 cd 3e 70 0d 0b be 53 90 e1 3e
       -0.0818854 0.40188003 -0.13579345 0.44055423
000130 60 39 97 3d 2d bd 94 3e 9e 04 b1 3d 2c 8b bf 3e
       0.0738399 0.2905058 0.08643459 0.37410867
000140 21 2b 3e be 32 0f c5 3e 8d be 9e bc cd 04 b7 be
       -0.1857114 0.38488156 -0.019377971 -0.3574585
000150 99 2e e0 3d 8a 43 c8 be a0 f0 a5 bc 7f 47 96 3e
       0.10946388 -0.39114028 -0.02025634 0.29351422
000160 3b 05 d3 3b d4 9e b5 3e 3e 04 4e 3e bd 13 aa 3e
       0.0064398325 0.3547274 0.20118806 0.33218184
000170 1e ad 0f 3d 5d b7 8c 3e 38 79 55 be a0 dc 8a 3e
       0.035077207 0.27483645 -0.20847023 0.2712145
000180 f2 e1 31 3e 9d f0 67 be 25 d9 26 3e 1f 16 d2 3e
       0.17371348 -0.2265038 0.16293772 0.41032502
000190 ba 9f 4b be 09 51 a3 3e fc 8a 4a be e5 de df 3e
       -0.1988515 0.31897762 -0.19779581 0.43724743
0001a0 82 c4 a5 3c 27 5a af 3e b1 c6 c0 bc 97 6a 7e 3e
       0.020235304 0.34248468 -0.023532243 0.24845348
0001b0 d5 ae 4e be e9 ca be be b6 e4 ef bc c8 e0 87 be
       -0.2018388 -0.37264183 -0.029283863 -0.26538682
0001c0 4c 5b 0f be 44 6d d9 be 9f 85 3f 3e f9 f6 76 3e
       -0.1399967 -0.42466176 0.18703316 0.2411765
0001d0 f3 b7 59 be 76 24 b8 be 6f 76 39 3e 3d 42 67 be
       -0.21261577 -0.35965317 0.18111585 -0.22583862
0001e0 16 35 0a 3e 4d eb 8a be 11 66 07 3e 56 dc 72 be
       0.13496813 -0.27132645 0.13222529 -0.23716864
0001f0 ce b4 30 be fb 27 cb 3e a3 70 dc bc 31 ef bf be
       -0.17256472 0.3967894 -0.026909178 -0.37487176
000200 08 92 50 be b1 46 b3 be f6 90 48 be 15 a2 e0 be
       -0.20368207 -0.3501487 -0.19586548 -0.4387366
000210 f0 32 bd 3d 1d 59 db 3e cc d6 7a 3d bf 1a a8 3e
       0.09238231 0.42841426 0.061240003 0.32832906
000220 9e e3 ba bd 54 19 9c 3e 67 06 ff 3d 6c 80 d8 3e
       -0.09125446 0.30488074 0.12452393 0.42285478
000230 0b 80 40 3e 35 7c ce 3e e2 52 1b 3d 67 b1 c2 3e
       0.18798845 0.40329137 0.03792084 0.38025972
000240 69 e6 9d bd c1 bf af be d0 c5 b9 bd dd 11 c1 be
       -0.07709963 -0.34325984 -0.09070933 -0.3770894
000250 99 1b 1f be 4f c4 bf be 10 0d 87 3d c3 4a a4 be
       -0.15537871 -0.3745446 0.06594288 -0.3208829
000260 e6 04 10 be e4 36 75 3e 31 b5 36 be d6 4f bd 3e
       -0.14064369 0.2394672 -0.17842557 0.36974972
000270 ee 2b 3b 3d b8 6f d5 be 52 e7 18 3e 3e 40 ca be
       0.04569619 -0.41686797 0.14931992 -0.39502138
000280 f7 93 1a 3e 50 e2 89 be f5 2c 1b be e2 a3 c0 be
       0.15095507 -0.26930475 -0.15153868 -0.37625033
000290 ba ed 08 3e cc 43 d7 3e 59 1e 0d be 98 bc ce be
       0.13371935 0.42043912 -0.13781108 -0.4037826
0002a0 a0 8a 88 3b 48 0c d0 be 90 50 ab 39 aa 8c cc be
       0.004166916 -0.4063437 0.00032675685 -0.39951068
0002b0 17 19 16 3e 38 17 87 3e fa 69 0c be 9f bf 96 3e
       0.14658009 0.26384902 -0.13712302 0.2944307
0002c0 ab 5d 3b be 3d 88 8d 3e 89 99 4d 3e c9 5c a3 be
       -0.1829745 0.27643004 0.200781 -0.31906727
0002d0 a2 cb 15 3e 41 b0 7f 3e 11 ce c0 3c c5 ca c4 3e
       0.14628461 0.2496958 0.02353576 0.3843595
0002e0 26 ce 91 3c 8a d5 b3 be d7 a9 ec bd 5b 5a e1 3e
       0.017798495 -0.35123855 -0.11555832 0.44014248
0002f0 d6 28 34 3e 0b 77 bc 3e 44 50 3b 3d 90 f6 c3 be
       0.17593703 0.36809573 0.045730844 -0.3827405
000300 2e f1 9a 3c 11 28 b4 be 07 e7 5e 3e 3a f3 a9 3e
       0.018913832 -0.35186818 0.21767817 0.3319338
000310 6f c9 11 3e 94 a1 e2 3e b6 8d a0 3c 4d a1 81 be
       0.14236997 0.442639 0.019598823 -0.25318375
000320 d5 c2 09 be 56 cb 9b be a3 b0 04 be f0 f6 b1 be
       -0.13453229 -0.3042857 -0.12958007 -0.3475871
000330 04 cb 06 be 3c 18 be 3e 7e 2e c6 3d 7f 2b 80 3e
       -0.13163382 0.37127864 0.096768364 0.25033185
000340 28 ee 44 3e cf c6 a6 3e 56 0a 14 3e 9c 86 8f 3e
       0.19231474 0.32573554 0.14457068 0.28032386
000350 7c 37 35 3e 04 55 c7 be e6 3e 52 be de ae c3 3e
       0.17696947 -0.3893205 -0.20531806 0.3821935
000360 4b ab 43 3e bd a5 81 3e 0c bd 52 bd f6 df c3 3e
       0.19108312 0.2532176 -0.05144982 0.38256806
000370 e6 31 3a 3e e6 87 a9 be ae 49 14 be 70 35 a5 3e
       0.18183097 -0.33111495 -0.14481232 0.32267332
000380 e6 d8 b3 3d 02 5f 9c be 18 3b fb bd 7b 85 80 be
       0.087816045 -0.30541235 -0.122671306 -0.25101838
000390 b5 59 f4 3d 87 06 9b be bf ba 75 bc 8f 06 84 3e
       0.11931173 -0.30278417 -0.014998137 0.25786254
0003a0 b0 80 0e be 7b 89 99 3e d6 25 ba 3d d4 a3 d4 be
       -0.13916278 0.29987702 0.09089248 -0.4153124
0003b0 38 5c 5c be 5f 82 cb be 87 9a fe 3d 67 68 79 be
       -0.21519554 -0.39747903 0.124318175 -0.24356233
0003c0 13 cc 10 bd 75 dc 75 3e 7f 12 75 3d 44 95 94 3e
       -0.03535087 0.24009879 0.059832092 0.2902013
0003d0 f7 2b 10 be 1f e8 dc be a2 f4 8b 3d 79 1a d1 be
       -0.14079271 -0.43145844 0.068337694 -0.4084051
0003e0 eb 9b e0 bd e3 ea be be bf 0c 23 be c3 39 96 be
       -0.10967239 -0.3728858 -0.15922831 -0.29340944
0003f0 d6 77 1b bd 67 f9 d1 be 75 c1 8b 3d 57 08 ab be
       -0.03795608 -0.4101059 0.068240084 -0.334048

dynamic_encoder.conv.bias f4 [128]
000000 71 27 dc 3e 01 29 a1 3e a4 28 27 3f 1e 1f 07 3e
       0.4299884 0.31476596 0.6529639 0.13195464
000010 78 c4 27 be 4e 88 88 3e c5 bf d4 3e ab 5b f1 be
       -0.1638354 0.26666492 0.4155256 -0.4714025
000020 ea 81 14 3d 6c 99 15 be 64 b2 67 be ff ad d1 bd
       0.03625671 -0.14609307 -0.22626644 -0.10238265
000030 6f 09 26 3f e4 9b 70 3e 1f bf 42 3e be 5d 14 3e
       0.64858145 0.23496968 0.1901822 0.14488885
000040 34 c3 25 3f 55 aa 40 3e fc 19 f2 bd d3 58 8f bd
       0.6475098 0.18814977 -0.118213624 -0.06999364
000050 7c 7b 3d 3e 28 cd 74 3e df 1c fc 3e 1d 90 c0 3d
       0.18504137 0.23906386 0.49240777 0.094024874
000060 6f 17 96 be eb 75 1c 3f d9 3a 6f be 71 e7 67 3e
       -0.29314753 0.6111743 -0.23362292 0.22646882
000070 89 7c 22 3f 08 94 bb be 7c be 98 3e 05 2e f9 3e
       0.63471276 -0.36636376 0.29832828 0.48667923
000080 91 d2 03 3f 0c c2 1a 3e 77 26 e3 be 5b d5 cd be
       0.51493174 0.15113086 -0.44365284 -0.4020184
000090 bf 6a bf be a9 48 8d be 19 2e ae bd 30 c1 05 bf
       -0.37386128 -0.27594498 -0.08504886 -0.52247906
0000a0 ba d1 06 3f 12 eb 98 3e 6f 2a 10 3f c8 ce d4 bd
       0.5266377 0.29866844 0.5631475 -0.10391003
0000b0 06 6f 22 be 09 3e 3b be 2e 55 c0 be d6 83 18 3e
       -0.15862665 -0.18285383 -0.37564987 0.14894041
0000c0 0d be 15 3f 13 a5 b1 bd cb 04 97 bd a6 3b a5 3e
       0.5849312 -0.086740635 -0.07373961 0.3227207
0000d0 cb 76 85 3e 72 01 eb 3e 9f f4 a1 be d1 38 dd 3e
       0.26067194 0.4589954 -0.31631944 0.4320741
0000e0 10 10 18 3f 61 4f 22 bf bf 56 92 be 57 1c 87 3e
       0.5939951 -0.6340237 -0.28581807 0.2638881
0000f0 34 7e df 3e b5 dc ad 3e 01 18 61 be ec 1e 06 3e
       0.43650973 0.3395745 -0.21981813 0.13097733
000100 21 7a ce be ba 9a 64 bd 2e 54 12 bf 1a 1b 11 bf
       -0.40327552 -0.05581162 -0.571597 -0.5668198
000110 eb 02 ab 3e 0b b0 d7 3e 8e 5d 35 3f f3 5e 70 be
       0.33400664 0.42126498 0.7084588 -0.2347372
000120 32 b6 19 3f ea 55 ee be 16 d6 6d 3d c6 48 24 3f
       0.60043633 -0.46549922 0.058065496 0.64173543
000130 e4 38 00 3f 8f cd b5 3e bf 2b 55 be 36 13 95 be
       0.5008681 0.3550839 -0.20817469 -0.2911622
000140 67 04 6c bd d3 1a ab 3e 98 20 86 bd ca 38 2e bf
       -0.057621386 0.33418903 -0.065491855 -0.68055403
000150 f5 2a bd be 51 4e cd 3e 39 4e e4 bd 48 64 6c be
       -0.36946836 0.40098813 -0.11147732 -0.2308513
000160 42 80 e4 3d 12 3e 2e bf 21 2d 00 bd 2c 14 5f bd
       0.11157276 -0.6806346 -0.03129304 -0.054462597
000170 a8 4e 64 be 84 17 2f 3f 70 31 27 be 29 8e 42 bd
       -0.2229563 0.68395257 -0.16327453 -0.047498856
000180 35 f6 ce be 78 00 09 bf 4d aa 04 3f aa e0 2a bf
       -0.40422216 -0.5351634 0.5182236 -0.6674906
000190 1e 7e 2f bf 7a f5 42 3d f7 7b 1c bf e5 4d 0d 3f
       -0.68551815 0.047597386 -0.61126655 0.5519698
0001a0 9d e3 97 3e 48 22 04 bf d8 99 e6 bd a4 72 e6 3e
       0.29665843 -0.5161481 -0.11259812 0.4500934
0001b0 28 e5 c8 3e 0f 6d ab 3e 1a 80 c6 be 15 14 61 be
       0.39237332 0.33481643 -0.3876961 -0.21980317
0001c0 ee ef 5d 3e c9 49 0d 3e 8a 54 ea be 59 3c 33 bd
       0.21673557 0.13797678 -0.45767623 -0.043758724
0001d0 91 70 74 be a5 c6 fc 3d 4f 29 91 be 67 bd 25 be
       -0.23871066 0.12342576 -0.28351828 -0.16185533
0001e0 d8 8a 9c 3d bc ad a8 be af 13 02 3f 16 63 0d bf
       0.0764367 -0.3294505 0.50811285 -0.5522932
0001f0 8b c3 0d 3f 1f 7a a5 3e 56 70 b1 be 68 2c d5 be
       0.553765 0.32319734 -0.34656018 -0.41635442

decoder.conv.weight f4 [128, 2, 1]
000000 0f d4 49 be b3 82 11 be c6 ab d7 3d ea 51 8f bd
       -0.197098 -0.14210014 0.1053081 -0.06998046
000010 ca 81 54 3d e5 b2 ad bd f8 5f 03 be 3b 95 b8 3b
       0.05188159 -0.08481387 -0.12829578 0.005633024
000020 79 92 3b 3e e4 47 56 3e 95 6a d5 bd 40 75 b3 bd
       0.18317594 0.20925862 -0.104207195 -0.08762598
000030 ad a5 1b 3e df 7d 56 3d e5 d7 08 bc 98 1d 4b 3e
       0.15199919 0.052366134 -0.0083522545 0.19835508
000040 57 2a a9 3d f8 61 41 3e a3 f8 2a be f2 13 0a 3e
       0.08260029 0.18885028 -0.1669641 0.13484171
000050 29 ca 5a 3e d1 de 47 3e c7 73 18 3d 36 79 46 3e
       0.2136618 0.19518591 0.03721979 0.19382176
000060 da f1 80 bd 59 70 c9 3c 20 54 17 bd 1f da 7f bd
       -0.062961295 0.024589704 -0.036945462 -0.062463876
000070 10 44 31 3e b8 92 a4 bd fa 0b 40 be d9 e0 10 be
       0.1731112 -0.08035797 -0.18754569 -0.14148273
000080 3b 4c 26 bd ed d3 d1 3d 6d 98 b8 3d dd 1f 3d be
       -0.040600043 0.102455 0.09013448 -0.18469186
000090 3b ca 85 bd d1 98 0c 3e 05 c6 73 3e e3 86 6c 3d
       -0.06532713 0.1373017 0.23806007 0.057745825
0000a0 87 a9 4a 3e 18 81 04 be 50 54 36 be cd a0 d6 3d
       0.19791232 -0.1293987 -0.178056 0.10479889
0000b0 e7 89 03 be ea 05 3c be de 6e 34 3c ea 27 c5 3d
       -0.12845574 -0.18361631 0.011012761 0.09626754
0000c0 80 46 a3 3d b7 38 24 be 1e 90 48 be 3d 1f 15 be
       0.07972431 -0.1603726 -0.19586226 -0.14562698
0000d0 ed 8b 74 bc e7 be 42 3d f2 64 b8 3d 4d 74 fb 3d
       -0.014925939 0.04754534 0.09003629 0.12278042
0000e0 9b 5c 92 bd 8c 97 75 bd 89 39 0b 3e b2 90 b9 bc
       -0.07146569 -0.05995898 0.13596167 -0.022652004
0000f0 c3 f8 e8 bd dd 03 7f 3d 2e 4a ec bd 9b e7 0e be
       -0.113755725 0.062259544 -0.11537586 -0.13955538
000100 32 d3 59 be 52 82 4a 3e 7b 8a 10 3d eb dc 9d 3d
       -0.21271971 0.19776276 0.035288315 0.077081524
000110 59 20 4a 3d a7 22 33 3d 78 8d 8d 3a f1 cd 53 be
       0.049347255 0.04373422 0.0010799607 -0.20684029
000120 e0 b3 29 3d b6 f3 57 3e 16 de 8b 3d c4 31 31 be
       0.041431308 0.21089062 0.06829469 -0.1730414
000130 0d 23 30 3e 36 e8 16 3e f3 fb 98 3d 6d bc d4 3d
       0.17200871 0.14737019 0.074699305 0.10387502
000140 d2 87 39 3e 04 33 15 3e e7 a7 04 bd ed db ed 3d
       0.18118218 0.14570242 -0.032386687 0.11614213
000150 47 a5 12 3d 45 49 30 3d 71 18 59 bd ee a7 40 3d
       0.035802152 0.043038625 -0.053001825 0.04703515
000160 29 26 a2 3d 2d 10 a4 bd 52 41 a6 bd 22 34 2c be
       0.07917435 -0.08010898 -0.081179276 -0.16816762
000170 a8 d8 0b 3d f4 1e 10 be 0d eb 82 3d 83 64 10 3e
       0.034142166 -0.14074308 0.06392489 0.14100842
000180 a0 cc 66 bd f3 df 69 3e dd 9c c0 3d 8d 73 6b bc
       -0.05634749 0.22839336 0.09404919 -0.014370811
000190 b3 8c 71 3e 4f ba 44 3e 5a 62 9a 3c 6e ff e5 3b
       0.23588829 0.19211696 0.018845726 0.007018975
0001a0 48 26 a2 3d 51 33 d3 bd bf f4 06 3e 17 3e 25 3e
       0.07917458 -0.10312522 0.131793 0.16136967
0001b0 54 bd 19 3d df f2 51 3d 5d 35 26 be ab de 38 3c
       0.037534073 0.05125701 -0.16231294 0.011283557
0001c0 a0 68 d2 bd 24 fb 38 bd d8 33 b5 3d 96 11 10 3e
       -0.10273862 -0.04516138 0.08847779 0.14069209
0001d0 4b a3 fe 3d aa ce d0 3d e8 d6 02 3e 8e 97 1b be
       0.124334894 0.10195668 0.12777293 -0.15194532
0001e0 84 e5 0f bb 03 46 18 3e 27 38 32 3e ad cb 92 3d
       -0.002195687 0.14870457 0.17404233 0.07167754
0001f0 26 9d 59 be 22 cf 37 3e a8 d6 0e be 77 42 5a be
       -0.21251354 0.17950109 -0.13949072 -0.21314417
000200 21 c1 09 bd 1e 69 21 bc bc b4 62 be 41 41 90 bd
       -0.033631448 -0.009851722 -0.22139257 -0.07043696
000210 9c 8e 49 be a8 72 2c 3e d6 8e 8b 3d 62 00 3e 3e
       -0.19683307 0.16840613 0.06814353 0.18554834
000220 c6 c7 cd bd c9 e2 82 3d 0c c5 17 ba fd 19 31 3e
       -0.100478694 0.06390912 -0.0005789555 0.1729507
000230 a6 3d e7 bd 93 d7 40 bc 4a cd 00 3e f6 92 37 3e
       -0.112910554 -0.011770147 0.12578312 0.17927155
000240 ed a8 04 be ad a2 d7 3c d3 22 85 3c 29 65 0d be
       -0.12955065 0.026322687 0.016251957 -0.13808121
000250 33 1b 5a be 83 94 02 bd aa 02 e2 bd fb f6 51 3e
       -0.21299438 -0.031879913 -0.110356644 0.20504372
000260 df 25 36 3c 88 9d 10 3e d2 f6 38 3d 70 25 c9 bd
       0.011117428 0.14122593 0.04515726 -0.09821594
000270 92 7f 00 3e 96 bb 32 3c 94 8b bb bd 74 af c1 3c
       0.12548664 0.010908982 -0.09157482 0.023643233
000280 58 02 00 3e 73 01 e3 bc 6b 48 05 3d 4e fc 47 be
       0.12500894 -0.027710652 0.032539766 -0.1952984
000290 b1 22 43 3c 77 06 10 3d e2 46 5f 3e da fc 58 3e
       0.011910127 0.035162415 0.21804383 0.21190205
0002a0 24 56 fb bd e3 e2 fc 3d 25 7a 26 bd fe 55 f5 3d
       -0.122722894 0.12347963 -0.04064383 0.11979292
0002b0 13 ea 0c 3e 16 48 37 bc b0 68 de 3d 61 ef 1e 3e
       0.13761167 -0.01118662 0.10859811 0.15521003
0002c0 2a 45 12 3e e8 02 bd bb 02 14 3d be 14 25 c9 bd
       0.14284196 -0.0057681687 -0.18464664 -0.09821525
0002d0 89 81 38 be d1 28 0d be 8e b1 86 bd ad 32 dc 3d
       -0.18018164 -0.13785101 -0.065768346 0.10751853
0002e0 d2 ce 27 3d a9 dc 8e 3c 7f bd 01 3e 31 8e 37 3e
       0.040968724 0.017439203 0.12669943 0.17925335
0002f0 1c e9 23 be 9e 28 e3 3d 39 5c 2f be da 70 e2 bd
       -0.16006893 0.110917315 -0.17125024 -0.11056681
000300 b7 9b af bd 82 a2 d4 3d e8 5e 26 3d b3 da fc bd
       -0.08574622 0.103825584 0.040617853 -0.12346401
000310 05 2b 1f bd f0 b0 39 3e 4d 57 46 3e f2 98 0f 3e
       -0.038859386 0.18133903 0.1936924 0.14023188
000320 a0 42 35 be 0f 4e 34 3d 50 2d e9 bc 88 90 7f 3d
       -0.17701197 0.044019755 -0.02846399 0.062393695
000330 1c a7 09 be 03 f0 00 3d 03 4f 46 bb 81 85 30 bd
       -0.13442653 0.031478893 -0.0030259497 -0.04309607
000340 37 35 10 3c e5 93 9c 3d d2 fa e3 3b 22 66 80 3d
       0.00880175 0.07645396 0.0069573903 0.0626948
000350 05 60 12 be 3a 4b 88 3d 6d 38 98 bd e8 4e 07 3e
       -0.14294441 0.06654973 -0.07432637 0.13213694
000360 a0 13 cf bd 70 7a 97 3d f5 e2 2d 3e 86 3e 20 3d
       -0.10111165 0.073964 0.16981108 0.039122127
000370 9f 8d 3f be 25 b2 4c 3b 8e d0 42 3e 2c ac 31 3e
       -0.18706368 0.0031234112 0.1902487 0.17350835
000380 0e d1 85 bc b7 09 3b 3c de 74 16 3e 55 87 14 be
       -0.016335037 0.01141589 0.14693019 -0.1450475
000390 44 86 49 bb 24 fa 36 be aa 2a 95 bd 57 cc 00 3d
       -0.0030750195 -0.17868859 -0.07283528 0.031444874
0003a0 08 f0 08 3e 30 62 c7 bc 29 9a 08 be 6a d1 29 be
       0.13372815 -0.024338812 -0.13340057 -0.16583791
0003b0 64 0b 1e 3e f0 8c b6 bd d3 a7 eb 3d 4e 1d 45 be
       0.15434033 -0.089136004 0.11506619 -0.1924946
0003c0 03 42 f9 3d 0e 20 99 bd 68 cc 49 3e a4 77 e0 bc
       0.12170794 -0.07476817 0.19706881 -0.0274008
0003d0 37 66 40 3e 80 31 62 bd 87 98 ae bd 2f 0f 63 3d
       0.18788992 -0.055222988 -0.08525186 0.055434402
0003e0 51 61 0c 3e dd 1f 35 3e 61 15 8e bd 00 27 10 3e
       0.13708998 0.17687936 -0.069376715 0.14077377
0003f0 eb 6c ce bd cd 70 0f be 31 a0 c5 3d 8a 12 5b 3e
       -0.10079368 -0.14007874 0.09649695 0.21393791

decoder.conv.bias f4 [128]
000000 4a b1 43 be 70 57 f3 3c 47 bc 04 3f f6 30 d3 bd
       -0.19110599 0.02970478 0.5184979 -0.10312073
000010 3a f7 a8 be f5 db 18 3e 50 ef 75 be 0a fd 4d 3d
       -0.3300112 0.14927657 -0.24017072 0.050290145
000020 86 5e 1e 3e 34 f1 cc 3e ea b2 04 bf 9b a2 1f 3f
       0.15465745 0.40027773 -0.518355 0.6235749
000030 c2 ab f7 be 18 b7 81 3d 73 b5 93 3e 52 97 10 bf
       -0.48373228 0.063337505 0.28849372 -0.56480896
000040 c9 46 5b 3e a9 05 31 3f bb c3 a6 be 71 5e 73 be
       0.21413721 0.6914926 -0.32571205 -0.23766495
000050 05 ce 29 bf 64 5b 89 be 3b 68 d7 3e 3a 09 cf 3d
       -0.66329986 -0.26827538 0.4207171 0.10109182
000060 ce 1e 1e 3f 33 a4 bd be 0a 52 1a bf ba 20 5c be
       0.61765754 -0.37039337 -0.6028143 -0.21496859
000070 f3 1a 84 be f9 ea 88 3e 50 f8 1a 3f 93 87 94 3b
       -0.2580181 0.2674177 0.60535145 0.0045327633
000080 ca 53 40 be 4e c8 86 3e 4b 93 0c 3e 8b a6 fe 3e
       -0.18781963 0.26324695 0.13728063 0.49736437
000090 f0 41 e1 be a3 74 14 3f 2a 04 75 3e c5 35 83 3e
       -0.4399562 0.57990474 0.2392737 0.2562696
0000a0 69 63 ed 3d 9b cc ed 3e 6c 69 0a be 50 a2 f4 be
       0.115912266 0.46445164 -0.13516778 -0.47780085
0000b0 77 07 22 bd 4f bf 01 3f c5 5d 7d be eb a8 03 be
       -0.0395579 0.5068254 -0.24742801 -0.12857406
0000c0 f7 40 26 3e 52 df 05 3f 46 4c 31 be 42 5a 3d 3e
       0.1623572 0.52293885 -0.17314252 0.18491462
0000d0 72 b9 dd 3e 45 d2 aa bc 8f d6 e0 be fd e7 2f bf
       0.43305546 -0.020852217 -0.43913695 -0.6871336
0000e0 90 81 0a be fa 34 3a 3c 2b bd e0 3e 47 db 54 be
       -0.13525987 0.01136517 0.43894324 -0.20786773
0000f0 5b 1e 0b bf a3 da 8f be 5e 9e f1 3e 3e 01 6c be
       -0.54343194 -0.28096494 0.47191137 -0.23047349
000100 2c 3e 68 3e 79 42 f4 3e 5f f5 11 bf e1 24 1a 3f
       0.22679967 0.47706965 -0.5701503 0.6021252
000110 a1 91 22 bf ff 2c 13 3f 6e d6 e7 bd 5a 71 af be
       -0.6350346 0.57490534 -0.11320196 -0.34266168
000120 78 4d 07 bf 17 22 f7 be 7e 42 d1 3e a0 e6 eb 3e
       -0.5285258 -0.48268196 0.40871042 0.4607439
000130 80 fa e5 3d d6 91 a4 3d 33 d4 b2 bd 83 70 17 3f
       0.1122942 0.080356285 -0.0873188 0.59156054
000140 08 12 0d bf 0e 6b 73 3e 95 96 be be ad e6 1a be
       -0.5510564 0.23771307 -0.3722426 -0.15127058
000150 72 17 a4 3e 31 cd ea be 5b 47 f0 3e b7 f4 76 be
       0.32049137 -0.45859674 0.4692944 -0.24116789
000160 c2 30 e8 be 95 27 08 3f 6c 48 02 be a2 0b 80 3e
       -0.453497 0.531854 -0.12722939 0.25008875
000170 64 6e f9 3e b7 2b f6 3c fb 44 10 bf 55 e2 2b 3e
       0.48717034 0.030050142 -0.56355256 0.16785558
000180 e5 db 95 be 56 58 26 3f 32 fc 05 bf be da 57 bd
       -0.2926933 0.6497854 -0.52337945 -0.052698843
000190 53 f0 d5 3d e1 c4 20 3f 76 7a e9 3e 86 39 c9 3e
       0.10446229 0.62800413 0.45601243 0.393017
0001a0 73 81 1a bf cd 48 be be d9 e7 99 3e 9c 6b 93 3e
       -0.60353774 -0.37164918 0.30059698 0.28793037
0001b0 5b 3b 9e bc 30 83 27 3f 35 86 3d be 11 e0 4b bd
       -0.019315412 0.6543455 -0.18508227 -0.049774233
0001c0 b3 74 0e 3f 88 af 24 3f cb df 90 3e 66 ed f5 bd
       0.5564682 0.6433034 0.2829574 -0.12008171
0001d0 94 15 31 3e fc f5 15 bf ff 2e a2 3b ec 48 82 3e
       0.17293388 -0.5857847 0.00494945 0.2544626
0001e0 25 fb 3d 3e 67 fd fb 3e 70 30 03 bf 0d 5d 1e 3f
       0.18552835 0.49216768 -0.51245785 0.61860734
0001f0 14 4b ee be f5 0b 9f 3c 00 7d e2 be 80 a1 6f be
       -0.46541655 0.019414881 -0.44235992 -0.23401451

pointer.v f4 [1, 1, 128]
000000 62 6b c4 be b3 87 82 3e 9b f5 37 be 84 9d 89 be
       -0.38363177 0.25494155 -0.17964785 -0.26877987
000010 13 67 6c be ff 3d 75 3e 0b d6 e8 3d d7 5e 26 3e
       -0.23086195 0.23949431 0.113689505 0.16247116
000020 f9 76 85 3e 43 9d 34 3e 3c bf 25 3e 45 a7 5d 3e
       0.2606733 0.17638116 0.16186231 0.2164584
000030 79 04 11 3e a2 bf 6b be f5 71 87 3e 22 07 7d be
       0.14161862 -0.23022321 0.2645413 -0.24709752
000040 c2 63 9d be dd f4 cb 3d 05 0c 47 3e c0 31 72 be
       -0.30740172 0.09958813 0.19438179 -0.2365179
000050 8f 17 2a be 68 82 81 3e c8 67 4b 3e 18 fe e4 bd
       -0.1661055 0.25294805 0.19863808 -0.11181277
000060 d0 a4 74 be 7c fa 17 be 07 85 75 be c7 c0 86 3e
       -0.23890996 -0.14841646 -0.23976527 0.26318952
000070 f1 59 63 3e 77 86 85 3e 2f 89 73 be 3e e6 5e be
       0.22202279 0.2607915 -0.237828 -0.21767518
000080 4e b2 5f be 70 12 03 3e c0 9f 3b be 0e 94 fe 3d
       -0.21845362 0.12800002 -0.18322659 0.12430583
000090 69 cc 5c 3e c8 ba 5d be bc 16 8e 3e 4a 26 8d bd
       0.21562351 -0.21653283 0.2775172 -0.06892069
0000a0 12 88 03 3e 77 3d fd 3d e4 da 12 3e 6f e4 04 3e
       0.12844875 0.12365239 0.14341313 0.12977766
0000b0 4b ba 0e 3e 96 6c 35 be 5e 6b 2e 3e 8f 56 1b 3e
       0.13938253 -0.17717203 0.17033145 0.15169738
0000c0 a8 12 45 3e d2 cb 51 be 43 39 74 be 8e c9 79 be
       0.19245398 -0.20487908 -0.23849969 -0.24393293
0000d0 8f 12 8b be 1e 30 c8 bd bd f0 47 be f0 2c ba be
       -0.27162597 -0.097748026 -0.19525428 -0.3636241
0000e0 8e c5 81 be 98 c5 88 be ba 59 6e 3e e3 a3 3d 3e
       -0.25346035 -0.26713252 0.23276415 0.18519549
0000f0 30 8c b0 be fa e6 2e be 63 0b 51 3e da d6 f6 3d
       -0.34481955 -0.17080298 0.204145 0.120526984
000100 1c 38 71 be 03 51 43 be ea 83 44 3e c7 a4 60 be
       -0.2355656 -0.19073872 0.19190946 -0.21937858
000110 0a 97 8c be f4 92 5b 3e 74 2d 38 3e 03 f1 25 3e
       -0.27458984 0.21442777 0.17986089 0.1620522
000120 76 65 39 3e 18 0d 25 be f9 a5 7a be 32 57 3a be
       0.1810511 -0.16118276 -0.24477376 -0.18197325
000130 6c fa 20 3e a1 26 72 be b0 72 76 be cf 8a e8 bd
       0.15720528 -0.23647548 -0.24067187 -0.11354601
000140 fc e6 43 3e 66 c8 55 be d0 08 8f be 37 0d 97 3e
       0.19131082 -0.20877227 -0.2793641 0.2950227
000150 f1 56 a5 be 78 6c b2 3e ac 3a 4b be f3 d5 1a be
       -0.32292894 0.3484838 -0.198466 -0.15120678
000160 ff 73 11 3e a8 e9 88 3e 54 cf ba be e1 7a 0c be
       0.14204405 0.26740766 -0.36486304 -0.1371875
000170 72 df 20 be b2 c5 3c be 17 bc 81 3e 70 f0 91 be
       -0.15710238 -0.1843479 0.25338814 -0.28503752
000180 01 76 5e 3e 8d 46 26 be c8 9c 48 be 31 87 81 3e
       0.21724702 -0.1623785 -0.19591057 0.25298455
000190 9c d7 45 be 53 29 8b 3e 49 77 ae 3e a2 ad 43 be
       -0.1932053 0.27179965 0.34075382 -0.19109204
0001a0 a0 f8 c3 be d5 27 9f be 51 8c 27 3e c5 60 81 be
       -0.38275623 -0.31085077 0.1636212 -0.25269142
0001b0 11 a5 ae 3e 07 07 41 3e 19 ec 83 3e 31 26 8e 3e
       0.3411031 0.18850337 0.25766066 0.27763513
0001c0 f3 5d 44 3e 74 17 00 3e 8d 5d a0 3e cd 24 d7 3e
       0.19176464 0.12508947 0.31321374 0.42020264
0001d0 b7 5d 87 be f0 0f 57 be db 31 9a be 09 ad 73 be
       -0.26438686 -0.21002173 -0.30116162 -0.23796476
0001e0 8c 1d 4f be eb 05 5e be 0d 1f 19 be cf ee 89 be
       -0.20226115 -0.21681945 -0.14953251 -0.2694001
0001f0 04 8c 25 be fe 62 4f 3e 6d 0c 3e be 2c 7d 8d be
       -0.16166693 0.20252606 -0.18559428 -0.2763456

pointer.W f4 [1, 128, 256]
000000 81 0c eb bd bb ca f8 3d f5 db c9 bd d7 1d 13 be
       -0.11476994 0.12148043 -0.098564066 -0.14366852
000010 ba f1 89 3d 01 8e db bd 80 7e ea 3d 00 02 b3 bd
       0.06735559 -0.107204445 0.11449909 -0.08740616
000020 1f 72 f3 bd a7 df 9f 3d 98 fe c1 bd 89 0d 4a bd
       -0.11887001 0.0780633 -0.09472388 -0.049329314
000030 a6 e3 d9 bb ff 78 ce bd 56 dc e3 3d 84 10 de 3d
       -0.0066494523 -0.10081672 0.1112601 0.10842994
000040 a5 6b 04 3e aa 8c c7 bd 3c d3 77 bd 4e 34 0a be
       0.12931688 -0.097436264 -0.060504183 -0.13496515
000050 94 d2 0e 3e 16 d9 ba bd 72 dc 3b bd b5 f4 24 3e
       0.13947517 -0.09123437 -0.04586453 0.16108973
000060 b1 5e 3e 3e db e9 ce 3d 85 6f 9d 3d 7b a3 15 be
       0.1859081 0.10103198 0.07687286 -0.14613144
000070 4f e1 01 be d7 27 30 bd 0e 7e 13 be 48 44 20 be
       -0.12683605 -0.043006744 -0.14403555 -0.15651047
000080 d9 f9 fc 3d 3a 55 b3 3d e0 b5 32 be bc 7d b8 bd
       0.12352342 0.0875649 -0.17452192 -0.09008357
000090 71 81 5b bd 94 22 9e bd f0 3e 84 3d 15 8c dc 3d
       -0.05359024 -0.07721439 0.06457317 0.10768906
0000a0 09 bd e6 bd 91 33 e4 bd ba c9 85 bd a4 6b cb 3d
       -0.11266524 -0.11142648 -0.06532617 0.0993264
0000b0 66 48 69 3e 8e 5c 93 3d 67 1b d3 3d 6b c3 f1 3d
       0.22781524 0.07195388 0.10307961 0.11804851
0000c0 18 49 6b 3d 5d 18 04 3e ed a7 0e 3e 8d c2 1d bd
       0.057442755 0.12899919 0.13931246 -0.038515616
0000d0 6c 9e 8b bd ba 21 3e bd 00 44 78 3d a5 a6 cd bd
       -0.06817326 -0.046418883 0.060611725 -0.100415505
0000e0 f1 2c 6d 3d 5b 85 e6 bd 06 f2 b8 3d 27 4a 72 3d
       0.057904188 -0.11255904 0.09030537 0.05915275
0000f0 a4 d4 eb 3d c1 db 12 3e e3 16 a6 bd 5b 6c 8b 3d
       0.11515167 0.14341642 -0.08109834 0.068077765
000100 1e 36 1a 3e 06 fa d0 bd 3a 3b 91 bd e7 0e db bd
       0.15059707 -0.10203938 -0.07091375 -0.10696202
000110 c9 29 0f be fa c0 5a bd a5 4d 89 3c 77 e1 c8 bd
       -0.13980784 -0.053406693 0.016760657 -0.09808629
000120 8b e6 88 bd c0 ad be 3d e8 1c e8 3d e8 a8 3b 3e
       -0.066845976 0.09310484 0.113336384 0.18326151
000130 c2 9c 28 be 72 85 cc 3d 9b ce 90 3d b4 8d 60 bd
       -0.16466048 0.0998639 0.07070657 -0.05482264
000140 2b 2b 6f bc 23 4a 87 bd b9 95 7a bd f3 f5 fe bd
       -0.014597694 -0.06605937 -0.061177943 -0.12449255
000150 1f c4 c7 bd 38 ee 24 3d f4 fb e5 3d 0e 5e 56 bc
       -0.09754204 0.040266246 0.11229697 -0.013083948
000160 17 58 89 bd 54 79 bd bd 32 dc 88 3d 03 50 d3 bd
       -0.06706255 -0.09251657 0.06682624 -0.103179954
000170 43 ef 9d bd 6f 34 c2 bd 53 72 e7 3d 91 ae 1c be
       -0.07711651 -0.09482657 0.113011025 -0.15300967
000180 b5 1a 6e bd e2 f9 8a bd f6 e2 ef bd 52 e4 c7 3d
       -0.05813094 -0.067859426 -0.11713211 0.097603455
000190 3b 31 cb 3d ee c1 10 be 5d 43 c5 3d 86 d0 85 3d
       0.09921499 -0.14136478 0.09631989 0.06533913
0001a0 d1 60 b2 bd be b8 d0 bd 5d 4a fc bd c4 d4 e1 bd
       -0.087098725 -0.10191487 -0.12318871 -0.1102691
0001b0 f1 e0 0e 3e 2e 0d 8e 3d cd 11 03 3e 2b 97 c0 bd
       0.13952996 0.069361076 0.12799759 -0.09403833
0001c0 3e 3d c2 3d 38 e9 e4 bd 48 f2 05 3e 5f af d7 bd
       0.09484337 -0.111772954 0.13080704 -0.10531496
0001d0 8a fd d9 3d db 1e 13 3e 73 b6 b2 3d 06 32 f6 3d
       0.10644062 0.14367239 0.08726206 0.1202126
0001e0 5d fc 21 3e 2d 7d c9 bd dc b9 40 3d 14 57 82 3d
       0.15818925 -0.098383285 0.04705225 0.06364265
0001f0 21 98 ea 3d 35 11 24 3e 57 09 06 be 53 54 1f be
       0.114547975 0.16022189 -0.130895 -0.15559511
000200 82 92 91 3d 56 5d 06 be b3 28 21 3d e3 60 3f 3d
       0.07108022 -0.13121542 0.039345454 0.046723258
000210 07 b0 a7 bb 8a 8a 5e 3d ab a9 e4 bd da de 89 3d
       -0.0051174196 0.05433134 -0.11165174 0.06731959
000220 41 8b 25 3e f3 2d 2a bd d2 42 db 3c 35 90 0d 3d
       0.16166402 -0.041547727 0.02676526 0.034561355
000230 89 8d ea ba 93 cb 38 3d 49 16 83 bd 32 f8 4c bd
       -0.0017894964 0.04511602 -0.06400735 -0.050041385
000240 9d 14 dd bd 4b 61 d9 3c e9 83 1f 3d 3c 6c 14 3e
       -0.10794947 0.02653565 0.03894416 0.14494413
000250 cd 6c 96 be 2f 47 d6 3d ed ee dd 3c 7d cc 7d be
       -0.29379883 0.10462796 0.027091468 -0.24785037
000260 40 aa c5 bd b3 2c 48 bd 21 ad 08 bd 54 7d 1f 3e
       -0.09651613 -0.048870753 -0.033368234 0.15575153
000270 27 88 78 3d f6 00 26 3d 21 ed 64 3e d4 b6 90 3d
       0.06067672 0.04052826 0.22356082 0.07066122
000280 a3 99 54 be de c7 89 bd 95 5e 9a 3e da c2 5d 3d
       -0.20761733 -0.06727575 0.30150285 0.054140903
000290 fc 38 e8 3b 56 45 02 3d 54 92 50 bc 9e 8c 3c bd
       0.007086871 0.031804405 -0.0127302 -0.04603254
0002a0 4a 17 5f 3d 5d ad a2 3d e2 92 d6 3c 1f 57 5e bd
       0.05446557 0.07943223 0.026193086 -0.054282304
0002b0 2e e6 c9 bd 22 e6 d5 bc ab aa f6 bc db 44 90 bd
       -0.098583564 -0.026110712 -0.030110678 -0.07044383
0002c0 52 a6 5b bc 13 ea e0 bd 9a d8 71 be dd 64 67 3c
       -0.013406353 -0.10982146 -0.23617783 0.014123169
0002d0 7e 6e b4 3c 91 5a 2d 3c 8b 41 3a bd 5a c6 26 3c
       0.022025343 0.010580675 -0.045472663 0.010179127
0002e0 d5 94 e6 bb 12 dd ee 3d 20 b7 56 bd 9a 38 15 bd
       -0.007036785 0.116632596 -0.052420735 -0.036430933
0002f0 3b 80 1e bd b1 b0 75 be ca 96 f9 3c b6 f1 7c bd
       -0.03869651 -0.23993184 0.03046741 -0.06175395
000300 e0 00 52 be 55 92 3b 3d 6c af 49 3d 9d 24 df 3c
       -0.20508146 0.04579385 0.04923956 0.027239138
000310 d8 ef 83 3e bf 89 50 3d 1b ef a2 3d c2 d7 ea 3c
       0.25768924 0.050912615 0.07955762 0.028667334
000320 fc f2 ee 3c c4 d2 32 bc 68 38 1c bd 39 fb 7d bd
       0.029168598 -0.010914508 -0.03813973 -0.062007163
000330 33 8e 73 3e 42 b1 f8 bc 4f 20 12 bd 0e 96 d7 3c
       0.23784713 -0.03035796 -0.035675343 0.026316669
000340 e8 26 79 3c 0b ea 3e 3c 81 7b ad 3c 5d b3 35 3e
       0.01520703 0.01165248 0.021177055 0.17744203
000350 90 25 3c 3d 06 ec fb b8 6f aa e4 bd ec 5e d4 ba
       0.04593426 -0.000120125755 -0.1116532 -0.0016202605
000360 81 31 ca 3d fe 25 87 3d 05 8d e7 bc 38 f8 fb 3c
       0.09872723 0.06599043 -0.028265486 0.030758008
000370 14 30 d2 3c 00 b5 54 3d 20 3b 76 bd a4 1a 80 3d
       0.025657691 0.051930428 -0.06011498 0.06255081
000380 d6 ba bf 3c fa 1c 42 3d 9e 79 06 3e f5 4f b2 bd
       0.02340452 0.047390915 0.13132331 -0.08706657
000390 e5 c4 2e bd 88 b0 3f 3e 6d 92 80 bd 96 c9 86 3b
       -0.042668242 0.18719685 -0.062779285 0.0041133864
0003a0 f9 c6 e2 3c 7c 61 e8 3c 66 fa 85 3d 46 bf 18 3d
       0.027682768 0.028366797 0.065419 0.037291788
0003b0 97 5f 5c be 4a 26 68 bb 72 da ac bd 55 c9 65 3d
       -0.2152084 -0.0035423213 -0.08440103 0.05610021
0003c0 5a c7 45 bd b2 11 26 3d 0e cb 9b bd df 82 38 3d
       -0.04828582 0.04054422 -0.07607089 0.045046683
0003d0 5a 6b 69 bd 4b b0 13 be 24 7f 92 bd dd fe 9c bd
       -0.056987144 -0.14422719 -0.071531564 -0.07665799
0003e0 76 29 60 be bd 8b 19 3d 9c 27 f7 ba fc 4a 84 3d
       -0.21890816 0.03748678 -0.0018856409 0.06459615
0003f0 92 9f ca bd 5f 2c 48 be 0c 02 60 3d 89 13 71 3e
       -0.09893717 -0.19548176 0.054689452 0.23542608

pointer.gru.weight_ih_l0 f4 [384, 128]
000000 03 e2 f4 bc 62 2d 15 bd 5d 21 8b bd 1c 92 10 bd
       -0.029892927 -0.036420234 -0.06793473 -0.03529559
000010 b3 22 b0 bc 80 0f c2 bd c9 c6 62 3d 81 d0 8f 3d
       -0.02150092 -0.09475613 0.055365358 0.07022191
000020 f3 9c e8 bd c6 02 fe bd 31 92 01 3e f7 d5 22 3c
       -0.11358061 -0.12402873 0.12653424 0.0099387085
000030 ae 4e 66 bd b6 6d 92 bd 81 bf 32 3d 7e f6 8c bd
       -0.05622738 -0.07149832 0.043639664 -0.06882952
000040 1e 02 39 bd 02 ef 9c 3d 64 f3 da 3d 85 90 30 bd
       -0.045168035 0.076627746 0.10690954 -0.043106575
000050 2b dc 1e bc 60 8f d5 3c e7 9b e6 bd dd 3b ae 3a
       -0.009696047 0.026069343 -0.11260205 0.0013292987
000060 3a e6 80 bd 63 b3 e7 3d 3c 94 61 3c 96 54 45 3d
       -0.06293912 0.11313512 0.013768252 0.04817637
000070 2c e9 16 bc 56 1b c6 bd 03 11 a8 3b cb f9 67 bd
       -0.009210866 -0.09673183 0.005128981 -0.056634706
000080 9b 9b 8a 3d 45 5f f8 3c 8c c8 dd bd 82 4f b8 bd
       0.06767961 0.030318866 -0.10829267 -0.0899954
000090 1e 20 01 3e 8d 19 f1 bd fd 62 0f 3d da 68 ee 3c
       0.12609908 -0.117724515 0.035006512 0.029102731
0000a0 97 39 61 bd f4 96 53 bd 02 73 59 3d 87 77 17 3d
       -0.054986563 -0.051657632 0.053088196 0.036979225
0000b0 ee 4a 03 3e 2c 34 93 3d 25 04 90 3d 23 e6 b0 bd
       0.12821552 0.07187685 0.070320405 -0.08637645
0000c0 b7 32 27 bd 53 d0 00 be 4c 1a 9a 3d f2 93 76 3d
       -0.04081985 -0.1257947 0.07524547 0.060199685
0000d0 f6 30 38 bc ac 9f 99 bd d1 e0 f3 bc b9 1c e3 3d
       -0.011242142 -0.07501158 -0.029770287 0.11089463
0000e0 8d 9a df 3d 79 4f 8c 3d bd 0b c9 bd b7 11 52 bd
       0.1091815 0.06851096 -0.09816692 -0.051286425
0000f0 65 5f bb 3c 35 ff d8 bc 65 c9 d5 bc fb 27 df 3b
       0.022872636 -0.02648888 -0.026097009 0.006810186
000100 1b 62 8f bd 0d b1 a3 bd 2d 8c 1a bc cc 00 45 bd
       -0.07001134 -0.07992754 -0.009432835 -0.048096463
000110 03 c8 58 3d fd 04 13 bd c3 87 4c bd cf 42 cc 3c
       0.05292512 -0.03589343 -0.04993416 0.0249342
000120 34 1f 4b 3d 56 11 89 bc c1 f0 08 be 0d 07 09 3d
       0.049590304 -0.0167319 -0.1337309 0.03345399
000130 9e 72 80 3d 1f 55 40 bd 60 a6 7b 3c 4e 5e a1 3d
       0.062718615 -0.046956178 0.015359491 0.07879315
000140 92 84 6d bd ec 17 ac 3d c4 f2 28 3d 3d 82 bc bd
       -0.057987757 0.08403 0.041247144 -0.092045285
000150 be 87 5d 3d 39 63 31 bc ee df 0c bc 75 c5 d6 bb
       0.054084532 -0.010826879 -0.008598311 -0.0065543004
000160 4f 3e 5e 3d 1e 97 f8 bd e6 f9 13 3d 09 e8 38 bd
       0.05425864 -0.12138198 0.036126994 -0.04514316
000170 f4 9e 8d bd a1 a3 88 bd 1f c0 04 bd 2c 54 2b bc
       -0.069150835 -0.06671835 -0.032409783 -0.01045708
000180 6a d4 aa bd 33 e4 28 bd 65 9d 51 3b fe 62 3b 3d
       -0.08341296 -0.041233253 0.0031984684 0.045748703
000190 7d 26 cd bd 39 f4 62 bd 1e 2c f7 bd 47 b0 91 bd
       -0.10017107 -0.05540869 -0.120689616 -0.071137
0001a0 84 84 10 3d f7 42 a8 3d 50 95 89 3d 42 6e 05 bd
       0.035282627 0.082158975 0.06717932 -0.032575853
0001b0 bb de d5 3d 55 4d bd bc b2 7b a1 bd 08 b8 54 bd
       0.10442873 -0.023108164 -0.07884921 -0.05193332
0001c0 e1 14 89 3d 23 3d 04 be df 74 d7 bd e3 8d 44 bb
       0.066934355 -0.12913947 -0.10520338 -0.0029991798
0001d0 bb be 8c bd d7 0b 08 3d 85 73 a2 3d ac f3 23 bd
       -0.068723164 0.033214416 0.0793219 -0.040027305
0001e0 d4 f6 64 3b 62 04 bc bd f3 9d d6 3d 62 c4 8a 3d
       0.003493716 -0.091805235 0.10479345 0.06775738
0001f0 50 b2 45 3d 10 6a 63 bd 38 01 f0 ba b5 2c f3 bc
       0.048265755 -0.05552107 -0.001831091 -0.029684404
000200 aa 97 53 bd 2e 17 74 3d 62 80 19 3d e4 72 88 bd
       -0.05165831 0.05959242 0.03747595 -0.06662539
000210 4f 63 c1 ba ce b1 33 3d 36 32 c0 bd 04 80 bf bd
       -0.0014754328 0.04387074 -0.09384577 -0.09350589
000220 1a 60 16 bd 9b 35 b5 3d a8 89 41 3c 31 43 f9 3d
       -0.036712743 0.08848115 0.011812605 0.12171019
000230 ab af 21 3d 6b e3 32 bd 06 af d2 3d 76 99 64 bd
       0.03947417 -0.043673914 0.10287289 -0.055810414
000240 82 40 00 3e 3a 7f e9 3d 0a ce 82 bd 66 66 00 bd
       0.12524608 0.1140122 -0.06386955 -0.031347655
000250 00 b1 b1 bd 08 ba ae bd b6 b6 e0 3d 1e 55 ad 3d
       -0.08676338 -0.085315764 0.10972349 0.084635004
000260 b6 84 51 3d 6f f9 b4 3b 78 47 98 3c 24 dc 29 3d
       0.051151954 0.005522899 0.018588766 0.041469708
000270 34 9c 82 bd 55 38 0a bc 07 7c c1 bc db 44 36 bd
       -0.0637745 -0.008436282 -0.023618711 -0.04449926
000280 c2 dd e7 bd d2 8e 8d bd bd 05 ad bd 4c 08 6c bd
       -0.11321594 -0.069120064 -0.0844836 -0.0576251
000290 be 65 9b bc 90 49 3b bc 95 15 8d bd 61 37 aa bd
       -0.018969413 -0.011431113 -0.06888882 -0.08311344
0002a0 53 be 9e 3d de f2 2c 3d 99 73 a2 bd 38 52 a0 bd
       0.07751145 0.042223804 -0.07932205 -0.07828182
0002b0 6c b1 95 3c e6 18 81 bd c5 96 97 bd 0f 41 63 3d
       0.018273078 -0.06303577 -0.07401804 0.055481967
0002c0 bc 9d 8f 3d 3e 99 c6 3d ec 04 83 bd 40 66 bb 3c
       0.07012507 0.096971974 -0.06397423 0.022875905
0002d0 ea af 37 bd 4a 45 89 3c 3e c6 1d bd 24 64 d5 bd
       -0.0448455 0.016756672 -0.038519137 -0.10419491
0002e0 79 6a 1b 3d da 1c dc bc 12 58 cf bc 9d 3a 36 bd
       0.037943337 -0.026869226 -0.02531055 -0.04448949
0002f0 fd 68 f5 bd 2b 9d f7 3b 7d d0 2a 3d 3d 07 8f bd
       -0.119829156 0.0075565777 0.041702736 -0.069838025
000300 9c 6c 2e bd 7e c2 9a bd e2 ee 8f 3d 85 1b 1e 3c
       -0.042584047 -0.07556628 0.07027985 0.009650116
000310 7d b6 69 bd 71 ff 57 bd 25 cb d6 bd ba d1 c3 3c
       -0.0570588 -0.052733842 -0.104879655 0.023903716
000320 e8 44 91 3c 32 12 aa 3d ef c4 67 bd ee a4 ce 3d
       0.017733052 0.08304252 -0.056584295 0.100900516
000330 e5 8a 74 bd 89 fb ae bd d1 bc 39 3d fb 4d f7 3c
       -0.059702773 -0.0854407 0.045346085 0.030188551
000340 7b 36 38 3c b6 96 e5 bc 94 f3 70 bc 1e 38 bf bc
       0.011243458 -0.028025966 -0.014706511 -0.023342188
000350 24 36 f8 3d 8b 40 a2 bd 28 47 f3 bb 44 c6 ae bc
       0.121197015 -0.07922467 -0.007424254 -0.021334775
000360 a6 75 08 3d 61 2a 41 3d dd f0 07 bc 1f 7e 1f bd
       0.033315323 0.047159556 -0.008297172 -0.038938638
000370 0d c0 fd 3d 42 2a d7 bc f4 d9 26 bd 2d 8e 7f bd
       0.123901464 -0.026265267 -0.0407352 -0.06239145
000380 75 e7 72 3c 64 19 81 bc a9 4c 96 3d 90 64 ed bc
       0.0148256915 -0.015759178 0.073388405 -0.028978616
000390 3f 8c 16 3d 38 65 38 bb 7d fd 2f bd aa a0 45 bd
       0.036754843 -0.0028136503 -0.042966355 -0.048248924
0003a0 40 a5 cb bd 89 db 7c bd 4f 07 af b8 4d 93 90 3d
       -0.09943628 -0.061732803 -8.3460116e-05 0.070593454
0003b0 ef 1f fd 3c 6e cb c4 3c 51 a1 3c bd 71 21 7a 3d
       0.030899016 0.024022784 -0.04605228 0.06106705
0003c0 9e 29 e7 3d ca 6e 47 bd 3e c8 81 bd 1c 8d 88 bc
       0.11287235 -0.04868964 -0.06337021 -0.016668849
0003d0 56 43 58 bc 37 e7 e0 bd c4 50 3f 3c d6 1e 69 bd
       -0.013199648 -0.10981601 0.011676971 -0.056914173
0003e0 57 31 6d bd b8 2d cd bc 5a 34 84 bd 4a e1 2b bc
       -0.057908382 -0.025046214 -0.06455298 -0.010490725
0003f0 63 27 9f 3d 19 f1 94 bd 14 ab e3 bd f2 27 81 bd
       0.07771184 -0.07272548 -0.11116615 -0.06306447
