Task assignment/drl4vrp/vrp/10/19_07_57.994352/checkpoints/17/critic.pt (torch, 29011 bytes, 9 tensors)

static_encoder.conv.weight f4 [128, 2, 1]
000000 ff 63 17 3e 9c 8f 4f be 07 a6 1f 3e 2e 36 5f 3e
       0.14784239 -0.20269626 0.15590678 0.21798012
000010 50 2d 02 be 9d 21 8f bd 01 22 bf 3d fe ed 1a 3e
       -0.12712598 -0.06988833 0.093326576 0.1512985
000020 33 a4 02 3e 8b d3 45 3e df 51 57 3e b5 5c 63 be
       0.1275795 0.19318978 0.21027325 -0.22203334
000030 26 49 03 be c0 19 48 be ce 33 05 be 64 0b de 3d
       -0.12820873 -0.19541073 -0.13008043 0.10842016
000040 1c 3b a7 3d c4 4f 55 3e 03 8a 0a be 9d ea 98 3d
       0.08165571 0.2083121 -0.1352921 0.07466624
000050 b4 38 11 be 1a 98 05 bd 6d 4b cd 3d eb 83 d2 3d
       -0.14181787 -0.03261576 0.10024152 0.102790676
000060 b7 60 af 3d f4 a5 fe bd 74 d5 4c be 2d d7 45 be
       0.08563369 -0.12433997 -0.20003301 -0.19320364
000070 f5 17 2d be 63 3b 9f 3d f3 3d 0d be b8 d0 89 3d
       -0.1690367 0.07774999 -0.13793163 0.06729263
000080 d5 3b f0 3c ce cb 12 3e 58 c8 1c 3e 4b 0d 40 3e
       0.029325405 0.14335558 0.153108 0.18755071
000090 ab 79 fb bd 95 9c 51 3e 21 6c 38 3e d2 9e 1a be
       -0.12279066 0.20469888 0.18009998 -0.15099648
0000a0 ca 19 28 3e d9 8b 04 be 60 92 2d 3e 67 e6 03 be
       0.16416088 -0.12943973 0.16950369 -0.1288086
0000b0 ba b1 56 bd 2a f7 0c be d2 db 20 3d f7 4f f5 bc
       -0.052415587 -0.1376616 0.039272137 -0.029945357
0000c0 ab 08 39 be c1 39 32 3e db 66 a6 bd 7c 14 35 be
       -0.18069713 0.17404844 -0.08125087 -0.17683595
0000d0 56 c8 e5 bd 6d 50 2b be 1f d3 0f be e1 4c 42 be
       -0.11219852 -0.16729899 -0.1404538 -0.1897464
0000e0 4f c2 15 3e 26 0b be bd 50 09 bb 3d 92 b4 c3 3d
       0.14624904 -0.0927947 0.091326356 0.095559254
0000f0 ac d1 b6 3d 05 aa cb 3d d6 01 27 bd d9 a1 b0 bc
       0.089267105 0.09944538 -0.040773235 -0.02156155
000100 b0 75 fc bc 5f 36 1f 3a ef cc 4b be 0d 30 d6 bd
       -0.030817837 0.00060734706 -0.19902395 -0.10458384
000110 0e 88 2b bd d8 a7 98 bc 52 97 08 3e d2 59 5e 3c
       -0.0418778 -0.018634722 0.13338974 0.0135712195
000120 f1 6b 43 be 97 64 42 3e d8 a0 a0 3d 28 13 02 be
       -0.19084145 0.18983684 0.078431785 -0.1270262
000130 06 bf a2 bd b7 9f 2c 3a a4 32 5c 3e 5e ae 02 be
       -0.07946591 0.00065850787 0.21503693 -0.12761828
000140 b5 ec 8f bc f4 d1 df bc 80 85 57 be 91 9e 83 3d
       -0.017568925 -0.027321793 -0.2104702 0.064267285
000150 f3 49 66 bc 71 16 c8 3d f9 6f c1 3d b4 89 f8 bc
       -0.014055717 0.09769905 0.09445185 -0.0303391
000160 97 59 38 be ac b4 16 3d 60 ff 3a 3e 5a f6 07 3e
       -0.18002926 0.036793396 0.1826148 0.1327757
000170 0b 33 b0 bd ca e2 21 3e e8 35 3d bd ed eb 2d be
       -0.08603486 0.1580917 -0.046193987 -0.1698453
000180 6f 00 44 bc c7 53 bd bc f2 ef f6 bd 4c 9e 1f be
       -0.011962994 -0.023111237 -0.12057485 -0.15587729
000190 4a 64 05 be f3 28 b5 bd ec b6 51 bd b9 51 ab 3d
       -0.13026538 -0.08845701 -0.05119984 0.08365197
0001a0 71 fa 03 be dc cb 44 3e a7 a7 13 be 22 bc 28 bd
       -0.12888505 0.19218391 -0.14419423 -0.041195042
0001b0 e6 52 25 3d ab c2 0a 3d 30 95 c9 3c 05 0a c9 bc
       0.04036226 0.033877056 0.024607271 -0.02454091
0001c0 bc 70 a2 3d 47 8f 7c 3d 2e 5c f9 3d 80 c0 fb 3c
       0.079316586 0.061660077 0.12175785 0.03073144
0001d0 39 19 4e be b1 b3 f9 bd d3 28 1f 3d 18 e4 52 3e
       -0.20126809 -0.121924765 0.038857292 0.20594823
0001e0 b1 a9 47 be 8d 7b b5 bd 12 e6 8e 3d 1a 5f 00 3e
       -0.19498326 -0.08861456 0.06977476 0.12536278
0001f0 dd dc 1e 3d ed 20 1f 3e 08 2d 90 3c 5f 63 08 3e
       0.03878485 0.15539904 0.017599598 0.13319157
000200 45 0d 42 be 3a 00 21 be a0 20 6e bd 4e 4b ad 3d
       -0.18950374 -0.15722743 -0.058136582 0.08461629
000210 77 10 39 bd ad 2e b6 bd 79 70 e2 bd 26 7b 59 be
       -0.045181718 -0.088956214 -0.11056609 -0.21238384
000220 62 d4 20 3e c8 e9 9e 3d 6e 50 d2 bd 74 16 cc bd
       0.15706018 0.07759434 -0.10269247 -0.0996522
000230 55 cb 48 3d e9 24 49 3e 14 f7 95 3d ed 8d a0 3c
       0.049022038 0.19642986 0.07322517 0.019598925
000240 14 9f 25 3e 3b 4d 42 be 61 aa 41 bd e5 a8 5b 3e
       0.16173965 -0.18974774 -0.047281627 0.21451147
000250 84 5d f0 bd b7 e2 0a 3e fc 0a 70 bd 8b ae 90 bd
       -0.11736587 0.13563047 -0.058604226 -0.070645414
000260 61 ad 92 3c 52 19 89 3c 8c 42 56 3e 2c b6 62 bd
       0.01790494 0.016735706 0.20923823 -0.055349514
000270 cc 63 9c 3d 78 f6 fd bb ff c3 84 bd 14 a7 65 3e
       0.07636222 -0.0077503286 -0.06482696 0.22427016
000280 5a fc 42 be 2f a6 a4 bd 59 e2 1f be 5f c2 d2 3b
       -0.19041577 -0.080395095 -0.15613689 0.0064318622
000290 61 62 4c 3e 3b e9 00 3e e0 d8 22 3d 22 36 a4 bd
       0.19959404 0.1258897 0.03975761 -0.080181375
0002a0 b6 9e b3 3d 37 f0 13 bd 8d ca 77 bd 41 bd 1d 3e
       0.08770506 -0.03611776 -0.0604959 0.15404226
0002b0 b7 06 00 3e 19 4e fc 3d 42 00 57 3e 6d 87 0d 3e
       0.12502562 0.123195834 0.20996192 0.13821192
0002c0 dd 86 ff 3d f5 bb 33 3e 75 b3 03 3e 26 aa 68 bd
       0.12476895 0.17552169 0.12861426 -0.05680289
0002d0 20 a4 b3 3d e1 f6 21 be 89 9d 98 3d a5 7d 4b 3d
       0.08771539 -0.15816833 0.074519224 0.04968037
0002e0 36 64 15 3e 61 c9 81 bd 74 d1 8e bd 48 12 1a be
       0.14589009 -0.06337238 -0.06973544 -0.15046036
0002f0 77 c4 c4 3d 35 b3 3e be df 3e ed bd ac 39 41 3d
       0.09607785 -0.1862305 -0.11584257 0.04717414
000300 66 f8 53 be 8d 11 54 3e 59 a7 c3 3d b6 52 9a 3d
       -0.20700225 0.2070982 0.095534034 0.07535307
000310 bb 96 53 3e 70 4a 40 be 26 5b 25 be 5e f2 3c 3d
       0.20662968 -0.18778396 -0.16148052 0.046129577
000320 9b 45 12 3e 48 3f fa 3d 88 80 59 3d fb 70 16 3e
       0.14284365 0.12219101 0.053101093 0.14691536
000330 44 79 6a 3e 50 0b 2a be 95 09 6f 3d 9a 34 3f 3e
       0.22897822 -0.16605878 0.058358748 0.1867241
000340 77 54 89 3d 6b ca 59 be e9 c7 48 3e 50 fc ae bd
       0.067055635 -0.21268623 0.1960751 -0.085442185
000350 19 cc 81 3d f8 a2 b0 bc 7a ef 15 3e da b7 a2 bd
       0.06337757 -0.021562085 0.14642134 -0.07945223
000360 ff d3 15 3e 35 e2 1b be 9a 10 fd bd a9 a8 dc bd
       0.14631651 -0.1522301 -0.12356682 -0.10774357
000370 20 90 fe 3d 99 00 23 3e c8 8d 42 3e 0d 4a 28 be
       0.124298334 0.15918197 0.18999398 -0.16434498
000380 32 5f 74 3d 10 ac 0b bd c9 db 42 bd 7b b9 3a be
       0.059661098 -0.03409964 -0.047572885 -0.18234818
000390 86 9d 96 3a 61 90 36 3e 48 bd ff 3d 9c fc 80 3c
       0.0011491037 0.17828514 0.124872744 0.015745454
0003a0 87 1c 23 bd 4a f4 55 3e 62 2a 31 bc 1f 6d 2e be
       -0.039822128 0.2089397 -0.0108133275 -0.17033814
0003b0 07 c9 06 be 93 a8 04 be bf 14 e7 3d 95 c6 1d 3d
       -0.13162623 -0.12954931 0.11283254 0.03851946
0003c0 43 14 38 be 16 c2 4a 3e 9c 1c 07 be c5 51 11 3e
       -0.17976479 0.198006 -0.13194507 0.14191349
0003d0 66 bf 3c bc ae 08 14 be f7 94 56 3e 28 bd 08 3e
       -0.011520242 -0.14456436 0.20955263 0.13353407
0003e0 5c 00 4a 3d 7c 16 85 bc 3f 56 c5 3c 6e f8 31 3e
       0.04931675 -0.016246073 0.024088977 0.17379925
0003f0 c8 c9 f6 3b f1 30 23 be 1a e5 5a be 8b c7 48 be
       0.0075313784 -0.15936638 -0.21376458 -0.1960737

static_encoder.conv.bias f4 [128]
000000 83 3b d7 3d 20 d1 df be 9d e5 59 be e3 e6 0c be
       0.10509398 -0.43714237 -0.21278997 -0.13759951
000010 be 11 9e 3e 1f a4 6b be 8c 5a a7 3e 7e 54 96 3d
       0.3087291 -0.23011826 0.3268627 0.07340334
000020 d2 e8 dd be 22 f5 7a 3e 5e 03 82 3e 51 7c 30 3f
       -0.4334169 0.24507573 0.25393194 0.6893969
000030 fa a3 e5 3e 68 0d d5 3e 11 57 13 3d 2e 3b 8e be
       0.44851667 0.4161179 0.035971705 -0.27779526
000040 76 4c f0 3e f8 6f 09 3f 33 e8 25 3f 1e 17 e7 3e
       0.46933335 0.53686476 0.6480743 0.45134825
000050 f8 33 a0 3e 55 82 14 3f 8c a8 c3 be 5e e5 c4 be
       0.3128965 0.5801137 -0.3821453 -0.38456243
000060 10 09 0c 3f 22 33 85 3e 2f 6a 6a 3e d3 7b 00 bf
       0.5470133 0.26015574 0.22892068 -0.5018894
000070 58 47 a8 be ed c8 05 3f 3a 38 a3 3e 4d b5 b0 be
       -0.3286693 0.52259713 0.31878835 -0.34513322
000080 4e 73 dc 3e 6e 11 db 3d c3 28 3e be 10 c3 07 3e
       0.4305672 0.10696684 -0.18570237 0.13258004
000090 d9 5e 08 bf f7 78 a1 be 8e 0f fa 3e bb 25 b2 3e
       -0.53269726 -0.315376 0.48839992 0.3479441
0000a0 71 ab 5b 3c 4b 65 c6 3e 60 ca b9 3e 63 e4 75 3e
       0.013407574 0.38749155 0.36287212 0.24012904
0000b0 16 30 ce 3d f6 be 4f bd 9f 8f 25 bf da 58 4f be
       0.100677654 -0.050719224 -0.64672273 -0.20248738
0000c0 7f 36 0a 3f 8b c5 d9 be 41 c8 b9 3e e2 c4 5f 3d
       0.53989404 -0.42533526 0.36285594 0.05463112
0000d0 86 f5 30 bf 2b 3f 7c 3e b9 2c 60 3e 93 7d 8f bd
       -0.6912464 0.24633472 0.2189206 -0.07006373
0000e0 11 91 2f bf b2 7a 09 bf 5a 6f ad 3e 01 8e d2 be
       -0.6858073 -0.53702843 0.33874017 -0.41123965
0000f0 06 88 ac 3e cd 6c 11 3f 6a 73 17 bf 01 82 e5 be
       0.33697528 0.5680664 -0.5916048 -0.44825748
000100 1e c3 1c 3f cf 22 37 bb 77 29 be 3e 8d 11 a8 3d
       0.61235225 -0.0027944332 0.3714101 0.082064725
000110 72 63 9b be 0f 00 1c bd be c4 03 bf 9e f4 b6 be
       -0.30349308 -0.038085993 -0.5147208 -0.35733503
000120 87 dd ae be 89 ff 81 be 7b aa 1f 3f f3 a2 42 bd
       -0.34153387 -0.2539027 0.6236951 -0.04751868
000130 64 c2 b9 3d 60 75 ba be ef 3c 20 3e 60 3e fe be
       0.0907028 -0.36417675 0.15648244 -0.49656963
000140 09 df 6c bd 0b 62 e7 3d 95 58 3c be d4 34 70 3e
       -0.05782989 0.11297997 -0.18393166 0.23457652
000150 96 a8 19 bf 4a f9 30 3f 7d 00 ef bd b3 cd 17 bf
       -0.60022867 0.69130385 -0.11670015 -0.5929825
000160 df b9 27 bd f7 6a c0 3e 59 b6 43 3e cf 61 29 bf
       -0.040948745 0.37581608 0.19112529 -0.6616487
000170 d1 0e 02 be 6b 03 12 3f 63 60 22 3f 18 ce de be
       -0.12700965 0.57036465 0.63428324 -0.43516612
000180 81 b4 25 bf 87 c8 9f bd 03 e2 d1 3e ba 10 0f 3f
       -0.6472855 -0.078019194 0.40992746 0.558849
000190 24 27 1d 3f ea b0 50 bb 08 f4 25 bf e3 39 cd 3e
       0.6138785 -0.003184373 -0.6482549 0.40083227
0001a0 32 6b 30 bf ab 5c 2f 3e 54 a1 4e 3e 7d d9 03 3e
       -0.6891357 0.17125194 0.2017873 0.12875934
0001b0 46 c7 00 3f 39 fd dc be af 89 31 3f e5 82 1c bf
       0.5030407 -0.43161944 0.69350713 -0.6113723
0001c0 d4 e2 1d 3f 3b 22 9f be 2c e0 00 be ed 49 f8 3d
       0.6167424 -0.31080803 -0.12585515 0.12123475
0001d0 53 e5 f8 3e b3 63 dc be 60 08 e8 bc fc d0 b2 3e
       0.4861246 -0.43044814 -0.028324306 0.34925067
0001e0 ec 38 a0 3d 00 8a 04 be 99 7d 20 3f 56 d1 bc 3e
       0.07823357 -0.12943268 0.62691647 0.3687846
0001f0 a1 ea d9 3e fd 1d b3 3e c0 d3 10 bf 39 df 88 bd
       0.4256182 0.34983817 -0.56573105 -0.06683201

dynamic_encoder.conv.weight f4 [128, 2, 1]
000000 5b 56 32 3e 54 b8 70 be 27 0c ff bb 9f 6f 25 3e
       0.17415754 -0.23507816 -0.007783431 0.16155861
000010 4c f4 64 3d 39 48 3a be 45 3a ac 3d ab f3 cb 3d
       0.055897042 -0.18191613 0.084095515 0.09958585
000020 da c3 09 3e 8e 61 65 be 6e 1d ee 3d c4 ba ff 3d
       0.13453618 -0.22400495 0.11626707 0.124867946
000030 5e 05 7f 3d 03 80 05 3e 81 c4 9e bd 09 ce 97 3e
       0.062260978 0.13037114 -0.07752324 0.2964938
000040 fc c0 a6 3c 01 39 84 3e 2f f3 a5 bd c2 46 3b 3e
       0.020355694 0.2582474 -0.08103024 0.1828871
000050 fa db 0c be 4d fc 89 be 00 18 33 be 3b 67 7e be
       -0.1375579 -0.26950303 -0.17489624 -0.24844067
000060 f8 aa 77 3d 97 f0 42 3e 8e 27 2d be 46 62 5c 3e
       0.060465783 0.1903709 -0.1690962 0.21521863
000070 ba fd 22 be e1 22 01 3e fe b3 14 3e d1 5e de bd
       -0.15917102 0.12610961 0.14521787 -0.108579285
000080 6d 09 07 3e 48 3a fb 3d 65 c4 f1 3d 69 15 ee bd
       0.1318719 0.12266976 0.118050374 -0.116251774
000090 54 be 49 be 73 12 8f 3e d9 1a 9a bd c6 b2 85 be
       -0.1970151 0.27943763 -0.07524652 -0.26112956
0000a0 ee 6a c9 bd 10 24 30 3d eb ed 0e 3e 16 f5 4c 3e
       -0.09834848 0.043003142 0.13957946 0.20015368
0000b0 7d 87 5c 3a b1 af 7a bd 02 60 86 bd 1d de 7c be
       0.00084125233 -0.06120271 -0.06561281 -0.24694104
0000c0 3c 58 c6 3d e7 68 53 bd 4c 5f 03 be 29 ad 06 be
       0.09684798 -0.051613715 -0.12829322 -0.13151993
0000d0 0b b9 87 3d f7 c1 9b 3e 9e 41 58 3c 8a 3b 4f be
       0.06627091 0.3042142 0.013199238 -0.20237556
0000e0 ef 13 20 3e 20 8b 07 bd 71 6c 2d 3e 3e f3 44 3d
       0.15632604 -0.033091664 0.16935898 0.048083536
0000f0 ee fc a0 bd 1a 68 cf 3d 86 4d 86 bd d2 63 83 be
       -0.078607425 0.10127278 -0.06557755 -0.25662094
000100 21 74 2a 3e 9c 9b 09 3d cf fb 28 3e b6 27 13 be
       0.16645862 0.033595666 0.16502307 -0.14370617
000110 a8 89 3f be c9 01 33 bd 79 8b 08 bb c7 d7 11 3e
       -0.18704855 -0.043702874 -0.0020835085 0.14242469
000120 d1 96 2a 3e 39 2f 78 bd a1 49 d0 3b de 24 0e 3e
       0.16659094 -0.06059191 0.0063564335 0.13881251
000130 62 b6 80 bd 81 38 98 3e db 00 76 bd 54 46 5c bd
       -0.06284787 0.2973061 -0.06005941 -0.053778008
000140 cb 95 d1 bd 7b 63 6d 3e 93 07 42 3e af 1d 1f 3e
       -0.10233649 0.2318248 0.18948202 0.15538667
000150 83 f3 26 be 7e ac ca 3d 83 a9 3f 3e 0d 18 7c 3d
       -0.1630383 0.098961815 0.18717007 0.061546374
000160 63 62 24 be de f7 7b 3e 91 97 07 be e1 af 8b be
       -0.16053157 0.24606273 -0.13241412 -0.27282622
000170 5c 1c f9 3d 35 84 48 bd c3 1c 1f 3e b1 20 04 be
       0.12163612 -0.048954207 0.15538315 -0.12903096
000180 c9 87 97 3c 82 28 97 3d 9a e4 2d 3e 3c 37 85 be
       0.018497365 0.07380773 0.16981736 -0.26018703
000190 1d 09 1a bd 8c b2 54 3e a5 ea 42 be 67 e6 9d bd
       -0.037606347 0.20771235 -0.19034822 -0.077099614
0001a0 17 ec 19 be 79 4e 1c bd 24 c7 08 3e 76 f8 b5 bc
       -0.15031467 -0.038160775 0.13357216 -0.022213202
0001b0 30 6b 4e 3e b7 0d 55 be 37 52 e1 3d 83 f6 42 3d
       0.20158076 -0.20806013 0.11002009 0.047598373
0001c0 28 ef 0d bd 32 07 84 3e 99 e0 49 be c4 8d 70 be
       -0.034651905 0.2578674 -0.19714583 -0.2349158
0001d0 59 69 80 bd 28 31 06 be fd c3 e6 3c d8 fd cb bd
       -0.062700935 -0.13104689 0.028169626 -0.09960526
0001e0 14 10 5d 3e 50 4b 7b 3c 10 88 f8 bb 87 46 2e 3d
       0.21588165 0.01533778 -0.0075845793 0.04254773
0001f0 11 1d 99 bd 4c 02 84 be dc 5c 59 be ce 88 18 be
       -0.07476247 -0.25783002 -0.2122683 -0.14895937
000200 78 71 5f be 7e dd 58 3e 3b 9e 30 be 1e 9c fb bd
       -0.21820629 0.21178243 -0.1724786 -0.12285636
000210 43 c8 b6 3d d8 2e 8e 3e 4d c4 3a 3e ba 13 0f 3e
       0.08924916 0.27770114 0.18238945 0.13972369
000220 75 e1 21 3d 45 e8 bc bc d8 3c 13 3e b2 12 6a 3e
       0.039521653 -0.023059973 0.14378679 0.22858694
000230 48 41 5d 3e 2d cb 89 3d f7 96 38 3e 4e 44 18 be
       0.21606934 0.06728206 0.18026339 -0.14869806
000240 22 60 c5 3d ed 2d 67 3e 3d 5a 6e 3d 93 0e 6e bd
       0.096374765 0.22576113 0.058191527 -0.058119368
000250 b0 87 de 3d 01 56 91 3c 01 d6 cc bc e9 bb 14 be
       0.10865724 0.017741205 -0.025004389 -0.14524807
000260 5c 2a 2b be af fd 2c be bb e8 3b 3e 74 26 03 3e
       -0.16715378 -0.16893648 0.18350498 0.12807637
000270 f4 bd 03 3e 82 4a 93 3e de 63 18 3e 88 97 02 3e
       0.1286543 0.28767782 0.14881846 0.12753117
000280 96 e5 ea bd 92 e0 6a bb 14 ec 18 3e c7 f1 0a be
       -0.11469571 -0.003583942 0.14933807 -0.13568793
000290 0a a9 80 bc 73 0b 79 be 1e 80 36 3d 27 2e c6 bd
       -0.015705604 -0.24320774 0.044555776 -0.096767716
0002a0 a3 0e 4b 3e 93 57 11 be e8 7a bd bd b6 5b 0b 3e
       0.19829802 -0.14193563 -0.09251958 0.13609204
0002b0 d0 a6 0b 3e 20 36 68 be 42 27 23 3e b9 5b 6e be
       0.13637853 -0.22676897 0.15932944 -0.23277177
0002c0 54 24 64 3d 2c 20 06 be c0 77 9d 3d 6a 94 87 3e
       0.055698708 -0.1309821 0.07688856 0.26480418
0002d0 a9 c9 5e be f1 5b 49 be 7c e5 37 bd a7 83 4f 3d
       -0.21756615 -0.19663979 -0.044896588 0.050662663
0002e0 dc 65 35 3e e3 05 3c 3e 74 28 b2 bc 49 b5 3e be
       0.17714638 0.1836162 -0.021747805 -0.18623842
0002f0 73 07 0c 3e 96 43 15 3e 0d b4 21 3d d0 35 49 bd
       0.13674717 0.14576563 0.03947835 -0.049123585
000300 77 24 35 be 8e e5 b0 3c e6 72 91 3c 4c 91 2a bd
       -0.17689691 0.021593835 0.017754983 -0.041642472
000310 e1 a9 a5 bd 15 e8 af bd 76 03 97 bd 10 fb 48 be
       -0.080890425 -0.08589188 -0.07373707 -0.19627023
000320 48 13 14 be 46 4a 0b 3e 07 ab ca bd c4 0e 88 3e
       -0.1446048 0.13602552 -0.09895902 0.26573765
000330 21 9a 14 3e 39 18 59 be a4 90 cc 3d 54 e7 da bd
       0.1451192 -0.21200646 0.099885255 -0.106886536
000340 93 d7 50 be c2 a0 c5 3d a3 cc b0 3d e9 9d ba ba
       -0.20394735 0.09649803 0.08632781 -0.0014237735
000350 95 ca 41 be ea d4 83 be 2f 62 16 3e c9 fb 90 bc
       -0.18924935 -0.25748378 0.14685892 -0.017698186
000360 a3 30 0b bc d6 16 0c be bd 31 f4 bd 87 72 d8 3d
       -0.008495483 -0.13680586 -0.11923549 0.10568719
000370 5c dd bd bd 0d 86 eb 3d 19 d1 af bd 5d 0d 7f bc
       -0.092707366 0.115001775 -0.08584804 -0.015567151
000380 29 94 07 3e ec 3b fb 3d 9c 28 38 be 9d 4e 04 3c
       0.13240112 0.122672886 -0.17984241 0.0080753835
000390 08 76 4b be 2f ea f8 bd bf fc dd 3c f0 aa 20 3e
       -0.19869244 -0.12154042 0.027098058 0.15690207
0003a0 1a 34 52 3d 67 b1 1a bd 5b dc ae bd e6 19 18 3e
       0.05131922 -0.03776684 -0.08538123 0.1485363
0003b0 cb 4f 55 bd 9e 47 a3 bd 6e e7 8c 3b f3 aa 9d be
       -0.05207805 -0.07972644 0.0043000495 -0.30794486
0003c0 0c c5 0c 3e cb 76 8b bd 81 8c 2c 3e 76 2e 75 3e
       0.13747042 -0.06809767 0.16850473 0.23943505
0003d0 f1 38 a4 3d ac 86 7e 3e 3c 0c 3b 3e 93 70 59 3e
       0.08018673 0.2485606 0.18266386 0.2123435
0003e0 99 38 49 be 24 8f 20 bd 48 e1 aa bd 14 4c 71 3d
       -0.19650497 -0.03919901 -0.0834375 0.058910444
0003f0 4d 08 bb 3d be 28 1c be 4d 9c c1 3d 05 f3 19 3e
       0.091324426 -0.15249917 0.0945364 0.15034111

dynamic_encoder.conv.bias f4 [128]
000000 71 a5 6a 3e 9e 8c 21 bf 6e ce 93 3e 09 cc 5f bd
       0.22914673 -0.6310519 0.2886843 -0.054637942
000010 cb 05 cf bd 0b fc b3 3e 3a c4 2a bf 37 d4 9e 3e
       -0.10108527 0.3515323 -0.6670567 0.31021282
000020 c8 f1 75 be 12 42 f7 be e9 90 c2 3e 64 24 14 3e
       -0.24018013 -0.48292595 0.38001183 0.14467007
000030 bf 84 df 3e 31 97 cb 3e 58 98 fe be e4 f9 b0 be
       0.43655965 0.39763787 -0.49725604 -0.3456565
000040 70 79 a4 3d 38 b8 09 bf 32 56 2b bf f5 81 13 3f
       0.08030975 -0.5379672 -0.669284 0.57620174
000050 4f f8 a6 be 30 e6 b8 be 8e fd cf 3e 00 dc 25 bf
       -0.3261132 -0.3611312 0.40623134 -0.6478882
000060 53 52 67 be 27 f2 07 bf b9 93 9c be 9e 90 11 3f
       -0.22589998 -0.5310387 -0.30581453 0.56861293
000070 61 42 d3 3d 85 3e 44 be 4d 81 46 be dc 4c 50 be
       0.10315395 -0.19164474 -0.19385262 -0.2034182
000080 b5 eb 35 3e 5c fc 08 bf c6 71 86 3e e4 9d 9e be
       0.17765696 -0.5351007 0.26258677 -0.30979836
000090 ff 9d 0e 3f ff cc 74 be b6 b2 37 3d 40 5f 1c 3e
       0.5570983 -0.23906325 0.044848166 0.1527071
0000a0 8b 09 2b 3e f0 eb 6e be 35 7b 14 3f 1a 23 ae 3e
       0.16702859 -0.2333219 0.580005 0.34011155
0000b0 e3 2c 19 3f 52 51 8a be 52 83 ca 3e 8b 14 11 bf
       0.59834117 -0.27015167 0.39553314 -0.5667197
0000c0 53 92 54 3e 6e 06 b5 3e c8 42 08 3f 10 65 db be
       0.20758943 0.35356468 0.532269 -0.42850542
0000d0 45 36 b3 be ef 68 1d bf 46 ba 74 be 18 aa ab be
       -0.35002342 -0.6148824 -0.23899183 -0.3352821
0000e0 16 e7 e3 be 98 83 1b bf 65 ab 26 3f 19 69 2c be
       -0.44512242 -0.6074767 0.6510528 -0.16836967
0000f0 6a 26 41 3e 18 de 1f 3f a3 f5 a8 bd f5 1d 86 3e
       0.1886231 0.62448263 -0.082499765 0.2619473
000100 70 7a 88 3e 22 fa f7 3e 7c 6e f2 3e e6 4a ef 3e
       0.26655912 0.48433024 0.47349918 0.4673683
000110 73 1f b0 bd ec f5 25 3f ca 79 28 bf 9a f7 8a be
       -0.085997485 0.6482837 -0.65810835 -0.2714203
000120 83 45 07 3f d9 e9 2d bf 2c 89 21 bf fd 78 30 3f
       0.5284044 -0.6793495 -0.6309993 0.68934613
000130 7a 4a 0f 3e c7 3e ec 3d 45 c3 f1 3e 49 11 98 bd
       0.13993254 0.11535411 0.4721929 -0.07425172
000140 dd d0 13 3f e9 59 02 bf 32 e6 4f be cb d7 eb be
       0.57740575 -0.5091844 -0.20302656 -0.46063074
000150 dd 46 ae bd d6 06 ee 3d 09 83 b0 be 76 13 19 bd
       -0.0850961 0.116223976 -0.34474972 -0.037372075
000160 1d 8e b5 3e 7c de 8f 3e 01 7b 07 3f 1e aa f0 3e
       0.35459986 0.2809943 0.52922064 0.4700479
000170 98 d9 fc bc 87 6c c7 be 6b 66 31 bf bb 52 85 3c
       -0.030865476 -0.38949987 -0.692969 0.0162748
000180 a2 c3 ba 3e 38 0f 9f 3d d2 61 a7 be d2 63 62 3e
       0.3647738 0.077665746 -0.32691818 0.22108391
000190 86 c9 fa 3e 84 2c 8d 3e 2d 02 e8 3d 15 ab 1e 3f
       0.48981875 0.27573025 0.1132854 0.619798
0001a0 b6 97 9a 3d 3a f8 c1 be 8e e7 0d bf d0 30 22 bf
       0.07548468 -0.37884694 -0.5543145 -0.6335573
0001b0 ff 94 e1 be fc a4 a8 3e ca f1 29 bf 39 56 d2 3e
       -0.44058987 0.32938373 -0.66384566 0.41081408
0001c0 83 7a f1 3d 40 9f 78 be 96 58 51 3e 66 a6 1a be
       0.117909454 -0.24279499 0.20443949 -0.15102538
0001d0 8c 9e d4 3e a2 6a 0d bf 03 d3 2b bf d8 77 56 3d
       0.41527212 -0.55240834 -0.67118853 0.052360386
0001e0 88 85 0f bf 38 4c 1e 3f f6 4d 10 bf 45 b8 d9 3e
       -0.5606313 0.6183505 -0.5636896 0.425234
0001f0 f5 f9 b4 be 17 0a a6 be a3 01 f6 bd 52 8c 0d 3e
       -0.35346952 -0.32429573 -0.12012031 0.13823059

fc1.weight f4 [20, 256, 1]
000000 4e 27 12 be d2 9a c7 3d f8 e2 83 3d 8c 47 e2 bd
       -0.14272806 0.097463265 0.06439775 -0.11048803
000010 7e dd d1 3d 9c ac 24 3d 68 72 fc bd e4 49 b2 bd
       0.102473244 0.040203676 -0.12326509 -0.087055
000020 f6 1a d1 3d 20 1e 04 be 86 f3 06 3e 33 fd c0 bd
       0.102102205 -0.12902117 0.13178834 -0.09423294
000030 6c 73 04 3e 09 e2 a3 bd fa 37 0d 3e 44 1e 08 3d
       0.12934655 -0.08002097 0.13790885 0.03323199
000040 00 b4 67 bb 40 b8 e0 bb a2 9c ae bd 56 aa 8f bd
       -0.003535509 -0.006857902 -0.08525969 -0.07014911
000050 4c bd 00 3e 38 5b bb 3d e6 93 b0 3d 12 cb 96 3d
       0.12572211 0.09148258 0.086219594 0.07362951
000060 6a 65 c5 bd be e5 c7 3d 26 ce de bd b4 66 a5 bd
       -0.09638484 0.09760617 -0.108791634 -0.0807623
000070 c0 b7 04 bd 40 98 33 3b 0e 28 28 bd a8 74 81 3d
       -0.0324018 0.002740398 -0.041053824 0.063210785
000080 bc 8c 13 3e 2e 45 a6 3d 20 eb b2 3b ca cb b2 bd
       0.14409155 0.08118664 0.005460158 -0.08730276
000090 55 2f 8a bd 20 6c a1 bb 70 1d 14 3e c3 60 ab bd
       -0.06747309 -0.0049262196 0.14464355 -0.08368065
0000a0 79 ae bc bd 60 75 ef 3d 80 94 12 bb d2 86 ae 3d
       -0.092129655 0.116923094 -0.0022366345 0.08521809
0000b0 bc 89 db bc ca 1b 16 3e 7c bc 55 bd c2 d6 48 bd
       -0.026799075 0.14659038 -0.052181706 -0.049032934
0000c0 f0 a0 cc bd 68 1e ec bc c6 29 c4 bd 6e e1 0b 3e
       -0.09991634 -0.028823093 -0.0957828 0.13660213
0000d0 1c 7e f0 3d a8 c5 f7 bd 3c 2c 13 3d 4c 2f 6f bd
       0.117428035 -0.12098247 0.035930857 -0.058394715
0000e0 2f 19 0a be a0 9e 68 3d 8c 16 fc 3d 14 ec c9 3d
       -0.1348617 0.0567919 0.12308988 0.098594815
0000f0 8c 71 0d 3d b4 2b 07 3e 59 0d 93 bd ac 1c ab bd
       0.034532115 0.13200265 -0.0718028 -0.08355078
000100 5f 82 f6 bd 14 b0 f6 bc 58 2e b3 bc 24 24 46 bd
       -0.12036585 -0.030113257 -0.021872684 -0.04837431
000110 52 92 01 3e a8 94 83 bc 10 2d 71 3d a4 4f e7 3d
       0.12653473 -0.016062096 0.058880866 0.11294487
000120 0c 36 d7 bd ac 34 0a 3d 49 a6 d0 bd 46 52 c9 3d
       -0.105083555 0.033741638 -0.101879664 0.098301455
000130 7c 06 4c bd 3c 9f 08 3e 08 27 ff 3d 80 62 81 ba
       -0.04981087 0.13341993 0.124586165 -0.0009871274
000140 d6 9c 43 bd 2a 6f 77 bd dd ac ea bd 94 90 e7 bc
       -0.047756992 -0.06040875 -0.11458752 -0.028267182
000150 3c 1c f5 3d 58 4f 0f 3e 2a e2 0b be fb 98 16 be
       0.11968276 0.13995111 -0.13660493 -0.14706795
000160 47 5d 01 be 5c f1 51 3d 86 d7 cb 3d 03 28 84 bd
       -0.12633239 0.05125557 0.09953217 -0.06452944
000170 74 d5 ef 3d ec 0f a0 3d 10 63 5a 3d dc 2c d9 bd
       0.11710635 0.07815537 0.05331713 -0.10604259
000180 74 72 c1 3d f2 0b 8d 3d 80 d4 a0 3a d0 6b 55 3d
       0.09445658 0.06887044 0.0012270361 0.05210477
000190 33 a6 ab bd 04 39 78 bd d0 c8 d7 3d 90 39 0b be
       -0.08381309 -0.06060125 0.10536349 -0.13596177
0001a0 c0 cc 0e be 80 e7 ea 3b 62 e5 b0 3d e2 8a b5 3d
       -0.13945293 0.00716871 0.08637501 0.088643804
0001b0 50 0e 4e 3d 50 09 4f 3c dc 92 8c 3d e0 b5 7e bd
       0.05030662 0.012636498 0.06863949 -0.06218517
0001c0 4e c6 43 bd 2c 3f e9 bd c4 1b 02 3e 64 30 6f 3d
       -0.04779654 -0.11389002 0.12705904 0.05839576
0001d0 80 2a 3d 3b 5c 9f c3 3d 42 fa 0a 3e c4 26 87 3d
       0.0028864443 0.0955188 0.13572028 0.06599191
0001e0 9e 73 11 3e 2c ef d8 3d 14 f1 22 3d dc 8c 11 3d
       0.1420426 0.105924934 0.03978069 0.035534725
0001f0 a6 35 9c bd 60 cb 80 bc 86 42 af bd 2a f7 03 be
       -0.0762742 -0.015721977 -0.0855761 -0.12887254
000200 18 dd e0 3c 40 fb 09 bb aa 98 1e bd 1c c3 16 3d
       0.027449176 -0.0021054298 -0.03871981 0.036807165
000210 c0 b4 ca 3c 56 63 08 3e d4 73 7f 3d d8 1a 04 3e
       0.024744391 0.13319144 0.06236632 0.12900865
000220 20 1a 0c 3e 88 d9 9e 3d 10 9d f4 3d 74 e3 f1 bd
       0.13681841 0.077563345 0.1194402 -0.11810961
000230 0c 33 1a 3d fc 4e de 3d 58 c6 0f 3e ae bf 53 bd
       0.03764634 0.10854909 0.14040506 -0.051696472
000240 23 63 e7 bd 74 2d 78 bd 7c a8 10 3e 86 a0 d3 bd
       -0.11298206 -0.060590222 0.14126772 -0.10333352
000250 78 de 53 3d 3c a7 0b 3d 80 ed 90 3a 28 00 bb 3d
       0.051725835 0.034095034 0.0011057109 0.09130889
000260 4c aa 88 3d 9a db 8c 3d c0 8f ce 3c 10 a2 89 3c
       0.066731066 0.06877823 0.02521503 0.01680091
000270 68 c6 b1 bc 08 cf e7 3d cc 4f 06 bd 6c d0 01 be
       -0.021701053 0.11318785 -0.032790944 -0.12677163
000280 64 57 8f 3d 5c 6d db 3d 08 33 95 3c 34 c9 ef bc
       0.0699909 0.10714218 0.01821281 -0.029270746
000290 d0 30 8e 3d 30 9b 0f 3e 40 12 f0 bd 6e 4e 61 bd
       0.06942904 0.14024043 -0.11722231 -0.055006437
0002a0 f0 31 10 bd 48 f5 3d 3d 3a 39 b7 3d ad 52 9a bd
       -0.035203874 0.046376497 0.08946462 -0.075353004
0002b0 87 b3 82 bd 64 00 61 3d e7 94 c5 bd 60 a0 c3 3b
       -0.063818984 0.054932013 -0.096475415 0.005970046
0002c0 38 65 12 3e 04 da 7e 3d 8c bc 0a be 51 41 8e bd
       0.14296424 0.062219635 -0.13548487 -0.06946052
0002d0 c4 a5 0c 3d 40 f7 c1 3c 4a 1d 01 3e 10 4d 8b bc
       0.034337774 0.023677468 0.12608829 -0.01700452
0002e0 bc fe 0a bd 6c 40 10 3e 10 44 a0 bd b4 39 df 3d
       -0.03393434 0.14087075 -0.07825482 0.10899678
0002f0 2f 5a 13 be 00 20 d1 b7 b8 72 8f bc 47 cc d5 bd
       -0.14389871 -2.4929643e-05 -0.017510757 -0.104393534
000300 64 c5 09 3e e0 37 b6 bc 54 4a ff bd b2 15 cc bd
       0.13454205 -0.02224344 -0.12465349 -0.099650756
000310 60 75 8c 3d 48 6f 83 3c 80 d1 63 3b d2 05 d0 3d
       0.06858325 0.016044274 0.0034762323 0.1015736
000320 78 1a fb bd 50 39 00 bd 48 93 b1 3c c6 f3 3e bd
       -0.12260908 -0.031304657 0.021676674 -0.0466192
000330 8a c7 ea bd 40 fe c4 3b b1 84 f7 bd 70 f0 d7 3c
       -0.1146384 0.0060117543 -0.12085856 0.026359767
000340 60 a6 cb 3c 24 f5 2f 3d c0 0e 28 bc 88 50 b5 bc
       0.024859607 0.042958394 -0.010257423 -0.022133127
000350 94 1c ee 3d 3c 48 d7 bd 10 92 0f 3e 5e 33 02 be
       0.116265446 -0.105118245 0.14020562 -0.12714908
000360 92 f4 20 bd c0 a8 97 bc 00 b6 86 3d 0a 47 db bd
       -0.03929574 -0.018513083 0.065776825 -0.10706909
000370 b0 6c ed bd 24 25 cf 3d ae ad 99 bd ca cd 0e bd
       -0.11592996 0.10114506 -0.0750383 -0.034864224
000380 82 1c 12 3e 32 45 10 be e0 86 e2 3d 16 cf f2 bd
       0.14268687 -0.14088896 0.110608816 -0.11855905
000390 c8 de c2 3d 14 c7 16 3e ac bc cd 3d b6 07 40 bd
       0.095151484 0.1472438 0.10045752 -0.046882354
0003a0 53 a0 02 be e0 96 33 3d fe 40 fb bd b8 e6 2d bd
       -0.12756471 0.043845057 -0.12268256 -0.04245636
0003b0 c0 6d ac bb a4 ca a8 3d 45 00 14 be 7e ae 9b bd
       -0.0052621067 0.08241776 -0.14453228 -0.07601641
0003c0 60 d2 4b 3d 58 07 ea 3d af 89 0d be 96 c8 0b be
       0.049761176 0.11427182 -0.13822053 -0.13650736
0003d0 ca cf 89 bd fb 50 80 bd 98 c7 b8 3d 24 3d c9 3d
       -0.06729086 -0.06265446 0.090224445 0.09826115
0003e0 e0 5c 8f bd e9 0e d4 bd 54 e3 e7 bd ac 1a 5c bd
       -0.070001364 -0.103544064 -0.11322656 -0.053736374
0003f0 0c ab 57 3d dc 0f df bc 97 1b 82 bd 6c 6e 74 3d
       0.052653357 -0.027229242 -0.063529186 0.05967562

fc1.bias f4 [20]
000000 64 26 f8 bc 88 04 26 3a 68 66 58 bc d7 4b 32 bd
       -0.030291744 0.00063330727 -0.013208009 -0.043529358
000010 2c 03 89 bc 80 b4 4c bc 16 db 54 bd ee 21 bc bc
       -0.016725145 -0.012494206 -0.05196675 -0.022965398
000020 c6 f1 f4 3c a0 dd c4 bb 24 1d e6 bc 00 13 3d 3d
       0.029900443 -0.006007865 -0.028090067 0.046160698
000030 02 0d 14 bd e1 9a 6b bd 18 c1 18 3c 24 67 f1 bc
       -0.036145218 -0.05752075 0.009323381 -0.029468127
000040 52 86 6e 3d d5 8a 9b bc fe 58 58 3c 90 b9 a5 bc
       0.058233567 -0.018987099 0.013204811 -0.020230085

fc2.weight f4 [20, 20, 1]
000000 40 e0 37 bc b0 75 1c bd 58 0a 60 3e 7d 9e 52 3e
       -0.011222899 -0.038198173 0.21878946 0.20568271
000010 00 d5 af bb d2 a4 4c 3b c4 a7 1e 3e 9c 29 3a bd
       -0.0053659678 0.003122617 0.15493685 -0.045449838
000020 a5 77 b8 be a5 bf 03 3e ce 52 48 be ed c4 a5 be
       -0.36028782 0.12866075 -0.19562837 -0.32376805
000030 33 ea 31 be ff 5b 5f be 7c 02 44 3e e8 b4 b6 3d
       -0.17374496 -0.21812437 0.19141573 0.08921224
000040 ec 72 74 bc df 71 c7 3e 3c 0f ae 3d 1f 1b 5a be
       -0.014919978 0.38954064 0.084989995 -0.21299408
000050 4c 91 9a 3e 52 5f 58 bd f8 ad 11 3e 6d 20 23 be
       0.30188978 -0.05282528 0.1422652 -0.15930338
000060 1c 60 a4 3d e9 71 a1 3e 93 e0 6c bd 10 37 1e bd
       0.08026144 0.3153222 -0.05783136 -0.03862673
000070 ea 93 22 3e dc 5e 43 3e 42 37 9e be a4 e2 91 be
       0.15876737 0.19079155 -0.30901533 -0.28493226
000080 ed 9d 4d be 63 f3 1c 3e 3a 6c b2 3e 7e d1 70 bd
       -0.20079775 0.1532722 0.34848195 -0.058793537
000090 e5 31 c5 be 37 7b 36 3e 19 0a 78 3e 08 9e 35 3e
       -0.3851463 0.1782044 0.24222602 0.17736065
0000a0 20 d1 4c 3e 47 8a 07 3e 77 bf c2 be 2e f5 a2 3e
       0.2000165 0.13236342 -0.380367 0.31827682
0000b0 73 f3 90 be a7 8a 9d be f4 e3 97 3d c2 53 0a 3c
       -0.28310737 -0.30769846 0.074165255 0.008442821
0000c0 06 af 7a be 25 b6 99 be 3b 7e 4e be 09 71 7e be
       -0.24480829 -0.30021778 -0.2016534 -0.24847807
0000d0 4c 59 e0 3d a7 c9 8f be 80 8e 96 bd e6 80 4d 3d
       0.10954532 -0.28083536 -0.073513985 0.050171755
0000e0 09 31 b0 3e 05 a9 a4 3e 2c 15 00 3e 00 36 e8 ba
       0.3441241 0.32160202 0.12508076 -0.0017716289
0000f0 b4 cd c2 3e 97 9e 92 3e 74 7c 0a be 64 36 a8 3d
       0.38047564 0.2863662 -0.13524038 0.08213499
000100 66 68 a4 3e b3 0e 5f 3e a3 7b 8f be 87 45 86 3d
       0.321109 0.21782951 -0.28024015 0.0655623
000110 13 c6 bc bc 98 9d 94 3e b8 f8 e0 bd 79 33 35 be
       -0.023043668 0.29026484 -0.10984939 -0.17695417
000120 ac 47 8e bd ea c9 ab bd 08 e7 8b bd c2 37 be 3e
       -0.06947264 -0.083881214 -0.06831175 0.37151915
000130 02 d9 00 be 16 3d 5e be 08 e7 7f 3e 94 55 c4 3e
       -0.12582782 -0.2170299 0.24990475 0.3834654
000140 b8 2e 46 3e 37 05 83 bd 78 ef 1c 3e ca 83 dc bd
       0.1935376 -0.06397479 0.15325725 -0.10767324
000150 d0 0f 79 bd ff 9e 06 bd 9e bc 08 be 86 da 44 3e
       -0.060806096 -0.032866474 -0.13353202 0.19223985
000160 56 4b bd bd 9e 81 97 3e 10 10 e5 3c 4e f7 b8 3e
       -0.09242885 0.29591078 0.02796176 0.36126179
000170 64 6e 99 bd 97 db a7 3e b0 0c e8 bc 24 11 a9 3d
       -0.074917585 0.3278472 -0.028326362 0.082552224
000180 a5 02 22 be 95 55 c0 be bd ea 1f 3e e8 11 21 3e
       -0.15821321 -0.37565294 0.1561689 0.15729487
000190 68 47 3f 3e 09 9f fa bd bc d6 64 3e c4 03 e1 bc
       0.18679583 -0.12237365 0.2234754 -0.027467616
0001a0 e4 7e b4 3e 42 e8 24 be c2 70 76 3e 0b 0a c0 3c
       0.3525306 -0.16104224 0.24066451 0.023442289
0001b0 80 3e de bd 44 05 05 3e ec 78 af 3e 32 3c ba 3e
       -0.10851765 0.1299029 0.34271944 0.3637405
0001c0 04 c5 c1 3e dc 8f b2 be 64 72 91 3e bf 5a 47 3e
       0.37845623 -0.3487538 0.28407586 0.1946821
0001d0 8b 3a c6 3e d6 d1 a1 3c 6b e9 70 be 90 67 fb 3d
       0.3871654 0.019753378 -0.23526542 0.12275612
0001e0 5a 51 bc 3e 8b 41 4f 3e 60 9c 8e bc e4 ce a8 be
       0.36780816 0.20239846 -0.01740855 -0.32970345
0001f0 dc 21 70 3e 97 71 a2 be 2d 2a 6f be fe 60 5f 3e
       0.23450416 -0.31727287 -0.23355933 0.21814343
000200 87 49 70 bd 98 30 a5 be b6 1c 67 be 30 7e a8 3c
       -0.05866387 -0.32263637 -0.22569546 0.020567983
000210 64 26 34 3e 36 92 18 be 2c ec 2a 3e 73 0c 98 3c
       0.1759277 -0.14899525 0.16691655 0.018560624
000220 3e 6a 09 3e 4e 73 1c 3d 01 99 0a 3e 80 39 84 3e
       0.13419434 0.0381959 0.13534929 0.2582512
000230 cc 69 a9 3d 30 4b a1 3e 20 1c bb 3e f0 02 a3 3d
       0.08272132 0.31502676 0.36544895 0.07959545
000240 24 d9 b0 3d 70 5e 5d be ac c0 a4 3e 68 63 b6 bd
       0.08635166 -0.21618056 0.32178247 -0.08905679
000250 38 20 9f 3e d0 ca 46 3d 88 a2 87 3d 00 31 9f bb
       0.31079268 0.04853326 0.06622797 -0.004858136
000260 a0 cc d0 3d 84 ff 4a 3e 83 76 94 be 95 65 72 be
       0.10195279 0.19824034 -0.28996667 -0.23671563
000270 9f 53 96 be 08 54 88 be 26 ec 1d be 18 cf c4 3e
       -0.29360673 -0.2662661 -0.15422115 0.3843925
000280 8a d5 af 3e 86 66 99 bd 20 ef 63 3e 78 3f c4 be
       0.34342605 -0.07490258 0.22259188 -0.38329673
000290 30 e0 ba 3e 10 4d 00 bc b3 19 d9 bd a9 f9 61 3e
       0.36499166 -0.007830873 -0.10600605 0.22067894
0002a0 0a fe 1f 3d 2f 4c 48 be 10 17 e5 3c 88 3b a0 3e
       0.03906063 -0.19560312 0.027965099 0.3129542
0002b0 d0 29 79 be 7b 9c b4 3e 34 90 b7 be b9 8f c3 be
       -0.24332356 0.35275635 -0.35852206 -0.3819559
0002c0 f9 34 d8 bd 66 d7 9a 3e 90 c4 66 3d b8 c9 f9 bd
       -0.10556979 0.3024246 0.0563398 -0.12196678
0002d0 94 21 d5 3d f3 94 be 3e a8 99 87 3e a3 3d 73 be
       0.10406795 0.37223014 0.26484418 -0.23753981
0002e0 20 9d 2c 3e 2b df a6 be 9b d0 96 be 75 0b 69 3e
       0.16856813 -0.3259214 -0.29456028 0.22758277
0002f0 95 ea 45 bd ed 84 3b 3e 90 06 6a be 77 69 52 be
       -0.048319418 0.18312426 -0.22854066 -0.20548044
000300 bc 62 6c 3e a2 d0 47 bd b4 79 b8 3d 27 a6 3a be
       0.23084539 -0.048782952 0.09007588 -0.18227445
000310 2d 0b 18 3e 96 d7 7d 3e 7e f9 9c be 4a f1 30 be
       0.14848013 0.24789271 -0.30659097 -0.17279544
000320 20 17 4b bc 0b e1 17 3d b5 b7 83 be f5 3a 74 3e
       -0.01239565 0.037079852 -0.25726095 0.23850615
000330 6c 2c 7c 3e 8f 30 bf be 7d eb 8e 3e 2a af 9f bd
       0.2462632 -0.37341735 0.27914038 -0.07797082
000340 85 54 2c 3e 63 7f bf 3e d0 10 82 bc 04 35 1e 3e
       0.16829117 0.37401876 -0.015877157 0.15449911
000350 90 5a 4d 3e d7 63 c9 be da de b8 be e5 f7 a5 3e
       0.20054078 -0.39333984 -0.36107522 0.3241569
000360 95 bd c5 3d 71 64 9e 3e 3e 45 d1 bd f0 6d bb 3c
       0.096553005 0.30936006 -0.10218285 0.02287957
000370 9c c9 8e bd 47 2d 80 be 24 03 03 be 18 6a a8 bd
       -0.06972048 -0.25034544 -0.12794167 -0.08223361
000380 20 21 18 3e d0 c9 d7 bd 7a 84 90 be ae 08 36 be
       0.14856386 -0.105365396 -0.28226072 -0.17776749
000390 fa b3 42 be 1c 52 a6 be f0 f3 8a 3e fc f7 a0 bd
       -0.19013968 -0.3248452 0.27139235 -0.07859799
0003a0 12 40 b8 3e fc 9a 99 bd 78 cf 15 be e4 c2 b3 be
       0.35986382 -0.07500264 -0.14629924 -0.35109627
0003b0 30 2e 36 3e f4 98 8d bd 64 10 46 3e e4 9a 2b 3e
       0.17791057 -0.06913939 0.1934219 0.16758305
0003c0 a2 b6 c3 be f8 f7 24 bd ce b5 84 3e e0 51 8b bd
       -0.38225275 -0.040275544 0.25919956 -0.06802726
0003d0 68 81 65 3d b0 1b ab 3e fa 84 10 be bc b0 bf bd
       0.056031615 0.3341956 -0.14113227 -0.09359881
0003e0 2f 4c 1d be 7a e8 75 be 6e 02 aa 3e 84 f9 69 3e
       -0.15361093 -0.24014464 0.3320498 0.22849089
0003f0 cc 03 b0 be f0 8b 8d be 30 49 fe bc 1c 25 ba 3d
       -0.34377897 -0.27645826 -0.031040758 0.09089109

fc2.bias f4 [20]
000000 1c 2c 41 3e e7 75 42 be 45 15 4b bd 07 f4 bf 3d
       0.18864483 -0.18990289 -0.04958083 0.093727164
000010 7d 74 21 3e b9 88 e9 3d 60 4a 0a 3d b8 35 3a be
       0.15767093 0.11403031 0.033762336 -0.18184555
000020 f2 9a 03 3e 2b e5 90 bd 6c c5 3e 3e 44 4a f1 3d
       0.12852076 -0.0707496 0.18629998 0.11781743
000030 84 e5 10 3e 9a 12 4d bd 50 83 80 3c 26 03 92 bd
       0.14150053 -0.050066568 0.015687615 -0.07129507
000040 44 d7 b1 bd d4 81 2d be c9 b3 40 3e d5 98 63 be
       -0.08683637 -0.16944057 0.18818583 -0.2222627

fc3.weight f4 [1, 20, 1]
000000 1d 83 36 3e 18 97 c6 be 52 76 02 be 10 59 0a be
       0.17823453 -0.3878715 -0.12740448 -0.13510537
000010 8c c5 83 be c0 38 a1 3e 13 b4 70 3e 0e b7 ff 3e
       -0.25736654 0.3148861 0.23506193 0.49944347
000020 3f da 04 be 3c 48 0d 3e 61 da 11 3e 05 56 03 3f
       -0.1297388 0.13797086 0.14243461 0.5130313
000030 e8 de 18 3e 74 3e fa 3e 2e 85 f1 3e 88 3a aa 3e
       0.14928782 0.48875773 0.4717192 0.3324778
000040 4e 92 b4 3e 81 8a cd bd 6e 9d e9 3c e0 69 c6 3d
       0.35267872 -0.10036183 0.028517451 0.09688163
