Task assignment/drl4vrp/vrp/10/19_07_57.994352/checkpoints/13/critic.pt (torch, 29011 bytes, 9 tensors)

static_encoder.conv.weight f4 [128, 2, 1]
000000 53 3a 19 3e a4 0a 4e be 2c 12 21 3e d9 87 5f 3e
       0.14963655 -0.20121247 0.15729588 0.21829166
000010 34 a5 01 be d7 db 8d bd d3 aa be 3d 7a 50 1a 3e
       -0.12660676 -0.06926697 0.09309926 0.15069762
000020 82 4c 01 3e 90 87 45 3e b7 6c 57 3e 1d 4e 62 be
       0.12626842 0.19289994 0.21037565 -0.2210011
000030 8a 6f 01 be f8 d4 46 be 1e db 06 be 0e 30 dc 3d
       -0.12640205 -0.19417179 -0.13169524 0.10751353
000040 5e 61 a3 3d cd f7 53 3e df b5 08 be 09 a1 9b 3d
       0.07977556 0.20699997 -0.13350628 0.075990744
000050 8e c7 0f be 84 a1 fd bc 83 d9 d0 3d 52 07 d5 3d
       -0.14040968 -0.030960806 0.10197737 0.10401787
000060 ef 17 b9 3d 98 bf f6 bd aa ff 4a be e0 73 44 be
       0.09037768 -0.12048262 -0.1982409 -0.19184828
000070 1d a0 2b be e4 22 a1 3d 80 b0 0b be 8f 9d 8b 3d
       -0.16760297 0.07867983 -0.13641548 0.06817161
000080 81 b9 e6 3c f9 64 12 3e f9 72 1b 3e e5 57 3f 3e
       0.028164627 0.1429633 0.15180577 0.18685873
000090 d2 d3 fe bd e1 89 50 3e dc 02 37 3e bc 9e 1b be
       -0.12442745 0.20365097 0.17872185 -0.15197271
0000a0 ba 82 26 3e b2 a0 05 be 07 76 2f 3e 33 93 02 be
       0.16260806 -0.13049582 0.17134868 -0.12751465
0000b0 75 38 50 bd 29 0e 0c be ea 92 17 3d 38 f7 ff bc
       -0.05083509 -0.13677277 0.037005343 -0.031245813
0000c0 58 47 37 be ca 9e 33 3e 49 d2 a9 bd f1 2a 36 be
       -0.17898309 0.17541042 -0.08292062 -0.17789818
0000d0 f9 10 e9 bd b9 77 2c be 69 d0 11 be 4e 0e 44 be
       -0.113801904 -0.16842546 -0.14239658 -0.19146082
0000e0 f8 fb 13 3e 3a 00 c2 bd d5 a2 b9 3d ca 13 c2 3d
       0.14451587 -0.094726995 0.09064261 0.09476431
0000f0 64 86 b3 3d 8e 41 c9 3d 6d cd 2e bd 82 cd ba bc
       0.08765867 0.09826957 -0.042676378 -0.022803072
000100 fd 9a ed bc e6 15 f2 3a 19 93 4a be 7e a3 d4 bd
       -0.029004568 0.0018469661 -0.19782676 -0.10382746
000110 e1 95 32 bd ef 17 a3 bc 98 23 0d 3e 51 59 79 3c
       -0.043599967 -0.019908873 0.13783109 0.015219049
000120 dd 8b 42 be e8 86 42 3e 47 f0 9c 3d 3f 91 03 be
       -0.18998666 0.18996775 0.07663017 -0.12848376
000130 35 fb a5 bd 24 62 60 b9 84 f2 5a 3e 6d 19 03 be
       -0.081045546 -0.00021398865 0.21381575 -0.12802668
000140 ef 5d 83 bc a8 8c d6 bc d6 36 59 be 8f 70 81 3d
       -0.016036002 -0.026190117 -0.21212325 0.06320297
000150 fd bb 47 bc 97 f2 cb 3d c7 17 c5 3d e4 a0 ee bc
       -0.012190816 0.0995838 0.09623676 -0.029129453
000160 b3 ac 36 be 99 18 1b 3d 8c 98 39 3e a4 10 07 3e
       -0.17839317 0.037865255 0.18124598 0.13189942
000170 49 06 b4 bd e2 9b 20 3e 22 65 44 bd b7 99 2f be
       -0.08790261 0.15684465 -0.04794801 -0.17148481
000180 65 cd 5d bc 1c f0 c6 bc e4 b5 f3 bd 25 6b 1e be
       -0.013537739 -0.024284415 -0.11899927 -0.1547056
000190 7c 65 03 be b0 d9 b1 bd 42 6a 53 bd f2 4f ab 3d
       -0.12831682 -0.08684099 -0.051615007 0.08364858
0001a0 a8 50 06 be a3 11 43 3e 0d bd 11 be aa 95 23 bd
       -0.13116705 0.19049697 -0.14232273 -0.039937653
0001b0 54 9e 1f 3d e3 11 06 3d 7c b8 d3 3c 93 45 c1 bc
       0.038969353 0.0327319 0.025844805 -0.023592746
0001c0 d8 0f a5 3d fd 95 7e 3d 09 5e f5 3d e7 d8 cf 3c
       0.080596626 0.06215476 0.119808264 0.025371982
0001d0 df cc 4f be 6b 90 fb bd 2a bf 15 3d cb 9c 51 3e
       -0.20292996 -0.12283405 0.03655926 0.20469968
0001e0 8e 4b 49 be 53 ce b6 bd 13 4f 8c 3d c3 fb fe 3d
       -0.19657728 -0.08926072 0.0685102 0.124503635
0001f0 a1 0d 18 3d ba 17 1d 3e dd ea 80 3c f1 97 06 3e
       0.037122373 0.15341082 0.015736992 0.13143899
000200 1a b2 43 be a3 29 22 be fd 3a 73 bd 90 a2 ab 3d
       -0.19110909 -0.15836196 -0.059382427 0.08380616
000210 c9 d6 2f bd 5a e9 b3 bd 76 55 df bd 53 6f 58 be
       -0.042929444 -0.08784743 -0.10904972 -0.21136217
000220 7e fd 1e 3e 1a a7 9b 3d 38 6d d6 bd d9 a1 ce bd
       0.15526387 0.076002315 -0.104700506 -0.10089464
000230 7b f0 49 3d 24 df 49 3e c0 29 99 3d c3 ab a8 3c
       0.049301606 0.19714028 0.07478666 0.020589715
000240 bf b4 23 3e 38 a6 43 be 8f 53 3b bd ef be 5c 3e
       0.15986918 -0.19106376 -0.045733985 0.2155721
000250 02 4d f3 bd ec 2c 0a 3e 90 50 69 bd d0 98 8e bd
       -0.118799224 0.13493699 -0.056961596 -0.069627404
000260 e8 73 85 3c 77 08 80 3c a0 62 57 3e c1 9f 5e bd
       0.01629062 0.015629036 0.21033716 -0.054351572
000270 68 1d a0 3d 08 5d d5 bb d9 80 88 bd ea 4d 64 3e
       0.07818109 -0.0065113343 -0.06665201 0.22295347
000280 66 bc 44 be 80 6d a7 bd 04 37 1e be e6 4d fc 3b
       -0.19212493 -0.08175182 -0.15450674 0.007699716
000290 90 19 4c 3e c4 b3 ff 3d e6 38 2b 3d 73 5a a1 bd
       0.19931626 0.124854594 0.04180231 -0.0787858
0002a0 9f 07 b0 3d f8 ae 19 bd 3c 90 70 bd e7 0c 1f 3e
       0.085952036 -0.03752038 -0.058731303 0.15532266
0002b0 ae e6 01 3e 46 81 fe 3d 77 bf 58 3e 28 8a 0e 3e
       0.12685654 0.12427001 0.21166788 0.1391989
0002c0 c5 af 01 3e 7c 2e 35 3e 85 7b 02 3e 27 af 6c bd
       0.12664707 0.17693514 0.12742431 -0.057784226
0002d0 48 87 b2 3d eb ac 22 be 50 14 9b 3d 20 4a 4a 3d
       0.08717209 -0.15886275 0.07572234 0.049387097
0002e0 df de 16 3e 95 aa 7e bd 97 55 90 bd 33 86 19 be
       0.14733456 -0.0621744 -0.07047575 -0.14992599
0002f0 e2 53 c2 3d ae b4 3f be 76 87 f1 bd 34 53 39 3d
       0.094886556 -0.18721268 -0.11793415 0.045245364
000300 b7 e2 55 be 10 b1 52 3e 82 54 c1 3d ec 25 98 3d
       -0.20887266 0.20575356 0.09439947 0.07429108
000310 f0 f8 51 3e 01 60 41 be c1 49 23 be c5 62 43 3d
       0.20505118 -0.18884279 -0.15946104 0.047701616
000320 96 88 10 3e e1 03 f8 3d 25 1e 53 3d 6e 56 15 3e
       0.14114603 0.12110115 0.05154242 0.14583752
000330 a8 22 68 3e ad 11 2b be 95 3d 76 3d 46 86 40 3e
       0.2266947 -0.16705962 0.060117323 0.18801221
000340 c8 be 8b 3d 59 b9 58 be a3 24 48 3e 4d 10 b1 bd
       0.06823498 -0.21164455 0.19545226 -0.08645687
000350 26 ea 85 3d 88 a6 a5 bc e1 15 16 3e 6f b9 a0 bd
       0.06538801 -0.02022101 0.14656784 -0.07847869
000360 0c 57 14 3e 9c 0c 1d be 75 57 00 be 8e 8c df bd
       0.14486331 -0.15336841 -0.12533362 -0.109154806
000370 12 30 01 3e 6f 4e 24 3e 72 53 44 3e aa 7b 27 be
       0.12615994 0.16045545 0.19172457 -0.16355768
000380 38 c6 6e 3d 70 2c 10 bd 90 21 3d bd fd 6a 3a be
       0.058294505 -0.03519863 -0.046174586 -0.18204875
000390 a1 84 0c ba 35 4c 35 3e f1 ac 01 3e 2f ec 8c 3c
       -0.00053603394 0.17704852 0.12663628 0.017202465
0003a0 0d bd 1b bd 93 64 57 3e c2 97 52 bc 75 df 30 be
       -0.03802209 0.2103446 -0.012853565 -0.17272742
0003b0 b3 b7 08 be 2b fa 05 be f8 d8 ea 3d 35 62 23 3d
       -0.13351326 -0.13083713 0.11467165 0.03988858
0003c0 8a b5 37 be d9 d3 49 3e 83 93 05 be c9 76 12 3e
       -0.17940345 0.1970972 -0.13044553 0.14303125
0003d0 09 42 4d bc 1e 09 15 be 8e 6b 58 3e 88 10 0a 3e
       -0.012527951 -0.14554259 0.21134779 0.13482869
0003e0 4f b5 53 3d f7 58 6c bc 20 a2 d4 3c 1c 44 33 3e
       0.05168658 -0.014425508 0.025956213 0.1750645
0003f0 90 d9 15 3c ca 10 22 be 88 75 59 be 4e c3 47 be
       0.009146109 -0.15826717 -0.21236241 -0.19508097

static_encoder.conv.bias f4 [128]
000000 8a d3 d8 3d 51 e6 df be 70 3f 5a be d7 99 0d be
       0.10587223 -0.43730405 -0.21313262 -0.13828216
000010 fe 33 9e 3e 6e 82 6c be fc ae a7 3e 2c b5 95 3d
       0.30899042 -0.2309663 0.3275069 0.073099464
000020 56 47 de be 0c a9 7b 3e 8e 7f 83 3e 11 a1 30 3f
       -0.434138 0.24576205 0.25683254 0.6899577
000030 e4 11 e9 3e 51 6d d5 3e f6 88 14 3d a2 20 8e be
       0.45521462 0.41684964 0.03626343 -0.27759272
000040 65 66 f0 3e 20 71 09 3f 2b cf 25 3f 3c fa e6 3e
       0.4695312 0.5368824 0.6476924 0.4511279
000050 45 0d a0 3e 7c ab 14 3f df 72 c3 be fb 6a c5 be
       0.31260124 0.58074164 -0.38173577 -0.38558182
000060 8b 2f 0c 3f 97 fc 84 3e 95 00 6a 3e 8a c2 00 bf
       0.54760045 0.2597396 0.22851785 -0.50296843
000070 4a e6 a8 be 10 e5 05 3f ed fb a2 3e f3 11 b1 be
       -0.32988197 0.52302647 0.3183283 -0.34584007
000080 47 c6 dc 3e 45 4c db 3d 2e c1 3e be 14 5a 0a 3e
       0.43120024 0.10707907 -0.1862838 0.13510925
000090 f6 89 08 bf 70 e1 a1 be 8e ef f9 3e 70 3b b2 3e
       -0.5333551 -0.31617308 0.48815578 0.34810972
0000a0 9b b2 62 3c fc 2f c6 3e 4b 7d ba 3e 98 7b 76 3e
       0.013836528 0.38708484 0.36423716 0.24070585
0000b0 5d 7d cf 3d d4 57 50 bd 0d bc 25 bf da 25 50 be
       0.10131333 -0.05086501 -0.6474007 -0.20326939
0000c0 46 1a 0a 3f d6 8f d9 be ff 40 ba 3e ad 6a 61 3d
       0.5394634 -0.4249255 0.36377713 0.055033375
0000d0 fb 4a 31 bf 23 01 7d 3e 63 e2 5f 3e 30 65 8f bd
       -0.69255036 0.24707465 0.21863703 -0.07001722
0000e0 27 9e 2f bf 59 61 0a bf e9 48 ad 3e 43 02 d3 be
       -0.68600696 -0.5405479 0.3384469 -0.41212663
0000f0 a7 6b ac 3e c0 67 11 3f 52 a5 17 bf d8 fa e6 be
       0.33675882 0.56798935 -0.59236634 -0.45113254
000100 3e a7 1c 3f e6 ca 41 bb 41 8a be 3e aa d3 a8 3d
       0.6119269 -0.00295704 0.37214854 0.08243497
000110 89 dc 9b be 90 d7 1e bd e2 03 04 bf e1 cb b6 be
       -0.30441692 -0.038779795 -0.51568425 -0.35702422
000120 29 3c af be ec cd 81 be 8e ad 1f 3f 2d 20 41 bd
       -0.34225586 -0.25352418 0.623742 -0.047149826
000130 9e c8 b8 3d d1 64 ba be 9e dd 20 3e ac 95 fe be
       0.0902264 -0.36405042 0.1570954 -0.49723566
000140 20 50 6f bd d4 92 e8 3d 06 fb 3c be ff 29 71 3e
       -0.058426023 0.1135613 -0.18455133 0.23551176
000150 b0 d2 19 bf 5a 1f 31 3f 04 09 ee bd 03 b3 17 bf
       -0.6008711 0.69188464 -0.11622813 -0.59257525
000160 8a c1 24 bd 36 69 c0 3e 43 df 43 3e 69 88 29 bf
       -0.040223636 0.3758027 0.19128136 -0.6622377
000170 98 b4 01 be 5f 2a 12 3f 88 53 22 3f 72 77 df be
       -0.12666547 0.57095903 0.6340871 -0.43645817
000180 9a e2 25 bf 22 72 a0 bd c9 b2 d1 3e 9c 4c 0f 3f
       -0.6479889 -0.07834269 0.40956715 0.5597627
000190 01 09 1d 3f 83 0d 69 bb 3c 2c 26 bf 43 8a cd 3e
       0.61341864 -0.0035561032 -0.64911246 0.40144548
0001a0 4a 67 30 bf 28 89 2f 3e 97 85 4f 3e d8 95 05 3e
       -0.68907607 0.17142165 0.20265804 0.13045442
0001b0 c3 b3 00 3f f3 54 dd be db b4 31 3f b7 69 1c bf
       0.50274295 -0.43228874 0.6941659 -0.6109881
0001c0 76 cb 1d 3f 35 38 9f be 62 79 01 be 40 b0 f9 3d
       0.6163858 -0.3109757 -0.1264396 0.1219182
0001d0 f2 49 f9 3e 2d b0 dd be 4f b8 ed bc 0e 2c b3 3e
       0.48689228 -0.43298474 -0.02901855 0.3499455
0001e0 1e f6 a1 3d e6 2c 04 be 24 84 20 3f d3 23 bd 3e
       0.07908271 -0.12907752 0.6270163 0.36941394
0001f0 54 9d da 3e 5f 72 b3 3e 6b bb 10 bf 2b 3f 88 bd
       0.42698157 0.35048196 -0.5653598 -0.06652673

dynamic_encoder.conv.weight f4 [128, 2, 1]
000000 03 1d 32 3e 72 5a 65 be ef df f9 bb 8a da 19 3e
       0.1739388 -0.22397783 -0.007625572 0.15024772
000010 c2 67 63 3d c7 22 30 be eb 5e af 3d f7 c3 b2 3d
       0.055518873 -0.17200767 0.08563026 0.087287836
000020 d5 f0 08 3e 42 9b 56 be d9 60 ee 3d a8 f8 07 3e
       0.1337312 -0.20957664 0.11639566 0.13278449
000030 a1 3b 7c 3d 4e 26 0e 3e 12 41 9d bd bf 60 92 3e
       0.061580304 0.138818 -0.07678427 0.28589436
000040 7a 9e a8 3c ae cd 78 3e 11 08 a6 bd fe 9d 2e 3e
       0.02058338 0.2429721 -0.08107007 0.17052457
000050 da 36 0d be 7e e0 83 be 49 dd 33 be bd 0c 72 be
       -0.13790455 -0.2575721 -0.17564882 -0.23637672
000060 01 b9 7b 3d 34 b9 39 3e 0b 84 2c be 8e 73 52 3e
       0.06145573 0.18137056 -0.16847245 0.20551893
000070 68 21 25 be 78 18 ff 3d 3a 06 14 3e d1 d2 ca bd
       -0.16126025 0.12455839 0.144555 -0.09903491
000080 37 ac 07 3e 21 81 e8 3d b2 26 f2 3d 9a 30 00 be
       0.13249288 0.113527544 0.11823787 -0.1251854
000090 d4 86 49 be 0b d9 89 3e ad c8 9a bd dc b1 7f be
       -0.19680339 0.26923403 -0.07557807 -0.24970192
0000a0 b1 b9 ca bd e0 80 4c 3d b2 62 0f 3e 74 31 41 3e
       -0.09898699 0.049927592 0.14002493 0.18866521
0000b0 f6 ac e5 3a dc 1a 8c bd 9b 6a 8a bd 3d 23 75 be
       0.001752286 -0.068410605 -0.06758615 -0.23939224
0000c0 8c 06 c7 3d 00 4c 76 bd 0c f4 02 be 0b ce 0f be
       0.097180456 -0.060131073 -0.12788409 -0.14043443
0000d0 0f 69 88 3d f3 ca 94 3e 0f e8 50 3c e5 cd 43 be
       0.06660663 0.29061088 0.01275064 -0.19121511
0000e0 5a 2e 21 3e 80 e0 1e bd 7b f8 2d 3e 7e 16 18 3d
       0.15740338 -0.03878832 0.16989319 0.037130825
0000f0 6d 4a a2 bd 63 1b e0 3d 1a 61 88 bd 96 c9 7b be
       -0.07924352 0.109427236 -0.06659146 -0.24588618
000100 75 41 2b 3e 80 88 32 3d 40 88 27 3e 23 38 09 be
       0.16724189 0.043587208 0.16360569 -0.1340032
000110 d7 e3 3e be 6b 06 4d bd 8f b9 d9 ba 27 df 07 3e
       -0.18641602 -0.05005495 -0.0016611087 0.1326872
000120 58 e5 2a 3e 33 4a 4a bd 86 0c d1 3b 38 64 01 3e
       0.1668905 -0.04938717 0.0063796667 0.12635887
000130 71 8a 7d bd 3a ca 90 3e 0a 6f 72 bd 0e 48 63 bd
       -0.061899606 0.28279287 -0.059187926 -0.05548864
000140 ce ed cf bd af 89 60 3e 97 c2 42 3e 7d ca 10 3e
       -0.101527795 0.21927522 0.19019543 0.14139743
000150 a7 63 23 be e4 92 db 3d 96 63 3f 3e a2 3c 91 3d
       -0.15955983 0.107213765 0.18690333 0.07091643
000160 77 9b 23 be 83 0c 72 3e 15 57 08 be 14 ad 86 be
       -0.15977274 0.23637585 -0.13314469 -0.26303923
000170 80 e1 fa 3d 38 dd 5f bd 10 5e 1e 3e 9a 08 f5 bd
       0.12250042 -0.05465433 0.1546557 -0.11964531
000180 72 11 a3 3c 43 21 83 3d e7 6f 2d 3e 37 08 7f be
       0.01990578 0.064028285 0.16937219 -0.24905477
000190 28 2b 17 bd ae dd 4a 3e 53 88 42 be 1f 12 b1 bd
       -0.03690639 0.19811127 -0.18997316 -0.086460344
0001a0 e7 ae 1a be 2f 8c f3 bc 23 4f 06 3e 49 1e b5 bc
       -0.15105782 -0.02972993 0.13116126 -0.022109168
0001b0 d0 be 4d 3e 3d 41 4a be 64 3b e2 3d b9 1d 1d 3d
       0.2009232 -0.19751449 0.11046484 0.038358424
0001c0 56 58 0c bd f6 8f 7d 3e f7 63 4b be 59 82 68 be
       -0.03426393 0.24761948 -0.19862352 -0.22705974
0001d0 e1 21 81 bd cd a2 f7 bd ad 85 e9 3c 05 6a dd bd
       -0.0630529 -0.12091599 0.028506124 -0.10811237
0001e0 bb da 5d 3e 51 45 d1 3c 79 8e e2 bb 5a 55 0a 3d
       0.2166547 0.025545748 -0.0069139567 0.033772804
0001f0 96 bd 9a bd cf c9 7d be cd f1 59 be b1 39 0a be
       -0.07555692 -0.24784015 -0.21283646 -0.1349857
000200 5c 46 5d be 15 43 49 3e c4 bb 2f be 76 64 05 be
       -0.21608871 0.19654496 -0.1716147 -0.13026604
000210 ce 61 b8 3d b0 bf 89 3e a9 88 3b 3e 78 a8 05 3e
       0.0900303 0.26904058 0.1831385 0.13052547
000220 e3 e0 22 3d 8b b3 f6 bc 66 ea 13 3e 6e 3a 60 3e
       0.03976525 -0.03011491 0.14444885 0.21897289
000230 76 42 5d 3e 32 a2 66 3d 71 45 38 3e 7f d8 16 be
       0.21607384 0.056307025 0.1799524 -0.14731024
000240 c4 92 c6 3d 0e b1 5d 3e 88 03 6c 3d 7b ed 48 bd
       0.09695962 0.21649572 0.057620555 -0.049054604
000250 c6 f6 dc 3d 23 67 d9 3c 76 bf c3 bc 75 fd 15 be
       0.10789256 0.026538437 -0.023895007 -0.14647467
000260 ae 1a 2c be c9 68 20 be a6 da 3d 3e cb 32 f2 3d
       -0.16807052 -0.15664972 0.18540439 0.11826094
000270 46 63 04 3e 59 91 8e 3e 49 27 19 3e b0 f2 f0 3d
       0.12928495 0.27845266 0.14956392 0.11765039
000280 35 a5 e9 bd 90 15 4c bc 84 de 17 3e 95 87 02 be
       -0.11408464 -0.012456313 0.14830977 -0.12747033
000290 bf 76 86 bc a1 f8 6d be aa 72 33 3d a7 59 b4 bd
       -0.016414044 -0.23239376 0.043810524 -0.08806162
0002a0 91 9e 4a 3e 9b 33 06 be 3b f7 ba bd 80 3d f7 3d
       0.19787051 -0.13105623 -0.09129187 0.12072277
0002b0 bf cb 0a 3e 91 71 5e be 56 a7 22 3e 63 e4 62 be
       0.13554285 -0.2172301 0.15884146 -0.22157435
0002c0 64 44 63 3d a0 8c f7 bd ca ca 9f 3d 3c 01 81 3e
       0.055485144 -0.12087369 0.07802351 0.25196254
0002d0 7e 54 5e be 5a b8 3c be c3 74 39 bd 0e 36 76 3d
       -0.21711919 -0.184297 -0.04527737 0.060110144
0002e0 d0 94 37 3e 21 80 2e 3e 6f cc ba bc 5e ce 34 be
       0.17927861 0.17041065 -0.02280256 -0.17656848
0002f0 93 ce 0a 3e ae 12 17 3e 20 14 20 3d d9 e1 21 bd
       0.13555364 0.1475322 0.039081693 -0.039522026
000300 68 41 35 be 1b bb 01 3d 88 a4 95 3c 22 8e 46 bd
       -0.17700732 0.03167258 0.018266931 -0.048475392
000310 6a 40 a8 bd e7 90 a0 bd 76 41 98 bd 64 48 3d be
       -0.08215411 -0.07840138 -0.07434361 -0.18484646
000320 76 77 13 be fb a8 01 3e c9 5d c9 bd aa 2c 83 3e
       -0.1440104 0.12662117 -0.09832341 0.25620013
000330 97 4a 14 3e 9a 7f 4d be 0b 09 ce 3d 8a 86 eb bd
       0.14481579 -0.20068207 0.100603186 -0.11500271
000340 b1 7c 50 be 00 a1 ae 3d 3c 25 b1 3d e8 5f 2e bc
       -0.20360066 0.08526802 0.0864968 -0.010642983
000350 66 7f 42 be 0f 00 7e be 9a a1 15 3e a4 fe 16 bc
       -0.18993911 -0.2480471 0.14612427 -0.0092159845
000360 f8 07 17 bc a6 45 03 be 64 dd ef bd 6a 45 c9 3d
       -0.0092182085 -0.12819538 -0.11712149 0.09827693
000370 c8 d3 bd bd 11 13 d7 3d 12 d4 ad bd dd 0a ba bc
       -0.0926891 0.105016835 -0.08487715 -0.022710258
000380 b8 34 08 3e 66 11 e8 3d ba 05 39 be 14 b2 87 3c
       0.1330136 0.113314435 -0.18068591 0.016564406
000390 36 69 4c be 73 43 dc bd 17 1a df 3c 88 58 11 3e
       -0.1996201 -0.107550524 0.02723412 0.14193928
0003a0 d6 be 50 3d b3 e9 e5 bc ec 04 b1 bd 67 1a 07 3e
       0.050963245 -0.028065538 -0.08643517 0.13193665
0003b0 95 a3 53 bd f6 fd b5 bd 24 ba 6c 3b b1 37 97 be
       -0.051669676 -0.0888633 0.003612169 -0.29534677
0003c0 79 11 0d 3e 26 42 9e bd 19 4d 2e 3e 3f c7 6c 3e
       0.13776197 -0.077274606 0.17021598 0.23122881
0003d0 b2 c8 a4 3d ff a1 72 3e 05 18 3c 3e 4e 89 50 3e
       0.08046092 0.23694609 0.18368538 0.20364878
0003e0 19 29 4c be 09 ca 4e bd 67 81 ac bd 93 2b 88 3d
       -0.19937553 -0.050485644 -0.08423119 0.06648936
0003f0 71 86 ba 3d 5c 2f 1d be 2d e1 c2 3d bb ac 18 3e
       0.09107674 -0.15350097 0.09515605 0.14909641

dynamic_encoder.conv.bias f4 [128]
000000 18 6c 6a 3e 42 82 21 bf dd 9c 93 3e b3 82 59 bd
       0.22892797 -0.6308938 0.28830615 -0.05310316
000010 c7 ab d0 bd e0 0c b4 3e d6 f0 2a bf 10 35 9f 3e
       -0.10189014 0.35166073 -0.66773736 0.3109517
000020 17 b6 75 be 4a 47 f7 be 77 63 c2 3e 1c 5f 13 3e
       -0.23995243 -0.48296577 0.3796651 0.1439175
000030 7e 06 e0 3e ed e8 cb 3e 2f aa ff be c7 50 b1 be
       0.43754953 0.39826146 -0.49934527 -0.3463194
000040 0e bf a5 3d f2 ab 09 bf 5a 48 2b bf 3e 6c 13 3f
       0.080930814 -0.5377799 -0.66907275 0.5758704
000050 04 4c a7 be d1 ab b8 be f4 74 d0 3e 59 5d 26 bf
       -0.32675183 -0.36068586 0.40714228 -0.6498619
000060 26 fb 66 be 58 d7 07 bf b6 67 9c be 2f 73 11 3f
       -0.22556743 -0.53062963 -0.30547875 0.5681638
000070 2a 77 d5 3d 7e b2 43 be 0e 28 47 be b2 56 51 be
       0.10423119 -0.19111058 -0.19448873 -0.20443228
000080 07 b9 36 3e 3f 59 09 bf b3 c4 86 3e 88 66 9e be
       0.1784402 -0.53651804 0.26321945 -0.309376
000090 a5 b1 0e 3f e7 c6 74 be 11 95 3b 3d b9 43 1d 3e
       0.55739814 -0.23904 0.045796458 0.15357865
0000a0 89 dd 2b 3e ef 30 6e be 2c 5f 15 3f 2e 00 ae 3e
       0.16783728 -0.23260854 0.58348346 0.33984512
0000b0 9a 5e 19 3f 18 b1 8a be 9b f4 ca 3e 39 44 11 bf
       0.59909976 -0.27088237 0.39639744 -0.56744725
0000c0 89 03 56 3e 21 cc b4 3e ab 70 08 3f e7 33 db be
       0.20899786 0.35311988 0.5329692 -0.42813036
0000d0 b3 97 b3 be f4 06 1e bf a5 66 75 be ca 6f ab be
       -0.35076675 -0.6172936 -0.23964937 -0.33483726
0000e0 3c b4 e3 be 73 e4 1b bf 50 94 26 3f e4 10 2c be
       -0.44473445 -0.6089546 0.65070057 -0.16803318
0000f0 10 f1 41 3e 0c 0a 20 3f 24 96 aa bd 82 d3 85 3e
       0.18939614 0.6251533 -0.08329418 0.2613793
000100 00 90 89 3e 57 6b f8 3e e0 d4 f2 3e 15 ad ef 3e
       0.26867676 0.48519394 0.47428036 0.4681174
000110 bf 9f af bd 4f 21 26 3f 85 79 28 bf 60 20 8b be
       -0.08575391 0.64894575 -0.65810424 -0.27173138
000120 d7 6b 07 3f 44 0f 2e bf 4e bb 21 bf b0 c1 30 3f
       0.52898926 -0.67992043 -0.6317643 0.69045544
000130 28 5a 0e 3e a3 22 f0 3d f0 15 f2 3e 74 8a 96 bd
       0.1390158 0.117253564 0.47282362 -0.073506266
000140 e8 f8 13 3f 48 9d 02 bf e7 9f 50 be 7b 39 ec be
       0.57801676 -0.5102124 -0.20373498 -0.46137604
000150 01 27 af bd 88 8a f0 3d 92 f0 b0 be 0a 13 1b bd
       -0.08552361 0.11745173 -0.3455854 -0.037859954
000160 1c 72 b5 3e 45 73 90 3e 49 98 07 3f 37 78 f0 3e
       0.3543862 0.28212944 0.52966744 0.46966717
000170 eb 61 eb bc c5 f6 c7 be 9c b4 31 bf ca 12 82 3c
       -0.028733214 -0.39055458 -0.69416213 0.0158781
000180 2b b5 ba 3e a7 1b a0 3d 7c 07 a8 be d4 c4 61 3e
       0.36466345 0.07817774 -0.3281821 0.2204774
000190 70 17 fb 3e d7 7f 8d 3e 10 63 e7 3d 1b da 1e 3f
       0.4904132 0.27636597 0.112981915 0.6205155
0001a0 81 4d 9b 3d 12 e2 c1 be c1 14 0e bf f8 60 22 bf
       0.07583142 -0.3786779 -0.5550042 -0.6342921
0001b0 bb f3 e1 be 0e ba a9 3e 98 f0 29 bf 79 d5 d2 3e
       -0.44131264 0.3314976 -0.6638274 0.41178492
0001c0 a4 bb f2 3d 5d 7c 79 be 6c 65 50 3e bb 82 1a be
       0.11852196 -0.24363847 0.2035119 -0.15088932
0001d0 e2 6f d4 3e ae af 0d bf 44 b8 2b bf 8f a6 53 3d
       0.4149161 -0.5534619 -0.6707804 0.051672515
0001e0 6c 72 0f bf 62 bc 1e 3f 00 3c 10 bf 24 3e da 3e
       -0.5603397 0.620062 -0.5634155 0.42625535
0001f0 2f 72 b6 be 20 72 a6 be 7f 83 f6 bd bb 2e 0e 3e
       -0.3563399 -0.32508945 -0.120368 0.13885014

fc1.weight f4 [20, 256, 1]
000000 4e 27 12 be d2 9a c7 3d f8 e2 83 3d 8c 47 e2 bd
       -0.14272806 0.097463265 0.06439775 -0.11048803
000010 7e dd d1 3d 9c ac 24 3d 68 72 fc bd e4 49 b2 bd
       0.102473244 0.040203676 -0.12326509 -0.087055
000020 f6 1a d1 3d 20 1e 04 be 86 f3 06 3e 33 fd c0 bd
       0.102102205 -0.12902117 0.13178834 -0.09423294
000030 6c 73 04 3e 09 e2 a3 bd fa 37 0d 3e 44 1e 08 3d
       0.12934655 -0.08002097 0.13790885 0.03323199
000040 00 b4 67 bb 40 b8 e0 bb a2 9c ae bd 56 aa 8f bd
       -0.003535509 -0.006857902 -0.08525969 -0.07014911
000050 4c bd 00 3e 38 5b bb 3d e6 93 b0 3d 12 cb 96 3d
       0.12572211 0.09148258 0.086219594 0.07362951
000060 6a 65 c5 bd be e5 c7 3d 26 ce de bd b4 66 a5 bd
       -0.09638484 0.09760617 -0.108791634 -0.0807623
000070 c0 b7 04 bd 40 98 33 3b 0e 28 28 bd a8 74 81 3d
       -0.0324018 0.002740398 -0.041053824 0.063210785
000080 bc 8c 13 3e 2e 45 a6 3d 20 eb b2 3b ca cb b2 bd
       0.14409155 0.08118664 0.005460158 -0.08730276
000090 55 2f 8a bd 20 6c a1 bb 70 1d 14 3e c3 60 ab bd
       -0.06747309 -0.0049262196 0.14464355 -0.08368065
0000a0 79 ae bc bd 60 75 ef 3d 80 94 12 bb d2 86 ae 3d
       -0.092129655 0.116923094 -0.0022366345 0.08521809
0000b0 bc 89 db bc ca 1b 16 3e 7c bc 55 bd c2 d6 48 bd
       -0.026799075 0.14659038 -0.052181706 -0.049032934
0000c0 f0 a0 cc bd 68 1e ec bc c6 29 c4 bd 6e e1 0b 3e
       -0.09991634 -0.028823093 -0.0957828 0.13660213
0000d0 1c 7e f0 3d a8 c5 f7 bd 3c 2c 13 3d 4c 2f 6f bd
       0.117428035 -0.12098247 0.035930857 -0.058394715
0000e0 2f 19 0a be a0 9e 68 3d 8c 16 fc 3d 14 ec c9 3d
       -0.1348617 0.0567919 0.12308988 0.098594815
0000f0 8c 71 0d 3d b4 2b 07 3e 59 0d 93 bd ac 1c ab bd
       0.034532115 0.13200265 -0.0718028 -0.08355078
000100 5f 82 f6 bd 14 b0 f6 bc 58 2e b3 bc 24 24 46 bd
       -0.12036585 -0.030113257 -0.021872684 -0.04837431
000110 52 92 01 3e a8 94 83 bc 10 2d 71 3d a4 4f e7 3d
       0.12653473 -0.016062096 0.058880866 0.11294487
000120 0c 36 d7 bd ac 34 0a 3d 49 a6 d0 bd 46 52 c9 3d
       -0.105083555 0.033741638 -0.101879664 0.098301455
000130 7c 06 4c bd 3c 9f 08 3e 08 27 ff 3d 80 62 81 ba
       -0.04981087 0.13341993 0.124586165 -0.0009871274
000140 d6 9c 43 bd 2a 6f 77 bd dd ac ea bd 94 90 e7 bc
       -0.047756992 -0.06040875 -0.11458752 -0.028267182
000150 3c 1c f5 3d 58 4f 0f 3e 2a e2 0b be fb 98 16 be
       0.11968276 0.13995111 -0.13660493 -0.14706795
000160 47 5d 01 be 5c f1 51 3d 86 d7 cb 3d 03 28 84 bd
       -0.12633239 0.05125557 0.09953217 -0.06452944
000170 74 d5 ef 3d ec 0f a0 3d 10 63 5a 3d dc 2c d9 bd
       0.11710635 0.07815537 0.05331713 -0.10604259
000180 74 72 c1 3d f2 0b 8d 3d 80 d4 a0 3a d0 6b 55 3d
       0.09445658 0.06887044 0.0012270361 0.05210477
000190 33 a6 ab bd 04 39 78 bd d0 c8 d7 3d 90 39 0b be
       -0.08381309 -0.06060125 0.10536349 -0.13596177
0001a0 c0 cc 0e be 80 e7 ea 3b 62 e5 b0 3d e2 8a b5 3d
       -0.13945293 0.00716871 0.08637501 0.088643804
0001b0 50 0e 4e 3d 50 09 4f 3c dc 92 8c 3d e0 b5 7e bd
       0.05030662 0.012636498 0.06863949 -0.06218517
0001c0 4e c6 43 bd 2c 3f e9 bd c4 1b 02 3e 64 30 6f 3d
       -0.04779654 -0.11389002 0.12705904 0.05839576
0001d0 80 2a 3d 3b 5c 9f c3 3d 42 fa 0a 3e c4 26 87 3d
       0.0028864443 0.0955188 0.13572028 0.06599191
0001e0 9e 73 11 3e 2c ef d8 3d 14 f1 22 3d dc 8c 11 3d
       0.1420426 0.105924934 0.03978069 0.035534725
0001f0 a6 35 9c bd 60 cb 80 bc 86 42 af bd 2a f7 03 be
       -0.0762742 -0.015721977 -0.0855761 -0.12887254
000200 18 dd e0 3c 40 fb 09 bb aa 98 1e bd 1c c3 16 3d
       0.027449176 -0.0021054298 -0.03871981 0.036807165
000210 c0 b4 ca 3c 56 63 08 3e d4 73 7f 3d d8 1a 04 3e
       0.024744391 0.13319144 0.06236632 0.12900865
000220 20 1a 0c 3e 88 d9 9e 3d 10 9d f4 3d 74 e3 f1 bd
       0.13681841 0.077563345 0.1194402 -0.11810961
000230 0c 33 1a 3d fc 4e de 3d 58 c6 0f 3e ae bf 53 bd
       0.03764634 0.10854909 0.14040506 -0.051696472
000240 23 63 e7 bd 74 2d 78 bd 7c a8 10 3e 86 a0 d3 bd
       -0.11298206 -0.060590222 0.14126772 -0.10333352
000250 78 de 53 3d 3c a7 0b 3d 80 ed 90 3a 28 00 bb 3d
       0.051725835 0.034095034 0.0011057109 0.09130889
000260 4c aa 88 3d 9a db 8c 3d c0 8f ce 3c 10 a2 89 3c
       0.066731066 0.06877823 0.02521503 0.01680091
000270 68 c6 b1 bc 08 cf e7 3d cc 4f 06 bd 6c d0 01 be
       -0.021701053 0.11318785 -0.032790944 -0.12677163
000280 64 57 8f 3d 5c 6d db 3d 08 33 95 3c 34 c9 ef bc
       0.0699909 0.10714218 0.01821281 -0.029270746
000290 d0 30 8e 3d 30 9b 0f 3e 40 12 f0 bd 6e 4e 61 bd
       0.06942904 0.14024043 -0.11722231 -0.055006437
0002a0 f0 31 10 bd 48 f5 3d 3d 3a 39 b7 3d ad 52 9a bd
       -0.035203874 0.046376497 0.08946462 -0.075353004
0002b0 87 b3 82 bd 64 00 61 3d e7 94 c5 bd 60 a0 c3 3b
       -0.063818984 0.054932013 -0.096475415 0.005970046
0002c0 38 65 12 3e 04 da 7e 3d 8c bc 0a be 51 41 8e bd
       0.14296424 0.062219635 -0.13548487 -0.06946052
0002d0 c4 a5 0c 3d 40 f7 c1 3c 4a 1d 01 3e 10 4d 8b bc
       0.034337774 0.023677468 0.12608829 -0.01700452
0002e0 bc fe 0a bd 6c 40 10 3e 10 44 a0 bd b4 39 df 3d
       -0.03393434 0.14087075 -0.07825482 0.10899678
0002f0 2f 5a 13 be 00 20 d1 b7 b8 72 8f bc 47 cc d5 bd
       -0.14389871 -2.4929643e-05 -0.017510757 -0.104393534
000300 64 c5 09 3e e0 37 b6 bc 54 4a ff bd b2 15 cc bd
       0.13454205 -0.02224344 -0.12465349 -0.099650756
000310 60 75 8c 3d 48 6f 83 3c 80 d1 63 3b d2 05 d0 3d
       0.06858325 0.016044274 0.0034762323 0.1015736
000320 78 1a fb bd 50 39 00 bd 48 93 b1 3c c6 f3 3e bd
       -0.12260908 -0.031304657 0.021676674 -0.0466192
000330 8a c7 ea bd 40 fe c4 3b b1 84 f7 bd 70 f0 d7 3c
       -0.1146384 0.0060117543 -0.12085856 0.026359767
000340 60 a6 cb 3c 24 f5 2f 3d c0 0e 28 bc 88 50 b5 bc
       0.024859607 0.042958394 -0.010257423 -0.022133127
000350 94 1c ee 3d 3c 48 d7 bd 10 92 0f 3e 5e 33 02 be
       0.116265446 -0.105118245 0.14020562 -0.12714908
000360 92 f4 20 bd c0 a8 97 bc 00 b6 86 3d 0a 47 db bd
       -0.03929574 -0.018513083 0.065776825 -0.10706909
000370 b0 6c ed bd 24 25 cf 3d ae ad 99 bd ca cd 0e bd
       -0.11592996 0.10114506 -0.0750383 -0.034864224
000380 82 1c 12 3e 32 45 10 be e0 86 e2 3d 16 cf f2 bd
       0.14268687 -0.14088896 0.110608816 -0.11855905
000390 c8 de c2 3d 14 c7 16 3e ac bc cd 3d b6 07 40 bd
       0.095151484 0.1472438 0.10045752 -0.046882354
0003a0 53 a0 02 be e0 96 33 3d fe 40 fb bd b8 e6 2d bd
       -0.12756471 0.043845057 -0.12268256 -0.04245636
0003b0 c0 6d ac bb a4 ca a8 3d 45 00 14 be 7e ae 9b bd
       -0.0052621067 0.08241776 -0.14453228 -0.07601641
0003c0 60 d2 4b 3d 58 07 ea 3d af 89 0d be 96 c8 0b be
       0.049761176 0.11427182 -0.13822053 -0.13650736
0003d0 ca cf 89 bd fb 50 80 bd 98 c7 b8 3d 24 3d c9 3d
       -0.06729086 -0.06265446 0.090224445 0.09826115
0003e0 e0 5c 8f bd e9 0e d4 bd 54 e3 e7 bd ac 1a 5c bd
       -0.070001364 -0.103544064 -0.11322656 -0.053736374
0003f0 0c ab 57 3d dc 0f df bc 97 1b 82 bd 6c 6e 74 3d
       0.052653357 -0.027229242 -0.063529186 0.05967562

fc1.bias f4 [20]
000000 64 26 f8 bc a7 d0 04 39 68 66 58 bc d7 4b 32 bd
       -0.030291744 0.0001266623 -0.013208009 -0.043529358
000010 2c 03 89 bc 80 b4 4c bc 16 db 54 bd 1d 73 b8 bc
       -0.016725145 -0.012494206 -0.05196675 -0.022515828
000020 c6 f1 f4 3c a0 dd c4 bb 24 1d e6 bc 00 13 3d 3d
       0.029900443 -0.006007865 -0.028090067 0.046160698
000030 02 0d 14 bd b8 10 6d bd 18 c1 18 3c b3 14 ed bc
       -0.036145218 -0.057877272 0.009323381 -0.028940534
000040 48 d1 70 3d e1 15 97 bc fe 58 58 3c 90 b9 a5 bc
       0.058793336 -0.01844305 0.013204811 -0.020230085

fc2.weight f4 [20, 20, 1]
000000 40 e0 37 bc 80 a4 11 bd 58 0a 60 3e 7d 9e 52 3e
       -0.011222899 -0.03555727 0.21878946 0.20568271
000010 00 d5 af bb d2 a4 4c 3b c4 a7 1e 3e 1e 81 38 bd
       -0.0053659678 0.003122617 0.15493685 -0.04504501
000020 a5 77 b8 be a5 bf 03 3e ce 52 48 be ed c4 a5 be
       -0.36028782 0.12866075 -0.19562837 -0.32376805
000030 33 ea 31 be db 52 5c be 7c 02 44 3e 7b 55 b6 3d
       -0.17374496 -0.21515982 0.19141573 0.08903023
000040 52 2e 7b bc 9f 48 c7 3e 3c 0f ae 3d 1f 1b 5a be
       -0.015330868 0.38922593 0.084989995 -0.21299408
000050 4c 91 9a 3e 52 5f 58 bd f8 ad 11 3e 6d 20 23 be
       0.30188978 -0.05282528 0.1422652 -0.15930338
000060 1c 60 a4 3d e9 71 a1 3e 93 e0 6c bd 10 37 1e bd
       0.08026144 0.3153222 -0.05783136 -0.03862673
000070 ea 93 22 3e dc 5e 43 3e 42 37 9e be a4 e2 91 be
       0.15876737 0.19079155 -0.30901533 -0.28493226
000080 ed 9d 4d be 63 f3 1c 3e 3a 6c b2 3e 7e d1 70 bd
       -0.20079775 0.1532722 0.34848195 -0.058793537
000090 e5 31 c5 be 37 7b 36 3e 19 0a 78 3e 08 9e 35 3e
       -0.3851463 0.1782044 0.24222602 0.17736065
0000a0 20 d1 4c 3e 12 fb 04 3e 77 bf c2 be 2e f5 a2 3e
       0.2000165 0.129864 -0.380367 0.31827682
0000b0 73 f3 90 be a7 8a 9d be f4 e3 97 3d 58 1e 05 3c
       -0.28310737 -0.30769846 0.074165255 0.00812491
0000c0 06 af 7a be 25 b6 99 be 3b 7e 4e be 09 71 7e be
       -0.24480829 -0.30021778 -0.2016534 -0.24847807
0000d0 4c 59 e0 3d eb 3a 91 be 80 8e 96 bd b9 8e 4e 3d
       0.10954532 -0.28365263 -0.073513985 0.05042908
0000e0 4b 70 b0 3e 11 dc a4 3e 2c 15 00 3e 00 36 e8 ba
       0.34460673 0.32199147 0.12508076 -0.0017716289
0000f0 b4 cd c2 3e 92 26 91 3e 74 7c 0a be 64 36 a8 3d
       0.38047564 0.2834974 -0.13524038 0.08213499
000100 66 68 a4 3e b3 0e 5f 3e a3 7b 8f be 43 df 84 3d
       0.321109 0.21782951 -0.28024015 0.06487896
000110 13 c6 bc bc 98 9d 94 3e b8 f8 e0 bd 79 33 35 be
       -0.023043668 0.29026484 -0.10984939 -0.17695417
000120 ac 47 8e bd 4f 4f b2 bd 08 e7 8b bd 37 30 be 3e
       -0.06947264 -0.08706533 -0.06831175 0.3714616
000130 ef a9 00 be 69 24 5e be 08 e7 7f 3e 94 55 c4 3e
       -0.12564825 -0.21693577 0.24990475 0.3834654
000140 b8 2e 46 3e be a4 7d bd 78 ef 1c 3e ca 83 dc bd
       0.1935376 -0.06192469 0.15325725 -0.10767324
000150 d0 0f 79 bd ff 9e 06 bd 9e bc 08 be 38 16 47 3e
       -0.060806096 -0.032866474 -0.13353202 0.1944207
000160 56 4b bd bd 9e 81 97 3e 10 10 e5 3c 4e f7 b8 3e
       -0.09242885 0.29591078 0.02796176 0.36126179
000170 64 6e 99 bd ea b0 a8 3e b0 0c e8 bc d1 1b ae 3d
       -0.074917585 0.32947475 -0.028326362 0.08501399
000180 17 92 1f be 5c 39 bf be bd ea 1f 3e e8 11 21 3e
       -0.15583073 -0.3734845 0.1561689 0.15729487
000190 68 47 3f 3e ec 3a f5 bd bc d6 64 3e c4 03 e1 bc
       0.18679583 -0.11974129 0.2234754 -0.027467616
0001a0 e4 7e b4 3e 42 e8 24 be c2 70 76 3e 61 3b c3 3c
       0.3525306 -0.16104224 0.24066451 0.023832025
0001b0 80 3e de bd 44 05 05 3e ec 78 af 3e 32 3c ba 3e
       -0.10851765 0.1299029 0.34271944 0.3637405
0001c0 04 c5 c1 3e 32 0a b1 be 64 72 91 3e 0c 27 47 3e
       0.37845623 -0.3457809 0.28407586 0.19448489
0001d0 9f 02 c6 3e 79 1c 9f 3c 6b e9 70 be 90 67 fb 3d
       0.38673875 0.019422757 -0.23526542 0.12275612
0001e0 5a 51 bc 3e ed ed 51 3e 60 9c 8e bc e4 ce a8 be
       0.36780816 0.20500918 -0.01740855 -0.32970345
0001f0 dc 21 70 3e 97 71 a2 be 2d 2a 6f be d8 c7 5f 3e
       0.23450416 -0.31727287 -0.23355933 0.21853578
000200 87 49 70 bd 98 30 a5 be b6 1c 67 be 30 7e a8 3c
       -0.05866387 -0.32263637 -0.22569546 0.020567983
000210 64 26 34 3e be 91 15 be 2c ec 2a 3e 5a 7f 96 3c
       0.1759277 -0.14606377 0.16691655 0.018371273
000220 18 fd 08 3e cf 22 1b 3d 01 99 0a 3e 80 39 84 3e
       0.13377798 0.037874993 0.13534929 0.2582512
000230 cc 69 a9 3d 30 4b a1 3e 20 1c bb 3e f0 02 a3 3d
       0.08272132 0.31502676 0.36544895 0.07959545
000240 24 d9 b0 3d 70 5e 5d be ac c0 a4 3e 68 63 b6 bd
       0.08635166 -0.21618056 0.32178247 -0.08905679
000250 38 20 9f 3e d0 ca 46 3d 88 a2 87 3d 00 31 9f bb
       0.31079268 0.04853326 0.06622797 -0.004858136
000260 a0 cc d0 3d 84 ff 4a 3e 83 76 94 be 95 65 72 be
       0.10195279 0.19824034 -0.28996667 -0.23671563
000270 9f 53 96 be 08 54 88 be 26 ec 1d be 18 cf c4 3e
       -0.29360673 -0.2662661 -0.15422115 0.3843925
000280 8a d5 af 3e 89 97 9e bd 20 ef 63 3e 78 3f c4 be
       0.34342605 -0.07743747 0.22259188 -0.38329673
000290 30 e0 ba 3e 10 4d 00 bc b3 19 d9 bd 01 a5 61 3e
       0.36499166 -0.007830873 -0.10600605 0.220356
0002a0 0a fe 1f 3d 2f 4c 48 be 10 17 e5 3c 88 3b a0 3e
       0.03906063 -0.19560312 0.027965099 0.3129542
0002b0 d0 29 79 be 3b 26 b3 3e 34 90 b7 be 62 6d c3 be
       -0.24332356 0.34990105 -0.35852206 -0.3816939
0002c0 23 33 d7 bd 84 0b 9b 3e 90 c4 66 3d b8 c9 f9 bd
       -0.105078004 0.30282223 0.0563398 -0.12196678
0002d0 94 21 d5 3d 92 ed bf 3e a8 99 87 3e a3 3d 73 be
       0.10406795 0.3748594 0.26484418 -0.23753981
0002e0 20 9d 2c 3e 2b df a6 be 9b d0 96 be cc 76 69 3e
       0.16856813 -0.3259214 -0.29456028 0.22799224
0002f0 95 ea 45 bd ed 84 3b 3e 90 06 6a be 77 69 52 be
       -0.048319418 0.18312426 -0.22854066 -0.20548044
000300 bc 62 6c 3e bd bb 3b bd b4 79 b8 3d 14 d3 3a be
       0.23084539 -0.045833338 0.09007588 -0.18244582
000310 f5 a2 17 3e 76 88 7d 3e 7e f9 9c be 4a f1 30 be
       0.14808257 0.24759087 -0.30659097 -0.17279544
000320 20 17 4b bc 7a c1 22 3d b5 b7 83 be f5 3a 74 3e
       -0.01239565 0.039735295 -0.25726095 0.23850615
000330 6c 2c 7c 3e 8f 30 bf be 7d eb 8e 3e 2f d6 9e bd
       0.2462632 -0.37341735 0.27914038 -0.07755696
000340 85 54 2c 3e 63 7f bf 3e d0 10 82 bc 04 35 1e 3e
       0.16829117 0.37401876 -0.015877157 0.15449911
000350 90 5a 4d 3e 58 dd c7 be da de b8 be 13 e1 a5 3e
       0.20054078 -0.3903606 -0.36107522 0.3239828
000360 0b ea c4 3d 3f 3c 9e 3e 3e 45 d1 bd f0 6d bb 3c
       0.09614953 0.3090534 -0.10218285 0.02287957
000370 9c c9 8e bd 47 2d 80 be 24 03 03 be 18 6a a8 bd
       -0.06972048 -0.25034544 -0.12794167 -0.08223361
000380 20 21 18 3e d0 c9 d7 bd 7a 84 90 be ae 08 36 be
       0.14856386 -0.105365396 -0.28226072 -0.17776749
000390 fa b3 42 be 1c 52 a6 be f0 f3 8a 3e fc f7 a0 bd
       -0.19013968 -0.3248452 0.27139235 -0.07859799
0003a0 12 40 b8 3e fc 9a 99 bd 78 cf 15 be e4 c2 b3 be
       0.35986382 -0.07500264 -0.14629924 -0.35109627
0003b0 30 2e 36 3e f4 98 8d bd 64 10 46 3e e4 9a 2b 3e
       0.17791057 -0.06913939 0.1934219 0.16758305
0003c0 a2 b6 c3 be f8 f7 24 bd ce b5 84 3e e0 51 8b bd
       -0.38225275 -0.040275544 0.25919956 -0.06802726
0003d0 68 81 65 3d b0 1b ab 3e fa 84 10 be bc b0 bf bd
       0.056031615 0.3341956 -0.14113227 -0.09359881
0003e0 2f 4c 1d be 7a e8 75 be 6e 02 aa 3e 84 f9 69 3e
       -0.15361093 -0.24014464 0.3320498 0.22849089
0003f0 cc 03 b0 be f0 8b 8d be 30 49 fe bc 1c 25 ba 3d
       -0.34377897 -0.27645826 -0.031040758 0.09089109

fc2.bias f4 [20]
000000 1e af 41 3e e7 75 42 be 15 bd 4c bd 74 5b be 3d
       0.18914458 -0.18990289 -0.04998501 0.09294787
000010 15 9c 23 3e f9 85 ea 3d 48 48 0c 3d b8 35 3a be
       0.1597751 0.114513345 0.03424862 -0.18184555
000020 f3 2f 03 3e 0c dc 8f bd 04 4b 3f 3e 44 4a f1 3d
       0.1281126 -0.070243925 0.1868096 0.11781743
000030 84 e5 10 3e d0 21 4b bd 50 83 80 3c 26 03 92 bd
       0.14150053 -0.049592793 0.015687615 -0.07129507
000040 44 d7 b1 bd cc 8b 2e be de 6d 41 3e d5 98 63 be
       -0.08683637 -0.17045516 0.18889567 -0.2222627

fc3.weight f4 [1, 20, 1]
000000 fa 0f 36 3e 18 97 c6 be 43 2a 03 be 81 36 05 be
       0.17779532 -0.3878715 -0.1280909 -0.13009073
000010 7e ce 83 be d0 b0 a0 3e ac f8 70 3e 0e b7 ff 3e
       -0.2574348 0.31384897 0.23532361 0.49944347
000020 17 35 04 be e1 b7 0d 3e 76 49 11 3e 05 56 03 3f
       -0.12910877 0.13839675 0.1418818 0.5130313
000030 e8 de 18 3e 90 08 fa 3e 2e 85 f1 3e 88 3a aa 3e
       0.14928782 0.48834658 0.4717192 0.3324778
000040 4e 92 b4 3e 34 d3 ca bd ac 09 e8 3c e0 69 c6 3d
       0.35267872 -0.09903565 0.028324924 0.09688163
