Task assignment/drl4vrp/vrp/10/19_20_26.716625/checkpoints/13/actor.pt (torch, 734651 bytes, 14 tensors)

static_encoder.conv.weight f4 [128, 2, 1]
000000 d6 af 1b be 84 5c 1a 3e b4 af ec 3d 78 81 83 3b
       -0.15203795 0.15074354 0.1155695 0.0040132366
000010 47 73 dd bd 7d 50 6b 3d 34 37 b7 bd 60 dd 79 bd
       -0.10813003 0.057449806 -0.08946076 -0.061002135
000020 a7 32 e8 3d 58 6c f4 3d 1b 52 ab bd 7d 2c 45 bd
       0.11337786 0.119347274 -0.0836527 -0.04813813
000030 96 33 4a 3e 4a bf 0d bd 29 c6 f2 bd 73 fd 40 3e
       0.19746241 -0.034606256 -0.11854202 0.18846683
000040 05 35 3d be 68 1d 3e 3d 70 f1 c3 3d d4 36 e6 3d
       -0.18477257 0.046414763 0.09567535 0.112409264
000050 bd b7 0f be 0d 70 9e bd ae 1c 15 be 4b 05 3d be
       -0.14034934 -0.07736216 -0.14561722 -0.1845905
000060 31 0c 35 bd be 85 53 be 0b 8e 3c be 79 f2 55 bb
       -0.04420108 -0.20656487 -0.1841356 -0.0032645746
000070 14 a5 36 3e c1 94 fc bd 64 ce 2f 3e 04 0a 9e 3c
       0.1783641 -0.1233306 0.17168576 0.019291885
000080 b4 b3 3a 3e 79 64 86 bb db d3 11 be 6f 59 03 bd
       0.18232614 -0.0041013327 -0.14240973 -0.032067712
000090 7a e3 b5 bc da 3c 3d 3e 8c b9 46 be 58 03 40 bd
       -0.022203196 0.18480244 -0.19406718 -0.04687819
0000a0 ba 60 18 3e d7 2a 43 be 2e 41 d3 bd 1d 85 e7 bd
       0.14880648 -0.19059311 -0.103151664 -0.11304686
0000b0 47 cf cb bb ed e5 ae bd 66 35 db 3d 2a a3 c0 bd
       -0.0062197777 -0.085399486 0.10703544 -0.09406121
0000c0 13 9b 28 3d 5d 69 bd 3c b2 aa 4d 3e 79 43 33 3c
       0.041163515 0.02312153 0.20084646 0.01094138
0000d0 c5 23 eb 3c bb 71 13 3d 85 d3 14 be d1 e9 23 bd
       0.02870358 0.035997134 -0.14533813 -0.040017907
0000e0 61 b4 10 be ed 9d c5 3d 5a 30 40 3b 8c 06 43 3e
       -0.14131309 0.096492626 0.0029325695 0.19045466
0000f0 f3 5f a1 bd 09 63 48 3c 3e f2 9a bd f5 97 29 bd
       -0.07879629 0.012230643 -0.07565735 -0.041404683
000100 be 2e 4a 3e 2f 25 05 be 50 d7 12 3e d8 0b 15 be
       0.19744393 -0.13002466 0.14339948 -0.145553
000110 b1 61 05 bd df b2 a6 3d 65 8a 46 be 3b 1d e1 3d
       -0.03256387 0.08139586 -0.19388731 0.109919034
000120 09 6b c4 bd 29 04 26 be 35 c3 cc bd f4 b8 0b 3e
       -0.09590728 -0.16212524 -0.0999817 0.13644773
000130 0d 52 7e 3d e5 db e2 3d bf 58 30 3e ba 88 df bd
       0.06208997 0.11077098 0.17221354 -0.109147504
000140 61 01 0d be d1 90 14 3d 8a 1f b7 bd cd 74 03 3e
       -0.13770057 0.03627092 -0.089415625 0.12837525
000150 b3 e0 fc bd 40 af 2d be 4f 1f 25 3e 4d b4 b2 bd
       -0.123475455 -0.16961384 0.16125225 -0.08725796
000160 c6 81 8c bb 0a 61 21 3c 4d 0b 01 3e 45 46 e9 3d
       -0.004287931 0.009849796 0.12601967 0.11390356
000170 b7 bf 12 3e fe 67 30 3d 01 a0 49 3e eb 33 e9 bc
       0.14330946 0.043067925 0.19689943 -0.02846714
000180 ec c8 7d 3d 2e 73 89 3d 24 7a a2 3d 57 af 04 be
       0.061959192 0.06711422 0.07933453 -0.12957512
000190 d6 21 4a 3e 9c 95 9a bc f1 c4 c1 bc a5 ee db bd
       0.1973947 -0.018870167 -0.02365348 -0.10738877
0001a0 56 1a 09 bd c1 cd d9 3d a0 41 9e bd 03 8a 58 be
       -0.03347238 0.106349476 -0.07727361 -0.21146397
0001b0 55 64 8f bc 2c f4 c5 bd 57 48 22 bc 3a 16 b8 3c
       -0.017503897 -0.09665713 -0.0099049425 0.022471536
0001c0 83 25 32 3e aa c8 4e 3e d4 dc 33 be 60 2d 56 3e
       0.17397122 0.20193735 -0.17564708 0.20915747
0001d0 2b cd 4b 3e d7 fc 08 3d f4 6c 11 3e dd 39 ba 3d
       0.19902484 0.033444252 0.14201719 0.09093068
0001e0 e4 d9 9a 3d eb fa 67 bd 00 ae ab 3d b2 2a 45 be
       0.075610906 -0.05663578 0.08382797 -0.19254568
0001f0 45 51 45 be 72 76 33 be 55 36 86 3d dc 86 12 3e
       -0.19269283 -0.17525652 0.06553332 0.14309257
000200 f1 2e ce 3d 78 96 f7 3c 2e 3e 4d be ce c2 6e bd
       0.10067547 0.030223116 -0.20043251 -0.05829125
000210 d8 38 11 be b1 d7 10 be c8 cf 83 bb b4 d5 6b bc
       -0.1418184 -0.1414478 -0.004022572 -0.0143942125
000220 1d 82 59 be 13 9b e7 3c 10 89 82 3c aa 02 45 3e
       -0.2124104 0.028272187 0.015934497 0.19239298
000230 4e 7d 20 3d 4b 93 4b 3e 2c d4 76 bd 6a 4d f4 3b
       0.039182 0.19880407 -0.060260937 0.0074555175
000240 43 f7 91 bd 59 6b e5 bd b8 d1 77 3d 46 30 01 3e
       -0.071272396 -0.112021156 0.060502738 0.12616071
000250 f2 a1 8b 3d 1d 99 e0 bb a3 7d bc 3b fc f7 ef bb
       0.06817998 -0.00685419 0.0057522818 -0.007323263
000260 39 97 7e bd 82 8f 0a 3d d6 ab d7 3d 3e 83 04 3d
       -0.062155936 0.033828266 0.10530822 0.032351725
000270 00 11 3d 3e a4 ba 02 3e 66 de fb bd a5 72 4f be
       0.18463516 0.1276651 -0.122982785 -0.20258577
000280 b9 79 83 bd 67 bd 52 be 6d 93 54 be de a4 15 be
       -0.06419701 -0.20580064 -0.20759363 -0.14613673
000290 57 6b 05 be 66 8b 01 be f1 ee 4c be cc 27 71 bd
       -0.13029228 -0.12650833 -0.20013024 -0.058875844
0002a0 bb 6b 4f be 82 38 8a 3a 97 e1 89 3d 96 be 05 3e
       -0.2025594 0.0010545405 0.06732481 0.13060984
0002b0 c8 70 55 3e 39 5e 34 be ab fb e3 bc 73 c1 a6 bd
       0.20843804 -0.17614068 -0.027829966 -0.08142366
0002c0 55 14 79 bc cb f9 91 bd 46 f3 40 be 06 bb 06 bd
       -0.015202601 -0.07127722 -0.18842801 -0.032893203
0002d0 1e 89 03 3e c5 4e f3 3d a7 45 45 be 79 e3 92 bd
       0.12845275 0.118802585 -0.19264852 -0.07172293
0002e0 37 6a 4c bd 6e 4b 81 bd 3c 5b 04 be cd ec 1d 3e
       -0.049905982 -0.06313215 -0.12925428 0.15422364
0002f0 01 72 36 3e 78 80 14 bd 7e 5c c6 bc 1d ce 38 bd
       0.17816927 -0.03625533 -0.024214026 -0.04511844
000300 7c fc 0e be e2 43 47 be 63 10 6f 3c ba 2d 13 3e
       -0.13963503 -0.19459489 0.014591309 0.14372912
000310 d4 23 2a be e2 c3 1f 3e 60 c3 79 3d 41 12 55 be
       -0.1661523 0.15602067 0.06097734 -0.20807745
000320 eb 22 a3 3d d0 0b 57 3d da dc f5 bd e2 d7 a0 3d
       0.079656444 0.0525015 -0.12005015 0.078536764
000330 d6 1b 3c 3e 02 13 42 be 52 c6 8f 3c fc 1c ea 3c
       0.18369994 -0.18952563 0.017550621 0.028578274
000340 91 a8 4b be 55 85 41 3c 9a a1 f0 bc 8a 4c b2 bc
       -0.19888522 0.011811574 -0.029373933 -0.021765012
000350 75 ee ec bd c9 49 57 bd 0f b0 33 be 14 e8 8c 3c
       -0.115689196 -0.0525606 -0.1754763 0.017200507
000360 71 d1 01 3e 3e 49 11 be 32 45 94 3d 2c d1 3f bd
       0.12677552 -0.14188096 0.072397605 -0.04683034
000370 f2 22 27 3e 93 e7 d0 bd 9f a6 41 be 1e 08 4d bc
       0.16321924 -0.10200419 -0.18911217 -0.012514142
000380 43 02 0a 3e c6 dd 60 bd 1d 1f 26 be dd cd 8e 3d
       0.13477425 -0.054899 -0.16222806 0.06972859
000390 e6 c3 3e 3e 6d d5 1f 3c 61 46 dc bd a3 b4 2a 3e
       0.18629417 0.0097554745 -0.10755611 0.1667047
0003a0 56 d1 8e 3d d1 4f 3f be bd ba 1a 3e 98 36 99 bd
       0.069735214 -0.18682791 0.15110298 -0.07481116
0003b0 37 d2 9c 3c f5 20 df 3d 4d be 03 3e e6 bf 3c bd
       0.019143207 0.10894958 0.12865563 -0.046081446
0003c0 57 a4 09 3e fd 34 e2 3a 35 52 46 be a8 de 2d be
       0.13441597 0.0017258223 -0.19367297 -0.16979468
0003d0 7e 7b be 3d 1d 73 42 3e ae 9e 4c 3d aa d4 2e 3e
       0.09300898 0.18989225 0.049956016 0.17073312
0003e0 3e 5e 17 3e bc cb be bd 21 3b 96 3d 1a 97 ba bd
       0.14782044 -0.09316203 0.07335497 -0.091108516
0003f0 cd 55 c5 bd ff b1 47 bc b4 03 b8 bd 73 19 c3 3c
       -0.09635506 -0.012188434 -0.08985081 0.023815846

static_encoder.conv.bias f4 [128]
000000 6b 3c d9 be 5c 78 82 be 7a 88 29 3f 71 85 8d 3d
       -0.42428908 -0.25482452 0.6622387 0.069102176
000010 07 46 33 bf b7 48 aa 3e 6e a1 c4 be 3d 0a 20 bf
       -0.7002873 0.33258602 -0.3840441 -0.6251562
000020 06 5f 88 3e df a6 0a 3e d8 3f 06 bf c7 db 05 3f
       0.26634997 0.13540219 -0.5244117 0.5228848
000030 84 68 b5 3e c2 ee 0f bf e2 2e dd 3e 58 f2 d6 3e
       0.35431302 -0.5622369 0.4319983 0.4198177
000040 b4 08 b7 3c c9 60 1a bf f2 c7 30 bf d0 16 0c 3e
       0.022343017 -0.6030393 -0.6905509 0.13680577
000050 80 a1 2d bd 49 d7 97 3e a4 d5 a0 be 51 97 3b 3c
       -0.042390347 0.29656437 -0.31412995 0.011449651
000060 5b af 9d bc 7b 91 28 bf 3f ec e5 3e 77 43 fc 3d
       -0.019248655 -0.65846986 0.44906804 0.123175554
000070 74 2f e5 be c3 fa 5c 3e c7 ed 02 3e cd 47 8b 3d
       -0.44762766 0.21580033 0.12786017 0.06800804
000080 4e 8b 4e 3d c4 3b 2d 3f 75 16 2c 3c 49 a5 0c 3f
       0.05042582 0.6766932 0.010503401 0.54939705
000090 8b e2 bc be 3c 18 15 3f 56 94 0a 3f 8d 5d 21 bf
       -0.3689159 0.58240104 0.5413259 -0.6303337
0000a0 43 7f ae be 2c de e1 be 50 7d 04 bf 40 41 08 3f
       -0.34081468 -0.44114816 -0.5175371 0.53224564
0000b0 00 40 3b 3d 35 79 16 3f 00 15 ba 3e 7a 1a ce 3e
       0.045715332 0.587787 0.36344147 0.40254575
0000c0 52 de 2d bf 89 6f 5a 3e 29 ce 6c be c9 4e af 3e
       -0.6791736 0.2133161 -0.23125519 0.34239796
0000d0 46 f3 33 3f 8e ea b5 be 5d 0a a2 3e 08 0a f4 3e
       0.7029308 -0.35530514 0.31648532 0.47663903
0000e0 3c 57 d5 3e 35 c1 b2 be fd cf 14 3f 0a 00 1c 3f
       0.41668117 -0.3491303 0.58129865 0.6093756
0000f0 bc 1f 04 3f e8 d9 e5 3d bd 17 85 3d 6d cc 98 be
       0.5161092 0.11223203 0.06498668 -0.29843464
000100 5b 52 28 be 6f f4 d1 be e3 a3 cc 3e 56 81 d4 be
       -0.16437666 -0.410068 0.39968786 -0.41504925
000110 5c 4a 5f 3e 90 bd d4 be a0 5f 01 be ed 1c 13 3f
       0.2180571 -0.41550875 -0.12634134 0.5746601
000120 1e 86 e7 3e 14 c1 3f 3d 48 85 ec 3e a3 be 41 3e
       0.4521951 0.046814993 0.46195436 0.18920378
000130 31 0d f2 3d b8 5f ff 3e 96 28 d3 3e d0 ee 01 bf
       0.11818922 0.49877715 0.41241902 -0.50755024
000140 59 ad 14 bf 38 57 30 bf b0 75 2e bf cc 38 9d 3e
       -0.5807701 -0.68883085 -0.68148327 0.30707395
000150 9e c7 ee be 8f 31 24 bf dd 7e d7 be ad b9 19 3f
       -0.4663667 -0.6413812 -0.42088977 0.60048944
000160 e9 ac ee 3d 50 cb f0 3e 63 72 ed 3e 5a 5d cd be
       0.11654074 0.47030115 0.46376333 -0.40110284
000170 38 67 c5 3e 3c d2 1f 3f 6f 4b 00 3f 66 54 76 bd
       0.38555312 0.6243017 0.501151 -0.060139082
000180 6a 37 7c be 44 53 bd be 20 7c 71 be d6 9c 61 be
       -0.24630514 -0.3697759 -0.23582506 -0.22032484
000190 74 66 ca be 55 18 41 3e 05 5a 22 bf 12 40 05 bf
       -0.3953129 0.18856938 -0.6341861 -0.5205089
0001a0 29 f0 30 bf db 34 ed be dd f2 b6 3e ec f5 1a 3f
       -0.69116455 -0.46329388 0.35732165 0.60531497
0001b0 34 5c 26 be 9f 6b 34 bf 83 c5 ce 3e 39 ef 03 bf
       -0.1624611 -0.70476717 0.40385064 -0.515369
0001c0 a2 c4 33 3f a8 b3 11 3f 36 20 7a 3e 5c 19 f4 3e
       0.7022191 0.5691476 0.2442635 0.47675598
0001d0 49 48 a4 be 8c 89 d0 3d 4b c2 02 be 42 0d d8 be
       -0.320864 0.10182485 -0.1276943 -0.42197615
0001e0 1e 71 f8 bd 6f a4 53 3d 71 d1 87 3d 05 a7 f1 bd
       -0.121309504 0.051670488 0.06631745 -0.117994346
0001f0 b4 42 8d 3e 5c 49 96 3d e4 a7 82 be bb 0a b1 3d
       0.27589953 0.07338211 -0.25518715 0.08644625

dynamic_encoder.conv.weight f4 [128, 2, 1]
000000 11 3d f3 3d ae 2c 35 3e 3c 60 75 3d 85 1b 94 3d
       0.11876882 0.17692825 0.05990623 0.072318114
000010 29 7f 03 be bf 14 43 be 4a 49 0b be 3b 58 4c 3e
       -0.12841477 -0.19050883 -0.13602176 0.19955532
000020 b8 60 aa bd ba ff 5f be a0 c1 13 3e 7f 33 20 3d
       -0.08319229 -0.21874896 0.14429331 0.03911161
000030 02 85 bc 3d 0a 7b 82 bd 2d 01 fd 3d 3f fc da bc
       0.09205057 -0.06371124 0.1235374 -0.026731608
000040 f1 72 51 3d 50 fb 51 be 1c 9c cc 3d 55 66 f5 3c
       0.051135007 -0.20506024 0.09990713 0.029956022
000050 5d cd 7e bd 54 dd 0c 3e ac d4 e2 3d 36 0a 5f be
       -0.06220757 0.13756305 0.1107572 -0.21781239
000060 ed aa e7 3d a7 e4 9d 3c ab 2a 1f 3e c0 1e 4f be
       0.113118984 0.019274069 0.1554362 -0.20226574
000070 0a 04 96 3c c6 9d 1e 3e c4 39 d9 3d 1e 26 4b 3e
       0.018312473 0.15489873 0.10606721 0.1983876
000080 5e 5e 8f bd df de 12 3e 19 b5 6e 3c 07 64 52 be
       -0.07000421 0.14342831 0.014569544 -0.2054597
000090 28 1d 90 bd 08 c9 58 3e 96 27 60 bd b9 3c 19 3e
       -0.07036811 0.21170437 -0.054725252 0.1496457
0000a0 5f ba 39 3e e7 ec 43 3e e0 50 ac bd 4c b5 42 3d
       0.18137501 0.1913334 -0.08413863 0.04753618
0000b0 aa 8f 3d be 3d 4a f4 3d 64 eb d7 3d 02 21 14 3d
       -0.18511835 0.11928222 0.10542944 0.03616429
0000c0 2c 50 90 bd 5b 77 07 3e 0f d7 43 3d e9 83 07 3e
       -0.070465416 0.13229124 0.047812518 0.13233913
0000d0 7e d5 5a 3d 1a 41 3c be 97 62 22 be 2c a7 5c 3e
       0.05342626 -0.1838421 -0.15857922 0.21548146
0000e0 d4 c9 3b 3e d0 89 78 bd e7 67 47 be 9b 97 4f be
       0.1833871 -0.060678303 -0.1947323 -0.20272677
0000f0 53 6d 55 bd f5 b3 6c 3e 19 ad 20 be 71 99 5b bc
       -0.052106213 0.23115523 -0.15691032 -0.0134032825
000100 25 d8 6b bd 14 a4 04 be 53 11 0d 3d bf 7f c1 3d
       -0.05757918 -0.12953216 0.03444035 0.09448194
000110 ad 0d 40 3e c3 32 ce bd 67 6c 06 be 14 67 10 3e
       0.18755217 -0.10068276 -0.1312729 0.14101821
000120 d1 a2 b6 bd 23 b1 44 3e a7 4c 12 be c5 4b 6b 3e
       -0.089177735 0.19208197 -0.14287053 0.22978123
000130 ac f5 8a 3d 9e 53 95 3d 4b 77 a1 3d a2 ae 2e 3e
       0.067851394 0.07291339 0.078840815 0.17058805
000140 c1 79 43 be 04 8c 33 3e 06 af 48 bc b5 bc 11 be
       -0.19089414 0.1753388 -0.01224876 -0.14232142
000150 8b 66 ef 3d 1b 4a 39 be 53 db dd bc 45 ae a9 3d
       0.116894804 -0.18094675 -0.027082121 0.082851924
000160 0d 92 9a b9 7c 5d 13 3e 30 d4 47 3e de e4 ed 3d
       -0.00029481985 0.1439113 0.19514537 0.116159186
000170 46 e5 e0 3c ce ae 83 3d 13 c1 5b be 6b 36 37 3d
       0.027453076 0.06429826 -0.2146037 0.04472963
000180 dc 01 3d 3e cb ca dd bb 19 d2 20 3e 72 c5 4e 3e
       0.1845774 -0.0067685596 0.15705146 0.20192507
000190 92 d8 52 be 6f d6 dc 3d 5e d8 4f be 9d 43 64 3e
       -0.20590428 0.107830875 -0.20297381 0.22291417
0001a0 76 67 74 3c c9 3a 04 3e 58 d1 eb bc c0 93 14 3d
       0.014917245 0.1291305 -0.028786346 0.036273718
0001b0 c7 39 49 be 9b 31 29 be fa af ae bc 8a b5 66 bd
       -0.19650947 -0.16522829 -0.021324147 -0.056325473
0001c0 ff e7 07 be 0c b5 5d be 11 6c 36 3e 91 2d 0a 3d
       -0.13272093 -0.21651095 0.17814662 0.03373486
0001d0 02 78 54 be 1f 0c 14 be bb 6c 44 3e 01 1b a8 bc
       -0.20748904 -0.14457749 0.19182102 -0.020520689
0001e0 a4 87 12 3e 36 78 6b bd eb 78 10 3e 62 a2 af bc
       0.14309555 -0.05748769 0.14108627 -0.021439735
0001f0 5f 3e 38 be d8 23 46 3e 9b 28 a7 bc 9a 19 27 be
       -0.17992543 0.19349611 -0.020405104 -0.1631836
000200 e6 34 4b be 4b 61 0f be a2 28 43 be 3c 7e 66 be
       -0.19844398 -0.14001958 -0.19058469 -0.22509092
000210 75 17 ae 3d bd e3 62 3e 1f 71 5b 3d 28 35 f8 3d
       0.08500568 0.22157188 0.053574678 0.12119514
000220 ac 62 c5 bd 62 a0 b4 3d 37 50 f4 3d 91 ac 59 3e
       -0.09637961 0.08819653 0.11929362 0.21257235
000230 3c 3c 3b 3e 96 27 48 3e 19 3b fd 3c dd 74 31 3e
       0.18284696 0.19546351 0.030911969 0.17329736
000240 06 25 8e bd a2 85 0f be b6 35 af bd 4a 77 2d be
       -0.069406554 -0.1401582 -0.085551664 -0.16940036
000250 f2 50 19 be d9 5e 2a be 89 31 97 3d 57 d4 ec bd
       -0.14972284 -0.16637744 0.07382495 -0.11563938
000260 b4 75 15 be 05 f6 5c 3c 1d 32 3c be 69 bd 25 3e
       -0.14595681 0.01348639 -0.18378492 0.16185535
000270 f1 3f 50 3d 7a b3 4f be f2 4d 1e 3e 55 a6 3b be
       0.05084223 -0.20283309 0.15459421 -0.1832517
000280 63 6f 21 3e f6 39 61 bd e7 06 14 be 2e 55 2b be
       0.15765147 -0.054986916 -0.14455758 -0.16731712
000290 00 26 03 3e 39 1c 54 3e bb b2 07 be 2c f1 45 be
       0.12807465 0.20713891 -0.13251774 -0.19330281
0002a0 fb c1 18 3c be b5 48 be d3 3a f5 3b ad ff 42 be
       0.009323592 -0.19600579 0.007483819 -0.19042845
0002b0 dd c8 0f 3e 7c e6 3c 3d a8 18 14 be 8a 7c ad 3d
       0.14041467 0.046118245 -0.1446253 0.084710196
0002c0 86 ce 41 be 60 5e 63 3d 88 d8 52 3e 5a 1f df bd
       -0.18926439 0.055509925 0.20590413 -0.10894652
0002d0 0c f6 0f 3e b6 b1 10 3d f9 c8 8f 3c 90 dc 2d 3e
       0.14058703 0.03532573 0.017551886 0.16978669
0002e0 f5 f7 bc 3c 96 41 0f be 9b 6a f7 bd 3a 7e 6b 3e
       0.023067454 -0.13989863 -0.1208088 0.2299737
0002f0 ce 32 2e 3e 28 b8 1b 3e 32 25 53 3d 9f 16 2d be
       0.17011568 0.15206969 0.051549144 -0.1690316
000300 60 93 c5 3c 71 c3 10 be ac 2c 57 3e 87 3d fc 3d
       0.024118125 -0.14137055 0.21013135 0.12316423
000310 80 86 0c 3e 5d 7a 6b 3e 84 b5 c9 3c 70 50 06 bd
       0.13723183 0.22995897 0.024622686 -0.032791555
000320 d0 80 04 be cd dc bc bd 26 18 fe bd 7a f0 06 be
       -0.12939763 -0.09221802 -0.1240695 -0.13177672
000330 70 c6 0e be d1 89 2b 3e 77 79 bb 3d 89 f0 29 3d
       -0.13942885 0.16751792 0.09154027 0.041489158
000340 a7 a3 3f 3e c5 b0 f3 3d 50 08 0c 3e bd 78 92 3d
       0.18714772 0.118989505 0.13675046 0.07151935
000350 f0 68 3b 3e e4 d1 32 be 83 79 57 be a1 c7 30 3e
       0.18301749 -0.1746288 -0.21042447 0.17263652
000360 64 80 3e 3e 8a 42 02 3d ee 01 69 bd 62 6b 37 3e
       0.18603665 0.031801738 -0.056886606 0.17912057
000370 10 a3 3f 3e 1e c2 02 be 36 ce 1b be 14 27 e4 3d
       0.18714547 -0.12769362 -0.15215382 0.11140266
000380 c6 2e c3 3d 53 64 c6 bd 27 68 ee bd 2d 6c d5 bc
       0.09530406 -0.09687104 -0.11640959 -0.026052559
000390 32 f2 fe 3d 03 36 b4 bd d1 7d af bc ac 49 01 3d
       0.12448539 -0.087993644 -0.021422299 0.0315644
0003a0 95 2d 16 be 8c 53 b1 3d 58 3c c8 3d 99 9f 55 be
       -0.14665826 0.086585134 0.09777135 -0.20861663
0003b0 16 06 57 be f4 95 3c be e3 6c 05 3e 22 65 2a bd
       -0.20998415 -0.18416578 0.13029818 -0.041600354
0003c0 ff a1 28 bd c5 57 7b ba 7a c9 56 3d e6 84 9a 3d
       -0.041170117 -0.0009587969 0.052438237 0.075448796
0003d0 db 0e 09 be ae ce 64 be 69 9d 96 3d b2 8a 4b be
       -0.13384573 -0.22344467 0.07354242 -0.19877127
0003e0 6e 5d d1 bd f3 d4 29 be d3 be 1b be d2 9d 9d bd
       -0.102228984 -0.1658514 -0.15209512 -0.076961175
0003f0 64 92 06 bd f7 f5 4a be 0b 79 96 3d 22 4c ff bd
       -0.032854453 -0.1982039 0.07347306 -0.12465693

dynamic_encoder.conv.bias f4 [128]
000000 6c f3 d4 3e 38 5c 9a 3e 9c 64 2b 3f 30 de ef 3d
       0.41591966 0.30148482 0.6695039 0.11712301
000010 2d 1f 19 be c7 4f 82 3e 04 1e dd 3e 74 b1 ea be
       -0.14953299 0.2545149 0.43186963 -0.4583851
000020 2c 12 53 3d 29 2d 23 be f0 28 78 be 02 19 b3 bd
       0.051531002 -0.15935196 -0.24234366 -0.08745004
000030 98 33 2a 3f 20 94 80 3e 66 80 34 3e 5d bc 05 3e
       0.66484976 0.2511301 0.17627105 0.13060136
000040 70 45 22 3f e0 f8 50 3e 56 0b 09 be 9a cb ae bd
       0.63387203 0.20407438 -0.1338323 -0.08534928
000050 ca 29 2f 3e c1 13 68 3e 08 10 f5 3e 36 c0 a7 3d
       0.17105785 0.22663786 0.47863793 0.08190958
000060 af 5c 9e be 42 eb 18 3f 07 9f 60 be a3 1b 59 3e
       -0.30930087 0.59733975 -0.21935664 0.21201949
000070 67 b7 26 3f 55 59 b4 be 41 89 91 3e 10 79 00 3f
       0.651236 -0.35224405 0.2842503 0.50184727
000080 7e 01 08 3f b2 03 0d 3e 9b 1c dc be 6b 51 d6 be
       0.53127277 0.13770941 -0.42990574 -0.41858992
000090 b0 cf c7 be 0a a2 95 be 79 2c cb bd 6c f5 09 bf
       -0.3902564 -0.29225188 -0.09920592 -0.5389011
0000a0 27 40 03 3f b7 31 a1 3e ab 68 14 3f 14 9e f3 bd
       0.51269764 0.31483242 0.5797221 -0.118953854
0000b0 44 4e 32 be 22 34 4a be 89 6b c8 be 69 e4 09 3e
       -0.17412668 -0.1974645 -0.39144543 0.13466038
0000c0 00 e6 19 3f 75 9c cf bd bd 25 b7 bd c4 f5 9d 3e
       0.6011658 -0.10137264 -0.08942745 0.30851567
0000d0 8b 98 7c 3e 6f d1 e4 3e 5e d3 9a be 01 5e e5 3e
       0.24667566 0.44691035 -0.30239385 0.44798282
0000e0 63 44 1c 3f 63 5e 26 bf b8 30 8b be 38 f3 8e 3e
       0.6104185 -0.6498777 -0.27185607 0.27919936
0000f0 7e e6 e7 3e 2f eb b5 3e 9f b6 71 be 2f e1 15 3e
       0.4529304 0.35530993 -0.2360482 0.14636682
000100 43 66 c7 be 24 17 2a bd 9b 8f 16 bf 1f 50 15 bf
       -0.38945207 -0.041525975 -0.58812875 -0.5832538
000110 c1 18 a4 3e de 6e d0 3e d8 cd 31 3f a4 50 80 be
       0.32050136 0.40709585 0.6945472 -0.25061524
000120 56 e9 1d 3f 65 41 e7 be 5b 19 94 3d 42 88 28 3f
       0.6168417 -0.4516708 0.07231399 0.6583291
000130 59 72 fa 3e cb a0 ae 3e 1d bf 46 be 45 d5 8d be
       0.48915365 0.3410705 -0.19408841 -0.27701774
000140 a6 55 30 bd c5 3d b3 3e bf d3 a3 bd 94 96 2a bf
       -0.04305043 0.35008064 -0.07999372 -0.66636014
000150 03 00 b6 be 36 a2 d5 3e 2c 24 00 be 67 bb 7c be
       -0.35546884 0.4172532 -0.12513798 -0.24680863
000160 fb e7 c6 3d c9 ca 2a bf 73 c0 33 bd f7 30 8e bd
       0.097122155 -0.66715676 -0.043884706 -0.06942933
000170 f8 14 56 be 90 74 2b 3f b1 20 36 be e2 89 06 bd
       -0.20906436 0.66974735 -0.17785908 -0.03284634
000180 bb e4 c7 be da 2c 0d bf 22 0a 01 3f 21 b4 27 bf
       -0.39041695 -0.55146563 0.50406086 -0.6550923
000190 46 13 2c bf ce da 7c 3d e1 c3 20 bf 6b 32 0a 3f
       -0.6721691 0.061732106 -0.6279889 0.5398318
0001a0 c0 02 91 3e db 3d 08 bf b4 bc c7 bd 19 61 df 3e
       0.2832241 -0.53219384 -0.09752789 0.43628767
0001b0 a1 86 c2 3e e9 43 a4 3e e8 91 bf be 0b 86 71 be
       0.3799334 0.3208306 -0.37416005 -0.2358629
0001c0 64 57 6e 3e ab 02 1b 3e 27 65 e3 be d4 b6 6c bd
       0.23275524 0.15137736 -0.4441311 -0.057791546
0001d0 a4 73 82 be 3b a3 0e 3e 33 ec 89 be b6 69 19 be
       -0.25478852 0.13929455 -0.26938018 -0.14981732
0001e0 4e aa 83 3d a9 d1 b0 be b5 30 06 3f 03 c8 09 bf
       0.064289674 -0.34534958 0.5241807 -0.5382082
0001f0 11 f7 11 3f 1b 7c ad 3e 8d 45 aa be f3 20 ce be
       0.5701762 0.33883747 -0.33256188 -0.40259513

decoder.conv.weight f4 [128, 2, 1]
000000 95 6d 2a be 51 9d e4 bd 96 94 08 3e 77 e3 4c bd
       -0.16643365 -0.11162818 0.13337931 -0.050021615
000010 60 0c 9f 3d 99 9e 96 bd 67 a8 0b be 3b e2 33 bc
       0.07766032 -0.07354469 -0.13638459 -0.0109792305
000020 f6 4b 46 3e 10 73 4d 3e 36 06 01 be 89 89 c6 bd
       0.19364914 0.20063424 -0.12600026 -0.096942015
000030 95 fa 10 3e 65 64 f5 3c 34 29 e0 3b 38 9c 53 3e
       0.1415809 0.029955098 0.0068408493 0.20665061
000040 5f fe a9 3d fc 54 43 3e 42 ff 39 be d4 3d 0d 3e
       0.083004706 0.19075388 -0.1816378 0.13793117
000050 ef 86 52 3e 1f f6 40 3e cf cb 54 3d 72 c5 50 3e
       0.20559286 0.18843888 0.05195218 0.2038782
000060 95 3f 7a bd 1e e2 b4 3c 89 50 13 bb 86 23 e5 bc
       -0.061095793 0.022080477 -0.0022478423 -0.02797104
000070 05 5f 38 3e ca 0a c6 bd f9 b0 33 be f9 00 00 be
       0.18004997 -0.096700266 -0.17547978 -0.12500371
000080 04 de cd bc ff 03 f5 3d c1 c4 e4 3d 6a d1 31 be
       -0.02513028 0.11963653 0.1117034 -0.17365041
000090 27 81 4b bd c9 da 29 3e ca ef 44 3e 2b 01 bb 3c
       -0.049683716 0.16587366 0.19232097 0.022827705
0000a0 7f 38 32 3e 9f f0 19 be 18 3b 10 be 5b 81 0c 3e
       0.17404364 -0.15033196 -0.14085042 0.1372122
0000b0 99 08 0a be a8 50 41 be a9 85 d2 3c 7e 81 f6 3d
       -0.13479842 -0.18878424 0.0256985 0.120364174
0000c0 d3 d8 c3 3d 77 85 1c be 38 bb 4a be 03 e9 25 be
       0.0956284 -0.15285288 -0.19797981 -0.16202168
0000d0 9f 85 10 bd b6 08 0f 3d af b7 c8 3d ef 19 fa 3d
       -0.03528368 0.034920417 0.0980066 0.12211978
0000e0 aa f7 9a bd ff 37 84 bd c5 55 14 3e eb fe ad bc
       -0.075667694 -0.06455993 0.14485843 -0.021239718
0000f0 56 75 d8 bd 12 05 75 3d a0 18 0b be e7 a5 1e be
       -0.10569255 0.05981929 -0.13583612 -0.15492974
000100 e0 c3 41 be e2 eb 56 3e f5 7d c9 3c 99 9b 91 3d
       -0.18922377 0.2098842 0.024596194 0.07109756
000110 8c 0b 20 3b 47 ac 7f 3b 69 f6 b5 3c a4 21 3f be
       0.0024420945 0.0039012597 0.022212224 -0.18665177
000120 cd c6 b2 3c e5 66 47 3e b4 ad be 3d 99 2d 16 be
       0.021823311 0.19472845 0.09310475 -0.14665832
000130 2a fa 31 3e 9a dd 06 3e ab ba b7 3d 2e ff dd 3d
       0.17380586 0.13170472 0.08971151 0.10839687
000140 c7 25 26 3e 2d 25 f6 3d 00 43 6d bd c4 c1 bb 3d
       0.16225348 0.120188095 -0.057925224 0.09167817
000150 b5 13 0e 3d e3 dd 37 3d 3c bb 18 bd ef bd 5a 3d
       0.034686763 0.044889342 -0.037287936 0.05340379
000160 62 d1 95 3d cf a9 b2 bd c7 1b 91 bd 8c b8 26 be
       0.07315327 -0.08723795 -0.07085376 -0.16281337
000170 b8 44 ed 3c dc 02 09 be 28 a4 9e 3d 63 7e 1b 3e
       0.028963432 -0.13379997 0.07746154 0.15184931
000180 a7 de 92 bd 68 a0 5a 3e 88 ed 17 3e a7 92 70 3c
       -0.07171374 0.21350253 0.14836705 0.014683402
000190 9b 1f 58 3e 0f 25 35 3e 8a 5c 65 3d 70 34 d8 3c
       0.21105807 0.17689918 0.055996455 0.026392192
0001a0 f8 b5 70 3d 0c 14 f8 bd 1b 88 1c 3e 77 85 28 3e
       0.05876729 -0.12113199 0.15286295 0.16457163
0001b0 8f a0 a9 bb a4 cb 59 3c bc 27 39 be d7 2f 66 3c
       -0.005176611 0.013293181 -0.18081564 0.014049492
0001c0 b4 93 c5 bd 45 d6 1c bd fb 33 a6 3d 85 d8 0d 3e
       -0.09647313 -0.03829028 0.08115383 0.13852127
0001d0 dc 5b 10 3e c0 47 e5 3d 70 11 c4 3d c6 21 57 be
       0.14097542 0.11195326 0.095736384 -0.21008977
0001e0 9d 3e 4a 3c 7c cf 15 3e c1 57 2b 3e 7d b1 82 3d
       0.01234403 0.1462993 0.16732694 0.063815095
0001f0 8a 44 55 be d6 f7 3c 3e 51 ba 0e be 4d d2 5b be
       -0.20826927 0.18453917 -0.13938262 -0.21466942
000200 3c bc 1d bc ef 18 bd 3c b3 51 53 be 82 8d 38 bd
       -0.009627398 0.023083178 -0.20636635 -0.045056827
000210 0a 97 41 be d8 74 2c 3e a8 65 97 3d 17 ce 36 3e
       -0.18905273 0.16841447 0.07392436 0.17852055
000220 c9 f1 f5 bd 89 7d 3a 3d df 47 bb ba aa 9d 31 3e
       -0.120090075 0.045529876 -0.0014288387 0.173453
000230 1c 3b fc bd 4e 38 d8 bb 56 eb e3 3d ae da 28 3e
       -0.12315962 -0.006598509 0.11128871 0.1648967
000240 dc be 29 be 42 9e a9 bc 09 bd 3c 3d 32 80 c6 bd
       -0.16576713 -0.020705346 0.046078715 -0.0969242
000250 a4 d1 48 be 51 56 c4 bc 66 91 03 be 98 68 3c 3e
       -0.19611222 -0.02396694 -0.12848434 0.18399274
000260 d0 95 c9 bb 0a 8e f9 3d 83 78 22 3d 49 50 db bd
       -0.0061518922 0.12185295 0.03966571 -0.107086726
000270 f5 f6 08 3e 84 1c 61 3c 3b d7 67 bd 02 93 62 3d
       0.13375457 0.013739709 -0.056601744 0.05531598
000280 a2 d6 f3 3d 56 91 27 bd ff 40 9f 3d 2d c9 28 be
       0.11906172 -0.040910088 0.07776069 -0.16482992
000290 37 89 b1 3b b4 25 f8 3c d0 ee 39 3e 18 44 39 3e
       0.0054179686 0.030291416 0.18157506 0.18092382
0002a0 b1 18 c9 bd 30 ef 17 3e 52 fb 32 bd 25 a0 fc 3d
       -0.09819163 0.14837337 -0.04369671 0.12335233
0002b0 0a 90 1f 3e 8f 41 da bb 6d c3 e3 3d 8d 51 21 3e
       0.1558229 -0.006660647 0.11121259 0.15753765
0002c0 45 b3 16 3e 00 57 9f 3a 3b 83 43 be 15 df c1 bd
       0.14716823 0.0012156665 -0.19093029 -0.09466378
0002d0 8c a1 43 be 68 45 0c be 00 3e 9f bd 4e eb d6 3d
       -0.19104594 -0.13698351 -0.077754974 0.104940996
0002e0 de 19 bf 3c 38 b5 0b bb 5b c0 ce 3d ca 15 1e 3e
       0.023327764 -0.0021317732 0.10095283 0.15438
0002f0 79 ad 1b be 2c 94 ee 3d be ac 58 be 79 2a 0b be
       -0.15202893 0.11649355 -0.21159646 -0.13590421
000300 62 c3 b3 bd e3 0d cf 3d b6 6e 90 3b a8 a5 1f be
       -0.08777501 0.101100706 0.004407729 -0.15590537
000310 a9 a0 e7 bc 9f 63 3b 3e 7d 7f 34 3e 4e 8e 07 3e
       -0.02827485 0.18299721 0.17626758 0.13237879
000320 4d 9d 38 be ec 99 5f 3d 0a 25 03 bc 92 a8 9f 3d
       -0.18028755 0.05459015 -0.008004436 0.07795824
000330 45 bb dd bd 3a 2a 50 3d b6 b9 0a 3c ba 57 14 bd
       -0.108267345 0.05082152 0.0084671285 -0.036216475
000340 90 c3 af 3c ab 25 c2 3d 6d c0 9c bc a2 78 3c 3d
       0.021455556 0.09479841 -0.019134725 0.046013482
000350 e1 24 07 be 56 c2 8f 3d a9 64 89 bc c5 e6 29 3e
       -0.13197662 0.070194885 -0.016771631 0.16591938
000360 6a de f1 bd 95 e1 95 3d 45 7f 38 3e 9a 9d 14 3d
       -0.1181 0.07318417 0.180173 0.036283113
000370 4a 7a 35 be 59 f4 88 3c 78 fa 19 3e e9 fd 0b 3e
       -0.17722431 0.016718077 0.15036952 0.13671078
000380 cd 1d 87 3c 86 e8 2d 3d ab 30 47 3e 1b 88 db bd
       0.016493702 0.04245808 0.19452159 -0.107193194
000390 60 f8 b2 bc 9a 1f 45 be 7f b5 97 bd 5f f8 08 3d
       -0.02184695 -0.19250336 -0.074076645 0.03343999
0003a0 15 0b e1 3d 3e 2b 29 bd 64 21 34 be c7 4d 4a be
       0.10988442 -0.041301005 -0.17590863 -0.19756232
0003b0 1a 26 16 3e 20 d8 d2 bd 54 15 f4 3d 35 f7 41 be
       0.14662972 -0.10295129 0.119181305 -0.18941958
0003c0 24 50 1e 3e c1 f1 2a bd ed e1 36 3e e3 48 55 bd
       0.15460259 -0.04173446 0.17859621 -0.052071463
0003d0 c7 93 28 3e ad 7e a4 bd 9d 25 b7 bd c2 5b 30 3d
       0.16462623 -0.08031974 -0.08942721 0.043056257
0003e0 2b 2e f0 3d 6a 52 2f 3e 60 44 4e bd 94 50 30 3e
       0.11727556 0.17121282 -0.050358176 0.17218238
0003f0 09 7f e6 bd 90 31 16 be a6 35 ab 3d c9 f2 55 3e
       -0.11254699 -0.14667344 0.08359842 0.20893396

decoder.conv.bias f4 [128]
000000 d3 fa 2e be 9b 87 88 3d f5 2f 0c 3f 07 7a fe bd
       -0.1708787 0.0666649 0.54760677 -0.124256186
000010 13 b3 ac be fc af 09 3e 50 e4 84 be a6 71 80 3d
       -0.33730373 0.13446039 -0.2595544 0.06271677
000020 e7 f6 1d 3e 8f 52 d4 3e c5 10 06 bf ea ed 23 3f
       0.15426217 0.41469237 -0.5236934 0.64034903
000030 35 ef f9 be 66 ed c6 3d 27 c7 94 3e 70 42 0e bf
       -0.48815313 0.09713249 0.2905819 -0.55570126
000040 36 6f 74 3e 71 c2 34 3f 30 79 9f be b1 78 8f be
       0.23870549 0.70609194 -0.31147146 -0.28021768
000050 b4 27 30 bf 09 d8 76 be 09 d4 d5 3e fa bc 05 3e
       -0.6881058 -0.24105848 0.41763332 0.1306037
000060 42 4a 25 3f eb 1d cf be 93 2b 1f bf 3c 7d 60 be
       0.64566433 -0.40452513 -0.62175864 -0.21922773
000070 87 f9 8a be d7 9b 90 3e 82 4d 1c 3f f2 b2 91 bc
       -0.271435 0.28243896 0.6105577 -0.017785523
000080 b8 ab 46 be 97 d6 87 3e 85 3f e1 3d ad 65 04 3f
       -0.19401443 0.26530907 0.109984435 0.51717645
000090 b5 d7 e9 be 98 a3 1e 3f 3c 0a 71 3e c3 8b 8b 3e
       -0.45672384 0.61968374 0.2353906 0.27255067
0000a0 7e 9d c4 3d f8 98 e7 3e 7c 4f 0d be dc 58 f5 be
       0.09600352 0.45233893 -0.13799852 -0.47919357
0000b0 9d 72 2b bd c8 46 05 3f 26 4d 86 be ee eb f3 bd
       -0.04185735 0.5206113 -0.26230735 -0.119102344
0000c0 1c 11 26 3e eb c1 11 3f d0 2a 3f be 08 10 59 3e
       0.16217464 0.5693652 -0.18668675 0.21197522
0000d0 76 56 d6 3e cc 02 f6 bb 37 80 f2 be dc 94 32 bf
       0.4186284 -0.0075076576 -0.47363445 -0.6975839
0000e0 0e fd 0e be 24 c5 65 3c 19 01 ec 3e 21 0a 85 be
       -0.1396372 0.014024053 0.46094587 -0.2598429
0000f0 f1 3d 0f bf 6d aa 98 be 9e 9f f5 3e ed d0 6f be
       -0.5595389 -0.29817525 0.4797334 -0.23419543
000100 5c 34 85 3e f0 05 01 3f 4c f4 14 bf 24 45 1c 3f
       0.2601651 0.50399685 -0.5818527 0.61043
000110 b8 56 2b bf f7 25 17 3f 0c 5d ff bd 46 13 b7 be
       -0.669292 0.59042305 -0.12468919 -0.35756892
000120 97 b1 13 bf ce 6a e7 be 44 ca d9 3e 59 55 e1 3e
       -0.57692856 -0.45198673 0.4253713 0.44010428
000130 34 f8 c4 3d 19 23 a7 3d d0 33 9c bd 52 da 21 3f
       0.096176535 0.08160991 -0.0762707 0.63223755
000140 3b d2 0f bf e5 ed 8c 3e 9e ed c8 be 3e f3 38 be
       -0.5618016 0.2752525 -0.39243788 -0.1806154
000150 ca 92 b1 3e 53 4e ec be 30 fe f6 3e b3 35 7a be
       0.34682304 -0.46153507 0.48240805 -0.24434547
000160 e3 5b e4 be e1 f4 0a 3f 9b 7d 0d be 27 02 7a 3e
       -0.44601354 0.54279906 -0.13817446 0.24414884
000170 67 7f fa 3e cb ce 8d 3c 06 53 14 bf cb 33 09 3e
       0.48925325 0.01731052 -0.57939184 0.13398664
000180 4f 81 a3 be 3c 6b 21 3f fc 8c 08 bf 62 c5 79 bd
       -0.31934592 0.6305425 -0.53340125 -0.060979255
000190 9c 86 e0 3d 5e c4 25 3f 38 04 f5 3e 36 75 d3 3e
       0.10963175 0.6475276 0.4785478 0.41300362
0001a0 20 04 19 bf eb d8 c9 be 27 ce a3 3e 7a a8 a9 3e
       -0.5977192 -0.39423308 0.3199322 0.3313635
0001b0 e3 32 fc bc d7 97 2b 3f 98 61 38 be 19 44 b0 bd
       -0.030785983 0.67028564 -0.18005979 -0.086067386
0001c0 3f 97 14 3f 84 87 2f 3f 2d 69 8d 3e ca d5 fe bd
       0.58043283 0.68566155 0.27619305 -0.12443121
0001d0 ed 79 20 3e 93 7b 1d bf 28 51 04 3c b2 d1 89 3e
       0.15671511 -0.61516684 0.00807599 0.26917797
0001e0 43 11 65 3e 90 ea f7 3e 40 6d 0b bf f6 58 1d 3f
       0.22369866 0.48421144 -0.5446358 0.6146387
0001f0 ee 50 f7 be 6c 9e 35 3d d9 c4 ef be 66 d6 79 be
       -0.48303932 0.044340536 -0.4682987 -0.24398193

pointer.v f4 [1, 1, 128]
000000 65 af f6 bd 26 84 0d 3e 4f e8 ad bd bc b2 d3 bd
       -0.120451726 0.13819942 -0.08491575 -0.10336825
000010 fa 72 11 be 19 87 0b 3e d0 61 85 3c 7a 97 85 3d
       -0.14204016 0.13625754 0.016281992 0.065230325
000020 98 e3 a9 3d 0e 2e 85 3d 5b b9 4e 3d ae fc 0c 3d
       0.08295363 0.06502925 0.050469737 0.03442066
000030 8b 50 07 3d 8c 4e 17 be 87 cd 95 3d 99 6f 9c bd
       0.033035796 -0.14776057 0.07314592 -0.07638473
000040 e9 58 ad bd 95 4a 2d 3c b5 17 fa 3d 6d 58 78 bd
       -0.08464224 0.010576864 0.12211553 -0.060631204
000050 2e 41 65 bd 14 2f d5 bb b0 9a 7f 3c 8d f3 68 bc
       -0.055970363 -0.0065058563 0.015600845 -0.014218223
000060 18 1e 8c bd 6b 6b 05 bd 55 26 a5 bd aa 6e ed 3d
       -0.068416774 -0.032573145 -0.08063952 0.11593373
000070 a2 3c ec 3d b9 06 c7 3d 14 49 81 bd 48 2b f4 bd
       0.11535002 0.09718079 -0.06312767 -0.11922318
000080 82 aa 4a bd a2 95 91 3c bc 17 d7 bd e3 ad a3 3c
       -0.049479015 0.017771546 -0.10502574 0.019980377
000090 49 71 eb 3d c9 dc dc bd 22 68 d6 3d 9b 21 0a 39
       0.11496217 -0.10784299 0.104690805 0.00013173225
0000a0 29 00 f1 3c c4 8a cb 3c 7f 1c dd 3c 76 61 a3 3c
       0.029419022 0.024846442 0.026991127 0.019943934
0000b0 99 f1 37 3d 90 86 95 bd 27 c2 92 3d c3 6c 51 3d
       0.04490814 -0.073010564 0.07165938 0.051129114
0000c0 57 ed ac 3b 8d 8d c7 bd 58 be 02 be bc fe 17 be
       0.0052773166 -0.097437955 -0.12767923 -0.14843267
0000d0 05 0e de bd 39 1a 0a bc 9e e1 bb bd 36 dd 0a be
       -0.10842518 -0.0084291035 -0.091738924 -0.13560948
0000e0 99 be d2 bc b5 25 41 39 e7 15 10 3e 0b 1e b8 3d
       -0.02572565 0.00018419961 0.14070855 0.08990105
0000f0 14 89 f3 bd c4 56 71 bd de 2a d6 3d 73 68 1c 3c
       -0.1189138 -0.058920637 0.10457395 0.009546387
000100 a9 3d 63 bd ca 78 05 bb 8b 0a 5c 3d f3 0e db bd
       -0.055478726 -0.0020366185 0.053720992 -0.10696211
000110 6d 4c 0f be 44 13 f2 3c 06 08 9e 3d 07 d4 4c 3d
       -0.13993998 0.029550202 0.07716374 0.050006893
000120 37 e0 93 3d c3 5b 18 bd d4 2c 0d be ce 3f bd ba
       0.072205 -0.037196886 -0.13786632 -0.0014438571
000130 45 51 6e 3d 27 db 9d bd 3c 15 1a be 77 0b 44 bc
       0.058182973 -0.077078156 -0.15047163 -0.011965624
000140 f1 53 0a 3c 9e 6f c8 bd b0 50 e2 bd 2a de 81 3d
       0.008442865 -0.09786914 -0.11050546 0.063412026
000150 ea 4a 12 be 17 b5 d4 3d ef e2 50 bc 1d 6d f1 bc
       -0.1428639 0.10386103 -0.012749418 -0.029470975
000160 09 69 b5 3d e1 1f c7 3d de 9b c4 bd 62 cb 30 bd
       0.088579245 0.09722877 -0.09600042 -0.04316271
000170 89 8a 80 bd 7b c3 bb bd 62 98 02 3d fe 47 01 be
       -0.062764235 -0.09168144 0.031883605 -0.12625119
000180 71 ff f3 3d ff 26 53 bd 8d f2 ce bd 5a f8 a4 ba
       0.11913956 -0.05155086 -0.10104857 -0.0012586222
000190 97 ef aa bd 34 e0 33 bb 89 8c b0 3d e7 d1 5c bd
       -0.083464794 -0.0027446868 0.08620555 -0.053911116
0001a0 b6 8e 1b be f9 ca 14 be ce c8 4c 3d 64 eb 19 b9
       -0.15191159 -0.14530553 0.04999619 -0.00014678907
0001b0 85 e5 f8 3d 58 84 a5 3d 01 93 c7 3d a1 8a df 3d
       0.121531524 0.08081883 0.09744836 0.10915113
0001c0 5c 20 95 3d 0d d0 97 3c 8f fe 40 3d 2e df 19 3e
       0.07281563 0.018531824 0.047117766 0.15026543
0001d0 8d a6 ba bd 41 2a cb bd 1d 4f 04 be f9 7a 6a bd
       -0.09113798 -0.09920169 -0.12920804 -0.057246182
0001e0 5f ff c7 bd 50 33 13 be d5 fd 65 bc f8 b1 ca 3a
       -0.09765505 -0.14375043 -0.014037569 0.0015464416
0001f0 11 a5 1b bd 92 1d aa 3d 37 a2 b1 bd 99 42 dd bd
       -0.037999216 0.08306421 -0.08673518 -0.10803718

pointer.W f4 [1, 128, 256]
000000 37 8a f0 ba 70 6f 1c bc 02 1a 21 bc 96 23 03 bc
       -0.0018351738 -0.009548053 -0.009832861 -0.00800409
000010 9d 48 10 3b 5d e9 5b 3b b6 57 8a ba 71 cf 0f ba
       0.0022015937 0.0033555843 -0.0010554704 -0.0005485928
000020 a9 c8 94 3b bd f0 53 bc 63 60 55 bc d6 4f 39 3c
       0.004540522 -0.012935814 -0.013023469 0.011310538
000030 d2 ae 57 3c c1 33 97 bb a0 f5 c7 3a 02 64 db 3b
       0.013164239 -0.004614324 0.0015255697 0.0066952715
000040 2a 80 dd bb f9 c5 2a bc 32 53 20 bc 5a cc 01 bc
       -0.006759663 -0.010423177 -0.00978546 -0.007922256
000050 d3 06 5e 3c 7c 07 e6 39 85 0c 16 3b fc ed 3a 3c
       0.013551432 0.00043874595 0.0022895646 0.011409279
000060 d8 33 6d 3c ed 6d 20 3c a5 bb c2 b9 74 e6 34 bc
       0.014477693 0.009791833 -0.0003714237 -0.011041272
000070 1e 7f 70 bc 43 1f c2 39 d2 1a 23 3c fe 07 02 bc
       -0.014678745 0.00037025855 0.009955125 -0.007936476
000080 c1 fa 23 bc 32 18 df bb dc c2 fa bb a0 1f 2c 3c
       -0.010008515 -0.006808304 -0.0076526236 0.010505587
000090 fd 1c a4 3b 43 f1 19 3c 6b 21 00 3c 89 a9 3e 3c
       0.0050083385 0.0093959 0.007820467 0.0116371
0000a0 0a e6 b8 3a be a2 78 b9 4c 19 28 bc 33 a0 b3 bb
       0.0014106643 -0.00023711749 -0.0102599375 -0.0054817437
0000b0 75 55 76 bb d7 9a 14 3c 48 63 00 bb 9e 50 04 3c
       -0.0037587557 0.00907012 -0.0019590426 0.008075861
0000c0 fe fc da bb d9 c2 d4 bb bf 02 2e 3c 94 a9 f9 3b
       -0.006682991 -0.006492954 0.010620772 0.0076190922
0000d0 26 0e 97 bb ad 67 d7 bb 41 c5 22 3c b2 50 6b bc
       -0.004609841 -0.0065736384 0.009934724 -0.014362501
0000e0 8f dd 80 3b 4c ec a1 3b b0 d1 11 bb 96 3c 1b bc
       0.003932662 0.004941499 -0.0022250228 -0.009474894
0000f0 08 55 75 3c 9b 35 47 3c 46 28 74 3b e1 da 49 3b
       0.014973886 0.012158777 0.003725545 0.0030800628
000100 df f2 07 3c d3 f7 93 bb ec 29 11 3c 8b 56 15 3b
       0.008297651 -0.004515627 0.008860093 0.002278718
000110 3a 9a 38 bc 7a ed 2e bc 47 22 63 bc f9 14 1c bc
       -0.011267239 -0.010676736 -0.013863153 -0.009526485
000120 c8 9f 3a ba 11 2b 47 3c 3c e9 90 3b d2 ea f2 39
       -0.0007119146 0.012156264 0.004422335 0.00046332792
000130 a9 df 35 b9 e3 61 5c 3b 16 68 e7 bb 21 24 29 bc
       -0.00017344825 0.003362768 -0.0070619686 -0.010323555
000140 92 e2 a2 3b ca 1f 12 bb 8c 9d 23 bc ec e0 1d bc
       0.004970857 -0.002229678 -0.009986293 -0.009636145
000150 f7 17 a3 3b d1 68 a2 bb fa 66 a0 3b cd e8 54 3b
       0.004977222 -0.0049563427 0.0048950883 0.0032487393
000160 20 47 10 ba 6d 10 43 3c 99 40 2d bb c9 90 0a bc
       -0.00055037625 0.011905772 -0.0026436208 -0.008457371
000170 3f e4 87 3b 59 72 e5 bb 9f 1d 10 3c 77 41 d5 3a
       0.004147082 -0.0070021567 0.008796125 0.001627012
000180 ae 0f b8 3b 95 90 1d bc 44 5e 1d 3c 1a c2 91 b9
       0.0056171035 -0.009616991 0.009604994 -0.00027801172
000190 0b 0c f3 b9 89 c4 ae bb 2f 3e 8c 3b 3b 3e 01 bc
       -0.00046357544 -0.0053334874 0.004279874 -0.007888372
0001a0 62 a3 0b 3a cf 5b 32 bc 79 9c 68 bc 52 7a 3f bc
       0.0005326775 -0.010886147 -0.014197462 -0.011686878
0001b0 48 11 37 3c 71 bf 2d bc ac 02 42 3c d1 c6 70 3b
       0.011173554 -0.010604725 0.011841457 0.0036739598
0001c0 cc 13 04 3c 85 c0 39 bc a0 c1 2e 3c 63 63 18 bc
       0.008061361 -0.011337404 0.010666281 -0.009301039
0001d0 9e 0c 71 3c 8c 0e 29 3b d4 8d f8 3b 99 9d 17 3c
       0.014712481 0.0025796024 0.0075852666 0.009253883
0001e0 12 1a 62 3c 4d 2b 38 bc 6f 24 26 bc b9 24 e1 3b
       0.013800161 -0.011240792 -0.010140522 0.0068708328
0001f0 e1 92 14 bc 32 94 0e 3b 2a df 3e bb ba 16 8c 3b
       -0.009068222 0.0021755812 -0.0029124715 0.00427517
000200 50 d1 02 bc 3e 5d d2 3b 2e 93 15 3c e9 38 97 bb
       -0.007984474 0.0064198067 0.009129329 -0.0046149385
000210 94 ff 0b 3c c4 9d 05 bc cb f7 c5 39 ce 62 19 3c
       0.008544821 -0.00815529 0.00037759388 0.009361936
000220 6e 51 52 bc 10 ab 3c bc f7 4e 61 ba 61 31 69 3b
       -0.012836797 -0.011515394 -0.00085948355 0.003558241
000230 11 fa 3d bc dc 6b 80 3b c1 72 0d 3c 77 2d bc bb
       -0.011595265 0.003919108 0.0086333165 -0.0057427245
000240 b4 eb 3f 3b 7a 65 a6 bb 16 9e 26 3b 7e f5 a7 bb
       0.0029284777 -0.005078015 0.0025423816 -0.0051257005
000250 f3 ec 4f 3c 53 b9 33 3c fa b7 51 3c a2 4e ca bb
       0.01269077 0.010969478 0.012800211 -0.0061739245
000260 96 ac 68 bc 0f 5b cb bb f9 ac 3b bc e7 52 17 bc
       -0.014201304 -0.0062059234 -0.011454814 -0.009236074
000270 0b d5 fe b8 73 44 de 3b 38 09 5a bc e8 27 98 3b
       -0.00012151346 0.006783062 -0.013307862 0.004643429
000280 a7 36 79 bc 54 60 81 bc c8 9b 5a 3b 70 a4 31 bc
       -0.015210784 -0.015793003 0.0033357013 -0.010842428
000290 62 b5 1c bc e1 2c bc bb bf 17 8e 3b ec f6 92 3b
       -0.009564729 -0.0057426547 0.004336327 0.004485002
0002a0 b1 db 76 bb aa ad 78 3c 8c 82 1b 3c e0 64 5d ba
       -0.0037667567 0.0151781235 0.009491574 -0.00084455125
0002b0 ff 85 6d ba c1 5a b1 bb a9 2e 23 3c 87 96 5a bc
       -0.00090607995 -0.00541243 0.009959855 -0.013341553
0002c0 4d 63 ae bb 88 66 e0 3b b0 98 9e bb e5 fd e3 3a
       -0.005321896 0.00684816 -0.004839979 0.0017394392
0002d0 a9 38 f6 3b 6d 0c e5 3a f8 5f 1c bc 67 6c ac bb
       0.0075140786 0.0017475017 -0.009544365 -0.005261946
0002e0 99 48 25 3c 4c d7 13 3c 15 c0 7d bc 5d a7 50 bc
       0.010088109 0.009023499 -0.01548769 -0.012735215
0002f0 ba d7 9b 3a 20 51 66 3b ad 8b 79 3a 11 bf 32 ba
       0.0011889853 0.003514357 0.00095194095 -0.0006818632
000300 3a 29 70 3b 58 f9 87 3b 90 79 68 bc 68 f4 4a 3a
       0.0036645667 0.004149597 -0.014189139 0.0007742108
000310 fb fc 2f 3c ca 6f 01 3b 13 80 7a 3c 55 cb 21 3c
       0.010741468 0.001975047 0.015289324 0.009875138
000320 74 af fa 3b 7f 9f ba 3b 44 9d 6b bb 56 c1 1d bc
       0.00765031 0.005695283 -0.0035951892 -0.009628614
000330 0a c8 35 bb e6 c0 8b 3a dc 78 fc bb d0 f8 5a 3c
       -0.002773764 0.0010662347 -0.0077048372 0.013364986
000340 31 d5 22 3c 41 48 31 bc f1 c7 66 3b fc 4d fc 3b
       0.009938524 -0.010820449 0.003521439 0.007699726
000350 bc a9 a1 ba e1 4f 57 3b cd e7 11 bc 1d 0c ac 3b
       -0.001233391 0.0032854008 -0.008905363 0.0052504675
000360 81 b7 87 3b 4c 16 04 bc 41 52 c1 bb fb 31 06 bc
       0.0041417484 -0.008061957 -0.005899698 -0.008190627
000370 09 d4 19 3b d4 69 29 3c 68 21 3c bc 40 56 2d 3c
       0.002347233 0.010340173 -0.011482574 0.010579646
000380 60 d3 99 3b 09 23 a9 ba 87 c0 17 3c 1c 42 7e ba
       0.0046943873 -0.0012904118 0.009262211 -0.0009699182
000390 e7 8b 01 bb f4 14 a7 bb 4a 6c 09 bc d9 46 61 3c
       -0.0019767226 -0.0050989334 -0.0083876345 0.013749802
0003a0 4a c5 2b bc 26 1f 79 3b f9 83 02 bc a4 12 30 bc
       -0.010484049 0.003801295 -0.007966035 -0.010746632
0003b0 7a c5 5e 39 43 d4 73 3c 38 62 7a bc 75 5c 5e 3c
       0.00021245136 0.01488215 -0.015282206 0.013571848
0003c0 88 6a 2d bc 82 c9 4d bc cc f2 59 bc 98 1d 2d bc
       -0.010584481 -0.01256025 -0.013302516 -0.010566138
0003d0 30 10 9f 3b ab 28 62 bc 75 e7 74 3c 88 93 34 bc
       0.0048542246 -0.013803641 0.014947762 -0.011021502
0003e0 c7 34 83 bb f0 a7 e9 3b 31 f1 c3 3b 45 0a 1d 3c
       -0.0040040943 0.0071306154 0.00597968 0.009584968
0003f0 2e 74 2d bc e2 15 8b bc e7 f0 1a 3b 9d 17 4d bc
       -0.010586781 -0.016978208 0.0023642124 -0.012517837

pointer.gru.weight_ih_l0 f4 [384, 128]
000000 1a 01 5a bd 74 97 b8 bc ef 07 32 bd 4d 60 65 bd
       -0.053223707 -0.022533156 -0.043464597 -0.056000043
000010 32 65 35 bd f2 17 a1 bd de 20 f7 3c 50 4a ca 3d
       -0.04428596 -0.07865895 0.03016704 0.09877455
000020 fa f4 b2 bd d7 f5 c6 bd e9 0a ce 3d b3 44 0f 3d
       -0.08738132 -0.09714859 0.10060675 0.034977626
000030 62 af a5 bd c3 bf 6c bd 3b 15 87 3d c9 37 bf bd
       -0.08090092 -0.057800066 0.06595846 -0.09336812
000040 08 1d 9a bc 2d 2f ce 3d 60 02 ad 3d 98 58 90 bd
       -0.018812671 0.10067592 0.084477186 -0.07048148
000050 68 79 15 bd 2a cc 92 3b 80 11 b3 bd b9 e0 db 3c
       -0.036492735 0.0044799047 -0.08743572 0.026840555
000060 48 de 1f bd b4 39 b6 3d 6d db 36 bc f9 b3 d7 3c
       -0.039030343 0.08897725 -0.011160714 0.026330935
000070 c3 81 08 bd 10 ce 96 bd 7c ad 00 3d 20 73 a7 bd
       -0.033326875 -0.07363522 0.031415448 -0.08176255
000080 71 85 4a 3d a1 bc 62 3d cf 5b ad bd 75 cc 86 bd
       0.049443666 0.05535567 -0.08464777 -0.06581966
000090 ed f5 cf 3d 8e 76 c0 bd 38 d9 72 3d ac e8 5e 3d
       0.101543285 -0.093976125 0.059289187 0.054421112
0000a0 4d d8 f8 bc c2 e3 ce bc ee b6 f4 3c 00 d2 4a 3c
       -0.030376578 -0.025255088 0.029872384 0.012379169
0000b0 60 e4 cf 3d ab 34 c6 3d 6c e3 33 3d 4e 38 b7 bd
       0.10150981 0.09678014 0.04391806 -0.08946286
0000c0 46 98 42 bc ad 1e d0 bd 8e 69 b8 3d 79 3a ac 3d
       -0.011877125 -0.10162101 0.09004508 0.0840959
0000d0 14 cf 4f 3c ca e3 4e bd bc b0 60 bd 7c 9d b1 3d
       0.012683649 -0.050510205 -0.054856047 0.08672616
0000e0 33 7c b0 3d 04 37 c1 3d 08 1c 97 bd 37 b4 a2 bd
       0.08617439 0.094343215 -0.073783934 -0.079445295
0000f0 b3 d4 f6 ba 61 2c 57 bd 5b 38 cd 3a bd e5 97 bc
       -0.00188317 -0.052532557 0.0015657054 -0.018542165
000100 0a cd 37 bd fe 6e 59 bd 60 52 06 bd 4f ce bb bc
       -0.044873275 -0.053084366 -0.032793403 -0.022925524
000110 64 3e eb 3c 05 c0 25 bc 0a c5 91 bd e0 a4 bd 38
       0.028716274 -0.010116582 -0.0711766 9.042933e-05
000120 f8 dc d2 3c 10 ad 2e bd 2c d9 da bd f3 21 7b 3d
       0.025740132 -0.042645514 -0.106859535 0.061311673
000130 5f f3 bb 3d ee 48 07 bd 18 80 48 3b fd 04 d6 3d
       0.09177279 -0.033028536 0.0030593928 0.1045017
000140 60 c9 ac bd 58 ca d6 3d 1e f5 86 3c 2f ed 9a bd
       -0.08436847 0.10487813 0.016474303 -0.075647704
000150 c5 60 a5 3d e9 7c 11 bd 28 5a 80 3c 51 bd eb bc
       0.08075098 -0.035519514 0.01566799 -0.028776797
000160 19 fd e2 3c 44 f9 c1 bd cb 42 49 3c af a9 96 bc
       0.027708577 -0.09471372 0.012283991 -0.018391458
000170 30 9e 34 bd 43 11 2d bd ae bb 65 bd b7 62 56 bc
       -0.04409617 -0.04225279 -0.05608719 -0.013085059
000180 5f d9 d7 bd 25 ec 86 bc 5b 37 ab bc 55 42 8a 3d
       -0.10539507 -0.016470024 -0.020900419 0.06750933
000190 46 5a 9b bd f7 88 f5 bc 3f 87 c0 bd 9c f1 3d bd
       -0.07585578 -0.029972536 -0.09400796 -0.046372995
0001a0 ef e9 2b 3c 23 e5 6b 3d c5 2b c2 3d 0d 49 bc bb
       0.010492786 0.05759157 0.094810046 -0.005746013
0001b0 be e2 c7 3d 05 18 a3 3a 44 e7 ce bd db 1a f8 bc
       0.097600445 0.0012443071 -0.10102704 -0.030286243
0001c0 93 9c bc 3d e4 53 d8 bd f7 a0 aa bd 32 a7 c6 bc
       0.09209552 -0.10562876 -0.08331483 -0.024249647
0001d0 d8 df 41 bd 69 51 08 3c ea 0e ae 3d c6 45 9e bc
       -0.047332615 0.008320191 0.084989384 -0.01932038
0001e0 00 c0 ce 3c 73 1e 8b bd 8f 1e 9f 3d c1 d6 c0 3d
       0.025238037 -0.06792917 0.077695005 0.09415961
0001f0 4f bd b8 3c b5 41 bd bc 58 cc d6 bc d0 ff 47 bd
       0.022551207 -0.02310262 -0.026220486 -0.048827946
000200 fa 05 11 bd 42 35 31 3d f2 e6 81 3c 0d bf 4b bd
       -0.03540609 0.04326368 0.015857194 -0.049742747
000210 e4 56 9c 3c 87 42 c4 3c dc 21 96 bd ff b8 d2 bd
       0.019084401 0.023957504 -0.07330677 -0.102891915
000220 38 71 51 bd 3a ef 8c 3d ef d9 0d 3d 22 06 d2 3d
       -0.051133364 0.06881566 0.034631666 0.10255076
000230 73 3e 77 3d f7 cb 4f bd 99 c4 a8 3d 44 11 16 bd
       0.06036229 -0.050731625 0.08240623 -0.03663756
000240 d3 bc da 3d 3d a3 bc 3d dd e7 26 bd b4 d2 78 bc
       0.106805466 0.09210823 -0.040748466 -0.015186954
000250 52 8e 87 bd 11 af 82 bd c4 e3 b0 3d 16 81 8d 3d
       -0.06618942 -0.063810475 0.08637193 0.06909387
000260 41 ba f1 3c fe 15 bd 3c 84 57 23 3d de 4b 82 3d
       0.029507758 0.023081776 0.039878383 0.06362127
000270 f7 00 38 bd 31 3a e6 bc e1 9f 37 bd af 40 15 bd
       -0.044922795 -0.02810392 -0.044830207 -0.03643864
000280 a7 3e ba bd 42 bf b5 bd b4 5e d9 bd d7 f9 a3 bd
       -0.09093981 -0.0887437 -0.10613766 -0.080066375
000290 a1 9e 7e 3b 1a 5a 07 bd 55 66 af bd 26 18 d0 bd
       0.0038851874 -0.033044912 -0.0856444 -0.10160856
0002a0 70 03 81 3d 95 a6 b0 3c 50 d7 6a bd 8d 22 69 bd
       0.06299484 0.021563808 -0.057334244 -0.056917716
0002b0 ce 60 fb 3c 50 d1 af bd ec 0f 66 bd dd 8e 95 3d
       0.030685809 -0.08584845 -0.056167528 0.0730264
0002c0 18 b5 62 3d a9 d9 9c 3d 42 d5 68 bd 8b 2d 4e 3b
       0.055348486 0.07658703 -0.056844003 0.0031460251
0002d0 9c a5 89 bd ad de 2e 3c 8a 29 8f bc c1 3c ab bd
       -0.067210406 0.010673207 -0.017475862 -0.08361197
0002e0 cb 0d 67 3d c5 cc 0d bd 32 9c 35 bd 62 ac e1 bc
       0.05640964 -0.03461911 -0.044338413 -0.027548019
0002f0 4c 15 c7 bd 2e 06 e4 3c 30 45 b5 3c 50 96 5d bd
       -0.09720859 0.027834978 0.022127718 -0.054098427
000300 b2 26 82 bd af bf c7 bd b2 32 bc 3d 0d 27 1e bc
       -0.06355037 -0.097533576 0.09189357 -0.009652865
000310 34 91 13 bd 28 72 94 bd 67 c8 b1 bd 19 87 3c 3d
       -0.03602715 -0.07248336 -0.08680802 0.046027277
000320 46 69 1a 3d c7 c6 d3 3d 44 f7 a0 bd 34 f2 a5 3d
       0.037698053 0.10340648 -0.07859662 0.08102837
000330 63 7e 9a bd 1c 9f da bd fe aa 59 3d 45 38 1a 3c
       -0.075436376 -0.10674879 0.053141586 0.00941283
000340 eb cf 05 3d cd 8e 47 bd e8 4f d0 3b 8f 11 94 bc
       0.03266899 -0.04872017 0.006357182 -0.018074779
000350 22 e4 d1 3d ff bd 68 bd 40 77 e2 bc f9 ee 50 3a
       0.10248591 -0.05682182 -0.027644753 0.000797018
000360 a8 97 61 3d 50 f2 c4 3c 9e 88 c3 3b 03 0a 6e bd
       0.05507627 0.024041325 0.005967214 -0.058115017
000370 00 06 d2 3d e6 ba 14 bd cf 35 9f bc e2 4c a1 bd
       0.10255051 -0.036311053 -0.019434838 -0.07875992
000380 e2 26 14 3d 28 d4 1d bd b9 2b c5 3d 6f b1 08 bd
       0.036169894 -0.038532406 0.0962748 -0.03337234
000390 43 b0 c4 3c c2 35 be bc 0e 3c 83 bd b5 e2 8e bd
       0.02400983 -0.023218993 -0.06407939 -0.06976835
0003a0 f9 30 9f bd 34 df 25 bd f5 62 a9 bc a7 41 56 3d
       -0.07773013 -0.040496066 -0.02067707 0.052308705
0003b0 33 59 34 3d 40 5c 69 3b d3 a5 df bc 52 c0 68 3d
       0.04403038 0.0035607964 -0.02730075 0.056824036
0003c0 a8 1f bd 3d 9f b5 8e bd 80 89 b0 bd 52 ce 66 3b
       0.092345536 -0.06968235 -0.08619976 0.0035218191
0003d0 92 0e 08 bd bd 5c ba bd 50 63 a0 bb 52 80 a0 bd
       -0.03321702 -0.0909972 -0.0048946515 -0.07836975
0003e0 1f cd 9d bd 89 44 3c bd 56 a7 31 bd 57 58 04 bd
       -0.07705139 -0.045963798 -0.043372475 -0.03231081
0003f0 1a 3a cf 3d 7d 93 98 bd bd c1 bd bd d0 f9 30 bd
       0.10118504 -0.07450006 -0.09265468 -0.04320699
