Task assignment/drl4vrp/vrp/10/19_07_57.994352/checkpoints/1/actor.pt (torch, 734651 bytes, 14 tensors)

static_encoder.conv.weight f4 [128, 2, 1]
0	0xbe1eb3ac	-0.15498227
1	0x3e185650	0.14876676
2	0x3df060cf	0.11737215
3	0x3bf09284	0.007341685
4	0xbde416eb	-0.11137184
5	0x3d694dee	0.056959085
6	0xbdbf8cb6	-0.0935301
7	0xbd7ca1d7	-0.06167778
8	0x3dde2da1	0.10848547
9	0x3e004e83	0.1252995
10	0xbdb118ea	-0.0864733
11	0xbd4e49f5	-0.0503635
12	0x3e441d44	0.19151789
13	0xbcddb972	-0.027065966
14	0xbdf7bd87	-0.12096696
15	0x3e438c03	0.19096379
16	0xbe40ae26	-0.18816432
17	0x3d3f1ce7	0.046658423
18	0x3dcb2e2b	0.09920915
19	0x3dea2e91	0.11434663
20	0xbe0c76d7	-0.13717209
21	0xbdab4c02	-0.08364107
22	0xbe0f2354	-0.1397832
23	0xbe42a820	-0.19009447
24	0xbd4668b7	-0.048439708
25	0xbe4bf789	-0.19918646
26	0xbe4060d8	-0.18786943
27	0xbb8d78df	-0.0043173875
28	0x3e39e4cd	0.18153687
29	0xbdfe6170	-0.124209285
30	0x3e33a254	0.17542392
31	0x3c9e76dd	0.019343788
32	0x3e34eb19	0.17667808
33	0x3b5d89be	0.0033804025
34	0xbe15bac4	-0.14622027
35	0xbd081e0e	-0.033231787
36	0xbc9aa8ad	-0.018879259
37	0x3e35e95c	0.17764801
38	0xbe490ff3	-0.1963499
39	0xbd4cb6ee	-0.049979143
40	0x3e1aff1a	0.15136376
41	0xbe4607f9	-0.19338979
42	0xbdd9336f	-0.10605513
43	0xbdec30c6	-0.1153274
44	0xbc15700e	-0.009120954
45	0xbd9cee26	-0.07662611
46	0x3ddfc9bc	0.1092715
47	0xbdb952ff	-0.090490334
48	0x3d34a1ec	0.044099733
49	0x3cb3fff6	0.021972638
50	0x3e50453e	0.20338914
51	0x3c192fd6	0.009349784
52	0x3cd48221	0.025940957
53	0x3d183624	0.037161008
54	0xbe178118	-0.14795339
55	0xbd2e8b6e	-0.04261344
56	0xbe0bbef5	-0.13647063
57	0x3db4f476	0.0883569
58	0x3a8a32ca	0.0010543701
59	0x3e47a521	0.19496585
60	0xbda89a99	-0.08232612
61	0x3c4b927b	0.01242506
62	0xbd95f03e	-0.07321213
63	0xbd426319	-0.04745779
64	0x3e47073a	0.1943635
65	0xbdfb149c	-0.1225979
66	0x3e0ef531	0.1396072
67	0xbe0cd7d1	-0.13754202
68	0xbd0cb9ef	-0.034357008
69	0x3da01903	0.078172706
70	0xbe4124ed	-0.18861742
71	0x3dd110dd	0.102082945
72	0xbdbf2e72	-0.093350306
73	0xbe254833	-0.16140823
74	0xbdc145a0	-0.09437108
75	0x3e0317a1	0.12801982
76	0x3d75da39	0.060022566
77	0x3de20022	0.110351816
78	0x3e2b07f9	0.1670226
79	0xbdcf586d	-0.10124288
80	0xbe0fedf2	-0.14055613
81	0x3d1b1e08	0.037870437
82	0xbdafe050	-0.08587706
83	0x3df6d54e	0.120524034
84	0xbdf60d1a	-0.12014218
85	0xbe2ecb1b	-0.17069666
86	0x3e1f748a	0.155718
87	0xbda21eb7	-0.07916015
88	0x39e9bcb0	0.00044581806
89	0x3af646be	0.0018789393
90	0x3e0347dc	0.12820381
91	0x3defaa9a	0.117024615
92	0x3e0eb473	0.13936023
93	0x3d4c5173	0.049882364
94	0x3e4c9bd1	0.19981314
95	0xbcd377c0	-0.025813937
96	0x3d63c350	0.055606186
97	0x3d93d1f2	0.07217778
98	0x3da86ed2	0.08224262
99	0xbe02f636	-0.12789235
100	0x3e45b1c9	0.19306101
101	0xbc3e165d	-0.0116020115
102	0xbce49ff0	-0.027908295
103	0xbdce9853	-0.10087647
104	0xbce70464	-0.028200336
105	0x3dc7ba1e	0.09752296
106	0xbdacaf0a	-0.084318236
107	0xbe52789a	-0.20553818
108	0xbc710844	-0.014711443
109	0xbdbebd5c	-0.09313461
110	0xbc47ed58	-0.012202583
111	0x3ca71eed	0.020400489
112	0x3e2fc36c	0.17164391
113	0x3e547fab	0.20751826
114	0xbe2e865a	-0.17043439
115	0x3e4d4c30	0.20048594
116	0x3e46f0ec	0.19427842
117	0x3d2638a9	0.04058138
118	0x3e1596b9	0.14608277
119	0x3dbbaa4c	0.09163341
120	0x3d91f7cb	0.07127341
121	0xbd49e3fb	-0.049289685
122	0x3db10a89	0.086445875
123	0xbe457ed7	-0.19286667
124	0xbe49c0f4	-0.19702512
125	0xbe3498d8	-0.1763643
126	0x3d857e32	0.065182105
127	0x3e0f6221	0.14002277
128	0x3dc0ee8a	0.09420498
129	0x3d1669e4	0.03672208
130	0xbe51570c	-0.20443362
131	0xbd72840b	-0.059207957
132	0xbe0c4358	-0.13697565
133	0xbe16ea96	-0.14737925
134	0xbb91e19b	-0.004451943
135	0xbc6c3471	-0.0144168
136	0xbe55e289	-0.20887198
137	0x3cad75fa	0.02117442
138	0x3c626d8e	0.013820065
139	0x3e48ad89	0.19597448
140	0x3d3270fe	0.04356479
141	0x3e4454c2	0.19172958
142	0xbd5e10be	-0.054215185
143	0x39cf64f7	0.0003955734
144	0xbd8b0b55	-0.06789271
145	0xbde440b8	-0.111451566
146	0x3d72a616	0.059240423
147	0x3e004eb6	0.12530026
148	0x3d80b1be	0.06283902
149	0x399cedfa	0.00029931945
150	0x3c1274f0	0.008939013
151	0xbbe7a5ea	-0.007069339
152	0xbd6ba59f	-0.057530995
153	0x3cd61f28	0.026137903
154	0x3dcb1be0	0.09917426
155	0x3d20041b	0.039066415
156	0x3e396c5f	0.18107747
157	0x3e093a22	0.13401082
158	0xbdf5ecb4	-0.12008038
159	0xbe4ef378	-0.20210063
160	0xbd8546ef	-0.0650767
161	0xbe526b8b	-0.20548837
162	0xbe4e3a84	-0.2013951
163	0xbe1b7f91	-0.15185381
164	0xbe0a1b25	-0.13486917
165	0xbe027495	-0.12739785
166	0xbe50b6f2	-0.20382288
167	0xbd760132	-0.060059734
168	0xbe4dab66	-0.20084915
169	0xbba49280	-0.005022347
170	0x3d853ef2	0.065061465
171	0x3e04a657	0.12954079
172	0x3e56cd0a	0.20976654
173	0xbe3069bc	-0.17227834
174	0xbcd94501	-0.026522161
175	0xbda7f9dd	-0.082019545
176	0xbc8a4a9f	-0.016881285
177	0xbd99dd99	-0.075129695
178	0xbe3b5b5a	-0.18296567
179	0xbd1f4f64	-0.038894072
180	0x3dfa55a9	0.1222337
181	0x3dfed853	0.12443604
182	0xbe4972fa	-0.19672766
183	0xbd947df5	-0.07250587
184	0xbd37d4bd	-0.044880617
185	0xbd8c842f	-0.068611495
186	0xbdfe0f95	-0.12405316
187	0x3e15a74f	0.14614604
188	0x3e3111e1	0.17291977
189	0xbcec754c	-0.028864525
190	0xbcd48652	-0.025942955
191	0xbd2e3ccd	-0.042538453
192	0xbe140058	-0.14453256
193	0xbe458fd9	-0.19293155
194	0x3c43c5fd	0.01194906
195	0x3e11b188	0.14227879
196	0xbe2bc040	-0.16772556
197	0x3e1b56a4	0.1516977
198	0x3d818785	0.063246764
199	0xbe5426d3	-0.20717935
200	0x3dab2aae	0.0835775
201	0x3d5affd0	0.053466618
202	0xbdea74fd	-0.11448095
203	0x3d908d3c	0.07058188
204	0x3e360f1f	0.17779206
205	0xbe399569	-0.18123402
206	0x3c6feaaa	0.014643351
207	0x3ce54973	0.027989125
208	0xbe4eec08	-0.20207226
209	0x3c51c15e	0.01280245
210	0xbd08d8ef	-0.03341001
211	0xbcbaaac8	-0.022786513
212	0xbde9e9e3	-0.114215635
213	0xbd6df052	-0.058090515
214	0xbe2d4130	-0.16919398
215	0x3c214d60	0.009845108
216	0x3e049205	0.12946327
217	0xbe0f773d	-0.1401033
218	0x3d8f5519	0.06998653
219	0xbd251ee1	-0.04031265
220	0x3e220bb2	0.15824774
221	0xbdc028b2	-0.09382762
222	0xbe457d67	-0.19286118
223	0xbc4ffe98	-0.012694977
224	0x3e0d5e8e	0.13805601
225	0xbd63b269	-0.055590067
226	0xbe207336	-0.1566895
227	0x3d7d4c50	0.061840355
228	0x3e3ab592	0.18233326
229	0x3c8b583a	0.017009843
230	0xbdd3104f	-0.10305845
231	0x3e2238a4	0.15841919
232	0x3d86bd2f	0.06579053
233	0xbe37fe30	-0.17968059
234	0x3e15348d	0.14570828
235	0xbd88d05e	-0.06680368
236	0x3ccefabc	0.025266044
237	0x3dd05104	0.101717025
238	0x3e013b80	0.12620354
239	0xbd22a619	-0.039709184
240	0x3e0c3596	0.13692316
241	0x3b95ee5f	0.004575535
242	0xbe426500	-0.18983841
243	0xbe3435d7	-0.17598663
244	0x3dc7ea0f	0.0976144
245	0x3e40a667	0.18813477
246	0x3d715982	0.058923252
247	0x3e296819	0.16543616
248	0x3e1a7863	0.15084986
249	0xbdc26fc6	-0.09493975
250	0x3d8f2a51	0.06990493
251	0xbdaa9f94	-0.08331218
252	0xbdcd0e0a	-0.10012443
253	0xbc5b30de	-0.01337835
254	0xbdab7589	-0.083720274
255	0x3c86125f	0.016366182

static_encoder.conv.bias f4 [128]
0	0xbed93c87	-0.4242899
1	0xbe847878	-0.2587316
2	0x3f2a61f7	0.6655573
3	0x3d67c54a	0.056584634
4	0xbf32965a	-0.6976067
5	0x3ead084d	0.33795395
6	0xbec7fb82	-0.39059073
7	0xbf227cd1	-0.63471705
8	0x3e8cc872	0.27496678
9	0x3e0c1bc5	0.13682468
10	0xbf077235	-0.5290864
11	0x3f07399d	0.52822286
12	0x3ebaaf4e	0.36461872
13	0xbf100599	-0.5625854
14	0x3edeb393	0.4349638
15	0x3eda3979	0.42621973
16	0x3ccd68c3	0.025074368
17	0xbf1c1f93	-0.6098568
18	0xbf325e4f	-0.69675153
19	0x3e0be659	0.1366209
20	0xbd248fea	-0.04017631
21	0x3e962e48	0.29332185
22	0xbea33230	-0.31874228
23	0x3c56dfd5	0.013114889
24	0xbb9e195e	-0.0048248013
25	0xbf2b04fb	-0.66804475
26	0x3eea735f	0.45791146
27	0x3dfe147f	0.12406253
28	0xbee86e5d	-0.453967
29	0x3e5eb8b5	0.21750148
30	0x3e071cdd	0.13194604
31	0x3d6122d6	0.054964863
32	0x3d5e3116	0.05424603
33	0x3f2d92a0	0.67801857
34	0x3c763429	0.015027084
35	0x3f0e200a	0.5551764
36	0xbebddc0c	-0.37081945
37	0x3f164444	0.58697915
38	0x3f0b2722	0.54356587
39	0xbf22ba0e	-0.63565147
40	0xbeb35576	-0.3502614
41	0xbee1b91f	-0.4408655
42	0xbf066581	-0.5249863
43	0x3f09ef7d	0.53881055
44	0x3d483f35	0.048888404
45	0x3f187ac1	0.5956231
46	0x3ebc57e9	0.3678582
47	0x3ed2b977	0.41157123
48	0xbf2daa34	-0.67837834
49	0x3e612c15	0.21989472
50	0xbe6f7ff5	-0.23388655
51	0x3eb387f6	0.35064667
52	0x3f35bf0d	0.70994645
53	0xbeb5a224	-0.35475266
54	0x3ea26341	0.3171635
55	0x3ef589d6	0.47956723
56	0x3ed62f99	0.4183319
57	0xbeb679c1	-0.35639766
58	0x3f154a42	0.58316433
59	0x3f1c47db	0.6104714
60	0x3f044133	0.51661986
61	0x3df1da6c	0.11809239
62	0x3d804e88	0.06264979
63	0xbe9bf775	-0.30462232
64	0xbe253f97	-0.16137539
65	0xbed5c6b9	-0.41753176
66	0x3ecdaefb	0.40172562
67	0xbed4c40f	-0.4155583
68	0x3e60ea71	0.21964432
69	0xbed8539d	-0.42251292
70	0xbdf17ef4	-0.117917925
71	0x3f1537e9	0.5828844
72	0x3ee9c7e2	0.4566031
73	0x3d67928c	0.056536242
74	0x3eed0925	0.4629604
75	0x3e439468	0.19099581
76	0x3df56822	0.119827524
77	0x3f001b73	0.50041884
78	0x3ed715cd	0.4200882
79	0xbf031b4c	-0.51213527
80	0xbf14fa7b	-0.581947
81	0xbf31f5e4	-0.69515824
82	0xbf300857	-0.68762726
83	0x3e9e839b	0.30959782
84	0xbef325e4	-0.47489846
85	0xbf250820	-0.6446552
86	0xbedbf9e4	-0.4296409
87	0x3f19f8c0	0.6014519
88	0x3dfd6857	0.12373417
89	0x3ef2650f	0.47342727
90	0x3eef4774	0.46734202
91	0xbed1e7e1	-0.40997222
92	0x3ecb1f84	0.39672482
93	0x3f21c691	0.63193613
94	0x3f009d72	0.5024024
95	0xbd8d4ec9	-0.06899793
96	0xbe7cac70	-0.24675155
97	0xbebd76e9	-0.37004784
98	0xbe74964b	-0.23885457
99	0xbe6e0d64	-0.23247296
100	0xbecdadd8	-0.40171695
101	0x3e4a4e9a	0.19756547
102	0xbf250e1c	-0.64474654
103	0xbf07c414	-0.53033566
104	0xbf31d1dd	-0.6946085
105	0xbeed8174	-0.46387827
106	0x3eb6c5cf	0.3569779
107	0x3f1be996	0.609033
108	0xbe244248	-0.1604091
109	0xbf33dc89	-0.70258385
110	0x3ed26f5c	0.41100585
111	0xbf040de3	-0.5158369
112	0x3f33bbea	0.7020861
113	0x3f11b54c	0.5691726
114	0x3e7eff4c	0.24902076
115	0x3ef5e833	0.48028716
116	0xbea41398	-0.320462
117	0x3dd5b331	0.10434569
118	0xbe091093	-0.13385229
119	0xbedd9cdc	-0.43283737
120	0xbde4c71f	-0.11170792
121	0x3d34e846	0.044166826
122	0x3d8e3e7b	0.06945511
123	0xbdddd94b	-0.10832461
124	0x3e8ceb15	0.27523103
125	0x3d9debb3	0.07710972
126	0xbe835df3	-0.25657615
127	0x3db5e74d	0.08882008

dynamic_encoder.conv.weight f4 [128, 2, 1]
0	0x3df05b39	0.11736149
1	0x3e45836e	0.19288418
2	0x3d6e1e6c	0.05813448
3	0x3dcddc7f	0.10051822
4	0xbe01d111	-0.12677409
5	0xbe5fdac3	-0.21860795
6	0xbe0ca7f4	-0.13735944
7	0x3e5d63c4	0.21620089
8	0xbda74d31	-0.0816902
9	0xbe755442	-0.23957923
10	0x3e1265d7	0.14296661
11	0x3d4eea13	0.0505162
12	0x3dbff5a7	0.09373026
13	0xbdc17684	-0.09446433
14	0x3e003d60	0.12523413
15	0xbd880112	-0.06640829
16	0x3d57924a	0.052629746
17	0xbe67490a	-0.22586456
18	0x3dca1d84	0.09868911
19	0x3d28173e	0.04103779
20	0xbd82854c	-0.063730806
21	0x3e240b35	0.160199
22	0x3de5fa68	0.11229402
23	0xbe77b030	-0.24188304
24	0x3de90abb	0.11379
25	0xbcfd332f	-0.030908195
26	0x3e20aae7	0.15690194
27	0xbe61106f	-0.21978925
28	0x3c8996c4	0.016795523
29	0x3e333af7	0.17502962
30	0x3dd5f184	0.10446456
31	0x3e6423d9	0.222793
32	0xbd92d249	-0.07169015
33	0x3e2ae2ea	0.16688123
34	0x3c83b991	0.016079696
35	0xbe6993e6	-0.22810325
36	0xbd935a2e	-0.07194935
37	0x3e6dc70b	0.2322046
38	0xbd66d0b2	-0.05635137
39	0x3e316c67	0.17326508
40	0x3e380c50	0.17973447
41	0x3e5c2b9d	0.21501012
42	0xbdaf86b6	-0.08570616
43	0x3d802a03	0.06258013
44	0xbe3f168d	-0.18660946
45	0x3e113e1d	0.1418385
46	0x3dd5204f	0.10406553
47	0x3d460fc0	0.048354864
48	0xbd932930	-0.0718559
49	0x3e1ab8db	0.1510958
50	0x3d3de9d7	0.046365585
51	0x3e1dde21	0.15416767
52	0x3d60c582	0.054875858
53	0xbe541c78	-0.20713985
54	0xbe240f5c	-0.16021484
55	0x3e75d9e2	0.24008897
56	0x3e3d2948	0.18472779
57	0xbd9e3fd6	-0.077270195
58	0xbe45c01a	-0.19311562
59	0xbe667dcf	-0.2250893
60	0xbd5c1ab4	-0.053736404
61	0x3e8236fd	0.25432578
62	0xbe1f2dd7	-0.1554483
63	0xbd33fcc7	-0.04394224
64	0xbd64a2e6	-0.055819415
65	0xbe239e14	-0.15978271
66	0x3d06eb4a	0.032939233
67	0x3de1892b	0.11012491
68	0x3e41b76f	0.1891763
69	0xbe04bace	-0.12961885
70	0xbe07fd34	-0.13280183
71	0x3e281d20	0.1641736
72	0xbdb9da33	-0.09074821
73	0x3e5c20d4	0.21496898
74	0xbe13de7a	-0.14440337
75	0x3e81f4f3	0.25382194
76	0x3d87b75a	0.066267684
77	0x3dc0f496	0.09421651
78	0x3d9ea058	0.07745427
79	0x3e3f0700	0.18655014
80	0xbe450040	-0.19238377
81	0x3e482cf9	0.19548406
82	0xbc2ebcd6	-0.010665139
83	0xbe2d30a1	-0.16913082
84	0x3df29ebe	0.11846684
85	0xbe529ebf	-0.2056837
86	0xbcea68d5	-0.028614441
87	0x3dcd9dc5	0.10039858
88	0xbaf7832e	-0.0018883699
89	0x3e2789a9	0.16361107
90	0x3e464741	0.19363119
91	0x3e0d7706	0.13814935
92	0x3cd4b90e	0.025967147
93	0x3dae6e25	0.08517102
94	0xbe5d6d05	-0.21623619
95	0x3d9a177d	0.07524011
96	0x3e3da3e4	0.1851955
97	0xbd02227f	-0.03177118
98	0x3e1f5006	0.1555787
99	0x3e5f69f2	0.21817759
100	0xbe547527	-0.20747815
101	0x3e0519bc	0.12998098
102	0xbe51864b	-0.20461385
103	0x3e7c7fc9	0.24658121
104	0x3c5c6c29	0.013453522
105	0x3e1befb6	0.15228161
106	0xbcf7b7b3	-0.030238962
107	0x3d5b7e7e	0.05358743
108	0xbe47afb9	-0.19500627
109	0xbe3bff83	-0.18359189
110	0xbca2413b	-0.019806495
111	0xbd9a998e	-0.075488195
112	0xbe0659a6	-0.13120136
113	0xbe738bd1	-0.23783804
114	0x3e351d75	0.17687018
115	0x3d48365c	0.048879966
116	0xbe52cd5e	-0.20586154
117	0xbe2efc21	-0.17088367
118	0x3e44c65f	0.19216298
119	0xbcdfe0f8	-0.027328953
120	0x3e142412	0.14466885
121	0xbdaaa35b	-0.08331939
122	0x3e11ce48	0.14238846
123	0xbd381fac	-0.04495208
124	0xbe39b2e9	-0.18134655
125	0x3e5603a6	0.2089983
126	0xbc9a5455	-0.01883904
127	0xbe3b3b3f	-0.1828432
128	0xbe499c36	-0.19688496
129	0xbe24f571	-0.16109253
130	0xbe417a9a	-0.18894425
131	0xbe7f2462	-0.24916223
132	0x3dab2b4d	0.08357868
133	0x3e7791f2	0.24176767
134	0x3d55b649	0.052175794
135	0x3e10805a	0.14111462
136	0xbdc8b22c	-0.097996086
137	0x3de8ec41	0.11373187
138	0x3df11819	0.117721744
139	0x3e7034ca	0.23457637
140	0x3e39ad13	0.18132429
141	0x3e5ca3ef	0.2154691
142	0x3cf22539	0.029558765
143	0x3e42da21	0.19028522
144	0xbd8b5d39	-0.0680489
145	0xbe1fd752	-0.15609482
146	0xbdac12ae	-0.08402
147	0xbe40a7e1	-0.1881404
148	0xbe17c1f9	-0.14820088
149	0xbe3aa563	-0.18227153
150	0x3d9a284e	0.07527219
151	0xbe09c838	-0.13455284
152	0xbe16f961	-0.14743568
153	0x3d2f3074	0.042770818
154	0xbe3d8a66	-0.18509826
155	0x3e36f525	0.17866953
156	0x3d572ba0	0.05253184
157	0xbe67d122	-0.22638372
158	0x3e1fc7bf	0.15603541
159	0xbe5105ee	-0.20412418
160	0x3e2308f8	0.1592139
161	0xbd97af63	-0.07406499
162	0xbe128c5c	-0.14311355
163	0xbe3e5576	-0.18587288
164	0x3e016333	0.12635498
165	0x3e6a2541	0.22865774
166	0xbe061009	-0.13092054
167	0xbe5ce592	-0.21571949
168	0x3c3307ba	0.010927135
169	0xbe5e5f5f	-0.21716069
170	0x3c138782	0.009004476
171	0xbe596ac0	-0.21232128
172	0x3e0e3d44	0.13890558
173	0x3d891bfb	0.0669479
174	0xbe15b391	-0.1461928
175	0x3dd8085e	0.10548471
176	0xbe436a2d	-0.19083472
177	0x3da63966	0.08116417
178	0x3e545d47	0.20738707
179	0xbe042819	-0.12905921
180	0x3e0e859b	0.13918154
181	0x3d568c85	0.052380104
182	0x3c839c51	0.016065748
183	0x3e439a9b	0.19101946
184	0x3cc8d774	0.024516799
185	0xbe243eb0	-0.16039538
186	0xbdfa8ca0	-0.12233853
187	0x3e810dbb	0.25205788
188	0x3e2c7df1	0.16844918
189	0x3e32de31	0.17467572
190	0x3d597416	0.053089224
191	0xbe41e04c	-0.18933219
192	0x3cd26753	0.025684034
193	0xbe2607b5	-0.16213877
194	0x3e55bbcd	0.20872422
195	0x3e129b57	0.1431707
196	0x3e0ada0f	0.13559745
197	0x3e828eaf	0.25499484
198	0x3cd6bf45	0.026214251
199	0xbd76f5ca	-0.060292996
200	0xbe02d985	-0.1277829
201	0xbdea830e	-0.11450778
202	0xbdfac5d3	-0.12244763
203	0xbe1f0f1e	-0.1553311
204	0xbe103f6f	-0.14086698
205	0x3e3ddfb6	0.1854237
206	0x3db875c4	0.09006837
207	0x3d665bcf	0.0562399
208	0x3e3e16ee	0.18563434
209	0x3e0afbb9	0.13572587
210	0x3e0a87ee	0.13528416
211	0x3dba48fb	0.09095951
212	0x3e3cf319	0.1845211
213	0xbe497219	-0.19672431
214	0xbe590962	-0.21194986
215	0x3e4496d6	0.19198164
216	0x3e3cd6b3	0.18441276
217	0x3d766710	0.06015688
218	0xbd6e8cb9	-0.058239672
219	0x3e449504	0.1919747
220	0x3e410e26	0.18853053
221	0xbe0ea384	-0.13929564
222	0xbe1d704d	-0.1537487
223	0x3e09c824	0.13455254
224	0x3dc620a9	0.09674198
225	0xbdee4563	-0.11634328
226	0xbdeb3ad6	-0.114858314
227	0xbd4f9be5	-0.050685782
228	0x3e010a5b	0.12601607
229	0xbde5849c	-0.11206934
230	0xbcbc4eb2	-0.022986744
231	0x3d777304	0.06041242
232	0xbe17d24e	-0.14826319
233	0x3de48480	0.11158085
234	0x3dcb24af	0.09919106
235	0xbe66f83b	-0.2255563
236	0xbe555db9	-0.20836534
237	0xbe55f6d5	-0.2089494
238	0x3e068938	0.13138282
239	0xbd2ea1eb	-0.042634886
240	0xbd2e7643	-0.042593252
241	0x3d2006c1	0.03906894
242	0x3d5064a4	0.05087723
243	0x3dcda3ed	0.10041032
244	0xbe0773ea	-0.13227811
245	0xbe79df9d	-0.24401708
246	0x3d99a51f	0.075021975
247	0xbe61202c	-0.21984929
248	0xbdce66ee	-0.10078226
249	0xbe3e2f08	-0.18572628
250	0xbe1a2457	-0.15052925
251	0xbdd06c47	-0.10176902
252	0xbd00298c	-0.031289622
253	0xbe629e7f	-0.22130774
254	0x3d9979fe	0.07493971
255	0xbe134d59	-0.14384975

dynamic_encoder.conv.bias f4 [128]
0	0x3ed77c47	0.42087004
1	0x3e9c8015	0.3056647
2	0x3f2a17f4	0.664428
3	0x3dfa4740	0.12220621
4	0xbe1e5461	-0.15461875
5	0x3e83f704	0.25774395
6	0x3edadfda	0.4274891
7	0xbeecbff8	-0.4624021
8	0x3d3e4df4	0.04646106
9	0xbe202b59	-0.15641536
10	0xbe7330d8	-0.23749101
11	0xbdbda2a1	-0.092595346
12	0x3f298799	0.6622253
13	0x3e7c1d59	0.2462057
14	0x3e397453	0.1811078
15	0x3e0ae849	0.13565172
16	0x3f23758c	0.6385124
17	0x3e4bbd95	0.19896539
18	0xbe03fb68	-0.12888873
19	0xbda4ee2e	-0.08053242
20	0x3e342c42	0.17595008
21	0x3e6b98d8	0.23007524
22	0x3ef7802c	0.48339975
23	0x3dae1c87	0.08501535
24	0xbe9bdee0	-0.30443478
25	0x3f1a29d7	0.6022009
26	0xbe65e485	-0.22450455
27	0x3e5e3c10	0.217026
28	0x3f25a588	0.64705706
29	0xbeb6e170	-0.3571887
30	0x3e941608	0.28923059
31	0x3eff5dcc	0.4987625
32	0x3f06c83e	0.52649295
33	0x3e1171a4	0.14203507
34	0xbede8467	-0.4346039
35	0xbed3d174	-0.41370738
36	0xbec53efe	-0.38524622
37	0xbe92ff79	-0.28710535
38	0xbdc28124	-0.09497288
39	0xbf08b344	-0.5339854
40	0x3f048405	0.51763946
41	0x3e9eab32	0.30989987
42	0x3f131f11	0.5746928
43	0xbdeaee96	-0.11471288
44	0xbe2d814b	-0.16943853
45	0xbe45607a	-0.19275084
46	0xbec64159	-0.3872173
47	0x3e0e1314	0.13874465
48	0x3f1937f9	0.5985103
49	0xbdc58840	-0.09645128
50	0xbdadceba	-0.084866956
51	0x3ea084d6	0.31351346
52	0x3e80cf52	0.25158173
53	0x3ee68459	0.45022848
54	0xbe9d4747	-0.30718443
55	0x3ee351df	0.443984
56	0x3f1af6ac	0.6053264
57	0xbf2581c9	-0.6465116
58	0xbe8db262	-0.27675158
59	0x3e8dc428	0.27688718
60	0x3ee5bb6d	0.44869557
61	0x3eb4416c	0.35206163
62	0xbe6ca756	-0.23110709
63	0x3e10efaf	0.14153932
64	0xbec9d46f	-0.39419886
65	0xbd3eb5a3	-0.04655994
66	0xbf153c17	-0.58294815
67	0xbf141183	-0.5783922
68	0x3ea664d0	0.3249879
69	0x3ed3027d	0.41212836
70	0x3f331102	0.69947827
71	0xbe7b832d	-0.24561758
72	0x3f1cac67	0.61200565
73	0xbee9bcd1	-0.45651868
74	0x3d8a599f	0.06755375
75	0x3f2752b6	0.6536058
76	0x3efbf139	0.49207476
77	0x3eb12edc	0.34606063
78	0xbe4bc3cb	-0.19898908
79	0xbe906d45	-0.28208366
80	0xbd403c19	-0.046932314
81	0x3eb0b0b2	0.34509808
82	0xbd9a0020	-0.07519555
83	0xbf2bdd9d	-0.6713503
84	0xbeb8840a	-0.36038238
85	0x3ed30bce	0.41219944
86	0xbdf88437	-0.12134593
87	0xbe78396f	-0.24240659
88	0x3dcf6445	0.10126547
89	0xbf2bf91f	-0.67177004
90	0xbd25d9a9	-0.04049078
91	0xbd83ead3	-0.064412735
92	0xbe5b0d45	-0.2139178
93	0x3f2cc243	0.6748392
94	0xbe314cad	-0.17314406
95	0xbd1a81fe	-0.037721626
96	0xbeca53f8	-0.39517188
97	0xbf0bef3d	-0.54661924
98	0x3f0255d3	0.5091221
99	0xbf28a30d	-0.65873796
100	0xbf2d328b	-0.6765525
101	0x3d69a8e7	0.057045843
102	0xbf1f7fd9	-0.62304455
103	0x3f0b0f42	0.54320157
104	0x3e93506b	0.28772292
105	0xbf072433	-0.5278961
106	0xbdd1fcd0	-0.10253298
107	0x3ee1dbfa	0.4411314
108	0x3ec463a2	0.38357264
109	0x3ea6c2f7	0.3257062
110	0xbec1e389	-0.37868908
111	0xbe6ccac8	-0.2312423
112	0x3e69a240	0.228158
113	0x3e1795e3	0.14803271
114	0xbee5b94c	-0.44867933
115	0xbd5da508	-0.054112464
116	0xbe80279d	-0.25030223
117	0x3e0970eb	0.13421981
118	0xbe8c79f8	-0.27436805
119	0xbe1c5cc4	-0.15269762
120	0x3d899296	0.06717412
121	0xbeae8709	-0.340874
122	0x3f04e76d	0.5191563
123	0xbf0b1441	-0.5432778
124	0x3f10b188	0.5652089
125	0x3eab3232	0.33436733
126	0xbeacd196	-0.3375365
127	0xbed08f32	-0.4073425

decoder.conv.weight f4 [128, 2, 1]
0	0xbe2a9604	-0.16658789
1	0xbde4c079	-0.11169524
2	0x3e07c83a	0.13259974
3	0xbd4fd7cd	-0.050742913
4	0x3d9dcc45	0.07704977
5	0xbd977e3a	-0.07397123
6	0xbe0bd427	-0.13655148
7	0xbc347e9f	-0.011016517
8	0x3e464658	0.19362772
9	0x3e4d5099	0.20050277
10	0xbe00df95	-0.1258529
11	0xbdc5df9c	-0.09661791
12	0x3e10f56d	0.14156123
13	0x3cf48e59	0.029853033
14	0x3be8d1d4	0.0071050916
15	0x3e540d2b	0.20708148
16	0x3daa268e	0.08308135
17	0x3e435292	0.19074467
18	0xbe39b5f6	-0.18135819
19	0x3e0d9f1b	0.13830225
20	0x3e52541e	0.205399
21	0x3e40be47	0.18822585
22	0x3d526192	0.05136258
23	0x3e5064bd	0.20350929
24	0xbd78f954	-0.060784653
25	0x3cb6c1b8	0.02230917
26	0xbb298ff9	-0.0025873168
27	0xbce5a838	-0.028034315
28	0x3e3808c9	0.17972101
29	0xbdc622f0	-0.096746325
30	0xbe32f262	-0.17475274
31	0xbdfed690	-0.12443268
32	0xbcd2704f	-0.025688319
33	0x3df3c967	0.11903649
34	0x3de495bf	0.11161374
35	0xbe3212e3	-0.17390017
36	0xbd4d116a	-0.050065435
37	0x3e297cf6	0.16551575
38	0x3e4525f6	0.19252762
39	0x3cbcdcad	0.023054445
40	0x3e3239e5	0.17404898
41	0xbe1a1f8e	-0.150511
42	0xbe105e50	-0.14098477
43	0x3e0c57ce	0.1370537
44	0xbe09b523	-0.13448004
45	0xbe413d59	-0.18871059
46	0x3ccd7a6d	0.025082791
47	0x3df59d9d	0.11992953
48	0x3dc383df	0.09546637
49	0xbe1c8589	-0.15285315
50	0xbe4a153e	-0.19734666
51	0xbe253992	-0.16135243
52	0xbd0f0b8c	-0.03492312
53	0x3d104cae	0.035229377
54	0x3dc91f31	0.098204024
55	0x3dfa7a03	0.12230303
56	0xbd9a4542	-0.07532741
57	0xbd83dda6	-0.064387605
58	0x3e142fb7	0.14471327
59	0xbcaf9104	-0.021431454
60	0xbdd8fcdb	-0.10595103
61	0x3d737b60	0.05944383
62	0xbe0a90b7	-0.13531767
63	0xbe1e58bc	-0.15463537
64	0xbe4185ec	-0.18898743
65	0x3e570f37	0.21001898
66	0x3cc5c2a4	0.024140663
67	0x3d913e93	0.07092013
68	0x3b249a1c	0.002511627
69	0x3b84a8b0	0.0040484294
70	0x3cb56b38	0.022145852
71	0xbe3f1b98	-0.1866287
72	0x3cb38122	0.021912161
73	0x3e47777e	0.19479176
74	0x3dbd2ad8	0.092366874
75	0xbe16c25d	-0.14722581
76	0x3e324722	0.17409948
77	0x3e073eab	0.132075
78	0x3db6b591	0.0892135
79	0x3ddd497f	0.10805034
80	0x3e25f0fc	0.1620521
81	0x3df62b77	0.12020009
82	0xbd6d7d39	-0.05798075
83	0x3dbc4e94	0.09194675
84	0x3d0f4625	0.034979004
85	0x3d393ba4	0.045222893
86	0xbd16c5a3	-0.036809575
87	0x3d5c4dac	0.05378501
88	0x3d95abf2	0.073081866
89	0xbdb2e5e0	-0.087352514
90	0xbd919a7f	-0.07109546
91	0xbe26f690	-0.16304994
92	0x3ceda46a	0.029009063
93	0xbe08c228	-0.13355315
94	0x3d9e9cd5	0.07744757
95	0x3e1b7bf2	0.15184
96	0xbd93bada	-0.072133735
97	0x3e5a36c7	0.21309958
98	0x3e176f0f	0.14788459
99	0x3c695807	0.014242179
100	0x3e5894a9	0.2115046
101	0x3e357ed2	0.1772416
102	0x3d659b93	0.05605657
103	0x3cd90e35	0.026496032
104	0x3d70497f	0.05866384
105	0xbdf842b5	-0.12122098
106	0x3e1c51d9	0.15265597
107	0x3e28860a	0.16457382
108	0xbb9998c5	-0.004687401
109	0x3c62a93b	0.013834293
110	0xbe389025	-0.18023737
111	0x3c6d640d	0.014489186
112	0xbdc58b56	-0.09645717
113	0xbd1d4a3a	-0.038400866
114	0x3da56875	0.08076564
115	0x3e0d79ea	0.13816038
116	0x3e102132	0.14075163
117	0x3de4c897	0.11171072
118	0x3dc4ec55	0.09615389
119	0xbe56d356	-0.20979056
120	0x3c550203	0.013000968
121	0x3e165d95	0.14684136
122	0x3e2b45d7	0.1672586
123	0x3d8291ca	0.06375463
124	0xbe5535c8	-0.20821297
125	0x3e3d1986	0.18466768
126	0xbe0e2faa	-0.1388537
127	0xbe5b927e	-0.21442601
128	0xbc24df42	-0.010062994
129	0x3cbbb434	0.022913076
130	0xbe538544	-0.20656306
131	0xbd39d1e3	-0.04536618
132	0xbe4121d9	-0.18860568
133	0x3e2cdaed	0.16880389
134	0x3d96e9e9	0.073688336
135	0x3e369a2b	0.17832248
136	0xbdf5557c	-0.119791955
137	0x3d3bf3d1	0.04588682
138	0xbaf512c2	-0.0018697607
139	0x3e3152a0	0.17316675
140	0xbdfbc928	-0.12294227
141	0xbbd19d7f	-0.006396949
142	0x3de4599a	0.11149903
143	0x3e28e315	0.16492875
144	0xbe2976a8	-0.1654917
145	0xbcaa29b4	-0.020771839
146	0x3d3eb579	0.046559785
147	0xbdc58c7b	-0.09645935
148	0xbe49a2e0	-0.19691038
149	0xbcc98b08	-0.024602428
150	0xbe03730a	-0.12836853
151	0x3e3c6d86	0.18401155
152	0xbbe0e473	-0.006863171
153	0x3df7dad5	0.12102286
154	0x3d24ac41	0.040203337
155	0xbdd9ecdd	-0.10640881
156	0x3e089e55	0.13341649
157	0x3c5d15bb	0.0134939505
158	0xbd68d31d	-0.05684196
159	0x3d6264bf	0.05527186
160	0x3df3ef4e	0.11910878
161	0xbd270d99	-0.040784452
162	0x3d9e7796	0.07737653
163	0xbe29055a	-0.16505948
164	0x3bb38857	0.0054788995
165	0x3cf90660	0.030398548
166	0x3e3a95fb	0.18221276
167	0x3e39cbe7	0.18144189
168	0xbdca1921	-0.09868074
169	0x3e17882d	0.1479804
170	0xbd30423d	-0.04303192
171	0x3dfdc8b5	0.123917975
172	0x3e1f92dd	0.15583368
173	0xbbdf0660	-0.00680618
174	0x3de45dd1	0.111507066
175	0x3e2168a1	0.15762569
176	0x3e167cf7	0.14696108
177	0x3a953864	0.0011384604
178	0xbe43f8de	-0.19137904
179	0xbdc2a0ea	-0.09503348
180	0xbe431e6d	-0.19054575
181	0xbe0bb565	-0.13643415
182	0xbd9f98c8	-0.077928126
183	0x3dd6939f	0.10477375
184	0x3cbc11b0	0.022957653
185	0xbb26d0e7	-0.0025454105
186	0x3dced24d	0.100987054
187	0x3e1dfc5e	0.15428302
188	0xbe1b46f8	-0.15163791
189	0x3def4672	0.11683358
190	0xbe5815b9	-0.21102037
191	0xbe0a8285	-0.13526352
192	0xbdb35482	-0.08756353
193	0x3dcf6073	0.10125818
194	0x3b943755	0.0045231977
195	0xbe1f6d66	-0.15569076
196	0xbce6702d	-0.028129661
197	0x3e3bca55	0.18338902
198	0x3e34e60e	0.17665884
199	0x3e07f3c6	0.13276586
200	0xbe38e5ed	-0.1805646
201	0x3d5deb6e	0.0541796
202	0xbc09aa7b	-0.008402462
203	0x3d9f1fa8	0.0776971
204	0xbdde90d4	-0.108674675
205	0x3d4eaae1	0.05045593
206	0x3c008d3f	0.007846176
207	0xbd161a2c	-0.036646053
208	0x3cafb272	0.021447394
209	0x3dc22ff2	0.09481801
210	0xbc9942ce	-0.018708613
211	0x3d3f3ff6	0.046691857
212	0xbe06fd70	-0.13182616
213	0x3d8fd4c6	0.07023005
214	0xbc8c0979	-0.01709436
215	0x3e298446	0.16554365
216	0xbdf1c8e9	-0.11805899
217	0x3d9597ba	0.0730433
218	0x3e37ea96	0.17960581
219	0x3d129ac4	0.035792127
220	0xbe354803	-0.17703252
221	0x3c894792	0.01675776
222	0x3e19e307	0.1502801
223	0x3e0bfd4a	0.13670841
224	0x3c84c3b0	0.016206592
225	0x3d2c7173	0.04210038
226	0x3e469b74	0.19395238
227	0xbddc82d0	-0.10767138
228	0xbcb03ff7	-0.021514876
229	0xbe44b975	-0.19211371
230	0xbd97a828	-0.0740512
231	0x3d08511b	0.033280473
232	0x3de11897	0.10991018
233	0xbd28518b	-0.04109339
234	0xbe33a95c	-0.17545074
235	0xbe4a0a5d	-0.19730516
236	0x3e16078f	0.14651321
237	0xbdd30307	-0.10303312
238	0x3df316e1	0.11869598
239	0xbe42532e	-0.18977043
240	0x3e1e78ca	0.15475765
241	0xbd2a4f30	-0.041579425
242	0x3e36bce8	0.178455
243	0xbd5533e3	-0.052051436
244	0x3e292772	0.16518953
245	0xbda375a6	-0.07981424
246	0xbdb6e9f4	-0.08931342
247	0x3d31875b	0.043341976
248	0x3df07fa7	0.11743098
249	0x3e2f866c	0.17141122
250	0xbd4ee62e	-0.050512485
251	0x3e302fbe	0.17205712
252	0xbde6d141	-0.11270381
253	0xbe16877a	-0.14700118
254	0x3dabde49	0.08392007
255	0x3e562d87	0.20915805

decoder.conv.bias f4 [128]
0	0xbe2f4b2c	-0.1711852
1	0x3d862f94	0.065520436
2	0x3f0c025e	0.5469111
3	0xbdfeacf0	-0.12435329
4	0xbeacd1be	-0.3375377
5	0x3e0a39c1	0.13498594
6	0xbe84fb2c	-0.2597288
7	0x3d8205d2	0.063487664
8	0x3e1dea16	0.15421328
9	0x3ed4ba8f	0.41548583
10	0xbf062ccf	-0.5241212
11	0x3f23ca22	0.63980305
12	0xbef9c2e7	-0.4878151
13	0x3dc6bba3	0.097037576
14	0x3e94bfa6	0.29052466
15	0xbf0dfabb	-0.5546071
16	0x3e735a79	0.23764981
17	0x3f34a875	0.70569545
18	0xbe9fd323	-0.31215772
19	0xbe8f47b6	-0.279844
20	0xbf303804	-0.68835473
21	0xbe770c7e	-0.24125859
22	0x3ed5f3b7	0.41787502
23	0x3e050f02	0.12994006
24	0x3f254100	0.6455231
25	0xbece7169	-0.403209
26	0xbf1f0773	-0.6212074
27	0xbe602500	-0.21889114
28	0xbe8acef8	-0.2711103
29	0x3e9073e9	0.28213432
30	0x3f1c2301	0.6099091
31	0xbc8d577e	-0.017253634
32	0xbe46739a	-0.19380036
33	0x3e87b520	0.26505375
34	0x3de1c80a	0.110244825
35	0x3f0468bb	0.51722306
36	0xbee9c060	-0.45654583
37	0x3f1e65d6	0.6187414
38	0x3e71b272	0.23603228
39	0x3e8b4807	0.2720339
40	0x3dc4abe5	0.09603099
41	0x3ee7de8c	0.45286977
42	0xbe0cd3f8	-0.13752735
43	0xbef5178a	-0.4786952
44	0xbd2c9f58	-0.04214415
45	0x3f0534b2	0.5203353
46	0xbe8616ab	-0.2618917
47	0xbdf41298	-0.11917609
48	0x3e255f41	0.16149618
49	0x3f1193eb	0.5686633
50	0xbe3e98d3	-0.18612985
51	0x3e5926fa	0.21206275
52	0x3ed62e52	0.41832215
53	0xbbf59c8c	-0.0074954685
54	0xbef2130a	-0.4728015
55	0xbf326ab4	-0.69694066
56	0xbe0f341d	-0.13984723
57	0x3c5b7089	0.01339353
58	0x3eebc0cd	0.46045533
59	0xbe84d715	-0.25945345
60	0xbf0ef998	-0.558496
61	0xbe98bfc9	-0.2983382
62	0x3ef5bad0	0.4799409
63	0xbe6f80c6	-0.23388967
64	0x3e851044	0.25988972
65	0x3f00e67f	0.5035171
66	0xbf14c191	-0.5810786
67	0x3f1c3986	0.61025274
68	0xbf2b2a3b	-0.66861314
69	0x3f17077f	0.58995813
70	0xbdfec7df	-0.12440466
71	0xbeb6f157	-0.35731003
72	0xbf13b7f3	-0.5770256
73	0xbee6fcc1	-0.4511471
74	0x3ed9403d	0.42431822
75	0x3ee159f3	0.44013938
76	0x3dc234aa	0.09482701
77	0x3da9739c	0.08274004
78	0xbd9d6159	-0.07684583
79	0x3f21d352	0.63213074
80	0xbf0fc4a0	-0.561594
81	0x3e8cb1a7	0.27479288
82	0xbec8d0a6	-0.39221686
83	0xbe381c44	-0.17979532
84	0x3eb1496d	0.34626332
85	0xbeebcf15	-0.4605643
86	0x3ef6d459	0.48208883
87	0xbe7a05d8	-0.24416292
88	0xbee473f4	-0.44619715
89	0x3f0abc3e	0.54193485
90	0xbe0c5d29	-0.13707413
91	0x3e7999ee	0.24375126
92	0x3efa1ed0	0.48851633
93	0x3c8c24fc	0.01710748
94	0xbf142860	-0.5787411
95	0x3e0a4571	0.13503052
96	0xbea36a7d	-0.31917182
97	0x3f2184bb	0.63093156
98	0xbf086231	-0.5327483
99	0xbd76d4aa	-0.060261406
100	0x3ddf4198	0.10901183
101	0x3f25a016	0.64697397
102	0x3ef4b2e1	0.47792724
103	0x3ed316d4	0.41228354
104	0xbf1900a2	-0.5976659
105	0xbec93abc	-0.39302623
106	0x3ea3ce10	0.3199315
107	0x3ea946b7	0.33061764
108	0xbcfd1715	-0.030894795
109	0x3f2b6422	0.66949666
110	0xbe3847c2	-0.17996123
111	0xbdb04cd4	-0.08608404
112	0x3f147049	0.57983834
113	0x3f2f56c8	0.6849179
114	0x3e8dc7ca	0.2769149
115	0xbdff3ab3	-0.12462368
116	0x3e20bd64	0.15697247
117	0xbf1d61b5	-0.61477214
118	0x3c013c5d	0.007887927
119	0x3e8985d9	0.2685993
120	0x3e654bea	0.2239224
121	0x3ef7e6e5	0.48418346
122	0xbf0b3b0b	-0.5438697
123	0x3f1d799d	0.6151369
124	0xbef7171c	-0.4825982
125	0x3d34678e	0.04404407
126	0xbef011da	-0.4688862
127	0xbe797185	-0.2435971

pointer.v f4 [1, 1, 128]
0	0xbdea6a99	-0.11446113
1	0x3e09e0a5	0.13464601
2	0xbda1fa2f	-0.07909047
3	0xbdd8aa50	-0.105793595
4	0xbe0b3b59	-0.13596858
5	0x3e0ea74a	0.13931003
6	0x3c1725e6	0.009225344
7	0x3d6fd158	0.058549255
8	0x3dae1f0b	0.08502015
9	0x3d8bd0ec	0.06826958
10	0x3d57ef92	0.052718706
11	0x3d139e7d	0.036039818
12	0x3d14acc4	0.036297575
13	0xbe11588e	-0.14193937
14	0x3d9a4a74	0.07533732
15	0xbda1b6ec	-0.07896218
16	0xbd9b83c1	-0.075934894
17	0x3b94618c	0.00452823
18	0x3ded5ea6	0.115903184
19	0xbd828246	-0.06372504
20	0xbd6cff4a	-0.05786065
21	0xb8e3e892	-0.00010867523
22	0x3c36daa0	0.011160523
23	0xbbe73dd3	-0.0070569306
24	0xbd9137ff	-0.070907585
25	0xbd0eb168	-0.034837157
26	0xbd9ee18b	-0.07757863
27	0x3de11ec4	0.10992196
28	0x3df29ba7	0.118460946
29	0x3dbe421c	0.09289953
30	0xbd859b8c	-0.06523809
31	0xbdf329a8	-0.1187318
32	0xbd37cad3	-0.044871163
33	0x3ca9f414	0.020746268
34	0xbdc72a74	-0.09724894
35	0x3cb3ab64	0.021932311
36	0x3def2bfa	0.1167831
37	0xbddaabab	-0.10677274
38	0x3dc89070	0.09793174
39	0xbaa32dfe	-0.001244962
40	0x3cc35858	0.023845837
41	0x3cde4fa4	0.027137585
42	0x3cf39a78	0.029736742
43	0x3cb23b8f	0.021756915
44	0x3d1a67fd	0.037696827
45	0xbd8957ab	-0.067061745
46	0x3d842d44	0.06453946
47	0x3d3c37a3	0.045951497
48	0x3c041420	0.008061439
49	0xbdc682ea	-0.096929386
50	0xbe05cd82	-0.13066676
51	0xbe1205de	-0.1426005
52	0xbde1f468	-0.11032945
53	0xbb843820	-0.004035011
54	0xbdc11fa4	-0.09429863
55	0xbe05845e	-0.13038775
56	0xbca12205	-0.019669542
57	0xbaf4f8e2	-0.0018689896
58	0x3e08d1eb	0.13361327
59	0x3daaf9fa	0.083484605
60	0xbde1b807	-0.110214286
61	0xbd7d75fb	-0.061880093
62	0x3dcb1aa0	0.09917188
63	0x3c422204	0.01184893
64	0xbd6a6c90	-0.05723244
65	0xbb927c86	-0.0044704108
66	0x3d3f44fd	0.04669665
67	0xbddeac63	-0.10872724
68	0xbe09f6a9	-0.13473
69	0x3d03c363	0.032168757
70	0x3d9a01ea	0.07519896
71	0x3d5a06d0	0.053229153
72	0x3d9a6d1e	0.07540344
73	0xbd06a6ed	-0.032874037
74	0xbe1096ee	-0.14120075
75	0xbb658202	-0.0035020118
76	0x3d540b46	0.051768564
77	0xbd8fcbe7	-0.07021313
78	0xbe150cc9	-0.14555658
79	0xbb7b76f8	-0.0038370471
80	0x3b8cc762	0.004296229
81	0xbdcd85ac	-0.100352615
82	0xbde76e34	-0.113003165
83	0x3d74b5b0	0.059743583
84	0xbe146956	-0.14493307
85	0x3dc4dd7d	0.09612558
86	0xbc646dda	-0.013942206
87	0xbd042baa	-0.032268204
88	0x3da44762	0.08021428
89	0x3dcc2d3a	0.09969564
90	0xbdb5df23	-0.088804506
91	0xbd1ff251	-0.03904945
92	0xbd6506c8	-0.05591467
93	0xbdac2f85	-0.08407501
94	0x3ce05abf	0.027387021
95	0xbdf98296	-0.121831104
96	0x3de8f481	0.113747604
97	0xbd607be6	-0.05480566
98	0xbdc2d36d	-0.095129825
99	0x3a5c31f4	0.00083997776
100	0xbdafa900	-0.08577156
101	0x3b036cc9	0.0020053855
102	0x3da2e202	0.07953264
103	0xbd485c49	-0.048916135
104	0xbe1468ec	-0.1449315
105	0xbe1353ce	-0.14387438
106	0x3d596a1a	0.053079702
107	0x39a59759	0.00031584015
108	0x3debfb3c	0.115225285
109	0x3dac44cb	0.08411559
110	0x3dc2f4c8	0.095193446
111	0x3dd74704	0.10511592
112	0x3d9af346	0.07565932
113	0x3c54ae67	0.012981034
114	0x3d38cadd	0.04511534
115	0x3e14e263	0.14539485
116	0xbdb6d7c4	-0.08927873
117	0xbdd0ebfa	-0.10201259
118	0xbe0705b3	-0.13185768
119	0xbd724b1f	-0.059153672
120	0xbdca7f8f	-0.09887611
121	0xbe0be33a	-0.13660899
122	0xbbd452e5	-0.0064796084
123	0xbb022c68	-0.0019862894
124	0xbd271810	-0.040794432
125	0x3d9dbd4f	0.077021234
126	0xbdad7c57	-0.084709816
127	0xbde2f4e3	-0.11081865

pointer.W f4 [1, 128, 256]
0	0x39b7a306	0.00035025942
1	0xbc41cd84	-0.011828784
2	0xbbf8e365	-0.007595467
3	0xbbac3a9d	-0.0052560107
4	0xba689baf	-0.00088732963
5	0x3bc66d64	0.006055521
6	0xbb59f7ea	-0.003325934
7	0x3addca02	0.0016921165
8	0x3bdccbda	0.006738168
9	0xbc814a84	-0.015782602
10	0xbc292163	-0.010322901
11	0x3c676a8f	0.014124527
12	0x3c4acb74	0.012377609
13	0xbb1eee9a	-0.0024251104
14	0xba250ef5	-0.0006296479
15	0x3b91cda4	0.004449563
16	0xbc1440c0	-0.009048641
17	0xbc056c7f	-0.008143543
18	0xbbf46265	-0.0074580186
19	0xbbb44ce1	-0.0055023287
20	0x3c38db99	0.011282825
21	0x3b5f44a1	0.0034068006
22	0xb8dad545	-0.000104347746
23	0x3c16f99d	0.009214786
24	0x3c44c05f	0.0120087555
25	0x3bf45b7a	0.007457194
26	0xbaf567ea	-0.0018722985
27	0xbc0d2119	-0.008613848
28	0xbc4d20d8	-0.012520038
29	0x3b35db49	0.0027749112
30	0x3c464536	0.012101462
31	0xbbaa016a	-0.005188157
32	0xbc47f9ba	-0.012205536
33	0xbc1321fd	-0.008980271
34	0xbbb01ae7	-0.0053743008
35	0x3c50fa0a	0.012754926
36	0x3bc7fa3f	0.0061028297
37	0x3c406d72	0.011744844
38	0x3be23488	0.006903235
39	0x3c199340	0.009373486
40	0x3b681ca7	0.0035417469
41	0x3b010bb6	0.0019690818
42	0xbc0f8a99	-0.008761072
43	0xbbfa6211	-0.007641085
44	0xbae13da6	-0.001718451
45	0x3bcac0b4	0.006187523
46	0xbb9109e8	-0.0044262297
47	0x3bc1b60e	0.005911595
48	0xbc2181aa	-0.0098575745
49	0xbc0f0d3c	-0.008731183
50	0x3c08e53a	0.008355433
51	0x3be7ec00	0.007077694
52	0xbb0afc2f	-0.0021207442
53	0xbbce9cbb	-0.006305305
54	0x3c0034d4	0.007825095
55	0xbc446ec9	-0.011989304
56	0x3a8d1edc	0.0010766643
57	0x3beb975d	0.007189675
58	0xbb95d83a	-0.0045728954
59	0xbc474355	-0.012162049
60	0x3c524d87	0.012835867
61	0x3c216270	0.0098501295
62	0x3bdb4de3	0.0066926344
63	0x3b1a160e	0.002351168
64	0x3bbad69c	0.005701853
65	0xbb0ad529	-0.0021184182
66	0x3c43607a	0.011924857
67	0x3aceb345	0.0015769979
68	0xbc13c948	-0.009020157
69	0xbc092676	-0.008370986
70	0xbc530a72	-0.012880908
71	0xbbe75d58	-0.007060688
72	0x3a3542e6	0.00069145707
73	0x3c3b514c	0.011432957
74	0x3b1325c5	0.0022452932
75	0xba69fc18	-0.00089258095
76	0x3b044f17	0.0020188743
77	0x3a664e56	0.00087854767
78	0xbc22a010	-0.009925857
79	0xbc16682c	-0.00918011
80	0x3b9bf49e	0.0047593853
81	0x3a2e19d3	0.00066414214
82	0xbbe9283c	-0.007115392
83	0xbbeb06ae	-0.007172427
84	0x3bec2666	0.007206726
85	0xbbc33e0d	-0.0059583248
86	0x3b2d76ad	0.0026468441
87	0x3b64a33a	0.003488733
88	0xbaa82425	-0.0012828155
89	0x3c6bbe79	0.014388674
90	0xbbb8db44	-0.005641373
91	0xbbc433fc	-0.0059876423
92	0x3be4d1d2	0.0069830203
93	0xbb98b63a	-0.004660395
94	0x3bd86560	0.0066038817
95	0x3b2e094c	0.0026555834
96	0x3beaa33a	0.0071605714
97	0xbbf0c051	-0.0073471447
98	0x3c418845	0.011812274
99	0xbb2ddc3f	-0.0026528982
100	0xbb52f951	-0.0032192061
101	0xbb4b52a8	-0.0031024609
102	0x3b016789	0.001974555
103	0xbc1c7007	-0.009548194
104	0x3b30c438	0.0026972424
105	0xbc0d6b0d	-0.00863148
106	0xbc3c86ae	-0.0115067195
107	0xbc1964b5	-0.009362389
108	0x3c1241d2	0.008926826
109	0xbc536a13	-0.012903708
110	0x3c1e7c37	0.00967317
111	0x3bc11c49	0.0058932644
112	0x3bc44404	0.0059895534
113	0xbc14b6f9	-0.009076827
114	0x3c093d6a	0.008376459
115	0xbbe43806	-0.0069646863
116	0x3c498e90	0.012302056
117	0x39c529f5	0.00037606028
118	0x3c0a87f5	0.008455266
119	0x3be63171	0.007024937
120	0x3c3d40b9	0.011551076
121	0xbc06c471	-0.008225546
122	0xbc336243	-0.01094872
123	0x3be0e71b	0.0068634874
124	0xbc37e289	-0.011223444
125	0xb832cc85	-4.262898e-05
126	0xba3ab6ea	-0.0007122593
127	0x3bd5bf11	0.006523021
128	0xbc8af24c	-0.01696124
129	0xbaf3f3eb	-0.0018612122
130	0x3c9c68f7	0.01909302
131	0xbd0a9b98	-0.033839792
132	0x3935904b	0.00017315258
133	0x37c21460	2.313609e-05
134	0xbc0b1c0e	-0.0084905755
135	0x3a1a4e5f	0.0005886312
136	0xbb8242fd	-0.003975271
137	0x3acdf83e	0.0015714241
138	0xbc43727e	-0.0119291525
139	0x3c214ab9	0.009844475
140	0xbbd67ae9	-0.0065454138
141	0xbbdb5893	-0.0066939085
142	0x3c9438c0	0.018093467
143	0x3ba8483d	0.0051355646
144	0x3c8773a6	0.016534638
145	0xbc80cccb	-0.015722653
146	0xbbc3faeb	-0.0059808395
147	0xbca04786	-0.019565355
148	0xbb16ee50	-0.002303023
149	0x3c84a012	0.016189609
150	0x3aedb492	0.0018135479
151	0xbbe92346	-0.0071148006
152	0x3b7f1343	0.0038921393
153	0xbc794ed3	-0.015216547
154	0xba860e29	-0.0010227609
155	0xbc81a71f	-0.01582676
156	0xbc2075cf	-0.009793713
157	0x3ca05ad9	0.01957457
158	0xbb9e623e	-0.0048334887
159	0xbc92d2a8	-0.017922714
160	0xbc017a07	-0.007902629
161	0xbbd1fdac	-0.006408414
162	0x3c9dfadc	0.019284658
163	0xba568bb4	-0.00081842695
164	0xbcafe425	-0.021471092
165	0x3b9e67f2	0.0048341686
166	0x3c7b5b8c	0.015341651
167	0xbbb7f67e	-0.005614101
168	0xbc65c79d	-0.014024642
169	0x3bcc364b	0.006232058
170	0xbb08a257	-0.0020848715
171	0x3c13bee0	0.009017676
172	0x3c11c934	0.008898068
173	0x3bbbb210	0.005728014
174	0x3cad0535	0.021120647
175	0xbb33ed0a	-0.0027454519
176	0xbc6c3b35	-0.014418413
177	0x3c6a4f8c	0.014301192
178	0xbc429dc1	-0.011878432
179	0x3c1cbc66	0.009566402
180	0x3c9356ba	0.01798569
181	0xbc2c1853	-0.010503846
182	0xbad2fd43	-0.0016097206
183	0x3b9d8be6	0.004807937
184	0x3cb6ae89	0.022300022
185	0x3a84a363	0.0010119494
186	0xbb97c775	-0.0046319314
187	0xbae341b4	-0.0017338307
188	0x3c335c17	0.010947249
189	0x3ac2637f	0.0014830678
190	0xbc95485e	-0.018222984
191	0xbbc683c7	-0.0060581896
192	0xbae20c04	-0.0017246013
193	0xbbea723e	-0.007154732
194	0xbc0b53ed	-0.008503896
195	0xbc19395d	-0.009352055
196	0x3c8f02ca	0.017457385
197	0xbb985542	-0.0046488354
198	0x3d072b7f	0.033000465
199	0x3ca03f96	0.01956157
200	0x3c7e8764	0.015535209
201	0x3ca6867c	0.020327799
202	0x3bd937f9	0.006628987
203	0x394d3ef0	0.0001957377
204	0x3be22270	0.006901078
205	0x3c406805	0.01174355
206	0x3b859fc9	0.0040778858
207	0x3acfc19c	0.0015850547
208	0xbace2ae1	-0.0015729332
209	0xbcb54be0	-0.022130907
210	0xbbf740a3	-0.007545547
211	0x3c588834	0.013216067
212	0xbc44c260	-0.012009233
213	0xbba88f74	-0.005144054
214	0xbca0b639	-0.01961814
215	0x3c6a4395	0.014298339
216	0x3c0369f1	0.008020864
217	0x3910f05a	0.00013822448
218	0x3bb5717c	0.00553721
219	0xbca08b78	-0.019597754
220	0x3c3247cf	0.010881378
221	0x3cab59d2	0.020916853
222	0xba926340	-0.0011168495
223	0xbb0149a3	-0.0019727729
224	0xbc065385	-0.008198624
225	0xbc0c8905	-0.00857759
226	0x3a831d3a	0.0010003217
227	0xbc5ded0c	-0.013545286
228	0xbc2b916a	-0.010471681
229	0x3ba8a774	0.005146915
230	0xbc9bd11d	-0.019020611
231	0x3b8979eb	0.004195442
232	0xbcab5f98	-0.020919606
233	0xbbd58934	-0.0065166
234	0xb93aba1a	-0.0001780767
235	0xbac1dd3b	-0.0014790663
236	0xbc3f6e8a	-0.011684069
237	0x3ba13ec2	0.0049208114
238	0xbbb77aba	-0.005599347
239	0x3b3990a3	0.002831497
240	0xba1e3e80	-0.0006036535
241	0xbb351a3e	-0.002763405
242	0xbafa4ee7	-0.0019097001
243	0x39c00e53	0.00036631766
244	0xbbe21cc9	-0.006900404
245	0xbb83baab	-0.0040200553
246	0x3c669951	0.014074639
247	0xbca96007	-0.020675672
248	0xbbcbd0fd	-0.0062199817
249	0xbc36ea4f	-0.011164262
250	0x3cab2d25	0.02089555
251	0x3d19c720	0.037543416
252	0xba950dfb	-0.0011371964
253	0xbc3a0f50	-0.01135619
254	0xbc0b56e0	-0.008504599
255	0xbba66156	-0.0050775213

pointer.gru.weight_ih_l0 f4 [384, 128]
0	0xbd59f6f2	-0.05321402
1	0xbcb89cb4	-0.02253566
2	0xbd321a89	-0.043482337
3	0xbd655a48	-0.055994302
4	0xbd355f81	-0.044280533
5	0xbda118a9	-0.07866032
6	0x3cf72f29	0.030173855
7	0x3dca46f0	0.098768115
8	0xbdb2fa32	-0.08739127
9	0xbdc6fdc2	-0.09716369
10	0x3dce1122	0.100618616
11	0x3d0f2925	0.034951348
12	0xbda5a6a7	-0.08088427
13	0xbd6cc298	-0.057802767
14	0x3d871033	0.06594887
15	0xbdbf2bba	-0.09334512
16	0xbc9a3294	-0.018822946
17	0x3dce23fb	0.100654565
18	0x3dad0663	0.08448484
19	0xbd9054e0	-0.070474386
20	0xbd155f8b	-0.03646807
21	0x3b930470	0.004486613
22	0xbdb3162e	-0.08744465
23	0x3cdbd1ba	0.026833404
24	0xbd1ff2d7	-0.03904995
25	0x3db6439d	0.08899615
26	0xbc3684e9	-0.011140087
27	0x3cd7bc46	0.026334893
28	0xbd0875fd	-0.033315647
29	0xbd96d392	-0.073645726
30	0x3d0097a9	0.031394634
31	0xbda7707c	-0.081757516
32	0x3d4a89b7	0.04944774
33	0x3d62b16c	0.055344984
34	0xbdad5dcb	-0.08465155
35	0xbd86d3be	-0.06583355
36	0x3dcffbd6	0.10155456
37	0xbdc0806b	-0.09399494
38	0x3d72cc41	0.059276823
39	0x3d5edbc7	0.054408815
40	0xbcf8e799	-0.030383872
41	0xbccf06a0	-0.025271714
42	0x3cf4be14	0.029875793
43	0x3c4b12da	0.012394631
44	0x3dcfe5b3	0.101512335
45	0x3dc62d8e	0.096766576
46	0x3d33ef4d	0.043929387
47	0xbdb73837	-0.08946269
48	0xbc42bec9	-0.011886307
49	0xbdd029a7	-0.101641946
50	0x3db869e7	0.09004574
51	0x3dac3620	0.08408761
52	0x3c4f9bc3	0.012671414
53	0xbd4ee8a3	-0.05051483
54	0xbd60a02e	-0.05484026
55	0x3db1aa99	0.08675117
56	0x3db07f90	0.086180806
57	0x3dc134e0	0.09433913
58	0xbd97261b	-0.07380315
59	0xbda2add2	-0.0794331
60	0xbaf4c332	-0.0018673895
61	0xbd5724df	-0.052525397
62	0x3acadca2	0.0015477131
63	0xbc97c914	-0.018528499
64	0xbd37d6a9	-0.04488245
65	0xbd597dcc	-0.053098485
66	0xbd063f7b	-0.032775383
67	0xbcbc02b1	-0.022950502
68	0x3ceb6e3e	0.028739091
69	0xbc262283	-0.010140064
70	0xbd91c226	-0.07117109
71	0x38cda8f6	9.806633e-05
72	0x3cd30a1b	0.025761655
73	0xbd2e9b6f	-0.0426287
74	0xbddadf72	-0.1068715
75	0x3d7b0faf	0.061294254
76	0x3dbbf066	0.09176712
77	0xbd0749eb	-0.033029478
78	0x3b489105	0.0030604017
79	0x3dd5f97d	0.10447977
80	0xbdacbf9a	-0.084349826
81	0x3dd6c6d7	0.104871444
82	0x3c870f8c	0.016486906
83	0xbd9aecd6	-0.07564704
84	0x3da55985	0.08073715
85	0xbd116ec4	-0.035506025
86	0x3c80351c	0.015650325
87	0xbcebb4fe	-0.028772827
88	0x3ce319bd	0.027722234
89	0xbdc200e8	-0.09472829
90	0x3c4969df	0.012293308
91	0xbc96bdf3	-0.018401122
92	0xbd34afb2	-0.04411287
93	0xbd2d163e	-0.04225754
94	0xbd65a820	-0.05606854
95	0xbc566179	-0.013084763
96	0xbdd7d457	-0.105385475
97	0xbc87123e	-0.01648819
98	0xbcab18d9	-0.020885872
99	0x3d8a4117	0.06750696
100	0xbd9b5be7	-0.07585888
101	0xbcf5ba07	-0.029995931
102	0xbdc08fbc	-0.09402415
103	0xbd3dff8c	-0.046386287
104	0x3c2c35a4	0.010510836
105	0x3d6bf251	0.057604138
106	0x3dc22601	0.09479905
107	0xbbbcc225	-0.0057604485
108	0x3dc7e315	0.09760109
109	0x3a9fcded	0.0012192108
110	0xbdcee34d	-0.10101948
111	0xbcf81db9	-0.03028761
112	0x3dbc91c4	0.0920749
113	0xbdd85fdb	-0.10565158
114	0xbdaaa3ae	-0.08332001
115	0xbcc69e48	-0.024245396
116	0xbd41e5a3	-0.04733814
117	0x3c08c099	0.0083467
118	0x3dae0f29	0.08498985
119	0xbc9e531e	-0.019326743
120	0x3cceaeca	0.02522983
121	0xbd8b275b	-0.06794616
122	0x3d9f2842	0.077713504
123	0x3dc0cbd2	0.09413876
124	0x3cb8d5d0	0.022562891
125	0xbcbd4b46	-0.023107182
126	0xbcd6a285	-0.026200542
127	0xbd47fc84	-0.048824802
128	0xbd10fc62	-0.03539694
129	0x3d3131cb	0.043260377
130	0x3c81c637	0.015841587
131	0xbd4bb8ec	-0.049736902
132	0x3c9c5e06	0.019087803
133	0x3cc441d5	0.023957172
134	0xbd961f79	-0.07330222
135	0xbdd2bb98	-0.10289687
136	0xbd517a1b	-0.05114184
137	0x3d8ce99c	0.06880495
138	0x3d0de2f6	0.034640275
139	0x3dd1faad	0.10252891
140	0x3d774d8b	0.060376685
141	0xbd4fce5e	-0.050733916
142	0x3da8bf88	0.08239657
143	0xbd15fbff	-0.036617275
144	0x3ddab89e	0.10679744
145	0x3dbc993d	0.092089154
146	0xbd26e067	-0.04074135
147	0xbc78c023	-0.015182528
148	0xbd878486	-0.06617074
149	0xbd82ab60	-0.063803434
150	0x3db0e03c	0.08636519
151	0x3d8d7e06	0.06908803
152	0x3cf1959b	0.029490283
153	0x3cbd398b	0.023098728
154	0x3d2369eb	0.039895933
155	0x3d824d50	0.063624024
156	0xbd37f6ab	-0.044912975
157	0xbce64f20	-0.028113902
158	0xbd37b0ff	-0.04484653
159	0xbd153b78	-0.036433667
160	0xbdba3bca	-0.09093435
161	0xbdb5c3e5	-0.088752545
162	0xbdd9605e	-0.10614084
163	0xbda40030	-0.08007848
164	0x3b7f404f	0.0038948243
165	0xbd076bb2	-0.03306169
166	0xbdaf6c48	-0.08565575
167	0xbdd01dbc	-0.101619214
168	0x3d80ffba	0.06298776
169	0x3cb08b02	0.02155066
170	0xbd6ad489	-0.057331596
171	0xbd69149b	-0.056904417
172	0x3cfb637b	0.030687084
173	0xbdafd71c	-0.08585951
174	0xbd6606ab	-0.056158703
175	0x3d958ec8	0.07302624
176	0x3d62ae41	0.055341963
177	0x3d9ccfe3	0.07656839
178	0xbd68d60f	-0.056844767
179	0x3b4db3b4	0.003138763
180	0xbd89ab50	-0.067221284
181	0x3c2ecaf4	0.010668505
182	0xbc8f0dd1	-0.017462643
183	0xbdab310f	-0.083589666
184	0x3d671426	0.0564157
185	0xbd0dd0a7	-0.034622815
186	0xbd35adea	-0.04435531
187	0xbce199d1	-0.027539166
188	0xbdc70e51	-0.097195275
189	0x3ce41023	0.027839726
190	0x3cb52a42	0.022114877
191	0xbd5d89ba	-0.054086424
192	0xbd822a9e	-0.06355785
193	0xbdc7c4ff	-0.09754371
194	0x3dbc3b98	0.09191054
195	0xbc1e7f17	-0.009673855
196	0xbd137c28	-0.036007077
197	0xbd947c2a	-0.07250245
198	0xbdb1c57c	-0.08680245
199	0x3d3c8d33	0.046033096
200	0x3d1a7d72	0.03771729
201	0x3dd3cdc1	0.10341979
202	0xbda0fba6	-0.07860498
203	0x3da5eb66	0.08101539
204	0xbd9a80b3	-0.07544079
205	0xbdda9fdf	-0.10675024
206	0x3d59aabc	0.05314134
207	0x3c19ee20	0.009395152
208	0x3d05df19	0.032683466
209	0xbd4795b5	-0.048726756
210	0x3bd0a817	0.006367694
211	0xbc9412a8	-0.018075302
212	0x3dd1debd	0.10247562
213	0xbd68b189	-0.056809936
214	0xbce298c9	-0.027660744
215	0x3a51a874	0.0007997819
216	0x3d61a247	0.0550864
217	0x3cc4dbb9	0.024030553
218	0x3bc3d426	0.005976218
219	0xbd6e117f	-0.058122154
220	0x3dd1fea5	0.10253648
221	0xbd14bf78	-0.03631541
222	0xbc9f1205	-0.019417772
223	0xbda14c00	-0.07875824
224	0x3d14303d	0.036178816
225	0xbd1de46d	-0.038547922
226	0x3dc53262	0.096287504
227	0xbd08b4b0	-0.033375442
228	0x3cc4ae43	0.024008876
229	0xbcbe5e17	-0.023238225
230	0xbd834291	-0.06409181
231	0xbd8ee893	-0.06977954
232	0xbd9f291b	-0.07771512
233	0xbd25d3fa	-0.04048536
234	0xbca9737a	-0.020684946
235	0x3d56359c	0.05229722
236	0x3d345b02	0.044032104
237	0x3b67e65d	0.003538511
238	0xbcdf95a2	-0.02729303
239	0x3d68be2c	0.056821987
240	0x3dbd16a8	0.09232837
241	0xbd8ec086	-0.06970315
242	0xbdb08be6	-0.086204335
243	0x3b67154c	0.0035260497
244	0xbd08146d	-0.033222605
245	0xbdba50ad	-0.09097419
246	0xbba06c8e	-0.004895753
247	0xbda083d6	-0.07837646
248	0xbd9dd168	-0.07705957
249	0xbd3c5510	-0.04597956
250	0xbd3198e0	-0.043358684
251	0xbd04699c	-0.03232728
252	0x3dcf3ee0	0.10119414
253	0xbd989507	-0.074503
254	0xbdbdb8c0	-0.09263754
255	0xbd30f744	-0.04320456
