Task assignment/drl4vrp/vrp/10/19_07_57.994352/checkpoints/1/critic.pt (torch, 29011 bytes, 9 tensors)

static_encoder.conv.weight f4 [128, 2, 1]
0	0x3e1ca9e4	0.15299183
1	0xbe49c2af	-0.19703172
2	0x3e206288	0.15662587
3	0x3e5f6de3	0.21819262
4	0xbe0400f4	-0.12890989
5	0xbd8edbff	-0.06975555
6	0x3dbf14f3	0.093301676
7	0x3e19efd1	0.15032889
8	0x3e0353fb	0.12825005
9	0x3e46d25b	0.19416182
10	0x3e515ab4	0.20444757
11	0xbe639385	-0.22224243
12	0xbdfc2e46	-0.123135135
13	0xbe42ecae	-0.19035599
14	0xbe08f6d3	-0.13375406
15	0x3dd731d7	0.10507553
16	0x3d9c7361	0.07639194
17	0x3e4ff3c6	0.20307836
18	0xbe05a0b0	-0.13049579
19	0x3da35d90	0.0797683
20	0xbdfd2c74	-0.123619944
21	0xbc94a2af	-0.01814398
22	0x3dd65344	0.104651004
23	0x3ddc00f4	0.10742369
24	0x3dca0409	0.09864051
25	0xbde9e45b	-0.114205085
26	0xbe474ad9	-0.19462146
27	0xbe401fb2	-0.18762091
28	0xbe286012	-0.16442898
29	0x3da8c8e4	0.08241442
30	0xbe0a09c4	-0.13480288
31	0x3d9054e6	0.07047443
32	0x3cf827d6	0.030292433
33	0x3e13c66e	0.14431164
34	0x3e19cf67	0.15020524
35	0x3e3d31c6	0.18476018
36	0xbe01a25c	-0.12659591
37	0x3e4d9afa	0.2007865
38	0x3e358b9c	0.17729038
39	0xbe1e18ef	-0.15439199
40	0x3e2499c7	0.16074286
41	0xbe0878a1	-0.13327266
42	0x3e32bb43	0.17454247
43	0xbdfd5f1f	-0.123716585
44	0xbd4751ae	-0.04866188
45	0xbe09602f	-0.13415597
46	0x3d05b7a8	0.03264585
47	0xbd11e77c	-0.03562115
48	0xbe34be01	-0.17650606
49	0x3e373c9f	0.17894219
50	0xbdae44c0	-0.08509207
51	0xbe391f19	-0.18078269
52	0xbdeca814	-0.11555496
53	0xbe2f3e54	-0.1711362
54	0xbe1691fa	-0.14704123
55	0xbe490f92	-0.19634846
56	0x3e102238	0.14075553
57	0xbdcc2789	-0.09968478
58	0x3dbc67b1	0.09199465
59	0x3dc0eaaa	0.094197586
60	0x3daf6591	0.08564294
61	0x3dc32a78	0.09529585
62	0xbd3b70c4	-0.04576184
63	0xbcd84421	-0.026399674
64	0xbcd34ce2	-0.025793497
65	0x3bb7c60e	0.0056083268
66	0xbe48edc9	-0.19621958
67	0xbdcffd3a	-0.10155721
68	0xbd3dc1af	-0.04632729
69	0xbcbffcd6	-0.023435991
70	0x3e143eb9	0.14477052
71	0x3caceee4	0.021110006
72	0xbe47d261	-0.19513847
73	0x3e3ebe64	0.18627316
74	0x3d966c03	0.0734482
75	0xbe07c057	-0.13256966
76	0xbdaa2ea2	-0.08309676
77	0xbb3b5245	-0.0028582972
78	0x3e593f49	0.21215548
79	0xbe0520ff	-0.13000868
80	0xbc5ad6b9	-0.013356858
81	0xbcba7280	-0.022759676
82	0xbe5b5fe7	-0.21423303
83	0x3d77669c	0.06040059
84	0xbc0316e1	-0.00800106
85	0x3dd609d7	0.104510956
86	0x3dca7585	0.09885696
87	0xbcd3e0f1	-0.025864096
88	0xbe32f75d	-0.17477174
89	0x3d2b0fec	0.04176323
90	0x3e3758dd	0.17904992
91	0x3e042a70	0.12906814
92	0xbdbabdc7	-0.091182284
93	0x3e1cbb03	0.15305714
94	0xbd4d43a0	-0.05011332
95	0xbe334e8a	-0.17510429
96	0xbc7dacc6	-0.015483087
97	0xbcdf065d	-0.027224714
98	0xbdef3cea	-0.1168154
99	0xbe1b3830	-0.15158153
100	0xbdfe722e	-0.12424122
101	0xbda7fde2	-0.08202721
102	0xbd527d86	-0.05138924
103	0x3da9e4ca	0.08295591
104	0xbe0b739e	-0.13618323
105	0x3e3d9cb5	0.1851681
106	0xbe0e3bcd	-0.1389
107	0xbd13e9c1	-0.036111597
108	0x3d1c0e48	0.038099557
109	0x3cf8fcd1	0.03039399
110	0x3cdd84a1	0.027040781
111	0xbcae8ed1	-0.021308335
112	0x3da521fc	0.08063123
113	0x3d8063f2	0.06269063
114	0x3decfc16	0.11571519
115	0x3c8960de	0.016769823
116	0xbe517340	-0.2045412
117	0xbe0007ee	-0.12503025
118	0x3d014636	0.0315611
119	0x3e4cbae0	0.19993162
120	0xbe4b779c	-0.19869846
121	0xbdbb98d4	-0.09160009
122	0x3d8ab848	0.0677343
123	0x3dfb44f2	0.1226901
124	0x3d114177	0.035462823
125	0x3e191cc3	0.14952378
126	0x3a7ad321	0.0009568204
127	0x3df3bdb5	0.11901418
128	0xbe45a5d8	-0.19301546
129	0xbe2514fc	-0.16121286
130	0xbd789f91	-0.06069905
131	0x3da87917	0.08226221
132	0xbd25ca11	-0.04047591
133	0xbdaf068b	-0.0854617
134	0xbddab745	-0.10679487
135	0xbe55720c	-0.20844287
136	0x3e1a5833	0.15072708
137	0x3d9157e2	0.070968404
138	0xbddcb2e3	-0.107763074
139	0xbdd58064	-0.10424879
140	0x3d35bb25	0.044367928
141	0x3e48a119	0.19592704
142	0x3d9d3163	0.076754354
143	0x3cbeb97a	0.023281801
144	0x3e1feea2	0.15618375
145	0xbe47f63d	-0.19527526
146	0xbd37019b	-0.044679265
147	0x3e5f09db	0.21781103
148	0xbdf44743	-0.119276546
149	0x3e08e71a	0.13369408
150	0xbd5fed71	-0.0546698
151	0xbd889820	-0.066696405
152	0x3c64b3b0	0.013958856
153	0x3c4d33e2	0.012524577
154	0x3e5759b1	0.21030308
155	0xbd59024f	-0.052980717
156	0x3da5a89c	0.080888
157	0xbb4ddea1	-0.0031413215
158	0xbd8ef72c	-0.06980738
159	0x3e60639a	0.21912995
160	0xbe473f40	-0.19457722
161	0xbdae8892	-0.085221425
162	0xbe1b3845	-0.15158184
163	0x3c3b4b4b	0.011431525
164	0x3e4c7192	0.19965199
165	0x3dfcb05c	0.123383254
166	0x3d3a6c5d	0.0455135
167	0xbd98e359	-0.07465238
168	0x3daa83ee	0.08325945
169	0xbd28eea6	-0.041243218
170	0xbd64b7bc	-0.055839285
171	0x3e22ca9c	0.15897602
172	0x3e03304b	0.12811391
173	0x3e011b84	0.12608153
174	0x3e5a42da	0.21314564
175	0x3e10d84a	0.14145008
176	0x3e046a6f	0.12931226
177	0x3e38db89	0.18052496
178	0x3e0395a4	0.12850052
179	0xbd6fe887	-0.058571365
180	0x3dbae292	0.09125246
181	0xbe214e15	-0.15752442
182	0x3d90e812	0.07075514
183	0x3d35aa84	0.04435207
184	0x3e18975e	0.14901492
185	0xbd72c637	-0.059271064
186	0xbd8f8eb4	-0.0700964
187	0xbe18cf95	-0.14922936
188	0x3dc0c9a6	0.094134614
189	0xbe422899	-0.189608
190	0xbdf7d329	-0.121008225
191	0x3d2776dd	0.04088484
192	0xbe590d51	-0.21196486
193	0x3e4ecdd7	0.20195709
194	0x3db7c699	0.08973426
195	0x3d8da443	0.06916096
196	0x3e504958	0.20340478
197	0xbe4404fe	-0.1914253
198	0xbe1fed2d	-0.15617819
199	0x3d5501da	0.05200372
200	0x3e0e1b27	0.13877545
201	0x3df1afe1	0.11801124
202	0x3d4be702	0.049780853
203	0x3e129464	0.14314419
204	0x3e645e80	0.22301674
205	0xbe2e0916	-0.16995654
206	0x3d81440f	0.06311809
207	0x3e445530	0.19173121
208	0x3d8d0221	0.06885172
209	0xbe569d35	-0.20958407
210	0x3e4ac97d	0.19803424
211	0xbdb20065	-0.086914815
212	0x3d8cf51e	0.0688269
213	0xbc85c367	-0.016328527
214	0x3e1e6b30	0.15470576
215	0xbd9086a2	-0.07056929
216	0x3e131a54	0.14365512
217	0xbe1f9460	-0.15583944
218	0xbe035bc0	-0.12827969
219	0xbde754b5	-0.112954535
220	0x3e040340	0.12891865
221	0x3e27d714	0.1639064
222	0x3e4629bc	0.19351858
223	0xbe25622c	-0.16150731
224	0x3d6821fc	0.056673035
225	0xbd1b9d1b	-0.037991624
226	0xbd3a36d5	-0.04546245
227	0xbe39f514	-0.18159896
228	0xbb7318f9	-0.0037093742
229	0x3e318c16	0.17338595
230	0x3e04ca70	0.12967849
231	0x3cad877d	0.02118277
232	0xbd0fd492	-0.035114832
233	0x3e5b352d	0.21407004
234	0xbcd18cd1	-0.025579842
235	0xbe3bb056	-0.18328986
236	0xbe0c1c21	-0.13682605
237	0xbe09f0b8	-0.13470733
238	0x3df0effd	0.11764524
239	0x3d32c439	0.043644164
240	0xbe366e6e	-0.17815563
241	0x3e484646	0.19558057
242	0xbe03a1d1	-0.12854697
243	0x3e156d97	0.14592586
244	0xbc3e7c48	-0.011626311
245	0xbe15fbd7	-0.1464685
246	0x3e5b725a	0.2143034
247	0x3e0dd84c	0.13852042
248	0x3d5ffedb	0.05468641
249	0xbc2da4e2	-0.010598393
250	0x3ced3670	0.028956622
251	0x3e36f90a	0.17868438
252	0x3c36a3fe	0.011147497
253	0xbe1f1dda	-0.15538731
254	0xbe5795eb	-0.21053283
255	0xbe451391	-0.19245745

static_encoder.conv.bias f4 [128]
0	0x3dde3d49	0.10851533
1	0xbee01edf	-0.43773553
2	0xbe5acba8	-0.21366751
3	0xbe10515e	-0.14093539
4	0x3e9ed903	0.31024942
5	0xbe70f9f4	-0.2353285
6	0x3ea8df35	0.32982793
7	0x3d92f2c9	0.07175214
8	0xbedf9694	-0.4366957
9	0x3e7e16c7	0.24813376
10	0x3e89c39d	0.26907054
11	0x3f31261d	0.6919878
12	0x3eef0284	0.46681607
13	0x3ed6c7d3	0.4194933
14	0x3d1a73ff	0.03770828
15	0xbe8dac45	-0.27670494
16	0x3ef0a95e	0.47004217
17	0x3f094305	0.5361789
18	0x3f256d57	0.64619964
19	0x3ee67883	0.45013818
20	0x3e9f7c68	0.31149602
21	0x3f1540a0	0.58301735
22	0xbec2949c	-0.38004005
23	0xbec719bd	-0.38886824
24	0x3f0cb164	0.54958177
25	0x3e8431b1	0.25819162
26	0x3e6884bd	0.22706886
27	0xbf01ca66	-0.5069946
28	0xbeaafb79	-0.33394983
29	0x3f063e66	0.5243896
30	0x3ea227f2	0.316711
31	0xbeb24f79	-0.34826258
32	0x3eddf622	0.43351847
33	0x3ddd10d7	0.107942276
34	0xbe40e531	-0.1883743
35	0x3e0efa34	0.13962632
36	0xbf096624	-0.5367148
37	0xbea3389d	-0.3187913
38	0x3ef9634b	0.48708567
39	0x3eb20d3a	0.34775716
40	0x3c7dd498	0.015492581
41	0x3ec56496	0.38553303
42	0x3ebc7dbb	0.36814675
43	0x3e789d09	0.24278654
44	0x3dd4ca1b	0.10390111
45	0xbd53f7a0	-0.051749825
46	0xbf265985	-0.64980346
47	0xbe52a722	-0.20571569
48	0x3f09b347	0.5378918
49	0xbed8c69b	-0.42339024
50	0x3ebbcfe4	0.36682045
51	0x3d649a22	0.055811055
52	0xbf325491	-0.6966029
53	0x3e7fbecb	0.24975125
54	0x3e5f02a8	0.21778357
55	0xbd8e1c3b	-0.06938978
56	0xbf2fb132	-0.68629754
57	0xbf0c1e39	-0.54733616
58	0x3eacb2a8	0.33730054
59	0xbed48e7f	-0.41514966
60	0x3eabdb06	0.3356554
61	0x3f113b80	0.56731415
62	0xbf182b37	-0.5944094
63	0xbeec26f1	-0.4612346
64	0x3f1c44bc	0.6104238
65	0xbb66c330	-0.0035211556
66	0x3ebfa5b9	0.37431124
67	0x3dabe6c8	0.083936274
68	0xbe9dbb25	-0.30806842
69	0xbd2915bd	-0.041280497
70	0xbf051afa	-0.5199429
71	0xbeb61fe0	-0.35571194
72	0xbeb08f90	-0.3448453
73	0xbe813e6a	-0.2524293
74	0x3f1face9	0.62373215
75	0xbd3b6cc4	-0.045758024
76	0x3db54e08	0.08852774
77	0xbeba067b	-0.3633307
78	0x3e230676	0.15920433
79	0xbeffc872	-0.49957615
80	0xbd77b27c	-0.06047295
81	0x3ded0982	0.11574079
82	0xbe3f2c1d	-0.18669172
83	0x3e742563	0.23842387
84	0xbf1a5bed	-0.6029652
85	0x3f31a7e3	0.693968
86	0xbdeb36d5	-0.11485068
87	0xbf1763a3	-0.5913641
88	0xbd1b19e4	-0.037866488
89	0x3ec08d8c	0.37607992
90	0x3e44db93	0.19224386
91	0xbf2a578f	-0.66539854
92	0xbe0077de	-0.12545726
93	0x3f125bc7	0.5717129
94	0x3f2234ce	0.63361824
95	0xbee15720	-0.44011784
96	0xbf267e1f	-0.65036196
97	0xbda3e68a	-0.08002956
98	0x3ed10dab	0.4083074
99	0x3f0ff840	0.56238174
100	0x3f1ca14e	0.6118363
101	0xbb9c54db	-0.0047708577
102	0xbf26f0e8	-0.65211344
103	0x3eceb01c	0.40368736
104	0xbf304d6a	-0.68868124
105	0x3e3092e0	0.17243528
106	0x3e527b63	0.20554881
107	0x3e0b0e6d	0.13579722
108	0x3f006f43	0.5016977
109	0xbede96b0	-0.4347434
110	0x3f324530	0.6963682
111	0xbf1c0f37	-0.60960716
112	0x3f1d7a28	0.6151452
113	0xbe9f3a44	-0.3109914
114	0xbe03a129	-0.12854446
115	0x3dfe94f4	0.12430754
116	0x3efaa683	0.48955163
117	0xbee19f5c	-0.44066894
118	0xbd00b98c	-0.03142695
119	0x3eb461f5	0.35230985
120	0x3da5ddf2	0.08098973
121	0xbe02b659	-0.12764873
122	0x3f20aa73	0.62760085
123	0x3ebe439f	0.37160966
124	0x3edc8b66	0.43075103
125	0x3eb49911	0.3527303
126	0xbf106554	-0.56404614
127	0xbd85c3e2	-0.06531502

dynamic_encoder.conv.weight f4 [128, 2, 1]
0	0x3e3111e5	0.17291982
1	0xbe229080	-0.15875435
2	0xbbe70806	-0.007050517
3	0x3daa0726	0.08302145
4	0x3d5ce953	0.053933453
5	0xbdebe7ba	-0.11518808
6	0x3dbad1b5	0.0912203
7	0x3cb66f43	0.02226985
8	0x3e05f25a	0.13080731
9	0xbdeab2ed	-0.11459909
10	0x3ded980c	0.11601266
11	0x3e3b54b6	0.18294033
12	0x3d72fae3	0.059321295
13	0x3e47ee3b	0.19524471
14	0xbd980387	-0.07422548
15	0x3e62bef6	0.22143158
16	0x3c9a3db5	0.018828252
17	0x3e1d2aed	0.15348406
18	0xbda6bf65	-0.08141974
19	0x3dcbdc78	0.099541605
20	0xbe0e103d	-0.13873382
21	0xbe418520	-0.1889844
22	0xbe36c9d6	-0.17850432
23	0xbe27b548	-0.16377747
24	0x3d843c66	0.064568326
25	0x3dfea33b	0.124334775
26	0xbe2a4cf8	-0.16630924
27	0x3e140e52	0.14458588
28	0xbe2b3a0f	-0.16721366
29	0x3e23f472	0.16011217
30	0x3e11b48d	0.14229031
31	0xbd1ed3f2	-0.038776346
32	0x3e09ebf0	0.1346891
33	0x3d6324c4	0.055454984
34	0x3df473da	0.119361594
35	0xbe3a80dd	-0.1821322
36	0xbe4866bb	-0.19570439
37	0x3e5756cb	0.21029203
38	0xbd9c7aca	-0.07640608
39	0xbe3ada34	-0.182473
40	0xbdcf68de	-0.10127424
41	0x3dc89cf0	0.097955585
42	0x3e111973	0.14169864
43	0x3df6ec66	0.12056808
44	0x3b95fde0	0.0045773834
45	0xbdf7aa34	-0.120930105
46	0xbd979e7d	-0.07403276
47	0xbe3fba51	-0.18723418
48	0x3dc9a0cb	0.09845122
49	0xbdedf563	-0.116190694
50	0xbe014df7	-0.12627397
51	0xbe497c11	-0.19676234
52	0x3d8947c8	0.06703144
53	0x3e574488	0.21022236
54	0x3c3976b3	0.011319804
55	0xbe068fc4	-0.1314078
56	0x3e24d328	0.16096175
57	0xbdb3af38	-0.08773655
58	0x3e2f8509	0.17140593
59	0xbcab378d	-0.020900512
60	0xbda6f622	-0.08152415
61	0x3e28e13b	0.16492169
62	0xbd906564	-0.07050589
63	0xbe38f617	-0.18062626
64	0x3e2d7c8e	0.16942045
65	0x3db8da1c	0.09025976
66	0x3e22cbc3	0.15898041
67	0xbd902795	-0.070388
68	0xbe3caacc	-0.18424529
69	0xbdca160c	-0.09867486
70	0xb8b1b016	-8.472816e-05
71	0x3d97b3d8	0.07407349
72	0x3e2cd31a	0.16877404
73	0x3c02e5f5	0.007989396
74	0x3bc5a3d3	0.0060314923
75	0x3d80f798	0.06297225
76	0xbd6c569d	-0.05769979
77	0x3e512738	0.20425117
78	0xbd661aed	-0.056178022
79	0xbdc20fe7	-0.094756894
80	0xbdc9d54c	-0.09855136
81	0x3e1249b1	0.14285924
82	0x3e4529a0	0.1925416
83	0x3d7e2852	0.06205017
84	0xbe1b23ec	-0.15150422
85	0x3e08d065	0.13360746
86	0x3e3e38f9	0.18576421
87	0x3e044cf8	0.12919986
88	0xbe20e353	-0.15711717
89	0x3e335bfa	0.17515555
90	0xbe0b0420	-0.13575792
91	0xbe51efda	-0.20501652
92	0x3e015c0d	0.12632771
93	0xbdd1d624	-0.10245922
94	0x3e1bebea	0.15226713
95	0xbd72fdc6	-0.05932405
96	0x3cd37a4c	0.025815152
97	0x3c040fc2	0.008060398
98	0x3e2c26de	0.16811702
99	0xbe39b44e	-0.18135187
100	0xbd0d8e40	-0.03455949
101	0x3e0cdd0a	0.13756195
102	0xbe4138ce	-0.18869326
103	0xbe155f96	-0.14587244
104	0xbe1d4927	-0.15359937
105	0x3cd9edb0	0.026602596
106	0x3dff1b75	0.12456409
107	0xbaccad83	-0.0015615675
108	0x3e4b568f	0.19857238
109	0xbe091ab5	-0.13389094
110	0x3de5a915	0.112138905
111	0xbc9fb639	-0.01949607
112	0xbd0607dd	-0.032722343
113	0x3e3deec5	0.18548115
114	0xbe4e971b	-0.2017483
115	0xbe464f2e	-0.19366142
116	0xbd837932	-0.064196005
117	0xbd70a1ec	-0.05874817
118	0x3cf4ad6f	0.029867856
119	0xbe280622	-0.1640859
120	0x3e5fedce	0.21868059
121	0x3d8cbdde	0.06872152
122	0xbb903645	-0.0044010007
123	0xbcc62ecc	-0.024192236
124	0xbda02804	-0.078201324
125	0xbe3e9025	-0.18609674
126	0xbe5bcabb	-0.21464054
127	0xbd6e6952	-0.05820591
128	0xbe54df89	-0.20788397
129	0x3e296f1d	0.16546293
130	0xbe2cdcfd	-0.16881175
131	0xbe3c54e8	-0.18391764
132	0x3dbe2146	0.0928369
133	0x3e59a85c	0.2125563
134	0x3e3de47e	0.18544194
135	0x3d91337e	0.070898995
136	0x3d2697e9	0.040672217
137	0xbda2dc1b	-0.07952138
138	0x3e160633	0.14650802
139	0x3e222f2d	0.15838309
140	0x3e5d271a	0.21596947
141	0xbb8e17f7	-0.004336353
142	0x3e3888ad	0.18020888
143	0xbe388dad	-0.18022795
144	0x3dcad674	0.09904185
145	0x3e21546f	0.15754865
146	0x3d63897d	0.05555104
147	0x3c12134d	0.0089157345
148	0x3dd84ae9	0.10561163
149	0x3dac8c79	0.084252305
150	0xbca580e3	-0.02020306
151	0xbe3ba39d	-0.18324132
152	0xbe2fb62e	-0.1715934
153	0xbdae0542	-0.084970966
154	0x3e446b89	0.19181646
155	0x3d5e0d48	0.054211885
156	0x3e06bd06	0.13158044
157	0x3e60fb6a	0.21970907
158	0x3e1bae5d	0.15203233
159	0x3d680bee	0.056652002
160	0xbde537a2	-0.11192252
161	0xbd8cc924	-0.06874302
162	0x3e142cf4	0.14470273
163	0xbd9521ff	-0.07281875
164	0xbc9ab219	-0.018883752
165	0xbe2bf00c	-0.1679079
166	0x3d28ec71	0.041241113
167	0xbcfa952b	-0.030588707
168	0x3e49115f	0.19635533
169	0xbd8a986a	-0.06767352
170	0xbdb16221	-0.08661295
171	0x3d8c5270	0.06851661
172	0x3e07f6ce	0.13277742
173	0xbe21c7f6	-0.15798935
174	0x3e20f0eb	0.15716903
175	0xbe1f8cf2	-0.1558111
176	0x3d5edcea	0.0544099
177	0xbd816694	-0.06318393
178	0x3da87900	0.08226204
179	0x3e3a0a4d	0.18167992
180	0xbe5b9392	-0.21443012
181	0xbe3b0ae7	-0.18265878
182	0xbd3f15f6	-0.046651803
183	0x3df55d8d	0.11980734
184	0x3e3f54c1	0.18684675
185	0x3de922d4	0.11383596
186	0xbcd71ad3	-0.026257908
187	0xbded79b2	-0.11595477
188	0x3e06e379	0.13172711
189	0x3e373902	0.1789284
190	0x3d1a228d	0.037630606
191	0x3c6ca2ff	0.014443158
192	0xbe35b9b1	-0.17746617
193	0x3dbc8432	0.09204902
194	0x3ca560a9	0.020187693
195	0xbdc7e563	-0.09760549
196	0xbdb20005	-0.0869141
197	0xbcc73b15	-0.024320165
198	0xbd9c9bee	-0.07646929
199	0xbdf20e2f	-0.118191116
200	0xbe1148fb	-0.14187996
201	0x3d88a089	0.06671245
202	0xbdc4a871	-0.0960244
203	0x3e49af68	0.19695818
204	0x3e13308d	0.1437399
205	0xbe0aa1bf	-0.13538264
206	0x3dd2cd16	0.10293023
207	0xbe2e5fa0	-0.17028666
208	0xbe4f542a	-0.2024695
209	0x3cae130a	0.021249313
210	0x3db289d3	0.08717694
211	0xbd8c08dc	-0.06837627
212	0xbe450279	-0.19239224
213	0xbe42bcd2	-0.19017342
214	0x3e131f07	0.14367305
215	0x3d3f0957	0.046639767
216	0xbc4122f6	-0.0117881205
217	0xbd9145a1	-0.07093359
218	0xbde3d1c5	-0.11123995
219	0x3d999dba	0.07500787
220	0xbdbcd4f5	-0.09220306
221	0x3d56b117	0.05241498
222	0xbda74e86	-0.08169274
223	0xbd963d20	-0.073358774
224	0x3e0a581e	0.13510177
225	0x3d5e317a	0.054246403
226	0xbe3c0871	-0.18362595
227	0x3d9623dd	0.07331059
228	0xbe502156	-0.20325217
229	0xbcddbc92	-0.027067456
230	0x3cd29fe8	0.025711015
231	0x3e00f96f	0.12595151
232	0x3d4b6086	0.0496526
233	0x3d03c72e	0.032172374
234	0xbdc44b0a	-0.09584625
235	0x3db8b35d	0.09018586
236	0xbd4dd2cd	-0.050249863
237	0xbe15bdf1	-0.14623238
238	0x3aa412b1	0.0012517778
239	0xbe60278c	-0.21890086
240	0x3e0e500a	0.1389772
241	0xbe097106	-0.13422021
242	0x3e346873	0.17617969
243	0x3e319e9f	0.17345665
244	0x3da6de79	0.08147902
245	0x3e30ce70	0.1726625
246	0x3e3f7ca4	0.1869989
247	0x3e15afc9	0.14617838
248	0xbe531810	-0.20614648
249	0xbdc32a39	-0.09529538
250	0xbdb19b3f	-0.08672189
251	0x3df55a9a	0.119801715
252	0x3dbc1b03	0.091848396
253	0xbe43a5a0	-0.1910615
254	0x3dc470a0	0.09591794
255	0x3e39c5dc	0.18141884

dynamic_encoder.conv.bias f4 [128]
0	0x3e6960f3	0.2279089
1	0xbf215c8c	-0.6303184
2	0x3e92cd0a	0.28672057
3	0xbd429d09	-0.04751304
4	0xbdd6a8bd	-0.10481403
5	0x3eb3daa5	0.3512775
6	0xbf2b84df	-0.6699962
7	0x3ea0846b	0.31351027
8	0xbe77822b	-0.24170749
9	0xbef77521	-0.4833155
10	0x3ec1f6c1	0.3788357
11	0x3e10728d	0.14106198
12	0x3ee19e76	0.4406621
13	0x3ecd0481	0.400425
14	0xbf015b3f	-0.50529855
15	0xbeb2799e	-0.34858412
16	0x3daa3e69	0.08312685
17	0xbf096250	-0.5366564
18	0xbf2b005e	-0.66797435
19	0x3f1335f5	0.57504207
20	0xbea877d2	-0.32903916
21	0xbeb7d06a	-0.35901195
22	0x3ed1e74f	0.40996787
23	0xbf2803d7	-0.6563086
24	0xbe65ae14	-0.22429687
25	0xbf076dce	-0.52901924
26	0xbe9c3005	-0.30505386
27	0x3f11156d	0.5667332
28	0x3ddcc0aa	0.10778935
29	0xbe4225f1	-0.18959786
30	0xbe497de5	-0.19676931
31	0xbe5558de	-0.20834681
32	0x3e38f429	0.1806189
33	0xbf0a8867	-0.54114383
34	0x3e87e136	0.2653901
35	0xbe9d97e5	-0.3077995
36	0x3f0f2d12	0.55928147
37	0xbe752225	-0.23938806
38	0x3d4cc8e2	0.049996264
39	0x3e2058c2	0.15658858
40	0x3e2ee9c7	0.17081366
41	0xbe6bc9e6	-0.23026237
42	0x3f176f1a	0.591539
43	0x3ead6ae2	0.33870608
44	0x3f1a0ca9	0.6017557
45	0xbe8c0793	-0.2734953
46	0x3eccea46	0.40022486
47	0xbf11e0cf	-0.56983656
48	0x3e5c10a3	0.21490721
49	0x3eb427a4	0.35186493
50	0x3f090a72	0.53531563
51	0xbeda8c2b	-0.42685065
52	0xbeb4e4dd	-0.3533086
53	0xbf1fb74a	-0.6238905
54	0xbe77cee4	-0.24200016
55	0xbeaa9451	-0.3331628
56	0xbee2ea28	-0.44319272
57	0xbf1cb138	-0.61207914
58	0x3f264961	0.6495572
59	0xbe2aabef	-0.1666715
60	0x3e440429	0.19142212
61	0x3f20aec3	0.62766665
62	0xbdb00091	-0.08593858
63	0x3e84e708	0.25957513
64	0x3e8dc367	0.27688143
65	0x3ef9dab3	0.48799667
66	0x3ef444be	0.47708696
67	0x3ef0daf7	0.47042057
68	0xbdadc432	-0.08484687
69	0x3f26a84d	0.65100557
70	0xbf288053	-0.6582081
71	0xbe8afeb6	-0.27147454
72	0x3f07f454	0.5310719
73	0xbf2e96e0	-0.68198967
74	0xbf2250d7	-0.634046
75	0x3f31b3a6	0.69414747
76	0x3e0abea8	0.13549292
77	0x3dfd445c	0.12366554
78	0x3ef342d3	0.4751192
79	0xbd917c53	-0.07103791
80	0x3f148697	0.5801787
81	0xbf0389a2	-0.51381886
82	0xbe532754	-0.20620471
83	0xbeed8a43	-0.46394548
84	0xbdb24153	-0.08703866
85	0x3dfa1fab	0.122130714
86	0xbeb25b00	-0.34835052
87	0xbd21ecb2	-0.03953237
88	0x3eb4e529	0.35331085
89	0x3e929ee1	0.2863684
90	0x3f084881	0.5323563
91	0x3eefc40b	0.46829256
92	0xbcad626d	-0.021165097
93	0xbec9bbb6	-0.39401025
94	0xbf32af5f	-0.69798845
95	0x3c6c5f2b	0.014426987
96	0x3eba790d	0.3642048
97	0x3da40ab3	0.08009853
98	0xbeaa7758	-0.33294177
99	0x3e5f9786	0.21835145
100	0x3efc2ea3	0.4925433
101	0x3e8ead2d	0.27866498
102	0x3de52f04	0.11190608
103	0x3f1f729c	0.62284255
104	0x3d9d9e81	0.07696248
105	0xbec188e2	-0.37799746
106	0xbf0eb57e	-0.55745685
107	0xbf23019d	-0.63674337
108	0xbee3448f	-0.44388244
109	0x3eacbcfd	0.33737937
110	0xbf29d0ba	-0.66334116
111	0x3ed476df	0.4149694
112	0x3df7026d	0.120610096
113	0xbe7c7f0c	-0.2465784
114	0x3e4cad4a	0.1998798
115	0xbe1c11f1	-0.15241219
116	0x3ed3c419	0.41360548
117	0xbf10186b	-0.5628726
118	0xbf2b5b3e	-0.669361
119	0x3d49fb85	0.049312133
120	0xbf0f22cd	-0.55912477
121	0x3f20433d	0.626026
122	0xbf0ff943	-0.5623972
123	0x3edbf076	0.42956895
124	0xbeb9e9b0	-0.36311102
125	0xbea7b88f	-0.32757995
126	0xbdf4eeee	-0.11959635
127	0x3e0ef679	0.1396121

fc1.weight f4 [20, 256, 1]
0	0xbe12274e	-0.14272806
1	0x3dc79ad2	0.097463265
2	0x3d83e2f8	0.06439775
3	0xbde2478c	-0.11048803
4	0x3dd1dd7e	0.102473244
5	0x3d24ac9c	0.040203676
6	0xbdfc7268	-0.12326509
7	0xbdb249e4	-0.087055
8	0x3dd11af6	0.102102205
9	0xbe041e20	-0.12902117
10	0x3e06f386	0.13178834
11	0xbdc0fd33	-0.09423294
12	0x3e04736c	0.12934655
13	0xbda3e209	-0.08002097
14	0x3e0d37fa	0.13790885
15	0x3d081e44	0.03323199
16	0xbb67b400	-0.003535509
17	0xbbe0b840	-0.006857902
18	0xbdae9ca2	-0.08525969
19	0xbd8faa56	-0.07014911
20	0x3e00bd4c	0.12572211
21	0x3dbb5b38	0.09148258
22	0x3db093e6	0.086219594
23	0x3d96cb12	0.07362951
24	0xbdc5656a	-0.09638484
25	0x3dc7e5be	0.09760617
26	0xbddece26	-0.108791634
27	0xbda566b4	-0.0807623
28	0xbd04b7c0	-0.0324018
29	0x3b339840	0.002740398
30	0xbd28280e	-0.041053824
31	0x3d8174a8	0.063210785
32	0x3e138cbc	0.14409155
33	0x3da6452e	0.08118664
34	0x3bb2eb20	0.005460158
35	0xbdb2cbca	-0.08730276
36	0xbd8a2f55	-0.06747309
37	0xbba16c20	-0.0049262196
38	0x3e141d70	0.14464355
39	0xbdab60c3	-0.08368065
40	0xbdbcae79	-0.092129655
41	0x3def7560	0.116923094
42	0xbb129480	-0.0022366345
43	0x3dae86d2	0.08521809
44	0xbcdb89bc	-0.026799075
45	0x3e161bca	0.14659038
46	0xbd55bc7c	-0.052181706
47	0xbd48d6c2	-0.049032934
48	0xbdcca0f0	-0.09991634
49	0xbcec1e68	-0.028823093
50	0xbdc429c6	-0.0957828
51	0x3e0be16e	0.13660213
52	0x3df07e1c	0.117428035
53	0xbdf7c5a8	-0.12098247
54	0x3d132c3c	0.035930857
55	0xbd6f2f4c	-0.058394715
56	0xbe0a192f	-0.1348617
57	0x3d689ea0	0.0567919
58	0x3dfc168c	0.12308988
59	0x3dc9ec14	0.098594815
60	0x3d0d718c	0.034532115
61	0x3e072bb4	0.13200265
62	0xbd930d59	-0.0718028
63	0xbdab1cac	-0.08355078
64	0xbdf6825f	-0.12036585
65	0xbcf6b014	-0.030113257
66	0xbcb32e58	-0.021872684
67	0xbd462424	-0.04837431
68	0x3e019252	0.12653473
69	0xbc8394a8	-0.016062096
70	0x3d712d10	0.058880866
71	0x3de74fa4	0.11294487
72	0xbdd7360c	-0.105083555
73	0x3d0a34ac	0.033741638
74	0xbdd0a649	-0.101879664
75	0x3dc95246	0.098301455
76	0xbd4c067c	-0.04981087
77	0x3e089f3c	0.13341993
78	0x3dff2708	0.124586165
79	0xba816280	-0.0009871274
80	0xbd439cd6	-0.047756992
81	0xbd776f2a	-0.06040875
82	0xbdeaacdd	-0.11458752
83	0xbce79094	-0.028267182
84	0x3df51c3c	0.11968276
85	0x3e0f4f58	0.13995111
86	0xbe0be22a	-0.13660493
87	0xbe1698fb	-0.14706795
88	0xbe015d47	-0.12633239
89	0x3d51f15c	0.05125557
90	0x3dcbd786	0.09953217
91	0xbd842803	-0.06452944
92	0x3defd574	0.11710635
93	0x3da00fec	0.07815537
94	0x3d5a6310	0.05331713
95	0xbdd92cdc	-0.10604259
96	0x3dc17274	0.09445658
97	0x3d8d0bf2	0.06887044
98	0x3aa0d480	0.0012270361
99	0x3d556bd0	0.05210477
100	0xbdaba633	-0.08381309
101	0xbd783904	-0.06060125
102	0x3dd7c8d0	0.10536349
103	0xbe0b3990	-0.13596177
104	0xbe0eccc0	-0.13945293
105	0x3beae780	0.00716871
106	0x3db0e562	0.08637501
107	0x3db58ae2	0.088643804
108	0x3d4e0e50	0.05030662
109	0x3c4f0950	0.012636498
110	0x3d8c92dc	0.06863949
111	0xbd7eb5e0	-0.06218517
112	0xbd43c64e	-0.04779654
113	0xbde93f2c	-0.11389002
114	0x3e021bc4	0.12705904
115	0x3d6f3064	0.05839576
116	0x3b3d2a80	0.0028864443
117	0x3dc39f5c	0.0955188
118	0x3e0afa42	0.13572028
119	0x3d8726c4	0.06599191
120	0x3e11739e	0.1420426
121	0x3dd8ef2c	0.105924934
122	0x3d22f114	0.03978069
123	0x3d118cdc	0.035534725
124	0xbd9c35a6	-0.0762742
125	0xbc80cb60	-0.015721977
126	0xbdaf4286	-0.0855761
127	0xbe03f72a	-0.12887254
128	0x3ce0dd18	0.027449176
129	0xbb09fb40	-0.0021054298
130	0xbd1e98aa	-0.03871981
131	0x3d16c31c	0.036807165
132	0x3ccab4c0	0.024744391
133	0x3e086356	0.13319144
134	0x3d7f73d4	0.06236632
135	0x3e041ad8	0.12900865
136	0x3e0c1a20	0.13681841
137	0x3d9ed988	0.077563345
138	0x3df49d10	0.1194402
139	0xbdf1e374	-0.11810961
140	0x3d1a330c	0.03764634
141	0x3dde4efc	0.10854909
142	0x3e0fc658	0.14040506
143	0xbd53bfae	-0.051696472
144	0xbde76323	-0.11298206
145	0xbd782d74	-0.060590222
146	0x3e10a87c	0.14126772
147	0xbdd3a086	-0.10333352
148	0x3d53de78	0.051725835
149	0x3d0ba73c	0.034095034
150	0x3a90ed80	0.0011057109
151	0x3dbb0028	0.09130889
152	0x3d88aa4c	0.066731066
153	0x3d8cdb9a	0.06877823
154	0x3cce8fc0	0.02521503
155	0x3c89a210	0.01680091
156	0xbcb1c668	-0.021701053
157	0x3de7cf08	0.11318785
158	0xbd064fcc	-0.032790944
159	0xbe01d06c	-0.12677163
160	0x3d8f5764	0.0699909
161	0x3ddb6d5c	0.10714218
162	0x3c953308	0.01821281
163	0xbcefc934	-0.029270746
164	0x3d8e30d0	0.06942904
165	0x3e0f9b30	0.14024043
166	0xbdf01240	-0.11722231
167	0xbd614e6e	-0.055006437
168	0xbd1031f0	-0.035203874
169	0x3d3df548	0.046376497
170	0x3db7393a	0.08946462
171	0xbd9a52ad	-0.075353004
172	0xbd82b387	-0.063818984
173	0x3d610064	0.054932013
174	0xbdc594e7	-0.096475415
175	0x3bc3a060	0.005970046
176	0x3e126538	0.14296424
177	0x3d7eda04	0.062219635
178	0xbe0abc8c	-0.13548487
179	0xbd8e4151	-0.06946052
180	0x3d0ca5c4	0.034337774
181	0x3cc1f740	0.023677468
182	0x3e011d4a	0.12608829
183	0xbc8b4d10	-0.01700452
184	0xbd0afebc	-0.03393434
185	0x3e10406c	0.14087075
186	0xbda04410	-0.07825482
187	0x3ddf39b4	0.10899678
188	0xbe135a2f	-0.14389871
189	0xb7d12000	-2.4929643e-05
190	0xbc8f72b8	-0.017510757
191	0xbdd5cc47	-0.104393534
192	0x3e09c564	0.13454205
193	0xbcb637e0	-0.02224344
194	0xbdff4a54	-0.12465349
195	0xbdcc15b2	-0.099650756
196	0x3d8c7560	0.06858325
197	0x3c836f48	0.016044274
198	0x3b63d180	0.0034762323
199	0x3dd005d2	0.1015736
200	0xbdfb1a78	-0.12260908
201	0xbd003950	-0.031304657
202	0x3cb19348	0.021676674
203	0xbd3ef3c6	-0.0466192
204	0xbdeac78a	-0.1146384
205	0x3bc4fe40	0.0060117543
206	0xbdf784b1	-0.12085856
207	0x3cd7f070	0.026359767
208	0x3ccba660	0.024859607
209	0x3d2ff524	0.042958394
210	0xbc280ec0	-0.010257423
211	0xbcb55088	-0.022133127
212	0x3dee1c94	0.116265446
213	0xbdd7483c	-0.105118245
214	0x3e0f9210	0.14020562
215	0xbe02335e	-0.12714908
216	0xbd20f492	-0.03929574
217	0xbc97a8c0	-0.018513083
218	0x3d86b600	0.065776825
219	0xbddb470a	-0.10706909
220	0xbded6cb0	-0.11592996
221	0x3dcf2524	0.10114506
222	0xbd99adae	-0.0750383
223	0xbd0ecdca	-0.034864224
224	0x3e121c82	0.14268687
225	0xbe104532	-0.14088896
226	0x3de286e0	0.110608816
227	0xbdf2cf16	-0.11855905
228	0x3dc2dec8	0.095151484
229	0x3e16c714	0.1472438
230	0x3dcdbcac	0.10045752
231	0xbd4007b6	-0.046882354
232	0xbe02a053	-0.12756471
233	0x3d3396e0	0.043845057
234	0xbdfb40fe	-0.12268256
235	0xbd2de6b8	-0.04245636
236	0xbbac6dc0	-0.0052621067
237	0x3da8caa4	0.08241776
238	0xbe140045	-0.14453228
239	0xbd9bae7e	-0.07601641
240	0x3d4bd260	0.049761176
241	0x3dea0758	0.11427182
242	0xbe0d89af	-0.13822053
243	0xbe0bc896	-0.13650736
244	0xbd89cfca	-0.06729086
245	0xbd8050fb	-0.06265446
246	0x3db8c798	0.090224445
247	0x3dc93d24	0.09826115
248	0xbd8f5ce0	-0.070001364
249	0xbdd40ee9	-0.103544064
250	0xbde7e354	-0.11322656
251	0xbd5c1aac	-0.053736374
252	0x3d57ab0c	0.052653357
253	0xbcdf0fdc	-0.027229242
254	0xbd821b97	-0.063529186
255	0x3d746e6c	0.05967562

fc1.bias f4 [20]
0	0xbcf82664	-0.030291744
1	0xbaac310e	-0.0013137178
2	0xbc586668	-0.013208009
3	0xbd32473f	-0.043524977
4	0xbc89032c	-0.016725145
5	0xbc4ca3d8	-0.012490235
6	0xbd54d91d	-0.051964868
7	0xbca8ead9	-0.020619797
8	0x3cf4fb52	0.029904995
9	0xbbc4d4c5	-0.0060068094
10	0xbce61d24	-0.028090067
11	0x3d3d1300	0.046160698
12	0xbd140d02	-0.036145218
13	0xbd731e22	-0.05935491
14	0x3c18c118	0.009323381
15	0xbcde17a4	-0.027110882
16	0x3d78e702	0.06076718
17	0xbc8636a0	-0.01638347
18	0x3c5866a9	0.01320807
19	0xbca5b990	-0.020230085

fc2.weight f4 [20, 20, 1]
0	0xbc37e040	-0.011222899
1	0xbcca546c	-0.024698459
2	0x3e600a58	0.21878946
3	0x3e529d69	0.2056786
4	0xbbafd500	-0.0053659678
5	0x3b4c6dfc	0.0031193485
6	0x3e1ea757	0.15493523
7	0xbd323e0b	-0.0435162
8	0xbeb877cd	-0.360289
9	0x3e03bf7b	0.12866013
10	0xbe4852ce	-0.19562837
11	0xbea5c4ed	-0.32376805
12	0xbe31ea33	-0.17374496
13	0xbe53351a	-0.20625725
14	0x3e44027c	0.19141573
15	0x3db83215	0.089939274
16	0xbc8679cf	-0.016415505
17	0x3ec67344	0.38759816
18	0x3dae0d4f	0.08498632
19	0xbe5a1b1f	-0.21299408
20	0x3e9a914c	0.30188978
21	0xbd585d2e	-0.052823238
22	0x3e11adf8	0.1422652
23	0xbe231fe7	-0.15930139
24	0x3da4601c	0.08026144
25	0x3ea17229	0.3153241
26	0xbd6cdedb	-0.05782972
27	0xbd1e34dd	-0.038624633
28	0x3e229470	0.15876937
29	0x3e435f10	0.19079232
30	0xbe9e3742	-0.30901533
31	0xbe91e2a4	-0.28493226
32	0xbe4d9ded	-0.20079775
33	0x3e1cf3ea	0.15327421
34	0x3eb26c3a	0.34848195
35	0xbd70cf4b	-0.05879144
36	0xbec531a0	-0.38514423
37	0x3e367bbe	0.17820641
38	0x3e780a9f	0.24222802
39	0x3e359e08	0.17736065
40	0x3e4cd120	0.2000165
41	0x3df46418	0.11933154
42	0xbec2bf77	-0.380367
43	0x3ea2f5b5	0.31828085
44	0xbe90f373	-0.28310737
45	0xbe9d8a3e	-0.30769533
46	0x3d97e4d1	0.0741669
47	0x3be0d4ed	0.00686132
48	0xbe7aaeae	-0.24480698
49	0xbe99b614	-0.30021727
50	0xbe4e7e3b	-0.2016534
51	0xbe7e7109	-0.24847807
52	0x3de0594c	0.10954532
53	0xbe959faa	-0.29223377
54	0xbd968e80	-0.073513985
55	0x3d4bebb6	0.04978534
56	0x3eb12199	0.34595945
57	0x3ea5d504	0.3238908
58	0x3e001620	0.1250844
59	0xbae83600	-0.0017716289
60	0x3ec2cdb4	0.38047564
61	0x3e8b55c8	0.27213883
62	0xbe0a7c74	-0.13524038
63	0x3da83889	0.08213908
64	0x3ea46866	0.321109
65	0x3e5f0f8a	0.21783271
66	0xbe8f7b6f	-0.2802386
67	0x3d80f904	0.06297496
68	0xbcbcc32f	-0.02304229
69	0x3e949da7	0.2902653
70	0xbde0f8b8	-0.10984939
71	0xbe353379	-0.17695417
72	0xbd8e47ac	-0.06947264
73	0xbdc566f0	-0.096387744
74	0xbd8be708	-0.06831175
75	0x3ebd9302	0.3702622
76	0xbdff94c7	-0.12479549
77	0xbe5ca7c3	-0.21548371
78	0x3e7fe7f9	0.24990834
79	0x3ec45594	0.3834654
80	0x3e462eb8	0.1935376
81	0xbd7da124	-0.061921254
82	0x3e1cef78	0.15325725
83	0xbddc8252	-0.10767044
84	0xbd790fd0	-0.060806096
85	0xbd069c43	-0.032863867
86	0xbe08bc31	-0.1335304
87	0x3e471746	0.19442472
88	0xbdbd49b3	-0.09242573
89	0x3e9781b5	0.29591146
90	0x3ce51010	0.02796176
91	0x3eb8f74e	0.36126179
92	0xbd996e64	-0.074917585
93	0x3ea8b15d	0.32947817
94	0xbce80cb0	-0.028326362
95	0x3dae1dfb	0.08501812
96	0xbe1f9109	-0.1558267
97	0xbebf38dc	-0.37348068
98	0x3e1feb99	0.15617217
99	0x3e2111e8	0.15729487
100	0x3e3f4768	0.18679583
101	0xbddebb0a	-0.108755186
102	0x3e64d6bc	0.2234754
103	0xbce10bd6	-0.027471464
104	0x3eb47ee4	0.3525306
105	0xbe24e93c	-0.16104597
106	0x3e767059	0.24066295
107	0x3ccf5d79	0.025313126
108	0xbdde3e52	-0.108517304
109	0x3e050544	0.1299029
110	0x3eaf78ec	0.34271944
111	0x3eba3c32	0.3637405
112	0x3ec1c504	0.37845623
113	0xbeac5bec	-0.3366388
114	0x3e917264	0.28407586
115	0x3e480815	0.19534333
116	0x3ec56d7c	0.38560092
117	0x3c915354	0.01773993
118	0xbe70ea65	-0.23526914
119	0x3dfb6790	0.12275612
120	0x3ebc515a	0.36780816
121	0x3e5cf87f	0.21579169
122	0xbc8e9c60	-0.01740855
123	0xbea8cf6b	-0.32970747
124	0x3e7021dc	0.23450416
125	0xbea27201	-0.31727603
126	0xbe6f2a9a	-0.23356095
127	0x3e614f75	0.22002967
128	0xbd704adb	-0.058665138
129	0xbea530ad	-0.322637
130	0xbe671cb6	-0.22569546
131	0x3ca87e30	0.020567983
132	0x3e342664	0.1759277
133	0xbe0c8744	-0.13723475
134	0x3e2aec2c	0.16691655
135	0x3c9db2ab	0.019250235
136	0x3e07da57	0.13266884
137	0x3d145f8a	0.036223926
138	0x3e0a980d	0.13534565
139	0x3e843980	0.2582512
140	0x3da969cc	0.08272132
141	0x3ea14b30	0.31502676
142	0x3ebb1c20	0.36544895
143	0x3da302f0	0.07959545
144	0x3db0d924	0.08635166
145	0xbe5d5e70	-0.21618056
146	0x3ea4c0ac	0.32178247
147	0xbdb66368	-0.08905679
148	0x3e9f2038	0.31079268
149	0x3d46cad0	0.04853326
150	0x3d87a288	0.06622797
151	0xbb9f3100	-0.004858136
152	0x3dd0cca0	0.10195279
153	0x3e4aff84	0.19824034
154	0xbe947683	-0.28996667
155	0xbe726595	-0.23671563
156	0xbe96539f	-0.29360673
157	0xbe885408	-0.2662661
158	0xbe1dec26	-0.15422115
159	0x3ec4cf18	0.3843925
160	0x3eafd58a	0.34342605
161	0xbdb41f48	-0.08795029
162	0x3e63ef20	0.22259188
163	0xbec43ef1	-0.3832927
164	0x3ebae030	0.36499166
165	0xbc003f7f	-0.007827639
166	0xbdd918d8	-0.10600442
167	0x3e605beb	0.21910064
168	0x3d1fff76	0.039061986
169	0xbe484c09	-0.19560255
170	0x3ce51710	0.027965099
171	0x3ea03b88	0.3129542
172	0xbe7929d0	-0.24332356
173	0x3eaec4bf	0.3413448
174	0xbeb79034	-0.35852206
175	0xbec3bfb9	-0.3823221
176	0xbdd4687f	-0.103714935
177	0x3e9c057d	0.30472937
178	0x3d66c860	0.056343436
179	0xbdf9c9b8	-0.12196678
180	0x3dd52194	0.10406795
181	0x3ec57aa2	0.38570124
182	0x3e8799a8	0.26484418
183	0xbe733eb7	-0.23754393
184	0x3e2c9d20	0.16856813
185	0xbea6df96	-0.32592458
186	0xbe96d0cf	-0.29456183
187	0x3e6b0d98	0.22954404
188	0xbd45ebe7	-0.048320677
189	0x3e3b84c7	0.1831237
190	0xbe6a0690	-0.22854066
191	0xbe526977	-0.20548044
192	0x3e6c62bc	0.23084539
193	0xbd175320	-0.03694451
194	0x3db879b4	0.09007588
195	0xbe39dccf	-0.18150638
196	0x3e1690da	0.14703694
197	0x3e7be898	0.24600446
198	0xbe9cf9f7	-0.30659458
199	0xbe30f14a	-0.17279544
200	0xbc4b1720	-0.01239565
201	0x3d4f4e7e	0.050611965
202	0xbe83b7b5	-0.25726095
203	0x3e7439e1	0.23850204
204	0x3e7c2c6c	0.2462632
205	0xbebf30f9	-0.3734205
206	0x3e8eeb49	0.27913883
207	0xbd9ba740	-0.0760026
208	0x3e2c5435	0.16828997
209	0x3ebf7f51	0.37401822
210	0xbc8210d0	-0.015877157
211	0x3e1e3504	0.15449911
212	0x3e4d5a90	0.20054078
213	0xbec34c38	-0.38144088
214	0xbeb8deda	-0.36107522
215	0x3ea65baf	0.32491824
216	0x3dc2c0da	0.0950944
217	0x3e9d6ada	0.30745584
218	0xbdd1472b	-0.10218652
219	0x3cbb6df0	0.02287957
220	0xbd8ec99c	-0.06972048
221	0xbe802d47	-0.25034544
222	0xbe030324	-0.12794167
223	0xbda86a18	-0.08223361
224	0x3e182120	0.14856386
225	0xbdd7c9d0	-0.105365396
226	0xbe90847a	-0.28226072
227	0xbe3608ae	-0.17776749
228	0xbe42b3fa	-0.19013968
229	0xbea6521c	-0.3248452
230	0x3e8af3f0	0.27139235
231	0xbda0f7fc	-0.07859799
232	0x3eb84012	0.35986382
233	0xbd999afc	-0.07500264
234	0xbe15cf78	-0.14629924
235	0xbeb3c2e4	-0.35109627
236	0x3e362e30	0.17791057
237	0xbd8d98f4	-0.06913939
238	0x3e461064	0.1934219
239	0x3e2b9ae4	0.16758305
240	0xbec3b6a2	-0.38225275
241	0xbd24f7f8	-0.040275544
242	0x3e84b5ce	0.25919956
243	0xbd8b51e0	-0.06802726
244	0x3d658168	0.056031615
245	0x3eab1bb0	0.3341956
246	0xbe1084fa	-0.14113227
247	0xbdbfb0bc	-0.09359881
248	0xbe1d4c2f	-0.15361093
249	0xbe75e87a	-0.24014464
250	0x3eaa026e	0.3320498
251	0x3e69f984	0.22849089
252	0xbeb003cc	-0.34377897
253	0xbe8d8bf0	-0.27645826
254	0xbcfe4930	-0.031040758
255	0x3dba251c	0.09089109

fc2.bias f4 [20]
0	0x3e437e75	0.19091208
1	0xbe427560	-0.18990088
2	0xbd52c603	-0.05145837
3	0x3db9dfce	0.090758905
4	0x3e239d0f	0.15977882
5	0x3dee0a30	0.11623037
6	0x3d135ae6	0.03597536
7	0xbe3a35b8	-0.18184555
8	0x3e01ae39	0.12664117
9	0xbd8c31b9	-0.06845421
10	0x3e4121d4	0.1886056
11	0x3df14a44	0.11781743
12	0x3e10e584	0.14150053
13	0xbd443a1c	-0.04790698
14	0x3c808350	0.015687615
15	0xbd920326	-0.07129507
16	0xbdb1d744	-0.08683637
17	0xbe311be3	-0.17295794
18	0x3e43ee26	0.19133815
19	0xbe6398d5	-0.2222627

fc3.weight f4 [1, 20, 1]
0	0x3e346408	0.17616284
1	0xbec6974d	-0.38787308
2	0xbe057a6c	-0.13034981
3	0xbdd31d2b	-0.10308298
4	0xbe83ced7	-0.25743744
5	0x3e9f595c	0.31122863
6	0x3e728613	0.23683958
7	0x3effb70e	0.49944347
8	0xbe03f008	-0.12884533
9	0x3e0f1b9a	0.13975373
10	0x3e0fd25b	0.14045088
11	0x3f035605	0.5130313
12	0x3e18dee8	0.14928782
13	0x3ef94b79	0.48690394
14	0x3ef1852e	0.4717192
15	0x3eaa3a88	0.3324778
16	0x3eb4924e	0.35267872
17	0xbdcd51cf	-0.100253694
18	0x3cdee766	0.027209949
19	0x3dc669e0	0.09688163
