Task assignment/drl4vrp/vrp/10/20_05_18.844960/checkpoints/2/actor.pt (torch, 734651 bytes, 14 tensors)

static_encoder.conv.weight f4 [128, 2, 1]
0	0x3ddb42b6	0.107060835
1	0x3d95dc4b	0.07317408
2	0x3dbe2517	0.09284418
3	0xbdc35db8	-0.0953936
4	0xbe26e864	-0.16299587
5	0xbda264e6	-0.07929401
6	0xbd3e1f2d	-0.04641645
7	0xbd6f6891	-0.05844933
8	0x3d8a0e6a	0.067410305
9	0xbe0752a8	-0.13215125
10	0x3da86bd3	0.08223691
11	0x3e260f75	0.16216834
12	0x3e56ad41	0.20964529
13	0xbe0c657d	-0.1371059
14	0x3dd00679	0.101574846
15	0xbdaff74c	-0.0859209
16	0xbd8cd3a5	-0.068763055
17	0xbde68016	-0.11254899
18	0x3e1bff62	0.1523414
19	0x3e5579e1	0.20847274
20	0x3dd0ef55	0.10201899
21	0xbdfd9b81	-0.12383176
22	0xbd702429	-0.058628235
23	0xbcb038c8	-0.02151145
24	0x3e0d85f4	0.1382063
25	0xbe051af4	-0.12998563
26	0xbdfe440d	-0.124153234
27	0x3db8180e	0.08988963
28	0xbe169d4e	-0.14708444
29	0xbdf18b8a	-0.11794193
30	0x3c4418bd	0.011968789
31	0x3dfe44e9	0.12415487
32	0xbe095e24	-0.13414818
33	0xbdf4b8f0	-0.119493365
34	0xbe2fccef	-0.1716802
35	0xbdaea14a	-0.08526857
36	0x3d9a87ea	0.07545455
37	0x3cec38a1	0.028835597
38	0xbcfb158e	-0.030649927
39	0xbd4645a8	-0.048406273
40	0x3cdf44bd	0.027254457
41	0x3c9824cf	0.01857224
42	0x3d930506	0.071786925
43	0x3c7a3212	0.015270727
44	0xbdad521f	-0.08462929
45	0x3dfe27da	0.12409945
46	0xbb4ee716	-0.0031570843
47	0xbe088a41	-0.1333399
48	0xbe2328b4	-0.15933496
49	0x3e2a7828	0.16647398
50	0x3e004364	0.12525707
51	0xbbc82ddb	-0.006108982
52	0xbd1d31cd	-0.03837757
53	0xbe17faf6	-0.14841828
54	0x3df6041c	0.120125026
55	0xbd221e5a	-0.039579727
56	0x3da7d9c6	0.08195834
57	0xbe41d2b7	-0.18928038
58	0x3d46b8c6	0.048516057
59	0xbe21f781	-0.15817071
60	0x3c1eee33	0.009700346
61	0x3ddf7aad	0.109120704
62	0xbd8808f2	-0.06642331
63	0xbc352019	-0.011055016
64	0xbe0cdce1	-0.13756134
65	0x3e4b447f	0.19850348
66	0x3e377d45	0.1791888
67	0x3e3223ef	0.1739652
68	0xbe45dc67	-0.19322358
69	0x3dae6c33	0.08516731
70	0xbe0e2ddb	-0.1388468
71	0xbc63c412	-0.013901727
72	0xbca9abbf	-0.020711778
73	0xbe0ecd48	-0.13945496
74	0x3d07dd4d	0.033170033
75	0xbda602a0	-0.081059694
76	0x3d553c75	0.05205961
77	0x3e2b1510	0.16707253
78	0xbe4f3b0e	-0.20237371
79	0xbe350a55	-0.17679723
80	0xbe0c6365	-0.13709791
81	0xbd1d826d	-0.03845446
82	0x3e282f53	0.16424303
83	0x3e1785d2	0.14797142
84	0x3d6c3b91	0.057673994
85	0x3e177f45	0.14794643
86	0xbdc6ad65	-0.09701041
87	0xbd6a30b4	-0.057175353
88	0xbd219780	-0.039451122
89	0x3c84401a	0.016143847
90	0x3c81e953	0.015858328
91	0xbdf521cb	-0.11969336
92	0xbdfc181f	-0.12309288
93	0xbcaa656b	-0.020800313
94	0xbd99584b	-0.07487544
95	0x3da9818a	0.08276661
96	0xbb00af0f	-0.0019635593
97	0xbda053c3	-0.07828476
98	0xbe0a4794	-0.13503867
99	0x3decffc6	0.115722224
100	0x3d90df9f	0.07073902
101	0x3dcc4afd	0.099752404
102	0xbe2d6d3b	-0.169362
103	0xbe1698e8	-0.14706767
104	0x3e039a9a	0.12851945
105	0xbe14e977	-0.14542185
106	0xbcd3c017	-0.025848432
107	0x3da9ebb2	0.082969084
108	0x3e55ac0a	0.20866409
109	0xbe4b59d3	-0.19858484
110	0x3e08b6d6	0.13350996
111	0xbe3fea3e	-0.187417
112	0xbc472b56	-0.012156328
113	0x3e418ed5	0.18902142
114	0x3c2ebb30	0.010664746
115	0xbe2fe522	-0.17177251
116	0xbd9b33b3	-0.0757822
117	0x3cc3bee0	0.023894727
118	0x3e0f076f	0.1396768
119	0x3d8c0f53	0.0683886
120	0xbdadbd0e	-0.08483325
121	0x3be4b7bb	0.00697991
122	0xbe1be4a8	-0.15223944
123	0x3e362c85	0.1779042
124	0x3d5b88c4	0.053597227
125	0x3e1c9413	0.15290861
126	0x3dca53be	0.09879254
127	0x3d8fa495	0.070138134
128	0x3dc0a89c	0.0940716
129	0xbd8ebed6	-0.06969993
130	0xbde41683	-0.11137106
131	0xbdffaa5e	-0.12483667
132	0xbd83cfc4	-0.064361125
133	0xbe499a15	-0.19687684
134	0x3d74dc2d	0.05978029
135	0xbc07581b	-0.008260752
136	0x3b972fa9	0.004613836
137	0xbe1bd9d3	-0.15219812
138	0x3e1fd33f	0.15607928
139	0xbd811d73	-0.06304445
140	0xbe4ad0dd	-0.19806238
141	0x3d011795	0.03151663
142	0x3e364034	0.17797929
143	0xbda18d60	-0.07888293
144	0x39d740fc	0.00041056413
145	0xbe172e2e	-0.1476371
146	0xbd355462	-0.044269927
147	0xbe3d34da	-0.18477193
148	0xbd2f7d30	-0.042843997
149	0xbddd0b84	-0.10793212
150	0xbd028d58	-0.031873077
151	0x3da1e35a	0.07904692
152	0x3d5b50c9	0.05354384
153	0xbdf3eeed	-0.11910806
154	0x3b811cfc	0.003940223
155	0xbe1152d9	-0.1419176
156	0xbd189e30	-0.037260234
157	0x3dc5ef51	0.096647866
158	0xbc6909fd	-0.014223573
159	0xbdb81c24	-0.089897424
160	0xbe19b7b9	-0.15011491
161	0xbd6e391a	-0.058159925
162	0x3e2f6479	0.17128171
163	0x3d6f63d5	0.058444817
164	0x3d433aef	0.047663625
165	0x3ac1a758	0.0014774604
166	0x3e4bf045	0.19915874
167	0xbe0cf3ff	-0.13764952
168	0xbe53775e	-0.20651004
169	0xbe04ff3b	-0.12987988
170	0x3e3049fa	0.1721572
171	0xbdee1f26	-0.11627035
172	0x3e4fcb9b	0.20292513
173	0x3c9cd420	0.019144118
174	0x3e21d8da	0.15805379
175	0xbde5d530	-0.11222303
176	0x3e15d67b	0.14632599
177	0xbd6facd9	-0.05851445
178	0x3e59970e	0.21249029
179	0xbe30b9b0	-0.17258334
180	0x3d85a75c	0.06526062
181	0x3e27303b	0.16326992
182	0xbdae06b5	-0.08497373
183	0x3e21438e	0.15748426
184	0x3d9bc9d3	0.07606854
185	0x3e4f91fa	0.2027053
186	0x3e324ff1	0.17413308
187	0xbe133c52	-0.14378479
188	0xbd103627	-0.035207894
189	0x3dffbee3	0.124875806
190	0xbcdcc7f0	-0.026950806
191	0xbdde3011	-0.10849012
192	0xbdb5ee15	-0.08883301
193	0xbe295827	-0.16537534
194	0xbe1c14ff	-0.15242384
195	0xbe48a3c1	-0.19593717
196	0x3bc0f43e	0.005888491
197	0xbe234d87	-0.15947543
198	0xbc6ebdfa	-0.014571661
199	0xbd119de9	-0.035550985
200	0xbdd38b14	-0.103292614
201	0x3e4f44ad	0.20241041
202	0x3d5fe79c	0.05466424
203	0x3d1ec3ff	0.038761135
204	0xbd921d4a	-0.07134493
205	0xbca81931	-0.020519825
206	0x3e4bd7a1	0.19906475
207	0x3d46c91c	0.048531637
208	0x3d6bf46a	0.05760614
209	0x3dc6178e	0.096724615
210	0x3d8056d0	0.06266558
211	0xbd6fd64d	-0.058553983
212	0x3d0a5053	0.03376801
213	0x3e3bd151	0.18341567
214	0xbe2467f3	-0.16055278
215	0xbd7f26bd	-0.062292803
216	0x3e3aab3f	0.18229388
217	0x3d110f9c	0.035415277
218	0xbdf62f97	-0.12020796
219	0xbdab4174	-0.083620936
220	0xbe21ad9d	-0.15788884
221	0xbc9c6ae2	-0.019093934
222	0x3e3863b7	0.18006788
223	0x3d7b0cef	0.06129163
224	0x3db1e04c	0.08685359
225	0x3e478c92	0.19487217
226	0x3e041268	0.12897646
227	0xbe2f9a15	-0.17148621
228	0xbd30e484	-0.04318668
229	0xbd6f6a69	-0.05845109
230	0x3cfcb2b7	0.030846937
231	0xbe2a2305	-0.16614921
232	0xbbc4a9fd	-0.0060017095
233	0x3e306d16	0.17229113
234	0xbe31d3ef	-0.17366003
235	0x3bf62aec	0.007512441
236	0xbdc1b9ff	-0.09459304
237	0x3ce315d6	0.027720373
238	0xbc8ae9cb	-0.016957184
239	0xbdaf9de9	-0.08575041
240	0x3d3b09de	0.045663707
241	0x3e3d024a	0.18457904
242	0xbc5526a2	-0.013009699
243	0xbc39a933	-0.011331844
244	0xbdb0708e	-0.08615218
245	0xbc8ee842	-0.017444734
246	0x3d112f56	0.035445534
247	0xbd644812	-0.055732794
248	0xbd97b779	-0.074080415
249	0xbcf81ba7	-0.030286623
250	0x3e0e6694	0.13906318
251	0x3e3edf5f	0.18639897
252	0x3e19a900	0.15005875
253	0x3e3af943	0.18259148
254	0x3e522cc7	0.20524894
255	0x3d86c688	0.065808356

static_encoder.conv.bias f4 [128]
0	0x3f29d770	0.66344357
1	0x3ed3053a	0.41214925
2	0xbf341b36	-0.7035402
3	0xbd94bef0	-0.07262981
4	0xbe8fc106	-0.28076953
5	0x3ea6e301	0.32595065
6	0xbd50c7b1	-0.05097169
7	0x3ea19961	0.3156233
8	0xbf1944a8	-0.59870386
9	0x3e001f52	0.12511948
10	0x3f1bc02c	0.60840106
11	0xbe929e46	-0.28636378
12	0xbce5993c	-0.02802717
13	0x3debb387	0.115088515
14	0x3f25c0d6	0.6474737
15	0xbf197a48	-0.5995221
16	0x3ecec5b0	0.403852
17	0x3e4e2b2e	0.20133659
18	0xbef5ea38	-0.48030257
19	0x3f2d456f	0.6768407
20	0x3ee3457b	0.44388947
21	0x3ed148d0	0.40875864
22	0x3e9a4b2f	0.30135486
23	0x3e872ff8	0.26403785
24	0xbdc86917	-0.09785669
25	0x3f084008	0.53222704
26	0x3f30ab07	0.69010967
27	0x3f0ca3ed	0.5493763
28	0x3eaef1ef	0.34168956
29	0x3d39edf7	0.045392957
30	0x3e0f5510	0.13997293
31	0xbb28c89f	-0.0025754345
32	0xbe1c4240	-0.15259647
33	0x3f1f7ec5	0.6230281
34	0x3e6dee8f	0.23235534
35	0x3ef336f7	0.47502872
36	0x3e414bfc	0.18876642
37	0xbe9521b3	-0.29127273
38	0xbf0ebd6a	-0.5575777
39	0x3d7dea9a	0.06199131
40	0x3eb7e984	0.35920346
41	0xbda12a60	-0.078694105
42	0x3de3cf11	0.11123479
43	0x3ec2e178	0.38062644
44	0x3b066bd6	0.0020511053
45	0xbe8856b2	-0.26628643
46	0xbf1aa84b	-0.60413045
47	0x3ce14feb	0.027503928
48	0xbe911d31	-0.28342584
49	0x3ecb2539	0.39676836
50	0x3dd28ccc	0.10280761
51	0xbec72f56	-0.38903302
52	0xbefb75e5	-0.49113384
53	0xbef19ebc	-0.47191417
54	0x3e9df31f	0.3084955
55	0x3f32781f	0.6971454
56	0x3ebe23f0	0.37136793
57	0x3f2e9f41	0.6821175
58	0x3f119f02	0.5688325
59	0x3df572ca	0.11984785
60	0xbf07fcd7	-0.5312018
61	0x3f0ca436	0.54938066
62	0x3f1949a0	0.5987797
63	0xbec29409	-0.38003567
64	0xbf32efcf	-0.6989717
65	0xbf00adfd	-0.50265485
66	0xbe9ccae3	-0.3062354
67	0xbf25ffcd	-0.64843446
68	0x3f2c7a7a	0.67374384
69	0x3e25f452	0.16206482
70	0xbe8ba644	-0.27275288
71	0xbe4e8c25	-0.20170648
72	0xbf27794e	-0.6541947
73	0x3e96ea04	0.29475415
74	0xbdadf076	-0.0849313
75	0xbeb0900c	-0.344849
76	0xbed0fe80	-0.40819168
77	0x3d0a8de9	0.033826742
78	0x3e60bb58	0.21946466
79	0xbe68eca4	-0.22746521
80	0x3e9e5481	0.30923846
81	0x3d6f3f87	0.058410194
82	0x3f22fa4e	0.63663185
83	0x3e5e5986	0.21713838
84	0x3ecf8deb	0.40537962
85	0x3ea4a944	0.3216039
86	0x3e75129b	0.23932879
87	0x3f0c0a19	0.5470291
88	0x3f0258dd	0.50916845
89	0xbde4ef7e	-0.11178492
90	0x3ef743e7	0.48293993
91	0xbf27f3e3	-0.65606517
92	0xbec0a4c4	-0.37625706
93	0xbf1399c8	-0.57656527
94	0xbea6979d	-0.32537547
95	0x3ed25fcb	0.4108871
96	0x3e7b87c1	0.24563505
97	0x3f211e14	0.6293652
98	0x3d9afbcc	0.07567558
99	0xbee9e6d8	-0.45683932
100	0xbe61e619	-0.22060432
101	0xbe06c17b	-0.13159744
102	0xbed872bb	-0.42275032
103	0x3f0325b4	0.51229405
104	0x3b722892	0.0036950451
105	0xbdada2d5	-0.08478323
106	0x3d983cf9	0.074335046
107	0xbe37fa87	-0.17966662
108	0x3f0cbaab	0.5497233
109	0x3e636726	0.22207317
110	0x3d3fba02	0.04680825
111	0xbed9157d	-0.42399207
112	0xbea1599c	-0.3151368
113	0xbf24f1cc	-0.6443145
114	0x3c4adbb8	0.012381487
115	0xbe831e34	-0.2560898
116	0xbe6bde28	-0.23033965
117	0x3d572d7e	0.05253362
118	0x3f02ea6b	0.51138943
119	0xbe963058	-0.29333758
120	0x3ed0cacb	0.4077972
121	0xbe0cf737	-0.1376618
122	0xbf29de15	-0.66354495
123	0xbf1961d9	-0.5991493
124	0xbe4708bb	-0.19436924
125	0x3f0937fd	0.53601056
126	0xbf32aec8	-0.69797945
127	0xbef7dc29	-0.48410156

dynamic_encoder.conv.weight f4 [128, 2, 1]
0	0xbe112910	-0.1417582
1	0x3e10b180	0.14130211
2	0x3d559326	0.052142285
3	0x3e0ac10b	0.13550203
4	0xbbfa4590	-0.007637687
5	0x3cc2c7e1	0.02377695
6	0xbe4f37cd	-0.2023613
7	0x3e4ad439	0.19807519
8	0x3e4fb033	0.20282058
9	0x3cec8402	0.02887154
10	0x3d010350	0.0314973
11	0x3cfc9ddc	0.030836992
12	0x3e03e693	0.12880926
13	0xbe42f3ca	-0.1903831
14	0xbe3cb6fd	-0.1842918
15	0x3e129d9a	0.14317933
16	0x3aacb378	0.0013176044
17	0x3e0a19f4	0.13486463
18	0xbcba112f	-0.022713272
19	0xbd93f863	-0.072251104
20	0xbe52fded	-0.20604677
21	0xbdc12ba5	-0.09432153
22	0xbe15582e	-0.14584419
23	0x3de6828b	0.11255368
24	0x3e049aa4	0.12949616
25	0x3dace7be	0.08442639
26	0xbd97e03b	-0.074158154
27	0x3d411f6e	0.047149114
28	0xbe48370a	-0.19552246
29	0xbe416665	-0.18886717
30	0xbdf6d954	-0.12053171
31	0xbe057590	-0.13033128
32	0x3e251855	0.16122563
33	0x3dd78626	0.10523634
34	0xbde11ff8	-0.10992426
35	0x3e42972c	0.1900298
36	0x3e1682d4	0.14698344
37	0x3db8ab8b	0.09017094
38	0x3e4c88a7	0.19974004
39	0xbd3cdb90	-0.04610783
40	0x3df68f8b	0.120390974
41	0x3e4946fe	0.19655988
42	0xbe33975d	-0.1753821
43	0xbe19422b	-0.14966647
44	0xbe540192	-0.20703724
45	0x3bd4b944	0.006491812
46	0x3e2207bc	0.15823263
47	0x3deeedcc	0.1166645
48	0x3d89110b	0.06692704
49	0xbdf791e8	-0.12088376
50	0x3d8fcc35	0.07021371
51	0x3e0d20da	0.13782063
52	0xbe36125e	-0.17780444
53	0x3c403eea	0.01173375
54	0x3d7d8266	0.061891936
55	0x3e41ad0b	0.18913667
56	0xbd6f6df3	-0.058454465
57	0x3e297778	0.1654948
58	0xbde292fd	-0.11063192
59	0xbe0eb1b2	-0.13934973
60	0xbe016809	-0.12637343
61	0x3e3459d9	0.17612399
62	0x3e3370a6	0.1752344
63	0xbd8d29c0	-0.06892729
64	0xbe3de2bc	-0.18543524
65	0xbdd18e07	-0.10232168
66	0xbdf500c9	-0.119630404
67	0xbd80809a	-0.06274529
68	0xbd3b755d	-0.045766223
69	0xbd998e66	-0.074978635
70	0x3e344ef3	0.17608242
71	0x3d825222	0.06363322
72	0xbe42cb8f	-0.19022964
73	0x3cdf3e61	0.027251424
74	0xbd932ee1	-0.07186676
75	0x3e52cc71	0.205858
76	0x3e40368c	0.18770808
77	0xbe26b695	-0.16280587
78	0x3bcf4377	0.006325181
79	0xbe096426	-0.1341711
80	0xbcd9fd08	-0.026609913
81	0xbdc27877	-0.09495633
82	0x3b9bd50f	0.004755623
83	0xbe14ceb4	-0.14531976
84	0xbd95cd58	-0.07314557
85	0xbe1b3f4a	-0.15160862
86	0x3def21c1	0.1167636
87	0x3c422b6c	0.011851173
88	0x3d2e9ed4	0.04263194
89	0x3e167d96	0.14696345
90	0x3e403797	0.18771206
91	0xbe2b8b2e	-0.16752312
92	0xbc47156e	-0.012151105
93	0x3e3a8ee2	0.18218568
94	0xbe0d36fd	-0.13790508
95	0x3dd5521f	0.10416054
96	0xbd229730	-0.039694965
97	0xbd774341	-0.060366873
98	0xbdb81da9	-0.08990032
99	0xbe1de0a0	-0.15417719
100	0xbd7467f2	-0.059669442
101	0x3e2a01d5	0.16602261
102	0x3c83b2d5	0.016076485
103	0xbdba817b	-0.09106728
104	0x3df791b5	0.12088338
105	0x3d6ab1ad	0.05729835
106	0x3d082641	0.033239607
107	0x3e468fb5	0.19390757
108	0x3e5496d2	0.20760658
109	0x3df5689a	0.11982842
110	0xbb9b2447	-0.004734549
111	0xbe22901c	-0.15875286
112	0x3dbc5f51	0.09197868
113	0xbdd0f4f3	-0.1020297
114	0x3e517844	0.20456034
115	0x3df53382	0.11972715
116	0xbe4a8ba3	-0.1977983
117	0x3d4a36bd	0.04936861
118	0xbe1c4a0d	-0.15262623
119	0xbe2cd64c	-0.16878623
120	0x3d10af33	0.035323333
121	0x3dff1c93	0.12456622
122	0xbe04bbbd	-0.12962241
123	0x3e2dc783	0.16970639
124	0xbca09520	-0.019602358
125	0x3d41ea6f	0.047342714
126	0xbd1a7528	-0.037709385
127	0xbd878f0e	-0.066190824
128	0x3cc5cf24	0.024146624
129	0xbdb6bdd5	-0.08922926
130	0x3e3495e9	0.17635311
131	0xbe440129	-0.19141068
132	0xbc9534ea	-0.018213708
133	0x3e083bfc	0.13304132
134	0xbe569a72	-0.20957354
135	0xbdd67b83	-0.10472777
136	0xbe5982d7	-0.21241318
137	0x3e38db21	0.18052341
138	0xbe4e34d1	-0.20137335
139	0x3d62375d	0.05522858
140	0x3cdff2d9	0.027337478
141	0x3ddbc44d	0.10730801
142	0x3e5306a7	0.20608006
143	0xbe585d2b	-0.21129291
144	0xbe3a052e	-0.18166038
145	0x3e2ef97e	0.17087361
146	0x3b87aa27	0.004140157
147	0xbbe25ce8	-0.006908048
148	0xbe18e118	-0.14929616
149	0x3e187a6b	0.14890449
150	0xbe3416d3	-0.17586832
151	0xbe14b632	-0.14522627
152	0x3c6549fc	0.01399469
153	0x3dff7ecb	0.12475356
154	0xbcfcbbd9	-0.030851291
155	0xbdd801dd	-0.105472304
156	0x3e52ae2b	0.20574252
157	0xbccaea3a	-0.024769891
158	0x3d888688	0.06666285
159	0xbe16a5b4	-0.14711648
160	0xbb9e1b2f	-0.004825018
161	0x3d4730e3	0.048630606
162	0xbd89f973	-0.06737032
163	0xbcc4517b	-0.023964634
164	0x3e1515fe	0.1455917
165	0x3de0285e	0.109451994
166	0xbe2fb0a1	-0.17157222
167	0x3df5b75c	0.11997864
168	0xbddde5fa	-0.1083488
169	0xbd4b04f9	-0.04956529
170	0xbd05e687	-0.03269055
171	0xbc6c14be	-0.014409242
172	0x3da7323c	0.08163878
173	0x3e4ef507	0.20210658
174	0xbe5327da	-0.20620671
175	0x3dd8925c	0.10574791
176	0x3dd1c9dc	0.1024358
177	0x3d1d8dcd	0.03846531
178	0xbccd1fa0	-0.025039494
179	0xbdfab2cf	-0.12241136
180	0x3d2b4352	0.04181225
181	0x3c28167f	0.01025927
182	0x3e35f41d	0.17768903
183	0xbe132afe	-0.14371869
184	0x3e1e4358	0.15455377
185	0xbe06f4ba	-0.13179293
186	0xbe5ac7c7	-0.21365272
187	0xbe1c5068	-0.15265048
188	0x3d5896d0	0.0528782
189	0xbcea5b58	-0.02860801
190	0xbdcba620	-0.09943795
191	0x3e11b9f0	0.14231086
192	0xbe31ad42	-0.17351249
193	0xbd12b8b8	-0.035820693
194	0xbe40b488	-0.18818867
195	0x3ddb6c9b	0.10714074
196	0xbd02dafd	-0.031947125
197	0xbd78df03	-0.060759556
198	0xbe3b5f03	-0.18297963
199	0xbe02c040	-0.1276865
200	0xbdab6be7	-0.0837019
201	0xbe368f2f	-0.17828058
202	0x3e486dea	0.19573179
203	0xbe228521	-0.15871097
204	0x3e5226f5	0.20522673
205	0x3c9aa9be	0.018879768
206	0xbc15a090	-0.009132519
207	0x3e1a42cc	0.15064543
208	0xbb46df64	-0.0030345554
209	0xbe45426d	-0.1926362
210	0x3a89be85	0.001050905
211	0x3b6f798d	0.0036540956
212	0x3dc6f878	0.097153604
213	0xbacd1d37	-0.0015648965
214	0x3e33650d	0.17519017
215	0xbdb993dd	-0.09061406
216	0x3e233898	0.15939558
217	0x3cabfaa3	0.020993536
218	0xbd60f562	-0.054921515
219	0xbe26303f	-0.16229342
220	0xbe347708	-0.17623532
221	0x3a6f0f4a	0.0009119405
222	0x3e4f0de9	0.2022015
223	0xbd9fd4b6	-0.07804243
224	0x3debb0f9	0.11508364
225	0xbdaf5c74	-0.08562556
226	0x3d4eecac	0.050518677
227	0xbccf1c38	-0.02528201
228	0xbdec1364	-0.11527136
229	0x3e48f1b6	0.19623455
230	0xbda20a4d	-0.07912121
231	0x3e37cbe9	0.1794888
232	0xbdb0b351	-0.08627952
233	0x3cbdd369	0.023172097
234	0x3d1ff642	0.03905321
235	0x3dd4319a	0.10361023
236	0x3d5fb02d	0.054611374
237	0xbde3a58d	-0.11115561
238	0xbd78735d	-0.060656894
239	0xbd7261bb	-0.059175234
240	0x3e0ee059	0.1395277
241	0x3e0ffbf6	0.14060959
242	0xbe0f458b	-0.13991372
243	0x3dad9e01	0.084774025
244	0x3e35556a	0.17708364
245	0xbe3feff3	-0.18743877
246	0x3db1481c	0.08656332
247	0x3cabd791	0.020976814
248	0xbd5e7bb6	-0.0543172
249	0x3e2b8192	0.16748646
250	0xbd6fbf95	-0.058532316
251	0x3e36972b	0.17831104
252	0x3dd97263	0.10617521
253	0xbaa56ee4	-0.0012621549
254	0xbdf44ed5	-0.119290985
255	0x3dea50f2	0.1144122

dynamic_encoder.conv.bias f4 [128]
0	0x3e58965d	0.21151109
1	0xbef3db73	-0.47628364
2	0xbedd3340	-0.43203163
3	0x3e9d40b9	0.30713442
4	0x3f2c63fb	0.6734006
5	0x3efe7949	0.49701908
6	0x3ea3e7cc	0.32012784
7	0x3cf59ea9	0.029982882
8	0x3f23c821	0.6397725
9	0x3ddaea81	0.10689259
10	0x3c19165a	0.009343708
11	0xbf17e3f4	-0.59332204
12	0x3eb2a49b	0.3489121
13	0xbe3c450c	-0.18385714
14	0xbd7d9db9	-0.061917994
15	0x3dab4e2d	0.0836452
16	0xbebbc1b3	-0.36671218
17	0x3f11c760	0.5694485
18	0xbef9209d	-0.48657694
19	0xbf2a27ff	-0.6646728
20	0x3e72293e	0.23648545
21	0xbee939c3	-0.4555188
22	0x3f24a8dd	0.64320165
23	0xbe277b23	-0.16355567
24	0x3e84a6cf	0.25908515
25	0xbe4db0c6	-0.20086965
26	0x3e723226	0.23651943
27	0xbd863871	-0.06553734
28	0xbeb00f51	-0.34386685
29	0x3de48430	0.11158025
30	0x3e7c965e	0.24666736
31	0x3e9289a5	0.2862064
32	0xbf025eb7	-0.50925773
33	0x3dddafbb	0.108245336
34	0x3f094ff2	0.5363761
35	0x3f1310b1	0.57447344
36	0xbea5259d	-0.3225526
37	0x3f1c48ab	0.6104838
38	0xbd2a4940	-0.041573763
39	0x3f00dd44	0.50337625
40	0x3f13bdbb	0.5771138
41	0x3e5b5ebf	0.21422862
42	0xbeff8508	-0.49906182
43	0xbf1655c0	-0.58724594
44	0x3e59fb3d	0.21287246
45	0xbd519e60	-0.05117643
46	0xbe29fb79	-0.16599835
47	0xbe4cbc29	-0.19993652
48	0x3ee49fad	0.44653073
49	0x3f1b50a1	0.60669905
50	0xbd3c814e	-0.046021752
51	0xbecb4920	-0.39704227
52	0x3f334d56	0.7003988
53	0xbee8b813	-0.45452937
54	0xbef985fa	-0.48735029
55	0xbef9b322	-0.4876948
56	0xbece0d1d	-0.4024438
57	0x3ed3a81b	0.41339192
58	0x3dbdffb1	0.09277285
59	0x3e24ae8b	0.16082208
60	0xbf2fe11b	-0.6870286
61	0x3e511b8b	0.20420663
62	0x3db3776c	0.08763012
63	0x3f1e8b3e	0.61931217
64	0x3f1f5100	0.6223297
65	0xbeb8a927	-0.36066553
66	0x3d0090b7	0.03138801
67	0x3e98136d	0.2970232
68	0x3f1d053e	0.61336124
69	0x3d70c511	0.058781687
70	0x3c062060	0.00818643
71	0xbed2527a	-0.4107855
72	0xbd4774f2	-0.048695512
73	0xbf1036ab	-0.56333417
74	0xbf2ba13f	-0.67042917
75	0xbf1f5839	-0.6224399
76	0xbc5b931f	-0.013401776
77	0x3e8c597f	0.2741203
78	0x3e9b00f8	0.30274177
79	0xbdd99b73	-0.10625353
80	0x3f1c8ca1	0.6115208
81	0x3ce52ff5	0.02797697
82	0xbee301d9	-0.44337347
83	0x3db7e2e5	0.089788236
84	0xbf13e2ea	-0.5776812
85	0x3d90dd5f	0.07073473
86	0xbf13c98e	-0.57729423
87	0x3eee24f1	0.4651256
88	0x3f10c631	0.56552416
89	0x3e32f974	0.17477971
90	0xbdf37a99	-0.11888618
91	0x3ef97974	0.48725474
92	0xbe370c18	-0.17875707
93	0xbebb8097	-0.36621544
94	0xbe9e0c47	-0.30868742
95	0x3e875ec2	0.26439482
96	0x3f19563d	0.59897214
97	0xbed26ec8	-0.41100144
98	0xbe698169	-0.22803272
99	0xbefba26f	-0.49147364
100	0x3f27b04c	0.6550338
101	0xba278ebc	-0.00063918135
102	0xbf14999d	-0.58046895
103	0x3d25fa60	0.04052198
104	0xbf316653	-0.6929676
105	0x3d28c080	0.041199207
106	0x3ec4e866	0.38458556
107	0xbf274bcc	-0.6535003
108	0xbf149a8d	-0.58048326
109	0x3c4c00a7	0.012451327
110	0xbdca98aa	-0.098923996
111	0xbec790a2	-0.38977534
112	0x3f2824a0	0.65680885
113	0xbeb89304	-0.36049664
114	0x3f12602a	0.57177985
115	0xbecd715a	-0.40125543
116	0x3cc660e3	0.024216121
117	0x3da1b2f5	0.078954615
118	0x3f230084	0.6367266
119	0x3dce2c82	0.10067083
120	0x3f049549	0.5179029
121	0x3eb82042	0.3596211
122	0xbe7701a0	-0.24121714
123	0x3e61342a	0.21992555
124	0x3e6023b1	0.21888615
125	0x3eacaccc	0.33725584
126	0x3ed582bb	0.41701302
127	0x3ea47db9	0.3212717

decoder.conv.weight f4 [128, 2, 1]
0	0x3bee5523	0.0072733327
1	0xbe275cc9	-0.16343988
2	0xbe59e459	-0.21278514
3	0xbe1f5d5b	-0.15562956
4	0xbdfb6270	-0.12274635
5	0xbcdabc93	-0.026701247
6	0x3e0b2d75	0.13591559
7	0x3e3dfe58	0.18554056
8	0xbd154038	-0.036438197
9	0x3dde9450	0.10868132
10	0x3d49892b	0.04920308
11	0xbe3a72cc	-0.18207854
12	0x3dac3f75	0.08410541
13	0x3e52f35e	0.2060065
14	0xbe39d23f	-0.18146609
15	0xbd842c4a	-0.0645376
16	0x3db6ca37	0.08925288
17	0x3d8f295c	0.069903105
18	0xbdf3fb77	-0.119131975
19	0xbd8755ac	-0.066081375
20	0xbdc78271	-0.097416766
21	0xbde2e2ee	-0.1107844
22	0x3e300e17	0.17192875
23	0xbe3bce86	-0.18340501
24	0xbcba6c13	-0.022756612
25	0x3dfe2a3c	0.12410399
26	0x3e1569a6	0.14591083
27	0x3d84aa13	0.064777516
28	0xbe068ccd	-0.13139649
29	0x3bcf472f	0.0063256244
30	0xbe415bca	-0.18882671
31	0xbdf8eabb	-0.12154146
32	0x3cff7f67	0.03118868
33	0xbe3201e5	-0.17383535
34	0x3e25ef25	0.16204508
35	0x3e4457bf	0.19174097
36	0x3d7ef184	0.062242046
37	0x3dd0296a	0.10164149
38	0xbde61e7d	-0.11236284
39	0xbd2c3019	-0.042038057
40	0x3e40e658	0.18837869
41	0x3c85dd33	0.016340828
42	0x3d6c8752	0.05774624
43	0xbda664a2	-0.08124663
44	0x3d9de327	0.077093415
45	0xbc43ee5a	-0.011958683
46	0x3e578d63	0.21050029
47	0xbdb8acc7	-0.0901733
48	0x3d85e359	0.06537504
49	0x3e5957e7	0.21224938
50	0xbde54208	-0.11194235
51	0xbc327d63	-0.010894152
52	0x3e2026c2	0.15639785
53	0xbc9be04a	-0.019027848
54	0xbd76969c	-0.060202226
55	0x3aa2128c	0.0012365147
56	0xbda080d8	-0.07837075
57	0x3dd5d906	0.104417846
58	0x3e2ed39b	0.17072909
59	0x3e045ac9	0.12925257
60	0xbccef980	-0.025265455
61	0xbe582d7a	-0.21111098
62	0xbd35c4a9	-0.044377003
63	0x3dde75e1	0.10862327
64	0xbdfbc8fb	-0.12294193
65	0xbe1b59d6	-0.15170988
66	0x3d945bf2	0.072441
67	0xbe066352	-0.13123825
68	0x3d9e258d	0.07722006
69	0xbe18d990	-0.14926744
70	0x3da37000	0.07980347
71	0x3d5ca575	0.05386873
72	0x3e2ef6c1	0.17086317
73	0xbd1714ec	-0.036885187
74	0xbdef7e63	-0.11694028
75	0x3e3e3daa	0.1857821
76	0x3e32b9d0	0.17453694
77	0x3e313052	0.17303589
78	0x3d444c81	0.047924522
79	0xbdbc9b1b	-0.092092715
80	0x3e03b9d7	0.12863861
81	0xbe443136	-0.19159397
82	0x3d046059	0.032318447
83	0x3b790496	0.0037997118
84	0x3e4f8971	0.20267273
85	0x3e264c0b	0.16239946
86	0xbdc12cfe	-0.0943241
87	0xbda54c7c	-0.08071229
88	0x3c1de1bb	0.009636338
89	0x3e16fac6	0.147441
90	0xbe0015b6	-0.12508282
91	0x3dcf8440	0.101326466
92	0xbe17dbc0	-0.14829922
93	0xbe2ae0da	-0.16687337
94	0xbe4792e7	-0.19489633
95	0xbe243895	-0.1603721
96	0xbe2fdde8	-0.17174494
97	0xbe0a61c4	-0.13513857
98	0x3b15bea1	0.002284922
99	0xbca7496a	-0.020420749
100	0x3e5572ef	0.20844625
101	0xbe1f3b84	-0.15550047
102	0xbd454800	-0.048164368
103	0x3e1f1d4a	0.15538517
104	0x3e3046c6	0.17214498
105	0x3e3a0c00	0.1816864
106	0xbe03bfae	-0.12866089
107	0x3d237307	0.03990462
108	0xbe4071c1	-0.18793394
109	0x3e41640c	0.18885821
110	0x3e33e8ba	0.17569247
111	0x3d93348a	0.071877554
112	0xbe10ddcf	-0.14147113
113	0xbd73467e	-0.0593934
114	0xbe35080b	-0.1767885
115	0xbe311dcb	-0.17296521
116	0x3e45b93a	0.1930894
117	0xbdd9ab54	-0.10628381
118	0xbd22c679	-0.03974006
119	0x3e4ee07d	0.20202823
120	0x3e341fdf	0.17590283
121	0x3e463a4a	0.19358173
122	0x3e418c80	0.18901253
123	0xbdd93ce5	-0.10607318
124	0xbdff2dbd	-0.12459896
125	0x3d3005b3	0.042974185
126	0x3e49a5b0	0.19692111
127	0x3cd310aa	0.025764782
128	0x3d42218a	0.047395267
129	0x3e3ea7cc	0.18618697
130	0x3d7dc71b	0.06195746
131	0xbd6a7dfa	-0.057249047
132	0xb96ae0a6	-0.00022399667
133	0xbde4a60c	-0.111644834
134	0xbdd3f176	-0.103487894
135	0x3d653370	0.055957258
136	0x3aafc1dc	0.0013409215
137	0xbd1a40fa	-0.037659623
138	0xbce216e4	-0.027598806
139	0x3e0894ed	0.1333806
140	0x3e334d13	0.1750987
141	0xbe17778f	-0.14791702
142	0xbe085a3f	-0.13315676
143	0xbe4bb93f	-0.19894885
144	0xbda5341c	-0.0806658
145	0xbe502c70	-0.20329452
146	0xbc99892b	-0.018742165
147	0x3df4aca3	0.1194699
148	0x3e5305f4	0.2060774
149	0x3d757c06	0.05993273
150	0x3e364377	0.17799173
151	0x3bd1f4f0	0.0064073727
152	0x3cb6a823	0.02229697
153	0x3b4771d6	0.0030432842
154	0xbe2a1065	-0.16607817
155	0x3e53bf76	0.20678505
156	0xbb2f8691	-0.0026783089
157	0xbe16bb56	-0.147199
158	0x3dcd7a84	0.100331336
159	0x3e136f0d	0.14397831
160	0xbe1e52d3	-0.15461282
161	0xbda21bad	-0.07915435
162	0xbd3b416a	-0.04571668
163	0xbe38aa6a	-0.18033758
164	0x3e3c9202	0.18415073
165	0xbdeb0e09	-0.11477286
166	0x3df7694e	0.12080632
167	0x3da42cb1	0.08016337
168	0xbe3942e1	-0.18091919
169	0xbe3c1a4f	-0.18369411
170	0xbe11f3ab	-0.14253108
171	0x3d6d49a2	0.05793155
172	0xbe1685a8	-0.14699423
173	0xbd1c1748	-0.03810814
174	0x3d87fe4d	0.06640301
175	0xbe3df3cd	-0.18550034
176	0x3d90ee03	0.07076647
177	0x3e4339e8	0.19065058
178	0xbcc52c35	-0.024068931
179	0xbe27b3d3	-0.16377191
180	0xbdab065d	-0.08350823
181	0xbc6b27bf	-0.014352738
182	0x3e470f03	0.1943932
183	0xbe46ca96	-0.19413218
184	0x3e011b9b	0.12608187
185	0xbe27e432	-0.16395643
186	0xbe085ea1	-0.13317348
187	0x3dcc452d	0.09974132
188	0x3e3497e1	0.17636062
189	0x3ddbe75c	0.10737488
190	0x3df8b02e	0.121429786
191	0xbda7bbdd	-0.08190129
192	0x3e09fbb1	0.13474919
193	0xbd7f875a	-0.06238494
194	0xbd6e514f	-0.05818301
195	0x3d05890d	0.032601405
196	0xbe1bf541	-0.15230276
197	0x3e2180c5	0.15771778
198	0xbbc2c3ac	-0.005943736
199	0xbd31880d	-0.04334264
200	0xbcc80e3f	-0.024420856
201	0x3e19a904	0.1500588
202	0x3cf192a2	0.029488865
203	0xbdc4e18b	-0.096133314
204	0x3df6d387	0.120520644
205	0xbdb536d3	-0.088483475
206	0xbde9710a	-0.113985136
207	0xbe52e32f	-0.20594476
208	0xbc1b7965	-0.009489392
209	0xbe29e257	-0.16590248
210	0x3e08517a	0.13312331
211	0xbe197c52	-0.1498883
212	0x3df01765	0.11723212
213	0xbd80f201	-0.062961586
214	0xbd9e0b01	-0.077169426
215	0xbd655159	-0.055985782
216	0x3d3c2f9e	0.04594385
217	0x3e52682f	0.20547555
218	0x3e106b9e	0.14103553
219	0xbe3a5ae1	-0.1819873
220	0xbe0ab10d	-0.13544102
221	0x3de55155	0.111971535
222	0xbbbe5b31	-0.0058092107
223	0xbd80559b	-0.06266328
224	0xbddae282	-0.10687734
225	0xbdf6e922	-0.12056185
226	0xbd9b0c72	-0.07570733
227	0xbc33104b	-0.0109291775
228	0x3dd2318d	0.10263357
229	0x3de8e37a	0.11371513
230	0x3e086759	0.13320674
231	0x3d5e840d	0.054325152
232	0x3e2583a8	0.16163504
233	0xbd9836b1	-0.074323066
234	0xbe5a2722	-0.2130399
235	0xbc4ba070	-0.012428388
236	0x3e1f109b	0.15533678
237	0x3e470f7a	0.19439498
238	0x3de35369	0.110998936
239	0x3c0859b5	0.008322169
240	0xbe49951f	-0.19685791
241	0xbd91a68c	-0.071118444
242	0x3e5a6cd4	0.21330577
243	0x3dabe42b	0.08393129
244	0xbe4dc32f	-0.20093988
245	0x3d7542f1	0.059878293
246	0xbdaa2f78	-0.08309835
247	0xbe4c4d20	-0.19951296
248	0xbd9448ef	-0.072404735
249	0x3db516fa	0.08842273
250	0xbe528146	-0.20557126
251	0x3df06882	0.11738683
252	0x3dfe0aed	0.12404428
253	0x3dd828b6	0.1055464
254	0x3dc8efb3	0.09811344
255	0xbd1b33dc	-0.037891254

decoder.conv.bias f4 [128]
0	0xbeb6a791	-0.35674718
1	0xbe8f3b3f	-0.2797489
2	0x3e88875d	0.26665774
3	0xbea07888	-0.31341958
4	0x3e9a903d	0.3018817
5	0x3c80fa1c	0.015744261
6	0xbf198018	-0.5996108
7	0x3e732bd8	0.23747194
8	0xbdee8b3e	-0.11647652
9	0xbefb5b93	-0.49093303
10	0x3e68c061	0.22729637
11	0x3e5ed6a6	0.2176157
12	0xbf2a849c	-0.66608596
13	0xbec61016	-0.38684148
14	0x3f214a5d	0.63004094
15	0x3f1cb50d	0.6121376
16	0x3f134289	0.575234
17	0x3dbc239b	0.09186479
18	0xbe843a64	-0.258258
19	0x3e66aa0f	0.2252581
20	0xbcda9141	-0.02668059
21	0x3f00c3ec	0.50298953
22	0x3e4979c6	0.19675359
23	0x3ea6a1b7	0.32545254
24	0xbd632854	-0.05545838
25	0x3ea1a77d	0.31573096
26	0xbe983d20	-0.29734135
27	0x3f1cc448	0.61237
28	0xbeafd6b3	-0.3434349
29	0xbe848b35	-0.25887457
30	0x3f050f8b	0.5197684
31	0x3d1b3b62	0.03789843
32	0x3f1260c4	0.571789
33	0x3ead8a00	0.33894348
34	0x3f264fd4	0.6496556
35	0x3e19ac0b	0.15007035
36	0xbed09155	-0.4073588
37	0xbedaba96	-0.4272048
38	0xbd6f6d43	-0.05845381
39	0x3d8475fc	0.06467816
40	0xbf2ecf2d	-0.68284875
41	0x3f0a8360	0.5410671
42	0x3f0358ce	0.5130738
43	0xbc9da75b	-0.01924484
44	0xbdb2343f	-0.087013714
45	0xbf1ab512	-0.6043254
46	0xbe87cf8b	-0.2652553
47	0xbee782a4	-0.45216858
48	0xbf0d6632	-0.5523406
49	0x3e174ad2	0.14774635
50	0xbea51d15	-0.3224875
51	0x3f1753dd	0.5911234
52	0x3ec691e5	0.38783184
53	0xbee3be4d	-0.44481125
54	0x3f26998b	0.6507804
55	0x3f15938b	0.5842826
56	0xbf176f71	-0.5915442
57	0x3c39da1c	0.011343505
58	0xbe81b361	-0.25332168
59	0x3ca162bf	0.019700406
60	0x3f0756d6	0.52866876
61	0xbec9b1f0	-0.39393568
62	0x3e9b71de	0.3036031
63	0xbf11e85a	-0.56995165
64	0xbead92c8	-0.33901048
65	0xbce1f159	-0.027580904
66	0x3f25bc95	0.6474088
67	0x3f1a8dd4	0.6037266
68	0xbe050759	-0.12991084
69	0xbc29d16d	-0.010364872
70	0x3e14105a	0.14459363
71	0x3f26485d	0.6495417
72	0xbee0879c	-0.43853462
73	0x3f12d4a0	0.5735569
74	0x3f1f2711	0.62168986
75	0x3e34014e	0.17578623
76	0x3f209a70	0.6273565
77	0x3ce126dd	0.027484352
78	0xbf0883e1	-0.5332623
79	0xbf1b3a8b	-0.60636204
80	0xbd315e04	-0.04330255
81	0xbeea4b5e	-0.45760626
82	0x3ed73a7c	0.42036808
83	0xbd1946ff	-0.037421223
84	0x3f1f6b73	0.6227333
85	0xbe895e01	-0.26829532
86	0x3f2be6dc	0.6714914
87	0xbed2da1c	-0.4118203
88	0xbe902d34	-0.28159487
89	0xbebfc499	-0.3745468
90	0x3ebbeeb2	0.36705548
91	0xbeb9ec9c	-0.3631333
92	0xbed9db51	-0.42550138
93	0xbd318dab	-0.043347996
94	0x3e54c453	0.20778017
95	0x3e85d81a	0.26141435
96	0x3ef7a546	0.4836828
97	0xbf27f8a3	-0.65613765
98	0xbf2f3ad8	-0.68449163
99	0x3f0c7dc0	0.5487938
100	0x3da8758f	0.082255475
101	0xbeeafe65	-0.45897213
102	0x3f083058	0.53198767
103	0x3ed3b903	0.4135209
104	0xbe272da7	-0.16326009
105	0xbebc850b	-0.36820254
106	0x3d759b18	0.059962362
107	0xbec89485	-0.3917581
108	0xbea7f8de	-0.32807058
109	0x3f297ef5	0.66209346
110	0xbe9fa3ef	-0.3117976
111	0xbef6e1cd	-0.48219147
112	0xbf269866	-0.6507629
113	0x3edb7cce	0.42868656
114	0x3d844e17	0.06460207
115	0x3e633be1	0.2219081
116	0xbec2ab54	-0.38021338
117	0xbf21d2c7	-0.63212246
118	0x3f10ec42	0.566105
119	0xbe850cc9	-0.25986317
120	0x3e4d0f3e	0.20025346
121	0x3f208e54	0.62717175
122	0xbdafa822	-0.08576991
123	0x3e050fc4	0.12994295
124	0xbe2d36e4	-0.1691547
125	0xbeedb22b	-0.46424994
126	0x3f1d503d	0.6145056
127	0x3e17765d	0.14791246

pointer.v f4 [1, 1, 128]
0	0xbd8042ba	-0.06262727
1	0x3db0c8a8	0.08632022
2	0xbd96cee5	-0.07363681
3	0xbd897002	-0.06710817
4	0xbdcbd4cb	-0.099526964
5	0xbd895474	-0.06705561
6	0x3daff1a1	0.08591009
7	0x3c6056f4	0.013692606
8	0xbda03c9d	-0.07824061
9	0xbdb433f8	-0.08798975
10	0x3e02b8b4	0.12765771
11	0x3e15900d	0.14605732
12	0x3dce8503	0.10083964
13	0x3cb39a03	0.021924024
14	0xbd804097	-0.062623195
15	0x3e10752d	0.14107199
16	0xbe184ec7	-0.14873801
17	0x3d58432c	0.052798435
18	0x3e058445	0.13038738
19	0x3d0c9591	0.034322325
20	0x3dd1ac04	0.102378875
21	0x3da43168	0.08017236
22	0xbdf3e6f2	-0.11909284
23	0x3da6f6a6	0.08152513
24	0xbd9a225a	-0.07526083
25	0xbe011f19	-0.12609519
26	0xbdfd66dd	-0.12373135
27	0xbdc2b2f9	-0.095067926
28	0x3bfb5c28	0.007670898
29	0xbd84b672	-0.06480111
30	0x3e166b38	0.14689338
31	0x3c7760a5	0.015098725
32	0x3e16dcf7	0.14732729
33	0xbe124d10	-0.1428721
34	0xbccc7c65	-0.02496166
35	0xbdd45f80	-0.10369778
36	0x3dc7d3e9	0.097572155
37	0xbd3fbe0e	-0.04681211
38	0x3d871119	0.06595058
39	0xba720b0f	-0.0009233215
40	0x3dea0ab7	0.11427825
41	0x3d1dc712	0.038519926
42	0xbd2d4255	-0.042299587
43	0x3e0b17a4	0.13583237
44	0x3d281059	0.041031215
45	0xbe0ffd6b	-0.14061515
46	0x3e11fd5a	0.14256802
47	0xbd2657da	-0.040611126
48	0xbdb7c195	-0.0897247
49	0x3d0da786	0.03458359
50	0x3d3a055e	0.045415275
51	0xbdd4043a	-0.10352369
52	0x3e0eaf18	0.1393398
53	0x3d0b28d0	0.03397447
54	0x3dbfda12	0.093677655
55	0xbd90c12c	-0.070680946
56	0x3dc2d3d1	0.09513057
57	0x3cac3721	0.021022381
58	0xbd59ebaf	-0.05320328
59	0x3cdc4d12	0.026892219
60	0x3b8a1d65	0.00421493
61	0x3dd515e0	0.10404563
62	0x3d698f5d	0.057021488
63	0xbe0491c8	-0.12946236
64	0x3ca2d307	0.019876016
65	0xbdc499f3	-0.09599676
66	0x3e170004	0.147461
67	0xbd2835e8	-0.041067034
68	0x3c3fb82e	0.011701627
69	0xbe1517e3	-0.14559893
70	0xbe135582	-0.14388087
71	0xbe110167	-0.14160691
72	0xbcab1a27	-0.020886494
73	0x3dfabd44	0.12243131
74	0x3ddd75d4	0.108134896
75	0xbd931822	-0.07182337
76	0x3e107ab2	0.14109305
77	0xbc167d83	-0.009185198
78	0xbdab6446	-0.08368735
79	0x3e123d1b	0.14281122
80	0x3e00c132	0.12573698
81	0x3e0498f6	0.12948975
82	0xbb943771	-0.0045232107
83	0xbd52bd5c	-0.05145012
84	0x3cccc4c8	0.024996176
85	0x3d5b4b51	0.053538624
86	0x3d265628	0.04060951
87	0xbdb40383	-0.08789732
88	0x3d9e666d	0.0773438
89	0x3e073d2a	0.13206926
90	0x3dc00692	0.09376253
91	0xbd91d8f1	-0.071214564
92	0xbd88a91d	-0.06672881
93	0xbb77e2f7	-0.003782449
94	0x3dac30d2	0.08407749
95	0x3dfbeced	0.123010494
96	0xbd97bfda	-0.0740964
97	0xbdb8490c	-0.089983076
98	0xbd13f648	-0.036123544
99	0xbe0c8c65	-0.13725431
100	0xbe17005d	-0.14746232
101	0x3c1490b4	0.009067703
102	0x3d3cd604	0.04610254
103	0x3dd82e96	0.105557606
104	0xbdfc91db	-0.12332507
105	0xbdaa586e	-0.08317648
106	0x3e0dfcdd	0.13865991
107	0x3d39bdfc	0.0453472
108	0xbd9cd909	-0.07658584
109	0xbc9ea262	-0.01936454
110	0x3d2de775	0.042457063
111	0xbe018943	-0.12650017
112	0x3e0bdc56	0.1365827
113	0x3e12acf3	0.14323787
114	0xbbf1b665	-0.0073764795
115	0xbdf3b342	-0.11899425
116	0x3d99b64b	0.07505473
117	0x3dee3619	0.11631412
118	0x3d2a27e7	0.04154196
119	0x3df47002	0.11935426
120	0xbdb46900	-0.0880909
121	0xbd896926	-0.067095086
122	0xbd320e72	-0.043470807
123	0xbdf44ac0	-0.1192832
124	0xbda66358	-0.08124417
125	0xbd95b759	-0.073103614
126	0xbdb4a961	-0.08821369
127	0xbd0a3d75	-0.033750016

pointer.W f4 [1, 128, 256]
0	0x3c292d3c	0.010325726
1	0x3b2a7da1	0.0026014822
2	0xbc4a5c2f	-0.01235108
3	0xbba68b24	-0.005082505
4	0xbc47b213	-0.012188452
5	0xb9e71f56	-0.000440831
6	0x3b41f071	0.0029592777
7	0xbb8539d2	-0.0040657306
8	0x3c58710c	0.013210546
9	0xba056d5a	-0.0005089842
10	0xbb46a026	-0.0030307858
11	0x3b85c95a	0.004082841
12	0x3bb79af7	0.00560319
13	0x3c1c2901	0.0095312605
14	0x3b54db9d	0.0032479533
15	0x3bacaea8	0.005269844
16	0xbb2e8e7f	-0.0026635227
17	0x3bea5602	0.007151366
18	0xba8c6492	-0.0010711125
19	0x3c65cc14	0.014025707
20	0x3b947fed	0.0045318515
21	0x3afffac7	0.0019529694
22	0xba6c0251	-0.0009003031
23	0xb992756c	-0.00027934776
24	0xbc303da0	-0.01075688
25	0xbbba77c3	-0.0056905462
26	0xbb872e22	-0.0041253725
27	0xbbc4cede	-0.006006106
28	0xbc430988	-0.011904128
29	0x3b36f4f8	0.002791701
30	0xbc092b21	-0.008372099
31	0xbc471201	-0.012150289
32	0x3c1066c0	0.00881356
33	0xbb873595	-0.0041262605
34	0xbae90397	-0.0017777559
35	0x3b9fc476	0.004875715
36	0x3c4d8a45	0.012545173
37	0x3acd6741	0.0015671031
38	0x3b26d4bb	0.0025456387
39	0xbc1068fb	-0.008814092
40	0xbbb3177a	-0.005465445
41	0x3a318aac	0.0006772678
42	0xbbca5430	-0.0061745867
43	0xbb0f803c	-0.0021896502
44	0x3c4bf8c9	0.012449452
45	0x3c310a03	0.01080561
46	0x3c264400	0.010148048
47	0xbb9de892	-0.0048189843
48	0x3bdd0783	0.00674528
49	0xbb8c3de4	-0.004279839
50	0xbba1e98b	-0.0049411706
51	0xbc1cc43f	-0.009568273
52	0xbb117fd3	-0.0022201433
53	0xbc06c774	-0.008226264
54	0x3a8acc4a	0.0010589447
55	0x3bec0268	0.0072024353
56	0xbc53a720	-0.012918264
57	0x3c5cedcd	0.0134844305
58	0x3acef9cc	0.0015790998
59	0x3c3d9a78	0.011572473
60	0xbc37664e	-0.011193825
61	0x3c110dd1	0.008853392
62	0x3c00143a	0.007817322
63	0x3c4b473b	0.012407119
64	0xbc658ccc	-0.014010619
65	0x3b1e55d2	0.002416004
66	0x3b908cde	0.004411324
67	0x3b9e66fb	0.0048340536
68	0x3be104a8	0.00686701
69	0x3b5f79bc	0.003409966
70	0x3c5c33c1	0.0134400735
71	0xbae3d74e	-0.0017382891
72	0x3b2017f3	0.0024428337
73	0x3c029d85	0.007972126
74	0xbc22d93f	-0.009939491
75	0xbbf38263	-0.007431315
76	0xbbd96c17	-0.0066351998
77	0x3c12b123	0.0089533655
78	0xbbaa4f93	-0.0051974743
79	0xbb1a9148	-0.002358513
80	0x3bc07469	0.005873252
81	0x3bbab6a9	0.0056980443
82	0xbc4fd459	-0.012684905
83	0xbbaef769	-0.005339552
84	0x3abc8b15	0.0014384711
85	0x3b4b6be9	0.0031039661
86	0x3bddf804	0.0067739505
87	0x3c3ab765	0.011396264
88	0x3beec841	0.0072870557
89	0xbc59dae6	-0.013296818
90	0x3bc0a23d	0.0058787153
91	0x3bc624d9	0.006046873
92	0x3af16337	0.0018416409
93	0xbc21c236	-0.009872964
94	0xbc34b8fd	-0.011030433
95	0x3b517c5d	0.0031964995
96	0x3c1262a2	0.008934649
97	0xbc38c3e3	-0.011277172
98	0xbbf1de55	-0.0073812404
99	0xb9742a3a	-0.00023285384
100	0xbb56014c	-0.0032654582
101	0xbbf54cce	-0.0074859625
102	0x3b9e5f67	0.00483315
103	0x3bf6d32a	0.007532497
104	0xbab6b6dd	-0.0013939996
105	0xbbb60a7e	-0.00555545
106	0xbbc9020e	-0.006134278
107	0x3a60e1b9	0.0008578557
108	0x3bd93e1f	0.00662972
109	0xbc271e9e	-0.010200171
110	0x3c1b6975	0.009485592
111	0xbc687bdb	-0.014189686
112	0xbb488bdb	-0.0030600938
113	0xbc01798a	-0.007902512
114	0x3c2cd182	0.010547997
115	0xbc13cc4e	-0.009020878
116	0x3bc4abf0	0.006001942
117	0xbb057e76	-0.0020369566
118	0xbc197b58	-0.009367786
119	0x382210e6	3.8639548e-05
120	0xbb6ed982	-0.0036445563
121	0xbb8a13f5	-0.004213805
122	0x3c22996b	0.009924273
123	0xbac74893	-0.0015204124
124	0xbb0e777f	-0.0021738706
125	0x3c07bfad	0.008285445
126	0x39b3f9c8	0.00034327642
127	0xbc522806	-0.012826925
128	0xbbf30506	-0.0074163703
129	0xbbe53fd2	-0.0069961334
130	0x3b06eed0	0.002058912
131	0xbb2f8001	-0.0026779177
132	0xbc06a4ae	-0.008217974
133	0x3c581c02	0.013190271
134	0x3b549cef	0.0032442173
135	0x3bba50c3	0.005685897
136	0xbc2bd723	-0.010488304
137	0x3b232731	0.0024895186
138	0xba9b2fe6	-0.0011839836
139	0xbb51dda3	-0.0032022975
140	0xbc0292d2	-0.007969575
141	0x3c82138f	0.015878467
142	0x3bae40dc	0.0053177904
143	0xbc56862a	-0.013093511
144	0x3c008374	0.007843841
145	0x3bef0f76	0.0072955443
146	0x3bf3d017	0.0074405777
147	0x3ad10f64	0.0015950021
148	0xba885f36	-0.0010404352
149	0x3c425f7c	0.011863586
150	0xbbee392a	-0.007269998
151	0xbc1d68d0	-0.009607509
152	0xbc5c6076	-0.013450732
153	0xbba12270	-0.0049174353
154	0xbc1992b0	-0.009373352
155	0xbc11a760	-0.008890003
156	0xbbd95c9e	-0.0066333553
157	0x3a02e49e	0.0004993173
158	0x3ba01d49	0.0048863036
159	0xbb1003c2	-0.0021974896
160	0x3c2cf930	0.010557458
161	0x3a01340b	0.00049287145
162	0xbb9b1e4d	-0.0047338367
163	0x3c1bc3d7	0.009507141
164	0x3c36d46d	0.011159045
165	0x3b07ee00	0.0020741224
166	0xbc7be464	-0.015374277
167	0xbc4f43e5	-0.012650465
168	0xbba9ed12	-0.0051857317
169	0x3c254363	0.010086867
170	0xbc11f259	-0.008907878
171	0x3b166815	0.0022950221
172	0xbb17b40b	-0.0023148085
173	0xbc4863e1	-0.012230844
174	0x38c221b4	9.2569186e-05
175	0x3bfedb30	0.007777594
176	0xbbf4f6fe	-0.007475733
177	0xbb8e4d2a	-0.0043426948
178	0xbbbfe240	-0.0058558285
179	0xbbd23b5f	-0.006415769
180	0xba71092b	-0.00091947865
181	0xbad7456a	-0.0016423885
182	0x3bf79ac7	0.0075562927
183	0x3c6c50c5	0.014423554
184	0x3bd70f76	0.0065631224
185	0xbb154201	-0.0022774937
186	0x3ba68fff	0.0050830836
187	0x3b98d202	0.0046637068
188	0xbc589ef8	-0.013221495
189	0x3bf513c2	0.007479162
190	0xb9ce3786	-0.0003933275
191	0xbc7f40f3	-0.01557945
192	0x3a8fcfef	0.0010972003
193	0xbbd52fd3	-0.006505945
194	0xbc7dea55	-0.015497764
195	0xbc81126f	-0.01575586
196	0xbab436b1	-0.001374921
197	0x3c057805	0.008146291
198	0xbbcfa4c2	-0.0063367793
199	0x3ace97da	0.0015761808
200	0xbba49d91	-0.005023666
201	0x3c587ff8	0.013214104
202	0x3b36dfdd	0.002790443
203	0x3bea09eb	0.0071422956
204	0xbc25f11a	-0.010128284
205	0xbb158ffe	-0.0022821422
206	0x3c612050	0.013740614
207	0xbbef165f	-0.007296368
208	0x3c347af8	0.011015646
209	0xbc0078fc	-0.007841345
210	0x3a0bfa4e	0.00053397275
211	0x3c617de3	0.013762924
212	0xbbfe9dc3	-0.0077702715
213	0x3b2b6156	0.0026150546
214	0x3bc9c96e	0.0061580455
215	0x3c2bb3d5	0.010479887
216	0x3c16d895	0.009206911
217	0xbb91f8a5	-0.0044546896
218	0x3b938054	0.004501382
219	0xbadebd41	-0.0016993658
220	0x3c199d43	0.009375873
221	0xb9bf8d2a	-0.00036535534
222	0x3b7c5aa9	0.0038506186
223	0xbc25530b	-0.0100906
224	0x3c6b7599	0.014371299
225	0x3bc15eca	0.0059011923
226	0x3c145600	0.009053707
227	0xbc1e9890	-0.009679928
228	0x3ba6d1ae	0.0050909137
229	0xbb2e4723	-0.0026592694
230	0x3b0be0f0	0.002134379
231	0x3c542b65	0.012949799
232	0x3b5974e3	0.0033181242
233	0x3997a91b	0.00028926958
234	0x3a125280	0.00055817515
235	0xba7dfa51	-0.0009688484
236	0x3b7a5daf	0.0038202812
237	0xbc11874a	-0.008882353
238	0x3c103eae	0.0088040065
239	0xbbed75aa	-0.0072466927
240	0xbb3eaa46	-0.002909319
241	0xbb89a624	-0.0042007137
242	0x3c275d28	0.010215081
243	0xbc05458c	-0.008134257
244	0xba83f182	-0.0010066482
245	0xbb09cbef	-0.0021026095
246	0x3c2a5ad3	0.010397631
247	0xbbfd9f96	-0.0077399714
248	0x3bad1a47	0.0052826735
249	0xbb6f8036	-0.0036544926
250	0xbc09acab	-0.008402984
251	0xbb94a20c	-0.004535919
252	0xbc82c43e	-0.015962716
253	0xbc31834d	-0.010834527
254	0x3be49f99	0.0069770333
255	0xbc476243	-0.0121694235

pointer.gru.weight_ih_l0 f4 [384, 128]
0	0xba727f56	-0.0009250542
1	0x3b853257	0.004064839
2	0xbd96cdc6	-0.07363467
3	0xbddb63ef	-0.1071242
4	0xbc988ff0	-0.018623322
5	0xbd28dc7c	-0.041225895
6	0xbcbd300f	-0.023094205
7	0xbd31da46	-0.043421052
8	0xbd5264e5	-0.05136575
9	0xbdc46add	-0.09590695
10	0xbdbcef84	-0.092253715
11	0xbd95ecb0	-0.07320535
12	0x3dc9688f	0.09834396
13	0xbccc3eb0	-0.024932235
14	0x3dca7f77	0.09887593
15	0x3d886a73	0.066609286
16	0x3d0b2b16	0.033976637
17	0xbcfc9870	-0.030834407
18	0x3d8027dd	0.06257603
19	0x3c76d318	0.015064977
20	0x3d6399a2	0.055566438
21	0x3c863917	0.016384644
22	0x3b0138da	0.0019717724
23	0xbd94ddd8	-0.07268876
24	0xbc0bbe10	-0.008529201
25	0x3c398a9f	0.011324554
26	0xbd86b60a	-0.0657769
27	0x3ce10f13	0.027473008
28	0x3bd1ddd4	0.006404618
29	0x3d0485f2	0.032354303
30	0xbdb06a74	-0.08614054
31	0xbd128d58	-0.035779327
32	0x3d2c1de2	0.042020686
33	0x3b4f6f98	0.0031652208
34	0xbdda3ffe	-0.10656737
35	0x3d9325b9	0.071849294
36	0x3db2c121	0.08728243
37	0x3d194aca	0.03742484
38	0xbd851e5a	-0.0649993
39	0x3ccaa8fc	0.024738781
40	0xbc5a29f3	-0.013315666
41	0x3d7b653a	0.061375834
42	0x3d8dd9c9	0.06926305
43	0xbd9cfd1a	-0.07665463
44	0xbc69f428	-0.014279403
45	0x3cdbed2d	0.026846493
46	0xbda67fa8	-0.08129817
47	0xbbb2cdf8	-0.0054566823
48	0xbdb6ee08	-0.089321196
49	0x3db39725	0.08769063
50	0x3dd5ec37	0.10445445
51	0xbd22fe4e	-0.039793305
52	0x3db24cbf	0.087060444
53	0x3c959315	0.01825861
54	0xbd71382f	-0.05889147
55	0x3cbcff0a	0.02307083
56	0xbdcdeb03	-0.100545906
57	0x3da765bd	0.08173702
58	0xbda50431	-0.0805744
59	0x3d5170d2	0.051132984
60	0x3ccc82d2	0.024964724
61	0xbd17c824	-0.037056103
62	0xbdcf9296	-0.10135381
63	0x3cfb56d5	0.030681053
64	0xbd255ff2	-0.040374704
65	0x3da186f3	0.07887068
66	0xbd197d08	-0.037472755
67	0x3dcd0f5b	0.100126944
68	0xbc4cd848	-0.012502737
69	0x3d67017e	0.056397907
70	0x3a8123f8	0.0009852638
71	0xbdb12b8b	-0.08650883
72	0x3dc38e93	0.09548678
73	0x3d9cf6b3	0.07664242
74	0x3c9634ca	0.018335719
75	0xbdacb881	-0.08433629
76	0xbdadf1ba	-0.08493371
77	0xbd9bcae6	-0.07607059
78	0x3dd85fd5	0.105651535
79	0x3d93ab9f	0.072104685
80	0xbd3cf9b5	-0.046136577
81	0x3c8c3c2d	0.017118538
82	0xbb6bba0b	-0.0035969045
83	0x3ab36a7b	0.001368835
84	0xbc951e80	-0.01820302
85	0x3d34d40a	0.04414753
86	0xbcc78f4d	-0.024360323
87	0xbc55a916	-0.0130408015
88	0x3d33e9c2	0.0439241
89	0xbc16072e	-0.009156985
90	0x3dd000bf	0.10156392
91	0x3c7b4c02	0.015337946
92	0x3dbe1773	0.09281816
93	0x3d35bb52	0.044368096
94	0x3b644958	0.0034833755
95	0xbc8547b0	-0.016269535
96	0xb918d0c8	-0.00014573627
97	0x3d7927ea	0.06082908
98	0xbdafd020	-0.085846186
99	0xbdbf3a92	-0.09337343
100	0xbd9d4bce	-0.07680474
101	0x3b5f86ac	0.003410737
102	0x3d20a172	0.039216466
103	0x3dc7a283	0.097477935
104	0x3d568022	0.05236829
105	0x3da584a5	0.080819406
106	0x3d8e0941	0.06935359
107	0xbd8934e2	-0.0669954
108	0x3b821f52	0.003971019
109	0xbd9edca4	-0.077569276
110	0xbd9ab20c	-0.07553491
111	0xbb5bb472	-0.0033524302
112	0x3dd97c51	0.106194146
113	0xbd550ecf	-0.052016076
114	0x3d852fdd	0.0650327
115	0xbd84775e	-0.0646808
116	0x3da167d7	0.07881134
117	0xbd84b10a	-0.0647908
118	0xbdc61f84	-0.0967398
119	0x3cf0f834	0.029415227
120	0xbd38feec	-0.045164987
121	0x3c4c13c3	0.012455883
122	0xbd91d148	-0.07119995
123	0xbc7dd6e8	-0.015493132
124	0x3d15adb2	0.036542602
125	0xbd612243	-0.054964315
126	0xbcb9e3a6	-0.022691559
127	0xbc538738	-0.012910657
128	0x3db8979f	0.090132944
129	0x3d7a0cb4	0.06104727
130	0xbda90dd5	-0.082545914
131	0xbda21cf7	-0.07915681
132	0xbdc7eaac	-0.09761557
133	0xbd40a80a	-0.047035255
134	0xbd524d5f	-0.051343318
135	0x3d7108da	0.058846332
136	0xbd8c3f66	-0.0684803
137	0xbcfdc40b	-0.03097727
138	0xbd8e6ccc	-0.06954345
139	0x3c1eb24b	0.009686063
140	0xbdacf29d	-0.08444712
141	0x3da88f6f	0.08230483
142	0xbd40dafa	-0.047083832
143	0x3dce4f78	0.10073751
144	0xbdaf4f6f	-0.08560073
145	0xbccb746a	-0.024835784
146	0x3dd3a513	0.1033422
147	0xbd599ae5	-0.053126235
148	0xbc936528	-0.017992571
149	0xbcc1dce2	-0.023664895
150	0x3bc61a96	0.0060456498
151	0x3c0820e5	0.008308624
152	0x3d9294d1	0.07157291
153	0x3d9610a1	0.073273905
154	0x3dbbf29d	0.09177134
155	0xbdbda3da	-0.09259768
156	0xbc9307aa	-0.01794799
157	0xbc82e811	-0.015979799
158	0xbd81d624	-0.06339672
159	0xbc9929f8	-0.01869677
160	0x3d804014	0.06262222
161	0xbce318f2	-0.027721856
162	0xbd2d257c	-0.042272076
163	0x3dcc56b3	0.09977474
164	0x3dbe0775	0.09278766
165	0x3bebfc25	0.007201689
166	0xbd2638ea	-0.04058162
167	0x3c9ba7fc	0.019001
168	0x3d9a21b8	0.075259626
169	0xbcdcd09a	-0.026954938
170	0x3da35306	0.0797482
171	0xbdac1946	-0.08403258
172	0x3da61a01	0.081104286
173	0x3da532fc	0.08066365
174	0x3dc11da1	0.094294794
175	0x3d9ae67a	0.07563491
176	0x3d1c9e77	0.03823706
177	0xbcffb1b7	-0.03121267
178	0xbca8b78a	-0.02059533
179	0xbda04b64	-0.078268796
180	0xbd4521b0	-0.04812783
181	0xbc1028ee	-0.008798821
182	0x3dcb5e66	0.099301144
183	0x3dad491e	0.084612116
184	0xbdca8405	-0.09888462
185	0x3c575e27	0.013145006
186	0x3dbc2df3	0.091884516
187	0xbcf5ce84	-0.0300057
188	0x3d763bcc	0.06011562
189	0x3d3e47ed	0.046455313
190	0x3d3f26af	0.04666775
191	0xbdb28198	-0.08716124
192	0xbd903cfc	-0.07042882
193	0x3d9d473d	0.07679603
194	0x3d23ed28	0.04002109
195	0x3db522f2	0.08844556
196	0x3d33d7be	0.04390692
197	0xbd1b7288	-0.037951022
198	0xbd2eb69c	-0.04265462
199	0x3d8ea752	0.069655076
200	0x3d09b9d0	0.03362447
201	0xbdaff482	-0.08591558
202	0xbcb99ebf	-0.022658704
203	0xbdd392e6	-0.10330753
204	0xbc9fc09f	-0.019501029
205	0x3d9c21f1	0.07623661
206	0xbddd4953	-0.10805001
207	0xbdbdbfd9	-0.09265108
208	0xbda456df	-0.08024382
209	0xbd58cae8	-0.05292788
210	0x3da7cdb8	0.081935346
211	0xba5137fe	-0.0007981061
212	0x3d2a13c4	0.041522756
213	0x3dd0aad3	0.10188832
214	0xbd87da8f	-0.066334836
215	0x3cd3c90a	0.025852699
216	0x3c3be97d	0.011469242
217	0xbd093132	-0.033494182
218	0x3dcf2a27	0.10115462
219	0xbd705ad3	-0.058680367
220	0x3cb4cf9a	0.022071648
221	0x3dd846c1	0.1056037
222	0xbd32bc49	-0.043636594
223	0x3dbbf02d	0.09176669
224	0x3ce1e7ae	0.027576294
225	0x3da9692a	0.082720116
226	0xbcfacc4d	-0.030614996
227	0x3cdb96d6	0.026805323
228	0xbcb23dfb	-0.02175807
229	0x3d050dec	0.03248398
230	0xbddbc0f5	-0.10730163
231	0xbb598110	-0.00331885
232	0x3d5dd1a5	0.05415501
233	0x3d277f71	0.040893022
234	0x3d4eca8e	0.05048614
235	0x3da141a1	0.07873846
236	0x3db1cc77	0.08681577
237	0xbc1c2e17	-0.009532473
238	0xbdbe0bf8	-0.092796266
239	0x3dc07746	0.093977496
240	0x3db7162e	0.08939777
241	0x3bd3abca	0.006459688
242	0xbd8173de	-0.06320928
243	0xbca0301a	-0.019554187
244	0xbb1ed0ef	-0.002423342
245	0x3d215b4b	0.039393704
246	0xbb6c5aa4	-0.0036064768
247	0xbcbad97e	-0.022808786
248	0x3ad71a4b	0.0016411034
249	0xbd99d12f	-0.07510602
250	0x3cc2e4c3	0.023790723
251	0x3cee933c	0.029122941
252	0x3d90ad03	0.07064249
253	0xbdb77d73	-0.089594744
254	0xbd565c7d	-0.052334297
255	0xbda83b2a	-0.0821441
