Task assignment/drl4vrp/vrp/10/20_05_18.844960/checkpoints/2/critic.pt (torch, 29011 bytes, 9 tensors)

static_encoder.conv.weight f4 [128, 2, 1]
00000000: 58b9 debd 3827 c8bd cba6 523e b28d 403d
00000010: bb76 5e3e 6824 7cbc 3df8 e33d a3a6 743d
00000020: 5084 e7bd 0b4b 5e3d 1c0e 11be ffeb a2bd
00000030: 7777 57be 53f9 81bc 382f 88bd c564 083e
00000040: d275 bebd ad34 493e 2860 213e a895 573e
00000050: f678 8f3c dc0d 113e 59c8 c13d 202d 5e3e
00000060: a5be 5bbe d43e 44be 4e37 1dbd 271b 063e
00000070: 6ed7 25be a3a9 fabc 419f f4bd 8673 b73d
00000080: e79b 1cbe 0cc6 45be 01e3 233e 3dc3 fdbc
00000090: d06b 723c d806 f5bd 120d b5bd c5e5 46be
000000a0: 4424 503e 5974 42be 2243 52be b9bf 333e
000000b0: 834e 343e af09 3e3e c60c 323e 5ceb ba3c
000000c0: 5ee2 f93d b57c 1d3e d5c3 283e aa5e cebd
000000d0: 9541 143e d067 9dbd f57c 1fbe a2bf 0bbe
000000e0: ae1f 9b3d 8ae1 043e d4c4 2f3e 0b92 3fbe
000000f0: 12a1 82bd 864f 003e 056a 5b3e 6b6b 533e
00000100: c0dc 5b3c 270e 403e 763e adbd 8cad ebbd
00000110: 3189 353d 60ed edbc bdac 693d d37c 073e
00000120: ea68 1abe a7df d0bc 1579 243e 3828 e2bd
00000130: fa1d 08be 4c9e 393e e8a3 04be 5ac9 473e
00000140: 1662 55be 4aff f33d 0cf4 1ebe 7936 af3d
00000150: 227f c4bd 3921 183c e864 4fbe 3ffc 34bd
00000160: d1d0 c13d da76 173e a20d 97bc 2b57 50be
00000170: a88b f43d f2e8 73bd d9e7 10be 7ee2 163e
00000180: faa9 28be 5ccd 79bd 086f f23d b7b2 81bc
00000190: 8161 28be 5c9d ac3d 6661 1b3e 2bbb 6d3d
000001a0: a627 07be dfe0 cc3c 80dd 42bd 3a79 e2bd
000001b0: 571b 80bd 4f4b 49bd 9646 8ebc e131 913d
000001c0: 744c b2bd 085e 12be 5f61 6e3c 8ef3 1a3d
000001d0: 4b0c 36be 596c e13d ca91 5dbd 2775 2cbe
000001e0: 4655 c33d 4f04 d4bd 1448 c5bd a57f f1bd
000001f0: cc14 e6bd f1f1 343e 2438 c1bd a9e0 2ebd
00000200: fcf4 353e d8fe 043e 110e 06be 3b89 5cbe
00000210: 8f89 abbc 9580 68bd 099c 86bd de6c 7cbd
00000220: a0d2 573e c66c 153e d33a 19be 9bf1 493d
00000230: f0b5 553d bff0 54be b402 833d 1c5b 95bd
00000240: 205f 2a3e 3748 783d 114d ffbd 5d2d de3d
00000250: f90c 273e 686a dd3d 250c 5c3e 9e52 f8bc
00000260: c663 11bc e540 f5bd aa8a 2a3e 02c8 3d3e
00000270: cff7 893d 8525 e83d 0f35 fc3b a543 ce3c
00000280: f740 3a3e c0ab f9bd 6a59 cabd 8946 31bd
00000290: f764 0c3e 66e2 1a3c f323 86bd 0d82 cfbd
000002a0: db0e 12bd bead a8bd c833 2cbe b041 403e
000002b0: 72a7 d53d cf43 a93d 7d49 11be b1cd a3bc
000002c0: 0cc3 53be a575 443e d46d 0dbe 984e 1cbe
000002d0: 02a9 333e 90bf 2f3e 3917 1b3e c8e3 113d
000002e0: 279f da3d a482 36bc eba0 463e 3268 bebc
000002f0: e169 6dbd 558d 553e 94fc febd 1a56 5abe
00000300: b8e8 a6bd 7fcd d63d e772 19be fdd1 b8bd
00000310: f027 5fbd 0dbb 2a3e 2842 2c3c d072 063d
00000320: f132 63bd 3d7b 6abd 9fae 1e3e 291e 003e
00000330: 8f95 debd 2487 f9bd 42a9 c43c 041d 5bbe
00000340: 88ec 47be ff3d 90bc bf0f 4d3e 3bfa 4b3e
00000350: ffe5 183c 4128 d8bd 5234 d43c 7069 553e
00000360: 2b86 3ebe 3ea6 c93d 4386 07be e8e6 84bd
00000370: a73d 1ebe 57e1 bcbd e374 e7bd d1da 353e
00000380: a614 f53b e165 45be ca28 423d cff2 1ebe
00000390: 9374 aa3d 5022 143b 9aae 3e3e b251 4bbe
000003a0: ab9c 3abe b7ed a8bd 49ef 87bd 0700 3d3c
000003b0: fb9f d0bd acf0 023e c3f5 463e 9492 c73d
000003c0: 305f 383d 8af8 8d3d fe93 29bd 0bc0 5a3e
000003d0: 9361 893d d9b3 99bd b05c ff3d 0d28 173e
000003e0: b7ce 44be f945 b4bd f368 d9bd 1585 a73d
000003f0: 0cd8 26be 7008 f73c 589d aabc 0da3 f33c
-0.10875195 -0.097731054 0.20571439 0.04701013 0.2172498 -0.015389539 0.11131332 0.05972923
-0.113045335 0.054270785 -0.14165539 -0.07955169 -0.21041666 -0.015865957 -0.06649631 0.1331969
-0.09299816 0.19649 0.15759337 0.21053183 0.017513733 0.14165443 0.094620414 0.21696901
-0.21459444 -0.19164592 -0.03838282 0.13096295 -0.16195461 -0.030598467 -0.11944438 0.08957581
-0.15293847 -0.1931383 0.16004564 -0.030976886 0.014796212 -0.11964196 -0.088403836 -0.19423588
0.20326334 -0.18989696 -0.20533422 0.17553605 0.17608075 0.18558381 0.17387685 0.022817306
0.12201379 0.15379603 0.16480954 -0.100766495 0.14478143 -0.07685816 -0.15575011 -0.13647321
0.07574402 0.12976661 0.17164928 -0.18708055 -0.06378378 0.12530336 0.21427162 0.20646445
0.01341933 0.18755399 -0.08459179 -0.11507711 0.04432029 -0.029043853 0.0570495 0.1323121
-0.15079084 -0.02549727 0.16061814 -0.11042827 -0.13292685 0.18126792 -0.1295315 0.19510403
-0.20838198 0.11913927 -0.15522784 0.08555312 -0.09594561 0.009285265 -0.20253336 -0.044185873
0.09463657 0.14791432 -0.018439118 -0.20345752 0.119407 -0.059548326 -0.14150943 0.14734837
-0.16471091 -0.06098686 0.11837584 -0.015832288 -0.16443445 0.084284514 0.15173873 0.058039825
-0.13198718 0.02500957 -0.04757452 -0.110582784 -0.06255215 -0.049144085 -0.017367642 0.07089592
-0.087059885 -0.14293683 0.014549582 0.037829928 -0.17778127 0.11006994 -0.054094113 -0.16841565
0.09537749 -0.10352384 -0.096328884 -0.117919244 -0.112344354 0.17670418 -0.09434536 -0.04269472
0.17769235 0.1298784 -0.13091303 -0.21536724 -0.020939616 -0.05676325 -0.0657273 -0.06162726
0.21076441 0.14592275 -0.14963846 0.04930268 0.052175462 -0.20794962 0.06397 -0.07292768
0.1663785 0.060615744 -0.12465871 0.10848496 0.16313542 0.10811311 0.21489008 -0.030312832
-0.0088738855 -0.11975268 0.16654459 0.18533328 0.06736719 0.11335281 0.0076967548 0.02517874
0.18188845 -0.12190962 -0.09880336 -0.04328016 0.1371039 0.009453392 -0.065498255 -0.10132227
-0.0356587 -0.08236264 -0.16816628 0.18775058 0.10432328 0.082648866 -0.1418819 -0.019995542
-0.20679873 0.19185503 -0.13811427 -0.15264356 0.1754494 0.17162919 0.15145577 0.03561762
0.10674887 -0.011139546 0.19397323 -0.023243044 -0.057962302 0.20854695 -0.12450519 -0.21321908
-0.08149856 0.10488414 -0.14985238 -0.09024427 -0.054481447 0.16672917 0.01051382 0.032824337
-0.055468503 -0.057246435 0.154963 0.12511505 -0.1086837 -0.12183979 0.02400649 -0.21397787
-0.19523823 -0.017607687 0.20025538 0.19919674 0.009332179 -0.10554553 0.025903855 0.20841002
-0.18605869 0.09846161 -0.1323481 -0.06489354 -0.15453206 -0.09222668 -0.11301591 0.17759253
0.007479268 -0.19277145 0.04740218 -0.15522312 0.08323016 0.002260346 0.18621293 -0.19855383
-0.18223827 -0.082484655 -0.06637437 0.011535651 -0.10186764 0.12787122 0.19429688 0.097447544
0.045012653 0.06932171 -0.041400902 0.21362321 0.06708064 -0.07505006 0.124688506 0.14761372
-0.1921948 -0.08802409 -0.106157206 0.0817968 -0.16293353 0.03015539 -0.02082698 0.029740835

static_encoder.conv.bias f4 [128]
00000000: 5138 26be b00b db3e 6359 0a3f 74ca f63d
00000010: e147 743e f5db debe e77f 07bf 7ed9 ce3e
00000020: 6be2 02bf 9ec8 833d 96fc 11bf b8aa 0c3f
00000030: d814 983e 06f5 b13e e35a 32bf e6f1 cb3e
00000040: 65ae d8be 4f9f 5fbe f04a 1ebf dce8 8f3e
00000050: 4706 873e e99a 323f 1346 b53e 0327 c6bc
00000060: 55a8 d73e d6de d83e 283b b7bd dd52 2d3f
00000070: 2fa9 18be 9fdc 993e 0b02 ddbe 2873 273e
00000080: 1bfb f8be e39e 08be f8e3 a23e 5354 2bba
00000090: e8d1 043e a373 1dbf 0355 373d d248 41be
000000a0: be6c a13d 918a 2dbf 1cba 2c3d f669 17bf
000000b0: b2ca e6bb 4884 89be c967 ed3e 5d3a a2be
000000c0: e67a 123f 675e 71be 3f89 2bbf e124 06bf
000000d0: e4d0 953e b998 6e3d 5431 ee3e 37f1 12bf
000000e0: 9194 97be 8e00 22bf a91e 003e 0b7e 5f3e
000000f0: 0904 313f f19d 833e 3290 8fbe 6427 34bf
00000100: 72f5 2d3f 18b8 73be cf72 2f3d eaa7 61be
00000110: fcef 60ba 2671 c1be 9340 f83e 7831 0ebf
00000120: 81c7 1cbf eeef bcbe 4f69 14bf 84bf cd3e
00000130: 195e 68be 0d95 eebe d7e2 243e b539 fdbe
00000140: 76e1 2fbf d348 ee3e 35b4 0fbf 1cf0 c33e
00000150: 08c5 adbe 0f34 d23e a5f3 f63e 152d c7bd
00000160: 9272 2ebe e014 3cbe a386 463e b291 1abf
00000170: ef63 d43e 3a5a a73e f8df b7bd f15d e4be
00000180: 1b22 2ebf 7c8f 103f b13c 20bf e906 07bf
00000190: 84cf a4be 19e9 ce3d 3db7 2cbf 33ad f4bd
000001a0: be4f c13e a610 2bbd 93cd e3be 8cf6 1a3f
000001b0: ce86 793e f337 f93e d272 793e 869f f03e
000001c0: 149c d63d c2cf 64be 7786 e8be 2445 84bd
000001d0: 15b1 d2bc 7ca7 0bbf 55b8 06bf fb31 233f
000001e0: a3d2 63be c41f e1b9 a095 c1be 552c debd
000001f0: 65fd e5be 344a b4be 1667 a2bd e9d3 d23e
-0.1623242 0.42782354 0.54042643 0.120503336 0.23855545 -0.4352719 -0.5292954 0.40400308
-0.51126736 0.06434749 -0.5702604 0.54947996 0.29703403 0.3475725 -0.6966993 0.3983299
-0.42320552 -0.21838115 -0.61833096 0.28107345 0.26371977 0.69767624 0.35405025 -0.024188524
0.42120615 0.4235751 -0.0894683 0.67704564 -0.14908288 0.30051133 -0.4316562 0.16352522
-0.48629078 -0.1334186 0.3181455 -0.00065356976 0.12970698 -0.6150457 0.044758808 -0.18875435
0.07882069 -0.6778956 0.042169675 -0.5914606 -0.007043206 -0.26858735 0.46368244 -0.31685153
0.5721878 -0.23571168 -0.67006296 -0.5240002 0.29260933 0.058251116 0.4652201 -0.57399315
-0.29605535 -0.63282096 0.12511696 0.21825425 0.6914678 0.25706437 -0.280397 -0.70372605
0.67952645 -0.23800695 0.0428341 -0.2203671 -0.00085806823 -0.37781638 0.48486766 -0.55544233
-0.6124192 -0.36901802 -0.5797319 0.40185177 -0.22692145 -0.46598092 0.16102158 -0.4945809
-0.687034 0.46539935 -0.5613435 0.38269126 -0.33939385 0.41055343 0.4823276 -0.097253956
-0.17035893 -0.18367338 0.19387297 -0.60378563 0.41482493 0.32686025 -0.089782655 -0.44602922
-0.6802079 0.5646894 -0.6259261 -0.5274492 -0.32189572 0.101030536 -0.674671 -0.11947098
0.3775615 -0.041763924 -0.44492778 0.6053245 0.2436783 0.48675498 0.24360207 0.46996707
0.10478988 -0.22344878 -0.4541509 -0.064585 -0.025719205 -0.54552436 -0.5262502 0.6374814
-0.2224832 -0.00042939011 -0.37809467 -0.108482994 -0.44919887 -0.35212862 -0.07929818 0.411773

dynamic_encoder.conv.weight f4 [128, 2, 1]
00000000: 0d78 1b3e 32eb 6b3c 4774 0dbd 9b2d 4abe
00000010: 51f9 d83d 1bfe 11be af7f 193e 0ed7 9e3c
00000020: 63fb 513e 2bff a6bd 9631 403e 39cc 7d3d
00000030: c0bc da3d 38d3 f63d ac35 bcbd c618 ea3d
00000040: ed39 393e 09b4 423e b9a0 453e b8c8 29be
00000050: 35f8 823b a2df 293d 5cca fabd 82cf 0b3e
00000060: f35d 033e 7328 0a3e 3866 063e 4697 423e
00000070: 5a61 a43d 2f07 0ebd 2c98 e7bb e8d0 863d
00000080: b960 9b3d d2a9 d8bc 1e12 0e3e a521 fcbd
00000090: 1381 c9bd 14c2 d4bd 56b1 88bd 158e 633d
000000a0: c90c 06be a0e9 fc3d 2e5c 1c3e 5a54 4d3e
000000b0: 1eac 57bd 90c1 41be f151 033e df37 103e
000000c0: 5ded 043e 5cc0 09be 6731 c23d 6c74 8c3d
000000d0: a5d9 72bd 1771 3abe bd80 35be 096d 703d
000000e0: f9f0 be3c f251 5d3e 6849 0dbe 3d72 4a3e
000000f0: b906 b9bd 597b 053e e095 44be e204 34be
00000100: e94c 5dbd 424e f1bd d0ed 8a3c 5418 3f3c
00000110: 82bc 41be 5746 873c 62e2 20be fe14 83bb
00000120: 54c0 d5bc f9b5 17be dabc f73d 1b88 1d3e
00000130: 8023 42be 6cee ccbd aed1 48bd 3715 7ebc
00000140: 1a74 1b3e d67a e6bc 66f9 9fbd f2d6 15be
00000150: 4185 45be e74c f4bd eb54 453e 9fd5 30be
00000160: 4785 4fbe 572e 343d 4456 143e 8f9d 4cbe
00000170: 713c fcbd 77bc ed3d d2ed 1e3e 3dda c5bd
00000180: 7111 803d 76a3 23bd 128d b9bc b4e2 37be
00000190: 7b69 bdbd 7cd0 01be af56 c1bd 3732 aebd
000001a0: d4b6 88bd 60ba 283e a966 a73d 9d4d 2cbe
000001b0: e483 203e bd2f 473e 4361 cfbd 348a 0c3e
000001c0: 3f5e dcbc 7839 fa3d de57 51be d2d1 293e
000001d0: 2526 293e c598 d7bd a3f3 dd3d a21a 6a3d
000001e0: b0d5 32be 53b5 fe3c 5cf4 35be bfe1 5cbc
000001f0: 75e3 a4bd ab36 49be da99 1ebe 3fa1 be3d
00000200: a650 17be 0973 db3c 2b3d e83d 3ae9 34bc
00000210: 3508 243e cdf4 4f3e 0e62 183d 54a1 f93a
00000220: bf25 13bd 1d70 19be fc24 83bd 46df f5bd
00000230: 41eb 293e d0b9 bfbd bf3f a6bc 728c 28be
00000240: 4cc1 0bbe fd3b 9bbc 07db 14be e574 8dbc
00000250: 7fa9 073c ec23 163e 1f26 56be 2822 86bd
00000260: d58d 84bd 90ee d1bd c06e 553c 442f 7c3d
00000270: 24c8 153d 2cd0 ee3d cd71 5abc 3aea 223e
00000280: b330 2abe e770 413e 007f 193b 54fb 2cbe
00000290: 5471 22bc 2bf8 57bd 4a54 97bd f3a1 003d
000002a0: 2428 ecbc 8946 4abd 00d2 eb3d be2d bb3d
000002b0: 01e0 ec3d b9fa 923c 9cc8 05bd 2bc6 01be
000002c0: e549 b43c 9a72 23be 3cc2 ccbd 00c7 1eb9
000002d0: 8947 41be e45b 3bbe 51dc 01bd a721 1d3d
000002e0: 5950 843d fc2b 903d 90b4 47be c861 343c
000002f0: a96a abbc a57e e73d ecb7 313e 438f a3bd
00000300: 9f5b 21be 007a 7d3c 5256 313e 4cd2 3f3e
00000310: 7641 403e e425 303e df17 b93d 7a66 d73d
00000320: fdad 2abe 0a24 d03d 9e0f 47be 2e7e 3ebd
00000330: b08e 363c e643 463e 9faa 5c3e b762 ff3d
00000340: 077f 463d d0b5 303c 04c6 0fbe bc4d b1bd
00000350: 41d0 1e3e 01eb f9bd 7ea3 12be c143 0cbe
00000360: 298e 223d ea22 04bb 1464 0cbe baa5 3fbd
00000370: ec66 2ebe 28c1 c43d 4bd2 ad3d e39c cf3d
00000380: a8a7 51be a78d 84bd 5430 e73d 1268 a43d
00000390: e0ce 8ebd 5cfc 52be 0f51 43be a7ca 323e
000003a0: e315 33bd 8d71 d2bd f543 273c a64b 7bbc
000003b0: 5f5c 013d 7b65 99bd b3c7 31be f7da c53c
000003c0: d748 0dbe f07d 453e 7a38 263e c8d4 e43d
000003d0: c056 0abc 8bbb db3a 19b0 17be 1583 55be
000003e0: 47d6 b23d a12c debc dbae 90bd 8741 483e
000003f0: 35f7 f8bd dfe5 0bbe 232d 3b3b db57 0d3e
0.15182514 0.014399337 -0.03453472 -0.1974396 0.10594428 -0.1425709 0.14990114 0.019389655
0.20506053 -0.08154138 0.18768916 0.06196234 0.106805325 0.120520055 -0.091899246 0.114305064
0.18088503 0.1901399 0.19299592 -0.16580474 0.0039968737 0.04147304 -0.12245628 0.13653377
0.12828808 0.13491993 0.13124931 0.19003019 0.08026381 -0.03467482 -0.007067701 0.065828145
0.07586808 -0.026448164 0.13874099 -0.12311105 -0.09839072 -0.1038858 -0.06674449 0.05555542
-0.13090815 0.12349248 0.15269539 0.20051709 -0.052654378 -0.18921494 0.12824227 0.14083813
0.12981172 -0.13452286 0.09482079 0.06858143 -0.059289593 -0.18207203 -0.17724891 0.058697734
0.023308264 0.21613291 -0.13797534 0.19770141 -0.09034485 0.13035335 -0.19197798 -0.17579988
-0.054028425 -0.117825046 0.016959101 0.011663515 -0.18919566 0.016513033 -0.15711358 -0.004000305
-0.026092686 -0.14815511 0.120965675 0.15383951 -0.18958855 -0.10006413 -0.04902809 -0.015507988
0.15181008 -0.028134745 -0.07811241 -0.14632776 -0.19289114 -0.119287305 0.19270675 -0.1726899
-0.20265685 0.043989506 0.14486033 -0.19981979 -0.12316216 0.116082124 0.15520409 -0.09660766
0.06253327 -0.03995081 -0.022650275 -0.17957574 -0.092486344 -0.12677187 -0.09440362 -0.085056715
-0.06675497 0.16477346 0.08173878 -0.16826482 0.15675312 0.19451804 -0.10125973 0.13724595
-0.026900409 0.122179925 -0.20443675 0.16583946 0.16518457 -0.10527185 0.10837486 0.057154305
-0.17464328 0.031092322 -0.17768997 -0.013481556 -0.080511965 -0.1964976 -0.15488377 0.09308099
-0.14776859 0.026788251 0.11339792 -0.011041934 0.16018756 0.20308228 0.037202887 0.0019045272
-0.03592467 -0.14984174 -0.064035386 -0.12005477 0.16593648 -0.09361613 -0.020294068 -0.16459826
-0.13647956 -0.018949503 -0.14536677 -0.017267654 0.008280157 0.1466214 -0.2091298 -0.065494835
-0.06472365 -0.1025058 0.013026893 0.061568514 0.036567822 0.116607994 -0.013332796 0.15909663
-0.1662014 0.18890725 0.0023421645 -0.16892749 -0.009914715 -0.052726906 -0.07389124 0.031404447
-0.028827734 -0.049383674 0.11514664 0.09139584 0.11566163 0.01794182 -0.03266202 -0.12673251
0.022007892 -0.15961686 -0.09997985 -0.00015142187 -0.18874945 -0.18296772 -0.03170425 0.03836217
0.064606376 0.07039639 -0.19502473 0.011009641 -0.020924883 0.113034524 0.17355317 -0.079863094
-0.15757607 0.015470982 0.17318085 0.18732566 0.18774971 0.17201954 0.09037756 0.10517593
-0.16667934 0.10163124 -0.19439551 -0.046507053 0.011142418 0.19361839 0.21549462 0.1247
0.048460986 0.010785535 -0.1404038 -0.08657405 0.1550913 -0.122030266 -0.1432018 -0.13697721
0.039686356 -0.0020162412 -0.13710052 -0.04678891 -0.17031449 0.09607154 0.08487376 0.10137346
-0.20474112 -0.064723305 0.11288515 0.08027662 -0.06973052 -0.2060408 -0.1907389 0.17460118
-0.043722045 -0.10275564 0.010209073 -0.01533786 0.031582233 -0.07490059 -0.17361335 0.024152262
-0.13797317 0.19286323 0.16232482 0.11173397 -0.008443534 0.0016764266 -0.1481327 -0.20850785
0.087322764 -0.02712089 -0.07064601 0.19556247 -0.12156526 -0.13661908 0.002856084 0.13803045

dynamic_encoder.conv.bias f4 [128]
00000000: e479 253f 5f83 d13e 5013 9d3e 2883 a23e
00000010: 9a52 1cbf d5eb 08bf 0cb8 dd3e 6078 923e
00000020: 5428 56be 9a51 c43e a87d 37be 3201 0ebf
00000030: dcf2 2dbf 23a7 083e 88e9 923d 3418 553e
00000040: 70d9 08be 747b ffbe d67a 28bd d2cc 303f
00000050: ac0a ce3d caf9 a4be 9c02 10bf 8ce9 88be
00000060: ea5f 163d 7ccb 193f 3a01 13be 5cf9 01bf
00000070: 998a 98be 6554 d13e b6dd cbbe 66fb 0b3f
00000080: 75f0 2abf 0aa7 2abf b235 3a3e 5c76 333f
00000090: d3a7 b7be a972 0dbf ded1 a43d cfbf 433e
000000a0: 991e 943e e833 f13e d728 0abe afd6 8dbe
000000b0: 3e52 fcbc 7c84 0cbf ca8a 4fbe 724a 193f
000000c0: 3953 133f bdbe 60be f0e1 84bd dd84 89be
000000d0: e6ec f53e e535 95bd cf4b 433e 0a06 a63e
000000e0: 1e1a 10bf 6f02 fabe e258 d9bd 744d d8be
000000f0: e626 b8be 22bf 0f3f d76f a33d 35a5 7f3e
00000100: 45fc 2dbf e65e 003f 6341 cd3e d611 20bd
00000110: 1568 8ebe f99b db3e 8d9a 103f 66a3 85bd
00000120: 2792 5ebe a43b dcbe 55f4 e5be 75da a7be
00000130: 7ece ed3e 855e fdbe 5f8a fe3e 4ea9 e1be
00000140: 2cb5 303f 8b96 cabe d248 1ebf 4ce5 3ebe
00000150: 5590 143f 01ab 1b3f 167d c93c 39f3 f5bc
00000160: 948e f3be 1a9b b2be 2908 67be 51ec c9be
00000170: 4b1e 5a3d 27ee e53e d89b 18bf cd7b c43e
00000180: df24 553d cc0c 32bf 2167 043f 9adf 4ebe
00000190: 3a4c 1abe cc32 eb3e 4cca f63e 7500 1ebf
000001a0: 1900 113f de64 11bf c3d0 123f 096e 0cbf
000001b0: 67dd 2b3f 02b2 b33e a7f7 1c3f 12d7 0b3e
000001c0: 2378 1fbe 2e72 25be acc3 febd b592 273f
000001d0: d347 2bbf 00d9 d43e a72d b3be 58bd 183e
000001e0: 2a57 f03c ac6b 813e 88cf a73e a330 b83e
000001f0: 5c9e a63e dea6 553e 0c12 d8be aa1b 2ebf
0.64639115 0.4092054 0.30678797 0.3174069 -0.6106354 -0.5348485 0.4330448 0.28607464
-0.20913821 0.38343507 -0.17919028 -0.55470574 -0.679487 0.13345008 0.07173449 0.20810014
-0.13364196 -0.49898875 -0.04113277 0.6906253 0.10060629 -0.32221824 -0.5625398 -0.26740682
0.036712565 0.6007612 -0.14355937 -0.5077112 -0.29793242 0.408847 -0.3981759 0.5468048
-0.6677316 -0.6666113 0.18184546 0.7010248 -0.35870227 -0.5525308 0.080478415 0.19116138
0.28929594 0.47109914 -0.13492142 -0.27702853 -0.030800935 -0.54889655 -0.20267788 0.5987922
0.5754886 -0.21947761 -0.06488407 -0.2685918 0.48032302 -0.0728567 0.19071887 0.32426482
-0.5628985 -0.48829982 -0.10612656 -0.42246592 -0.35967177 0.5615102 0.07980316 0.24965365
-0.6796306 0.50144804 0.4008895 -0.03907951 -0.27813783 0.42892435 0.56485826 -0.065253064
-0.2173544 -0.43014252 -0.44912973 -0.32783857 0.46446604 -0.49486175 0.49714944 -0.44074482
0.69026446 -0.3956798 -0.61829865 -0.18642157 0.58032733 0.60807806 0.024595778 -0.030023204
-0.47569716 -0.34883958 -0.22561707 -0.39438108 0.053251546 0.44908258 -0.596128 0.38375703
0.052037116 -0.69550776 0.5171986 -0.20202485 -0.1506814 0.45937192 0.48201215 -0.6171945
0.56640774 -0.56794536 0.57349795 -0.548554 0.6713471 0.35096747 0.6131539 0.13656262
-0.15573172 -0.16156837 -0.12439665 0.6545823 -0.6690647 0.41571808 -0.34995767 0.14915979
0.029338438 0.2527746 0.3277552 0.35974607 0.32542694 0.20864436 -0.4220127 -0.6801096

fc1.weight f4 [20, 256, 1]
00000000: 6c66 e13d 2846 ae3d 21eb 173e c6c6 3abc
00000010: e7b9 91bd be4d cf3d fcc6 a03d 8829 04be
00000020: 194f 4c3d 579b a03d 83d8 8a3d c9c7 de3c
00000030: d55d eabd a675 c4bd f1f7 16be 202c 86bd
00000040: 1f9a 26bd f344 84bd 7862 62bd 3c04 0dbe
00000050: 74f9 9f3d d797 d2bb 4195 debd 3c1b 8c3d
00000060: 9552 b23d b37d 1bbd bc13 f23d dcec 7d3d
00000070: 795b a3bd 9c37 653d c9f9 30bd 355d 84bd
00000080: 8dc3 e43d ada1 10be c5c8 8f3d 2351 e63d
00000090: 4e50 fdbd 1798 cbbd 027b 943d c9a0 0bbd
000000a0: 656c 123e be38 283d 7be6 16bd 9a25 9ebd
000000b0: df23 303d e476 483b 0fef 623d 8a3d 82bd
000000c0: 315a c3bd 406f ee3d 2b99 393d a8ea 993d
000000d0: 86fb bcbd ed4c 12be b8ad cabd a31a 24bd
000000e0: bec6 4b3b 3a0e a63d 80c3 5ebd cecc 083e
000000f0: 1fd1 fcbd 6379 e83d 720e 4fbc 9edf 57bc
00000100: 725b 883d 2cac 993d 0e5b 223c c509 f2bd
00000110: 4525 f0bd 919f 8ebd dd2a 6e3c 584a 1cbd
00000120: 505d 9d3d fda4 56bd bcc2 0dbe ce90 f33c
00000130: ee06 39bd d086 15be 997b 313d 5d07 cfbc
00000140: 6091 093e 391f 06be 893a 11bd 39e3 5abc
00000150: ac99 2fbc d82a 10be bd73 9d3d ce16 0ebe
00000160: 1ab7 98bd 3d4e eabd 6752 b73d 0247 503d
00000170: 7c40 0a3d 0e80 f43d 6b7a 043e 79bb 0abe
00000180: a4bb fbbd e5bd b83d c4e7 6a3c 4c4f 8a3d
00000190: 5fa4 e43d 6c95 883d e25d bd3d 573f babd
000001a0: da92 babd 647d e3bc e03d b83d 3797 c7bd
000001b0: 9ac7 02be 565c 76bd e5dd 87bc f817 f9bc
000001c0: 3432 0d3b 6928 ea3d 2e11 0fbe fa16 cabd
000001d0: 2c61 0ebe 9353 823d cc11 13be bb5e c63d
000001e0: 57f0 093d 93b9 5ebd 4dfb e0bd a7d1 9abd
000001f0: 5996 eb3d 3e0b c63c dd3a 353d d7d7 923d
00000200: 3d0f 033e 303d b73c 1c1d c03d eea3 6c3b
00000210: 5007 5fbd 0386 c5bc 3567 a63d 8b06 893d
00000220: 13f8 f8bc c928 cebd 3f4f 8bbd e811 cd3d
00000230: cd39 cabd 7fa9 93bd b695 1bbd 19c0 c03d
00000240: f8b4 03be 0b89 1cbc de00 6abd 618f bfbd
00000250: 9f1d 093d f59b f6bd 31ac 833d a0d5 d43d
00000260: 8ece 81bd 3e5b 0fbe 1c01 06be 7e64 acbd
00000270: 63e4 b33d 8248 fbbd b797 f33d f858 103e
00000280: 0147 e8bd 3b35 12bd f235 4ebc 1ab8 f23d
00000290: d764 a53d f691 03be 1a5c 753b 2611 ab3d
000002a0: 99f3 053e 152f fabd 1012 26bd 4191 abbd
000002b0: 74ef debd 16f2 ed3d cf28 eb3d 2760 75bd
000002c0: 05db bebd 6cbd 933d cdbb 0bbe 2289 b83d
000002d0: 98c7 173e c156 82bd 8c87 dc3d e257 ef3d
000002e0: 0439 16bd 84d5 cc3d 759f 10bd f584 703d
000002f0: 0909 bfbc 63d5 55bd 6925 ad3d 7a08 c5bd
00000300: 148f e7bd aec2 2e3b 1e4f f4bd 95ea a9bb
00000310: 3dc9 623d 3bbe a93c 9206 333d 253e 19bd
00000320: 1603 a2bd 135a 14be 02cf 1f3c bf8d d5bb
00000330: daef fa3d f7b5 20bd 11d6 10be 601d ad3b
00000340: b27f 09bd 61c4 fe3c 011b 113e 2225 5bbc
00000350: 7a08 2dbc 6fc8 45bd e2c7 1bbd 3256 f7bd
00000360: 2a62 063e 604a dabd 90c8 4fbd 2bea 243d
00000370: 239b b1bc c238 db3d ea6f 54bd b804 e83c
00000380: 766c d23d 4b4e 833d 17a8 fabc bcd6 1f3d
00000390: 9f45 c33b acb1 a5bd 78a2 d7bd 6f02 043e
000003a0: f88d 9b3d e564 713d 7a96 b1bd 2707 393c
000003b0: c61d 853b d46b 033e e477 063d 7c77 0bbe
000003c0: 733d 0fbe ed99 c0bd a78c b2bd 1d60 52bd
000003d0: 3649 b5bc de64 b4bd 7a34 51bb 914a 81bc
000003e0: 59f6 84bc dc28 5ebd fa3a 15bd fda5 5e3d
000003f0: e455 953d 67e0 043e 5edd 0bbe 3078 af3d
0.110058635 0.08509475 0.14835788 -0.01139993 -0.07115536 0.1012225 0.07850453 -0.12906468
0.04988012 0.07842129 0.067795776 0.027194874 -0.11443678 -0.09592752 -0.1474302 -0.06551385
-0.040674325 -0.064584635 -0.05526969 -0.13771147 0.07811251 -0.006426792 -0.10868312 0.06841132
0.087071575 -0.037961673 0.1182017 0.061993465 -0.079764314 0.055961236 -0.043206964 -0.0646309
0.11170111 -0.14124174 0.070207156 0.11245944 -0.123688325 -0.09941118 0.072500244 -0.034088884
0.14299162 0.04106974 -0.036840897 -0.07722016 0.04300296 0.0030588442 0.055403765 -0.06359394
-0.09538687 0.11642313 0.045312088 0.0751546 -0.09227662 -0.14287157 -0.098964155 -0.040064465
0.0031093801 0.08108182 -0.054385662 0.13359377 -0.12344574 0.11351278 -0.012637721 -0.013175873
0.06658067 0.07503542 0.009909404 -0.1181827 -0.117258586 -0.069640286 0.014536587 -0.038156837
0.076838136 -0.05240344 -0.13843817 0.029732134 -0.045172624 -0.14602208 0.043330763 -0.025272066
0.13434362 -0.13097848 -0.035456214 -0.013359838 -0.010717791 -0.14078844 0.07688091 -0.13875887
-0.07456799 -0.11440704 0.08951264 0.05084897 0.033752903 0.11938487 0.12937324 -0.13548078
-0.12291649 0.090205945 0.014337484 0.06753406 0.11164164 0.06669125 0.09246422 -0.09094112
-0.09110041 -0.027769752 0.08996177 -0.09745639 -0.12771454 -0.060146652 -0.0165853 -0.030406937
0.0021544816 0.11433489 -0.13971397 -0.09867664 -0.13904256 0.06363597 -0.14362258 0.09686037
0.03367647 -0.054376196 -0.10985432 -0.07559519 0.11503286 0.024175283 0.04424559 0.071700744
0.12798782 0.022368044 0.09380552 0.0036108452 -0.054450333 -0.024111753 0.08125154 0.06690701
-0.030391729 -0.10066373 -0.06802224 0.10013181 -0.09874306 -0.07210063 -0.037984572 0.0941164
-0.12862003 -0.009554158 -0.057129733 -0.09353519 0.033475515 -0.12041465 0.06429327 0.10392308
-0.06338225 -0.1399965 -0.1308636 -0.08417605 0.08783796 -0.12269689 0.11894172 0.14096439
-0.11341668 -0.035695296 -0.012586104 0.11851521 0.08075874 -0.12848648 0.003743893 0.0835288
0.13081206 -0.122160114 -0.04054457 -0.08377314 -0.10885516 0.1161844 0.11482393 -0.05990615
-0.093191184 0.07213864 -0.13645859 0.09010531 0.14822233 -0.06364203 0.10768041 0.11686684
-0.036675468 0.100016624 -0.03530832 0.058720548 -0.023319738 -0.052205455 0.08454401 -0.096207574
-0.11306587 0.002666633 -0.11929153 -0.005185435 0.055367697 0.020720592 0.043707438 -0.03741278
-0.07910745 -0.14487486 0.009753944 -0.0065171416 0.12252779 -0.039236035 -0.1414416 0.005283043
-0.033569045 0.0310995 0.14170457 -0.013375552 -0.010561103 -0.04828685 -0.03803242 -0.12076987
0.13123384 -0.10658717 -0.05072838 0.040262382 -0.02168042 0.10704185 -0.051864542 0.028322563
0.102745935 0.064114176 -0.03059773 0.039023146 0.005959227 -0.08090529 -0.10529035 0.12891553
0.07595438 0.05893411 -0.08671279 0.011293209 0.004062387 0.12834102 0.03282918 -0.13619798
-0.13988285 -0.09404359 -0.087182336 -0.051361192 -0.022129636 -0.088083014 -0.0031922148 -0.015782626
-0.016230749 -0.054238185 -0.036433198 0.054357518 0.07291773 0.12976228 -0.13658664 0.08567846

fc1.bias f4 [20]
00000000: 57db 0d3d b187 5ebd e464 f6bc 148b 72bd
00000010: d2c3 02bd fcb2 c43c 9a98 1f3d fa47 053d
00000020: e21f 873a e27b 6b3d c220 c63b edcf d9bb
00000030: 60b7 cc3b 76a9 e63c 0c7c 8fbc 807a 15bc
00000040: 5010 14bc 8aa3 f33c 0e63 3dbd 08ea b83c
0.034633007 -0.054328624 -0.030077405 -0.059214666 -0.03192503 0.024011128 0.03896389 0.032539345
0.0010309184 0.05749119 0.0060463855 -0.006647101 0.006247446 0.028156977 -0.017515205 -0.009123445
-0.009037092 0.029741067 -0.046237044 0.022572532

fc2.weight f4 [20, 20, 1]
00000000: a143 5bbc 7f00 86be fc1b 8b3d 4881 1b3e
00000010: a01b be3e 38f5 63be 6cd6 e33d 7021 aa3e
00000020: f9ae 253e b4f9 77be 90e4 fb3d 3f47 1e3e
00000030: 70a5 b13c 9e89 473d 9834 5c3e 5852 c33e
00000040: b019 06bd df49 52be cae0 bebe 2274 753e
00000050: 6057 623c ce4d c2be 1d01 aebe 4050 3abe
00000060: 9e74 863e 3a50 bf3e 501c 713e 7876 a3bd
00000070: 948c 753e 85b1 98be 9164 acbe b03b 89bd
00000080: 44bb b1be 6077 273e f049 543d f0ab 54bd
00000090: 4e0a aa3e 1d90 72be 88e8 dd3d 9630 78be
000000a0: 9888 073d 3ee1 913e 1e4b b33e 9ab1 a7be
000000b0: 5c96 33be 442a d03d d89c 7abe 509b 5dbd
000000c0: 1020 9a3d 9afc 06be 10bc c33c 586b 113e
000000d0: 897b 18be 7ef5 4ebe 751d 12be 7837 67bd
000000e0: 602e 48bc 82f4 8d3e e04f a7be d8cb e73d
000000f0: 4783 b0be 8c04 643e 6e27 be3e 8c50 1d3e
00000100: b8d6 763d 2c01 a23d 7879 fc3d 7076 8abc
00000110: 70ae 613e c9ec 61be 4070 92bd ac97 c03e
00000120: 5053 03be 0cc9 9bbd 2c0f eabd 8aef a63e
00000130: f479 1a3e c315 78be daa9 85be 36e2 963e
00000140: 0424 743e 70c1 febc d765 91be 0067 9cbd
00000150: 07e7 3fbe e85e 873d ecf9 3d3e a0dd b93c
00000160: 6011 95bc 768b a93e 8c3a f5bd 6086 123c
00000170: 3656 8a3e 81e5 c2be d65c c03e baf7 c0be
00000180: 38ce 243e d69d 38be f25a 7bbe e4a0 a7be
00000190: aa96 d83d 5935 93be c393 8dbe 22ab 6bbe
000001a0: df17 433e a58d b0be 786b 793e 6ef1 dabd
000001b0: 4ab2 c03e ed8b b73e c99c 23be 5d29 60be
000001c0: acba 7a3e 0eed d93d ac96 8a3e df3c a2be
000001d0: 608f cebd 6f0b 893e 6f54 17bc d332 0a3d
000001e0: e765 97be ef5b 9bbe d4d8 b23e 70f3 f0bd
000001f0: 463a 86be 2c23 403e 13d9 80be 33e5 16be
00000200: c044 e13c ec3c 943d f4e2 503e c0b4 ac3d
00000210: e810 c6be 8f6d 96be 3c60 9cbe f8cd 58bd
00000220: 441e 81be 20b2 603c e01b 08bc 3ebf 41be
00000230: 9c99 10be 582e 573e 7d84 4ebe ca45 c1be
00000240: 8171 243e 7786 2dbe 5afe b83e 8422 ac3d
00000250: 5029 47bd a640 cf3d 2818 b6be e43c 68bd
00000260: bbe5 a6be 611f 99be 348b c2bd 5af0 bc3e
00000270: 0536 b0be 8bd5 0cbe 4c46 9b3e 3bc6 d83c
00000280: 73d5 8abe 204e 1fbd 71b5 bcbe dacf 45be
00000290: 306b ad3e fdd4 2cbe 5cc7 6c3e fc34 a53e
000002a0: 84c3 a73e 50d9 ec3d 2a3e 9c3e 209e 553d
000002b0: a4b1 afbd 345b 88bd 209f 5a3d aca6 9f3e
000002c0: 903f 363e 03d2 b2be 60b6 c9bd 83c4 adbe
000002d0: 4216 f6bd 0307 413d 0022 893b 06e0 ad3e
000002e0: 0cb2 f63d 18b5 273e 8092 59bd 4f52 993e
000002f0: 11de 46be d449 803e 5ede a63d 84b7 8d3d
00000300: 9e89 c03e 5f2a 98bd 9c9b af3e 8872 8c3d
00000310: 54b4 3b3e f057 f3bc 43a3 6cbe fb8c 0f3d
00000320: 082b 9ebe 4ee6 483e 2047 b43d 605b f7bd
00000330: 782a b9be c623 b53e aeb4 893e 1f0a bd3e
00000340: 87c5 af3e 48bf 72be ada6 acbd 2e3e 143e
00000350: ae93 a53e d7b2 80bd b14d 30be b08a f53c
00000360: a02d bdbd 57bb 9dbe 0431 a33e 5f8b 9b3e
00000370: f0dd 213e 13ec 84be 0f16 babe c2e9 bb3e
00000380: 5b12 40be 1864 2dbe a252 be3e 25ef 9ebe
00000390: c05d 3e3e 8071 513b 3011 c4bc c402 8cbd
000003a0: 386e 9abe 0091 193d 96b1 b43e 48e2 803e
000003b0: 9bbb 92be c010 7a3d 882c b8bd d005 73bd
000003c0: 142b 9cbe bdc7 273e 2ab5 ae3e fc01 bbbe
000003d0: b49d 523e 1472 a53d 409b 65bd 286e 6a3e
000003e0: ac89 9abd 6586 48be 7615 913e 6c70 12bd
000003f0: 345c 4c3e 3b8c 1e3e ae40 883e c821 9fbd
-0.013382823 -0.26172253 0.06792447 0.15186036 0.3713045 -0.22261512 0.11124882 0.33228636
0.16180028 -0.24216348 0.12299454 0.15456866 0.021685332 0.048715226 0.21504438 0.3814876
-0.03273934 -0.20535992 -0.37280875 0.23970082 0.013814777 -0.37949985 -0.33985224 -0.18194675
0.26260847 0.37365896 0.23545957 -0.079815805 0.23979408 -0.29822937 -0.33670476 -0.067008376
-0.34713185 0.16354132 0.051828325 -0.051921785 0.33210987 -0.23687787 0.108353674 -0.24237284
0.03308925 0.2849216 0.35018247 -0.32752687 -0.17537826 0.101643115 -0.24473894 -0.054103196
0.07525647 -0.13182297 0.023893386 0.14201105 -0.14890875 -0.20210835 -0.1426905 -0.056449383
-0.012218088 0.27725607 -0.32678127 0.11318177 -0.34475157 0.2226736 0.37139457 0.15362757
0.060263366 0.0791038 0.12327856 -0.016902179 0.22039199 -0.22062983 -0.07150316 0.37615716
-0.1282475 -0.07606706 -0.11428675 0.3260463 0.15085584 -0.24227051 -0.2610615 0.2946946
0.23841864 -0.031098098 -0.2839801 -0.07636833 -0.18740474 0.06609899 0.18552369 0.022688687
-0.018196762 0.33114213 -0.119740576 0.00894317 0.270189 -0.38065723 0.37570828 -0.37689
0.16094291 -0.1802896 -0.24546412 -0.32739937 0.10575612 -0.2875164 -0.27651796 -0.230145
0.19052075 -0.34483066 0.24357402 -0.1069058 0.37636024 0.35848942 -0.15977778 -0.21890779
0.24485272 0.10640918 0.2706808 -0.31687066 -0.1008594 0.26766536 -0.009236439 0.033739876
-0.29569933 -0.30343577 0.34931052 -0.11765182 -0.26216334 0.18763417 -0.25165614 -0.1473587
0.027498603 0.072381824 0.20399076 0.08432913 -0.38684773 -0.29380462 -0.3054217 -0.052930802
-0.25218403 0.013714343 -0.008307427 -0.1892061 -0.14121097 0.21013772 -0.20167728 -0.37748557
0.16058923 -0.16945826 0.36131555 0.08405021 -0.048623383 0.101197526 -0.35565305 -0.056698695
-0.32597145 -0.29906753 -0.09499207 0.36902124 -0.34416214 -0.13753335 0.3032707 0.026461711
-0.27115974 -0.038892865 -0.3685718 -0.1931757 0.3387084 -0.16878124 0.23122925 0.32266986
0.32766354 0.115648866 0.30516177 0.052152753 -0.08578804 -0.066580206 0.05337441 0.31181848
0.17797685 -0.3492585 -0.098492384 -0.3393899 -0.12015964 0.047125828 0.0041849613 0.3395998
0.120456785 0.16377676 -0.05311823 0.2994561 -0.19420649 0.25056326 0.08147882 0.069197685
0.37604994 -0.07429957 0.34298408 0.068577826 0.18330508 -0.029705018 -0.23109154 0.03504656
-0.30892205 0.19619104 0.088026285 -0.12077975 -0.36165214 0.35378855 0.2689566 0.36921784
0.3433039 -0.2370578 -0.084302284 0.14476845 0.32339233 -0.06284111 -0.17217137 0.029973358
-0.09237218 -0.3080699 0.31873333 0.3037977 0.15807319 -0.2596136 -0.36344954 0.3670178
-0.18757002 -0.16932714 0.3717242 -0.31041828 0.1859045 0.003195852 -0.023933977 -0.06836465
-0.30162215 0.0374918 0.35291737 0.2517264 -0.28658757 0.06105113 -0.08992869 -0.059331715
-0.30501616 0.16384788 0.34122592 -0.3652495 0.20567971 0.08078399 -0.05605626 0.22893584
-0.0754579 -0.19582517 0.28336686 -0.035751745 0.19957048 0.15483181 0.26611847 -0.07770115

fc2.bias f4 [20]
00000000: f5ae 9abc 9067 903d 34c4 83bd b0d0 7cbd
00000010: 004e 003e 8822 ddbc 2c73 e33d 64cd 3cbe
00000020: 78bc 51be e7dc 223e 8636 60be 483a 193e
00000030: 7dfc ce3d 85a9 ca3d 0884 4a3e 8f4e 273c
00000040: b41a 1cbd b40c b53d efdc 903d 7c86 563e
-0.018882254 0.07051003 -0.06433907 -0.061722457 0.12529755 -0.026994005 0.11105952 -0.18437725
-0.20482051 0.1590458 -0.21895799 0.14963639 0.10106752 0.098956145 0.19776928 0.010211601
-0.038111404 0.088403136 0.0707339 0.20949739

fc3.weight f4 [1, 20, 1]
00000000: bb6d bbbe 991d 07bf 67fb fcbe 368c a0be
00000010: ae31 99be 30a9 a8be a249 31be ddc9 6abe
00000020: 0c2c 69be 47ce b13d dcee 25be 2897 d7bd
00000030: 6f85 ec3d e894 61be b08e 8fbd d6f6 e43d
00000040: 1044 9abd f0a3 a63e 90eb 863e 1810 68be
-0.36607155 -0.5277954 -0.49410555 -0.31356972 -0.29920715 -0.3294158 -0.17313245 -0.22928567
-0.22770709 0.086819224 -0.16204399 -0.10526878 0.11548888 -0.2202946 -0.07009637 0.11179893
-0.07532513 0.3254695 0.26351595 -0.2266239
