Task assignment/drl4vrp/vrp/10/20_05_18.844960/checkpoints/4/actor.pt (torch, 734651 bytes, 14 tensors)

static_encoder.conv.weight f4 [128, 2, 1]
000000 71 27 da 3d 6e 05 94 3d 1e 48 bc 3d f7 20 c4 bd
       0.10652054 0.07227598 0.09193443 -0.095766
000010 8c eb 26 be f7 34 a1 bd 6b 1d 3e bd 4f df 6c bd
       -0.16300792 -0.0787143 -0.046414774 -0.05783015
000020 aa c5 89 3d a8 d5 07 be 34 ba a7 3d 67 fa 24 3e
       0.067271546 -0.13265097 0.08189812 0.16111146
000030 4f 00 56 3e a2 43 0c be ec 38 cf 3d d3 66 b1 bd
       0.20898555 -0.13697675 0.10118279 -0.0866219
000040 bb c9 8c bd 95 29 e5 bd d4 86 1b 3e 8f 89 54 3e
       -0.068744145 -0.11189572 0.15188152 0.207556
000050 44 a3 d0 3d 2f c8 fe bd f8 2c 6d bd b0 6a a6 bc
       0.101873904 -0.12440526 -0.057904214 -0.020314544
000060 f2 50 0d 3e c9 bc 05 be 72 be fd bd 9b 70 b9 3d
       0.1380041 -0.13060297 -0.1238984 0.09054681
000070 3b 86 16 be bb 30 f0 bd 30 1f 45 3c 06 e9 fc 3d
       -0.14699642 -0.117280446 0.012031361 0.12349133
000080 05 02 09 be 47 5f f4 bd 67 be 2f be 62 59 ad bd
       -0.13379677 -0.11932235 -0.17162476 -0.08464314
000090 61 3f 9a 3d e8 b7 e6 3c 19 d2 fa bc 3c 91 43 bd
       0.0753162 0.028163865 -0.03061776 -0.04774593
0000a0 45 32 dd 3c c0 fa 91 3c dd d4 92 3d af c9 6f 3c
       0.02700151 0.017819762 0.07169507 0.014635487
0000b0 27 87 ac bd 45 4f ff 3d 9c 40 50 bb fd c9 07 be
       -0.08424216 0.12466291 -0.0031776791 -0.13260646
0000c0 da dd 22 be 76 1c 2b 3e 37 3a 00 3e b2 a5 db bb
       -0.15904942 0.16710076 0.12522207 -0.006703102
0000d0 d0 99 1c bd 59 10 17 be 07 57 f4 3d 74 7c 25 bd
       -0.038232625 -0.1475233 0.11930662 -0.04040189
0000e0 bf 4e a7 3d 9f 37 42 be e6 61 44 3d 20 6c 21 be
       0.081693165 -0.1896653 0.047944926 -0.15763903
0000f0 a4 1b 20 3c 55 34 de 3d 89 df 87 bd 55 d9 2a bc
       0.009772215 0.10849825 -0.06634433 -0.010427793
000100 69 ac 0c be 4c d6 4b 3e 55 78 37 3e fc 80 31 3e
       -0.13737644 0.19905967 0.17916997 0.1733436
000110 a8 b3 45 be 64 bb af 3d 32 ac 0d be 08 a5 63 bc
       -0.19306815 0.08580664 -0.13835219 -0.013894327
000120 94 fd a9 bc 05 11 0e be 2e 07 04 3d b7 e8 a4 bd
       -0.020750798 -0.1387368 0.03223341 -0.08052199
000130 46 55 55 3d 36 61 2a 3e f8 e9 4e be 27 18 35 be
       0.052083276 0.16638646 -0.2020644 -0.17684995
000140 57 4e 0c be 2d ea 1a bd 01 2a 28 3e e1 e3 16 3e
       -0.1370176 -0.037820984 0.16422273 0.14735366
000150 5d 3f 6c 3d 52 cb 16 3e c8 65 c6 bd 09 66 67 bd
       0.057677615 0.14725998 -0.09687382 -0.056493793
000160 15 4e 20 bd 04 2a 81 3c 6b 35 81 3c 04 8e f5 bd
       -0.039136965 0.015767105 0.015772542 -0.11989978
000170 b0 05 fc bd 11 78 a5 bc ef 18 99 bd ca af aa 3d
       -0.12305772 -0.020198854 -0.07475459 0.0833431
000180 7e 50 03 bb cc e0 9e bd 8f 0f 0a be ba 4c ee 3d
       -0.002003699 -0.0775772 -0.13482498 0.11635728
000190 89 4f 90 3d bf a5 ca 3d 27 23 2d be b7 bd 16 be
       0.0704642 0.09894895 -0.16907941 -0.14720808
0001a0 5e 8a 03 3e 9d 7c 15 be f9 4e d1 bc bf bf a8 3d
       0.12845752 -0.14598317 -0.025550352 0.08239698
0001b0 7a 8f 55 3e 14 f4 4b be fc f2 07 3e 53 8f 3f be
       0.20855513 -0.19917327 0.13276285 -0.18707018
0001c0 e6 42 44 bc 04 3d 41 3e ff 37 2e 3c e2 33 30 be
       -0.01197884 0.18870932 0.010633468 -0.17207292
0001d0 36 07 9b bd 3e bd c8 3c 8d 89 0e 3e 04 4c 8a 3d
       -0.07569735 0.0245043 0.13919659 0.0675278
0001e0 80 5c ad bd 40 e1 fa 3b 71 c7 1b be 82 c2 36 3e
       -0.084649086 0.0076562464 -0.152128 0.17847636
0001f0 36 78 5b 3d 58 d6 1b 3e f8 41 ca 3d 28 5f 8e 3d
       0.05358144 0.15218484 0.09875864 0.06951743
000200 70 0b c0 3d 3c e4 8d bd 0d 7a e3 bd 67 75 ff bd
       0.093771815 -0.06928298 -0.11107264 -0.124735646
000210 dc e1 83 bd 64 ec 48 be 36 01 74 3d 8f 82 12 bc
       -0.06439564 -0.19621426 0.059571467 -0.00894226
000220 3b ff 94 3b 98 29 1b be 6a 7d 1f 3e 0b 5c 80 bd
       0.0045470274 -0.15152586 0.15575185 -0.06267556
000230 4a c0 4a be a5 92 03 3d f7 08 36 3e 3d ea a2 bd
       -0.19799915 0.032122273 0.17776857 -0.07954834
000240 34 ea b2 39 33 83 16 be 39 71 35 bd 7e 7b 3c be
       0.000341253 -0.14698486 -0.04429743 -0.18406484
000250 bb 4d 2f bd fb 88 db bd 11 0e fc bc 35 cd a0 3d
       -0.04279874 -0.10719486 -0.030768426 0.0785164
000260 ff 01 5b 3d ca ef f4 bd 23 30 84 3b ff 55 10 be
       0.0534687 -0.11959799 0.0040340587 -0.14095305
000270 e5 72 16 bd 48 c9 c4 3d d0 2b 67 bc cf 5a b7 bd
       -0.036730666 0.09608704 -0.014109567 -0.08952867
000280 24 9f 19 be 12 92 6b bd bf 1e 2f 3e 27 59 6c 3d
       -0.15002114 -0.05751235 0.17101572 0.05770221
000290 ae e4 42 3d 74 44 60 3a 95 24 4b 3e 50 d7 0d be
       0.047581367 0.0008555122 0.19838174 -0.13851666
0002a0 a0 72 53 be 3c 60 04 be 85 07 30 3e 7e 7c ef bd
       -0.20649195 -0.12927336 0.17190368 -0.11693667
0002b0 ee 0d 4f 3e 02 58 94 3c 5a be 21 3e e9 0e e7 bd
       0.20220158 0.018108372 0.1579527 -0.11282141
0002c0 0c 7a 15 3e 7a b4 72 bd 59 c1 58 3e 34 8e 31 be
       0.14597338 -0.059254147 0.21167506 -0.17339402
0002d0 6d 1f 85 3d 4c 38 26 3e 3c d9 ad bd e4 ca 21 3e
       0.065001346 0.16232413 -0.084887 0.15800053
0002e0 cf b6 9b 3d 3f d2 4e 3e 12 38 32 3e 6e d6 13 be
       0.07603227 0.2019739 0.17404202 -0.14437267
0002f0 15 f3 0f bd ab 4a 00 3e 14 8c dc bc a5 9c dc bd
       -0.03514393 0.12528484 -0.026922263 -0.10772065
000300 8a 43 b5 bd 53 30 28 be a7 d8 1b be 18 d9 47 be
       -0.08850773 -0.16424684 -0.15219365 -0.19516408
000310 ff 33 bf 3b 3e 9a 22 be 93 70 6b bc ef 22 0e bd
       0.005835056 -0.15879151 -0.0143701015 -0.034701284
000320 6c 3d d3 bd 3b c6 4f 3e 18 aa 5f 3d 29 28 1c 3d
       -0.1031445 0.20290463 0.054605573 0.038124237
000330 77 bf 91 bd 88 6e a2 bc 03 c7 4b 3e 7c 3d 44 3d
       -0.07116597 -0.019828096 0.19900136 0.0479102
000340 ce 0a 6c 3d 51 d6 c4 3d 5d 2a 7d 3d 5e 07 70 bd
       0.05762749 0.0961119 0.06180798 -0.058600776
000350 3a 7e 0a 3d 67 1b 3b 3e ae 61 24 be 83 b0 7c bd
       0.033811785 0.18272172 -0.16052887 -0.061691772
000360 00 93 3a 3e e1 73 0e 3d 66 2b f6 bd 5f 06 aa bd
       0.18220139 0.03477848 -0.12019996 -0.083019964
000370 58 8f 21 be 78 20 97 bc ca 5c 38 3e a3 97 78 3d
       -0.15777338 -0.0184481 0.18004146 0.060691487
000380 f8 d6 b1 3d 88 d7 46 3e 20 28 03 3e 48 b8 2f be
       0.0868358 0.19418156 0.12808275 -0.17160141
000390 df 16 2f bd 9a c0 6a bd e4 6e fa 3c f7 ca 29 be
       -0.04274642 -0.057312585 0.030570455 -0.16581331
0003a0 48 43 c2 bb b0 c8 2f 3e 36 78 31 be 9a 94 ec 3b
       -0.0059284307 0.171664 -0.17331013 0.007219863
0003b0 af 54 c1 bd 64 90 e8 3c 1b 28 8b bc e3 26 ae bd
       -0.0943998 0.028389163 -0.016986897 -0.08503511
0003c0 d9 50 3b 3d 27 62 3c 3e 4f d8 52 bc df 4f 2e bc
       0.0457314 0.18396817 -0.012868955 -0.01063916
0003d0 c3 e6 af bd 76 ef 88 bc 36 c9 10 3d 8e 78 66 bd
       -0.08588936 -0.016715746 0.03534814 -0.056267314
0003e0 d8 f3 96 bd e4 f9 f8 bc c6 52 0e 3e 3d 2c 3e 3e
       -0.07370728 -0.030392595 0.13898763 0.18571563
0003f0 fe b0 19 3e bd 5f 3a 3e 67 b8 51 3e 7c 11 85 3d
       0.15008923 0.18200584 0.204805 0.064974755

static_encoder.conv.bias f4 [128]
000000 7d e6 29 3f b8 59 d3 3e 49 3d 34 bf cc c7 95 bd
       0.6636732 0.41279387 -0.70406014 -0.07313499
000010 39 04 90 be 10 0e a7 3e e9 e1 4f bd 33 c0 a1 3e
       -0.28128222 0.32627916 -0.050752554 0.3159195
000020 17 70 19 bf fd cd 00 3e ad 9c 1b 3f 69 b1 92 be
       -0.5993666 0.12578578 0.60785943 -0.28650978
000030 d4 cf df bc 68 5e eb 3d 58 9d 25 3f 23 ab 19 bf
       -0.02732078 0.11492616 0.6469321 -0.6002676
000040 7d c1 ce 3e f9 59 4d 3e cd a4 f5 be d0 48 2d 3f
       0.40381995 0.20053853 -0.47977296 0.6768923
000050 83 93 e3 3e ab c2 d1 3e c1 0f 9a 3e f5 1d 87 3e
       0.4444848 0.40968832 0.30090144 0.26390043
000060 25 09 c9 bd bb 57 08 3f 83 de 30 3f 86 85 0c 3f
       -0.09816197 0.53258866 0.69089526 0.5489124
000070 dc 20 af 3e 1c 0b 39 3d d1 37 0f 3e 5f 41 0a bb
       0.34204757 0.04517661 0.13986136 -0.0021096093
000080 c3 ff 1c be 6d 81 1f 3f 2c 9b 6d 3e 87 54 f3 3e
       -0.1533194 0.62306863 0.23203725 0.47525427
000090 46 d5 40 3e 0b 85 95 be 09 f3 0e bf a3 78 7c 3d
       0.18831357 -0.29203066 -0.5583959 0.061638486
0000a0 f5 84 b7 3e d1 82 a0 bd c5 3a e3 3d 5c 5f c3 3e
       0.35843626 -0.07837451 0.11095194 0.3815869
0000b0 00 5a af 3a 28 14 88 be b3 ca 1a bf c7 b2 e0 3c
       0.0013378263 -0.26577878 -0.60465544 0.027428998
0000c0 ab 67 91 be bb df ca 3e 63 f6 d1 3d 39 9b c7 be
       -0.28399405 0.39623818 0.10252073 -0.38985613
0000d0 47 d1 fb be 97 6e f1 be c4 11 9e 3e a1 a4 32 3f
       -0.49183103 -0.47154686 0.3087293 0.69782454
0000e0 6e 12 be 3e 10 b0 2e 3f b6 b4 11 3f fc 82 f4 3d
       0.37123436 0.682374 0.5691637 0.11939046
0000f0 59 32 08 bf 4f c7 0c 3f ba 5c 19 3f 5d 82 c2 be
       -0.53201824 0.5499162 0.59907115 -0.37990084
000100 99 fc 32 bf 9c 91 00 bf c8 9f 9c be 37 3b 26 bf
       -0.69916683 -0.5022218 -0.30590653 -0.64934105
000110 2f 96 2c 3f e2 b5 26 3e 87 ea 8b be 7a b6 4d be
       0.6741666 0.1628032 -0.27327368 -0.2008914
000120 3a 9a 27 bf 33 1c 97 3e 4c f2 ad bd 18 8b b0 be
       -0.65469706 0.29513702 -0.0849348 -0.3448112
000130 ff 7c d1 be d6 b6 07 3d b1 60 61 3e ec ae 68 be
       -0.40915677 0.03313335 0.22009541 -0.22722977
000140 15 15 9e 3e 28 31 6b 3d 95 22 23 3f 37 19 5f 3e
       0.3087546 0.057419926 0.63724643 0.21786962
000150 0d 59 cf 3e d0 d8 a4 3e e0 b9 75 3e 97 44 0c 3f
       0.40497628 0.32196665 0.23996687 0.5479216
000160 51 48 02 3f 87 2c e5 bd 91 81 f7 3e 5c 15 28 bf
       0.50891596 -0.111901335 0.4834104 -0.6565759
000170 13 75 c0 be 76 be 13 bf 7c 83 a6 be 83 94 d2 3e
       -0.3758932 -0.57712495 -0.3252219 0.4112893
000180 e8 cf 7b 3e c6 f5 20 3f 2c 0e 9a 3d 71 92 e9 be
       0.24591029 0.6287502 0.07522234 -0.45619538
000190 ba 06 62 be 75 fb 06 be 2d ba d8 be 75 58 03 3f
       -0.22072878 -0.1318186 -0.4232954 0.5130685
0001a0 42 97 8e 3b 59 67 ad bd b0 86 99 3d 82 c2 38 be
       0.0043515274 -0.084669776 0.07496393 -0.18042949
0001b0 c9 e9 0c 3f f9 13 63 3e 1d e0 42 3d 59 50 d9 be
       0.5504423 0.22175588 0.047577012 -0.42444113
0001c0 8f 82 a1 be 76 fd 24 bf d0 c3 47 3c 50 1e 83 be
       -0.3154492 -0.6444925 0.012192681 -0.25609064
0001d0 84 64 6b be 33 91 58 3d 4b bf 02 3f 07 67 96 be
       -0.22987562 0.052872848 0.5107314 -0.2937548
0001e0 6b a9 d0 3e cf 02 0d be 2f f3 29 bf 25 82 19 bf
       0.40754256 -0.13770603 -0.66386694 -0.5996421
0001f0 9a c3 47 be 85 62 09 3f 21 a2 32 bf 13 80 f7 be
       -0.1950821 0.53665954 -0.6977864 -0.483399

dynamic_encoder.conv.weight f4 [128, 2, 1]
000000 36 29 11 be cf cd 10 3e 0f 93 55 3d 5b a4 0a 3e
       -0.14175877 0.1414101 0.0521422 0.13539259
000010 71 45 fa bb 33 6c c2 3c ee 37 4f be 2d db 4a 3e
       -0.0076376726 0.023733234 -0.20236179 0.19810171
000020 2f b0 4f 3e 24 8a ec 3c f4 02 01 3d 9f 24 fd 3c
       0.20282052 0.028874464 0.031496957 0.030901251
000030 82 e6 03 3e 43 fd 42 be fc b6 3c be 2e c7 12 3e
       0.128809 -0.19041924 -0.18429178 0.14333794
000040 c7 ae ac 3a 79 48 0a 3e ad 11 ba bc ce 08 94 bd
       0.0013174646 0.13504209 -0.022713507 -0.07228242
000050 ed fd 52 be dd a0 c0 bd 40 58 15 be 79 0d e7 3d
       -0.20604677 -0.09405682 -0.14584446 0.112818666
000060 a6 9a 04 3e 07 b2 ac 3d 20 e0 97 bd ac 65 41 3d
       0.12949619 0.084323935 -0.07415795 0.047216102
000070 0f 37 48 be a9 4c 41 be 5b d9 f6 bd 63 a3 05 be
       -0.19552253 -0.188769 -0.12053176 -0.13050608
000080 61 18 25 3e 90 e2 d7 3d 11 20 e1 bd e0 5a 42 3e
       0.16122581 0.1054126 -0.10992444 0.18979979
000090 e6 82 16 3e 22 b6 b8 3d 8e 88 4c 3e d1 02 3e bd
       0.14698371 0.09019114 0.19973966 -0.046389405
0000a0 56 8f f6 3d 29 1b 49 3e 8c 97 33 be 3a 8c 19 be
       0.12039058 0.19639267 -0.1753828 -0.14994898
0000b0 ae 01 54 be 3d 7f cf 3b db 07 22 3e 82 fa ee 3d
       -0.20703766 0.0063323067 0.15823309 0.11668874
0000c0 f0 10 89 3d 39 03 f8 bd 41 cc 8f 3d 7e 26 0d 3e
       0.06692684 -0.1210999 0.0702138 0.13784215
0000d0 71 12 36 be 8c 56 43 3c 77 82 7d 3d a2 af 41 3e
       -0.17780472 0.01192249 0.061892 0.18914655
0000e0 17 6e 6f bd 6a ba 29 3e 26 93 e2 bd af ee 0e be
       -0.0584546 0.16575018 -0.110632226 -0.13958238
0000f0 fc 67 01 be 74 af 34 3e a5 70 33 3e 00 71 8d bd
       -0.12637323 0.17645055 0.17523439 -0.06906319
000100 d1 e2 3d be d9 9c d1 bd d9 00 f5 bd 09 e2 80 bd
       -0.18543555 -0.102349944 -0.11963052 -0.06293113
000110 53 75 3b bd 3a c9 99 bd 1d 4f 34 3e de 7e 82 3d
       -0.045766186 -0.07509084 0.17608304 0.06371854
000120 90 cb 42 be b5 14 df 3c e4 2e 93 bd 47 c7 52 3e
       -0.19022965 0.027231554 -0.07186678 0.20583831
000130 93 36 40 3e c6 c7 26 be 48 3d cf 3b 48 b5 09 be
       0.18770818 -0.16287145 0.006324444 -0.1344806
000140 26 fd d9 bc f6 f3 c2 bd 15 d3 9b 3b 08 f9 14 be
       -0.026609968 -0.09519188 0.0047553875 -0.14548123
000150 40 cd 95 bd cc 46 1b be b4 21 ef 3d d1 72 3f 3c
       -0.07314539 -0.15163726 0.1167635 0.011685089
000160 b2 9e 2e 3d d0 a5 16 3e a4 37 40 3e a9 92 2b be
       0.042631812 0.1471169 0.18771225 -0.16755165
000170 84 15 47 bc 36 c0 3a 3e fb 36 0d be dd 9f d5 3d
       -0.012151126 0.18237385 -0.13790505 0.10430882
000180 db 96 22 bd 33 48 76 bd 85 1d b8 bd e1 c0 1d be
       -0.03969465 -0.06012745 -0.089900054 -0.15405609
000190 8d 67 74 bd 9b ee 29 3e 4f b3 83 3c 6c 18 ba bd
       -0.059669066 0.16594927 0.016076712 -0.09086689
0001a0 90 91 f7 3d 01 8e 6c 3d 1c 26 08 3d c7 c6 46 3e
       0.12088311 0.057752613 0.03323947 0.19411765
0001b0 f3 96 54 3e 96 eb f5 3d 99 1b 9b bb 74 5f 22 be
       0.20760708 0.12007825 -0.0047335145 -0.15856725
0001c0 5e 5f bc 3d 51 5f d1 bd 58 78 51 3e 94 c2 f4 3d
       0.09197877 -0.10223258 0.20456064 0.11951175
0001d0 77 8b 4a be d2 d0 4a 3d 09 4a 1c be b1 f3 2c be
       -0.19779764 0.049515553 -0.15262617 -0.16889836
0001e0 3a af 10 3d f9 09 ff 3d ca bb 04 be c3 d1 2d 3e
       0.03532336 0.12453074 -0.12962261 0.16974549
0001f0 a0 96 a0 bc 5e 6b 42 3d 37 75 1a bd 3e 29 88 bd
       -0.019603074 0.047465675 -0.03770944 -0.06648491
000200 1e ce c5 3c 63 57 b7 bd ee 95 34 3e f0 36 44 be
       0.024146136 -0.089522146 0.17635319 -0.19161582
000210 18 34 95 bc be 63 08 3e 6e 9a 56 be fc 72 d6 bd
       -0.018213317 0.13319299 -0.20957348 -0.1047115
000220 c6 82 59 be 91 b5 38 3e d1 34 4e be 73 07 63 3d
       -0.21241292 0.18038012 -0.20137335 0.055427026
000230 89 f3 df 3c 94 1e dc 3d b8 06 53 3e 04 3e 58 be
       0.027337806 0.1074802 0.20608032 -0.21117407
000240 0f 05 3a be 76 0b 2f 3e d1 a6 87 3b a4 f2 ec bb
       -0.18165992 0.17094216 0.004139759 -0.0072310735
000250 10 e1 18 be 47 ca 18 3e a3 16 34 be c6 8c 14 be
       -0.14929605 0.14920913 -0.1758676 -0.14506826
000260 e0 47 65 3c 3b e2 ff 3d c1 bb fc bc 74 75 d8 bd
       0.013994187 0.12494322 -0.030851247 -0.105692774
000270 4e ae 52 3e 59 f3 c8 bc e6 86 88 3d 03 00 17 be
       0.20574304 -0.0245301 0.06666355 -0.14746098
000280 74 1c 9e bb 6e ca 47 3d 26 f9 89 bd a4 87 c2 bc
       -0.004825169 0.048777036 -0.067369744 -0.02374632
000290 ef 15 15 3e 59 42 e0 3d 6b b0 2f be ea 9c f5 3d
       0.14559148 0.10950155 -0.17157142 0.119928196
0002a0 02 e6 dd bd 2a 3b 4c bd 00 e6 05 bd 89 1b 6f bc
       -0.10834886 -0.04986111 -0.03269005 -0.014593967
0002b0 66 32 a7 3d ae d7 4e 3e d7 27 53 be 49 4b d8 3d
       0.081639096 0.20199463 -0.20620666 0.105612345
0002c0 f9 c9 d1 3d ab 44 1e 3d ae 1e cd bc 27 f8 fa bd
       0.10243601 0.038639706 -0.025039043 -0.122543626
0002d0 2a 43 2b 3d 7d 8c 2b 3c 19 f4 35 3e 52 4f 13 be
       0.0418121 0.010470507 0.17768897 -0.14385727
0002e0 75 43 1e 3e 83 09 07 be d0 c7 5a be eb fb 1b be
       0.1545542 -0.13187222 -0.21365285 -0.15232818
0002f0 cd 96 58 3d b8 7f ea bc 46 a6 cb bd e4 a8 11 3e
       0.05287819 -0.028625354 -0.099438235 0.14224583
000300 5e ad 31 be c2 81 12 bd 56 b4 40 be 45 8d db 3d
       -0.1735129 -0.035768278 -0.18818793 0.107203044
000310 0d db 02 bd 15 d4 79 bd 00 5f 3b be 04 e1 02 be
       -0.031947184 -0.060993273 -0.18297958 -0.12781149
000320 27 6c ab bd a2 d1 36 be da 6d 48 3e 16 a9 22 be
       -0.08370238 -0.17853406 0.19573155 -0.15884814
000330 fa 26 52 3e 99 9e 9a 3c d1 9f 15 bc bd 43 1a 3e
       0.20522681 0.018874453 -0.0091323415 0.15064903
000340 a5 de 46 bb c8 3d 45 be 26 b0 89 3a ce 40 6f 3b
       -0.0030345109 -0.19261849 0.0010504767 0.0036507132
000350 2b f8 c6 3d 35 d5 a7 ba 0e 65 33 3e 61 e7 b9 bd
       0.09715303 -0.001280463 0.17519018 -0.09077335
000360 9c 38 23 3e e9 3f ab 3c 5d f4 60 bd c2 05 26 be
       0.15939564 0.020904498 -0.054920543 -0.16213134
000370 01 77 34 be 21 d8 91 3a 0a 0e 4f 3e 11 71 a0 bd
       -0.17623521 0.0011127034 0.20220199 -0.07834066
000380 d5 b0 eb 3d 22 3d af bd 9e ec 4e 3d 20 6d cf bc
       0.115083374 -0.08556582 0.050518624 -0.02532059
000390 37 13 ec bd f3 f9 48 3e 37 0a a2 bd 4e 0e 38 3e
       -0.115271024 0.19626598 -0.079121046 0.17974207
0003a0 20 b3 b0 bd 36 ef bd 3c 8e f6 1f 3d 40 19 d4 3d
       -0.086279154 0.023185354 0.039053492 0.103563786
0003b0 51 b0 5f 3d 44 42 e3 bd 8d 72 78 bd 94 bc 71 bd
       0.054611508 -0.110966235 -0.06065612 -0.059017733
0003c0 80 e0 0e 3e c8 fa 0f 3e 9f 45 0f be 92 c5 ad 3d
       0.13952827 0.14060509 -0.13991402 0.08484949
0003d0 5b 55 35 3e 2f 14 40 be 13 48 b1 3d 5c da ab 3c
       0.17708342 -0.187577 0.08656325 0.020978145
0003e0 b2 7b 5e bd bf b2 2b 3e 1a bf 6f bd d6 a2 36 3e
       -0.054317184 0.16767405 -0.058531858 0.17835554
0003f0 59 72 d9 3d 8d 3d bd ba ff 4e f4 bd b4 f8 e9 3d
       0.10617513 -0.0014437899 -0.1192913 0.114243895

dynamic_encoder.conv.bias f4 [128]
000000 35 96 58 3e 77 db f3 be 42 33 dd be a6 40 9d 3e
       0.2115105 -0.47628376 -0.4320317 0.30713385
000010 fa 63 2c 3f 3c 79 fe 3e c2 e7 a3 3e ab 9e f5 3c
       0.6734005 0.4970187 0.32012755 0.029982885
000020 1e c8 23 3f 5f ea da 3d 98 16 19 3c f8 e3 17 bf
       0.6397723 0.10689234 0.009343766 -0.5933223
000030 9d a4 b2 3e ff 44 3c be c8 9d 7d bd 24 4e ab 3d
       0.34891215 -0.18385695 -0.06191805 0.083645135
000040 ac c1 bb be 5c c7 11 3f 91 20 f9 be 07 28 2a bf
       -0.36671197 0.56944823 -0.4865766 -0.66467327
000050 1d 29 72 3e dd 39 e9 be d6 a8 24 3f 03 7b 27 be
       0.23648496 -0.4555196 0.64320123 -0.16355519
000060 c8 a6 84 3e bb b0 4d be 10 32 72 3e 6a 38 86 bd
       0.25908494 -0.20086949 0.2365191 -0.06553729
000070 55 0f b0 be fb 83 e4 3d 6e 96 7c 3e a2 89 92 3e
       -0.34386697 0.11157986 0.2466676 0.2862063
000080 bc 5e 02 bf a9 af dd 3d f2 4f 09 3f be 10 13 3f
       -0.50925803 0.1082452 0.5363761 0.5744742
000090 9d 25 a5 be ab 48 1c 3f 17 49 2a bd 37 dd 00 3f
       -0.3225526 0.6104838 -0.04157361 0.5033755
0000a0 bb bd 13 3f ab 5e 5b 3e 02 85 ff be c2 55 16 bf
       0.5771138 0.21422832 -0.49906164 -0.58724606
0000b0 35 fb 59 3e 1f 9e 51 bd 76 fb 29 be 28 bc 4c be
       0.21287234 -0.051176187 -0.16599831 -0.19993651
0000c0 b9 9f e4 3e a6 50 1b 3f dd 80 3c bd 17 49 cb be
       0.4465311 0.60669935 -0.04602133 -0.397042
0000d0 51 4d 33 3f 18 b8 e8 be e7 85 f9 be fb b2 f9 be
       0.7003985 -0.45452952 -0.48734972 -0.48769364
0000e0 1c 0d ce be 24 a8 d3 3e 13 00 be 3d 8b ae 24 3e
       -0.40244377 0.4133922 0.09277358 0.16082208
0000f0 1a e1 2f bf 7f 1b 51 3e fb 76 b3 3d 3d 8b 1e 3f
       -0.6870285 0.20420645 0.08762928 0.6193121
000100 f6 50 1f 3f 26 a9 b8 be 25 91 00 3d 71 13 98 3e
       0.6223291 -0.3606655 0.03138842 0.29702333
000110 43 05 1d 3f ff c4 70 3d 24 22 06 3c 71 52 d2 be
       0.61336154 0.05878162 0.008186851 -0.41078523
000120 77 74 47 bd b2 36 10 bf 3c a1 2b bf 2b 58 1f bf
       -0.048695054 -0.5633346 -0.670429 -0.6224391
000130 57 95 5b bc 7e 59 8c 3e 0d 01 9b 3e 11 9b d9 bd
       -0.013402305 0.27412027 0.3027424 -0.1062528
000140 9f 8c 1c 3f 60 31 e5 3c e1 01 e3 be 5b e3 b7 3d
       0.6115207 0.027977645 -0.4433737 0.089789115
000150 eb e2 13 bf a6 dd 90 3d 8a c9 13 bf f2 24 ee 3e
       -0.57768124 0.07073526 -0.577294 0.46512562
000160 37 c6 10 3f 98 f9 32 3e a8 7a f3 bd 74 79 f9 3e
       0.5655245 0.17478025 -0.11888629 0.48725474
000170 f9 0b 37 be 9d 80 bb be 48 0c 9e be b9 5e 87 3e
       -0.17875661 -0.36621562 -0.30868745 0.26439455
000180 37 56 19 3f ae 6e d2 be 6c 81 69 be 6d a2 fb be
       0.5989718 -0.41100067 -0.22803277 -0.4914736
000190 43 b0 27 3f b3 9f 27 ba 9c 99 14 bf 98 fa 25 3d
       0.6550333 -0.00063943415 -0.5804689 0.040522188
0001a0 53 66 31 bf 00 c0 28 3d 53 e8 c4 3e cc 4b 27 bf
       -0.6929676 0.04119873 0.384585 -0.6535003
0001b0 8d 9a 14 bf 6b 05 4c 3c 9d 98 ca bd 92 90 c7 be
       -0.58048326 0.012452464 -0.0989239 -0.38977486
0001c0 9b 24 28 3f 07 93 b8 be 30 60 12 3f 55 71 cd be
       0.65680856 -0.36049673 0.5717802 -0.40125528
0001d0 be 61 c6 3c 1e b3 a1 3d 88 00 23 3f fc 2c ce 3d
       0.024216529 0.07895492 0.63672686 0.10067174
0001e0 54 95 04 3f 36 20 b8 3e af 01 77 be 23 34 61 3e
       0.51790357 0.35962075 -0.24121736 0.21992545
0001f0 b2 23 60 3e de ac ac 3e b8 82 d5 3e af 7d a4 3e
       0.21888617 0.33725637 0.41701293 0.3212714

decoder.conv.weight f4 [128, 2, 1]
000000 a0 54 ee 3b ca 5c 27 be 69 e4 59 be 67 5d 1f be
       0.0072732717 -0.1634399 -0.21278538 -0.15562974
000010 5f 62 fb bd 8f bc da bc 7f 2d 0b 3e 60 fe 3d 3e
       -0.12274622 -0.02670124 0.13591574 0.18554068
000020 56 40 15 bd 3f 94 de 3d 0a 89 49 3d d5 72 3a be
       -0.03643831 0.108681194 0.049202956 -0.18207867
000030 4b 3f ac 3d 51 f3 52 3e 5e d2 39 be 79 2c 84 bd
       0.0841051 0.2060063 -0.18146655 -0.06453795
000040 2f ca b6 3d 56 29 8f 3d 8d fb f3 bd b9 55 87 bd
       0.08925282 0.06990306 -0.11913214 -0.06608147
000050 78 82 c7 bd f4 e2 e2 bd 0c 0e 30 3e 91 ce 3b be
       -0.09741682 -0.11078444 0.17192858 -0.18340518
000060 7e 6c ba bc 22 2a fe 3d 9a 69 15 3e 00 aa 84 3d
       -0.022756811 0.1241038 0.14591065 0.064777374
000070 d0 8c 06 be b1 46 cf 3b ca 5b 41 be be ea f8 bd
       -0.13139653 0.0063255657 -0.18882671 -0.121541485
000080 5b 7f ff 3c e6 01 32 be 1c ef 25 3e b6 57 44 3e
       0.031188658 -0.17383537 0.16204494 0.19174084
000090 8d f1 7e 3d 6d 29 d0 3d 6b 1e e6 bd 07 30 2c bd
       0.06224208 0.10164151 -0.112362705 -0.04203799
0000a0 60 e6 40 3e 55 dd 85 3c 39 87 6c 3d 9e 64 a6 bd
       0.18837881 0.01634089 0.057746146 -0.0812466
0000b0 43 e3 9d 3d f8 ed 43 bc 55 8d 57 3e e0 ac b8 bd
       0.07709362 -0.011958592 0.21050008 -0.09017348
0000c0 4a e3 85 3d dc 57 59 3e f5 41 e5 bd 59 7d 32 bc
       0.065374926 0.21224922 -0.11194221 -0.010894143
0000d0 ac 26 20 3e bc e0 9b bc b8 96 76 bd 87 0e a2 3a
       0.15639752 -0.01902806 -0.06020233 0.0012363949
0000e0 b0 80 a0 bd 1d d9 d5 3d a7 d3 2e 3e d1 5a 04 3e
       -0.07837045 0.10441802 0.17072926 0.12925269
0000f0 c8 f9 ce bc 82 2d 58 be 89 c4 35 bd e9 75 de 3d
       -0.02526559 -0.2111111 -0.044376884 0.10862333
000100 20 c9 fb bd e4 59 1b be d0 5b 94 3d 5b 63 06 be
       -0.12294221 -0.1517101 0.07244074 -0.13123839
000110 78 25 9e 3d 9e d9 18 be 03 70 a3 3d 95 a5 5c 3d
       0.0772199 -0.14926764 0.07980349 0.05386885
000120 c4 f6 2e 3e ec 14 17 bd 52 7e ef bd ac 3d 3e 3e
       0.17086321 -0.036885187 -0.116940156 0.18578213
000130 c9 b9 32 3e 4b 30 31 3e 72 4c 44 3d 22 9b bc bd
       0.17453684 0.17303579 0.047924466 -0.09209277
000140 d6 b9 03 3e 35 31 44 be 53 60 04 3d 3c 03 79 3b
       0.1286386 -0.19159396 0.032318424 0.0037996313
000150 64 89 4f 3e fc 4b 26 3e fc 2c c1 bd 71 4c a5 bd
       0.20267254 0.16239923 -0.09432408 -0.08071221
000160 49 e2 1d 3c d2 fa 16 3e a3 15 00 be 5f 84 cf 3d
       0.00963647 0.14744118 -0.12508254 0.1013267
000170 d7 db 17 be ee e0 2a be d2 92 47 be 82 38 24 be
       -0.14829956 -0.16687366 -0.19489601 -0.16037181
000180 fa dd 2f be d1 61 0a be 54 bb 15 3b b5 49 a7 bc
       -0.17174521 -0.13513876 0.0022847252 -0.020420888
000190 e3 72 55 3e 8e 3b 1f be 2f 48 45 bd 42 1d 1f 3e
       0.20844607 -0.15550062 -0.048164543 0.15538505
0001a0 c4 46 30 3e 03 0c 3a 3e b9 bf 03 be dd 72 23 3d
       0.17214495 0.18168645 -0.12866105 0.039904464
0001b0 d5 71 40 be fe 63 41 3e b1 e8 33 3e 80 34 93 3d
       -0.18793423 0.188858 0.17569233 0.07187748
0001c0 d2 dd 10 be 85 46 73 bd f8 07 35 be bd 1d 31 be
       -0.14147118 -0.059393425 -0.17678821 -0.172965
0001d0 3d b9 45 3e 53 ab d9 bd b1 c6 22 bd 77 e0 4e 3e
       0.19308944 -0.106283806 -0.03974027 0.20202814
0001e0 c1 1f 34 3e 31 3a 46 3e 83 8c 41 3e e8 3c d9 bd
       0.17590238 0.19358136 0.18901257 -0.1060732
0001f0 c8 2d ff bd aa 05 30 3d b7 a5 49 3e b8 10 d3 3c
       -0.12459904 0.04297415 0.19692121 0.025764808
000200 b8 21 42 3d d5 a7 3e 3e 0a c7 7d 3d 02 7e 6a bd
       0.047395438 0.1861871 0.061957397 -0.057249077
000210 fb c8 6a b9 01 a6 e4 bd 52 f1 d3 bd b4 33 65 3d
       -0.0002239085 -0.11164475 -0.103487626 0.05595751
000220 17 c4 af 3a ea 40 1a bd f9 16 e2 bc ed 94 08 3e
       0.001340988 -0.037659563 -0.027598845 0.1333806
000230 21 4d 33 3e 86 77 17 be 44 5a 08 be 44 b9 4b be
       0.17509891 -0.14791688 -0.13315684 -0.19894892
000240 32 34 a5 bd 78 2c 50 be 63 89 99 bc 9a ac f4 3d
       -0.08066596 -0.20329463 -0.018742269 0.11946984
000250 f4 05 53 3e 07 7c 75 3d 76 43 36 3e 98 f4 d1 3b
       0.2060774 0.059932735 0.17799172 0.0064073317
000260 5c a8 b6 3c ec 72 47 3b 5f 10 2a be 7c bf 53 3e
       0.022297077 0.003043349 -0.16607808 0.20678514
000270 a3 86 2f bb 55 bb 16 be a3 7a cd 3d 15 6f 13 3e
       -0.002678313 -0.14719899 0.10033157 0.14397843
000280 c4 52 1e be a5 1b a2 bd 79 41 3b bd 6d aa 38 be
       -0.1546126 -0.07915429 -0.045716736 -0.18033762
000290 09 92 3c 3e fd 0d eb bd 6f 69 f7 3d c9 2c a4 3d
       0.18415083 -0.114772774 0.12080657 0.080163546
0002a0 f7 42 39 be 63 1a 3c be 8e f3 11 be fb 49 6d 3d
       -0.18091951 -0.1836944 -0.14253065 0.05793188
0002b0 a7 85 16 be 58 17 1c bd 28 fe 87 3d d7 f3 3d be
       -0.14699422 -0.0381082 0.06640273 -0.18550049
0002c0 13 ee 90 3d f0 39 43 3e 56 2c c5 bc d4 b3 27 be
       0.07076659 0.1906507 -0.024068993 -0.16377193
0002d0 5f 06 ab bd c9 27 6b bc 09 0f 47 3e 91 ca 46 be
       -0.083508246 -0.014352747 0.19439329 -0.1941321
0002e0 88 1b 01 3e 40 e4 27 be a5 5e 08 be 2c 45 cc 3d
       0.12608159 -0.16395664 -0.13317354 0.09974131
0002f0 e4 97 34 3e 64 e7 db 3d 0a b0 f8 3d f9 bb a7 bd
       0.17636067 0.10737494 0.12142952 -0.0819015
000300 ac fb 09 3e 65 87 7f bd 33 51 6e bd 16 89 05 3d
       0.13474911 -0.06238498 -0.058182906 0.03260144
000310 40 f5 1b be c8 80 21 3e fc c2 c2 bb fc 87 31 bd
       -0.15230274 0.15771782 -0.005943654 -0.043342575
000320 54 0e c8 bc 07 a9 19 3e 08 92 f1 3c a5 e1 c4 bd
       -0.024420895 0.15005885 0.029488578 -0.09613351
000330 6d d3 f6 3d e2 36 b5 bd 19 71 e9 bd 35 e3 52 be
       0.12052045 -0.08848359 -0.11398525 -0.20594485
000340 36 78 1b bc 53 e2 29 be 80 51 08 3e 4e 7c 19 be
       -0.00948911 -0.16590242 0.1331234 -0.14988825
000350 63 17 f0 3d 09 f2 80 bd 1e 0b 9e bd 87 51 65 bd
       0.11723211 -0.062961645 -0.07716964 -0.055985954
000360 ba 2f 3c 3d 36 68 52 3e 94 6b 10 3e e4 5a 3a be
       0.045943953 0.20547566 0.14103538 -0.18198735
000370 15 b1 0a be 50 51 e5 3d ca 5b be bb 9e 55 80 bd
       -0.13544114 0.1119715 -0.005809282 -0.0626633
000380 91 e2 da bd 29 e9 f6 bd 7b 0c 9b bd 91 10 33 bc
       -0.10687745 -0.120561905 -0.0757074 -0.010929243
000390 8b 31 d2 3d 77 e3 e8 3d 54 67 08 3e 13 84 5e 3d
       0.10263356 0.113715105 0.13320667 0.054325175
0003a0 95 83 25 3e d0 36 98 bd 1f 27 5a be 82 a0 4b bc
       0.16163476 -0.0743233 -0.21303986 -0.012428405
0003b0 9b 10 1f 3e 7e 0f 47 3e 8f 53 e3 3d 04 5b 08 3c
       0.15533678 0.19439504 0.11099922 0.008322481
0003c0 13 95 49 be 78 a6 91 bd e6 6c 5a 3e 40 e4 ab 3d
       -0.19685774 -0.071118295 0.21330604 0.083931446
0003d0 1c c3 4d be 2f 43 75 3d 73 2f aa bd 19 4d 4c be
       -0.2009396 0.059878524 -0.083098315 -0.19951285
0003e0 e1 48 94 bd 10 17 b5 3d 4a 81 52 be 7d 68 f0 3d
       -0.07240463 0.088422894 -0.20557132 0.117386796
0003f0 f3 0a fe 3d af 28 d8 3d 97 ef c8 3d 0d 34 1b bd
       0.12404432 0.10554635 0.09811323 -0.037891436

decoder.conv.bias f4 [128]
000000 92 a7 b6 be 4d 3b 8f be 64 87 88 3e 7e 78 a0 be
       -0.3567472 -0.2797493 0.26665795 -0.31341928
000010 37 90 9a 3e aa f9 80 3c 20 80 19 bf a2 2b 73 3e
       0.30188152 0.01574405 -0.5996113 0.23747113
000020 52 8b ee bd 9f 5b fb be 5c c0 68 3e 91 d6 5e 3e
       -0.11647667 -0.4909334 0.2272963 0.21761538
000030 a3 84 2a bf 20 10 c6 be 5b 4a 21 3f 0d b5 1c 3f
       -0.6660864 -0.38684177 0.6300408 0.6121376
000040 89 42 13 3f 7e 23 bc 3d 64 3a 84 be 1d aa 66 3e
       0.575234 0.09186457 -0.258258 0.2252583
000050 d7 90 da bc ea c3 00 3f e1 79 49 3e a9 a1 a6 3e
       -0.026680393 0.5029894 0.196754 0.32545212
000060 88 28 63 bd 85 a7 a1 3e 33 3d 98 be 45 c4 1c 3f
       -0.055458575 0.3157312 -0.2973419 0.61236984
000070 a2 d6 af be 2b 8b 84 be 88 0f 05 3f 95 3b 1b 3d
       -0.3434344 -0.25887427 0.51976824 0.03789862
000080 bc 60 12 3f f2 89 ad 3e ce 4f 26 3f 13 ac 19 3e
       0.57178855 0.33894306 0.6496552 0.15007047
000090 52 91 d0 be 8f ba da be 6e 6d 6f bd f3 75 84 3d
       -0.4073587 -0.42720458 -0.05845397 0.064678095
0000a0 2c cf 2e bf 5f 83 0a 3f c8 58 03 3f 63 a7 9d bc
       -0.6828487 0.54106706 0.51307344 -0.019244855
0000b0 16 34 b2 bd 0a b5 1a bf a0 cf 87 be 90 82 e7 be
       -0.08701341 -0.60432494 -0.26525593 -0.452168
0000c0 3b 66 0d bf bc 4a 17 3e 23 1d a5 be d9 53 17 3f
       -0.55234116 0.14774603 -0.32248792 0.59112316
0000d0 e4 91 c6 3e 5a be e3 be 83 99 26 3f 87 93 15 3f
       0.3878318 -0.44481164 0.6507799 0.58428234
0000e0 74 6f 17 bf 24 dc 39 3c 5d b3 81 be 07 62 a1 3c
       -0.5915444 0.0113439895 -0.25332156 0.019700063
0000f0 ca 56 07 3f ef b1 c9 be db 71 9b 3e 58 e8 11 bf
       0.52866805 -0.39393565 0.30360302 -0.56995153
000100 be 92 ad be b1 f1 e1 bc 98 bc 25 3f dc 8d 1a 3f
       -0.33901018 -0.027581068 0.64740896 0.6037271
000110 53 07 05 be 94 d1 29 bc 73 10 14 3e 5b 48 26 3f
       -0.12991075 -0.010364909 0.144594 0.64954156
000120 a5 87 e0 be 9c d4 12 3f 11 27 1f 3f 4d 01 34 3e
       -0.4385349 0.57355666 0.62168986 0.17578621
000130 73 9a 20 3f 17 27 e1 3c e2 83 08 bf 82 3a 1b bf
       0.6273567 0.02748446 -0.5332624 -0.6063615
000140 ac 5d 31 bd 5f 4b ea be 84 3a d7 3e 77 46 19 bd
       -0.043302223 -0.4576063 0.4203683 -0.037420716
000150 6a 6b 1f 3f e9 5d 89 be dc e6 2b 3f 2c da d2 be
       0.62273276 -0.2682946 0.6714914 -0.41182077
000160 2d 2d 90 be 9f c4 bf be b1 ee bb 3e 95 ec b9 be
       -0.28159466 -0.37454697 0.36705545 -0.3631331
000170 61 db d9 be cb 8d 31 bd 59 c4 54 3e 0a d8 85 3e
       -0.42550185 -0.043348115 0.20778026 0.26141387
000180 43 a5 f7 3e a0 f8 27 bf d7 3a 2f bf c4 7d 0c 3f
       0.48368272 -0.65613747 -0.6844916 0.54879403
000190 81 75 a8 3d 75 fe ea be 53 30 08 3f fa b8 d3 3e
       0.08225537 -0.4589726 0.53198737 0.41352063
0001a0 89 2d 27 be 06 85 bc be 10 9b 75 3d 91 94 c8 be
       -0.16325964 -0.3682024 0.059962332 -0.39175847
0001b0 d7 f8 a7 be f0 7e 29 3f f5 a3 9f be cf e1 f6 be
       -0.32807037 0.66209316 -0.31179777 -0.48219153
0001c0 68 98 26 bf cb 7c db 3e 19 4e 84 3d dc 3b 63 3e
       -0.65076303 0.42868647 0.064602084 0.22190803
0001d0 6a ab c2 be c6 d2 21 bf 43 ec 10 3f bb 0c 85 be
       -0.38021404 -0.6321224 0.56610507 -0.25986275
0001e0 51 0f 4d 3e 5b 8e 20 3f d3 a7 af bd c6 0f 05 3e
       0.20025374 0.6271722 -0.08576932 0.12994298
0001f0 d7 36 2d be 2f b2 ed be 3e 50 1d 3f 45 76 17 3e
       -0.16915451 -0.46425006 0.61450565 0.1479121

pointer.v f4 [1, 1, 128]
000000 9d f8 7b bd de 52 b0 3d dd e8 95 bd 61 72 89 bd
       -0.061516393 0.08609556 -0.07319806 -0.06711269
000010 92 9b cb bd 9d 9f 88 bd c7 fc ae 3d 0c 4a 55 3c
       -0.09941782 -0.06671069 0.08544307 0.013018142
000020 2a 69 a0 bd 0e e9 b3 bd c7 58 02 3e 07 4e 15 3e
       -0.078325585 -0.08784686 0.12729178 0.14580546
000030 f0 fe cd 3d 20 91 b3 3c 5d ae 80 bd bd e8 0f 3e
       0.10058391 0.021919787 -0.06283257 0.14053626
000040 6c 34 18 be 0e 79 55 3d 52 44 05 3e 27 b9 08 3d
       -0.14863747 0.0521174 0.13014343 0.0333797
000050 87 7f d0 3d bf 88 a2 3d f0 4a f4 bd 62 08 a6 3d
       0.10180574 0.079362385 -0.11928356 0.08107068
000060 9a 57 99 bd e0 60 01 be e7 6b fd bd d4 ea c0 bd
       -0.07487412 -0.12634611 -0.12374096 -0.0941979
000070 2b 1b f1 3b 2a 5b 83 bd c8 ce 15 3e 69 da 64 3c
       0.007357975 -0.064138725 0.14629662 0.013968089
000080 07 4a 16 3e 7f 0a 12 be 6a 45 c6 bc 3c 93 d3 bd
       0.14676677 -0.14261816 -0.024203021 -0.10330817
000090 11 ff c6 3d e8 87 3f bd 4b 7a 86 3d 3e 72 0e b9
       0.09716619 -0.04676047 0.06566294 -0.00013584734
0000a0 5b 43 e9 3d ad b9 1d 3d 50 86 2b bd 06 cc 0a 3e
       0.113898 0.038507152 -0.041876137 0.13554391
0000b0 a6 d2 26 3d ec f1 0f be ed 96 11 3e fd 13 23 bd
       0.040728234 -0.1405713 0.1421773 -0.039813984
0000c0 54 25 b7 bd d5 f7 0b 3d 96 69 38 3d 91 01 d3 bd
       -0.08942667 0.034171898 0.04502257 -0.10303033
0000d0 71 45 0e 3e 94 f6 09 3d c8 72 be 3d d8 8b 8f bd
       0.13893677 0.03368242 0.092992365 -0.07009095
0000e0 72 70 c2 3d f4 3e ae 3c ae 22 58 bd a5 99 d5 3c
       0.094941035 0.021270253 -0.052767448 0.02607424
0000f0 09 30 60 3b 32 ce d4 3d a3 7f 69 3d cf ba 03 be
       0.0034208319 0.10390891 0.05700649 -0.1286423
000100 ca 00 9e 3c ef 43 c4 bd 49 b2 16 3e a8 e1 25 bd
       0.019287486 -0.0958327 0.14716448 -0.040498406
000110 2e 0f 2f 3c 35 c0 14 be 28 45 13 be e5 df 0f be
       0.010684771 -0.14526446 -0.1438185 -0.14050253
000120 7a 4b a4 bc 6d cc f9 3d c2 4c db 3d e6 e0 92 bd
       -0.020055521 0.12197194 0.10708 -0.07171802
000130 42 01 10 3e e2 a0 07 bc e0 be aa bd 99 4e 11 3e
       0.1406298 -0.008278104 -0.08337188 0.14190139
000140 2e 65 00 3e 8b 03 04 3e 54 f9 90 bb 99 99 4e bd
       0.12538597 0.12891977 -0.0044242535 -0.05043945
000150 bc 1c c9 3c f1 fe 58 3d 23 4a 25 3d d2 9d b2 bd
       0.024549834 0.052977506 0.040353905 -0.08721508
000160 57 5f 9d 3d ed 6d 06 3e 74 f3 be 3d fb 67 90 bd
       0.076842 0.13127871 0.09323779 -0.07051083
000170 d1 ca 86 bd 2f 05 4f bb bc 95 ab 3d 11 42 fa 3d
       -0.06581653 -0.0031588783 0.08378169 0.122196324
000180 63 66 96 bd 7e e1 b7 bd 65 25 15 bd f1 db 0b be
       -0.073437475 -0.08978556 -0.036412615 -0.1365812
000190 d4 4f 17 be 56 c5 09 3c 86 8c 3a 3d cc ab d7 3d
       -0.14776546 0.008408865 0.04554417 0.105308145
0001a0 fd a8 fb bd 11 35 a8 bd 8b 1b 0e 3e 04 01 36 3d
       -0.12288091 -0.082132466 0.13877694 0.044434562
0001b0 5d 23 9c bd 02 3c 9b bc e0 5f 2b 3d bd 36 01 be
       -0.076239325 -0.018949512 0.04183948 -0.12618537
0001c0 a5 30 0b 3e a3 9f 12 3e 63 97 dc bb 32 63 f2 bd
       0.13592775 0.14318709 -0.006731914 -0.11835326
0001d0 9a 65 98 3d a3 61 ed 3d e2 05 29 3d a6 87 f4 3d
       0.07441254 0.11590888 0.041265376 0.119399354
0001e0 6b 4e b4 bd aa 78 88 bd c3 e8 2e bd 90 35 f4 bd
       -0.088040195 -0.0666364 -0.042702448 -0.11924279
0001f0 4b ae a5 bd 52 8a 94 bd 70 36 b5 bd 22 60 08 bd
       -0.08089884 -0.07252945 -0.08848274 -0.033294804

pointer.W f4 [1, 128, 256]
000000 ac a7 2b 3c f1 35 0e 3b 0d e9 4b bc 3b 90 af bb
       0.010476988 0.0021699632 -0.0124457 -0.00535777
000010 09 40 50 bc 90 e3 c7 b8 3f 24 2b 3b 51 0f 92 bb
       -0.01271058 -9.531446e-05 0.0026114134 -0.0044573923
000020 7b 1a 53 3c b8 5f 6e b9 9a 8a 64 bb 47 51 84 3b
       0.012884731 -0.00022733107 -0.0034872652 0.0040380093
000030 9f f6 a9 3b fe 20 22 3c 1b 6a 49 3b 5f 55 bc 3b
       0.00518687 0.009895561 0.003073341 0.0057474817
000040 d6 10 3b bb 16 57 e7 3b d5 d8 85 ba dc d3 60 3c
       -0.002854397 0.007059942 -0.0010211716 0.013722386
000050 46 02 9a 3b 28 26 00 3b 27 a6 d5 b9 fd ec 4b ba
       0.004699978 0.0019553993 -0.0004075032 -0.00077791495
000060 2f 19 29 bc 3d 04 be bb 32 f1 94 bb fa 53 cc bb
       -0.010320946 -0.005798845 -0.0045453543 -0.0062355967
000070 f4 ac 4b bc e6 c5 13 3b 78 27 01 bc f2 b4 46 bc
       -0.012431372 0.0022548377 -0.007882945 -0.012128102
000080 0b 66 18 3c eb 01 80 bb 29 11 c5 ba 50 db a1 3b
       0.009301673 -0.0039064786 -0.0015035021 0.004939474
000090 21 ee 45 3c 72 13 86 3a ec af 41 3b bf 88 13 bc
       0.0120807 0.0010229184 0.002955432 -0.009004771
0000a0 a3 94 b3 bb 92 55 66 3a 50 92 bd bb 95 49 17 bb
       -0.0054803654 0.00087865547 -0.005785264 -0.002308463
0000b0 d2 72 50 3c bc 63 28 3c 8f 90 26 3c 5e 52 8f bb
       0.012722688 0.010277685 0.010166301 -0.0043738326
0000c0 f3 5f cc 3b d8 37 7e bb 13 6a 98 bb a5 e7 1f bc
       0.006237024 -0.003879061 -0.004651317 -0.009759818
0000d0 85 48 2f bb a4 eb fb bb c1 19 28 3a 31 22 dc 3b
       -0.0026746106 -0.0076880027 0.0006412529 0.006717943
0000e0 73 2a 4b bc ca 96 54 3c cf 47 ed 3a a1 0f 3f 3c
       -0.012400257 0.012975404 0.0018103066 0.011661441
0000f0 fe 76 35 bc e7 97 18 3c d2 b5 06 3c be c9 4d 3c
       -0.011075733 0.00931356 0.00822206 0.012560306
000100 b4 d2 6b bc 21 63 0e 3b 00 19 83 3b 1a 1a 99 3b
       -0.014393497 0.0021726566 0.004000783 0.004672301
000110 0f 54 d0 3b b1 46 4e 3b f2 d0 5e 3c 39 ef 03 bb
       0.006357677 0.003147524 0.013599621 -0.0020131601
000120 d3 8d fc 3a 5b ff f6 3b ae 2b 29 bc cf 20 e2 bb
       0.0019268341 0.007537765 -0.010325355 -0.0069008837
000130 81 d4 ea bb 3d 6c 0a 3c 69 78 98 bb 62 73 38 bb
       -0.0071664457 0.008448658 -0.004653026 -0.0028144945
000140 da ae be 3b c8 fb bb 3b 55 c4 50 bc 66 99 ba bb
       0.005819184 0.005736802 -0.012742122 -0.005694556
000150 8f 72 ab 3a c2 9e 34 3b ca 13 dc 3b 80 e2 34 3c
       0.0013080406 0.0027560447 0.006716226 0.01104033
000160 b9 7a e6 3b a7 3c 60 bc 67 29 cd 3b 8a db d6 3b
       0.0070336726 -0.013686336 0.006261039 0.006556933
000170 ae 27 12 3b 66 38 28 bc bf 00 2c bc 6b 63 35 3b
       0.0022301483 -0.010267353 -0.010498225 0.0027677666
000180 0e f2 0c 3c a6 26 3d bc f7 5d 01 bc 34 7c 23 ba
       0.008602632 -0.011544859 -0.007895938 -0.0006236464
000190 5f fd 33 bb f6 20 f0 bb 63 5d 9d 3b ac 08 f7 3b
       -0.0027464253 -0.007328148 0.0048023923 0.0075388756
0001a0 ef 12 8c ba 33 e5 c3 bb 85 0c ba bb ce b3 51 3a
       -0.0010686795 -0.0059782504 -0.005677762 0.000799951
0001b0 67 d9 d8 3b b3 96 29 bc 16 26 1c 3c 87 e2 67 bc
       0.0066177133 -0.010350871 0.009530565 -0.014153129
0001c0 9b 7d 30 bb 2b 63 09 bc 6d 60 28 3c 70 8b 1c bc
       -0.0026930335 -0.00838546 0.010276896 -0.009554729
0001d0 da 86 d5 3b d3 79 fb ba 69 dd 15 bc 6b 5d db b9
       0.0065163197 -0.0019186087 -0.009147027 -0.00041840537
0001e0 53 1f 52 bb 93 a1 91 bb 46 9c 22 3c da ee 04 bb
       -0.0032062128 -0.00444431 0.009924954 -0.0020283968
0001f0 cc 37 12 bb b8 65 0c 3c 03 ab 1d 3a b1 b5 51 bc
       -0.002231109 0.0085691735 0.00060145574 -0.012799666
000200 43 f0 cd bb 6f 03 c0 bb 90 a5 73 3a 41 40 78 bb
       -0.006284745 -0.0058597843 0.0009294385 -0.0037880095
000210 4f 3c 19 bc 83 81 6a 3c e8 5f 0a 3b 35 79 df 3b
       -0.009352758 0.014313105 0.0021114293 0.006819869
000220 21 5f 3e bc 1b 4d 6b 3b d0 91 3f b8 05 fc 8d bb
       -0.01161936 0.0035904113 -4.5673747e-05 -0.0043330216
000230 f6 20 15 bc a2 83 8b 3c f4 0e d4 3b d6 49 69 bc
       -0.009102097 0.01703054 0.006471509 -0.014238795
000240 1c 94 13 3c ef 5c 0b 3c b2 3f ce 3b 62 67 33 3b
       0.00900748 0.008506044 0.006294214 0.0027374853
000250 cc d2 c7 38 ab eb 54 3c 35 f2 c8 bb 0a 7c 0a bc
       9.5283234e-05 0.012995641 -0.006132389 -0.008452425
000260 a5 96 6e bc fd 1a 78 bb 3d c7 06 bc 27 29 fe bb
       -0.014562284 -0.0037857883 -0.008226213 -0.0077563706
000270 d4 da b3 bb 01 46 94 b9 60 e1 c4 3b 5c 10 55 bb
       -0.005488733 -0.00028280917 0.006008312 -0.0032510972
000280 55 62 1a 3c 0b 1b d4 3a 4a 4b 6a bb 65 9f 2e 3c
       0.009422858 0.0016182376 -0.0035750442 0.01065812
000290 e7 09 4a 3c ee 2a 76 3a 56 61 87 bc f9 03 60 bc
       0.012331462 0.00093905523 -0.016525906 -0.013672822
0002a0 27 fd 83 bb d6 0a 35 3c c7 88 ff bb 8a f6 61 3b
       -0.004027981 0.011049947 -0.0077982876 0.0034479224
0002b0 7a 29 53 bb 94 ea 5a bc fa 32 88 ba 9c fa 11 3c
       -0.0032220767 -0.013361592 -0.0010391169 0.008909848
0002c0 fb 05 0d bc 65 b4 51 bb 48 83 9b bb c5 f1 f6 bb
       -0.008607383 -0.0031998393 -0.0047458746 -0.0075361454
0002d0 b6 f8 06 bb 72 71 36 bb ff 50 0e 3c 93 fa 7e 3c
       -0.002059502 -0.0027838615 0.008686303 0.015562671
0002e0 57 10 fc 3b 83 63 94 ba 11 00 cc 3b 54 15 bd 3b
       0.0076923775 -0.0011321161 0.006225594 0.005770365
0002f0 93 32 6b bc 2a 37 0d 3c ac 47 41 3a bc 16 89 bc
       -0.01435532 0.008619109 0.00073730457 -0.016734473
000300 88 4b 38 b8 d0 22 fa bb c5 25 88 bc a8 6c 8a bc
       -4.3939363e-05 -0.0076335445 -0.016619572 -0.016897514
000310 a6 21 71 b9 79 c6 17 3c 2d 59 f4 bb a3 5e da 39
       -0.00022996086 0.009263628 -0.0074569196 0.0004165071
000320 0a c5 c9 bb 32 a8 6b 3c f6 50 dc 3a d7 a4 c4 3b
       -0.006157522 0.014383363 0.0016808796 0.0060010958
000330 ce 8c 38 bc 0b 3e 58 bb 83 b0 73 3c 4c 08 0a bc
       -0.011264039 -0.0032995965 0.014873627 -0.00842483
000340 9f 99 47 3c 73 40 dd bb fa f0 da 3a 6e e0 73 3c
       0.012182622 -0.0067520677 0.0016703897 0.014885051
000350 df 13 d8 bb 07 5e 75 3b 04 58 ee 3b 70 47 3e 3c
       -0.0065941657 0.0037440078 0.007273676 0.011613712
000360 c2 65 29 3c 30 c2 b7 bb f1 76 b8 3b ad 1c 3a bb
       0.010339202 -0.0056078658 0.0056294133 -0.002839844
000370 22 79 06 3c 10 a8 c5 ba c0 4e 31 3b 74 80 12 bc
       0.008207591 -0.0015079994 0.0027054995 -0.008941758
000380 ef ee 7e 3c 6a 60 e7 3b e9 d6 19 3c c3 35 31 bc
       0.015559896 0.007061054 0.0093896175 -0.01081604
000390 5d 4d 81 3b 58 9f 7a bb 5b 5f 83 3a 51 9c 66 3c
       0.00394599 -0.003824195 0.0010022925 0.014075355
0003a0 67 b9 8f 3b 9c 66 5f ba c8 bb d9 3a 7a 58 08 bb
       0.0043861154 -0.0008522065 0.0016611749 -0.002080469
0003b0 11 22 a2 3b ca 5f fc bb 97 8c 01 3c b0 c2 09 bc
       0.0049479087 -0.0077018486 0.007907054 -0.0084082335
0003c0 24 ed 85 bb f6 f8 ae bb ac 3c 16 3c 3f c3 17 bc
       -0.0040871073 -0.005339737 0.009169739 -0.009262859
0003d0 10 34 0e bb 7f 8b 3b bb 66 19 3d 3c 99 53 11 bc
       -0.0021698512 -0.0028617082 0.0115417 -0.008870029
0003e0 f9 04 d2 3b 59 dd 9c bb ff 41 1c bc 8a f0 b9 bb
       0.006409284 -0.004787129 -0.009537219 -0.0056744264
0003f0 a7 f9 8b bc 44 15 1f bc 93 bb be 3b 90 6a 5a bc
       -0.017086817 -0.00970966 0.0058207004 -0.013331071

pointer.gru.weight_ih_l0 f4 [384, 128]
000000 3d 7f 72 ba 5a 32 85 3b c6 cd 96 bd ef 63 db bd
       -0.00092505274 0.0040648403 -0.07363467 -0.1071242
000010 f0 8f 98 bc 7c dc 28 bd 0f 30 bd bc 46 da 31 bd
       -0.018623322 -0.041225895 -0.023094205 -0.043421052
000020 e5 64 52 bd dd 6a c4 bd 84 ef bc bd b0 ec 95 bd
       -0.05136575 -0.09590695 -0.092253715 -0.07320535
000030 8f 68 c9 3d b0 3e cc bc 77 7f ca 3d 73 6a 88 3d
       0.09834396 -0.024932235 0.09887593 0.066609286
000040 16 2b 0b 3d 70 98 fc bc dd 27 80 3d 18 d3 76 3c
       0.033976637 -0.030834407 0.06257603 0.015064977
000050 a2 99 63 3d 17 39 86 3c d7 38 01 3b d8 dd 94 bd
       0.055566438 0.016384644 0.0019717717 -0.07268876
000060 10 be 0b bc 9e 8a 39 3c 0a b6 86 bd 12 0f e1 3c
       -0.008529201 0.011324553 -0.0657769 0.027473006
000070 d6 dd d1 3b f2 85 04 3d 74 6a b0 bd 58 8d 12 bd
       0.0064046187 0.032354303 -0.08614054 -0.035779327
000080 e2 1d 2c 3d 94 6f 4f 3b fe 3f da bd b9 25 93 3d
       0.042020686 0.00316522 -0.10656737 0.071849294
000090 21 c1 b2 3d ca 4a 19 3d 5a 1e 85 bd fc a8 ca 3c
       0.08728243 0.03742484 -0.0649993 0.024738781
0000a0 f1 29 5a bc 3a 65 7b 3d c9 d9 8d 3d 1a fd 9c bd
       -0.013315664 0.061375834 0.06926305 -0.07665463
0000b0 28 f4 69 bc 2e ed db 3c a8 7f a6 bd f4 cd b2 bb
       -0.014279403 0.026846495 -0.08129817 -0.0054566804
0000c0 08 ee b6 bd 25 97 b3 3d 37 ec d5 3d 4e fe 22 bd
       -0.089321196 0.08769063 0.10445445 -0.039793305
0000d0 bf 4c b2 3d 15 93 95 3c 2f 38 71 bd 09 ff bc 3c
       0.087060444 0.01825861 -0.05889147 0.023070829
0000e0 03 eb cd bd bd 65 a7 3d 31 04 a5 bd d2 70 51 3d
       -0.100545906 0.08173702 -0.0805744 0.051132984
0000f0 d1 82 cc 3c 24 c8 17 bd 96 92 cf bd d5 56 fb 3c
       0.024964722 -0.037056103 -0.10135381 0.030681053
000100 f2 5f 25 bd f3 86 a1 3d 08 7d 19 bd 5b 0f cd 3d
       -0.040374704 0.07887068 -0.037472755 0.100126944
000110 48 d8 4c bc 7e 01 67 3d f3 23 81 3a 8b 2b b1 bd
       -0.012502737 0.056397907 0.0009852633 -0.08650883
000120 93 8e c3 3d b3 f6 9c 3d c9 34 96 3c 81 b8 ac bd
       0.09548678 0.07664242 0.018335717 -0.08433629
000130 ba f1 ad bd e6 ca 9b bd d5 5f d8 3d 9f ab 93 3d
       -0.08493371 -0.07607059 0.105651535 0.072104685
000140 b5 f9 3c bd 2e 3c 8c 3c 12 ba 6b bb 79 6a b3 3a
       -0.046136577 0.01711854 -0.003596906 0.0013688348
000150 80 1e 95 bc 0a d4 34 3d 4e 8f c7 bc 14 a9 55 bc
       -0.01820302 0.04414753 -0.024360325 -0.0130408
000160 c2 e9 33 3d 2c 07 16 bc bf 00 d0 3d 03 4c 7b 3c
       0.0439241 -0.009156983 0.10156392 0.015337947
000170 73 17 be 3d 52 bb 35 3d 53 49 64 3b b0 47 85 bc
       0.09281816 0.044368096 0.0034833744 -0.016269535
000180 40 d1 18 b9 ea 27 79 3d 20 d0 af bd 92 3a bf bd
       -0.00014573801 0.06082908 -0.085846186 -0.09337343
000190 ce 4b 9d bd b4 86 5f 3b 72 a1 20 3d 83 a2 c7 3d
       -0.07680474 0.003410739 0.039216466 0.097477935
0001a0 22 80 56 3d a5 84 a5 3d 41 09 8e 3d e2 34 89 bd
       0.05236829 0.080819406 0.06935359 -0.0669954
0001b0 54 1f 82 3b a4 dc 9e bd 0c b2 9a bd 6a b4 5b bb
       0.0039710198 -0.077569276 -0.07553491 -0.0033524283
0001c0 51 7c d9 3d cf 0e 55 bd dd 2f 85 3d 5e 77 84 bd
       0.106194146 -0.052016076 0.0650327 -0.0646808
0001d0 d7 67 a1 3d 0a b1 84 bd 84 1f c6 bd 34 f8 f0 3c
       0.07881134 -0.0647908 -0.0967398 0.029415227
0001e0 ec fe 38 bd c1 13 4c 3c 48 d1 91 bd e8 d6 7d bc
       -0.045164987 0.012455882 -0.07119995 -0.015493132
0001f0 b2 ad 15 3d 43 22 61 bd a7 e3 b9 bc 38 87 53 bc
       0.036542602 -0.054964315 -0.02269156 -0.012910657
000200 a0 97 b8 3d b7 0c 7a 3d d5 0d a9 bd f7 1c a2 bd
       0.09013295 0.061047282 -0.082545914 -0.07915681
000210 ad ea c7 bd 0a a8 40 bd 5c 4d 52 bd da 08 71 3d
       -0.09761558 -0.047035255 -0.051343307 0.058846332
000220 66 3f 8c bd 05 c4 fd bc cc 6c 8e bd 48 b2 1e 3c
       -0.0684803 -0.030977258 -0.06954345 0.00968606
000230 9b f2 ac bd 70 8f a8 3d fc da 40 bd 77 4f ce 3d
       -0.08444711 0.082304835 -0.04708384 0.100737505
000240 70 4f af bd 6d 74 cb bc 13 a5 d3 3d e6 9a 59 bd
       -0.085600734 -0.02483579 0.1033422 -0.05312624
000250 29 65 93 bc e6 dc c1 bc 8e 1a c6 3b de 20 08 3c
       -0.017992573 -0.023664903 0.006045646 0.008308617
000260 d1 94 92 3d a1 10 96 3d 9d f2 bb 3d dc a3 bd bd
       0.07157291 0.073273905 0.09177134 -0.09259769
000270 a8 07 93 bc 10 e8 82 bc 25 d6 81 bd f9 29 99 bc
       -0.017947987 -0.015979797 -0.06339673 -0.018696772
000280 13 40 80 3d f4 18 e3 bc 7e 25 2d bd b3 56 cc 3d
       0.06262221 -0.02772186 -0.042272083 0.09977474
000290 76 07 be 3d 30 fc eb 3b eb 38 26 bd fc a7 9b 3c
       0.09278767 0.007201694 -0.040581625 0.019001
0002a0 ba 21 9a 3d 9e d0 dc bc 04 53 a3 3d 46 19 ac bd
       0.07525964 -0.026954945 0.07974818 -0.08403258
0002b0 01 1a a6 3d fe 32 a5 3d a2 1d c1 3d 7c e6 9a 3d
       0.081104286 0.080663666 0.0942948 0.07563493
0002c0 7a 9e 1c 3d b9 b1 ff bc 88 b7 a8 bc 66 4b a0 bd
       0.038237073 -0.031212674 -0.020595327 -0.07826881
0002d0 b2 21 45 bd e6 28 10 bc 64 5e cb 3d 1c 49 ad 3d
       -0.048127837 -0.008798813 0.09930113 0.0846121
0002e0 03 84 ca bd 2c 5e 57 3c f3 2d bc 3d 86 ce f5 bc
       -0.098884605 0.013145011 0.091884516 -0.030005705
0002f0 c9 3b 76 3d ef 47 3e 3d ad 26 3f 3d 97 81 b2 bd
       0.06011561 0.04645532 0.046667743 -0.087161236
000300 fc 3c 90 bd 3d 47 9d 3d 26 ed 23 3d f0 22 b5 3d
       -0.07042882 0.07679603 0.040021084 0.088445544
000310 bf d7 33 3d 88 72 1b bd 9d b6 2e bd 51 a7 8e 3d
       0.043906923 -0.037951022 -0.042654622 0.06965507
000320 d2 b9 09 3d 84 f4 af bd c6 9e b9 bc e7 92 d3 bd
       0.033624478 -0.085915595 -0.022658717 -0.10330754
000330 a4 c0 9f bc f1 21 9c 3d 51 49 dd bd d8 bf bd bd
       -0.019501038 0.07623661 -0.108049996 -0.09265107
000340 df 56 a4 bd e6 ca 58 bd b7 cd a7 3d 1a 38 51 ba
       -0.08024382 -0.052927874 0.08193534 -0.0007981077
000350 c1 13 2a 3d d4 aa d0 3d 91 da 87 bd 0f c9 d3 3c
       0.041522745 0.10188833 -0.06633485 0.025852708
000360 7e e9 3b 3c 2f 31 09 bd 26 2a cf 3d d0 5a 70 bd
       0.011469243 -0.03349417 0.10115461 -0.058680356
000370 9f cf b4 3c c1 46 d8 3d 4b bc 32 bd 2c f0 bb 3d
       0.022071658 0.1056037 -0.0436366 0.091766685
000380 a9 e7 e1 3c 2c 69 a9 3d 47 cc fa bc d2 96 db 3c
       0.027576284 0.08272013 -0.030614985 0.026805315
000390 fd 3d b2 bc ee 0d 05 3d f7 c0 db bd 1b 81 59 bb
       -0.021758074 0.032483988 -0.107301645 -0.0033188525
0003a0 a7 d1 5d 3d 74 7f 27 3d 8e ca 4e 3d a2 41 a1 3d
       0.05415502 0.040893033 0.05048614 0.078738466
0003b0 77 cc b1 3d 22 2e 1c bc f7 0b be bd 48 77 c0 3d
       0.08681577 -0.009532483 -0.09279626 0.09397751
0003c0 30 16 b7 3d bd ab d3 3b de 73 81 bd 1c 30 a0 bc
       0.08939779 0.006459682 -0.06320928 -0.01955419
0003d0 d9 d0 1e bb 4e 5b 21 3d dc 5a 6c bb 7b d9 ba bc
       -0.002423337 0.039393716 -0.0036064899 -0.02280878
0003e0 49 1a d7 3a 31 d1 99 bd c5 e4 c2 3c 3c 93 ee 3c
       0.0016411032 -0.07510603 0.023790726 0.029122941
0003f0 03 ad 90 3d 72 7d b7 bd 80 5c 56 bd 2a 3b a8 bd
       0.07064249 -0.08959474 -0.05233431 -0.0821441
