Task assignment/drl4vrp/vrp/10/19_20_26.716625/checkpoints/18/actor.pt (torch, 734651 bytes, 14 tensors)

static_encoder.conv.weight f4 [128, 2, 1]
0	0xbe1e2f14	-0.15447646
1	0x3e1ae4f6	0.15126404
2	0x3df0509c	0.11734125
3	0x3b60508b	0.0034227695
4	0xbde1d196	-0.110263035
5	0x3d6da7e4	0.05802144
6	0xbdb6f15b	-0.08932754
7	0xbd75da68	-0.06002274
8	0x3dea78d3	0.11448827
9	0x3df340d3	0.118775986
10	0xbdadef85	-0.0849295
11	0xbd427dc9	-0.04748324
12	0x3e4c05ac	0.19924039
13	0xbd0fc50c	-0.035100028
14	0xbdf428ac	-0.1192182
15	0x3e412690	0.18862367
16	0xbe3ebf36	-0.18627629
17	0x3d413cca	0.047177114
18	0x3dc51a73	0.096241854
19	0x3de4bda1	0.11168981
20	0xbe111150	-0.1416676
21	0xbd9d2a14	-0.076740414
22	0xbe161712	-0.14657238
23	0xbe3c74aa	-0.18403879
24	0xbd2b49cd	-0.04181843
25	0xbe53b607	-0.20674907
26	0xbe3e6656	-0.18593726
27	0xbb253754	-0.002520998
28	0x3e38611f	0.18005799
29	0xbdfdd8c5	-0.12394861
30	0x3e30a9a3	0.17252211
31	0x3c957273	0.01824305
32	0x3e3c70eb	0.1840245
33	0xbb97c04b	-0.0046310774
34	0xbe1357e8	-0.14389002
35	0xbd003bf7	-0.031307187
36	0xbcc5e205	-0.024155626
37	0x3e3d9a09	0.18515791
38	0xbe485bfc	-0.19566339
39	0xbd3d52b9	-0.04622147
40	0x3e197ffc	0.14990228
41	0xbe437659	-0.19088115
42	0xbdd4b619	-0.10386295
43	0xbde6306f	-0.11239707
44	0xbb7cb897	-0.0038562173
45	0xbdaf6d8f	-0.085658185
46	0x3ddfe1d3	0.109317444
47	0xbdc1b352	-0.09458031
48	0x3d25bf96	0.040465914
49	0x3cbc8cd6	0.023016375
50	0x3e4d3a52	0.20041779
51	0x3c330a58	0.010927759
52	0x3cf34282	0.0296948
53	0x3d117e42	0.0355208
54	0xbe167068	-0.14691317
55	0xbd212feb	-0.03935234
56	0xbe12b7bc	-0.14327902
57	0x3dc69645	0.096966304
58	0x3ab67b4b	0.0013922242
59	0x3e42faa2	0.19040921
60	0xbda3f7a1	-0.08006216
61	0x3c5528f6	0.013010254
62	0xbd9d78dc	-0.07689068
63	0xbd270247	-0.040773656
64	0x3e4c5783	0.19955258
65	0xbe05aa69	-0.13053288
66	0x3e15109b	0.14557116
67	0xbe15858b	-0.14601724
68	0xbd0fac43	-0.03507639
69	0x3da77829	0.081772156
70	0xbe488acb	-0.19584195
71	0x3de21120	0.110384226
72	0xbdc5c1bc	-0.096560925
73	0xbe256edb	-0.1615557
74	0xbdd11002	-0.102081314
75	0x3e0c2456	0.13685736
76	0x3d809b0d	0.062795736
77	0x3de1bf2a	0.1102279
78	0x3e326371	0.17420746
79	0xbde07f6b	-0.10961803
80	0xbe0d0cc6	-0.13774404
81	0x3d15b42d	0.036548782
82	0xbdbbaeb1	-0.09164179
83	0x3e03e3e1	0.12879898
84	0xbdfe37e6	-0.124130055
85	0xbe2d0719	-0.16897239
86	0x3e270119	0.16309012
87	0xbdb3ad30	-0.08773267
88	0xbbcdbb31	-0.0062784185
89	0x3c2692ad	0.010166806
90	0x3e0217ce	0.12704393
91	0x3de7e204	0.11322406
92	0x3e145053	0.14483766
93	0x3d2df739	0.042472098
94	0x3e4b8263	0.19873957
95	0xbcee1731	-0.029063793
96	0x3d8126ab	0.063062035
97	0x3d8867c2	0.06660415
98	0x3da79421	0.0818255
99	0xbe051d38	-0.12999427
100	0x3e4bf8f2	0.19919184
101	0xbc9ee088	-0.019394174
102	0xbcaee056	-0.021347206
103	0xbddc4c37	-0.10756724
104	0xbd12156c	-0.03566496
105	0x3dda86d8	0.10670251
106	0xbd9b0498	-0.075692356
107	0xbe57f7aa	-0.2109057
108	0xbc75489c	-0.014970925
109	0xbdc6766a	-0.096905544
110	0xbc4a6970	-0.01235424
111	0x3cbb1feb	0.022842368
112	0x3e32ede1	0.17473556
113	0x3e4e2462	0.20131066
114	0xbe35f24f	-0.17768215
115	0x3e56a09b	0.20959704
116	0x3e4d6f7c	0.20062059
117	0x3d06c1d8	0.032899708
118	0x3e119e24	0.14220482
119	0x3db7fabd	0.089833714
120	0x3d9e5d6a	0.07732661
121	0xbd69bf43	-0.057067167
122	0x3db10636	0.08643763
123	0xbe459565	-0.1929527
124	0xbe45dffa	-0.19323722
125	0xbe329c4a	-0.17442432
126	0x3d861d34	0.06548539
127	0x3e11f757	0.14254509
128	0x3dd13300	0.102148056
129	0x3cf38bea	0.029729802
130	0xbe4ea269	-0.20179142
131	0xbd6b630a	-0.057467498
132	0xbe1246bc	-0.14284796
133	0xbe1049b0	-0.1409061
134	0xbb4cbcbf	-0.003124043
135	0xbc653e1b	-0.013991858
136	0xbe5b6ba3	-0.21427779
137	0x3cebf864	0.028804965
138	0x3c65a813	0.014017123
139	0x3e451884	0.19247633
140	0x3d171e15	0.036893923
141	0x3e4bd2d0	0.19904637
142	0xbd7d8b73	-0.061900567
143	0x3c01d6f4	0.007924784
144	0xbd93451d	-0.07190917
145	0xbde45516	-0.11149041
146	0x3d79dc15	0.061000902
147	0x3e00a097	0.1256126
148	0x3d8ee5f7	0.06977456
149	0xbbf049d1	-0.0073330184
150	0x3bfaed26	0.007657665
151	0xbbfdfad2	-0.0077508474
152	0xbd834683	-0.064099334
153	0x3d0c7b3a	0.034297206
154	0x3ddabdfe	0.106807694
155	0x3d025aa8	0.031824738
156	0x3e3e618b	0.18591897
157	0x3e021651	0.12703826
158	0xbdfcd131	-0.123445876
159	0xbe4ed8c8	-0.20199883
160	0xbd823d75	-0.06359378
161	0xbe522766	-0.20522842
162	0xbe55ee14	-0.20891601
163	0xbe151c2f	-0.14561532
164	0xbe054fd4	-0.13018733
165	0xbe00a3f8	-0.12562549
166	0xbe4e6fe9	-0.20159878
167	0xbd6e1418	-0.05812463
168	0xbe514563	-0.20436625
169	0x3ad91414	0.001656177
170	0x3d8b3d4d	0.067988016
171	0x3e053782	0.13009456
172	0x3e57c014	0.21069366
173	0xbe34d7a8	-0.17660391
174	0xbce7c7cc	-0.028293513
175	0xbda5d54c	-0.08097324
176	0xbc4bdb0b	-0.012442361
177	0xbd919751	-0.071089394
178	0xbe428021	-0.1899419
179	0xbd04cb78	-0.032420605
180	0x3e04b3f0	0.12959266
181	0x3df23c69	0.118279286
182	0xbe466eb7	-0.19378172
183	0xbd911134	-0.07083359
184	0xbd4fb22a	-0.05070702
185	0xbd802ab6	-0.062581465
186	0xbe064ce9	-0.13115276
187	0x3e1e57ef	0.15463232
188	0x3e382103	0.17981343
189	0xbd1676de	-0.036734454
190	0xbcc880a5	-0.024475405
191	0xbd362f26	-0.044478558
192	0xbe0f1dfe	-0.13976285
193	0xbe466fc3	-0.19378571
194	0x3c441dac	0.011969965
195	0x3e137124	0.14398628
196	0xbe2c7ca2	-0.16844419
197	0x3e204607	0.15651713
198	0x3d825e98	0.063656986
199	0xbe55682d	-0.20840521
200	0x3da4ebc8	0.08052784
201	0x3d53ef80	0.051742077
202	0xbdf9d548	-0.12198883
203	0x3da1c5d9	0.078990646
204	0x3e3e1d2a	0.18565813
205	0xbe4280fe	-0.18994519
206	0x3c961dd1	0.018324764
207	0x3ce5df6e	0.028060641
208	0xbe4bf401	-0.19917299
209	0x3c4dd895	0.012563844
210	0xbcf69ea7	-0.030104948
211	0xbcac1935	-0.021008113
212	0xbdefd16c	-0.11709866
213	0xbd54c525	-0.051945824
214	0xbe357788	-0.17721379
215	0x3c90f1ed	0.017693484
216	0x3e044130	0.12915492
217	0xbe11bccc	-0.14232177
218	0x3d988ad4	0.07448354
219	0xbd41c1e3	-0.047304045
220	0x3e292f5f	0.16521977
221	0xbdd1e96b	-0.10249599
222	0xbe42e548	-0.19032776
223	0xbc3d5676	-0.011556258
224	0x3e0b68d7	0.13614212
225	0xbd641a2e	-0.05568903
226	0xbe280fdc	-0.164123
227	0x3d8fc6d4	0.07020345
228	0x3e408b00	0.18803024
229	0x3c16885c	0.009187784
230	0xbde0c23f	-0.109745495
231	0x3e2b1dae	0.1671054
232	0x3d92abd3	0.07161679
233	0xbe3faf9f	-0.18719338
234	0x3e1c96a2	0.15291837
235	0xbd9a2d0b	-0.075281225
236	0x3c82a0e0	0.015945852
237	0x3ddf5550	0.10904944
238	0x3e05d4ec	0.13069504
239	0xbd3ee030	-0.04660052
240	0x3e0b8305	0.13624199
241	0x3a922385	0.0011149502
242	0xbe478703	-0.19485097
243	0xbe2d3c22	-0.1691747
244	0x3dbb41af	0.091433875
245	0x3e4244cf	0.18971561
246	0x3d4220be	0.047394507
247	0x3e2e97f8	0.17050159
248	0x3e1862f9	0.14881505
249	0xbdc02cc8	-0.09383541
250	0x3d9ac27d	0.07556627
251	0xbdbb80d4	-0.091554314
252	0xbdc8c613	-0.09803405
253	0xbc3b6e54	-0.0114398785
254	0xbdbb7f3f	-0.0915513
255	0x3cc6f312	0.024285827

static_encoder.conv.bias f4 [128]
0	0xbed80f30	-0.42199087
1	0xbe81ab3c	-0.25325954
2	0x3f2905af	0.660243
3	0x3d937f04	0.07201961
4	0xbf32c358	-0.6982932
5	0x3ea90d0b	0.33017763
6	0xbec3abbb	-0.38216957
7	0xbf1f634f	-0.6226091
8	0x3e88043a	0.26565725
9	0x3e089470	0.13337874
10	0xbf05aca5	-0.5221656
11	0x3f054434	0.52057195
12	0x3eb44d74	0.35215342
13	0xbf0f5f47	-0.56004757
14	0x3edbed47	0.42954466
15	0x3ed5bb66	0.41744536
16	0x3ca635bc	0.020289294
17	0xbf19c43e	-0.60065067
18	0xbf302ab4	-0.6881516
19	0x3e106b1a	0.14103356
20	0xbd3011bf	-0.042985674
21	0x3e966eca	0.293814
22	0xbe9fc932	-0.31208187
23	0x3c0e6c54	0.00869282
24	0xbcb2c268	-0.021821216
25	0xbf27e76d	-0.655875
26	0x3ee4ccc6	0.4468748
27	0x3dfc5fbe	0.12322949
28	0xbee3e5f4	-0.44511378
29	0x3e5ad688	0.213709
30	0x3e00f594	0.1259368
31	0x3d913107	0.07089429
32	0x3d455b5e	0.048182838
33	0x3f2cb058	0.6745658
34	0x3c390fae	0.011295242
35	0x3f0c1b42	0.5472909
36	0xbebbb90d	-0.3666462
37	0x3f148f1c	0.5803087
38	0x3f09fb0b	0.53898686
39	0xbf2115a6	-0.6292366
40	0xbead46e5	-0.3384315
41	0xbee0b5fe	-0.4388885
42	0xbf04092c	-0.51576495
43	0x3f07b5ee	0.5301198
44	0x3d3384a1	0.043827657
45	0x3f15ce29	0.585177
46	0x3eb90214	0.36134398
47	0x3ecd063e	0.40043825
48	0xbf2d67d6	-0.67736566
49	0x3e581efd	0.21105571
50	0xbe6b56ad	-0.22982283
51	0x3eae1bd3	0.34005603
52	0x3f336f68	0.7009187
53	0xbeb4e6a7	-0.35332224
54	0x3ea0ebae	0.3142981
55	0x3ef33463	0.47500905
56	0x3ed4497e	0.4146232
57	0xbeb1867f	-0.34672925
58	0x3f143b31	0.5790282
59	0x3f1b6e8a	0.60715544
60	0x3f03955e	0.5139979
61	0x3de0640a	0.10956581
62	0x3d8a4004	0.06750491
63	0xbe97c8fc	-0.29645526
64	0xbe26789f	-0.16256951
65	0xbed0e29b	-0.40797886
66	0x3ecba416	0.39773625
67	0xbed37ef1	-0.41307786
68	0x3e5dbb11	0.21653391
69	0xbed3c3ea	-0.41360408
70	0xbdfd2f0b	-0.12362488
71	0x3f129c28	0.57269526
72	0x3ee63aa7	0.44966623
73	0x3d372b2c	0.044718906
74	0x3eeb6189	0.4597285
75	0x3e3f8955	0.18704732
76	0x3dedf42f	0.1161884
77	0x3efe4e60	0.4966917
78	0x3ed220a9	0.41040543
79	0xbf016c2c	-0.5055568
80	0xbf142f89	-0.5788503
81	0xbf2fb1a1	-0.68630415
82	0xbf2ddf7c	-0.67919135
83	0x3e9ccba7	0.30624124
84	0xbeed9409	-0.46402004
85	0xbf23a80b	-0.6392829
86	0xbed68c7f	-0.41904065
87	0x3f193aee	0.59855545
88	0x3dea9807	0.11454778
89	0x3eefc15b	0.46827206
90	0x3eec1d6c	0.46116197
91	0xbecc35dd	-0.39884844
92	0x3ec47783	0.3837243
93	0x3f1f51d5	0.6223424
94	0x3eff8dac	0.49912775
95	0xbd6e5bf6	-0.05819317
96	0xbe7a5515	-0.24446519
97	0xbebc43b7	-0.36770412
98	0xbe6f45eb	-0.23366515
99	0xbe619c1a	-0.22032204
100	0xbec960cf	-0.39331672
101	0x3e3f3262	0.18671563
102	0xbf21df32	-0.63231194
103	0xbf04c27c	-0.5185926
104	0xbf3065ae	-0.6890515
105	0xbeec3d4c	-0.46140516
106	0x3eb5f777	0.35540363
107	0x3f1a79e8	0.60342264
108	0xbe24c138	-0.16089332
109	0xbf33e537	-0.7027163
110	0x3ecda1d8	0.4016254
111	0xbf0365c4	-0.5132716
112	0x3f333eb2	0.7001754
113	0x3f113d70	0.5673437
114	0x3e77bfad	0.24194212
115	0x3ef336c3	0.47502717
116	0xbea35be6	-0.3190605
117	0x3dcbad4a	0.09945162
118	0xbe00ca62	-0.12577203
119	0xbed6ed05	-0.41977707
120	0xbdf7a4b1	-0.12091959
121	0x3d5e486c	0.054268286
122	0x3d8397da	0.06425448
123	0xbded9da5	-0.11602334
124	0x3e8c2c47	0.2737753
125	0x3d91afb4	0.07113591
126	0xbe816499	-0.25272062
127	0x3daf4b0b	0.08559235

dynamic_encoder.conv.weight f4 [128, 2, 1]
0	0x3df36123	0.11883762
1	0x3e3c7375	0.18403418
2	0x3d75d340	0.060015917
3	0x3da2adf6	0.07943337
4	0xbe039253	-0.12848787
5	0xbe4a7e49	-0.19774736
6	0xbe0b2c09	-0.13591017
7	0x3e53a0f5	0.20666869
8	0xbdaa920d	-0.08328638
9	0xbe67563d	-0.22591491
10	0x3e13dc6a	0.1443955
11	0x3d3bdbbb	0.04586385
12	0x3dbc2bee	0.091880664
13	0xbd90f87d	-0.070786454
14	0x3dfc8db4	0.12331715
15	0xbd075d1c	-0.03304778
16	0x3d513a45	0.05108096
17	0xbe5950e6	-0.21222267
18	0x3dccdb59	0.10002775
19	0x3d15b194	0.036546305
20	0xbd7e7beb	-0.062129896
21	0x3e1432f4	0.14472562
22	0x3de2994c	0.11064395
23	0xbe666adf	-0.22501706
24	0x3de7cfa7	0.113189034
25	0x3ccdf47b	0.025140991
26	0x3e1f16b8	0.1553601
27	0xbe566a5e	-0.20939013
28	0x3c96be87	0.018401397
29	0x3e25efae	0.16204712
30	0x3dd97962	0.10618855
31	0x3e528789	0.20559515
32	0xbd8f3bff	-0.06993865
33	0x3e1a3abf	0.15061472
34	0x3c6d45e8	0.014481999
35	0xbe59bf79	-0.21264447
36	0xbd90019c	-0.07031557
37	0x3e601e50	0.21886563
38	0xbd5fc316	-0.054629408
39	0x3e209839	0.15683068
40	0x3e39d10f	0.18146156
41	0x3e4b4c2d	0.19853278
42	0xbdac3507	-0.08408552
43	0x3d5ef4b2	0.05443258
44	0xbe3d693b	-0.18497173
45	0x3e017a2c	0.12644261
46	0x3dd816e8	0.10551244
47	0x3d2fa8d9	0.042885635
48	0xbd900521	-0.07032228
49	0x3e0ec120	0.13940859
50	0x3d443e05	0.04791071
51	0x3e0ed88c	0.13949794
52	0x3d5a54a2	0.05330337
53	0xbe439dd9	-0.19103183
54	0xbe22531d	-0.15852018
55	0x3e6409e3	0.22269396
56	0x3e3ba267	0.1832367
57	0xbd8a88bb	-0.067643605
58	0xbe477f01	-0.19482042
59	0xbe56f3b1	-0.20991398
60	0xbd55362d	-0.05205362
61	0x3e74134a	0.23835483
62	0xbe20b2a2	-0.15693143
63	0xbc9a799c	-0.018856816
64	0xbd6c345f	-0.057667132
65	0xbe0c0b87	-0.13676272
66	0x3d0d7b16	0.034541212
67	0x3dcff7cb	0.10154685
68	0x3e3fde96	0.18737254
69	0xbddcef9a	-0.10787888
70	0xbe064fe0	-0.13116407
71	0x3e17be55	0.148187
72	0xbdb67530	-0.089090705
73	0x3e4c0cad	0.1992671
74	0xbe1233ad	-0.14277525
75	0x3e72ab9b	0.23698275
76	0x3d8b3d3f	0.06798791
77	0x3da3cbcb	0.07997855
78	0x3da196dd	0.07890103
79	0x3e35f305	0.17768486
80	0xbe436121	-0.1908002
81	0x3e3ae01a	0.1824955
82	0xbc4aec2d	-0.01238541
83	0xbe191f1c	-0.14953274
84	0x3def2bb9	0.11678261
85	0xbe40a93c	-0.18814558
86	0xbcdd3182	-0.027001146
87	0x3db825ce	0.08991586
88	0xb96af5c5	-0.00022407535
89	0x3e1aad8a	0.15105262
90	0x3e47f16b	0.19525687
91	0x3dfc8609	0.12330253
92	0x3ce1cd26	0.027563643
93	0x3d921114	0.07132164
94	0xbe5b9749	-0.2144443
95	0x3d5392e5	0.05165376
96	0x3e3ce85e	0.18448016
97	0xbc35e103	-0.01110101
98	0x3e20ddfc	0.1570968
99	0x3e560cd1	0.20903327
100	0xbe52c5ed	-0.20583315
101	0x3deb7610	0.11497128
102	0xbe4fc4e2	-0.20289949
103	0x3e6ba47c	0.23011965
104	0x3c76bf15	0.015060206
105	0x3e0b91b4	0.136298
106	0xbceb226b	-0.028702935
107	0x3d302846	0.043007158
108	0xbe494f34	-0.1965912
109	0xbe307fa6	-0.17236194
110	0xbcafa55e	-0.021441158
111	0xbd81a24c	-0.06329784
112	0xbe07fa9e	-0.13279197
113	0xbe650b5e	-0.22367617
114	0x3e368793	0.17825155
115	0x3d25817e	0.040406696
116	0xbe549ca9	-0.20762886
117	0xbe1b6e55	-0.15178807
118	0x3e444e6e	0.19170544
119	0xbcdb09dd	-0.026738102
120	0x3e12687a	0.14297667
121	0xbd8419fa	-0.06450267
122	0x3e10580e	0.1409609
123	0xbce2eb67	-0.02770014
124	0xbe3834c3	-0.17988877
125	0x3e4d68e5	0.20059545
126	0xbca7f274	-0.020501353
127	0xbe2e6a96	-0.17032847
128	0xbe4b449a	-0.19850388
129	0xbe16b513	-0.14717512
130	0xbe433ea1	-0.1906686
131	0xbe6ddff1	-0.23229958
132	0x3dae4977	0.08510106
133	0x3e6a3634	0.2287224
134	0x3d5bf72e	0.053702526
135	0x3e0364ff	0.12831496
136	0xbdc52dd3	-0.09627881
137	0x3dc341b0	0.09534013
138	0x3df47ea8	0.1193822
139	0x3e610736	0.21975407
140	0x3e3b4a63	0.18290095
141	0x3e4f7bbb	0.20262043
142	0x3cfe1bbe	0.031019088
143	0x3e38bd1f	0.18040894
144	0xbd8e6195	-0.06952206
145	0xbe16c805	-0.14724739
146	0xbdaf5535	-0.08561174
147	0xbe34c677	-0.17653833
148	0xbe196131	-0.14978482
149	0xbe31a513	-0.17348127
150	0x3d96efaf	0.07369935
151	0xbdfb614b	-0.122744165
152	0xbe156861	-0.14590599
153	0x3c99f943	0.018795615
154	0xbe3c1347	-0.18366729
155	0x3e2d0602	0.16896823
156	0x3d5005a1	0.05078662
157	0xbe5712fa	-0.21003333
158	0x3e1e32b0	0.15449023
159	0xbe42fbb6	-0.19041333
160	0x3e215417	0.15754734
161	0xbd7dd0de	-0.06196677
162	0xbe141e38	-0.14464653
163	0xbe32a1d1	-0.1744454
164	0x3e032f6e	0.12811062
165	0x3e5b7550	0.2143147
166	0xbe07cd1a	-0.13261834
167	0xbe4d4d59	-0.20049037
168	0x3c176e86	0.009242659
169	0xbe500dcd	-0.20317765
170	0x3bf23cdd	0.0073925094
171	0xbe4a573a	-0.19759837
172	0x3e0feeb7	0.14055906
173	0x3d5928a5	0.053017277
174	0xbe13fe12	-0.14452389
175	0x3dbc0270	0.091801524
176	0xbe41a7c7	-0.18911658
177	0x3d800e1c	0.06252691
178	0x3e52bae5	0.20579107
179	0xbdedb9cb	-0.11607703
180	0x3e1021ca	0.1407539
181	0x3d2c4149	0.04205445
182	0x3c90b132	0.017662618
183	0x3e3531dc	0.17694801
184	0x3cbbe68c	0.022937082
185	0xbe169367	-0.14704667
186	0xbdf73cc5	-0.12072138
187	0x3e72da39	0.23716058
188	0x3e2e475c	0.17019409
189	0x3e23115c	0.15924591
190	0x3d52d5a8	0.05147329
191	0xbe346a47	-0.17618667
192	0x3cc4b2e0	0.024011075
193	0xbe181777	-0.14852701
194	0x3e574a13	0.21024351
195	0x3e056a40	0.13028812
196	0x3e0c977c	0.13729662
197	0x3e72df9e	0.23718116
198	0x3cc8867f	0.024478195
199	0xbd216f70	-0.039412916
200	0xbe049f71	-0.12951447
201	0xbdcb72ea	-0.099340275
202	0xbdfe56eb	-0.12418922
203	0xbe0e4932	-0.1389511
204	0xbe0eb415	-0.13935883
205	0x3e32d396	0.17463526
206	0x3dbbbd85	0.09167007
207	0x3d45be66	0.04827728
208	0x3e3fb5b4	0.18721658
209	0x3e011ccf	0.12608646
210	0x3e0c2c82	0.13688853
211	0x3da0e1d4	0.07855573
212	0x3e3b46e9	0.18288769
213	0xbe3a2acd	-0.1818039
214	0xbe5768bb	-0.21036045
215	0x3e38194d	0.17978401
216	0x3e3e9984	0.18613249
217	0x3d1d45a8	0.038396508
218	0xbd68c97f	-0.056832787
219	0x3e3ea972	0.18619326
220	0x3e3f8df3	0.18706493
221	0xbe09fa46	-0.13474378
222	0xbe1bb6dc	-0.15206474
223	0x3df2cdc7	0.11855655
224	0x3dc2db40	0.09514475
225	0xbdd4eda0	-0.10396886
226	0xbdeeb704	-0.11656001
227	0xbd053a9e	-0.032526605
228	0x3dfe9c22	0.12432124
229	0xbdc2d0ba	-0.09512468
230	0xbcaeba8c	-0.021329187
231	0x3d1c8a95	0.0382181
232	0xbe1614ae	-0.14656326
233	0x3dbfed59	0.09371442
234	0x3dc80ddc	0.097682685
235	0xbe5ce968	-0.21573412
236	0xbe571878	-0.21005428
237	0xbe43f78b	-0.19137399
238	0x3e05447c	0.13014406
239	0xbd460a90	-0.048349917
240	0xbd28b8f7	-0.04119202
241	0xbabbc55e	-0.0014325788
242	0x3d574392	0.052554674
243	0x3da90c77	0.082543306
244	0xbe091fc7	-0.13391028
245	0xbe6c229d	-0.23060079
246	0x3d9666c2	0.07343818
247	0xbe52e21c	-0.20594066
248	0xbdd19416	-0.10233323
249	0xbe3124d5	-0.17299207
250	0xbe1be5aa	-0.15224329
251	0xbdac2782	-0.08405973
252	0xbd06fbc0	-0.03295493
253	0xbe5253ce	-0.20539781
254	0x3d963882	0.07334997
255	0xbe06f2a9	-0.13178505

dynamic_encoder.conv.bias f4 [128]
0	0x3ed57c8f	0.41696593
1	0x3e9ac277	0.3022649
2	0x3f2b23c1	0.6685143
3	0x3df2252f	0.118234985
4	0xbe1a39ea	-0.15061155
5	0x3e82a8ff	0.2551956
6	0x3edcb0ee	0.43103737
7	0xbeeaff36	-0.45897835
8	0x3d4eda70	0.050501287
9	0xbe228cf1	-0.15874077
10	0xbe7729ce	-0.24137041
11	0xbdb55106	-0.088533446
12	0x3f2a4cd3	0.66523474
13	0x3e80095f	0.2500715
14	0x3e358c00	0.17729187
15	0x3e06d180	0.13165855
16	0x3f228385	0.6348193
17	0x3e4fe6a4	0.20302826
18	0xbe080122	-0.13281682
19	0xbdacc69f	-0.084363215
20	0x3e3035e9	0.17208065
21	0x3e68c3a1	0.22730877
22	0x3ef59505	0.47965255
23	0x3da902bf	0.08252477
24	0xbe9dd21b	-0.3082436
25	0x3f192c54	0.59833264
26	0xbe61b8e8	-0.22043192
27	0x3e5a23f1	0.21302773
28	0x3f267e30	0.65036297
29	0xbeb4dfc0	-0.35326958
30	0x3e920f1c	0.28527153
31	0x3f00696a	0.5016085
32	0x3f07c540	0.53035355
33	0x3e0df994	0.13864738
34	0xbedc9ba1	-0.43087485
35	0xbed5cdfb	-0.41758713
36	0xbec748b8	-0.38922668
37	0xbe9515f5	-0.29118314
38	0xbdc965be	-0.09833859
39	0xbf09b1bd	-0.5378683
40	0x3f038496	0.51374185
41	0x3ea0ae3d	0.31382933
42	0x3f142530	0.57869244
43	0xbdf1d4c1	-0.11808158
44	0xbe314fbc	-0.17315573
45	0xbe49357a	-0.19649306
46	0xbec7ffc2	-0.39062315
47	0x3e0aa3bd	0.13539024
48	0x3f19d6cf	0.60093397
49	0xbdcd7d99	-0.100337215
50	0xbdb549a0	-0.088519335
51	0x3e9e7ca7	0.30954477
52	0x3e7da676	0.24770531
53	0x3ee5221d	0.4475259
54	0xbe9b5890	-0.30341005
55	0x3ee4f6ec	0.44719636
56	0x3f1bffea	0.6093737
57	0xbf263516	-0.6492475
58	0xbe8bb602	-0.27287298
59	0x3e8eaff6	0.27868623
60	0x3ee78152	0.4521585
61	0x3eb5a925	0.3548061
62	0xbe70a938	-0.23502052
63	0x3e14d508	0.1453439
64	0xbec7e40e	-0.3904118
65	0xbd2e4fe3	-0.042556655
66	0xbf1648f6	-0.5870508
67	0xbf150d92	-0.5822383
68	0x3ea48bc0	0.3213787
69	0x3ed0f90a	0.40815002
70	0x3f32101c	0.6955583
71	0xbe7f864c	-0.24953574
72	0x3f1da49f	0.61579317
73	0xbee7c5ba	-0.4526804
74	0x3d92088b	0.07130536
75	0x3f28470a	0.65733397
76	0x3efa950d	0.48941842
77	0x3eaf2e87	0.34215185
78	0xbe47c3be	-0.19508263
79	0xbe8e61b0	-0.27808905
80	0xbd337a53	-0.04381783
81	0x3eb2b4a8	0.34903455
82	0xbda1d276	-0.0790147
83	0xbf2adbca	-0.6674162
84	0xbeb6870d	-0.3564991
85	0x3ed5198a	0.41621047
86	0xbdfec3b1	-0.12439669
87	0xbe7bd2e5	-0.24592169
88	0x3dc887f8	0.09791559
89	0xbf2b0a72	-0.66812813
90	0xbd30e5a1	-0.04318774
91	0xbd8c0c5a	-0.068382934
92	0xbe5726c0	-0.21010876
93	0x3f2bbabe	0.6708182
94	0xbe3522d1	-0.17689063
95	0xbd0aaae4	-0.03385438
96	0xbec868d9	-0.39142492
97	0xbf0ceac1	-0.55045706
98	0x3f014d19	0.50508267
99	0xbf27daf7	-0.6556849
100	0xbf2c4ea2	-0.67307484
101	0x3d78c86c	0.060738012
102	0xbf20814c	-0.6269729
103	0x3f0a603d	0.540531
104	0x3e917f42	0.28417403
105	0xbf08046e	-0.5313176
106	0xbdc9eba6	-0.098593995
107	0x3edfe667	0.4373047
108	0x3ec2cb56	0.38045758
109	0x3ea4cca2	0.32187372
110	0xbec015d0	-0.37516642
111	0xbe7092ac	-0.23493451
112	0x3e6d552b	0.2317702
113	0x3e1a71e7	0.15082513
114	0xbee3e29e	-0.44508833
115	0xbd6a7ada	-0.057246067
116	0xbe82017a	-0.25391752
117	0x3e0d83d3	0.13819818
118	0xbe8a6f49	-0.2703803
119	0xbe1a393e	-0.15060899
120	0x3d83945d	0.064247824
121	0xbeb0625e	-0.34450048
122	0x3f05ecca	0.52314436
123	0xbf0a0e83	-0.53928393
124	0x3f11b2e0	0.56913567
125	0x3ead080d	0.33795205
126	0xbeaacf12	-0.33361107
127	0xbecea5c7	-0.40360853

decoder.conv.weight f4 [128, 2, 1]
0	0xbe2a6e7a	-0.16643706
1	0xbde4bdf9	-0.11169047
2	0x3e089436	0.13337788
3	0xbd4d22c0	-0.05008197
4	0x3d9f0e41	0.077663906
5	0xbd96c5f1	-0.07361973
6	0xbe0b9cc5	-0.13634022
7	0xbc353f53	-0.011062461
8	0x3e463afa	0.19358435
9	0x3e4d754a	0.20064273
10	0xbe00ee76	-0.12590966
11	0xbdc69a26	-0.0969737
12	0x3e10e76f	0.14150785
13	0x3cf5a02f	0.029983608
14	0x3be31af6	0.006930704
15	0x3e539310	0.20661569
16	0x3da9fb55	0.08299891
17	0x3e4362c4	0.19080645
18	0xbe39f680	-0.18160439
19	0x3e0d3ef3	0.13793544
20	0x3e52884d	0.20559807
21	0x3e40f422	0.1884313
22	0x3d552ca6	0.052044533
23	0x3e509aaf	0.20371507
24	0xbd7a34cf	-0.06108552
25	0x3cb4daf0	0.022077054
26	0xbb100d43	-0.002198056
27	0xbce615fd	-0.028086657
28	0x3e387107	0.18011867
29	0xbdc63b4f	-0.09679281
30	0xbe33bb4b	-0.17551915
31	0xbdffe169	-0.124941655
32	0xbcceb9ff	-0.025235174
33	0x3df5080e	0.11964427
34	0x3de4b701	0.11167718
35	0xbe31bd8b	-0.17357461
36	0xbd4bcfdf	-0.04975879
37	0x3e29db71	0.16587617
38	0x3e450282	0.19239238
39	0x3cbaf8ee	0.022823777
40	0x3e322ff2	0.17401102
41	0xbe19ee9b	-0.15032427
42	0xbe103f98	-0.14086759
43	0x3e0c89cb	0.13724439
44	0xbe0a101f	-0.13482712
45	0xbe413844	-0.1886912
46	0x3cd28845	0.025699744
47	0x3df6648c	0.120308965
48	0x3dc3e64b	0.09565409
49	0xbe1c88c7	-0.15286551
50	0xbe4aa7b1	-0.19790532
51	0xbe25e78c	-0.1620161
52	0xbd109b44	-0.035304323
53	0x3d0f26a7	0.03494897
54	0x3dc8c86a	0.09803851
55	0x3dfa0c59	0.122093864
56	0xbd9b1426	-0.075722024
57	0xbd8422be	-0.06451939
58	0x3e1468a3	0.1449304
59	0xbcae3575	-0.021265725
60	0xbdd87a1c	-0.105701655
61	0x3d7514d2	0.05983431
62	0xbe0b30a6	-0.13592777
63	0xbe1e9022	-0.1548467
64	0xbe41c3f6	-0.1892241
65	0x3e56f566	0.2099205
66	0x3cca0583	0.024660831
67	0x3d914e0a	0.07094963
68	0x3b1f9555	0.0024350483
69	0x3b7c7b87	0.0038525776
70	0x3cb5dd32	0.0222002
71	0xbe3f2ccc	-0.18669432
72	0x3cb351df	0.021889625
73	0x3e47665a	0.19472638
74	0x3dbe9e56	0.09307544
75	0xbe163633	-0.14669113
76	0x3e320b39	0.17387094
77	0x3e06cda8	0.13164389
78	0x3db7b6de	0.08970426
79	0x3dddcde9	0.1083029
80	0x3e26312e	0.16229698
81	0x3df5f630	0.12009847
82	0xbd6cbafc	-0.05779551
83	0x3dbb7a64	0.091542035
84	0x3d0e3f46	0.03472831
85	0x3d37e81a	0.044899084
86	0xbd18b112	-0.037278242
87	0x3d5b3b3f	0.0535233
88	0x3d95cf81	0.07314969
89	0xbdb2b48f	-0.08725845
90	0xbd913faf	-0.07092225
91	0xbe26bdec	-0.16283387
92	0x3cedb52d	0.029017055
93	0xbe090369	-0.13380207
94	0x3d9e8d00	0.07741737
95	0x3e1b7e2c	0.1518485
96	0xbd92e111	-0.07171834
97	0x3e5aac7b	0.21354859
98	0x3e17f5bc	0.14839834
99	0x3c6fa750	0.014627293
100	0x3e5829f9	0.21109761
101	0x3e353988	0.17697728
102	0x3d6595b0	0.056050956
103	0x3cd7cffc	0.026344292
104	0x3d70b4a4	0.058766022
105	0xbdf826eb	-0.12116798
106	0x3e1c9c1e	0.15293929
107	0x3e287538	0.16450965
108	0xbbaa0fd0	-0.0051898733
109	0x3c5962a5	0.013268148
110	0xbe39293f	-0.1808214
111	0x3c677e1d	0.014129189
112	0xbdc59853	-0.09648194
113	0xbd1ca628	-0.038244396
114	0x3da636bc	0.081159085
115	0x3e0dd16c	0.1384942
116	0x3e106479	0.14100827
117	0x3de55fe2	0.11199929
118	0x3dc42917	0.0957815
119	0xbe571648	-0.21004593
120	0x3c4a635d	0.012352792
121	0x3e15e1e2	0.14636949
122	0x3e2b55d4	0.1673196
123	0x3d829e81	0.063778885
124	0xbe553cdf	-0.20824002
125	0x3e3cf421	0.18452503
126	0xbe0ed59a	-0.1394867
127	0xbe5bc1dd	-0.21460672
128	0xbc1c1c3d	-0.009528217
129	0x3cbc582d	0.022991264
130	0xbe535eaa	-0.2064158
131	0xbd38404a	-0.044983186
132	0xbe419d79	-0.18907727
133	0x3e2c7309	0.16840757
134	0x3d976985	0.07393173
135	0x3e36cafe	0.17850873
136	0xbdf5ddab	-0.120051704
137	0x3d3a5bc9	0.04549769
138	0xbaafb048	-0.0013403976
139	0x3e3187c4	0.17336947
140	0xbdfc406a	-0.123169735
141	0xbbd57a6c	-0.006514838
142	0x3de3c92f	0.11122357
143	0x3e28e485	0.16493423
144	0xbe29d7a8	-0.16586173
145	0xbca90013	-0.020629918
146	0x3d3cbe03	0.046079647
147	0xbdc6749c	-0.0969021
148	0xbe48d792	-0.19613484
149	0xbcc51c8a	-0.02406146
150	0xbe0384a6	-0.1284357
151	0x3e3c72d2	0.18403175
152	0xbbcd25f5	-0.0062606283
153	0x3df98bc5	0.12184862
154	0x3d22c7d7	0.039741363
155	0xbddb3fb0	-0.10705507
156	0x3e08fa90	0.13376832
157	0x3c60ffa7	0.013732827
158	0xbd679814	-0.056541517
159	0x3d62217a	0.055207707
160	0x3df3d622	0.11906077
161	0xbd27c0b2	-0.040955253
162	0x3d9f5e03	0.07781603
163	0xbe28e344	-0.16492945
164	0x3bb0f4cd	0.0054002763
165	0x3cf8330d	0.03029778
166	0x3e39f043	0.18158059
167	0x3e395a3d	0.1810083
168	0xbdc90ef5	-0.09817306
169	0x3e17d7ed	0.14828463
170	0xbd32cc49	-0.043651853
171	0x3dfcba7b	0.12340256
172	0x3e1f7bcd	0.1557457
173	0xbbd90e0e	-0.00662399
174	0x3de3b4ec	0.111184925
175	0x3e2155ca	0.15755382
176	0x3e16c267	0.14722596
177	0x3a982ef6	0.0011610675
178	0xbe4378f8	-0.19089115
179	0xbdc1e60f	-0.09467708
180	0xbe439b1f	-0.19102143
181	0xbe0c544f	-0.13704036
182	0xbd9f3538	-0.077738225
183	0x3dd6de44	0.104916126
184	0x3cbeafad	0.023277128
185	0xbb0b661c	-0.0021270579
186	0x3dceb8da	0.100938514
187	0x3e1e1722	0.15438512
188	0xbe1baba9	-0.15202202
189	0x3dee90a7	0.11648684
190	0xbe58ab26	-0.21159038
191	0xbe0b22f7	-0.13587557
192	0xbdb3da00	-0.087818146
193	0x3dcf26dc	0.10114834
194	0x3b9229ef	0.0044605653
195	0xbe1fb5d0	-0.155967
196	0xbce65466	-0.028116416
197	0x3e3b54cc	0.18294066
198	0x3e34831f	0.17628144
199	0x3e078b0a	0.13236633
200	0xbe38a414	-0.18031341
201	0x3d5f81db	0.0545672
202	0xbc027dfa	-0.007964605
203	0x3d9fa6d2	0.0779549
204	0xbdddcc06	-0.1082993
205	0x3d4fcfa6	0.05073514
206	0x3c0bb290	0.008526459
207	0xbd14b016	-0.03630074
208	0x3cb07993	0.021542346
209	0x3dc20d62	0.09475209
210	0xbc9b5552	-0.018961582
211	0x3d3c3d7f	0.045957085
212	0xbe0729df	-0.13199566
213	0x3d8fe36e	0.07025801
214	0xbc89a147	-0.016800536
215	0x3e29e90e	0.1659281
216	0xbdf201fd	-0.118167855
217	0x3d95f371	0.073218234
218	0x3e38744c	0.18013114
219	0x3d144e69	0.03620759
220	0xbe358a2a	-0.17728487
221	0x3c897896	0.016781133
222	0x3e1a0566	0.15041122
223	0x3e0bfc3a	0.13670436
224	0x3c86d6c8	0.016459838
225	0x3d2e0dd5	0.04249366
226	0x3e473774	0.19454747
227	0xbddbc7a5	-0.107314385
228	0xbcb2e1ad	-0.021836126
229	0xbe45217a	-0.19251052
230	0xbd97d8a6	-0.07414369
231	0x3d091a9b	0.03347264
232	0x3de127a3	0.10993888
233	0xbd29818c	-0.04138331
234	0xbe343dd2	-0.17601708
235	0xbe4a3169	-0.19745411
236	0x3e162241	0.14661504
237	0xbdd2f03c	-0.10299727
238	0x3df42c40	0.119225025
239	0xbe41fcee	-0.18944141
240	0x3e1e6004	0.15466315
241	0xbd2b3ce0	-0.0418061
242	0x3e36e8c2	0.17862228
243	0xbd554919	-0.052071664
244	0x3e289923	0.16464667
245	0xbda46e25	-0.08028821
246	0xbdb6efc3	-0.0893245
247	0x3d304269	0.043032084
248	0x3df0486b	0.11732563
249	0x3e2f5127	0.17120801
250	0xbd4dfa00	-0.050287247
251	0x3e304ef3	0.17217617
252	0xbde69d47	-0.11260467
253	0xbe16288f	-0.1466391
254	0x3dab20c7	0.08355861
255	0x3e55ec57	0.20890938

decoder.conv.bias f4 [128]
0	0xbe2f19ce	-0.17099687
1	0x3d886373	0.066595934
2	0x3f0c29f2	0.54751503
3	0xbdfea5ef	-0.12433993
4	0xbeacb519	-0.33731917
5	0x3e09ad02	0.13444903
6	0xbe84e183	-0.25953302
7	0x3d8075fe	0.06272505
8	0x3e1e09d0	0.1543343
9	0x3ed45787	0.41473028
10	0xbf06112b	-0.52369946
11	0x3f23e2aa	0.64017737
12	0xbef9f022	-0.4881602
13	0x3dc6a432	0.096992865
14	0x3e94b823	0.29046735
15	0xbf0e3ca4	-0.5556128
16	0x3e7465d8	0.23866975
17	0x3f34c787	0.70616955
18	0xbe9f7ee7	-0.31151506
19	0xbe8f75bc	-0.28019512
20	0xbf3028fc	-0.6881254
21	0xbe76d463	-0.24104457
22	0x3ed5e4b5	0.41776052
23	0x3e05aef2	0.13055018
24	0x3f254b3a	0.6456791
25	0xbecf1778	-0.40447593
26	0xbf1f2927	-0.6217217
27	0xbe607f99	-0.21923675
28	0xbe8af6c2	-0.27141386
29	0x3e909937	0.28241894
30	0x3f1c4f5b	0.61058587
31	0xbc9121ee	-0.017716374
32	0xbe46a42a	-0.19398561
33	0x3e87c041	0.26513866
34	0x3de11276	0.10989849
35	0x3f04629f	0.51712984
36	0xbee9d52d	-0.45670453
37	0x3f1e9f31	0.61961657
38	0x3e70f9b5	0.23532756
39	0x3e8b7b60	0.27242565
40	0x3dc47202	0.09592058
41	0x3ee78a8f	0.452229
42	0xbe0d4a4a	-0.1379787
43	0xbef541ed	-0.4790186
44	0xbd2b93ac	-0.041888878
45	0x3f0542d2	0.52055085
46	0xbe8648cb	-0.26227412
47	0xbdf3f51a	-0.11911984
48	0x3e262892	0.16226414
49	0x3f11be03	0.5693056
50	0xbe3f05e2	-0.18654588
51	0x3e590218	0.21192205
52	0x3ed64e9c	0.4185685
53	0xbbf70f9c	-0.0075397026
54	0xbef288f6	-0.47370118
55	0xbf328e64	-0.6974852
56	0xbe0eee11	-0.13958003
57	0x3c652c17	0.013987563
58	0x3eec0d8d	0.46104088
59	0xbe84fec9	-0.25975636
60	0xbf0f35b0	-0.55941296
61	0xbe98af80	-0.29821396
62	0x3ef59fdb	0.47973523
63	0xbe6fc686	-0.23415574
64	0x3e852e6e	0.26011986
65	0x3f010c41	0.5040932
66	0xbf14f612	-0.58187973
67	0x3f1c4627	0.61044544
68	0xbf2b5995	-0.66933566
69	0x3f172161	0.5903531
70	0xbdff249d	-0.12458155
71	0xbeb70e31	-0.35753015
72	0xbf13aeb3	-0.57688445
73	0xbee764aa	-0.45193988
74	0x3ed9b63b	0.42521843
75	0x3ee16119	0.44019392
76	0x3dc4e0b5	0.09613172
77	0x3da74e9f	0.08169293
78	0xbd9c2b53	-0.07625451
79	0x3f21d205	0.6321109
80	0xbf0fd79c	-0.5618837
81	0x3e8cdf04	0.27513897
82	0xbec8ea9f	-0.39241502
83	0xbe38d627	-0.18050443
84	0x3eb185c2	0.34672362
85	0xbeec4174	-0.46143687
86	0x3ef6ff4f	0.4824166
87	0xbe7a3657	-0.24434792
88	0xbee4648c	-0.4460796
89	0x3f0af503	0.5428011
90	0xbe0d8a10	-0.13822198
91	0x3e79f353	0.24409227
92	0x3efa7e45	0.4892446
93	0x3c8da7bc	0.017291896
94	0xbf145454	-0.57941175
95	0x3e093d1f	0.13402222
96	0xbea37f45	-0.31933036
97	0x3f216738	0.63048124
98	0xbf088cc4	-0.5333979
99	0xbd79c407	-0.060977962
100	0x3de07814	0.10960403
101	0x3f25c49b	0.6475312
102	0x3ef4f29a	0.4784134
103	0x3ed36a44	0.41292012
104	0xbf1905e8	-0.5977464
105	0xbec9d717	-0.39421913
106	0x3ea3d737	0.32000133
107	0x3ea9a81c	0.3313607
108	0xbcfc1290	-0.03077057
109	0x3f2b9173	0.6701881
110	0xbe384e6c	-0.17998666
111	0xbdb042f1	-0.08606518
112	0x3f149a54	0.58047986
113	0x3f2f7cb5	0.6854966
114	0x3e8d69e7	0.2761986
115	0xbdfed22b	-0.1244243
116	0x3e205c08	0.15660107
117	0xbf1d751c	-0.6150682
118	0x3c033b5b	0.008009757
119	0x3e89d05b	0.26916775
120	0x3e64fef2	0.22362879
121	0x3ef7edfc	0.48423755
122	0xbf0b69bb	-0.54458207
123	0x3f1d5ae4	0.61466813
124	0xbef74f87	-0.48302862
125	0x3d35c5cc	0.044378087
126	0xbeefc1cf	-0.46827552
127	0xbe79e8e3	-0.24405245

pointer.v f4 [1, 1, 128]
0	0xbdf9e979	-0.122027345
1	0x3e0eb31e	0.13935515
2	0xbdb14643	-0.086559795
3	0xbdd379ea	-0.10325988
4	0xbe13200b	-0.14367692
5	0x3e0c47bc	0.1369924
6	0x3c929af4	0.017896153
7	0x3d89017d	0.06689737
8	0x3dad378d	0.08457861
9	0x3d874e23	0.066067
10	0x3d4f618d	0.05063014
11	0x3d13accf	0.036053475
12	0x3d0ae7db	0.03391252
13	0xbe1907ef	-0.14944433
14	0x3d981c09	0.07427222
15	0xbd9c7d11	-0.07641042
16	0xbdb0b19e	-0.08627628
17	0x3c471ed4	0.012153346
18	0x3dfd5f08	0.123716414
19	0xbd7c9e4f	-0.061674412
20	0xbd6be007	-0.057586696
21	0xbc02c642	-0.007981839
22	0x3c8c8069	0.017151074
23	0xbc817953	-0.015804922
24	0xbd8b9d0d	-0.068170644
25	0xbd0720b9	-0.03299019
26	0xbda85b83	-0.082205795
27	0x3df0ab63	0.117514394
28	0x3dedf1d3	0.1161839
29	0x3dca3795	0.09873883
30	0xbd80feb0	-0.06298578
31	0xbdf67f32	-0.12035979
32	0xbd51632d	-0.051119972
33	0x3c9659d7	0.018353386
34	0xbdda85e2	-0.10670067
35	0x3ca7260a	0.02040388
36	0x3dec98ce	0.11552583
37	0xbde00dc4	-0.109401256
38	0x3dd9ab5c	0.10628387
39	0xba2ba31b	-0.0006547437
40	0x3cfe6d5c	0.031058006
41	0x3cc6cecd	0.024268532
42	0x3ce0b168	0.027428344
43	0x3cacd67f	0.021098373
44	0x3d3e891f	0.046517488
45	0xbd98c792	-0.0745994
46	0x3d961866	0.073288724
47	0x3d5841c5	0.052797098
48	0x3bbf5c18	0.005839836
49	0xbdca69a1	-0.09883428
50	0xbe040eb9	-0.12896241
51	0xbe19bb7a	-0.15012923
52	0xbde14acd	-0.11000595
53	0xbc237bb4	-0.009978224
54	0xbdbc7056	-0.09201114
55	0xbe0c6f3e	-0.1371431
56	0xbcdf8972	-0.027287219
57	0x3acd63c6	0.0015669994
58	0x3e11bf88	0.1423322
59	0x3dbb9b30	0.09160459
60	0xbdf6eac5	-0.120564975
61	0xbd76b104	-0.06022741
62	0x3dd9a844	0.10627797
63	0x3c19e581	0.009393097
64	0xbd69b734	-0.05705948
65	0xbb2997e2	-0.0025877883
66	0x3d62edc1	0.05540252
67	0xbdde3b7b	-0.10851189
68	0xbe10d814	-0.14144927
69	0x3cf76d2e	0.030203428
70	0x3da171b3	0.078830145
71	0x3d507279	0.05089042
72	0x3d961210	0.07327664
73	0xbd1e14e8	-0.038594157
74	0xbe0e4666	-0.13894042
75	0xbb306829	-0.0026917553
76	0x3d74fbae	0.059810333
77	0xbda12fc6	-0.0787044
78	0xbe1bcbd4	-0.15214473
79	0xbc5d8841	-0.013521255
80	0x3c220e2f	0.009891077
81	0xbdcaf7fe	-0.09910582
82	0xbde2465c	-0.11048576
83	0x3d846543	0.06464627
84	0xbe139831	-0.14413525
85	0x3dd7ee8c	0.10543546
86	0xbc6b27aa	-0.014352718
87	0xbcfbf91e	-0.030758437
88	0x3db8c948	0.09022766
89	0x3dc75afb	0.0973415
90	0xbdc7fceb	-0.09765037
91	0xbd37cb6d	-0.044871736
92	0xbd83fcb5	-0.064446844
93	0xbdbf1ada	-0.093312934
94	0x3d0813ac	0.033221886
95	0xbe02eee5	-0.12786444
96	0x3df77091	0.12082017
97	0xbd587b99	-0.052852247
98	0xbdd26a11	-0.10274137
99	0xbb08b454	-0.0020859437
100	0xbdae363b	-0.085064374
101	0xbb85dbc0	-0.004085034
102	0x3db3d328	0.08780509
103	0xbd63093f	-0.05542874
104	0xbe1d2d47	-0.15349303
105	0xbe1681fc	-0.14698023
106	0x3d51c858	0.051216453
107	0x3a879e4e	0.0010346861
108	0x3dfbc090	0.12292588
109	0x3da81751	0.08207572
110	0x3dcaea52	0.09907974
111	0x3de2b744	0.110701114
112	0x3d9667dc	0.07344028
113	0x3ca54b8e	0.020177629
114	0x3d46a186	0.048493885
115	0x3e1b735d	0.15180726
116	0xbdbe133f	-0.09281015
117	0xbdce609f	-0.10077023
118	0xbe05f44b	-0.13081472
119	0xbd71044c	-0.05884199
120	0xbdcb2740	-0.09919596
121	0xbe14ef7f	-0.14544486
122	0xbc7e597d	-0.015524265
123	0x3b32e961	0.002729975
124	0xbd1e2b7e	-0.038615696
125	0x3dad5194	0.084628254
126	0xbdb5111e	-0.088411555
127	0xbdddbc5c	-0.10826942

pointer.W f4 [1, 128, 256]
0	0xbb456476	-0.0030119694
1	0xbc07906a	-0.008274177
2	0xbc35aca9	-0.011088529
3	0xbc13d93f	-0.0090239635
4	0x3b45fbc5	0.003020988
5	0x3b16436b	0.0022928368
6	0x398a329a	0.00026359112
7	0xbad02c2e	-0.0015882307
8	0x3b545c00	0.003240347
9	0xbc475c8e	-0.012168063
10	0xbc67c343	-0.014145675
11	0x3c2d8dbe	0.010592876
12	0x3c580d9c	0.0131868385
13	0xbbc18659	-0.005905908
14	0x3b357dac	0.0027693314
15	0x3c0289b7	0.007967404
16	0xbbb28539	-0.0054480103
17	0xbc3f169a	-0.0116631035
18	0xbc29d238	-0.010365061
19	0xbc1610c1	-0.009159268
20	0x3c701432	0.014653252
21	0xb9bb4c74	-0.0003572438
22	0x3b252f8f	0.002520535
23	0x3c4e8abb	0.012606318
24	0x3c7ec7d0	0.015550569
25	0x3c358182	0.01107824
26	0x39d3445d	0.0004029599
27	0xbc48db7b	-0.0122593595
28	0xbc829034	-0.015937902
29	0x3802f7a2	3.122504e-05
30	0x3c0e3f54	0.008682091
31	0xbc140721	-0.009034903
32	0xbc0f575b	-0.0087488545
33	0xbbb85c2b	-0.0056262217
34	0xbc0ba96f	-0.008524283
35	0x3c17333c	0.009228524
36	0x3b922084	0.0044594426
37	0x3c081a0e	0.008306993
38	0x3c08bc23	0.008345637
39	0x3c535beb	0.012900333
40	0x38df9d87	0.000106628104
41	0xbaace59a	-0.0013190985
42	0xbc335f75	-0.010948052
43	0xbb8962af	-0.004192672
44	0xbb98e196	-0.004665564
45	0x3c23d165	0.009998654
46	0xba3eed5b	-0.00072832935
47	0x3c19bbcd	0.009383154
48	0xbbc1533a	-0.005899814
49	0xbbb31eae	-0.005466304
50	0x3c438afe	0.011934994
51	0x3bfa59f8	0.0076401196
52	0xbbb0a19a	-0.005390358
53	0xbbdf57f9	-0.006815907
54	0x3c243902	0.010023357
55	0xbc78691c	-0.015161779
56	0x3b9ace3b	0.0047242916
57	0x3b7937b7	0.0038027593
58	0xba786db3	-0.00094767957
59	0xbc09c10f	-0.008407845
60	0x3c84f006	0.016227733
61	0x3c56167c	0.013066884
62	0x3b38502b	0.0028123956
63	0x3b6101a7	0.003433326
64	0x3c1c0cb6	0.009524515
65	0xbbbc0721	-0.0057381545
66	0x3c0305e3	0.007997009
67	0x3b0651aa	0.0020495453
68	0xbc4e278c	-0.012582671
69	0xbc32fc89	-0.010924467
70	0xbc63dc88	-0.013907559
71	0xbc318659	-0.010835254
72	0xbaa6ffa3	-0.0012740981
73	0x3c4db304	0.012554888
74	0x3bbc69e3	0.0057499274
75	0x3ab924c8	0.0014125342
76	0xbabe1d97	-0.0014504668
77	0x3b96b5bf	0.0045993025
78	0xbbc504a4	-0.006012516
79	0xbc327238	-0.01089149
80	0x3b9d680d	0.0048036636
81	0xbb56ffca	-0.003280627
82	0xbc3234f8	-0.010876887
83	0xbc31c60f	-0.0108504435
84	0x3b70b3ba	0.003672822
85	0xbb94c9ae	-0.0045406437
86	0x3bc81007	0.0061054262
87	0x3b4b45e0	0.003101699
88	0xba090871	-0.0005227393
89	0x3c2e3c56	0.010634502
90	0xbae115e6	-0.0017172664
91	0xbc1e1482	-0.009648444
92	0x3b626efc	0.0034551015
93	0xbc054637	-0.008134416
94	0x3c25d662	0.010121914
95	0x3a9a0b69	0.0011752668
96	0x3ba23227	0.0049498263
97	0xbc212cfc	-0.009837385
98	0x3c09de85	0.008414869
99	0x3a01081b	0.0004922167
100	0x3a0f3985	0.0005463588
101	0xbbd81a5b	-0.0065949387
102	0x3bb2a5ce	0.0054518944
103	0xbbf3ffec	-0.0074462797
104	0xba4abdd6	-0.0007733976
105	0xbc422a12	-0.011850851
106	0xbc7b575e	-0.015340654
107	0xbc55044b	-0.013001512
108	0x3c49c05e	0.01231393
109	0xbc196978	-0.009363525
110	0x3c56d5de	0.013112513
111	0x3b1ca1ae	0.002390008
112	0x3c1931aa	0.00935022
113	0xbc4f0aaa	-0.01263682
114	0x3c440a56	0.011965355
115	0xbc298d7c	-0.010348674
116	0x3c7f1620	0.01556924
117	0x3b7df6bb	0.00387518
118	0x3bf5c32f	0.0075000743
119	0x3c2ce520	0.0105526745
120	0x3c771b86	0.015082246
121	0xbc4792ff	-0.012181043
122	0xbc1f5a71	-0.009726153
123	0x3be4caba	0.0069821747
124	0xbc000fca	-0.007816264
125	0x3b581eef	0.0032977422
126	0xbb886885	-0.0041628503
127	0x3b41c32e	0.00295658
128	0xbc0ee9b6	-0.008722713
129	0x3ba9a08a	0.0051766085
130	0x3c279972	0.010229455
131	0xbb8bb7ff	-0.0042638774
132	0x3bf6fccb	0.0075374595
133	0xbbe84f7f	-0.007089555
134	0xba725628	-0.00092444057
135	0x3c0c1b48	0.008551426
136	0xbc3a15d9	-0.011357748
137	0xbc2c47f3	-0.010515201
138	0xbaedaf72	-0.0018133952
139	0x3b94c327	0.0045398655
140	0xbc317f57	-0.010833583
141	0x3b46718c	0.0030280082
142	0x3c19d481	0.009389044
143	0xbb9f4af7	-0.0048612314
144	0x3b582ad4	0.0032984512
145	0xbbc4fdc0	-0.0060116947
146	0x3ad9ff42	0.0016631859
147	0xbafe9a9c	-0.0019424739
148	0x3c20d787	0.009817011
149	0x3c4469cb	0.011988114
150	0x3c40227a	0.01172697
151	0xbc078d38	-0.008273415
152	0xbc62e862	-0.01384935
153	0xbbf09db0	-0.0073430166
154	0xbc2b4090	-0.010452405
155	0xbbe09e75	-0.006854827
156	0xba749918	-0.0009330674
157	0x3c02d7a3	0.007985982
158	0xbc434163	-0.011917445
159	0x3bdd1505	0.0067468905
160	0xbc7ef6a8	-0.015561737
161	0xbc74f574	-0.014951099
162	0x3bb74365	0.005592751
163	0xbc1d7de5	-0.009612535
164	0xbc2da68f	-0.010598793
165	0xbb969b06	-0.004596117
166	0x3baf8a1e	0.005357041
167	0x3b58bafd	0.0033070438
168	0xbb969af4	-0.0045961086
169	0x3c6b61dc	0.014366593
170	0x3c0ae95d	0.00847849
171	0xb71b2480	-9.247218e-06
172	0x395e49da	0.00021199082
173	0xbb9114b2	-0.004427516
174	0x3c320f66	0.010867929
175	0xbc4d20f1	-0.012520061
176	0xbbcf4795	-0.006325672
177	0x3bf406f6	0.007447119
178	0xbbd328ee	-0.006444088
179	0x3b2ce234	0.0026379945
180	0x3c0c9d24	0.008582387
181	0x3a2ed9e8	0.0006670044
182	0xbc0da4ea	-0.008645276
183	0xbb8ade5a	-0.004237932
184	0x3c35b216	0.011089822
185	0x3c0a614c	0.008446049
186	0xbc6eeeba	-0.014583284
187	0xbc40d83a	-0.011770302
188	0x3b0948de	0.0020947973
189	0x3b3d6c5a	0.0028903694
190	0x38c815c7	9.5407995e-05
191	0xbaccb1c0	-0.0015616938
192	0x3b1a9639	0.0023588075
193	0x3b55bafd	0.0032612674
194	0xbc57a534	-0.013161946
195	0xb97180f2	-0.00023031587
196	0x3c4cd802	0.012502672
197	0x3a992662	0.0011684413
198	0x3c93bf8e	0.018035676
199	0x3c32fae6	0.010924077
200	0x3c0d4b91	0.0086239735
201	0x3bdf706a	0.0068188207
202	0xbb2def32	-0.0026540277
203	0xbc0dcaaf	-0.008654281
204	0xbab99bea	-0.0014160846
205	0x3b03e029	0.0020122624
206	0xbbdd652a	-0.0067564445
207	0x3c4a18ed	0.012335044
208	0x3c116e62	0.008876415
209	0xbc4110f1	-0.011783824
210	0x3b25f3b0	0.002532225
211	0x3c13ff18	0.009032987
212	0xbb090222	-0.0020905812
213	0x3b17e58d	0.0023177594
214	0xbc282d29	-0.010264673
215	0x3bcbd0d0	0.0062199607
216	0x3ba106b0	0.0049141273
217	0xbbe16800	-0.006878853
218	0xbba118cf	-0.0049162875
219	0xbc14f9f7	-0.009092799
220	0x3b5b1176	0.0033427156
221	0x3c3c87d4	0.011506993
222	0xbc2e1cbf	-0.010626971
223	0x3c1c4c49	0.009539672
224	0x3b70857d	0.003670066
225	0xbb0c3706	-0.0021395101
226	0x3c0f6258	0.008751474
227	0xbb164379	-0.00229284
228	0xbb45f8dc	-0.0030208146
229	0xbb6ef11f	-0.0036459637
230	0xbc1d633a	-0.009606177
231	0x3c50f5ca	0.012753913
232	0xbc3a71fd	-0.011379716
233	0x3b384230	0.0028115623
234	0xbbe0ce7d	-0.006860553
235	0xbc1d4cae	-0.009600801
236	0xbab498a5	-0.0013778402
237	0x3c625f4f	0.013816669
238	0xbc6dc168	-0.014511444
239	0x3c4fd72e	0.01268558
240	0xbc1e9fa9	-0.009681621
241	0xbc3a9798	-0.011388682
242	0xbc4ce5f0	-0.012505993
243	0xbc197993	-0.009367364
244	0x3b6c9105	0.003609718
245	0xbc5b8734	-0.013398934
246	0x3c6c4d22	0.014422687
247	0xbc47e2d0	-0.012200072
248	0xbbc5f9ca	-0.00604174
249	0x3bcda9da	0.0062763514
250	0x3be9027e	0.007110893
251	0x3c41039b	0.011780645
252	0xbc21e7ec	-0.009881955
253	0xbc8a568f	-0.016886977
254	0x3ac15e81	0.0014752896
255	0xbc2ece31	-0.010669277

pointer.gru.weight_ih_l0 f4 [384, 128]
0	0xbd59fdfa	-0.053220727
1	0xbcb89a94	-0.022534646
2	0xbd320d06	-0.04346945
3	0xbd655e13	-0.05599792
4	0xbd35647d	-0.044285286
5	0xbda117da	-0.078658774
6	0x3cf722b6	0.030167919
7	0x3dca49c4	0.09877351
8	0xbdb2f639	-0.087383695
9	0xbdc6f6ff	-0.097150795
10	0x3dce0c04	0.100608855
11	0x3d0f3e58	0.034971565
12	0xbda5ad17	-0.08089655
13	0xbd6cc07e	-0.057800762
14	0x3d87135c	0.065954894
15	0xbdbf348b	-0.09336194
16	0xbc9a213f	-0.018814681
17	0x3dce2bf4	0.10066977
18	0x3dad03b1	0.0844797
19	0xbd905840	-0.07048082
20	0xbd1574b1	-0.03648824
21	0x3b92e336	0.004482652
22	0xbdb31273	-0.08743753
23	0x3cdbdd7a	0.026839007
24	0xbd1fe428	-0.039035946
25	0x3db63c74	0.08898249
26	0xbc36c596	-0.011155507
27	0x3cd7b566	0.026331615
28	0xbd087eac	-0.03332393
29	0xbd96cfd4	-0.07363859
30	0x3d00a911	0.031411234
31	0xbda77249	-0.08176095
32	0x3d4a8827	0.04944625
33	0x3d62b9ff	0.05535316
34	0xbdad5c4b	-0.08464869
35	0xbd86ce7f	-0.06582355
36	0x3dcff783	0.10154631
37	0xbdc07961	-0.09398151
38	0x3d72d571	0.059285585
39	0x3d5ee556	0.05441793
40	0xbcf8dd48	-0.030378953
41	0xbcceeae2	-0.025258485
42	0x3cf4b870	0.029873103
43	0x3c4ae2ea	0.012383202
44	0x3dcfe45b	0.10150977
45	0x3dc632f7	0.096776895
46	0x3d33e5bc	0.043920264
47	0xbdb73850	-0.08946288
48	0xbc429d7d	-0.011878368
49	0xbdd021b8	-0.10162681
50	0x3db8693b	0.09004446
51	0x3dac3950	0.08409369
52	0x3c4fc02c	0.012680095
53	0xbd4ee56f	-0.050511774
54	0xbd60acb9	-0.05485222
55	0x3db1a12d	0.0867332
56	0x3db07d3e	0.08617638
57	0x3dc13672	0.09434213
58	0xbd971eb7	-0.07378905
59	0xbda2b341	-0.07944346
60	0xbaf64c9b	-0.0018791141
61	0xbd572b6e	-0.052531652
62	0x3acce017	0.0015630749
63	0xbc97de5a	-0.018538643
64	0xbd37cf36	-0.044875346
65	0xbd597164	-0.053086653
66	0xbd064c49	-0.032787595
67	0xbcbbdac3	-0.022931462
68	0x3ceb4b7d	0.028722519
69	0xbc25d5a6	-0.010121739
70	0xbd91c3fa	-0.07117458
71	0x38c0f99a	9.201765e-05
72	0x3cd2e99d	0.025746161
73	0xbd2ea962	-0.042642005
74	0xbddada1d	-0.10686133
75	0x3d7b1eda	0.06130872
76	0x3dbbf2d6	0.09177177
77	0xbd0749ae	-0.03302925
78	0x3b4877c3	0.0030588962
79	0x3dd6027f	0.10449695
80	0xbdacc773	-0.084364794
81	0x3dd6c90f	0.10487568
82	0x3c86fb7f	0.016477345
83	0xbd9aed69	-0.07564814
84	0x3da55f89	0.080748625
85	0xbd1178f5	-0.035515744
86	0x3c804f6b	0.01566287
87	0xbcebbbda	-0.028776098
88	0x3ce30222	0.027710978
89	0xbdc1faa0	-0.09471631
90	0x3c494f4e	0.012286974
91	0xbc96ad05	-0.018393049
92	0xbd34a281	-0.04410029
93	0xbd2d12a7	-0.042254116
94	0xbd65b5cc	-0.056081578
95	0xbc565eb7	-0.013084105
96	0xbdd7d7c8	-0.10539204
97	0xbc86f615	-0.016474763
98	0xbcab2ecb	-0.020896336
99	0x3d8a41ae	0.06750809
100	0xbd9b5a0b	-0.07585534
101	0xbcf59429	-0.029977875
102	0xbdc088e1	-0.094011076
103	0xbd3df514	-0.046376303
104	0x3c2bfc71	0.010497198
105	0x3d6be883	0.057594787
106	0x3dc22ae4	0.09480837
107	0xbbbc61a8	-0.005748946
108	0x3dc7e345	0.09760145
109	0x3aa22f69	0.0012373748
110	0xbdcee5c6	-0.101024196
111	0xbcf81ca2	-0.03028709
112	0x3dbc9a00	0.09209061
113	0xbdd85779	-0.10563559
114	0xbdaaa1ce	-0.08331643
115	0xbcc6a403	-0.024248129
116	0xbd41e1fd	-0.04733466
117	0x3c086e1a	0.0083270315
118	0x3dae0e65	0.08498839
119	0xbc9e4b63	-0.019323057
120	0x3cceb9d0	0.025235087
121	0xbd8b212d	-0.06793437
122	0x3d9f2045	0.07769827
123	0x3dc0d47d	0.09415529
124	0x3cb8c29f	0.02255374
125	0xbcbd4279	-0.023102986
126	0xbcd6c1c9	-0.02621545
127	0xbd47fefe	-0.048827164
128	0xbd110599	-0.03540573
129	0x3d313536	0.043263637
130	0x3c81e501	0.015856268
131	0xbd4bbeda	-0.049742557
132	0x3c9c57f6	0.019084912
133	0x3cc4421a	0.0239573
134	0xbd96219a	-0.07330628
135	0xbdd2b927	-0.10289221
136	0xbd5171a9	-0.051133785
137	0x3d8ceebf	0.06881475
138	0x3d0ddad7	0.03463253
139	0x3dd2056e	0.10254942
140	0x3d773f5a	0.06036315
141	0xbd4fcc21	-0.050731782
142	0x3da8c464	0.082405835
143	0xbd161021	-0.036636475
144	0x3ddabc89	0.106804915
145	0x3dbca2a7	0.09210711
146	0xbd26e76d	-0.04074805
147	0xbc78d060	-0.015186399
148	0xbd878d8f	-0.06618797
149	0xbd82aeea	-0.063810185
150	0x3db0e36c	0.08637127
151	0x3d8d80ea	0.06909354
152	0x3cf1b815	0.029506722
153	0x3cbd17b8	0.023082599
154	0x3d2358ae	0.039879493
155	0x3d824c09	0.06362159
156	0xbd380067	-0.04492226
157	0xbce63b2a	-0.028104383
158	0xbd37a125	-0.044831414
159	0xbd15408d	-0.036438514
160	0xbdba3e94	-0.09093967
161	0xbdb5bf8c	-0.08874425
162	0xbdd95ed0	-0.10613787
163	0xbda3fa40	-0.08006716
164	0x3b7eaa1f	0.0038858724
165	0xbd075b25	-0.033045907
166	0xbdaf6699	-0.08564491
167	0xbdd01873	-0.10160913
168	0x3d810351	0.06299461
169	0x3cb0a4a2	0.021562878
170	0xbd6ad712	-0.057334013
171	0xbd6921b0	-0.056916893
172	0x3cfb612b	0.030685982
173	0xbdafd1c2	-0.0858493
174	0xbd660f49	-0.05616692
175	0x3d958eea	0.07302649
176	0x3d62b494	0.055347994
177	0x3d9cd921	0.076586016
178	0xbd68d4fe	-0.05684375
179	0x3b4e26e2	0.0031456281
180	0xbd89a5f3	-0.067211054
181	0x3c2ede57	0.010673127
182	0xbc8f27ba	-0.017474998
183	0xbdab3c1d	-0.08361075
184	0x3d670e12	0.056409903
185	0xbd0dcce3	-0.034619223
186	0xbd359d26	-0.04433932
187	0xbce1aaf1	-0.027547332
188	0xbdc714d1	-0.09720767
189	0x3ce40751	0.02783552
190	0x3cb542e2	0.022126619
191	0xbd5d95b7	-0.054097857
192	0xbd8226f7	-0.06355088
193	0xbdc7c02e	-0.09753452
194	0x3dbc3329	0.091894455
195	0xbc1e2c51	-0.009654121
196	0xbd138fff	-0.036025997
197	0xbd9472cb	-0.072484575
198	0xbdb1c849	-0.086807795
199	0x3d3c87ac	0.046027824
200	0x3d1a6a5c	0.03769909
201	0x3dd3c744	0.10340741
202	0xbda0f7b2	-0.07859744
203	0x3da5f1ad	0.081027366
204	0xbd9a7e88	-0.07543665
205	0xbdda9f23	-0.10674884
206	0x3d59ab2a	0.05314175
207	0x3c1a331e	0.009411601
208	0x3d05d113	0.03267009
209	0xbd478f26	-0.0487205
210	0x3bd055c9	0.0063578826
211	0xbc941111	-0.018074544
212	0x3dd1e3b6	0.102485105
213	0xbd68bd3b	-0.05682109
214	0xbce27902	-0.027645592
215	0x3a51067d	0.0007973684
216	0x3d619890	0.055077136
217	0x3cc4f043	0.024040347
218	0x3bc38b43	0.005967529
219	0xbd6e0a99	-0.058115575
220	0x3dd20588	0.10254961
221	0xbd14bb08	-0.03631118
222	0xbc9f33dc	-0.019433908
223	0xbda14cfd	-0.078760125
224	0x3d142761	0.036170367
225	0xbd1dd53c	-0.038533434
226	0x3dc52c26	0.09627561
227	0xbd08b161	-0.033372287
228	0x3cc4afa3	0.024009531
229	0xbcbe3868	-0.023220256
230	0xbd833c8d	-0.064080335
231	0xbd8ee317	-0.06976908
232	0xbd9f306e	-0.07772909
233	0xbd25de7c	-0.04049538
234	0xbca96467	-0.020677758
235	0x3d5640db	0.052307945
236	0x3d345928	0.04403034
237	0x3b6947df	0.0035595817
238	0xbcdfa541	-0.027300479
239	0x3d68c06b	0.05682413
240	0x3dbd1f14	0.09234443
241	0xbd8eb636	-0.06968348
242	0xbdb089af	-0.08620011
243	0x3b66d156	0.0035219989
244	0xbd080ece	-0.033217244
245	0xbdba5c17	-0.09099596
246	0xbba06258	-0.004894536
247	0xbda08079	-0.07837004
248	0xbd9dcd4b	-0.07705172
249	0xbd3c455f	-0.045964595
250	0xbd31a62a	-0.043371357
251	0xbd045999	-0.03231201
252	0x3dcf3a81	0.101185806
253	0xbd98939d	-0.0745003
254	0xbdbdc13d	-0.09265373
255	0xbd30f97f	-0.043206688
