Task assignment/drl4vrp/vrp/10/19_07_57.994352/checkpoints/19/critic.pt (torch, 29011 bytes, 9 tensors)

static_encoder.conv.weight f4 [128, 2, 1]
0	0x3e1787c1	0.1479788
1	0xbe5024c1	-0.2032652
2	0x3e20607d	0.15661807
3	0x3e5f970a	0.2183496
4	0xbe00f585	-0.12593658
5	0xbd8e967d	-0.06962297
6	0x3dbf2ef4	0.093351275
7	0x3e1b5fed	0.15173312
8	0x3e019cc7	0.12657462
9	0x3e45507e	0.19268987
10	0x3e595038	0.21222007
11	0xbe631375	-0.22175391
12	0xbe03156a	-0.12801138
13	0xbe487d18	-0.1957897
14	0xbe05adc6	-0.1305457
15	0x3dde37f2	0.108505145
16	0x3da6da35	0.081470884
17	0x3e55bb23	0.20872168
18	0xbe0a5a2a	-0.13510957
19	0x3d980500	0.07422829
20	0xbe14d1a6	-0.145331
21	0xbd0fa40b	-0.035068553
22	0x3dcde236	0.10052912
23	0x3dd1d1cc	0.10245094
24	0x3da742ac	0.081670135
25	0xbe027d88	-0.12743199
26	0xbe4cb556	-0.19991049
27	0xbe4658b2	-0.19369772
28	0xbe2c9da7	-0.16857015
29	0x3d9f0273	0.07764139
30	0xbe0ca3c7	-0.13734351
31	0x3d89c758	0.06727475
32	0x3ce7d562	0.028299991
33	0x3e125b0e	0.14292547
34	0x3e1c25bd	0.15248771
35	0x3e4001dd	0.18750711
36	0xbdfc5551	-0.1232096
37	0x3e51cd79	0.20488538
38	0x3e37bd18	0.17943227
39	0xbe1a91c7	-0.15094672
40	0x3e278cec	0.16362351
41	0xbe0465ae	-0.12929413
42	0x3e2dce1a	0.16973153
43	0xbe044d77	-0.12920175
44	0xbd54f805	-0.051994342
45	0xbe0d0b97	-0.13773952
46	0x3d21b6a6	0.039480828
47	0xbcf11188	-0.029427305
48	0xbe38af25	-0.18035562
49	0x3e31d270	0.17365432
50	0xbda7351e	-0.08164428
51	0xbe34e1c5	-0.17664249
52	0xbde6bd6d	-0.11266599
53	0xbe2b1c07	-0.1670991
54	0xbe0f7ca3	-0.14012389
55	0xbe4157ae	-0.18881103
56	0x3e15e8f7	0.1463965
57	0xbdbc0ca9	-0.09182102
58	0x3db86427	0.090034775
59	0x3dc3408a	0.09533794
60	0x3db5e47e	0.08881472
61	0x3dcc27b5	0.09968511
62	0xbd27a182	-0.04092551
63	0xbcad8c9a	-0.021185208
64	0xbcfad988	-0.030621305
65	0x396fe0c2	0.00022876545
66	0xbe4b31b8	-0.19843185
67	0xbdd63741	-0.104597576
68	0xbd2ca02a	-0.04214493
69	0xbc958436	-0.01825152
70	0x3e063338	0.13105476
71	0x3c484ab6	0.012224844
72	0xbe41f082	-0.18939403
73	0x3e432617	0.19057499
74	0x3da072c3	0.07834389
75	0xbe017efc	-0.12646097
76	0xbda37a5d	-0.07982323
77	0x3a5191ac	0.0007994424
78	0x3e5bb117	0.21454273
79	0xbe02d09d	-0.12774892
80	0xbc8c6a63	-0.017140573
81	0xbce1cc3e	-0.02756321
82	0xbe57f874	-0.21090871
83	0x3d83fb59	0.06444425
84	0xbc704f4f	-0.014667346
85	0x3dc5a89a	0.09651299
86	0x3dc1faec	0.09471688
87	0xbcfb3fc2	-0.03067005
88	0xbe38277c	-0.17983812
89	0x3d158963	0.036507975
90	0x3e3a64c4	0.18202502
91	0x3e0805a5	0.13283403
92	0xbdb09007	-0.08621221
93	0x3e2245ba	0.15846911
94	0xbd3e71b6	-0.046495162
95	0xbe2d59c7	-0.16928779
96	0xbc4bd56f	-0.012441023
97	0xbcbb6b60	-0.022878349
98	0xbdf5f5b4	-0.12009755
99	0xbe1fdc9d	-0.15611501
100	0xbe0551cb	-0.13019483
101	0xbdb67945	-0.08909849
102	0xbd53dcce	-0.051724248
103	0x3daad621	0.08341623
104	0xbe03970f	-0.12850593
105	0x3e45a842	0.19302467
106	0xbe1396e4	-0.14413029
107	0xbd2a8f0f	-0.041640338
108	0x3d227d9b	0.039670568
109	0x3d0b4f88	0.034011394
110	0x3ccedd88	0.025252119
111	0xbcc9eff6	-0.024650555
112	0x3da446bb	0.08021303
113	0x3d7dd3db	0.06196962
114	0x3dfbc158	0.12292737
115	0x3d0ca696	0.034338556
116	0xbe4e96dc	-0.20174736
117	0xbdf992b7	-0.12186187
118	0x3d20b5d4	0.039235905
119	0x3e53891e	0.20657775
120	0xbe47e4aa	-0.19520822
121	0xbdb55f5d	-0.0885608
122	0x3d8dbbec	0.06920609
123	0x3e007669	0.1254517
124	0x3d1cf299	0.038317297
125	0x3e1fdbef	0.15611242
126	0x3cac27ff	0.021015165
127	0x3e0ad3aa	0.13557306
128	0xbe427c1f	-0.18992661
129	0xbe20c21d	-0.15699048
130	0xbd70ef3d	-0.058821905
131	0x3dad4a91	0.08461488
132	0xbd39a118	-0.045319647
133	0xbdb709bc	-0.089374036
134	0xbde17012	-0.11007704
135	0xbe59a31d	-0.21253629
136	0x3e209a4e	0.15683863
137	0x3da00aa3	0.07814529
138	0xbdd2ba47	-0.10289436
139	0xbdcb6af2	-0.099325076
140	0x3d50132d	0.050799537
141	0x3e4996ff	0.19686507
142	0x3d96e1cc	0.07367286
143	0x3c9f494d	0.019444132
144	0x3e25960c	0.1617052
145	0xbe41c8c9	-0.1892425
146	0xbd3fa07b	-0.046783905
147	0x3e5b824d	0.21436425
148	0xbdf1ca43	-0.118061565
149	0x3e0ac6f1	0.13552453
150	0xbd6e43ed	-0.058170248
151	0xbd91014a	-0.07080324
152	0x3c8f1011	0.017463716
153	0x3c8aad39	0.016928302
154	0x3e571311	0.21003367
155	0xbd62f04f	-0.055404957
156	0x3d9cef3c	0.07662818
157	0xbc047de4	-0.008086655
158	0xbd85462f	-0.06507527
159	0x3e660d8e	0.22466108
160	0xbe4350b8	-0.1907376
161	0xbda3d356	-0.079992935
162	0xbe1f9a90	-0.15586305
163	0x3bc5ffa3	0.006042437
164	0x3e4c3fad	0.19946165
165	0x3e018b83	0.12650876
166	0x3d222caa	0.039593376
167	0xbda57984	-0.08079818
168	0x3db302f0	0.08740795
169	0xbd1229a3	-0.03568424
170	0xbd76a5c1	-0.06021667
171	0x3e1d5ba8	0.15366995
172	0x3e005c88	0.12535298
173	0x3dfbf5d9	0.12302751
174	0x3e57796f	0.21042417
175	0x3e0d6e72	0.13811663
176	0x3e0009c6	0.12503728
177	0x3e335020	0.17511034
178	0x3e02b443	0.12764077
179	0xbd68f3ca	-0.05687312
180	0x3db0c80a	0.086319044
181	0xbe22655f	-0.15858983
182	0x3d9b4843	0.07582142
183	0x3d4f6cd6	0.050640903
184	0x3e15eb1b	0.14640467
185	0xbd8255f2	-0.06364049
186	0xbd8fee94	-0.07027927
187	0xbe1ac4f0	-0.15114188
188	0x3dc34f0e	0.09536563
189	0xbe3ea659	-0.18618144
190	0xbded56b4	-0.11588803
191	0x3d4456ae	0.047934227
192	0xbe542c72	-0.2072008
193	0x3e548123	0.20752387
194	0x3dc2b910	0.09507954
195	0x3d9ae817	0.07563799
196	0x3e5315bc	0.2061376
197	0xbe40211c	-0.1876263
198	0xbe253b0f	-0.1613581
199	0x3d3aa9de	0.045572154
200	0x3e11dc86	0.1424428
201	0x3dfaa740	0.12238932
202	0x3d57635a	0.052584983
203	0x3e169b58	0.14707696
204	0x3e6b2f38	0.22967231
205	0xbe296372	-0.16541842
206	0x3d6ff7f9	0.058586095
207	0x3e3eca5d	0.18631883
208	0x3d8b1166	0.06790428
209	0xbe59d78f	-0.21273635
210	0x3e4796da	0.19491139
211	0xbdaf0bb4	-0.08547154
212	0x3d81f8ad	0.06346259
213	0xbcb43273	-0.021996712
214	0x3e13f067	0.14447175
215	0xbda595c3	-0.080852054
216	0x3e153153	0.14569597
217	0xbe1bb745	-0.1520663
218	0xbdfdb7c7	-0.12388568
219	0xbddbce1a	-0.1073267
220	0x3dff11df	0.124545805
221	0x3e22a3c5	0.15882786
222	0x3e42ef1c	0.19036525
223	0xbe284fa1	-0.16436626
224	0x3d720d35	0.059094626
225	0xbd0af6f5	-0.033926923
226	0xbd3f9781	-0.046775345
227	0xbe3a51da	-0.18195286
228	0x3a5392c8	0.00080708833
229	0x3e36e889	0.17862143
230	0x3e00167f	0.12508582
231	0x3c798686	0.015229827
232	0xbd22842e	-0.039676838
233	0x3e5571dc	0.20844215
234	0xbbf539c4	-0.007483693
235	0xbe2b9d1c	-0.16759151
236	0xbe06de5a	-0.13170758
237	0xbe0430d5	-0.12909253
238	0x3de79830	0.11308324
239	0x3d1c1400	0.03810501
240	0xbe399636	-0.18123707
241	0x3e4ae37f	0.19813345
242	0xbe069c96	-0.1314567
243	0x3e1119d6	0.14170012
244	0xbc4f60f6	-0.012657395
245	0xbe1429ac	-0.14469022
246	0x3e56cee8	0.20977366
247	0x3e085346	0.13313016
248	0x3d49dd96	0.049283586
249	0xbc8a9b60	-0.016919792
250	0x3cc6b9af	0.024258463
251	0x3e318f71	0.17339875
252	0x3c033081	0.00800717
253	0xbe2362db	-0.15955679
254	0xbe5a296d	-0.21304865
255	0xbe48cb80	-0.19608879

static_encoder.conv.bias f4 [128]
0	0x3dd74cba	0.10512681
1	0xbedf67b5	-0.4363381
2	0xbe58f6cf	-0.211879
3	0xbe0c8675	-0.13723166
4	0x3e9d906b	0.30774245
5	0xbe69fac4	-0.22849566
6	0x3ea76e7b	0.32701477
7	0x3d95712c	0.072969764
8	0xbeddf725	-0.4335262
9	0x3e7b12cd	0.2451889
10	0x3e8055cc	0.25065458
11	0x3f308aeb	0.6896197
12	0x3ee2f469	0.44327095
13	0x3ed51440	0.41617012
14	0x3d1511ad	0.03639381
15	0xbe8df34c	-0.27724683
16	0x3eefd99d	0.46845713
17	0x3f0946f9	0.5362392
18	0x3f25cf3b	0.64769334
19	0x3ee6cf63	0.45080099
20	0x3e9ff57a	0.3124197
21	0x3f148d42	0.5802804
22	0xbec37844	-0.38177693
23	0xbec4d014	-0.3844
24	0x3f0c1835	0.54724437
25	0x3e85048c	0.25980031
26	0x3e6a070e	0.22854254
27	0xbf005ba0	-0.5013981
28	0xbea80bad	-0.32821408
29	0x3f05828e	0.52152336
30	0x3ea30a5f	0.3184385
31	0xbeb0c3d8	-0.34524417
32	0x3edc8731	0.43071893
33	0x3ddc328e	0.1075183
34	0xbe3e5c0a	-0.18589798
35	0x3e06449f	0.13112114
36	0xbf0809d9	-0.53140026
37	0xbea179b5	-0.31538168
38	0x3ef9d606	0.487961
39	0x3eb1ccde	0.34726614
40	0x3c614c44	0.013751093
41	0x3ec6344b	0.3871177
42	0x3eb96985	0.36213318
43	0x3e761aae	0.24033615
44	0x3dce6e50	0.10079634
45	0xbd520639	-0.051275466
46	0xbf25984e	-0.64685524
47	0xbe4f6ff2	-0.20257547
48	0x3f0a1e83	0.5395281
49	0xbed993e4	-0.42495644
50	0x3eb9bf9c	0.36279
51	0x3d5c5697	0.053793516
52	0xbf30d953	-0.6908161
53	0x3e7c468d	0.24636288
54	0x3e5f9f6d	0.2183816
55	0xbd8e44cd	-0.069467165
56	0xbf2f59a0	-0.6849613
57	0xbf08da27	-0.53457874
58	0x3ead32af	0.3382773
59	0xbed27528	-0.41105008
60	0x3eac52df	0.33656976
61	0x3f114867	0.567511
62	0xbf177da9	-0.5917612
63	0xbee404b5	-0.4453484
64	0x3f1cabd9	0.6119972
65	0xbb5d7258	-0.0033790078
66	0x3ebe2608	0.3713839
67	0x3da8e7ce	0.08247338
68	0xbe9b5c3c	-0.30343807
69	0xbd1c89e9	-0.03821746
70	0xbf035c35	-0.5131257
71	0xbeb6bd84	-0.35691464
72	0xbeaee15d	-0.34156314
73	0xbe81c6e1	-0.25347045
74	0x3f1f7a6b	0.6229617
75	0xbd40f80d	-0.04711156
76	0x3db90bdc	0.09035465
77	0xbeba2a6a	-0.36360484
78	0x3e20715e	0.15668246
79	0xbefe5356	-0.49672955
80	0xbd6db7de	-0.058036678
81	0x3de7c201	0.113163
82	0xbe3c2e59	-0.18377055
83	0x3e700cf4	0.23442441
84	0xbf19b514	-0.6004193
85	0x3f310737	0.69151634
86	0xbdee8298	-0.116460025
87	0xbf17b1b3	-0.5925552
88	0xbd2725ec	-0.04080765
89	0x3ec00583	0.37504205
90	0x3e42b504	0.19014364
91	0xbf291013	-0.6604015
92	0xbe01a0c4	-0.12658983
93	0x3f11cbe9	0.5695177
94	0x3f223647	0.6336407
95	0xbedeadcc	-0.43491971
96	0xbf25bd20	-0.64741707
97	0xbda08060	-0.078369856
98	0x3ed1a9f5	0.4094998
99	0x3f0f1250	0.5588732
100	0x3f1d0fb5	0.6135209
101	0xbb6d814e	-0.0036240402
102	0xbf25d551	-0.6477862
103	0x3ecd4f19	0.4009941
104	0xbf303f73	-0.68846816
105	0x3e2e6043	0.17028908
106	0x3e4ea2df	0.20179318
107	0x3e01fefd	0.12694927
108	0x3f00a73c	0.5025518
109	0xbedd11ef	-0.43177745
110	0x3f31953a	0.69368327
111	0xbf1c68b3	-0.6109726
112	0x3f1dc559	0.61629254
113	0xbe9eb6de	-0.30998892
114	0xbe011ae9	-0.12607922
115	0x3df8824f	0.121342294
116	0x3ef8e900	0.48615265
117	0xbedaeecd	-0.42760316
118	0xbce89f0c	-0.028396152
119	0x3eb2e3e1	0.34939483
120	0x3d9d71ea	0.07687743
121	0xbe04224f	-0.12903713
122	0x3f20453c	0.62605643
123	0x3ebce6d1	0.3689485
124	0x3ed9c656	0.4253413
125	0x3eb330e6	0.34998244
126	0xbf10b87f	-0.5653152
127	0xbd87ca37	-0.06630366

dynamic_encoder.conv.weight f4 [128, 2, 1]
0	0x3e31be4a	0.17357746
1	0xbe744c77	-0.23857294
2	0xbbe99e8e	-0.007129497
3	0x3e290343	0.1650515
4	0x3d634c50	0.0554927
5	0xbe3d69bf	-0.1849737
6	0x3dabf262	0.0839584
7	0x3dd303fe	0.10303496
8	0x3e095aa3	0.13413481
9	0xbe699a36	-0.22812733
10	0x3decce47	0.11562782
11	0x3dfa4a49	0.122212
12	0x3d7e83d4	0.06213744
13	0x3e02ec2b	0.12785403
14	0xbd9e5219	-0.07730503
15	0x3e9969d5	0.29963556
16	0x3cad7f23	0.021178788
17	0x3e869599	0.2628601
18	0xbda42fa1	-0.08016897
19	0x3e3f4d94	0.18681937
20	0xbe0d7426	-0.13813838
21	0xbe8be500	-0.2732315
22	0xbe336431	-0.17518689
23	0xbe8101f2	-0.25196797
24	0x3d774d11	0.06037623
25	0x3e45a25b	0.19300215
26	0xbe2ce89e	-0.16885611
27	0x3e5f602c	0.2181403
28	0xbe2115e5	-0.15731008
29	0x3e03163c	0.1280145
30	0x3e147df8	0.14501178
31	0xbde4397f	-0.11143779
32	0x3e073c51	0.13206603
33	0x3e006e9a	0.12542191
34	0x3df2c667	0.118542485
35	0xbde87264	-0.11349943
36	0xbe492b85	-0.19645508
37	0x3e90c38d	0.28274193
38	0xbd9b523a	-0.07584043
39	0xbe878bec	-0.2647394
40	0xbdc95261	-0.09830166
41	0x3d27f47a	0.041004635
42	0x3e0f6b44	0.14005762
43	0x3e5085c5	0.20363529
44	0x3a380eda	0.0007021256
45	0xbd7256a9	-0.059164677
46	0xbd849f3d	-0.06475685
47	0xbe7e9282	-0.24860576
48	0x3dc72509	0.09723861
49	0xbd488873	-0.048958253
50	0xbe030992	-0.1279662
51	0xbe03db0c	-0.12876529
52	0x3d8917cf	0.06693994
53	0x3e9dda36	0.30830544
54	0x3c4f65e4	0.01265857
55	0xbe52be9a	-0.20580521
56	0x3e1fa647	0.15590774
57	0xbd01f721	-0.03172982
58	0x3e2dd86b	0.16977088
59	0x3d530567	0.051518824
60	0xbda136ae	-0.078717574
61	0x3dca8b13	0.098898076
62	0xbd865bcf	-0.0656048
63	0xbe84ede7	-0.25962755
64	0x3e291c35	0.16514666
65	0x3cf3c17c	0.029755346
66	0x3e29358b	0.16524331
67	0xbe15d874	-0.14633352
68	0xbe3f8e62	-0.18706658
69	0xbd2b8f05	-0.04188444
70	0xbadefded	-0.0017012932
71	0x3e14ef74	0.14544469
72	0x3e296ee7	0.16546212
73	0xbd848552	-0.06470741
74	0x3beadca1	0.0071674143
75	0x3e12367a	0.14278594
76	0xbd80086a	-0.06251605
77	0x3e9a5063	0.30139455
78	0xbd7891e8	-0.060686022
79	0xbd5c8a5b	-0.053842884
80	0xbdd0fe1b	-0.10204717
81	0x3e71201f	0.2354741
82	0x3e427b87	0.18992434
83	0x3e235615	0.15950806
84	0xbe2a6c3e	-0.16642854
85	0x3dc1bf77	0.09460347
86	0x3e3f3047	0.1867076
87	0x3d700528	0.058598667
88	0xbe243aa5	-0.16037996
89	0x3e7ede1a	0.24889413
90	0xbe07c044	-0.13256937
91	0xbe8d23a6	-0.2756626
92	0x3df82b8c	0.12117681
93	0xbd43d077	-0.04780623
94	0x3e1ef1fe	0.15522
95	0xbe06fe09	-0.13182844
96	0x3c93b6eb	0.018031558
97	0x3d9be76e	0.07612501
98	0x3e2d5f50	0.1693089
99	0xbe86fd8d	-0.2636532
100	0xbd194790	-0.037421763
101	0x3e57a28e	0.21058103
102	0xbe427e74	-0.1899355
103	0xbd97db8f	-0.07414924
104	0xbe19fba1	-0.15037395
105	0xbd267700	-0.04064083
106	0x3e0aeb3d	0.13566299
107	0xbca8d4fe	-0.020609375
108	0x3e4e25c6	0.20131597
109	0xbe584933	-0.21121673
110	0x3de202d3	0.11035695
111	0x3d4eaa34	0.050455287
112	0xbd0c2e1d	-0.034223665
113	0x3e85a4f9	0.26102427
114	0xbe496e95	-0.1967109
115	0xbe72e763	-0.2372108
116	0xbd8160a8	-0.06317264
117	0xbe097299	-0.13422622
118	0x3ce9bbc4	0.028531916
119	0xbdc68ac5	-0.09694437
120	0x3e5bb055	0.21453984
121	0x3c3d2121	0.011543543
122	0xbbf483fc	-0.007462023
123	0x3d38bde8	0.045102984
124	0xbd997264	-0.074925214
125	0xbe858750	-0.26079798
126	0xbe59e2b1	-0.21277882
127	0xbe1cca6f	-0.15311597
128	0xbe5fc4d4	-0.21852428
129	0x3e5d1d68	0.21593249
130	0xbe30b69b	-0.17257158
131	0xbdf7aa8e	-0.120930776
132	0x3db6db5e	0.0892856
133	0x3e8f7a2a	0.2802289
134	0x3e3aeabe	0.1825361
135	0x3e11eae8	0.14249766
136	0x3d2372a6	0.03990426
137	0xbcaa1756	-0.02076308
138	0x3e13770f	0.14400886
139	0x3e6d114e	0.23151132
140	0x3e5e0887	0.2168294
141	0x3d912cde	0.07088636
142	0x3e38b904	0.18039328
143	0xbe192949	-0.14957155
144	0x3dc5da3e	0.09660767
145	0x3e6a0a49	0.22855486
146	0x3d6d70c6	0.057968877
147	0xbd7934d7	-0.060841408
148	0x3dde4d58	0.10854596
149	0x3c772db1	0.015086577
150	0xbcd5619a	-0.026047517
151	0xbe152400	-0.14564514
152	0xbe2b5d90	-0.1673491
153	0xbe30a823	-0.17251639
154	0x3e3b67a3	0.18301253
155	0x3e05aa71	0.130533
156	0x3e03eea3	0.12884001
157	0x3e94b3d2	0.29043442
158	0x3e189200	0.14899445
159	0x3e05a3f5	0.13050826
160	0xbdea88ff	-0.11451911
161	0xba7790ae	-0.0009443861
162	0x3e19253a	0.14955607
163	0xbe0d4304	-0.13795096
164	0xbc82adac	-0.015951954
165	0xbe7c4d64	-0.24638897
166	0x3d362235	0.044466216
167	0xbdcb6ab7	-0.099324636
168	0x3e4a9985	0.19785126
169	0xbe14c624	-0.1452871
170	0xbdbd17fe	-0.09233092
171	0x3e0fa3bf	0.14027308
172	0x3e0b8e1c	0.13628429
173	0xbe6b1a62	-0.22959283
174	0x3e22b73e	0.15890214
175	0xbe71de8b	-0.2362005
176	0x3d620845	0.055183668
177	0xbe095c9f	-0.13414238
178	0x3d9d979d	0.076949336
179	0x3e8962c2	0.2683316
180	0xbe6005eb	-0.21877258
181	0xbe4dc63e	-0.20095155
182	0xbd3989c2	-0.04529739
183	0x3d4369ce	0.047708325
184	0x3e350378	0.17677104
185	0x3e3f9630	0.18709636
186	0xbcb1b97f	-0.021694897
187	0xbe418c49	-0.18901171
188	0x3e0d0af2	0.13773707
189	0x3e15ae77	0.14617334
190	0x3d201e54	0.039091423
191	0xbd558519	-0.052128885
192	0xbe35c9ac	-0.17752713
193	0x3c96969d	0.018382365
194	0x3c92129a	0.017831136
195	0xbd22608b	-0.03964285
196	0xbda4b20f	-0.080417745
197	0xbdb3a61e	-0.08771919
198	0xbd97cae4	-0.07411745
199	0xbe4c90b9	-0.19977082
200	0xbe13d5c9	-0.14437021
201	0x3e0e2e6a	0.13884893
202	0xbdca3e01	-0.098751076
203	0x3e898581	0.26859668
204	0x3e1408b9	0.14456452
205	0xbe5ccc7d	-0.21562381
206	0x3dccb4bc	0.0999541
207	0xbdd5f86d	-0.10447774
208	0xbe5048f6	-0.20340332
209	0x3dccd60d	0.100017644
210	0x3db1f2c1	0.0868888
211	0x3ad6c66a	0.0016386036
212	0xbe41f450	-0.18940854
213	0xbe853ee1	-0.26024535
214	0x3e164c7a	0.14677611
215	0xbca57ad9	-0.02020018
216	0xbc0c9803	-0.008581164
217	0xbe0eb209	-0.13935103
218	0xbdf69a9f	-0.120412104
219	0x3ddb8d60	0.107203245
220	0xbdbc9265	-0.0920761
221	0x3df213d8	0.11820191
222	0xbdb0377a	-0.08604331
223	0xbc5f5a7e	-0.013632415
224	0x3e07d08c	0.13263148
225	0x3e0082ac	0.12549847
226	0xbe3825d5	-0.17983182
227	0x3bb9e0b6	0.0056725396
228	0xbe4bc772	-0.19900301
229	0xbe0089c4	-0.12552553
230	0x3ce56d7c	0.028006308
231	0x3e258695	0.1616462
232	0x3d507156	0.050889336
233	0xbd271fd8	-0.040801853
234	0xbdab1abe	-0.0835471
235	0x3e1daf94	0.15399009
236	0xbd53c1a6	-0.05169835
237	0xbd9d7217	-0.076877765
238	0x3b807152	0.003919759
239	0xbe9f94b5	-0.31168142
240	0x3e0d35e6	0.13790092
241	0xbd8585b7	-0.06519645
242	0x3e2beddc	0.16789955
243	0x3e7720cb	0.24133603
244	0x3da57035	0.080780424
245	0x3e811443	0.2521077
246	0x3e3af502	0.18257526
247	0x3e5bf5e8	0.21480525
248	0xbe4643bb	-0.19361775
249	0xbd0a828d	-0.03381591
250	0xbdaad0c9	-0.08340604
251	0x3d684540	0.056706667
252	0x3dbb52c5	0.091466464
253	0xbe1c46b7	-0.1526135
254	0x3dc09b4a	0.09404619
255	0x3e1a32ac	0.15058392

dynamic_encoder.conv.bias f4 [128]
0	0x3e6a0d60	0.22856665
1	0xbf2161c0	-0.6303978
2	0x3e93996a	0.28827983
3	0xbd605bd4	-0.054775074
4	0xbdcfd835	-0.1014866
5	0x3eb3a843	0.3508931
6	0xbf2acc54	-0.6671803
7	0x3e9ef0cd	0.3104309
8	0xbe751a04	-0.23935705
9	0xbef6d129	-0.48206452
10	0x3ec244d1	0.37943128
11	0x3e13d832	0.1443794
12	0x3edf7906	0.4364702
13	0x3ecbb6a4	0.3978778
14	0xbefda469	-0.49539497
15	0xbeb114e5	-0.34586254
16	0x3da4df37	0.08050387
17	0xbf0997f4	-0.5374749
18	0xbf2b3182	-0.6687242
19	0x3f135b09	0.57560784
20	0xbea6f22c	-0.32606637
21	0xbeb8a782	-0.36065298
22	0x3ecfeb4f	0.40609214
23	0xbf25a3e9	-0.6470323
24	0xbe66ebe7	-0.22550927
25	0xbf07dcba	-0.53071177
26	0xbe9c3c06	-0.30514544
27	0x3f116d2e	0.5680722
28	0x3dd2670d	0.102735616
29	0xbe43d28c	-0.19123286
30	0xbe469e2e	-0.19396278
31	0xbe505403	-0.20344548
32	0x3e3493ca	0.17634502
33	0xbf08edf1	-0.5348807
34	0x3e866f66	0.26256865
35	0xbe9e6bcf	-0.30941626
36	0x3f0e5404	0.5559695
37	0xbe73f868	-0.23825228
38	0x3d390ea3	0.045179974
39	0x3e1bbaff	0.15208052
40	0x3e2b5562	0.1673179
41	0xbe6e77fb	-0.23287956
42	0x3f139d07	0.5766148
43	0x3eade67a	0.33964902
44	0x3f1936d1	0.5984927
45	0xbe8a65ac	-0.27030694
46	0x3eca471a	0.3950737
47	0xbf111f38	-0.5668826
48	0x3e541837	0.20712362
49	0x3eb4c3cd	0.35305634
50	0x3f084ede	0.5324534
51	0xbedb2ef8	-0.42809272
52	0xbeb33e09	-0.35008267
53	0xbf1cdff0	-0.612792
54	0xbe74ffb0	-0.23925662
55	0xbeab7df1	-0.33494523
56	0xbee3aef5	-0.4446942
57	0xbf1b6719	-0.6070419
58	0x3f268c7c	0.6505811
59	0xbe2c0a1f	-0.16800736
60	0x3e3fc6a9	0.18728127
61	0x3f1fe61e	0.62460506
62	0xbda94af8	-0.08266252
63	0x3e85db07	0.26143667
64	0x3e8850c4	0.2662412
65	0x3ef7edee	0.48423713
66	0x3ef2733e	0.47353548
67	0x3eef5e1d	0.4675149
68	0xbdaf56dd	-0.0856149
69	0x3f26047a	0.6485058
70	0xbf2847fb	-0.65734833
71	0xbe8ae694	-0.27129042
72	0x3f0754cb	0.5286376
73	0xbf2df86e	-0.679572
74	0xbf21907a	-0.6311108
75	0x3f3034a1	0.68830305
76	0x3e0f1745	0.1397372
77	0x3deb3c93	0.11486163
78	0x3ef1db9b	0.47237858
79	0xbd97b501	-0.07407571
80	0x3f13dc70	0.57758236
81	0xbf024ba0	-0.50896645
82	0xbe5026ca	-0.20327297
83	0xbeebe38b	-0.4607204
84	0xbdaf311b	-0.08554288
85	0x3dee69c0	0.11641264
86	0xbeb08f67	-0.34484407
87	0xbd1ad37f	-0.037799355
88	0x3eb54a9c	0.35408485
89	0x3e8fe673	0.28105506
90	0x3f072bf2	0.5280143
91	0x3ef07596	0.4696471
92	0xbcffecb5	-0.0312408
93	0xbec76598	-0.38944697
94	0xbf31258b	-0.6919791
95	0x3c822751	0.015887888
96	0x3eba7107	0.36414358
97	0x3d9f3728	0.07774192
98	0xbea723df	-0.32644555
99	0x3e620019	0.2207035
100	0x3efae847	0.4900534
101	0x3e8d47c0	0.27593803
102	0x3de6df5a	0.1127307
103	0x3f1eaf9a	0.61986697
104	0x3d9bb4f6	0.07602875
105	0xbec1aeb1	-0.3782859
106	0xbf0df1ff	-0.5544738
107	0xbf22363a	-0.63363993
108	0xbee1a039	-0.44067553
109	0x3ea80ac4	0.32820714
110	0xbf29c868	-0.6632142
111	0x3ed23ca5	0.41061893
112	0x3df1f353	0.118139885
113	0xbe789c7a	-0.24278441
114	0x3e51072e	0.20412895
115	0xbe19b84f	-0.15011714
116	0x3ed46634	0.41484225
117	0xbf0cf272	-0.5505744
118	0xbf2bba20	-0.6708088
119	0x3d54e910	0.05198008
120	0xbf0f6953	-0.56020087
121	0x3f1e2490	0.6177454
122	0xbf102711	-0.5630961
123	0x3ed9aca5	0.4251453
124	0xbeb37f85	-0.35058227
125	0xbea605f7	-0.32426426
126	0xbdf5b72b	-0.11997827
127	0x3e0d0bd0	0.13774037

fc1.weight f4 [20, 256, 1]
0	0xbe12274e	-0.14272806
1	0x3dc79ad2	0.097463265
2	0x3d83e2f8	0.06439775
3	0xbde2478c	-0.11048803
4	0x3dd1dd7e	0.102473244
5	0x3d24ac9c	0.040203676
6	0xbdfc7268	-0.12326509
7	0xbdb249e4	-0.087055
8	0x3dd11af6	0.102102205
9	0xbe041e20	-0.12902117
10	0x3e06f386	0.13178834
11	0xbdc0fd33	-0.09423294
12	0x3e04736c	0.12934655
13	0xbda3e209	-0.08002097
14	0x3e0d37fa	0.13790885
15	0x3d081e44	0.03323199
16	0xbb67b400	-0.003535509
17	0xbbe0b840	-0.006857902
18	0xbdae9ca2	-0.08525969
19	0xbd8faa56	-0.07014911
20	0x3e00bd4c	0.12572211
21	0x3dbb5b38	0.09148258
22	0x3db093e6	0.086219594
23	0x3d96cb12	0.07362951
24	0xbdc5656a	-0.09638484
25	0x3dc7e5be	0.09760617
26	0xbddece26	-0.108791634
27	0xbda566b4	-0.0807623
28	0xbd04b7c0	-0.0324018
29	0x3b339840	0.002740398
30	0xbd28280e	-0.041053824
31	0x3d8174a8	0.063210785
32	0x3e138cbc	0.14409155
33	0x3da6452e	0.08118664
34	0x3bb2eb20	0.005460158
35	0xbdb2cbca	-0.08730276
36	0xbd8a2f55	-0.06747309
37	0xbba16c20	-0.0049262196
38	0x3e141d70	0.14464355
39	0xbdab60c3	-0.08368065
40	0xbdbcae79	-0.092129655
41	0x3def7560	0.116923094
42	0xbb129480	-0.0022366345
43	0x3dae86d2	0.08521809
44	0xbcdb89bc	-0.026799075
45	0x3e161bca	0.14659038
46	0xbd55bc7c	-0.052181706
47	0xbd48d6c2	-0.049032934
48	0xbdcca0f0	-0.09991634
49	0xbcec1e68	-0.028823093
50	0xbdc429c6	-0.0957828
51	0x3e0be16e	0.13660213
52	0x3df07e1c	0.117428035
53	0xbdf7c5a8	-0.12098247
54	0x3d132c3c	0.035930857
55	0xbd6f2f4c	-0.058394715
56	0xbe0a192f	-0.1348617
57	0x3d689ea0	0.0567919
58	0x3dfc168c	0.12308988
59	0x3dc9ec14	0.098594815
60	0x3d0d718c	0.034532115
61	0x3e072bb4	0.13200265
62	0xbd930d59	-0.0718028
63	0xbdab1cac	-0.08355078
64	0xbdf6825f	-0.12036585
65	0xbcf6b014	-0.030113257
66	0xbcb32e58	-0.021872684
67	0xbd462424	-0.04837431
68	0x3e019252	0.12653473
69	0xbc8394a8	-0.016062096
70	0x3d712d10	0.058880866
71	0x3de74fa4	0.11294487
72	0xbdd7360c	-0.105083555
73	0x3d0a34ac	0.033741638
74	0xbdd0a649	-0.101879664
75	0x3dc95246	0.098301455
76	0xbd4c067c	-0.04981087
77	0x3e089f3c	0.13341993
78	0x3dff2708	0.124586165
79	0xba816280	-0.0009871274
80	0xbd439cd6	-0.047756992
81	0xbd776f2a	-0.06040875
82	0xbdeaacdd	-0.11458752
83	0xbce79094	-0.028267182
84	0x3df51c3c	0.11968276
85	0x3e0f4f58	0.13995111
86	0xbe0be22a	-0.13660493
87	0xbe1698fb	-0.14706795
88	0xbe015d47	-0.12633239
89	0x3d51f15c	0.05125557
90	0x3dcbd786	0.09953217
91	0xbd842803	-0.06452944
92	0x3defd574	0.11710635
93	0x3da00fec	0.07815537
94	0x3d5a6310	0.05331713
95	0xbdd92cdc	-0.10604259
96	0x3dc17274	0.09445658
97	0x3d8d0bf2	0.06887044
98	0x3aa0d480	0.0012270361
99	0x3d556bd0	0.05210477
100	0xbdaba633	-0.08381309
101	0xbd783904	-0.06060125
102	0x3dd7c8d0	0.10536349
103	0xbe0b3990	-0.13596177
104	0xbe0eccc0	-0.13945293
105	0x3beae780	0.00716871
106	0x3db0e562	0.08637501
107	0x3db58ae2	0.088643804
108	0x3d4e0e50	0.05030662
109	0x3c4f0950	0.012636498
110	0x3d8c92dc	0.06863949
111	0xbd7eb5e0	-0.06218517
112	0xbd43c64e	-0.04779654
113	0xbde93f2c	-0.11389002
114	0x3e021bc4	0.12705904
115	0x3d6f3064	0.05839576
116	0x3b3d2a80	0.0028864443
117	0x3dc39f5c	0.0955188
118	0x3e0afa42	0.13572028
119	0x3d8726c4	0.06599191
120	0x3e11739e	0.1420426
121	0x3dd8ef2c	0.105924934
122	0x3d22f114	0.03978069
123	0x3d118cdc	0.035534725
124	0xbd9c35a6	-0.0762742
125	0xbc80cb60	-0.015721977
126	0xbdaf4286	-0.0855761
127	0xbe03f72a	-0.12887254
128	0x3ce0dd18	0.027449176
129	0xbb09fb40	-0.0021054298
130	0xbd1e98aa	-0.03871981
131	0x3d16c31c	0.036807165
132	0x3ccab4c0	0.024744391
133	0x3e086356	0.13319144
134	0x3d7f73d4	0.06236632
135	0x3e041ad8	0.12900865
136	0x3e0c1a20	0.13681841
137	0x3d9ed988	0.077563345
138	0x3df49d10	0.1194402
139	0xbdf1e374	-0.11810961
140	0x3d1a330c	0.03764634
141	0x3dde4efc	0.10854909
142	0x3e0fc658	0.14040506
143	0xbd53bfae	-0.051696472
144	0xbde76323	-0.11298206
145	0xbd782d74	-0.060590222
146	0x3e10a87c	0.14126772
147	0xbdd3a086	-0.10333352
148	0x3d53de78	0.051725835
149	0x3d0ba73c	0.034095034
150	0x3a90ed80	0.0011057109
151	0x3dbb0028	0.09130889
152	0x3d88aa4c	0.066731066
153	0x3d8cdb9a	0.06877823
154	0x3cce8fc0	0.02521503
155	0x3c89a210	0.01680091
156	0xbcb1c668	-0.021701053
157	0x3de7cf08	0.11318785
158	0xbd064fcc	-0.032790944
159	0xbe01d06c	-0.12677163
160	0x3d8f5764	0.0699909
161	0x3ddb6d5c	0.10714218
162	0x3c953308	0.01821281
163	0xbcefc934	-0.029270746
164	0x3d8e30d0	0.06942904
165	0x3e0f9b30	0.14024043
166	0xbdf01240	-0.11722231
167	0xbd614e6e	-0.055006437
168	0xbd1031f0	-0.035203874
169	0x3d3df548	0.046376497
170	0x3db7393a	0.08946462
171	0xbd9a52ad	-0.075353004
172	0xbd82b387	-0.063818984
173	0x3d610064	0.054932013
174	0xbdc594e7	-0.096475415
175	0x3bc3a060	0.005970046
176	0x3e126538	0.14296424
177	0x3d7eda04	0.062219635
178	0xbe0abc8c	-0.13548487
179	0xbd8e4151	-0.06946052
180	0x3d0ca5c4	0.034337774
181	0x3cc1f740	0.023677468
182	0x3e011d4a	0.12608829
183	0xbc8b4d10	-0.01700452
184	0xbd0afebc	-0.03393434
185	0x3e10406c	0.14087075
186	0xbda04410	-0.07825482
187	0x3ddf39b4	0.10899678
188	0xbe135a2f	-0.14389871
189	0xb7d12000	-2.4929643e-05
190	0xbc8f72b8	-0.017510757
191	0xbdd5cc47	-0.104393534
192	0x3e09c564	0.13454205
193	0xbcb637e0	-0.02224344
194	0xbdff4a54	-0.12465349
195	0xbdcc15b2	-0.099650756
196	0x3d8c7560	0.06858325
197	0x3c836f48	0.016044274
198	0x3b63d180	0.0034762323
199	0x3dd005d2	0.1015736
200	0xbdfb1a78	-0.12260908
201	0xbd003950	-0.031304657
202	0x3cb19348	0.021676674
203	0xbd3ef3c6	-0.0466192
204	0xbdeac78a	-0.1146384
205	0x3bc4fe40	0.0060117543
206	0xbdf784b1	-0.12085856
207	0x3cd7f070	0.026359767
208	0x3ccba660	0.024859607
209	0x3d2ff524	0.042958394
210	0xbc280ec0	-0.010257423
211	0xbcb55088	-0.022133127
212	0x3dee1c94	0.116265446
213	0xbdd7483c	-0.105118245
214	0x3e0f9210	0.14020562
215	0xbe02335e	-0.12714908
216	0xbd20f492	-0.03929574
217	0xbc97a8c0	-0.018513083
218	0x3d86b600	0.065776825
219	0xbddb470a	-0.10706909
220	0xbded6cb0	-0.11592996
221	0x3dcf2524	0.10114506
222	0xbd99adae	-0.0750383
223	0xbd0ecdca	-0.034864224
224	0x3e121c82	0.14268687
225	0xbe104532	-0.14088896
226	0x3de286e0	0.110608816
227	0xbdf2cf16	-0.11855905
228	0x3dc2dec8	0.095151484
229	0x3e16c714	0.1472438
230	0x3dcdbcac	0.10045752
231	0xbd4007b6	-0.046882354
232	0xbe02a053	-0.12756471
233	0x3d3396e0	0.043845057
234	0xbdfb40fe	-0.12268256
235	0xbd2de6b8	-0.04245636
236	0xbbac6dc0	-0.0052621067
237	0x3da8caa4	0.08241776
238	0xbe140045	-0.14453228
239	0xbd9bae7e	-0.07601641
240	0x3d4bd260	0.049761176
241	0x3dea0758	0.11427182
242	0xbe0d89af	-0.13822053
243	0xbe0bc896	-0.13650736
244	0xbd89cfca	-0.06729086
245	0xbd8050fb	-0.06265446
246	0x3db8c798	0.090224445
247	0x3dc93d24	0.09826115
248	0xbd8f5ce0	-0.070001364
249	0xbdd40ee9	-0.103544064
250	0xbde7e354	-0.11322656
251	0xbd5c1aac	-0.053736374
252	0x3d57ab0c	0.052653357
253	0xbcdf0fdc	-0.027229242
254	0xbd821b97	-0.063529186
255	0x3d746e6c	0.05967562

fc1.bias f4 [20]
0	0xbcf82664	-0.030291744
1	0x396fd5c8	0.00022872456
2	0xbc586668	-0.013208009
3	0xbd324bd7	-0.043529358
4	0xbc89032c	-0.016725145
5	0xbc4cb480	-0.012494206
6	0xbd54db16	-0.05196675
7	0xbcba2134	-0.02272091
8	0x3cf4f1c6	0.029900443
9	0xbbc4dda0	-0.006007865
10	0xbce61d24	-0.028090067
11	0x3d3d1300	0.046160698
12	0xbd140d02	-0.036145218
13	0xbd6d34d4	-0.05791171
14	0x3c18c118	0.009323381
15	0xbcef4244	-0.029206403
16	0x3d6f891f	0.05848038
17	0xbc998520	-0.018740237
18	0x3c5858fe	0.013204811
19	0xbca5b990	-0.020230085

fc2.weight f4 [20, 20, 1]
0	0xbc37e040	-0.011222899
1	0xbd1896ed	-0.03725331
2	0x3e600a58	0.21878946
3	0x3e529e7d	0.20568271
4	0xbbafd500	-0.0053659678
5	0x3b4ca4d2	0.003122617
6	0x3e1ea7c4	0.15493685
7	0xbd3af4c7	-0.045643594
8	0xbeb877a5	-0.36028782
9	0x3e03bfa5	0.12866075
10	0xbe4852ce	-0.19562837
11	0xbea5c4ed	-0.32376805
12	0xbe31ea33	-0.17374496
13	0xbe5e1ba4	-0.21690232
14	0x3e44027c	0.19141573
15	0x3db65604	0.08903125
16	0xbc7487a8	-0.014924921
17	0x3ec78582	0.38969046
18	0x3dae0f3c	0.084989995
19	0xbe5a1b1f	-0.21299408
20	0x3e9a914c	0.30188978
21	0xbd585f52	-0.05282528
22	0x3e11adf8	0.1422652
23	0xbe23206d	-0.15930338
24	0x3da4601c	0.08026144
25	0x3ea171e9	0.3153222
26	0xbd6ce093	-0.05783136
27	0xbd1e3710	-0.03862673
28	0x3e2293ea	0.15876737
29	0x3e435edc	0.19079155
30	0xbe9e3742	-0.30901533
31	0xbe91e2a4	-0.28493226
32	0xbe4d9ded	-0.20079775
33	0x3e1cf363	0.1532722
34	0x3eb26c3a	0.34848195
35	0xbd70d17e	-0.058793537
36	0xbec531e5	-0.3851463
37	0x3e367b37	0.1782044
38	0x3e780a19	0.24222602
39	0x3e359e08	0.17736065
40	0x3e4cd120	0.2000165
41	0x3e068508	0.13136685
42	0xbec2bf77	-0.380367
43	0x3ea2f52e	0.31827682
44	0xbe90f373	-0.28310737
45	0xbe9d8aa7	-0.30769846
46	0x3d97e3f4	0.074165255
47	0x3c0c70f3	0.008571851
48	0xbe7aaf06	-0.24480829
49	0xbe99b625	-0.30021778
50	0xbe4e7e3b	-0.2016534
51	0xbe7e7109	-0.24847807
52	0x3de0594c	0.10954532
53	0xbe906f81	-0.2821007
54	0xbd968e80	-0.073513985
55	0x3d4dfa8c	0.05028777
56	0x3eb0297f	0.3440666
57	0x3ea48d67	0.3213913
58	0x3e00152c	0.12508076
59	0xbae83600	-0.0017716289
60	0x3ec2cdb4	0.38047564
61	0x3e921349	0.28530338
62	0xbe0a7c74	-0.13524038
63	0x3da83664	0.08213499
64	0x3ea46866	0.321109
65	0x3e5f0eb3	0.21782951
66	0xbe8f7ba3	-0.28024015
67	0x3d87032a	0.065924
68	0xbcbcc613	-0.023043668
69	0x3e949d98	0.29026484
70	0xbde0f8b8	-0.10984939
71	0xbe353379	-0.17695417
72	0xbd8e47ac	-0.06947264
73	0xbdaea15e	-0.08526872
74	0xbd8be708	-0.06831175
75	0x3ebe674f	0.37188193
76	0xbe00ab58	-0.12565362
77	0xbe5e402d	-0.21704169
78	0x3e7fe708	0.24990475
79	0x3ec45594	0.3834654
80	0x3e462eb8	0.1935376
81	0xbd85283f	-0.06501817
82	0x3e1cef78	0.15325725
83	0xbddc83ca	-0.10767324
84	0xbd790fd0	-0.060806096
85	0xbd069eff	-0.032866474
86	0xbe08bc9e	-0.13353202
87	0x3e43d631	0.19124676
88	0xbdbd4b56	-0.09242885
89	0x3e97819e	0.29591078
90	0x3ce51010	0.02796176
91	0x3eb8f74e	0.36126179
92	0xbd996e64	-0.074917585
93	0x3ea7717c	0.3270377
94	0xbce80cb0	-0.028326362
95	0x3da6d06d	0.08145223
96	0xbe231f86	-0.15929994
97	0xbec0dae2	-0.37666994
98	0x3e1feabd	0.1561689
99	0x3e2111e8	0.15729487
100	0x3e3f4768	0.18679583
101	0xbdf8a6bb	-0.12141176
102	0x3e64d6bc	0.2234754
103	0xbce103c4	-0.027467616
104	0x3eb47ee4	0.3525306
105	0xbe24e842	-0.16104224
106	0x3e7670c2	0.24066451
107	0x3cbe8d57	0.023260755
108	0xbdde3e80	-0.10851765
109	0x3e050544	0.1299029
110	0x3eaf78ec	0.34271944
111	0x3eba3c32	0.3637405
112	0x3ec1c504	0.37845623
113	0xbeb1ecc6	-0.34750956
114	0x3e917264	0.28407586
115	0x3e472e8a	0.19451347
116	0x3ec63b8e	0.38717312
117	0x3ca32751	0.019916208
118	0xbe70e96b	-0.23526542
119	0x3dfb6790	0.12275612
120	0x3ebc515a	0.36780816
121	0x3e503933	0.2033432
122	0xbc8e9c60	-0.01740855
123	0xbea8cee4	-0.32970345
124	0x3e7021dc	0.23450416
125	0xbea27197	-0.31727287
126	0xbe6f2a2d	-0.23355933
127	0x3e5f3061	0.21795799
128	0xbd704987	-0.05866387
129	0xbea53098	-0.32263637
130	0xbe671cb6	-0.22569546
131	0x3ca87e30	0.020567983
132	0x3e342664	0.1759277
133	0xbe17529c	-0.14777607
134	0x3e2aec2c	0.16691655
135	0x3c96a224	0.018387862
136	0x3e096ab6	0.13419613
137	0x3d1d163b	0.03835128
138	0x3e0a9901	0.13534929
139	0x3e843980	0.2582512
140	0x3da969cc	0.08272132
141	0x3ea14b30	0.31502676
142	0x3ebb1c20	0.36544895
143	0x3da302f0	0.07959545
144	0x3db0d924	0.08635166
145	0xbe5d5e70	-0.21618056
146	0x3ea4c0ac	0.32178247
147	0xbdb66368	-0.08905679
148	0x3e9f2038	0.31079268
149	0x3d46cad0	0.04853326
150	0x3d87a288	0.06622797
151	0xbb9f3100	-0.004858136
152	0x3dd0cca0	0.10195279
153	0x3e4aff84	0.19824034
154	0xbe947683	-0.28996667
155	0xbe726595	-0.23671563
156	0xbe96539f	-0.29360673
157	0xbe885408	-0.2662661
158	0xbe1dec26	-0.15422115
159	0x3ec4cf18	0.3843925
160	0x3eafd58a	0.34342605
161	0xbd9b7af4	-0.07591811
162	0x3e63ef20	0.22259188
163	0xbec43f78	-0.38329673
164	0x3ebae030	0.36499166
165	0xbc004d10	-0.007830873
166	0xbdd919b3	-0.10600605
167	0x3e621b87	0.22080813
168	0x3d1ffe0a	0.03906063
169	0xbe484c2f	-0.19560312
170	0x3ce51710	0.027965099
171	0x3ea03b88	0.3129542
172	0xbe7929d0	-0.24332356
173	0x3eb3f3b3	0.35146865
174	0xbeb79034	-0.35852206
175	0xbec38084	-0.38183987
176	0xbdd854de	-0.10563062
177	0x3e9abafc	0.30220783
178	0x3d66c490	0.0563398
179	0xbdf9c9b8	-0.12196678
180	0x3dd52194	0.10406795
181	0x3ebf0e6d	0.37315693
182	0x3e8799a8	0.26484418
183	0xbe733da3	-0.23753981
184	0x3e2c9d20	0.16856813
185	0xbea6df2b	-0.3259214
186	0xbe96d09b	-0.29456028
187	0x3e68d72f	0.22738336
188	0xbd45ea95	-0.048319418
189	0x3e3b84ed	0.18312426
190	0xbe6a0690	-0.22854066
191	0xbe526977	-0.20548044
192	0x3e6c62bc	0.23084539
193	0xbd42e4a6	-0.047581337
194	0x3db879b4	0.09007588
195	0xbe3ad723	-0.1824613
196	0x3e1807cb	0.14846723
197	0x3e7dfc4d	0.24803276
198	0xbe9cf97e	-0.30659097
199	0xbe30f14a	-0.17279544
200	0xbc4b1720	-0.01239565
201	0x3d1bbaa4	0.03801979
202	0xbe83b7b5	-0.25726095
203	0x3e743af5	0.23850615
204	0x3e7c2c6c	0.2462632
205	0xbebf308f	-0.37341735
206	0x3e8eeb7d	0.27914038
207	0xbda0182c	-0.078171104
208	0x3e2c5485	0.16829117
209	0x3ebf7f63	0.37401876
210	0xbc8210d0	-0.015877157
211	0x3e1e3504	0.15449911
212	0x3e4d5a90	0.20054078
213	0xbec8c436	-0.39212197
214	0xbeb8deda	-0.36107522
215	0x3ea5df4c	0.32396924
216	0x3dc5b7b0	0.09654176
217	0x3e9e7749	0.30950382
218	0xbdd1453e	-0.10218285
219	0x3cbb6df0	0.02287957
220	0xbd8ec99c	-0.06972048
221	0xbe802d47	-0.25034544
222	0xbe030324	-0.12794167
223	0xbda86a18	-0.08223361
224	0x3e182120	0.14856386
225	0xbdd7c9d0	-0.105365396
226	0xbe90847a	-0.28226072
227	0xbe3608ae	-0.17776749
228	0xbe42b3fa	-0.19013968
229	0xbea6521c	-0.3248452
230	0x3e8af3f0	0.27139235
231	0xbda0f7fc	-0.07859799
232	0x3eb84012	0.35986382
233	0xbd999afc	-0.07500264
234	0xbe15cf78	-0.14629924
235	0xbeb3c2e4	-0.35109627
236	0x3e362e30	0.17791057
237	0xbd8d98f4	-0.06913939
238	0x3e461064	0.1934219
239	0x3e2b9ae4	0.16758305
240	0xbec3b6a2	-0.38225275
241	0xbd24f7f8	-0.040275544
242	0x3e84b5ce	0.25919956
243	0xbd8b51e0	-0.06802726
244	0x3d658168	0.056031615
245	0x3eab1bb0	0.3341956
246	0xbe1084fa	-0.14113227
247	0xbdbfb0bc	-0.09359881
248	0xbe1d4c2f	-0.15361093
249	0xbe75e87a	-0.24014464
250	0x3eaa026e	0.3320498
251	0x3e69f984	0.22849089
252	0xbeb003cc	-0.34377897
253	0xbe8d8bf0	-0.27645826
254	0xbcfe4930	-0.031040758
255	0x3dba251c	0.09089109

fc2.bias f4 [20]
0	0x3e41773d	0.18893142
1	0xbe4275e7	-0.18990289
2	0xbd4c828c	-0.049929187
3	0x3dbf9876	0.093552515
4	0x3e20695d	0.15665193
5	0x3dea2653	0.11433091
6	0x3d0b7be3	0.034053694
7	0xbe3a35b8	-0.18184555
8	0x3e033d5a	0.12816373
9	0xbd905513	-0.070474766
10	0x3e3f0eef	0.1865804
11	0x3df14a44	0.11781743
12	0x3e10e584	0.14150053
13	0xbd4bd385	-0.049762268
14	0x3c808350	0.015687615
15	0xbd920326	-0.07129507
16	0xbdb1d744	-0.08683637
17	0xbe2d8274	-0.16944295
18	0x3e40d803	0.18832402
19	0xbe6398d5	-0.2222627

fc3.weight f4 [1, 20, 1]
0	0x3e368eb2	0.17827871
1	0xbec69718	-0.3878715
2	0xbe026bf1	-0.12736489
3	0xbe09b415	-0.13447602
4	0xbe83be51	-0.25731137
5	0x3ea1098c	0.31452596
6	0x3e70ade7	0.23503838
7	0x3effb70e	0.49944347
8	0xbe043f27	-0.12914716
9	0x3e0d8339	0.13819589
10	0x3e11ca7d	0.142374
11	0x3f035605	0.5130313
12	0x3e18dee8	0.14928782
13	0x3efa34a2	0.4886828
14	0x3ef1852e	0.4717192
15	0x3eaa3a88	0.3324778
16	0x3eb4924e	0.35267872
17	0xbdcd66c2	-0.10029365
18	0x3ceae0f8	0.028671727
19	0x3dc669e0	0.09688163
