Task assignment/drl4vrp/vrp/10/19_20_26.716625/checkpoints/6/actor.pt (torch, 734651 bytes, 14 tensors)

static_encoder.conv.weight f4 [128, 2, 1]
000000 7a 3d 1c be 0b 0d 19 3e 12 ed ee 3d 43 aa b7 3b
       -0.15257826 0.14946382 0.11666311 0.0056050136
000010 f9 43 df bd 14 87 65 3d d3 a9 ba bd 57 58 80 bd
       -0.10901637 0.056037024 -0.09114423 -0.062668495
000020 9c 79 ea 3d f7 0b f8 3d bd 43 ae bd a8 8b 4c bd
       0.114489764 0.12111657 -0.08509014 -0.049937874
000030 19 d6 4a 3e 56 96 07 bd 85 d6 f2 bd fa 6b 42 3e
       0.19808234 -0.033102356 -0.118573226 0.18986502
000040 9b 59 3e be a8 68 38 3d 82 99 c7 3d e1 2c ea 3d
       -0.1858887 0.045021683 0.09746076 0.11434341
000050 8c f8 10 be 7f eb a1 bd 88 42 16 be 97 d2 3e be
       -0.14157313 -0.079062454 -0.14673817 -0.18635021
000060 f8 93 39 bd 62 e4 52 be c1 dc 3d be 72 c9 a1 bb
       -0.04530713 -0.20594934 -0.18541242 -0.004937344
000070 74 54 37 3e b0 b2 fa bd a7 35 31 3e 69 a7 aa 3c
       0.1790331 -0.12241113 0.17305623 0.02083178
000080 b9 66 3b 3e bb f5 28 bb a8 58 13 be 2e 7b 0a bd
       0.18300904 -0.0025781232 -0.14389288 -0.03380888
000090 72 59 b5 bc 90 f9 3b 3e 8b f4 47 be ad f0 46 bd
       -0.022137377 0.1835692 -0.1952688 -0.04856937
0000a0 61 91 18 3e a2 1c 44 be ed bb d6 bd d0 68 eb bd
       0.14899208 -0.19151548 -0.10485063 -0.11494601
0000b0 d8 ad d9 bb 30 e3 ac bd b6 6d dc 3d 91 e8 bd bd
       -0.0066430382 -0.0844177 0.10763113 -0.09272874
0000c0 b6 24 2c 3d 76 78 b8 3c b8 43 4e 3e 3b ba 22 3c
       0.042027198 0.022518378 0.2014302 0.009932096
0000d0 9b 4b f1 3c 78 09 1a 3d 99 27 16 be 61 e6 2a bd
       0.029454997 0.037606686 -0.14663543 -0.041723613
0000e0 a7 36 11 be 68 cd c2 3d df 2a 71 3b e8 73 44 3e
       -0.14181004 0.095118344 0.0036799235 0.1918484
0000f0 d1 dd a3 bd 55 0f 31 3c 8c 9c 9d bd 02 8e 30 bd
       -0.080012925 0.010806878 -0.076958746 -0.04310418
000100 35 cb 4a 3e 80 b6 03 be e8 43 13 3e 31 b0 13 be
       0.1980408 -0.12862587 0.14381373 -0.1442268
000110 56 b3 05 bd fd 6d a4 3d 18 1f 47 be 0c 39 de 3d
       -0.03264173 0.08028791 -0.19445455 0.108507246
000120 c9 04 c7 bd 81 e4 27 be ce 56 cd bd 9f 5e 0a 3e
       -0.097177096 -0.16395761 -0.10026322 0.13512658
000130 8e 7b 81 3d fd 7c e6 3d 69 e2 30 3e 5c a3 dc bd
       0.06322394 0.112543084 0.17273869 -0.10773346
000140 98 9d 0d be f8 54 18 3d 4c c9 b7 bd 0e 31 02 3e
       -0.13829648 0.037190408 -0.08973941 0.12714025
000150 33 06 00 be c4 9d 2f be 3b 98 25 3e 31 cc af bd
       -0.12502365 -0.17150027 0.16171353 -0.08583868
000160 e5 d2 91 bb 8e bb 10 3c 00 8d 02 3e 8e 15 ed 3d
       -0.0044501894 0.008833779 0.127491 0.11576377
000170 34 cc 13 3e 42 fd 36 3d 2d c3 4a 3e 1b f4 dc bc
       0.14433366 0.04467512 0.19801016 -0.026971867
000180 36 ad 80 3d f0 df 8c 3d 6c 0a a3 3d b2 98 03 be
       0.06283037 0.0687865 0.07960972 -0.12851217
000190 33 f1 4a 3e eb 04 8e bc 73 17 cb bc 06 b5 da bd
       0.19818573 -0.01733633 -0.024791455 -0.10679059
0001a0 d0 39 09 bd 84 5a d7 3d cf 0f a4 bd 27 d3 5a be
       -0.0335024 0.10515311 -0.08010828 -0.2136961
0001b0 d8 6c 95 bc 8b 37 c4 bd 96 15 25 bc cb ca ae 3c
       -0.018240377 -0.095809065 -0.010075947 0.021336934
0001c0 05 a6 33 3e 38 a5 50 3e 54 27 34 be ed cc 54 3e
       0.175438 0.20375526 -0.17593127 0.20781298
0001d0 3c ae 4c 3e 2f 6b 0f 3d eb 31 13 3e 5d 22 be 3d
       0.1998834 0.035014328 0.14374511 0.09283898
0001e0 6e 85 9b 3d 86 40 62 bd ff 9e ab 3d 03 5b 44 be
       0.07593809 -0.055237316 0.083799355 -0.19175343
0001f0 75 4d 47 be 44 81 35 be 39 ff 89 3d ba 94 14 3e
       -0.19463141 -0.17725092 0.06738133 0.1450986
000200 8c a1 cf 3d f8 30 02 3d 5a dc 4e be 75 08 76 bd
       0.101382345 0.03178498 -0.20201245 -0.06006666
000210 bf 62 12 be 27 9c 12 be 3d d4 c1 bb ea fb 84 bc
       -0.14295481 -0.1431738 -0.0059151934 -0.016233403
000220 03 5a 5a be 46 15 db 3c a6 fe 89 3c 24 8e 45 3e
       -0.21323399 0.026743542 0.016845059 0.19292504
000230 f1 df 23 3d c9 b8 4a 3e ad 15 79 bd ab 76 c3 3b
       0.04000849 0.19797052 -0.060811687 0.005965074
000240 9f 9f 94 bd 11 16 e9 bd 69 fe 7c 3d ba 10 03 3e
       -0.07257008 -0.11381162 0.061766062 0.1279935
000250 23 b5 8c 3d ad 33 b0 bb 55 8c cc 3b a8 55 c8 bb
       0.068704866 -0.005377254 0.006242315 -0.0061137266
000260 c4 88 80 bd c0 df 04 3d 18 28 d9 3d eb ee 0a 3d
       -0.06276086 0.032439947 0.106033504 0.033919256
000270 30 49 3e 3e 47 81 04 3e 53 e7 fe bd a8 58 51 be
       0.18582606 0.1293994 -0.12446465 -0.20443976
000280 c3 4e 87 bd 48 e7 54 be 37 53 55 be 70 4e 17 be
       -0.066068195 -0.20791352 -0.20832525 -0.14776015
000290 c3 94 07 be 66 96 03 be 84 80 4e be 32 70 78 bd
       -0.13240342 -0.12850341 -0.20166212 -0.060653873
0002a0 13 7f 50 be 40 82 02 ba 11 4c 8c 3d 0b 9a 07 3e
       -0.20360975 -0.0004978515 0.06850446 0.13242356
0002b0 6e 07 56 3e b0 00 33 be 4d d0 eb bc 13 61 aa bd
       0.20901272 -0.17480731 -0.028785849 -0.08319297
0002c0 ab 32 96 bc 64 35 96 bd 4b 82 41 be bf fc 0c bd
       -0.018334707 -0.07334402 -0.18897359 -0.034420725
0002d0 7d 6a 04 3e e3 aa f6 3d 0a f4 46 be 16 c3 96 bd
       0.12931247 0.12044313 -0.19429031 -0.073614284
0002e0 d0 9d 51 bd 1c e2 84 bd 00 9f 04 be aa 86 1c 3e
       -0.051175892 -0.064884394 -0.12951279 0.15285745
0002f0 68 f5 36 3e 8c 7d 0e bd 31 95 d4 bc c3 e8 40 bd
       0.17867053 -0.0347877 -0.025950046 -0.04709698
000300 6a 1b 11 be c2 75 49 be d0 27 7b 3c 8d 59 12 3e
       -0.14170614 -0.19673827 0.015329316 0.14291973
000310 d9 a8 2a be 45 6b 1e 3e 06 25 79 3d ae 25 54 be
       -0.16665973 0.15470608 0.060826324 -0.20717499
000320 ed ce a6 3d ba db 5e 3d 90 dd f6 bd 2d f7 9d 3d
       0.08144937 0.054408766 -0.120539784 0.07713161
000330 6e 72 3c 3e b2 ae 40 be c1 cf 98 3c 59 72 f8 3c
       0.18403026 -0.18816641 0.018653752 0.030327963
000340 ba 9c 4c be 3d 20 44 3c 74 f2 fe bc 0e 8e c1 bc
       -0.19981661 0.011970577 -0.03112147 -0.023627307
000350 6d 8a ef bd 47 4c 5e bd 87 53 34 be 01 71 80 3c
       -0.116963245 -0.054271962 -0.17609988 0.015678884
000360 cb 55 02 3e 37 0b 10 be b4 aa 95 3d 06 46 3a bd
       0.1272804 -0.14066778 0.0730795 -0.045476936
000370 e3 a3 27 3e 0c fe cd bd 72 fb 42 be cc 86 68 bc
       0.16371112 -0.10058221 -0.19041231 -0.014192294
000380 8e e4 0a 3e 39 95 5c bd 41 af 26 be bc d0 8b 3d
       0.13563749 -0.053853247 -0.16277792 0.06826922
000390 3f a5 3f 3e 05 76 39 3c 80 c8 dc bd 1c 63 29 3e
       0.1871538 0.011319642 -0.1078043 0.16541713
0003a0 33 fb 8e 3d 59 fb 3d be 36 2b 1b 3e bc 42 96 bd
       0.06981506 -0.18552913 0.15153202 -0.07336947
0003b0 24 2a b0 3c 11 4e df 3d 8e 8c 04 3e d6 b4 36 bd
       0.02150447 0.10903562 0.12944242 -0.044606052
0003c0 d4 cd 0a 3e f0 49 5a 3b c4 87 47 be 62 ac 2f be
       0.1355508 0.003330823 -0.19485384 -0.17155603
0003d0 78 e1 c1 3d 24 24 43 3e f7 64 5a 3d 9d 14 31 3e
       0.09466833 0.19056755 0.053318944 0.1729302
0003e0 2f 01 18 3e ed 28 bf bd a4 f8 96 3d 5a f0 b7 bd
       0.14844202 -0.09333978 0.07371643 -0.0898139
0003f0 24 2c c8 bd 6d 9d 63 bc a9 24 b9 bd 11 35 b7 3c
       -0.09774044 -0.013892514 -0.090401955 0.022364171

static_encoder.conv.bias f4 [128]
000000 c3 9a d8 be bc 54 81 be aa 4f 29 3f 2f ed 8d 3d
       -0.42305574 -0.2525996 0.6613718 0.06930005
000010 c5 04 33 bf 5f d3 a9 3e 40 66 c4 be 06 07 20 bf
       -0.6992915 0.33169076 -0.3835926 -0.62510717
000020 51 e3 86 3e 9b dd 09 3e 1e 1e 06 bf dd a4 05 3f
       0.26345304 0.13463442 -0.52389705 0.52204686
000030 8e f4 b4 3e 7b bd 0f bf a5 c5 dc 3e 41 5b d6 3e
       0.3534283 -0.561485 0.4311954 0.41866496
000040 ce 54 b4 3c ef 3b 1a bf 55 b1 30 bf 90 5c 0d 3e
       0.022013094 -0.602477 -0.6902059 0.13804841
000050 67 bd 30 bd 73 a9 96 3e fe ed a0 be 3d 51 35 3c
       -0.04314938 0.29426154 -0.31431574 0.011066732
000060 3b aa 93 bc c1 49 28 bf 85 43 e5 3e 43 91 fb 3d
       -0.018025508 -0.6573754 0.44778076 0.12283566
000070 58 8b e4 be ee 50 5c 3e 5a 3b 02 3e 80 75 8e 3d
       -0.4463756 0.21515247 0.12717953 0.06956005
000080 00 a7 4d 3d dd 16 2d 3f 92 7f 0d 3c 49 5b 0c 3f
       0.05020809 0.6761301 0.008636372 0.5482679
000090 f5 c2 bc be 02 cd 14 3f a4 75 0a 3f 34 80 21 bf
       -0.3686749 0.5812532 0.54085755 -0.6308625
0000a0 c3 69 ae be b6 62 e1 be 19 76 04 bf df 21 08 3f
       -0.34065065 -0.44020623 -0.517427 0.53176683
0000b0 68 08 38 3d 3b 23 16 3f ed df b9 3e fd 9d cd 3e
       0.04492989 0.5864751 0.36303654 0.40159598
0000c0 0a ae 2d bf 5b 71 59 3e fb c8 6c be ec 56 af 3e
       -0.6784369 0.21234648 -0.23123543 0.34246004
0000d0 65 ca 33 3f 69 a1 b5 be 5d 93 a1 3e 16 08 f4 3e
       0.70230705 -0.3547471 0.31557742 0.4766242
0000e0 4e be d4 3e 58 69 b2 be b5 98 14 3f 8a cc 1b 3f
       0.4155144 -0.34845996 0.5804551 0.60858977
0000f0 5d fc 03 3f c4 29 e6 3d 21 78 86 3d 79 99 98 be
       0.5155695 0.11238435 0.065658815 -0.2980459
000100 4d d4 27 be 63 36 d2 be cd 5c cc 3e c8 37 d4 be
       -0.1638958 -0.4105712 0.3991455 -0.41448808
000110 a7 c2 5e 3e 2a a5 d4 be ec 6b 01 be ac f8 12 3f
       0.21753941 -0.4153226 -0.12638825 0.57410693
000120 a0 e5 e6 3e 58 8c 40 3d fb ed eb 3e 9c f7 40 3e
       0.45097065 0.047008842 0.46080002 0.18844455
000130 3c d9 f0 3d 1d 1f ff 3e 5c 0e d3 3e 58 f0 01 bf
       0.11760184 0.49828425 0.41221893 -0.5075736
000140 5c 87 14 bf 32 36 30 bf c2 31 2e bf 11 c3 9d 3e
       -0.5801904 -0.68832695 -0.68044674 0.30812886
000150 49 01 ef be dd e6 23 bf 65 17 d7 be e9 ac 19 3f
       -0.46680668 -0.64024144 -0.42010036 0.60029465
000160 54 0c ed 3d c9 83 ef 3e ad dd ec 3e 50 71 cd be
       0.11574617 0.46780232 0.46262875 -0.40125513
000170 b7 56 c5 3e 80 78 1f 3f ba 33 00 3f 5d 1a 77 bd
       0.3854272 0.62293243 0.5007893 -0.060327876
000180 86 59 7c be ec f1 bc be f5 f0 70 be 94 a9 62 be
       -0.24643525 -0.36903322 -0.23529418 -0.22135001
000190 4f 1b ca be a5 8d 40 3e 86 40 22 bf fb 0e 05 bf
       -0.3947396 0.18804033 -0.63379705 -0.51975983
0001a0 15 b8 30 bf e4 eb ec be bf 91 b6 3e 6b b9 1a 3f
       -0.69030887 -0.4627372 0.3565807 0.60439175
0001b0 c6 26 26 be 8b 59 34 bf 4d b8 ce 3e be b9 03 bf
       -0.16225728 -0.7044913 0.40374985 -0.51455295
0001c0 73 a0 33 3f d0 7f 11 3f 05 8e 79 3e b8 0d f4 3e
       0.701667 0.5683565 0.24370582 0.47666717
0001d0 7c 1c a4 be 7b 20 d0 3d 68 c6 02 be 24 82 d7 be
       -0.32052982 0.10162445 -0.12770998 -0.42091477
0001e0 fd d5 f6 bd 98 de 54 3d 4f da 85 3d 7e 19 f1 bd
       -0.12052534 0.051970094 0.0653578 -0.117724404
0001f0 14 17 8d 3e 1d 5d 96 3d 63 7e 82 be 9d b3 b0 3d
       0.2755667 0.07341979 -0.2548705 0.086280085

dynamic_encoder.conv.weight f4 [128, 2, 1]
000000 7e 23 f4 3d 5b d6 28 3e 21 05 77 3d e9 52 7b 3d
       0.11920832 0.1648802 0.060307626 0.061358366
000010 2f ed 03 be 23 ee 36 be df cb 0a be 9e f8 3f 3e
       -0.12883447 -0.1786428 -0.13554333 0.18747184
000020 b1 60 ab bd 90 9f 53 be ed 06 14 3e d8 96 e8 3c
       -0.08368052 -0.20666337 0.14455767 0.02839224
000030 0b 2e bc 3d 8e f6 59 bd 8f 05 fd 3d ec 89 af bc
       0.091884695 -0.05321365 0.12354576 -0.021428071
000040 21 d5 4f 3d 25 a0 45 be 83 da cc 3d 0c 29 a2 3c
       0.050740365 -0.19299372 0.10002615 0.019794963
000050 af 4a 7d bd d3 b8 00 3e 25 11 e2 3d 8c b6 52 be
       -0.061838802 0.12570505 0.11038426 -0.20577449
000060 c4 ff e7 3d 39 85 26 3c 2b 9f 1e 3e cf be 42 be
       0.1132808 0.010163599 0.15490405 -0.190181
000070 84 81 99 3c 04 5e 12 3e 05 0b da 3d 09 dd 3e 3e
       0.018738516 0.14293677 0.10646633 0.18639006
000080 67 5d 8e bd 96 b7 06 3e 75 0b 68 3c c3 0e 46 be
       -0.06951409 0.1315597 0.014162888 -0.19341569
000090 17 18 8f bd 79 6a 4c 3e d6 61 5e bd 4f 11 0d 3e
       -0.06987017 0.19962491 -0.054292522 0.13776134
0000a0 d7 33 3a 3e 32 a3 37 3e e7 98 ab bd e4 c5 15 3d
       0.18183838 0.17933348 -0.08378773 0.036565676
0000b0 d6 30 3d be f7 30 dc 3d b9 88 d8 3d cf e7 d1 3c
       -0.1847566 0.10751527 0.10572953 0.02562323
0000c0 99 b4 8f bd e0 90 f6 3d fe 7c 45 3d e4 c3 f6 3d
       -0.07016868 0.120393515 0.048214905 0.12049082
0000d0 b7 6c 59 3d 49 fa 2f be 0e eb 21 be ab 55 50 3e
       0.053082194 -0.1718532 -0.15812322 0.2034518
0000e0 60 94 3b 3e 37 5e 4a bd fd de 47 be 97 42 43 be
       0.1831832 -0.049406257 -0.19518657 -0.19068371
0000f0 49 2d 53 bd 38 55 60 3e 2a c2 20 be c1 f3 fe bb
       -0.05155686 0.21907508 -0.15699068 -0.0077805226
000100 e7 3d 6d bd 29 c5 f1 bd a2 f2 0e 3d 96 78 a9 3d
       -0.057920363 -0.118051834 0.03489936 0.08274953
000110 f4 c0 3f 3e 37 fe b6 bd 59 12 06 be cb 42 04 3e
       0.1872595 -0.089352064 -0.13092937 0.12916104
000120 81 b4 b5 bd 94 63 38 3e 5c da 11 be c0 f2 5e 3e
       -0.08872319 0.18006736 -0.14243454 0.2177229
000130 8d 90 8b 3d 69 25 7c 3d 98 7d a2 3d 30 5c 22 3e
       0.0681468 0.061559115 0.07934111 0.15855479
000140 ca 05 43 be 25 3e 27 3e c2 59 4e bc 6d b5 05 be
       -0.19045177 0.163323 -0.012594642 -0.1305749
000150 6d c6 ee 3d a6 0e 2d be a2 a9 da bc f0 ee 91 3d
       0.116589405 -0.16900119 -0.026692215 0.07125652
000160 6e 87 2f 39 90 24 07 3e 24 29 48 3e c5 ce d5 3d
       0.00016739752 0.13197541 0.19546944 0.10439829
000170 0a f7 e2 3c 4c 6e 59 3d 57 9c 5b be 11 28 0f 3d
       0.027705688 0.053083703 -0.21446358 0.03495032
000180 f4 07 3d 3e dd 10 2f bb 52 59 21 3e 31 64 42 3e
       0.18460065 -0.0026712932 0.15756729 0.18983532
000190 5d 6a 52 be c8 db c4 3d 66 51 4f be 57 ea 57 3e
       -0.20548387 0.096122324 -0.20245895 0.21085487
0001a0 71 57 79 3c 0d 49 f0 3d 75 e6 e9 bc 87 bd d4 3c
       0.015218602 0.11732683 -0.028552273 0.02596928
0001b0 87 c6 49 be db e5 1c be c1 95 b0 bc 1c 41 39 bd
       -0.19704638 -0.15322058 -0.021555783 -0.04522811
0001c0 18 55 08 be ce 57 51 be bb 9a 36 3e 1e 2c c0 3c
       -0.1331371 -0.20443651 0.17832462 0.023458537
0001d0 1d d2 54 be 2d fa 07 be f0 58 44 3e 05 e5 3a bc
       -0.20783277 -0.13279028 0.19174552 -0.011407142
0001e0 51 46 12 3e 4c 48 3f bd ea 6b 10 3e 79 7e 56 bc
       0.14284636 -0.046699807 0.14103666 -0.013091677
0001f0 57 b1 37 be 67 c4 39 3e 25 92 aa bc 91 d1 1a be
       -0.17938744 0.18141328 -0.02082164 -0.15119006
000200 20 b1 4b be 2c 32 03 be 77 ab 43 be 3e 26 5a be
       -0.19891787 -0.12812108 -0.19108377 -0.2130365
000210 86 fb ae 3d f3 81 56 3e fd 76 5c 3d 01 fb df 3d
       0.08544068 0.20948009 0.053824414 0.10936547
000220 2c a3 c4 bd f5 48 9d 3d dd 3b f5 3d cc 51 4d 3e
       -0.09601435 0.07679931 0.11974309 0.20050734
000230 83 cc 3b 3e ab ce 3b 3e 43 39 00 3d ba 22 25 3e
       0.18339734 0.18340556 0.03130461 0.16126528
000240 95 eb 8e bd ba 48 03 be b5 27 b0 bd 8b 28 21 be
       -0.069785275 -0.12820712 -0.086013235 -0.15738122
000250 77 e0 19 be 05 0d 1e be 41 7a 96 3d 83 a0 d4 bd
       -0.15027033 -0.15434654 0.07347537 -0.10382178
000260 d0 61 15 be 77 ab 01 3c c7 c4 3b be 41 71 19 3e
       -0.14588094 0.007914416 -0.18336783 0.14984609
000270 1d 2c 4e 3d 43 62 43 be 3d e1 1d 3e 30 56 2f be
       0.05033504 -0.19080453 0.15417953 -0.17122722
000280 f6 24 21 3e 3e e6 33 bd e1 62 14 be ff 07 1f be
       0.15736756 -0.043920748 -0.14490844 -0.15530394
000290 24 b8 03 3e 20 c1 47 3e 5a 23 08 be 0e a0 39 be
       0.12863213 0.19507265 -0.13294736 -0.18127462
0002a0 07 8b 10 3c f7 5e 3c be b9 99 e7 3b dd af 36 be
       0.008822209 -0.18395601 0.0070678857 -0.17840524
0002b0 5f ff 0f 3e 32 3a 11 3d 20 d2 13 be 68 dc 95 3d
       0.1406226 0.03545589 -0.14435625 0.0731743
0002c0 11 91 41 be c0 62 37 3d 95 75 52 3e be 09 c7 bd
       -0.18902995 0.04477191 0.20552666 -0.09718655
0002d0 ab 28 10 3e b6 11 cd 3c 74 cf 92 3c 54 96 21 3e
       0.14078014 0.02503286 0.017921187 0.15780002
0002e0 d4 49 ba 3c 2e 11 03 be 3c 6e f6 bd 7f 1c 5f 3e
       0.022740282 -0.12799522 -0.12032744 0.21788214
0002f0 35 b2 2e 3e a2 84 0f 3e b3 1f 51 3d 0f cc 20 be
       0.17060168 0.14015439 0.05105562 -0.15702842
000300 31 f8 c1 3c 54 90 04 be 22 7c 57 3e 48 00 e4 3d
       0.023677917 -0.12945682 0.21043447 0.11132866
000310 59 0f 0d 3e bc 24 5f 3e d2 89 c8 3c a1 1d c1 bc
       0.13775386 0.21791357 0.02447978 -0.023573698
000320 c1 d6 04 be c7 2e a5 bd f6 e0 fe bd ee b1 f5 bd
       -0.12972547 -0.08065563 -0.12445252 -0.11996828
000330 b0 58 0e be c4 3b 1f 3e d0 dc bb 3d b7 58 fc 3c
       -0.13901019 0.15550143 0.09172976 0.030804021
000340 8f 23 40 3e dc 61 db 3d 18 4e 0c 3e 29 51 76 3d
       0.18763565 0.107120246 0.13701665 0.060135994
000350 b3 05 3b 3e 0d 8c 26 be c5 ff 56 be 38 78 24 3e
       0.18263893 -0.16264363 -0.20996006 0.16061485
000360 3f b4 3e 3e 0d 98 ba 3c 7d c3 66 bd ab 10 2b 3e
       0.18623446 0.022777582 -0.056338776 0.16705577
000370 9f 1e 3f 3e 10 0f ed bd ab 6b 1b be bc 2f cc 3d
       0.18664025 -0.115751386 -0.15177791 0.09970042
000380 2e 89 c2 3d e0 77 ae bd 6c bf ee bd 8e 57 8c bc
       0.09498821 -0.08518958 -0.116576046 -0.017131593
000390 6e 6e fe 3d 0b c0 9c bd ce 42 ae bc 74 e6 b8 3c
       0.124234065 -0.07653817 -0.02127209 0.022570826
0003a0 b9 c8 15 be 87 f3 99 3d 6a 78 c7 3d 39 3c 49 be
       -0.14627351 0.07517152 0.09739764 -0.1965188
0003b0 35 79 57 be d0 56 30 be ae 34 05 3e b9 50 fa bc
       -0.2104233 -0.17220616 0.13008377 -0.03055607
0003c0 5c c3 28 bd b5 24 b2 3a a2 ce 57 3d 10 7a 83 3d
       -0.041201934 0.0013591262 0.052687295 0.06419766
0003d0 e3 99 09 be 4d 6b 58 be 23 c8 95 3d 77 33 3f be
       -0.1343761 -0.21134682 0.07313564 -0.18671976
0003e0 a2 47 d2 bd 98 8d 1d be 62 f5 1b be c3 86 86 bd
       -0.10267569 -0.15386045 -0.15230325 -0.065686725
0003f0 f3 7d 08 bd 51 a6 3e be f4 b8 95 3d e7 00 e7 bd
       -0.03332324 -0.18618132 0.07310668 -0.11279469

dynamic_encoder.conv.bias f4 [128]
000000 88 06 d5 3e c8 88 9a 3e c3 58 2b 3f 01 42 f0 3d
       0.41606545 0.3018248 0.66932315 0.11731339
000010 3b 57 19 be 8b 65 82 3e 34 1e dd 3e ff a4 ea be
       -0.14974682 0.25468096 0.43187106 -0.45829007
000020 07 b5 52 3d 4e 2e 23 be 0c 0a 78 be 1f 3e b3 bd
       0.051442172 -0.15935633 -0.24222583 -0.08752083
000030 56 3c 2a 3f 02 70 80 3e 89 ab 34 3e 42 e3 05 3e
       0.66498315 0.25085455 0.1764356 0.13074973
000040 51 59 22 3f b0 d7 50 3e 73 ca 08 be 55 56 ae bd
       0.63417536 0.20394778 -0.13358478 -0.0851256
000050 4c 66 2f 3e e2 5a 68 3e 57 23 f5 3e 65 43 a8 3d
       0.17128867 0.22690919 0.47878525 0.082159795
000060 45 5c 9e be 1d f6 18 3f 1a ac 60 be b9 4f 59 3e
       -0.3092977 0.5975054 -0.21940652 0.21221818
000070 64 b7 26 3f 86 75 b4 be f0 b3 91 3e 41 75 00 3f
       0.6512358 -0.35245913 0.28457594 0.50178915
000080 ae f8 07 3f b5 4f 0d 3e 25 2b dc be a8 45 d6 be
       0.5311383 0.13799937 -0.43001667 -0.41850019
000090 3d b3 c7 be 97 8d 95 be e6 e4 ca bd 3f e6 09 bf
       -0.39003935 -0.29209587 -0.0990694 -0.5386695
0000a0 a2 4c 03 3f e3 20 a1 3e 4b 67 14 3f e4 27 f3 bd
       0.5128881 0.31470403 0.5797011 -0.11872843
0000b0 2a 0c 32 be 43 1f 4a be 8e 61 c8 be e6 e6 09 3e
       -0.17387453 -0.19738488 -0.39136928 0.13466987
0000c0 a6 e9 19 3f bf 23 cf bd 01 a9 b6 bd d7 1a 9e 3e
       0.60122144 -0.1011424 -0.08918954 0.30879852
0000d0 5d a3 7c 3e 8a e5 e4 3e 2c fe 9a be 6c 54 e5 3e
       0.24671693 0.44706374 -0.30272043 0.4479097
0000e0 57 3c 1c 3f 0c 5a 26 bf 89 3f 8b be 4e f5 8e 3e
       0.6102957 -0.6498115 -0.2719691 0.27921528
0000f0 b0 d8 e7 3e 0a f1 b5 3e a4 6f 71 be 81 b7 15 3e
       0.45282507 0.3553546 -0.23577744 0.14620782
000100 53 89 c7 be a9 35 2b bd 13 86 16 bf e0 52 15 bf
       -0.38971958 -0.04179922 -0.5879833 -0.5832958
000110 3f 34 a4 3e 0c 87 d0 3e 22 e3 31 3f 12 46 80 be
       0.3207111 0.40728033 0.694872 -0.2505346
000120 ca e2 1d 3f ae 5c e7 be 0d 6c 93 3d 15 81 28 3f
       0.6167418 -0.45187896 0.071983434 0.65821964
000130 8c 78 fa 3e 71 b2 ae 3e c2 09 47 be 7c e6 8d be
       0.48920095 0.34120515 -0.19437316 -0.27714908
000140 ad f9 30 bd 7a 38 b3 3e b9 1c a3 bd 8f a1 2a bf
       -0.04320686 0.35004026 -0.07964463 -0.6665277
000150 5e 23 b6 be 68 8f d5 3e e0 0d 00 be 99 ac 7c be
       -0.35573858 0.41710973 -0.12505293 -0.24675216
000160 a9 21 c7 3d ad d5 2a bf 35 56 33 bd 8f 05 8e bd
       0.09723217 -0.66732293 -0.043783385 -0.06934654
000170 81 22 56 be b0 82 2b 3f 29 d3 35 be 72 a7 07 bd
       -0.209116 0.6699629 -0.17756332 -0.033118673
000180 e7 01 c8 be 0c 2c 0d bf 57 1d 01 3f e6 b8 27 bf
       -0.3906395 -0.55145335 0.50435394 -0.6551651
000190 3b 1d 2c bf db 2d 7c 3d 62 ba 20 bf 64 36 0a 3f
       -0.672321 0.06156717 -0.627844 0.53989244
0001a0 54 29 91 3e 3f 38 08 bf 95 f7 c7 bd 1b 7c df 3e
       0.28351843 -0.53210825 -0.097640194 0.43649372
0001b0 67 9b c2 3e 8f 69 a4 3e 6e b7 bf be 48 57 71 be
       0.38009188 0.32111785 -0.37444633 -0.23568451
0001c0 ac 3d 6e 3e d5 e0 1a 3e 95 69 e3 be fd 66 6c bd
       0.23265713 0.15124829 -0.4441649 -0.057715405
0001d0 c4 54 82 be aa 9a 0e 3e 85 05 8a be c1 7a 19 be
       -0.25455296 0.13926187 -0.26957336 -0.14988233
0001e0 7b 96 83 3d 7c c8 b0 be 1e 1e 06 3f 6f cf 09 bf
       0.06425186 -0.34527957 0.52389705 -0.53832144
0001f0 e0 e9 11 3f 8c 7a ad 3e 39 63 aa be 71 30 ce be
       0.5699749 0.33882558 -0.33278826 -0.40271333

decoder.conv.weight f4 [128, 2, 1]
000000 de 66 2a be 42 81 e4 bd 29 99 08 3e aa e4 4c bd
       -0.16640803 -0.111574665 0.13339676 -0.05002276
000010 7c f5 9e 3d 42 ad 96 bd 55 af 0b be fe 5a 33 bc
       0.07761666 -0.07357265 -0.13641103 -0.010946987
000020 c7 65 46 3e db 7b 4d 3e f9 14 01 be 96 87 c6 bd
       0.19374762 0.20066778 -0.12605657 -0.0969383
000030 05 08 11 3e b0 4b f5 3c 01 46 df 3b ed a1 53 3e
       0.14163215 0.029943317 0.006813765 0.20667239
000040 19 f4 a9 3d d9 4f 43 3e b7 04 3a be 9b 3f 0d 3e
       0.08298511 0.19073428 -0.18165861 0.13793795
000050 bc 86 52 3e 48 f5 40 3e 45 a1 54 3d c0 cc 50 3e
       0.2055921 0.18843567 0.05191161 0.20390606
000060 62 5f 7a bd f5 e9 b4 3c ab a5 13 bb 25 68 e4 bc
       -0.06112612 0.022084216 -0.0022529166 -0.027881691
000070 31 4c 38 3e c2 ef c5 bd 47 b9 33 be 06 0c 00 be
       0.17997815 -0.09664871 -0.17551146 -0.12504587
000080 0a 39 cd bc 66 0e f5 3d 7a d5 e4 3d 77 dc 31 be
       -0.025051612 0.11965637 0.1117353 -0.17369257
000090 27 31 4b bd 92 e5 29 3e be dd 44 3e 6d a8 ba 3c
       -0.049607422 0.1659148 0.19225213 0.02278539
0000a0 98 4e 32 3e 8f e8 19 be 0d 36 10 be 9d 81 0c 3e
       0.17412794 -0.1503012 -0.14083119 0.13721319
0000b0 d5 f8 09 be 3e 56 41 be 96 dd d1 3c 8e 74 f6 3d
       -0.13473828 -0.18880555 0.025618356 0.1203395
0000c0 26 ba c3 3d 7d 8b 1c be 26 cf 4a be d6 f3 25 be
       0.09556989 -0.15287586 -0.19805583 -0.16206297
0000d0 d4 a3 10 bd 5c e6 0e 3d 8a 9b c8 3d 84 1a fa 3d
       -0.03531249 0.034887657 0.09795292 0.12212089
0000e0 43 de 9a bd 67 3f 84 bd d3 50 14 3e e8 b9 ad bc
       -0.07561924 -0.064574055 0.14483957 -0.021206811
0000f0 b8 63 d8 bd 9c 13 75 3d d3 fd 0a be 79 a5 1e be
       -0.10565895 0.059833154 -0.13573389 -0.1549281
000100 0b bb 41 be 7b ee 56 3e 16 3b c9 3c 6d bb 91 3d
       -0.18919007 0.2098941 0.024564307 0.07115827
000110 f3 d6 23 3b 32 d8 81 3b be ed b5 3c d8 20 3f be
       0.0024999946 0.00396254 0.02220809 -0.18664873
000120 4c 10 b2 3c 17 63 47 3e c1 d4 be 3d 51 20 16 be
       0.021736287 0.19471394 0.09317923 -0.14660765
000130 6e d8 31 3e 3a d2 06 3e 76 bf b7 3d 0f 1a de 3d
       0.17367718 0.13166133 0.08972065 0.10844814
000140 46 09 26 3e 27 18 f6 3d 9f a0 6d bd f1 d1 bb 3d
       0.16214475 0.120163254 -0.05801451 0.091709025
000150 fa f4 0d 3d ad c0 37 3d 33 17 19 bd 9e 68 5a 3d
       0.034657456 0.044861484 -0.03737564 0.053322427
000160 37 c3 95 3d bf a8 b2 bd 33 f8 90 bd e9 b0 26 be
       0.07312625 -0.08723592 -0.0707859 -0.16278423
000170 95 c4 ec 3c 2d 0a 09 be 1a b6 9e 3d 83 7e 1b 3e
       0.028902331 -0.13382788 0.07749577 0.15184979
000180 6e eb 92 bd 21 97 5a 3e f8 f1 17 3e 76 3c 71 3c
       -0.07173811 0.21346714 0.14838398 0.014723888
000190 a7 15 58 3e b1 19 35 3e 96 45 65 3d 73 65 d8 3c
       0.2110201 0.17685582 0.055974565 0.026415562
0001a0 41 82 70 3d 1d 1c f8 bd 68 77 1c 3e 77 86 28 3e
       0.05871797 -0.12114737 0.15279925 0.16457544
0001b0 b5 db ab bb a2 6f 59 3c 47 37 39 be 6b 41 65 3c
       -0.005244697 0.013271244 -0.18087493 0.013992648
0001c0 c7 8a c5 bd 2c ec 1c bd 90 3c a6 3d 64 de 0d 3e
       -0.0964561 -0.03831117 0.0811702 0.13854367
0001d0 95 64 10 3e 03 46 e5 3d 39 08 c4 3d 19 26 57 be
       0.14100869 0.11194994 0.09571881 -0.21010627
0001e0 37 3f 49 3c ac bf 15 3e ab 5a 2b 3e 8e b4 82 3d
       0.012283138 0.14623898 0.16733806 0.06382094
0001f0 49 4c 55 be 9b fc 3c 3e 3f a9 0e be d5 d5 5b be
       -0.20829882 0.18455736 -0.1393175 -0.21468289
000200 99 03 20 bc b6 d4 bc 3c d2 47 53 be c9 a1 38 bd
       -0.009766483 0.023050647 -0.20632866 -0.045076165
000210 a2 a4 41 be 22 72 2c 3e b2 58 97 3d 11 cb 36 3e
       -0.18910459 0.16840413 0.07389964 0.17850901
000220 56 f4 f5 bd 18 93 3a 3d 05 2f ca ba 57 9c 31 3e
       -0.12009494 0.045550436 -0.001542539 0.17344795
000230 27 36 fc bd 06 e4 d8 bb 9a 08 e4 3d a8 d9 28 3e
       -0.12315016 -0.0066189794 0.11134453 0.1648928
000240 47 97 29 be e5 37 a9 bc d4 74 3c 3d a5 aa c6 bd
       -0.16561614 -0.020656535 0.046009853 -0.097005166
000250 8d ba 48 be f2 b3 c3 bc 36 a0 03 be 28 5b 3c 3e
       -0.19602413 -0.023889516 -0.12854084 0.18394148
000260 03 6b c4 bb b2 9a f9 3d 80 30 22 3d c2 65 db bd
       -0.005994202 0.12187709 0.039597034 -0.10712768
000270 09 f4 08 3e 5c 21 61 3c 08 ec 67 bd 75 c7 62 3d
       0.13374342 0.013740864 -0.05662158 0.055366
000280 56 e4 f3 3d 2d 63 27 bd eb 31 9f 3d 59 c3 28 be
       0.11908786 -0.040866066 0.07773193 -0.16480769
000290 04 51 b2 3b 5a 2f f8 3c c6 f4 39 3e f5 42 39 3e
       0.0054417867 0.030296016 0.1815978 0.18091948
0002a0 97 03 c9 bd 83 f9 17 3e 37 2c 33 bd 64 97 fc 3d
       -0.09815138 0.14841275 -0.04374334 0.12333563
0002b0 e6 aa 1f 3e 78 9f d9 bb c5 e6 e3 3d 32 5c 21 3e
       0.15592536 -0.0066413246 0.11128 0.15757826
0002c0 ff a7 16 3e 77 9a a2 3a b2 7b 43 be 83 cd c1 bd
       0.14712523 0.0012405653 -0.19090155 -0.094630264
0002d0 f6 b6 43 be d8 4a 0c be 1e 16 9f bd f7 04 d7 3d
       -0.19112763 -0.13700426 -0.077678904 0.10498994
0002e0 c9 74 bf 3c 2f f4 0b bb b3 cb ce 3d c0 17 1e 3e
       0.023371117 -0.0021355262 0.10097446 0.15438747
0002f0 5a a1 1b be ce a0 ee 3d 39 ae 58 be 0a 2a 0b be
       -0.1519827 0.11651765 -0.2116021 -0.13590255
000300 a9 ac b3 bd ea 14 cf 3d ca a8 8d 3b 59 a8 1f be
       -0.08773167 0.10111411 0.0043230997 -0.15591563
000310 32 49 e9 bc 65 56 3b 3e e0 74 34 3e eb 90 07 3e
       -0.028477285 0.18294676 0.1762271 0.13238876
000320 0b 94 38 be d8 bc 5f 3d 1e 7a 04 bc 35 9a 9f 3d
       -0.18025224 0.054623455 -0.008085756 0.077930845
000330 a1 7c dd bd d5 78 50 3d b5 57 0b 3c 50 19 14 bd
       -0.10814787 0.050896484 0.008504798 -0.036156952
000340 67 10 af 3c 32 1d c2 3d 57 f2 9d bc 20 67 3c 3d
       0.021370126 0.09478225 -0.019280596 0.045996785
000350 15 1e 07 be df bd 8f 3d bd fc 88 bc 61 ea 29 3e
       -0.13195069 0.07018637 -0.016722078 0.16593315
000360 9c a3 f1 bd 26 fd 95 3d 3a 98 38 3e c8 e0 14 3d
       -0.11798784 0.07323675 0.1802682 0.03634718
000370 d3 71 35 be 61 c6 88 3c da e4 19 3e 07 f0 0b 3e
       -0.17719202 0.016696157 0.15028706 0.13665782
000380 51 8d 87 3c f0 fa 2d 3d 0c 35 47 3e 52 69 db bd
       0.016546877 0.04247564 0.1945383 -0.10713448
000390 40 ae b3 bc d1 2b 45 be f2 92 97 bd eb 09 09 3d
       -0.021933675 -0.19254996 -0.074010745 0.033456724
0003a0 a4 ec e0 3d 76 07 29 bd 2b 0f 34 be 54 56 4a be
       0.109826356 -0.04126688 -0.17583911 -0.19759494
0003b0 b6 2e 16 3e 26 ca d2 bd 8b 1d f4 3d 80 ee 41 be
       0.14666256 -0.10292463 0.119196974 -0.18938637
0003c0 86 38 1e 3e a3 13 2b bd 52 d6 36 3e d4 5d 55 bd
       0.1545125 -0.041766774 0.17855194 -0.052091435
0003d0 9a 8e 28 3e a0 8b a4 bd ca 57 b7 bd 18 54 30 3d
       0.16460648 -0.08034444 -0.08952291 0.043048948
0003e0 c2 25 f0 3d 47 55 2f 3e 21 99 4e bd 85 4c 30 3e
       0.11725952 0.17122374 -0.050439004 0.1721669
0003f0 04 3e e6 bd 27 24 16 be 24 2e ab 3d fb f8 55 3e
       -0.11242297 -0.14662229 0.0835841 0.2089576

decoder.conv.bias f4 [128]
000000 0a e1 2e be 48 83 88 3d 0e 2a 0c 3f e8 6a fe bd
       -0.17078033 0.06665665 0.5475167 -0.124227345
000010 43 a7 ac be 88 a9 09 3e e3 e1 84 be 43 76 80 3d
       -0.3372136 0.13443577 -0.25953588 0.06272557
000020 7a ec 1d 3e 49 52 d4 3e 55 11 06 bf 4e ee 23 3f
       0.1542224 0.4146903 -0.52370197 0.640355
000030 d1 ef f9 be d2 31 c7 3d e6 cc 94 3e 70 47 0e bf
       -0.48815778 0.09726299 0.29062575 -0.55577755
000040 b9 7f 74 3e a0 bf 34 3f 95 6b 9f be f9 84 8f be
       0.23876847 0.70604897 -0.31136766 -0.28031138
000050 6b 21 30 bf 1b d2 76 be b8 d3 d5 3e 91 a6 05 3e
       -0.6880099 -0.24103586 0.4176309 0.13051821
000060 f1 45 25 3f 6d 2d cf be 63 2f 1f bf eb 81 60 be
       0.6455985 -0.40464345 -0.6218168 -0.2192456
000070 0a f8 8a be a4 a2 90 3e df 4f 1c 3f 09 1b 91 bc
       -0.27142364 0.28249085 0.61059374 -0.017713087
000080 f9 a1 46 be 1d dd 87 3e df 7e e1 3d 9d 64 04 3f
       -0.19397725 0.26535884 0.11010527 0.51716024
000090 e1 de e9 be 4f ab 1e 3f 6a e8 70 3e d9 93 8b 3e
       -0.45677856 0.61980146 0.23526159 0.27261236
0000a0 3a 61 c4 3d 1f 95 e7 3e 50 5d 0d be a9 6d f5 be
       0.09588857 0.45230958 -0.13805127 -0.47935227
0000b0 74 75 2b bd ec 4b 05 3f 9d 57 86 be d0 e8 f3 bd
       -0.04186006 0.5206897 -0.2623872 -0.1190964
0000c0 8b fb 25 3e ca c5 11 3f 0d 3f 3f be 73 17 59 3e
       0.16209237 0.5694243 -0.18676396 0.21200351
0000d0 ed 4f d6 3e 03 6d f7 bb 86 87 f2 be 4e 9b 32 bf
       0.41857854 -0.007550837 -0.4736902 -0.69768226
0000e0 c2 03 0f be 05 76 66 3c 24 02 ec 3e fd 0b 85 be
       -0.13966277 0.014066224 0.46095383 -0.2598571
0000f0 21 46 0f bf 1a a9 98 be 1c a2 f5 3e 4c cb 6f be
       -0.55966383 -0.29816514 0.47975242 -0.23417395
000100 53 21 85 3e 1e 05 01 3f 6c f7 14 bf 1c 42 1c 3f
       0.26001987 0.50398433 -0.58190036 0.61038375
000110 aa 54 2b bf fd 20 17 3f 91 6b ff bd 92 11 b7 be
       -0.6692606 0.5903471 -0.124716885 -0.35755593
000120 22 a7 13 bf 3b 81 e7 be 44 dd d9 3e 4b 44 e1 3e
       -0.576769 -0.45215783 0.42551625 0.43997416
000130 9e 2c c5 3d 53 ec a6 3d bc 35 9c bd dd dd 21 3f
       0.09627651 0.08150544 -0.076274365 0.6322916
000140 71 cd 0f bf 42 ee 8c 3e c5 eb c8 be e1 ee 38 be
       -0.56172854 0.27525526 -0.39242378 -0.18059875
000150 81 9b b1 3e d5 52 ec be 54 09 f7 3e 17 1c 7a be
       0.34688953 -0.46156946 0.48249304 -0.24424778
000160 57 5a e4 be e9 f9 0a 3f 18 94 0d be 15 21 7a 3e
       -0.44600174 0.5428758 -0.13826025 0.24426682
000170 38 82 fa 3e ee 29 8e 3c ce 4e 14 bf 63 34 09 3e
       0.48927474 0.017353978 -0.57932746 0.1339889
000180 81 78 a3 be 93 67 21 3f 25 99 08 bf 7b dc 79 bd
       -0.31927875 0.63048667 -0.5335868 -0.061001282
000190 e6 a6 e0 3d b6 bf 25 3f e9 19 f5 3e ea 7f d3 3e
       0.10969333 0.6474565 0.4787133 0.41308528
0001a0 e3 08 19 bf 8e e6 c9 be 51 cf a3 3e 65 ae a9 3e
       -0.59779185 -0.39433712 0.31994107 0.33140865
0001b0 91 0b fb bc 7d a0 2b 3f 41 63 38 be a4 85 b0 bd
       -0.030645164 0.6704176 -0.18006612 -0.0861924
0001c0 c2 9a 14 3f 0f 8e 2f 3f 61 5b 8d 3e bb b7 fe bd
       0.5804864 0.6857614 0.2760878 -0.124373876
0001d0 27 80 20 3e 45 7c 1d bf 24 1b 05 3c 15 da 89 3e
       0.15673886 -0.61517745 0.008124147 0.26924196
0001e0 9c f5 64 3e 06 e2 f7 3e 49 6f 0b bf 80 54 1d 3f
       0.22359318 0.4841463 -0.5446668 0.6145706
0001f0 31 4f f7 be f2 52 35 3d 61 b3 ef be 89 cc 79 be
       -0.48302606 0.044268556 -0.46816543 -0.2439443

pointer.v f4 [1, 1, 128]
000000 84 4d f7 bd 9a 39 0d 3e 88 66 b0 bd aa 48 d6 bd
       -0.12075332 0.13791505 -0.08613306 -0.10463078
000010 78 f2 11 be d3 cd 0c 3e f0 2c 8b 3c e7 eb 86 3d
       -0.1425265 0.1375039 0.016989201 0.065879636
000020 4a 70 ac 3d 7a c9 88 3d 52 44 52 3d be f5 11 3d
       0.08419855 0.066790536 0.051334687 0.03563475
000030 84 0a 0f 3d 59 14 18 be 1d c8 99 3d c0 f2 9e bd
       0.034922138 -0.14851512 0.07508872 -0.07761145
000040 87 30 af bd 4b 2f 3d 3c 1b d4 fa 3d 74 7f 7e bd
       -0.08554178 0.01154692 0.12247487 -0.062133268
000050 63 ec 6a bd bb 6f e5 bb 77 ee 84 3c f7 df 75 bc
       -0.057354342 -0.0070018447 0.01622699 -0.015007011
000060 de 3f 8f bd f5 74 08 bd 35 12 a8 bd ab 34 ee 3d
       -0.069946036 -0.033314664 -0.08206598 0.11631139
000070 ef a8 f0 3d 88 24 c8 3d 37 4d 82 bd 49 23 f4 bd
       0.117509715 0.09772593 -0.06362384 -0.119207926
000080 b0 07 4e bd bd dd 9e 3c 4a 03 d9 bd fb 6b a5 3c
       -0.0503003 0.019392842 -0.105963305 0.02019309
000090 d4 8a eb 3d d8 1c e0 bd 64 64 d7 3d 1c 65 8a b9
       0.11501089 -0.109430015 0.10517195 -0.00026396743
0000a0 94 de f6 3c f8 26 d4 3c e1 68 e9 3c 89 5f a5 3c
       0.03013543 0.025897488 0.028492393 0.020187156
0000b0 77 25 3a 3d 6b 2a 96 bd fa cd 93 3d bc 25 56 3d
       0.045445886 -0.07332309 0.07217021 0.05228208
0000c0 18 80 dd 3b 6c 77 c8 bd 6c 03 04 be 59 0a 19 be
       0.0067596547 -0.09788403 -0.1289193 -0.14945354
0000d0 f0 52 e1 bd 67 5c 19 bc f2 c1 be bd 2a 48 0b be
       -0.11002147 -0.009360409 -0.09314336 -0.13601747
0000e0 48 e4 d5 bc 19 e7 49 ba cf 95 10 3e ac 3f ba 3d
       -0.02610983 -0.0007701978 0.14119647 0.09094176
0000f0 4e 15 f5 bd d1 4e 78 bd c3 9b d8 3d d0 46 35 3c
       -0.11966954 -0.06062204 0.10576584 0.011064246
000100 12 a8 67 bd 80 f2 5b bb 49 8f 5f 3d e6 44 de bd
       -0.05655677 -0.003356129 0.054580007 -0.10852985
000110 a8 7e 0f be 6b 60 fb 3c 40 ee 9f 3d 2f 6d 54 3d
       -0.1401316 0.030685624 0.078091145 0.051861938
000120 89 25 98 3d 95 8e 18 bd ab 2b 0f be 3d 98 02 bb
       0.07429034 -0.03724535 -0.13981502 -0.0019927167
000130 6d f5 72 3d bf 03 9f bd 3a dd 1a be 07 2b 52 bc
       0.059316088 -0.077643864 -0.15123454 -0.012827641
000140 b6 97 13 3c d3 3a ca bd 99 d1 e4 bd 29 10 81 3d
       0.009008339 -0.09874501 -0.1117279 0.063019104
000150 46 3c 14 be e1 13 d7 3d d6 de 64 bc af ad 00 bd
       -0.14476117 0.105018385 -0.013969144 -0.031415638
000160 75 22 b7 3d dc 67 c9 3d c2 e8 c6 bd 6c 44 35 bd
       0.08942119 0.09834263 -0.09712364 -0.044254705
000170 1e 1c 82 bd cf e3 bc bd 4a 40 08 3d 13 0a 02 be
       -0.06353019 -0.092231385 0.033264436 -0.12699156
000180 93 9b f5 3d 76 70 5a bd 0d c5 d0 bd 16 a0 52 ba
       0.11992564 -0.053329907 -0.101938345 -0.0008034719
000190 8b 90 ad bd a9 3b 6b bb dc 6d b1 3d 58 4c 5e bd
       -0.08474835 -0.0035893715 0.08663532 -0.054272026
0001a0 05 15 1c be 3a be 15 be bd 55 53 3d 45 69 8a b9
       -0.15242393 -0.14623347 0.05159544 -0.00026399843
0001b0 02 71 fb 3d 73 c5 a8 3d 83 86 ca 3d a1 67 e2 3d
       0.12277414 0.082407854 0.09888937 0.11054922
0001c0 a0 7c 99 3d e3 02 9f 3c bb 9f 47 3d f9 1c 1a 3e
       0.074944735 0.019410556 0.048736315 0.15050115
0001d0 d0 6c bc bd d6 43 ce bd 50 d4 05 be 01 99 70 bd
       -0.09200442 -0.100715324 -0.13069272 -0.058739666
0001e0 30 ba c9 bd 2d 34 14 be 9d 68 78 bc c0 16 1a 3b
       -0.098499656 -0.14473028 -0.0151616605 0.0023512095
0001f0 61 68 24 bd ff ae aa 3d f5 75 b3 bd a4 1a e0 bd
       -0.040138606 0.08334159 -0.08762733 -0.10942581

pointer.W f4 [1, 128, 256]
000000 f9 de 9a ba 79 16 1a bc 7e 35 1b bc 6b 97 0f bc
       -0.0011815719 -0.009404772 -0.009473203 -0.008764128
000010 9f 06 57 3b 18 ba 2e 3b 30 bc 93 ba f6 4b b9 39
       0.0032810343 0.0026661213 -0.0011271294 0.00035342545
000020 3b 85 99 3b 66 c2 41 bc 87 12 60 bc 24 e1 25 3c
       0.0046850718 -0.011826133 -0.013676292 0.0101244785
000030 bb fa 3e 3c 86 cc 9a bb 0a f6 87 3a 4d 02 e2 3b
       0.0116564585 -0.004724088 0.0010373008 0.006897247
000040 b2 fc da bb ff 03 30 bc d8 54 0a bc c9 71 07 bc
       -0.0066829557 -0.01074314 -0.00844308 -0.008266875
000050 4c fb 50 3c 4d 8f 27 ba b7 f0 5b 3a 82 51 31 3c
       0.012755226 -0.0006391898 0.00083900563 0.010822656
000060 14 03 77 3c 38 a0 22 3c 7c 26 54 3a e0 2a 3b bc
       0.0150764175 0.009925894 0.0008092893 -0.011423796
000070 80 ab 68 bc 1a 7a ed 3a e3 c4 23 3c 74 0c 0d bc
       -0.014201045 0.0018118054 0.009995672 -0.008608926
000080 6d 9a 2b bc 5a fa f4 bb 10 6b d8 bb 03 b3 32 3c
       -0.01047383 -0.0074761333 -0.0066045597 0.0109069375
000090 f6 30 71 3b 77 59 27 3c d3 3f 16 3c 3a 55 37 3c
       0.0036802865 0.010214201 0.00917049 0.011189753
0000a0 47 1e d0 3a 5e 92 1c 3a bd f2 3b bc 09 21 c0 bb
       0.0015878164 0.0005972738 -0.011471448 -0.005863313
0000b0 0f 7e 41 bb 83 ec 23 3c 1c 3c cb ba 11 8a 03 3c
       -0.00295246 0.010005119 -0.0015505585 0.008028523
0000c0 a5 14 b6 bb ab e9 f1 bb 41 17 2e 3c f0 a5 c8 3b
       -0.0055566602 -0.0073825917 0.010625661 0.006123297
0000d0 a6 26 62 bb a1 ac 03 bc b2 68 0a 3c ff db 5c bc
       -0.00345079 -0.008036763 0.008447813 -0.0134801855
0000e0 1f 47 a5 3b 6b a1 ba 3b d7 65 00 bb 42 82 0f bc
       0.0050438787 0.005695512 -0.0019591951 -0.008759083
0000f0 3f fd 6c 3c 27 13 36 3c 24 fa 35 3b 7d ed 93 3b
       0.014464675 0.011112965 0.0027767504 0.004514395
000100 13 f5 0e 3c 87 a8 a0 bb 31 40 00 3c f4 8a 5d 3a
       0.008725422 -0.0049029025 0.007827804 0.00084511866
000110 d6 10 38 bc 0a c6 16 bc d5 72 4a bc 0a 6d 1c bc
       -0.011234483 -0.00920249 -0.01235648 -0.009547481
000120 5f e1 04 bb 78 74 5e 3c b5 7d 91 3b f3 6c e8 37
       -0.0020275933 0.013577573 0.0044400343 2.7707289e-05
000130 ef f7 3d 39 0e da 77 3b 8c d1 cd bb d8 9f 3e bc
       0.00018116807 0.003781918 -0.0062810834 -0.011634789
000140 08 89 63 3b fa e5 45 bb 06 89 33 bc 7c 6a 24 bc
       0.0034719128 -0.0030196891 -0.010957962 -0.0100351535
000150 0f 2d a0 3b 21 4e 68 bb 23 5a 8d 3b 38 ea e1 3a
       0.004888184 -0.003544696 0.0043137236 0.001723594
000160 bd ba 04 bb 38 69 3e 3c 98 85 db ba 02 43 12 bc
       -0.0020252906 0.011621766 -0.0016748188 -0.008927109
000170 64 9b 40 3b d1 b3 cc bb 36 73 0e 3c 4c 72 93 39
       0.0029389495 -0.0062470217 0.008694461 0.00028123183
000180 ca 53 90 3b fa 5e 05 bc 71 ad 27 3c c8 ec be ba
       0.0044045197 -0.00814032 0.010234223 -0.0014566416
000190 ed 13 9c 39 4a d8 9f bb 0f ab 6b 3b 94 0b d4 bb
       0.00029769485 -0.0048780786 0.0035960113 -0.006471107
0001a0 e7 0f 07 3a 63 11 3f bc 90 10 72 bc 93 96 3f bc
       0.0005152211 -0.01166186 -0.014774457 -0.011693615
0001b0 07 64 2b 3c e3 cd 34 bc b1 c9 3a 3c 58 8e 66 3b
       0.01046086 -0.011035415 0.011400626 0.0035180058
0001c0 78 fd fe 3b 93 f5 34 bc 97 39 31 3c 06 f4 09 bc
       0.0077816807 -0.011044878 0.010816953 -0.008419996
0001d0 e3 d0 5e 3c 52 69 12 3b fc a7 14 3c 95 e9 13 3c
       0.013599607 0.0022340608 0.009073254 0.009027858
0001e0 06 02 64 3c 8c 85 47 bc fe 81 0f bc d5 f2 08 3c
       0.013916498 -0.012177836 -0.00875902 0.008358677
0001f0 c9 00 1c bc ff db b9 3a 91 f3 4d bb 45 a4 90 3b
       -0.009521672 0.0014179944 -0.0031425694 0.0044141137
000200 1f f5 02 bc e5 bd df 3b 11 41 11 3c c7 94 bd bb
       -0.007993012 0.006828057 0.008865611 -0.005785558
000210 17 87 0f 3c 38 0c 0a bc d1 c2 57 3a d3 40 1a 3c
       0.008760235 -0.008425765 0.0008230629 0.009414869
000220 9f c1 5b bc 85 e5 3e bc ec 79 3f ba 42 f2 59 3b
       -0.013412862 -0.011651401 -0.00073042396 0.003325597
000230 2a 49 3f bc 5c 3e 83 3b 25 79 0d 3c 4e a7 be bb
       -0.0116751585 0.0040052366 0.00863484 -0.005818284
000240 86 a0 57 3b ba 7a a2 bb de e6 2d 3b 3d 1e 06 bc
       0.0032902076 -0.004958478 0.0026535313 -0.00818592
000250 50 20 6a 3c 6b 1d 2f 3c 3b 74 55 3c ff 4b 84 bb
       0.01428993 0.010688166 0.0130282 -0.0040373798
000260 36 cd 62 bc bf 46 c1 bb a8 95 3e bc 96 c7 34 bc
       -0.013842871 -0.005898326 -0.0116323605 -0.011033913
000270 1c 1b ab b8 4b 62 d4 3b b0 e3 62 bc 2d 6e 2d 3b
       -8.158965e-05 0.006481444 -0.01384823 0.0026463375
000280 e1 6b 6b bc 37 ed 81 bc 39 eb 16 3b d3 a1 37 bc
       -0.014368982 -0.015860183 0.0023028387 -0.0112080155
000290 95 c8 19 bc 36 aa c5 bb d2 1c 88 3b 11 6f 9d 3b
       -0.009386201 -0.0060322536 0.0041538263 0.0048045
0002a0 fc c9 73 bb 24 83 79 3c b6 3c 1e 3c 64 d5 6b ba
       -0.003719925 0.01522902 0.009658029 -0.0008996336
0002b0 6f db 9f ba b4 53 b6 bb 89 aa 21 3c 69 1c 5b bc
       -0.0012196134 -0.0055641774 0.009867319 -0.013373473
0002c0 3a d3 a7 bb 06 64 e3 3b 51 b8 86 bb 5c 94 d1 3a
       -0.0051216157 0.006939414 -0.0041113277 0.0015989649
0002d0 5b b6 ee 3b dd 49 00 3b 7f a3 1e bc 70 10 b3 bb
       0.007284922 0.0019575276 -0.009682535 -0.005464606
0002e0 7c dd 22 3c 8b e6 11 3c f5 46 7f bc 5b ee 52 bc
       0.009940501 0.008905063 -0.015580882 -0.012874211
0002f0 8f 23 8d 3a ba db 8f 3b 74 52 66 3a 95 2b 05 ba
       0.0010768044 0.004390207 0.000878609 -0.00050800416
000300 26 14 89 3b 70 68 8a 3b 88 11 6d bc da a9 7b 3a
       0.00418331 0.0042238757 -0.014469512 0.00096002
000310 24 db 21 3c ea e0 06 3b 2b 47 63 3c 0d 11 1e 3c
       0.009878907 0.0020580837 0.013871948 0.00964762
000320 fc 23 f4 3b 8d cc b3 3b 69 4d 74 bb 28 81 20 bc
       0.0074505787 0.005487031 -0.0037277585 -0.009796418
000330 ee d8 55 bb fb 95 75 3a 88 17 00 bc 69 dd 5d 3c
       -0.003263052 0.0009368357 -0.00781811 0.013541558
000340 51 37 26 3c 62 1f 2f bc 1d 0a 71 3b c2 1c eb 3b
       0.010145024 -0.010688635 0.003677971 0.007175059
000350 45 08 9a ba e8 61 63 3b f4 69 0a bc 39 4c a6 3b
       -0.0011751732 0.0034695808 -0.008448113 0.0050750044
000360 0f 23 84 3b 70 fc 09 bc bf 1f c6 bb b5 d5 04 bc
       0.0040324996 -0.008422002 -0.006046265 -0.008107592
000370 6b 5b 0c 3b a0 68 24 3c 1b 29 3d bc 63 55 30 3c
       0.0021416794 0.01003471 -0.011545445 0.010762545
000380 ce ee 9e 3b cd 1f 9b ba ee e2 14 3c ca e6 17 ba
       0.004850245 -0.0011835039 0.009087307 -0.0005794583
000390 ce e0 e2 ba fc 01 b9 bb 76 c3 03 bc f2 5d 64 3c
       -0.0017309429 -0.0056459885 -0.008042207 0.013938414
0003a0 4f 40 2a bc 11 1d 82 3b d6 87 07 bc fa 2b 35 bc
       -0.010391309 0.00397075 -0.008272132 -0.011057848
0003b0 28 9f 5c 3a f4 b0 77 3c 73 83 7a bc 62 ae 5f 3c
       0.000841605 0.0151178725 -0.015290129 0.013652416
0003c0 b6 25 2f bc cc 13 53 bc ee fc 59 bc b5 73 32 bc
       -0.010690143 -0.012883138 -0.013304932 -0.0108918445
0003d0 53 85 aa 3b 48 9f 5d bc ce a9 74 3c 85 1d 2f bc
       0.0052038818 -0.013526745 0.014933063 -0.01068819
0003e0 d5 c3 38 bb 4f 9b e7 3b 97 16 bd 3b 8f b8 11 3c
       -0.0028192897 0.007068075 0.005770515 0.0088941
0003f0 04 ca 2c bc b7 69 87 bc b8 63 20 3b ec 5f 5c bc
       -0.010546211 -0.016529901 0.00244735 -0.013450604

pointer.gru.weight_ih_l0 f4 [384, 128]
000000 2c 05 5a bd 34 94 b8 bc 4d 01 32 bd fd 62 65 bd
       -0.05322759 -0.022531606 -0.04345827 -0.056002606
000010 4f 66 35 bd fc 17 a1 bd 91 1d f7 3c 50 4b ca 3d
       -0.044287022 -0.07865903 0.030165466 0.09877646
000020 2b f3 b2 bd ca f3 c6 bd 48 09 ce 3d d4 4d 0f 3d
       -0.08737787 -0.09714468 0.10060364 0.034986332
000030 6e b2 a5 bd d1 be 6c bd 6b 17 87 3d 23 3c bf bd
       -0.080906734 -0.057799164 0.065962635 -0.09337642
000040 76 16 9a bc 45 33 ce 3d d4 00 ad 3d 5b 59 90 bd
       -0.018809538 0.10068373 0.084474236 -0.07048293
000050 d6 80 15 bd 77 b2 92 3b 31 10 b3 bd 9e e5 db 3c
       -0.03649982 0.004476841 -0.08743323 0.026842888
000060 d0 d6 1f bd 06 36 b6 3d e0 f8 36 bc f4 b1 d7 3c
       -0.03902322 0.08897023 -0.011167735 0.026329972
000070 f8 85 08 bd db cb 96 bd 11 b4 00 3d 44 74 a7 bd
       -0.033330888 -0.07363101 0.031421725 -0.08176473
000080 c8 82 4a 3d 59 c0 62 3d 24 5b ad bd e4 c9 86 bd
       0.04944113 0.05535922 -0.08464649 -0.06581476
000090 ec f3 cf 3d f9 72 c0 bd 39 de 72 3d 43 ed 5e 3d
       0.10153946 -0.09396929 0.05929396 0.05442549
0000a0 e0 d1 f8 bc 1c d9 ce bc d1 b4 f4 3c 93 bb 4a 3c
       -0.030373514 -0.02525001 0.029871376 0.012373823
0000b0 2e e4 cf 3d ef 36 c6 3d d1 df 33 3d 39 38 b7 bd
       0.10150944 0.096784465 0.04391462 -0.089462705
0000c0 20 8e 42 bc ac 1a d0 bd e2 69 b8 3d 05 3c ac 3d
       -0.011874706 -0.10161337 0.090045705 0.08409885
0000d0 d0 e1 4f 3c 9b e1 4e bd 3d b6 60 bd b0 98 b1 3d
       0.012688115 -0.050508123 -0.054861296 0.08671701
0000e0 db 7a b0 3d d6 37 c1 3d 69 18 97 bd f1 b5 a2 bd
       0.08617183 0.09434478 -0.07377703 -0.07944859
0000f0 1e 87 f7 ba 11 2e 57 bd 97 d5 cd 3a 1e f0 97 bc
       -0.0018884873 -0.052534167 0.0015703914 -0.018547114
000100 f2 c9 37 bd 22 6b 59 bd ce 59 06 bd b1 bc bb bc
       -0.044870324 -0.053080685 -0.03280049 -0.022917124
000110 3d 2d eb 3c 69 a0 25 bc 50 c6 91 bd 84 1f b9 38
       0.028708095 -0.010109046 -0.07117903 8.827358e-05
000120 6a cc d2 3c 86 b2 2e bd 97 d7 da bd 14 27 7b 3d
       0.025732238 -0.042650722 -0.10685652 0.061316565
000130 44 f4 bb 3d 44 48 07 bd 63 85 48 3b 9a 08 d6 3d
       0.09177449 -0.033027902 0.0030597083 0.10450859
000140 47 cc ac bd ce cb d6 3d 64 ec 86 3c ef ec 9a bd
       -0.084374 0.104880914 0.016470142 -0.07564723
000150 cf 62 a5 3d f2 81 11 bd 03 68 80 3c 45 bf eb bc
       0.08075487 -0.035524316 0.015674597 -0.028777728
000160 34 f5 e2 3c 30 f7 c1 bd 94 32 49 3c 13 a4 96 bc
       0.027704813 -0.094709754 0.012280125 -0.018388784
000170 48 98 34 bd 4a 0f 2d bd 0e c3 65 bd df 66 56 bc
       -0.04409054 -0.04225091 -0.05609422 -0.01308605
000180 4e db d7 bd 2e df 86 bc 28 42 ab bc 1e 43 8a 3d
       -0.10539876 -0.016463842 -0.02090557 0.06751083
000190 3e 5a 9b bd 11 79 f5 bc c3 84 c0 bd ec ec 3d bd
       -0.07585572 -0.029964956 -0.09400322 -0.046368524
0001a0 f4 d0 2b 3c a4 e0 6b 3d 49 2d c2 3d 67 23 bc bb
       0.01048683 0.05758728 0.09481294 -0.005741525
0001b0 47 e2 c7 3d 9c 4a a4 3a 05 e9 ce bd b5 18 f8 bc
       0.09759956 0.0012534442 -0.10103039 -0.030285219
0001c0 28 a0 bc 3d 5f 4f d8 bd 01 a0 aa bd f8 aa c6 bc
       0.09210235 -0.10562014 -0.083312996 -0.024251446
0001d0 51 dd 41 bd 08 2a 08 3c 4a 0f ae 3d ab 3f 9e bc
       -0.047330204 0.008310802 0.0849901 -0.019317469
0001e0 62 c7 ce 3c 02 1b 8b bd d5 1b 9f 3d 15 da c0 3d
       0.025241558 -0.06792261 0.077689804 0.09416596
0001f0 07 b6 b8 3c 85 3f bd bc eb da d6 bc b8 00 48 bd
       0.022547735 -0.023101578 -0.026227435 -0.04882881
000200 58 06 11 bd 69 35 31 3d 20 e8 81 3c 4e bf 4b bd
       -0.03540644 0.043263827 0.015857756 -0.04974299
000210 b0 56 9c 3c 82 42 c4 3c e9 21 96 bd f0 b8 d2 bd
       0.019084305 0.023957495 -0.073306866 -0.1028918
000220 ea 70 51 bd 64 ef 8c 3d a6 d9 0d 3d 82 06 d2 3d
       -0.051133074 0.06881598 0.034631394 0.102551475
000230 e9 3d 77 3d e3 cb 4f bd cd c4 a8 3d 09 12 16 bd
       0.060361777 -0.05073155 0.08240662 -0.036638293
000240 f7 bc da 3d 9d a3 bc 3d 28 e8 26 bd 2d d3 78 bc
       0.106805734 0.09210894 -0.040748745 -0.015187067
000250 a4 8e 87 bd 38 af 82 bd e3 e3 b0 3d 31 81 8d 3d
       -0.066190034 -0.063810766 0.08637216 0.06909407
000260 9d bb f1 3c b3 14 bd 3c dd 56 23 3d d3 4b 82 3d
       0.029508406 0.02308116 0.03987776 0.063621186
000270 53 01 38 bd 61 39 e6 bc 53 9f 37 bd e0 40 15 bd
       -0.044923138 -0.028103532 -0.044829678 -0.036438823
000280 c9 3e ba bd 16 bf b5 bd a8 5e d9 bd 99 f9 a3 bd
       -0.090940066 -0.088743374 -0.10613757 -0.08006591
000290 a8 98 7e 3b 74 59 07 bd 1e 66 af bd f3 17 d0 bd
       0.0038848314 -0.033044294 -0.08564399 -0.10160818
0002a0 96 03 81 3d 7b a7 b0 3c 68 d7 6a bd 0e 23 69 bd
       0.06299512 0.021564236 -0.057334334 -0.056918196
0002b0 c6 60 fb 3c 1b d1 af bd 3a 10 66 bd dd 8e 95 3d
       0.030685794 -0.085848056 -0.05616782 0.0730264
0002c0 4a b5 62 3d 02 da 9c 3d 32 d5 68 bd ed 31 4e 3b
       0.055348672 0.07658769 -0.056843944 0.0031462864
0002d0 65 a5 89 bd 6a df 2e 3c 81 2a 8f bc 31 3d ab bd
       -0.06721 0.010673383 -0.017476322 -0.08361281
0002e0 8f 0d 67 3d 9f cc 0d bd 8f 9b 35 bd ed ac e1 bc
       0.056409415 -0.03461897 -0.044337805 -0.027548278
0002f0 8c 15 c7 bd e7 05 e4 3c f3 45 b5 3c c5 96 5d bd
       -0.097209066 0.027834846 0.022128081 -0.054098863
000300 8e 26 82 bd 85 bf c7 bd 5b 32 bc 3d 05 24 1e bc
       -0.0635501 -0.09753326 0.09189292 -0.009652142
000310 fa 91 13 bd d1 71 94 bd 88 c8 b1 bd e4 86 3c 3d
       -0.036027886 -0.07248271 -0.086808264 0.04602708
000320 8c 68 1a 3d 8d c6 d3 3d 1f f7 a0 bd 68 f2 a5 3d
       0.03769736 0.10340605 -0.078596346 0.08102876
000330 56 7e 9a bd 1a 9f da bd 03 ab 59 3d c3 3a 1a 3c
       -0.07543628 -0.106748775 0.053141605 0.009413424
000340 6c cf 05 3d 87 8e 47 bd d5 4c d0 3b 7e 11 94 bc
       0.032668516 -0.04871991 0.0063568153 -0.018074747
000350 4d e4 d1 3d 75 be 68 bd 00 76 e2 bc dc e8 50 3a
       0.10248623 -0.05682226 -0.027644157 0.0007969269
000360 51 97 61 3d 08 f3 c4 3c ca 85 c3 3b cb 09 6e bd
       0.055075947 0.024041668 0.0059668766 -0.058114808
000370 42 06 d2 3d ba ba 14 bd 27 37 9f bc ea 4c a1 bd
       0.102551 -0.03631089 -0.019435478 -0.07875998
000380 86 26 14 3d 90 d3 1d bd 79 2b c5 3d 4c b1 08 bd
       0.03616955 -0.03853184 0.096274324 -0.03337221
000390 3b b0 c4 3c 64 34 be bc d8 3b 83 bd 80 e2 8e bd
       0.024009814 -0.023218341 -0.06407899 -0.06976795
0003a0 3f 31 9f bd 9c df 25 bd 75 62 a9 bc 07 42 56 3d
       -0.07773065 -0.040496454 -0.02067683 0.052309062
0003b0 19 59 34 3d de 69 69 3b 7a a6 df bc 69 c0 68 3d
       0.044030283 0.003561608 -0.027301062 0.05682412
0003c0 f9 1f bd 3d 34 b5 8e bd 68 89 b0 bd 82 cb 66 3b
       0.09234614 -0.069681555 -0.08619958 0.0035216515
0003d0 55 0e 08 bd 2e 5d ba bd 98 62 a0 bb 2b 80 a0 bd
       -0.033216793 -0.09099804 -0.004894566 -0.07836946
0003e0 f2 cc 9d bd e9 43 3c bd cb a7 31 bd c4 57 04 bd
       -0.07705106 -0.0459632 -0.04337291 -0.032310262
0003f0 ee 39 cf 3d 74 93 98 bd 0e c2 bd bd ea f9 30 bd
       0.10118471 -0.074499995 -0.092655286 -0.043207087
