Task assignment/drl4vrp/vrp/10/19_20_26.716625/checkpoints/6/critic.pt (torch, 29011 bytes, 9 tensors)

static_encoder.conv.weight f4 [128, 2, 1]
00000000: d28d 203e 7dec 46be 16b0 223e 095d 613e
00000010: 323c 03be ae04 8dbd d342 c53d bc4a 1c3e
00000020: 71ad 013e 0d51 453e 575c 543e 52e2 61be
00000030: 3ad5 f3bd 49bb 3fbe a8c4 0cbe fb07 d23d
00000040: c218 943d 37b8 4c3e 78f8 01be e5c1 a83d
00000050: 7099 fbbd 8c73 8cbc 7eb4 dd3d e660 e13d
00000060: eb92 c73d 3596 eebd 9a72 43be 0b75 3dbe
00000070: 873b 24be 0504 ae3d 9728 06be feaf 953d
00000080: 394c f13c ba58 133e fd3d 163e 7782 3a3e
00000090: f86d 05be 02c4 4a3e f7b0 313e ac1c 21be
000000a0: d674 203e 4d75 0bbe 3c17 373e 9ca3 f6bd
000000b0: 4c6d 39bd 18da 06be 1899 e73c 3927 1fbd
000000c0: 3902 31be 082d 3a3e 2c34 b6bd 531e 3cbe
000000d0: ddff f3bd 36e4 31be c151 19be a0ff 4abe
000000e0: 6eca 0d3e e398 d0bd e89c b63d a3ad bd3d
000000f0: 125f a83d f71d be3d 268f 4abd 724c efbc
00000100: 4ae7 b1bc 63ae 0e3c dd6d 47be 853b cebd
00000110: c060 4cbd 1320 d5bc ce1c 193e 9f1e c83c
00000120: f974 46be 15e9 403e 5e68 8f3d eb49 0abe
00000130: 136e b1bd d9d5 a3bb 1958 553e f050 08be
00000140: a2f5 1bbc fe07 a3bc 2719 5fbe bd71 6c3d
00000150: d725 c3bb 4099 d83d dd55 d13d 783a c0bc
00000160: f2fc 2fbe 9578 323d 8728 333e e3de 003e
00000170: 5375 c3bd 936a 193e c688 58bd 607d 35be
00000180: 1f4f 9bbc 05be f4bc bb3b e7bd 4e27 18be
00000190: 9253 f7bd fccb a4bd 34e0 58bd 7b59 a83d
000001a0: 9784 0fbe c903 3b3e 7add 0abe 9260 09bd
000001b0: f2be 0e3d 547c e23c 4a2e f73c 85b4 9dbc
000001c0: 414a ac3d 7d40 863d 402c ed3d a621 8c3c
000001d0: 2e15 55be b4b6 02be 2224 dd3c 804e 493e
000001e0: 3a62 4fbe 80e9 c1bd 281d 863d 7a43 f83d
000001f0: f468 073d 5890 173e a77c beba fa94 f13d
00000200: f817 49be ef93 27be 9246 84bd bf7f a43d
00000210: cacb 1ebd 2f45 adbd 79ee d3bd 3808 53be
00000220: 0cd9 163e 9e3b 8d3d fd03 e4bd 929e d9bd
00000230: 9351 3e3d 6e9c 483e 4395 a43d d6ac d43c
00000240: 53a2 1b3e 9f20 4bbe 594e 2bbd e11a 613e
00000250: 9650 fabd f127 073e 039a 4fbd bcf3 82bd
00000260: 89cc 203c 01db 183c d945 593e aee3 54bd
00000270: 10fb ac3d 5062 2bba 958c 97bd 152d 5d3e
00000280: 80d8 4abe 9b08 b4bd 46b4 17be 40b7 623c
00000290: 7f57 4f3e bbab 003e 91eb 473d 742e 94bd
000002a0: 7aef a23d 097d 33bd cad1 53bd 8d06 263e
000002b0: 7307 063e 0b2d 033e 90a8 5d3e 0a22 133e
000002c0: a85c 083e 4eeb 3b3e 646e 013e 86c3 76bd
000002d0: 9256 b83d bf29 22be 6713 923d 899d 333d
000002e0: d573 1c3e 53ec 66bd e2d9 91bd b56a 19be
000002f0: 16af b83d 141f 45be 9ef4 fcbd b494 213d
00000300: 06fc 5cbe 2f1a 4c3e 9e14 af3d 1271 8a3d
00000310: 2fe6 4c3e 177e 46be 1b93 1bbe e0ab 613d
00000320: 6cc8 093e 327e eb3d fd12 3e3d bd4f 103e
00000330: e99d 623e 0848 2fbe 5723 893d 0d4c 473e
00000340: c587 933d c96d 54be 3621 493e 6527 b4bd
00000350: 6eaf 943d 0e98 5cbc aac0 1f3e 2cdb 8ebd
00000360: f2dc 0f3e 1c08 22be 4a59 07be 6c6f edbd
00000370: 9ab7 073e eb82 2a3e 173b 493e 8c9d 23be
00000380: 26fa 583d 1add 24bd 154f 2cbd 22c9 37be
00000390: 3a51 f0bb 003c 2f3e c198 083e f492 c23c
000003a0: b891 03bd 0798 5d3e bb63 e7bc 5a78 3cbe
000003b0: f455 10be 0636 0dbe f2c1 f83d 194e 3e3d
000003c0: 5918 39be ff22 473e a411 00be 5944 183e
000003d0: 054e 6dbc 499b 17be 8d61 5f3e fba8 103e
000003e0: 6594 683d 5ada 1abc b85d 063d 9f28 3a3e
000003f0: 0ad7 743c f16a 1cbe b4c0 53be d051 42be
0.156791 -0.1942615 0.15887484 0.22008146 -0.12815931 -0.06885658 0.09631886 0.15262884
0.12663819 0.192692 0.2073835 -0.2205899 -0.11905904 -0.18723787 -0.13746893 0.102554284
0.07231285 0.19992147 -0.1269244 0.082401074 -0.12285125 -0.01714494 0.10825442 0.1100481
0.09744819 -0.116497435 -0.19086686 -0.1850168 -0.16038333 0.084968604 -0.13101421 0.073089585
0.029455291 0.14389315 0.14672084 0.18213831 -0.13030231 0.19801334 0.17352663 -0.15733594
0.1566957 -0.13618965 0.17879957 -0.12042925 -0.04527025 -0.13169134 0.028271243 -0.038855765
-0.17286004 0.1818124 -0.0889667 -0.18370943 -0.119140364 -0.17372212 -0.14972593 -0.19824076
0.13846752 -0.10185411 0.08916646 0.09261634 0.08221258 0.09283059 -0.049452923 -0.029211257
-0.021716733 0.008708569 -0.19475503 -0.10069946 -0.049896955 -0.02601627 0.14952394 0.024428664
-0.19380559 0.18838914 0.07002328 -0.1350476 -0.08663573 -0.004999858 0.20834388 -0.13312125
-0.009519013 -0.019901272 -0.21786939 0.057725657 -0.0059554386 0.10576105 0.10221455 -0.02346538
-0.17186335 0.043572027 0.17495929 0.12585025 -0.09543862 0.14982061 -0.052864812 -0.17723608
-0.018958626 -0.029875765 -0.112906896 -0.14858744 -0.12076487 -0.080467194 -0.05294819 0.08220192
-0.14015423 0.18263163 -0.13561049 -0.033539362 0.03485007 0.027647175 0.03017344 -0.019251117
0.084126 0.06555269 0.11580706 0.017105889 -0.2080886 -0.12765008 0.026994769 0.19658852
-0.20252314 -0.09468365 0.0654853 0.12122245 0.033059075 0.14801157 -0.0014532999 0.11795993
-0.1963805 -0.16365026 -0.06458773 0.08032178 -0.038768567 -0.08460461 -0.103482194 -0.20608604
0.14731234 0.06896137 -0.11133573 -0.10625948 0.046464514 0.19590923 0.08036282 0.02596132
0.1519864 -0.19836663 -0.041822765 0.2198291 -0.12222402 0.1319883 -0.050683986 -0.06394145
0.00981439 0.009329558 0.21218051 -0.051974945 0.08446324 -0.0006537782 -0.07399861 0.21599229
-0.1980915 -0.08790704 -0.14814863 0.0138376355 0.20248221 0.1256551 0.048808638 -0.07235423
0.07955833 -0.043820415 -0.051713742 0.16213436 0.13088779 0.12810151 0.21646333 0.14368454
0.13316596 0.1835148 0.12639767 -0.06024506 0.09000887 -0.15836237 0.07132607 0.04385141
0.15278561 -0.05637772 -0.07121636 -0.14982112 0.0901777 -0.19250137 -0.123513445 0.039448455
-0.21580514 0.19931863 0.08548854 0.06759848 0.20009683 -0.19384037 -0.15192835 0.055095553
0.13455361 0.11498679 0.046404827 0.14092918 0.2213055 -0.17117321 0.06696194 0.19462605
0.0720363 -0.20745005 0.19641575 -0.087965764 0.07260023 -0.013463987 0.1560084 -0.069753975
0.14049128 -0.15823406 -0.13217655 -0.11593518 0.13253632 0.16651504 0.19651447 -0.15978068
0.052972935 -0.04024992 -0.042067606 -0.1794782 -0.0073339017 0.17112732 0.13339521 0.023751713
-0.03212139 0.21640025 -0.028245797 -0.18405285 -0.14095289 -0.1379014 0.12146367 0.0464612
-0.18075694 0.19446944 -0.1250673 0.14869823 -0.014483933 -0.1480533 0.21814556 0.14126961
0.056782145 -0.009451473 0.03280422 0.18179558 0.014943847 -0.1527517 -0.20678979 -0.18976521

static_encoder.conv.bias f4 [128]
00000000: f7f2 dd3d 721f e0be b5f4 5abe bdfb 0fbe
00000010: 9ada 9e3e b02d 71be 54e5 a83e 30be 933d
00000020: 17b6 dfbe e7fd 7d3e ab07 8a3e b81b 313f
00000030: cebe ee3e 9ea8 d63e 18f8 183d 8fd8 8dbe
00000040: 1ce2 f03e 6353 093f 1274 253f 518b e63e
00000050: 7a9d 9f3e 593e 153f 53ac c2be cd53 c7be
00000060: 49b1 0c3f 9340 843e 28d3 683e 8eb9 01bf
00000070: 470a abbe 6e80 063f 7844 a23e ad53 b2be
00000080: 80f0 dd3e e567 dc3d 70b6 40be 6919 103e
00000090: cd3b 09bf 4e29 a3be 0598 f93e b6de b13e
000000a0: d00c 7b3c 2b7c c53e 7761 bc3e a374 783e
000000b0: e8c4 d43d fdfa 53bd bf62 26bf 478b 52be
000000c0: 53bd 093f bbdc d8be a643 bb3e 03ed 653d
000000d0: 5e47 32bf e5d1 7f3e fcfd 5e3e 5e10 8fbd
000000e0: d0a5 2fbf 9b04 0cbf 2dc6 ac3e 8ecb d4be
000000f0: 5fb4 ab3e c64e 113f 1614 18bf 3622 ecbe
00000100: 7650 1c3f ca7d 4abb 288b bf3e b780 ab3d
00000110: e823 9dbe 9fa5 26bd 3bf3 05bf 3633 b6be
00000120: 068a b0be 6055 81be ffc6 1f3f 3a94 3cbd
00000130: 965c b53d 1b4f babe 67d1 223e 9bc0 ffbe
00000140: bc40 77bd ea8e ec3d c153 3fbe 891b 743e
00000150: 564b 1abf 45aa 313f c6b2 ebbd c570 17bf
00000160: ec59 1bbd b3b0 c03e 75f9 443e 29ab 2abf
00000170: 02a6 00be 546f 123f 643f 223f 5e2e e1be
00000180: a170 26bf 1be7 a1bd af22 d13e 8c03 103f
00000190: 6ea7 1c3f 4bf9 92bb 7500 27bf 50a2 ce3e
000001a0: 8d7a 30bf aa83 303e 758a 523e b5bd 0b3e
000001b0: 427d 003f 9e8e debe 563d 323f a924 1cbf
000001c0: e497 1d3f 4755 9fbe 6348 03be c7e8 fd3d
000001d0: c49e fa3e 6b3f e1be f853 01bd 544a b43e
000001e0: 56ea a73d b9c9 02be 1803 213f 262a be3e
000001f0: 4a6d dc3e 62b5 b43e cb79 10bf a537 87bd
0.108373575 -0.4377399 -0.21382411 -0.14060874 0.31026155 -0.23552585 0.32987463 0.0721401
-0.4369361 0.24803887 0.26958975 0.6918292 0.46629947 0.4192552 0.037345976 -0.27704284
0.47047508 0.53642863 0.64630234 0.45028165 0.31174833 0.5829826 -0.38022098 -0.38931122
0.54958016 0.25830516 0.227368 -0.5067376 -0.33406278 0.5253972 0.31692863 -0.34829465
0.4334755 0.10762004 -0.18819594 0.14072193 -0.53606874 -0.3186745 0.48748794 0.34740227
0.015322879 0.38571295 0.3679311 0.24263243 0.103891194 -0.051753033 -0.64994425 -0.20560943
0.5380451 -0.42355904 0.3657505 0.056134235 -0.6964015 0.24982412 0.21776575 -0.06985544
-0.68612385 -0.5469453 0.33744946 -0.4156155 0.3353605 0.56760824 -0.5940565 -0.4611985
0.61060274 -0.003089773 0.37410855 0.0837416 -0.30691457 -0.040685292 -0.52324265 -0.35585946
-0.34480304 -0.25260448 0.6241302 -0.046039797 0.0885555 -0.36388478 0.15900193 -0.49951634
-0.06036447 0.11550696 -0.18684293 0.23838629 -0.60271204 0.69400436 -0.11508708 -0.5915645
-0.037927553 0.3763481 0.19235785 -0.6666742 -0.12563327 0.57201123 0.63377976 -0.43980688
-0.6501561 -0.07905408 0.40846774 0.5625541 0.6119298 -0.0044852844 -0.6523507 0.4035821
-0.68937 0.17237726 0.2056063 0.13646586 0.5019113 -0.43468183 0.6962484 -0.6099344
0.6155989 -0.3111975 -0.12820582 0.123979144 0.48949254 -0.43993697 -0.03157422 0.35212958
0.08198993 -0.12772264 0.62895346 0.37141532 0.4305213 0.35294634 -0.5643584 -0.0660241

dynamic_encoder.conv.weight f4 [128, 2, 1]
00000000: 0a1b 323e 0f29 19be d0a4 febb 2ccb 973d
00000010: ae45 5e3d 93d7 debd 6745 bb3d 817b 813c
00000020: aa31 063e c47d f1bd 4521 ee3d 5a45 423e
00000030: d0a7 733d 91aa 503e 8478 98bd eb2e 5a3e
00000040: 7fe7 8f3c 704f 1c3e f30e aabd 98e8 ba3d
00000050: 810c 0ebe 5a7a 39be 6e28 36be 00dc 1ebe
00000060: 20d7 833d dfa7 ed3d b578 2abe 3806 0b3e
00000070: 1543 2bbe 94de 2c3e eea5 113e 35c1 f6bc
00000080: 15d4 093e 5bf1 403d 0b93 f33d a5dd 42be
00000090: 92ba 48be 8762 503e 78a4 9bbd ac0d 32be
000000a0: 301c cfbd 44ee d63d b337 113e e356 e53d
000000b0: 2620 873b ae77 04be a91f 98bd 7c3b 3abe
000000c0: d59b c93d 6c1e 00be df86 01be 587e 51be
000000d0: 55b5 873d 6a8c 503e 9d11 333c 5287 02be
000000e0: 8ed3 243e cae4 c4bd fd21 2f3e 8806 f1bc
000000f0: 8bdb a6bd 7dd6 313e ff97 8fbd c95d 31be
00000100: 493f 2e3e b743 c23d bd71 223e c426 80bd
00000110: 1ea8 3cbe abe0 dabd fe82 adb9 1373 883d
00000120: a76b 2d3e 6ec3 5c3c 3ebc ad3b 06a1 6b3d
00000130: 703a 6cbd 1483 583e 39ff 66bd 50d1 d3bd
00000140: 027a cabd 271b 093e 9d5e 443e da3d 563d
00000150: fdb7 1abe 831c 0b3e b87c 3e3e b702 0d3e
00000160: 1305 21be 81e1 2a3e 47d0 0abe 68a2 4bbe
00000170: e3f6 003e 25a6 e3bd f0e8 1b3e 6b5f 4ebd
00000180: 46c0 d83c 0b09 293b a46b 2c3e 375d 30be
00000190: b3ae 0dbd 062d 043e 553f 41be a29d 1ebe
000001a0: 0f6b 1dbe ca57 103d e37a fe3d 3f2e 4b38
000001b0: 887f 4b3e 64aa 00be a4eb e43d e832 e2bc
000001c0: 62db 06bd 3f46 353e 3bdb 4ebe 8a24 45be
000001d0: c558 83bd e40c 4cbd e3da f33c 7d20 31be
000001e0: f50b 603e da83 913d 7fee 92bb 3998 07bd
000001f0: f6f4 9fbd df67 36be fd5c 5bbe ed33 4abd
00000200: e810 54be e565 303e d5e2 2cbe d7b8 44be
00000210: d599 bd3d ef53 513e 90ec 3d3e 43d3 7d3d
00000220: 3d1d 263d 1657 b3bd f23f 163e ea49 193e
00000230: c965 5c3e bd98 35bc 30bc 383e 0220 41be
00000240: 4f71 ca3d 3caa 183e 3809 643d 2d1a 8d3c
00000250: 3daf d73d 70b8 bd3d 1ec5 a8bc ab52 43be
00000260: b82e 2fbe 1bd4 9cbd c378 443e 0c37 413d
00000270: dea5 063e 134b 583e eeb2 1b3e 4d22 443d
00000280: 065e e5bd d449 9cbd 2645 143e cb84 83bd
00000290: bf09 99bc 064c 24be 3532 293d a339 b4bc
000002a0: 6483 493e d273 74bd 72ac b1bd 4aa8 953d
000002b0: 23f4 073e 19f9 19be c31a 213e 99f9 16be
000002c0: 80cb 5f3d 5fdc 67bd 27a9 ab3d 1078 373e
000002d0: 257e 5bbe 0e72 40be 109c 3ebd 0ff2 033e
000002e0: 257f 3f3e 00e7 ec3d 7b18 cebc 15cb dcbd
000002f0: 3bf5 063e 7fa0 3b3e 9600 1b3d 2dae aa3c
00000300: 327d 35be 6dc1 cd3d ecf3 a33c 255e d8bd
00000310: dded b0bd a3be 7bbc 5ea5 9abd 39a7 dfbd
00000320: 1a5b 11be 4e36 6d3d cff6 c4bd 3083 413e
00000330: b05a 133e c92e 01be 5183 d23d 960e 37be
00000340: 8903 50be 726b 563c 70ae b03d 635e 9fbd
00000350: d9c0 44be 5d8f 3bbe 5a25 133e a66b 5f3d
00000360: 677f 41bc 5d16 7ebd e54a e3bd 9d83 983d
00000370: 245e bdbd a8e2 413d 02c3 a7bd 4f8d a4bd
00000380: ba3f 0a3e 0e95 3c3d 9789 3bbe a95f a73d
00000390: 553e 50be 89a2 adbc 9a2e d13c 931b 073e
000003a0: 8996 4c3d ab1d 283d 64b2 c2bd cf84 c13d
000003b0: 6d46 4ebd ccb1 1dbe c27a 9e3a 2f8b 56be
000003c0: ad04 0e3e b197 11be 6096 353e 933e 2a3e
000003d0: bbc0 a63d 7312 2b3e 8290 3f3e 056c 0d3e
000003e0: 99c7 53be 59db cebd bbbf b1bd 4170 033e
000003f0: a44c bb3d 548f 4cbe 59e4 c53d 8b70 423e
0.17393127 -0.14957069 -0.007771112 0.07411799 0.05426567 -0.10880961 0.09144097 0.015805962
0.13104883 -0.11791566 0.116274394 0.18971768 0.05948621 0.20377566 -0.074448615 0.2130696
0.01756644 0.15264678 -0.083036326 0.09126395 -0.13871957 -0.1811308 -0.1778886 -0.15513611
0.06437516 0.116042845 -0.16647609 0.13576591 -0.16724809 0.16881782 0.14223453 -0.030121425
0.13459809 0.047105175 0.118932806 -0.19029863 -0.19602421 0.20350085 -0.07599729 -0.17388028
-0.10112798 0.10494664 0.14181404 0.11198213 0.0041237054 -0.12936279 -0.07427914 -0.18186754
0.09844176 -0.12511605 -0.12649105 -0.20458353 0.06626383 0.20366064 0.010929492 -0.12746933
0.16096327 -0.096139506 0.17102809 -0.02942206 -0.08147343 0.17366977 -0.07011413 -0.17320932
0.17016329 0.09485572 0.158637 -0.06257394 -0.18423507 -0.10687383 -0.00033094728 0.06662574
0.16935597 0.013474328 0.0053019812 0.05752661 -0.057672918 0.21143752 -0.056395743 -0.103426576
-0.098865524 0.13389264 0.19176717 0.05230508 -0.15109248 0.13585095 0.18602264 0.13770567
-0.15724592 0.16687585 -0.13556014 -0.19886172 0.1259418 -0.11115674 0.15225577 -0.050383966
0.02645887 0.0025792744 0.16837937 -0.17223059 -0.034590434 0.129078 -0.18871816 -0.1548982
-0.15372871 0.035239972 0.124257825 4.844204e-05 0.19872868 -0.12564999 0.111777574 -0.027612165
-0.032924064 0.17702578 -0.20200817 -0.1925222 -0.06413416 -0.04981698 0.02976746 -0.1729755
0.21879561 0.07105227 -0.0044839974 -0.033104155 -0.078103945 -0.17813061 -0.21422191 -0.049365927
-0.20709574 0.1722637 -0.16883405 -0.19211136 0.09257857 0.20442174 0.18547273 0.061969053
0.040555228 -0.08756845 0.1467283 0.14969602 0.21523203 -0.011083779 0.18040538 -0.18859866
0.09884893 0.1490869 0.055672854 0.017224396 0.10531471 0.09263694 -0.020601805 -0.19074504
-0.17107666 -0.076576434 0.19186692 0.047171637 0.13149211 0.21122389 0.15204975 0.047884274
-0.11199574 -0.07631269 0.14479503 -0.064218126 -0.018681405 -0.16044626 0.041307647 -0.02200014
0.19679028 -0.059680767 -0.086754695 0.07307489 0.13276725 -0.1503643 0.15732865 -0.14743651
0.054637432 -0.056606647 0.083818726 0.17916894 -0.21434839 -0.18793508 -0.04653555 0.12885307
0.18700846 0.11567497 -0.025158158 -0.10780922 0.13179485 0.18322943 0.037842356 0.020835007
-0.1772354 0.10046659 0.020013772 -0.10564832 -0.08639119 -0.015365276 -0.075510725 -0.10920567
-0.14194909 0.057913117 -0.096173875 0.188977 0.14390063 -0.12615503 0.10278953 -0.17876658
-0.20313849 0.01308714 0.08627021 -0.07781675 -0.1921419 -0.18316408 0.14369717 0.05454602
-0.01181016 -0.062033046 -0.110982694 0.07446978 -0.092464715 0.047335297 -0.08191492 -0.08034765
0.13500872 0.046040587 -0.18314205 0.081725426 -0.20336278 -0.021195667 0.025534917 0.13194112
0.04994825 0.04104392 -0.095066816 0.09449159 -0.050360132 -0.15399855 0.0012091028 -0.20951532
0.13868971 -0.14218022 0.17733145 0.16625433 0.08142229 0.16706257 0.18707469 0.13810737
-0.20681609 -0.10100431 -0.08679148 0.1283579 0.091454774 -0.1997655 0.096626945 0.18988244

dynamic_encoder.conv.bias f4 [128]
00000000: 196a 6a3e c78b 21bf 94f8 923e 9bb5 41bd
00000010: 192a d6bd f8fc b33e 147a 2bbf 2c67 a03e
00000020: f1cc 78be 0549 f8be 9df8 c13e f913 113e
00000030: 2285 e13e 9bee cc3e 805d 01bf ea80 b2be
00000040: b90e aa3d 6c7e 09bf 5315 2bbf bd50 133f
00000050: a364 a8be 49c1 b7be d9ab d13e fa13 28bf
00000060: 8bb0 65be 087c 07bf a794 9cbe dafb 103f
00000070: 79c1 dc3d fb88 42be 9870 49be 29f2 54be
00000080: e4b6 393e e89e 0abf 83e2 873e 31b8 9dbe
00000090: 3953 0f3f 64e1 75be 0ae5 4c3d af1f 203e
000000a0: 7097 2e3e ec94 6cbe 1b8a 173f c38c ad3e
000000b0: 3504 1a3f aaed 8bbe b0b7 cc3e 88e1 11bf
000000c0: 5eb9 5c3e 0c4a b43e 6e08 093f 6b8f dabe
000000d0: d2f5 b4be 5dcb 1fbf eda5 77be b1c3 aabe
000000e0: 9b04 e3be 3dc2 1cbf 6c4d 263f 41c6 2abe
000000f0: 5022 443e 53a9 203f 82cd afbd e21d 853e
00000100: b82a 8e3e c4d7 f93e df22 f43e fbde f03e
00000110: 8c01 aebd c0b6 263f a5b0 28bf f0e4 8abe
00000120: abe7 073f e68e 2ebf 4964 22bf 8399 313f
00000130: 2046 0b3e d75e fd3d 3f37 f33e 3273 91bd
00000140: c981 143f 9883 03bf 46f2 52be 8d81 edbe
00000150: 4c5d b1bd 5ad5 f93d 575c b2be 5d45 21bd
00000160: fd02 b53e ee6a 933e dc4d 083f 49d3 ef3e
00000170: 5c0f acbc 8f2b c9be f4aa 32bf 45d7 6f3c
00000180: 4897 ba3e 84af a33d d232 aabe cf92 603e
00000190: 9525 fc3e 9799 8e3e 4f83 e53d 6269 1f3f
000001a0: bc3f 9c3d b5ff c1be 15a5 0ebf 0b00 23bf
000001b0: 6e47 e3be b4de ac3e e3e1 29bf c359 d43e
000001c0: aed1 f63d 3400 7cbe 4c90 4c3e 1f40 1cbe
000001d0: d7ea d33e 57e5 0fbf 7862 2bbf c3ce 493d
000001e0: a335 0fbf b18e 203f f9fc 0fbf 64fa db3e
000001f0: 7d41 babe b3c1 a7be 4ebd f5bd 4fb0 0f3e
0.22892036 -0.6310391 0.28705275 -0.047292333 -0.10457248 0.35153937 -0.6698315 0.31328714
-0.24296929 -0.4849321 0.3788499 0.14167775 0.44046885 0.40025792 -0.50533295 -0.3486398
0.083035894 -0.5370853 -0.66829413 0.5754507 -0.3288928 -0.35889652 0.40951422 -0.6565548
-0.22430627 -0.5292363 -0.30582163 0.56634295 0.107790895 -0.18997566 -0.19671857 -0.20795502
0.18136173 -0.5414872 0.26540002 -0.3080459 0.5598636 -0.24011761 0.050023116 0.15637086
0.17049956 -0.23103684 0.5919511 0.33896455 0.6016267 -0.2732976 0.39983892 -0.5698476
0.21555087 0.35212743 0.5352849 -0.42687544 -0.35343796 -0.6241968 -0.2418439 -0.33352426
-0.4433945 -0.61233884 0.64961886 -0.1667719 0.19153714 0.6275837 -0.085841194 0.2599936
0.27766967 0.4879743 0.47682855 0.4704512 -0.08496389 0.65122604 -0.6589454 -0.2712779
0.5308787 -0.68186796 -0.63434273 0.69374865 0.1360097 0.12371605 0.47503087 -0.0710205
0.58010536 -0.5137267 -0.20600232 -0.46387902 -0.08660373 0.12198897 -0.34836075 -0.03937279
0.35353842 0.28792518 0.53243804 0.46840885 -0.021003418 -0.39291045 -0.69792104 0.014638727
0.36443543 0.07992461 -0.33241898 0.21931003 0.49247423 0.27851555 0.11206686 0.62270176
0.07629344 -0.378904 -0.55720645 -0.6367194 -0.44390434 0.3376366 -0.663603 0.41474733
0.12051712 -0.24609452 0.1997692 -0.15258835 0.41390106 -0.5620932 -0.66947126 0.04926945
-0.5594122 0.6271773 -0.5624538 0.4296447 -0.3637809 -0.32764968 -0.11998998 0.140321

fc1.weight f4 [20, 256, 1]
00000000: 4e27 12be d29a c73d f8e2 833d 8c47 e2bd
00000010: 7edd d13d 9cac 243d 6872 fcbd e449 b2bd
00000020: f61a d13d 201e 04be 86f3 063e 33fd c0bd
00000030: 6c73 043e 09e2 a3bd fa37 0d3e 441e 083d
00000040: 00b4 67bb 40b8 e0bb a29c aebd 56aa 8fbd
00000050: 4cbd 003e 385b bb3d e693 b03d 12cb 963d
00000060: 6a65 c5bd bee5 c73d 26ce debd b466 a5bd
00000070: c0b7 04bd 4098 333b 0e28 28bd a874 813d
00000080: bc8c 133e 2e45 a63d 20eb b23b cacb b2bd
00000090: 552f 8abd 206c a1bb 701d 143e c360 abbd
000000a0: 79ae bcbd 6075 ef3d 8094 12bb d286 ae3d
000000b0: bc89 dbbc ca1b 163e 7cbc 55bd c2d6 48bd
000000c0: f0a0 ccbd 681e ecbc c629 c4bd 6ee1 0b3e
000000d0: 1c7e f03d a8c5 f7bd 3c2c 133d 4c2f 6fbd
000000e0: 2f19 0abe a09e 683d 8c16 fc3d 14ec c93d
000000f0: 8c71 0d3d b42b 073e 590d 93bd ac1c abbd
00000100: 5f82 f6bd 14b0 f6bc 582e b3bc 2424 46bd
00000110: 5292 013e a894 83bc 102d 713d a44f e73d
00000120: 0c36 d7bd ac34 0a3d 49a6 d0bd 4652 c93d
00000130: 7c06 4cbd 3c9f 083e 0827 ff3d 8062 81ba
00000140: d69c 43bd 2a6f 77bd ddac eabd 9490 e7bc
00000150: 3c1c f53d 584f 0f3e 2ae2 0bbe fb98 16be
00000160: 475d 01be 5cf1 513d 86d7 cb3d 0328 84bd
00000170: 74d5 ef3d ec0f a03d 1063 5a3d dc2c d9bd
00000180: 7472 c13d f20b 8d3d 80d4 a03a d06b 553d
00000190: 33a6 abbd 0439 78bd d0c8 d73d 9039 0bbe
000001a0: c0cc 0ebe 80e7 ea3b 62e5 b03d e28a b53d
000001b0: 500e 4e3d 5009 4f3c dc92 8c3d e0b5 7ebd
000001c0: 4ec6 43bd 2c3f e9bd c41b 023e 6430 6f3d
000001d0: 802a 3d3b 5c9f c33d 42fa 0a3e c426 873d
000001e0: 9e73 113e 2cef d83d 14f1 223d dc8c 113d
000001f0: a635 9cbd 60cb 80bc 8642 afbd 2af7 03be
00000200: 18dd e03c 40fb 09bb aa98 1ebd 1cc3 163d
00000210: c0b4 ca3c 5663 083e d473 7f3d d81a 043e
00000220: 201a 0c3e 88d9 9e3d 109d f43d 74e3 f1bd
00000230: 0c33 1a3d fc4e de3d 58c6 0f3e aebf 53bd
00000240: 2363 e7bd 742d 78bd 7ca8 103e 86a0 d3bd
00000250: 78de 533d 3ca7 0b3d 80ed 903a 2800 bb3d
00000260: 4caa 883d 9adb 8c3d c08f ce3c 10a2 893c
00000270: 68c6 b1bc 08cf e73d cc4f 06bd 6cd0 01be
00000280: 6457 8f3d 5c6d db3d 0833 953c 34c9 efbc
00000290: d030 8e3d 309b 0f3e 4012 f0bd 6e4e 61bd
000002a0: f031 10bd 48f5 3d3d 3a39 b73d ad52 9abd
000002b0: 87b3 82bd 6400 613d e794 c5bd 60a0 c33b
000002c0: 3865 123e 04da 7e3d 8cbc 0abe 5141 8ebd
000002d0: c4a5 0c3d 40f7 c13c 4a1d 013e 104d 8bbc
000002e0: bcfe 0abd 6c40 103e 1044 a0bd b439 df3d
000002f0: 2f5a 13be 0020 d1b7 b872 8fbc 47cc d5bd
00000300: 64c5 093e e037 b6bc 544a ffbd b215 ccbd
00000310: 6075 8c3d 486f 833c 80d1 633b d205 d03d
00000320: 781a fbbd 5039 00bd 4893 b13c c6f3 3ebd
00000330: 8ac7 eabd 40fe c43b b184 f7bd 70f0 d73c
00000340: 60a6 cb3c 24f5 2f3d c00e 28bc 8850 b5bc
00000350: 941c ee3d 3c48 d7bd 1092 0f3e 5e33 02be
00000360: 92f4 20bd c0a8 97bc 00b6 863d 0a47 dbbd
00000370: b06c edbd 2425 cf3d aead 99bd cacd 0ebd
00000380: 821c 123e 3245 10be e086 e23d 16cf f2bd
00000390: c8de c23d 14c7 163e acbc cd3d b607 40bd
000003a0: 53a0 02be e096 333d fe40 fbbd b8e6 2dbd
000003b0: c06d acbb a4ca a83d 4500 14be 7eae 9bbd
000003c0: 60d2 4b3d 5807 ea3d af89 0dbe 96c8 0bbe
000003d0: cacf 89bd fb50 80bd 98c7 b83d 243d c93d
000003e0: e05c 8fbd e90e d4bd 54e3 e7bd ac1a 5cbd
000003f0: 0cab 573d dc0f dfbc 971b 82bd 6c6e 743d
-0.14272806 0.097463265 0.06439775 -0.11048803 0.102473244 0.040203676 -0.12326509 -0.087055
0.102102205 -0.12902117 0.13178834 -0.09423294 0.12934655 -0.08002097 0.13790885 0.03323199
-0.003535509 -0.006857902 -0.08525969 -0.07014911 0.12572211 0.09148258 0.086219594 0.07362951
-0.09638484 0.09760617 -0.108791634 -0.0807623 -0.0324018 0.002740398 -0.041053824 0.063210785
0.14409155 0.08118664 0.005460158 -0.08730276 -0.06747309 -0.0049262196 0.14464355 -0.08368065
-0.092129655 0.116923094 -0.0022366345 0.08521809 -0.026799075 0.14659038 -0.052181706 -0.049032934
-0.09991634 -0.028823093 -0.0957828 0.13660213 0.117428035 -0.12098247 0.035930857 -0.058394715
-0.1348617 0.0567919 0.12308988 0.098594815 0.034532115 0.13200265 -0.0718028 -0.08355078
-0.12036585 -0.030113257 -0.021872684 -0.04837431 0.12653473 -0.016062096 0.058880866 0.11294487
-0.105083555 0.033741638 -0.101879664 0.098301455 -0.04981087 0.13341993 0.124586165 -0.0009871274
-0.047756992 -0.06040875 -0.11458752 -0.028267182 0.11968276 0.13995111 -0.13660493 -0.14706795
-0.12633239 0.05125557 0.09953217 -0.06452944 0.11710635 0.07815537 0.05331713 -0.10604259
0.09445658 0.06887044 0.0012270361 0.05210477 -0.08381309 -0.06060125 0.10536349 -0.13596177
-0.13945293 0.00716871 0.08637501 0.088643804 0.05030662 0.012636498 0.06863949 -0.06218517
-0.04779654 -0.11389002 0.12705904 0.05839576 0.0028864443 0.0955188 0.13572028 0.06599191
0.1420426 0.105924934 0.03978069 0.035534725 -0.0762742 -0.015721977 -0.0855761 -0.12887254
0.027449176 -0.0021054298 -0.03871981 0.036807165 0.024744391 0.13319144 0.06236632 0.12900865
0.13681841 0.077563345 0.1194402 -0.11810961 0.03764634 0.10854909 0.14040506 -0.051696472
-0.11298206 -0.060590222 0.14126772 -0.10333352 0.051725835 0.034095034 0.0011057109 0.09130889
0.066731066 0.06877823 0.02521503 0.01680091 -0.021701053 0.11318785 -0.032790944 -0.12677163
0.0699909 0.10714218 0.01821281 -0.029270746 0.06942904 0.14024043 -0.11722231 -0.055006437
-0.035203874 0.046376497 0.08946462 -0.075353004 -0.063818984 0.054932013 -0.096475415 0.005970046
0.14296424 0.062219635 -0.13548487 -0.06946052 0.034337774 0.023677468 0.12608829 -0.01700452
-0.03393434 0.14087075 -0.07825482 0.10899678 -0.14389871 -2.4929643e-05 -0.017510757 -0.104393534
0.13454205 -0.02224344 -0.12465349 -0.099650756 0.06858325 0.016044274 0.0034762323 0.1015736
-0.12260908 -0.031304657 0.021676674 -0.0466192 -0.1146384 0.0060117543 -0.12085856 0.026359767
0.024859607 0.042958394 -0.010257423 -0.022133127 0.116265446 -0.105118245 0.14020562 -0.12714908
-0.03929574 -0.018513083 0.065776825 -0.10706909 -0.11592996 0.10114506 -0.0750383 -0.034864224
0.14268687 -0.14088896 0.110608816 -0.11855905 0.095151484 0.1472438 0.10045752 -0.046882354
-0.12756471 0.043845057 -0.12268256 -0.04245636 -0.0052621067 0.08241776 -0.14453228 -0.07601641
0.049761176 0.11427182 -0.13822053 -0.13650736 -0.06729086 -0.06265446 0.090224445 0.09826115
-0.070001364 -0.103544064 -0.11322656 -0.053736374 0.052653357 -0.027229242 -0.063529186 0.05967562

fc1.bias f4 [20]
00000000: 6426 f8bc ca84 afba 6866 58bc e68d 2ebd
00000010: 2c03 89bc 4422 44bc 5f8d 53bd e79c a6bc
00000020: 1d37 f73c 3762 bfbb 241d e6bc 0013 3d3d
00000030: 020d 14bd adfc 71bd 18c1 183c 8469 debc
00000040: 0b45 783d f0a7 87bc 1878 553c 90b9 a5bc
-0.030291744 -0.0013391015 -0.013208009 -0.042615794 -0.016725145 -0.01197106 -0.051648494 -0.020338489
0.030177647 -0.0058405655 -0.028090067 0.046160698 -0.036145218 -0.05907886 0.009323381 -0.027149923
0.06061272 -0.016559571 0.013029121 -0.020230085

fc2.weight f4 [20, 20, 1]
00000000: 40e0 37bc 677f bdbc 580a 603e 4fa6 513e
00000010: 00d5 afbb c941 273b 5359 1e3e bf93 2fbd
00000020: 8a38 b8be b68a 033e ce52 48be edc4 a5be
00000030: 33ea 31be 9dab 52be 7c02 443e 22c8 ba3d
00000040: 8bac 82bc 6397 c63e eee8 ac3d 1f1b 5abe
00000050: 4c91 9a3e 9f19 57bd f8ad 113e f7ce 22be
00000060: 1c60 a43d 419a a13e 7ea6 6bbd 7bec 1cbd
00000070: fbe4 223e 708f 433e 4237 9ebe a4e2 91be
00000080: ed9d 4dbe f644 1d3e 3a6c b23e d385 6fbd
00000090: 8b08 c5be c0cd 363e 735b 783e 089e 353e
000000a0: 20d1 4c3e 3a49 f13d 77bf c2be 6b70 a33e
000000b0: 73f3 90be 9740 9dbe ac84 983d 177a cc3b
000000c0: 9927 7bbe d89a 99be 3b7e 4ebe 0971 7ebe
000000d0: 4c59 e03d 3edf 95be 808e 96bd 66dd 463d
000000e0: ede8 b03e 03b5 a53e a4a7 003e 0036 e8ba
000000f0: b4cd c23e df8b 8a3e 747c 0abe a522 aa3d
00000100: 6668 a43e f8a1 5f3e 8154 8fbe e412 7f3d
00000110: 68b4 c0bc 90b9 943e b8f8 e0bd 7933 35be
00000120: ac47 8ebd dc75 c6bd 08e7 8bbd 62e7 bc3e
00000130: d052 00be c3fe 5cbe 783c 803e 9455 c43e
00000140: b82e 463e ed49 7bbd 78ef 1c3e 4d83 dbbd
00000150: d00f 79bd a2fe 04bd 446e 08be 19d5 473e
00000160: bb3f bcbd db9a 973e 1010 e53c 4ef7 b83e
00000170: 646e 99bd 4efe a83e b00c e8bc 1fa8 af3d
00000180: 3bd4 1ebe 0adf bebe a47b 203e e811 213e
00000190: 6847 3f3e 63bc dabd bcd6 643e 2f51 e8bc
000001a0: e47e b43e 3cb8 25be 642f 763e 5a85 d53c
000001b0: b5ec dbbd 4405 053e ec78 af3e 323c ba3e
000001c0: 04c5 c13e fceb abbe 6472 913e 3266 493e
000001d0: b5b4 c53e 496a 943c 337c 71be 9067 fb3d
000001e0: 5a51 bc3e 5b91 5e3e 609c 8ebc e14a a9be
000001f0: dc21 703e 3fbc a2be 9978 6fbe eef8 613e
00000200: 9f53 6ebd 284a a5be b61c 67be 307e a83c
00000210: 6426 343e 1aff 0bbe 2cec 2a3e 0502 a83c
00000220: e752 083e 407c 153d fd05 0a3e 8039 843e
00000230: cc69 a93d 304b a13e 201c bb3e f002 a33d
00000240: 24d9 b03d 705e 5dbe acc0 a43e 6863 b6bd
00000250: 3820 9f3e d0ca 463d 88a2 873d 0031 9fbb
00000260: a0cc d03d 84ff 4a3e 8376 94be 9565 72be
00000270: 9f53 96be 0854 88be 26ec 1dbe 18cf c43e
00000280: 8ad5 af3e 8634 b7bd 20ef 633e 52c4 c3be
00000290: 30e0 ba3e 2529 eebb 1f7d d8bd 37b9 5f3e
000002a0: 2c20 1e3d a815 48be 1017 e53c 883b a03e
000002b0: d029 79be c285 ae3e 3490 b7be 2561 c4be
000002c0: ff4b d5bd 41e5 9b3e eb0c 693d b8c9 f9bd
000002d0: 9421 d53d fb48 c63e a899 873e 0136 74be
000002e0: 209d 2c3e 732a a7be 65fa 96be 0fb9 6b3e
000002f0: 21ed 43bd 874e 3b3e 9006 6abe 7769 52be
00000300: bc62 6c3e ee26 15bd b479 b83d 0591 38be
00000310: 750b 173e cb31 7c3e 6e43 9dbe 4af1 30be
00000320: 2017 4bbc febb 553d b5b7 83be 9842 733e
00000330: 6c2c 7c3e 667b bfbe 47c4 8e3e f850 9abd
00000340: 32d3 2c3e 3864 bf3e d010 82bc 0435 1e3e
00000350: 905a 4d3e 1607 c3be dade b8be 6501 a73e
00000360: a2b5 c33d 568f 9d3e ca6b d2bd f06d bb3c
00000370: 9cc9 8ebd 472d 80be 2403 03be 186a a8bd
00000380: 2021 183e d0c9 d7bd 7a84 90be ae08 36be
00000390: fab3 42be 1c52 a6be f0f3 8a3e fcf7 a0bd
000003a0: 1240 b83e fc9a 99bd 78cf 15be e4c2 b3be
000003b0: 302e 363e f498 8dbd 6410 463e e49a 2b3e
000003c0: a2b6 c3be f8f7 24bd ceb5 843e e051 8bbd
000003d0: 6881 653d b01b ab3e fa84 10be bcb0 bfbd
000003e0: 2f4c 1dbe 7ae8 75be 6e02 aa3e 84f9 693e
000003f0: cc03 b0be f08b 8dbe 3049 febc 1c25 ba3d
-0.011222899 -0.02313204 0.21878946 0.20473598 -0.0053659678 0.0025521389 0.15463762 -0.04286551
-0.35980636 0.12845883 -0.19562837 -0.32376805 -0.17374496 -0.20573278 0.19141573 0.091202036
-0.015951416 0.38787374 0.08442865 -0.21299408 0.30188978 -0.05251467 0.1422652 -0.15899263
0.08026144 0.31563 -0.057531826 -0.038311463 0.15907662 0.19097686 -0.30901533 -0.28493226
-0.20079775 0.15358338 0.34848195 -0.058477234 -0.3848308 0.17851925 0.24253635 0.17736065
0.2000165 0.11781545 -0.380367 0.31921706 -0.28310737 -0.3071334 0.0744718 0.00624014
-0.24526824 -0.3000095 -0.2016534 -0.24847807 0.10954532 -0.29271883 -0.073513985 0.048550986
0.34552708 0.32364663 0.1256395 -0.0017716289 0.38047564 0.27059838 -0.13524038 0.08307389
0.321109 0.2183913 -0.2799416 0.062273875 -0.023523524 0.29047823 -0.10984939 -0.17695417
-0.06947264 -0.09690449 -0.06831175 0.3689528 -0.1253159 -0.21581559 0.25046134 0.3834654
0.1935376 -0.061349798 0.15325725 -0.10718403 -0.060806096 -0.0324694 -0.13323313 0.19514884
-0.09191843 0.29610333 0.02796176 0.36126179 -0.074917585 0.3300652 -0.028326362 0.085769884
-0.15510647 -0.3727954 0.15672165 0.15729487 0.18679583 -0.10680463 0.2234754 -0.028359024
0.3525306 -0.16183561 0.24041516 0.026064564 -0.10738508 0.1299029 0.34271944 0.3637405
0.37845623 -0.3357848 0.28407586 0.1966789 0.3861443 0.018117087 -0.23582534 0.12275612
0.36780816 0.21735136 -0.01740855 -0.3306494 0.23450416 -0.31784245 -0.23385848 0.22067615
-0.058185216 -0.3228314 -0.22569546 0.020567983 0.1759277 -0.13671532 0.16691655 0.020508775
0.13312875 0.036495447 0.13478847 0.2582512 0.08272132 0.31502676 0.36544895 0.07959545
0.08635166 -0.21618056 0.32178247 -0.08905679 0.31079268 0.04853326 0.06622797 -0.004858136
0.10195279 0.19824034 -0.28996667 -0.23671563 -0.29360673 -0.2662661 -0.15422115 0.3843925
0.34342605 -0.08945565 0.22259188 -0.38235718 0.36499166 -0.0072680884 -0.1057074 0.21847998
0.0386049 -0.19539511 0.027965099 0.3129542 -0.24332356 0.34086424 -0.35852206 -0.38355365
-0.10414886 0.30448344 0.056897085 -0.12196678 0.10406795 0.38727555 0.26484418 -0.23848726
0.16856813 -0.32649574 -0.2948791 0.23019813 -0.047833566 0.18291675 -0.22854066 -0.20548044
0.23084539 -0.03641408 0.09007588 -0.1802407 0.14750464 0.2462837 -0.30715507 -0.17279544
-0.01239565 0.052181236 -0.25726095 0.23755872 0.2462632 -0.37398833 0.27884123 -0.07534975
0.1687744 0.37381148 -0.015877157 0.15449911 0.20054078 -0.38091344 -0.36107522 0.3261825
0.09556128 0.3077342 -0.102744654 0.02287957 -0.06972048 -0.25034544 -0.12794167 -0.08223361
0.14856386 -0.105365396 -0.28226072 -0.17776749 -0.19013968 -0.3248452 0.27139235 -0.07859799
0.35986382 -0.07500264 -0.14629924 -0.35109627 0.17791057 -0.06913939 0.1934219 0.16758305
-0.38225275 -0.040275544 0.25919956 -0.06802726 0.056031615 0.3341956 -0.14113227 -0.09359881
-0.15361093 -0.24014464 0.3320498 0.22849089 -0.34377897 -0.27645826 -0.031040758 0.09089109

fc2.bias f4 [20]
00000000: fa61 433e a923 42be 5c33 52bd dff9 b93d
00000010: 4e46 243e 1d16 ee3d f3e4 123d b835 3abe
00000020: 01d2 013e a468 8cbd 3306 413e 444a f13d
00000030: 84e5 103e 57b5 44bd 5083 803c 2603 92bd
00000040: 44d7 b1bd f808 31be 1de3 433e d598 63be
0.19080344 -0.18958916 -0.05131851 0.09080862 0.16042444 0.116253115 0.035862874 -0.18184555
0.12677766 -0.06855896 0.18850021 0.11781743 0.14150053 -0.0480245 0.015687615 -0.07129507
-0.08683637 -0.17288578 0.19129606 -0.2222627

fc3.weight f4 [1, 20, 1]
00000000: f388 343e 3ebb c6be a902 05be 4825 cdbd
00000010: bf09 84be 2dad 9f3e dd3f 733e 0eb7 ff3e
00000020: 1341 04be 93d5 0f3e be61 103e 0556 033f
00000030: e8de 183e 2e98 f93e 2e85 f13e 883a aa3e
00000040: 4e92 b43e 22c9 cdbd 8814 df3c e069 c63d
0.17630367 -0.3881473 -0.12989296 -0.100168765 -0.25788686 0.3118681 0.2375483 0.49944347
-0.12915449 0.14046316 0.14099786 0.5130313 0.14928782 0.48748916 0.4717192 0.3324778
0.35267872 -0.10048129 0.02723147 0.09688163
