Task assignment/drl4vrp/vrp/10/20_05_18.844960/checkpoints/0/actor.pt (torch, 734651 bytes, 14 tensors)

static_encoder.conv.weight f4 [128, 2, 1]
0.107719734 0.07352952 0.09409807 -0.095580816 -0.16253775 -0.07915361 -0.045971926 -0.058383267
0.06713648 -0.13251445 0.082706966 0.16378915 0.21050158 -0.13686335 0.101670064 -0.08613465
-0.06832974 -0.11254639 0.15285437 0.20921305 0.101724796 -0.124092355 -0.05953612 -0.023136526
0.13797489 -0.13021408 -0.12399346 0.09008265 -0.1467373 -0.11791137 0.011426048 0.124223754
-0.13481282 -0.12031264 -0.17128956 -0.08517612 0.07515861 0.028784389 -0.030234294 -0.048412297
0.027174413 0.018661356 0.07143096 0.015168316 -0.084712505 0.12454133 -0.002726824 -0.13359202
-0.15922739 0.16674438 0.12483618 -0.006259344 -0.038408585 -0.14934577 0.121117346 -0.03874121
0.08187136 -0.18988296 0.048949003 -0.15984757 0.009160337 0.109104574 -0.06604897 -0.010943468
-0.13732585 0.19881617 0.1787625 0.17389253 -0.19292529 0.08532079 -0.13959853 -0.014417434
-0.020187454 -0.13964649 0.034367103 -0.08136819 0.05153309 0.16715993 -0.20302051 -0.1774322
-0.13672745 -0.03835545 0.16381738 0.14788927 0.057187233 0.14802891 -0.0967203 -0.05715447
-0.04010508 0.015897183 0.015618548 -0.120370515 -0.122675285 -0.020666754 -0.07455024 0.083007894
-0.0014804477 -0.07846768 -0.134818 0.11592838 0.07079252 0.10002514 -0.16999555 -0.14763051
0.12813197 -0.14564796 -0.026589256 0.08295187 0.20831993 -0.19879925 0.1344727 -0.18741865
-0.012104104 0.19026317 0.010353526 -0.17230478 -0.07540805 0.024052257 0.14016312 0.068616584
-0.08457859 0.0070720436 -0.15190448 0.17814486 0.0531275 0.15307654 0.09838041 0.070051566
0.094723284 -0.06949314 -0.11200074 -0.12564221 -0.06383473 -0.19691792 0.05956047 -0.008357521
0.005113029 -0.15231298 0.15674147 -0.06279698 -0.1976682 0.031665154 0.17775355 -0.079026245
0.00092970417 -0.14769667 -0.043737676 -0.18491808 -0.042432807 -0.10812522 -0.033244763 0.079789646
0.05320196 -0.11944268 0.0035660814 -0.14366014 -0.038169824 0.0967286 -0.014624498 -0.091102384
-0.14976095 -0.05808273 0.17118527 0.058471207 0.047293704 0.0013519678 0.20035276 -0.13752258
-0.20608002 -0.12977247 0.17199332 -0.11644596 0.20395938 0.020091578 0.15769725 -0.11241557
0.14635156 -0.058605783 0.21371588 -0.17246118 0.0655134 0.16445675 -0.084634006 0.15779051
0.075628966 0.20287967 0.17376846 -0.14398697 -0.034884434 0.12530647 -0.026536789 -0.10880277
-0.08935743 -0.16712105 -0.15233423 -0.19611703 0.006367932 -0.1596124 -0.01456506 -0.036109522
-0.103031114 0.20278622 0.054281265 0.038694832 -0.071099356 -0.020481106 0.19867605 0.048419178
0.057132635 0.09665861 0.06369051 -0.058425173 0.033221375 0.18353859 -0.16012758 -0.06216912
0.18193585 0.03531404 -0.11977024 -0.08351091 -0.15755469 -0.01899432 0.1796449 0.06116456
0.08639676 0.19495247 0.13026156 -0.17253098 -0.043818373 -0.0601819 0.03088081 -0.16751029
-0.0065197325 0.17229807 -0.17433438 0.007186488 -0.09434339 0.027841944 -0.016431347 -0.08592457
0.04511971 0.18452989 -0.012750279 -0.01135486 -0.08604093 -0.017434573 0.035111357 -0.05601947
-0.07476863 -0.030805472 0.13869996 0.18642999 0.14958397 0.1824771 0.2055991 0.06595044
00000000: 2a9c dc3d a596 963d 7db6 c03d e0bf c3bd
00000010: 4c70 26be 4a1b a2bd 0f4d 3cbd 4b23 6fbd
00000020: da7e 893d deb1 07be 4562 a93d 58b8 273e
00000030: ba8d 573e e825 0cbe 6538 d03d 5d67 b0bd
00000040: 76f0 8bbd b97e e6bd db85 1c3e f23b 563e
00000050: 1755 d03d 2224 febd 26dc 73bd d088 bdbc
00000060: 4a49 0d3e d756 05be 48f0 fdbd 417d b83d
00000070: 4e42 16be 847b f1bd 5234 3b3c 0669 fe3d
00000080: 5f0c 0abe 7966 f6bd 8866 2fbe d170 aebd
00000090: c2ec 993d 3dcd eb3c e9ad f7bc f94b 46bd
000000a0: e09c de3c b3df 983c 654a 923d 8784 783c
000000b0: c07d adbd 860f ff3d 84b4 32bb 59cc 08be
000000c0: 810c 23be 0abf 2a3e 1caa ff3d 2f1b cdbb
000000d0: 5252 1dbd 19ee 18be 5f0c f83d 1aaf 1ebd
000000e0: 2cac a73d ae70 42be c07e 483d 15af 23be
000000f0: 3d15 163c 3872 df3d af44 87bd 3b4c 33bc
00000100: 269f 0cbe 7796 4b3e 840d 373e e210 323e
00000110: 358e 45be abbc ae3d ebf2 0ebe 1a37 6cbc
00000120: 2960 a5bc 7dff 0ebe 85c4 0c3d 5ea4 a6bd
00000130: 5d14 533d f92b 2b3e 9ce4 4fbe c9b0 35be
00000140: 4802 0cbe 9b1a 1dbd bebf 273e 4970 173e
00000150: 293d 6a3d e494 173e 4b15 c6bd ce1a 6abd
00000160: 3945 24bd cf3a 823c f0e4 7f3c d184 f6bd
00000170: 2e3d fbbd 534d a9bc ccad 98bd 0b00 aa3d
00000180: 950b c2ba aab3 a0bd bb0d 0abe dc6b ed3d
00000190: abfb 903d fbd9 cc3d 5013 2ebe 742c 17be
000001a0: 0735 033e bd24 15be b6d1 d9bc ace2 a93d
000001b0: d251 553e 0892 4bbe 36b3 093e adea 3fbe
000001c0: 4b50 46bc 59d4 423e d6a1 293c aa70 30be
000001d0: 896f 9abd 3d09 c53c ec86 0f3e da86 8c3d
000001e0: 8a37 adbd 9abc e73b d98c 1bbe 9b6b 363e
000001f0: 399c 593d 19c0 1c3e ab7b c93d 3277 8f3d
00000200: 48fe c13d 6b52 8ebd a560 e5bd 5aa8 00be
00000210: c8bb 82bd daa4 49be aef5 733d fced 08bc
00000220: 328b a73b eff7 1bbe d680 203e b49b 80bd
00000230: 8869 4abe 52b3 013d 0705 363e 83d8 a1bd
00000240: 64b7 733a cc3d 17be 4726 33bd 2a5b 3dbe
00000250: 06ce 2dbd c170 ddbd a92b 08bd c168 a33d
00000260: 4cea 593d 5d9e f4bd ebb4 693b a51b 13be
00000270: f657 1cbd a519 c63d 979b 6fbc e393 babd
00000280: ef5a 19be 28e8 6dbd 314b 2f3e 817f 6f3d
00000290: 0bb7 413d 8334 b13a 4629 4d3e b8d2 0cbe
000002a0: a406 53be 13e3 04be 041f 303e 387b eebd
000002b0: bada 503e 1897 a43c 637b 213e 223a e6bd
000002c0: 2fdd 153e 9e0c 70bd 56d8 5a3e aa99 30be
000002d0: e42b 863d 5a67 283e 9854 adbd d693 213e
000002e0: 5ce3 9a3d b0bf 4f3e 5cf0 313e 5271 13be
000002f0: fbe2 0ebd 5750 003e ae63 d9bc fdd3 debd
00000300: 0701 b7bd c821 2bbe 81fd 1bbe e7d2 48be
00000310: 16aa d03b 6f71 23be 4aa2 6ebc 94e7 13bd
00000320: fa01 d3bd 31a7 4f3e 0856 5e3d 797e 1e3d
00000330: 8a9c 91bd fec7 a7bc bc71 4b3e 3053 463d
00000340: e903 6a3d f3f4 c53d 2c70 823d 3c4f 6fbd
00000350: 2313 083d 8af1 3b3e 7cf8 23be 0ca5 7ebd
00000360: 644d 3a3e 74a5 103d 194a f5bd c507 abbd
00000370: 0456 21be fa99 9bbc d5f4 373e b187 7a3d
00000380: c9f0 b03d 9fa1 473e 4963 053e f6ab 30be
00000390: e57a 33bd 4c81 76bd c1f9 fc3c d187 2bbe
000003a0: 7ba3 d5bb e86e 303e b684 32be a17c eb3b
000003b0: 1b37 c1bd ca14 e43c 089b 86bc 39f9 afbd
000003c0: 72cf 383d 67f5 3c3e 8ce6 50bc bc09 3abc
000003d0: 3a36 b0bd f3d2 8ebc edd0 0f3d ac74 65bd
000003e0: 4c20 99bd c25b fcbc 5d07 0e3e 81e7 3e3e
000003f0: 8a2c 193e 47db 3a3e 9288 523e 0611 873d

static_encoder.conv.bias f4 [128]
0.6634516 0.41102055 -0.70362043 -0.07288022 -0.27987874 0.32593778 -0.05074804 0.3158352
-0.5973017 0.12506302 0.60889786 -0.2863782 -0.02826392 0.11556497 0.6478146 -0.5997087
0.40485585 0.2025477 -0.4804695 0.67643183 0.44401053 0.40772718 0.3011613 0.2637335
-0.09760661 0.5324998 0.68928057 0.5501625 0.34111384 0.04542412 0.14058673 -0.0027958103
-0.15243939 0.6234005 0.23318063 0.4753089 0.18876633 -0.2904706 -0.55726767 0.06250421
0.35986215 -0.07932432 0.11158371 0.3793133 0.0027994504 -0.2670601 -0.6043583 0.027401159
-0.28280938 0.39793494 0.103517294 -0.38828462 -0.49098733 -0.4725897 0.30882484 0.6964231
0.37210727 0.6823309 0.5691394 0.12080479 -0.53075486 0.5493749 0.59811693 -0.37988812
-0.6994157 -0.50356305 -0.3070819 -0.64809877 0.6738846 0.16168505 -0.2727895 -0.20206796
-0.65409845 0.29527506 -0.08536438 -0.34522834 -0.4071568 0.033946224 0.2193885 -0.22729164
0.3090841 0.059564166 0.6369021 0.21659496 0.40607098 0.32147408 0.2393085 0.5456095
0.5092747 -0.11123325 0.48252177 -0.65585315 -0.37679017 -0.5766553 -0.32507288 0.41101164
0.24531494 0.6300796 0.076509416 -0.45783806 -0.22059226 -0.13225448 -0.42255113 0.5119806
0.0024818664 -0.084475406 0.074055225 -0.17934893 0.54934907 0.22209573 0.046217527 -0.4241941
-0.31476542 -0.6447121 0.011884705 -0.2557431 -0.23084989 0.051471315 0.5122328 -0.2932341
0.4084584 -0.13826282 -0.6628888 -0.5984372 -0.19433962 0.5356213 -0.6975897 -0.48444924
00000000: f7d7 293f 4971 d23e 7820 34bf 3a42 95bd
00000010: 444c 8fbe 51e1 a63e 2ddd 4fbd 27b5 a13e
00000020: c4e8 18bf 8510 003e bbe0 1b3f 2aa0 92be
00000030: bd89 e7bc 54ad ec3d 2dd7 253f 8286 19bf
00000040: 4449 cf3e aa68 4f3e 1900 f6be a32a 2d3f
00000050: 5955 e33e 9ec1 d03e d031 9a3e 1408 873e
00000060: f9e5 c7bd e851 083f b174 303f 73d7 0c3f
00000070: 79a6 ae3e a40e 3a3d f8f5 0f3e ea39 37bb
00000080: 1219 1cbe 2d97 1f3f e7c6 6e3e b05b f33e
00000090: f64b 413e 90b8 94be 18a9 0ebf 3502 803d
000000a0: da3f b83e ca74 a2bd 0086 e43d 5a35 c23e
000000b0: fc76 373b 1abc 88be 3ab7 1abf 6578 e03c
000000c0: 64cc 90be 21be cb3e e000 d43d 3ecd c6be
000000d0: b162 fbbe 47f7 f1be 4a1e 9e3e c948 323f
000000e0: d884 be3e 3dad 2e3f 1fb3 113f 8068 f73d
000000f0: 8ddf 07bf d5a3 0c3f 311e 193f b280 c2be
00000100: e80c 33bf 82e9 00bf d739 9dbe cde9 25bf
00000110: b383 2c3f c490 253e 11ab 8bbe e7ea 4ebe
00000120: ff72 27bf 4b2e 973e 85d3 aebd c5c1 b0be
00000130: db76 d0be 320b 0b3d 61a7 603e 24bf 68be
00000140: 4540 9e3e 8ef9 733d 040c 233f 12cb 5d3e
00000150: 89e8 cf3e 4098 a43e 4a0d 753e 10ad 0b3f
00000160: d45f 023f 42ce e3bd 180d f73e fee5 27bf
00000170: a4ea c0be af9f 13bf f46f a6be 1e70 d23e
00000180: d733 7b3e e64c 213f f8b0 9c3d c069 eabe
00000190: f0e2 61be b86d 07be 9f58 d8be 2911 033f
000001a0: cfa6 223b 7101 adbd 44aa 973d 3fa7 37be
000001b0: 24a2 0c3f 106d 633e 974e 3d3d f82f d9be
000001c0: ef28 a1be da0b 25bf 11b8 423c c2f0 82be
000001d0: ea63 6cbe 96d3 523d b021 033f c822 96be
000001e0: 7621 d13e c594 0dbe 15b3 29bf 2e33 19bf
000001f0: f700 47be 7a1e 093f 3d95 32bf bb09 f8be

dynamic_encoder.conv.weight f4 [128, 2, 1]
-0.14175828 0.1412537 0.052142546 0.13562159 -0.0076376204 0.023818884 -0.20236114 0.19810428
0.2028206 0.028879667 0.031497274 0.030797515 0.12880906 -0.19040348 -0.18429181 0.14308928
0.0013174886 0.13475679 -0.02271316 -0.07224927 -0.20604663 -0.094552666 -0.14584424 0.1123676
0.12949602 0.084529705 -0.07415823 0.047112163 -0.19552238 -0.18898684 -0.12053156 -0.13022488
0.16122568 0.105123915 -0.109924175 0.19024879 0.14698341 0.09018273 0.1997401 -0.0458948
0.120391004 0.1967327 -0.17538187 -0.14947154 -0.20703734 0.006618912 0.15823242 0.11667949
0.066926934 -0.12074077 0.07021367 0.13784264 -0.17780422 0.011588605 0.061891943 0.189177
-0.05845439 0.16532554 -0.11063164 -0.13919604 -0.12637363 0.17589441 0.17523445 -0.06884018
-0.18543507 -0.10233028 -0.11963052 -0.062615894 -0.045766223 -0.07491236 0.17608207 0.06358619
-0.19022973 0.027276684 -0.0718667 0.20592298 0.18770799 -0.16279706 0.006325305 -0.13395056
-0.026609844 -0.09479195 0.0047556516 -0.14522761 -0.07314549 -0.15162772 0.11676357 0.011985258
0.042631786 0.14687811 0.18771203 -0.16754486 -0.012151233 0.1820765 -0.13790488 0.104071185
-0.03969498 -0.060571127 -0.08990036 -0.15430854 -0.059669472 0.1661204 0.016076332 -0.09124796
0.12088354 0.056939837 0.033239707 0.19378139 0.20760636 0.1196568 -0.0047346153 -0.15893348
0.09197874 -0.101894416 0.20456028 0.11992442 -0.19779834 0.049267814 -0.15262601 -0.16873969
0.035323173 0.12462851 -0.12962243 0.16972049 -0.019601958 0.047260802 -0.037709504 -0.065971516
0.024146654 -0.0890155 0.17635313 -0.19128865 -0.018213773 0.13295509 -0.20957354 -0.1047712
-0.21241316 0.18067586 -0.20137306 0.05508723 0.02733723 0.10719935 0.20607999 -0.2114313
-0.18166022 0.17086372 0.004140321 -0.0066515966 -0.1492962 0.14869025 -0.17586839 -0.1453841
0.013994768 0.12463373 -0.03085145 -0.10532307 0.20574233 -0.024966285 0.066662624 -0.14686693
-0.0048249345 0.04852992 -0.067370474 -0.024143606 0.14559169 0.10944564 -0.17157233 0.12005096
-0.10834852 -0.049341273 -0.032690667 -0.014267945 0.08163887 0.20223853 -0.20620678 0.10588106
0.1024354 0.038338922 -0.025039602 -0.12233926 0.0418123 0.010095453 0.17768882 -0.14364527
0.15455382 -0.1317666 -0.21365242 -0.15293589 0.052878257 -0.02860503 -0.09943771 0.14239821
-0.17351252 -0.035873096 -0.18818884 0.10712283 -0.03194725 -0.060589816 -0.18297969 -0.12762134
-0.08370182 -0.178115 0.19573164 -0.15864167 0.2052268 0.018890565 -0.009132718 0.15068348
-0.0030343875 -0.1926978 0.0010510731 0.0036582027 0.09715355 -0.0017917635 0.1751902 -0.090512365
0.1593958 0.021069998 -0.0549219 -0.16245708 -0.17623544 0.00075378385 0.20220158 -0.07782173
0.115083724 -0.08569728 0.050518777 -0.025260974 -0.11527145 0.19625926 -0.07912115 0.17932357
-0.086279675 0.023170142 0.0390533 0.103675894 0.0546112 -0.11133073 -0.060657144 -0.05931507
0.13952743 0.14065194 -0.13991354 0.08474024 0.17708363 -0.18737309 0.08656346 0.02098382
-0.054317225 0.16737606 -0.058532525 0.17832248 0.10617511 -0.0011197643 -0.119291075 0.11457214
00000000: 1529 11be cfa4 103e 6c93 553d 63e0 0a3e
00000010: 0145 fabb d21f c33c c237 4fbe d9db 4a3e
00000020: 34b0 4f3e 0d95 ec3c 4903 013d 124b fc3c
00000030: 86e6 033e 21f9 42be feb6 3cbe ff85 123e
00000040: 95af ac3a affd 093e f310 babc 6df7 93bd
00000050: e3fd 52be d4a4 c1bd 3158 15be fc20 e63d
00000060: 9b9a 043e e91d ad3d 45e0 97bd aff8 403d
00000070: 0537 48be c485 41be 40d9 f6bd ac59 05be
00000080: 5818 253e 354b d73d ed1f e1bd 94d0 423e
00000090: d282 163e b9b1 b83d ab88 4c3e 30fc 3bbd
000000a0: 8f8f f63d 4c74 493e 4e97 33be 110f 19be
000000b0: 9901 54be 75e3 d83b ae07 223e a8f5 ee3d
000000c0: fd10 893d f046 f7bd 2fcc 8f3d 9f26 0d3e
000000d0: 4f12 36be 22de 3d3c 6882 7d3d 9eb7 413e
000000e0: df6d 6fbd 194b 293e d792 e2bd 6889 0ebe
000000f0: 1768 01be aa1d 343e a970 333e 15fc 8cbd
00000100: b1e2 3dbe 8a92 d1bd d900 f5bd c33c 80bd
00000110: 5d75 3bbd a76b 99bd dc4e 343e 7a39 823d
00000120: 95cb 42be 5a73 df3c d92e 93bd 79dd 523e
00000130: 8636 403e 46b4 26be 8144 cf3b 562a 09be
00000140: e3fc d9bc 4822 c2bd 4cd5 9b3b 8cb6 14be
00000150: 4dcd 95bd 4c44 1bbe bd21 ef3d d15d 443c
00000160: ab9e 2e3d 3767 163e 9537 403e e190 2bbe
00000170: f715 47bc 4372 3a3e f036 0dbe 4623 d53d
00000180: 3497 22bd 6e19 78bd ae1d b8bd 0f03 1ebe
00000190: fa67 74bd 771b 2a3e 83b2 833c 36e0 babd
000001a0: ca91 f73d bf39 693d 5c26 083d a16e 463e
000001b0: c396 543e a00e f53d d524 9bbb 75bf 22be
000001c0: 5a5f bc3d 05ae d0bd 4078 513e ef9a f53d
000001d0: a68b 4abe 0ccd 493d fe49 1cbe 19ca 2cbe
000001e0: 08af 103d 3b3d ff3d bebb 04be 35cb 2d3e
000001f0: 4994 a0bc 8b94 413d 4875 1abd 131c 87bd
00000200: 34cf c53c c24d b6bd ea95 343e 2ce1 43be
00000210: 0d35 95bc 6125 083e 729a 56be 4892 d6bd
00000220: d682 59be 1803 393e bd34 4ebe 26a3 613d
00000230: 54f2 df3c 558b db3d a206 533e 7281 58be
00000240: 2305 3abe e6f6 2e3e 88ab 873b a3f5 d9bb
00000250: 1ae1 18be 4242 183e d816 34be 92df 14be
00000260: 504a 653c f83f ff3d 2ebc fcbc 9fb3 d7bd
00000270: 1eae 523e 1886 ccbc 6a86 883d 4964 16be
00000280: 7c1a 9ebb 4fc7 463d 88f9 89bd d0c8 c5bc
00000290: fd15 153e 0925 e03d a8b0 2fbe 47dd f53d
000002a0: d4e5 ddbd 131a 4abd a6e6 05bd 19c4 69bc
000002b0: 4832 a73d 9e17 4f3e df27 53be 2bd8 d83d
000002c0: a7c9 d13d 4609 1d3d da1f cdbc 028d fabd
000002d0: 6043 2b3d 6667 253c 0ff4 353e bf17 13be
000002e0: 5b43 1e3e d3ed 06be b3c7 5abe 3a9b 1cbe
000002f0: df96 583d 1955 eabc 00a6 cbbd d6d0 113e
00000300: 44ad 31be abef 12bd 93b4 40be 3763 db3d
00000310: 1fdb 02bd 072d 78bd 075f 3bbe 2baf 02be
00000320: dc6b abbd c763 36be e06d 483e f672 22be
00000330: f926 523e 63c0 9a3c 65a1 15bc c54c 1a3e
00000340: 93dc 46bb 9252 45be 29c4 893a 75be 6f3b
00000350: 71f8 c63d 9bd9 eaba 0f65 333e 8c5e b9bd
00000360: a738 233e fd9a ac3c c9f5 60bd 265b 26be
00000370: 1077 34be 9499 453a ee0d 4f3e 0061 9fbd
00000380: 04b1 eb3d 0e82 afbd c7ec 4e3d 1af0 cebc
00000390: 7013 ecbd 30f8 483e 450a a2bd 99a0 373e
000003a0: 66b3 b0bd 4fcf bd3c 5af6 1f3d 0754 d43d
000003b0: feaf 5f3d 5e01 e4bd a073 78bd 5cf4 72bd
000003c0: 47e0 0e3e 1007 103e 7f45 0fbe 4a8c ad3d
000003d0: 6955 353e bbde 3fbe 2f48 b13d 43e6 ab3c
000003e0: bd7b 5ebd a164 2b3e cdbf 6fbd 2b9a 363e
000003f0: 5672 d93d 0ec5 92ba e14e f4bd cca4 ea3d

dynamic_encoder.conv.bias f4 [128]
0.21151106 -0.47628325 -0.43203154 0.3071347 0.6734006 0.49701905 0.32012758 0.02998284
0.6397723 0.106892735 0.009343852 -0.5933221 0.34891194 -0.18385719 -0.061917905 0.08364537
-0.36671212 0.5694486 -0.4865771 -0.6646726 0.23648556 -0.45551842 0.64320153 -0.1635559
0.25908503 -0.20086972 0.23651974 -0.06553735 -0.3438668 0.11158062 0.24666707 0.28620654
-0.50925756 0.10824517 0.53637624 0.574473 -0.32255274 0.6104838 -0.041573904 0.5033765
0.5771139 0.21422866 -0.49906176 -0.58724594 0.21287227 -0.051176466 -0.16599852 -0.1999363
0.44653067 0.60669893 -0.04602189 -0.39704248 0.70039904 -0.45452926 -0.48735058 -0.48769498
-0.40244368 0.4133918 0.0927727 0.16082238 -0.6870288 0.20420663 0.08763073 0.6193121
0.62232983 -0.36066553 0.03138793 0.29702318 0.61336124 0.058782127 0.008186055 -0.4107856
-0.048695277 -0.5633339 -0.6704293 -0.62244004 -0.013401664 0.27412015 0.30274144 -0.10625383
0.61152095 0.027976695 -0.4433735 0.08978805 -0.5776808 0.0707346 -0.57729405 0.4651255
0.56552356 0.17477949 -0.11888621 0.48725444 -0.17875713 -0.366215 -0.30868736 0.26439515
0.5989721 -0.4110017 -0.22803289 -0.49147373 0.655034 -0.00063933537 -0.58046895 0.040521685
-0.69296736 0.041199442 0.3845855 -0.65350014 -0.580483 0.012450713 -0.09892415 -0.38977522
0.6568089 -0.3604965 0.5717797 -0.40125534 0.024215922 0.078954704 0.6367265 0.10067041
0.5179025 0.35962138 -0.2412171 0.21992576 0.21888618 0.3372555 0.41701296 0.3212716
00000000: 5b96 583e 66db f3be 3d33 ddbe c240 9d3e
00000010: fb63 2c3f 4879 fe3e c3e7 a33e 939e f53c
00000020: 1ec8 233f 94ea da3d f516 193c f5e3 17bf
00000030: 96a4 b23e 0f45 3cbe a19d 7dbd 444e ab3d
00000040: b1c1 bbbe 62c7 113f a220 f9be fc27 2abf
00000050: 4529 723e b639 e9be dba8 243f 337b 27be
00000060: cba6 843e cbb0 4dbe 3b32 723e 7238 86bd
00000070: 4f0f b0be 6184 e43d 4b96 7c3e aa89 923e
00000080: b45e 02bf a5af dd3d f44f 093f aa10 133f
00000090: a225 a5be ab48 1c3f 6649 2abd 48dd 003f
000000a0: bdbd 133f c25e 5b3e 0685 ffbe c055 16bf
000000b0: 30fb 593e 6a9e 51bd 84fb 29be 1abc 4cbe
000000c0: ab9f e43e 9f50 1b3f 7381 3cbd 2749 cbbe
000000d0: 5a4d 333f 0fb8 e8be 0486 f9be 28b3 f9be
000000e0: 190d cebe 17a8 d33e 9dff bd3d 9fae 243e
000000f0: 1fe1 2fbf 8b1b 513e bd77 b33d 3d8b 1e3f
00000100: 0251 1f3f 27a9 b8be a190 003d 6c13 983e
00000110: 3e05 1d3f 87c5 703d ce1e 063c 7d52 d2be
00000120: b374 47bd a736 10bf 41a1 2bbf 3b58 1fbf
00000130: a792 5bbc 7a59 8c3e ed00 9b3e 9c9b d9bd
00000140: a38c 1c3f 622f e53c da01 e3be cce2 b73d
00000150: e4e2 13bf 4ddd 903d 8bc9 13bf ee24 ee3e
00000160: 27c6 103f 65f9 323e 9d7a f3bd 6a79 f93e
00000170: 1c0c 37be 8880 bbbe 450c 9ebe cd5e 873e
00000180: 3c56 193f d16e d2be 7481 69be 72a2 fbbe
00000190: 4fb0 273f 1299 27ba 9d99 14bf 11fa 253d
000001a0: 4f66 31bf bfc0 283d 64e8 c43e c94b 27bf
000001b0: 899a 14bf 13fe 4b3c bf98 cabd 9e90 c7be
000001c0: a124 283f ff92 b8be 2860 123f 5771 cdbe
000001d0: 7860 c63c 01b3 a13d 8200 233f 4a2c ce3d
000001e0: 4295 043f 4b20 b83e 9e01 77be 3834 613e
000001f0: b323 603e c1ac ac3e b982 d53e b67d a43e

decoder.conv.weight f4 [128, 2, 1]
0.007273335 -0.16343988 -0.21278495 -0.15562941 -0.1227464 -0.026701165 0.13591549 0.18554048
-0.036438253 0.10868129 0.049203154 -0.18207848 0.08410566 0.20600669 -0.18146569 -0.0645373
0.089253016 0.06990322 -0.1191318 -0.06608126 -0.097416654 -0.1107843 0.1719288 -0.183405
-0.02275636 0.12410428 0.1459109 0.06477759 -0.13139646 0.0063257245 -0.18882672 -0.121541455
0.031188706 -0.17383532 0.16204506 0.19174094 0.062242042 0.10164148 -0.112362936 -0.042038124
0.18837865 0.016340839 0.057746213 -0.08124679 0.077093214 -0.011958715 0.21050045 -0.09017317
0.06537512 0.21224953 -0.11194245 -0.010894084 0.15639813 -0.019027675 -0.060202286 0.0012364502
-0.07837086 0.10441785 0.17072892 0.12925248 -0.025265524 -0.21111105 -0.044377036 0.1086233
-0.12294179 -0.1517098 0.07244113 -0.13123825 0.077220194 -0.14926724 0.07980347 0.053868696
0.17086315 -0.036885142 -0.11694042 0.18578205 0.17453696 0.17303593 0.047924485 -0.092092745
0.1286386 -0.191594 0.032318544 0.0037998692 0.20267285 0.16239965 -0.09432412 -0.08071238
0.00963629 0.14744096 -0.1250828 0.10132652 -0.14829896 -0.16687319 -0.19489646 -0.16037224
-0.17174466 -0.13513839 0.0022850782 -0.020420661 0.20844635 -0.1555004 -0.048164383 0.15538515
0.17214513 0.18168649 -0.1286606 0.039904837 -0.1879338 0.18885832 0.17569253 0.07187758
-0.14147118 -0.05939345 -0.17678876 -0.17296542 0.19308953 -0.10628364 -0.039739978 0.20202817
0.1759031 0.19358197 0.18901257 -0.106073044 -0.124598846 0.042974327 0.19692098 0.0257647
0.047395106 0.18618686 0.06195756 -0.05724898 -0.00022404255 -0.111644894 -0.10348807 0.05595711
0.0013408946 -0.037659664 -0.027598888 0.13338052 0.17509855 -0.14791709 -0.13315666 -0.19894877
-0.08066574 -0.20329447 -0.018742051 0.11946998 0.20607746 0.059932772 0.17799176 0.006407444
0.022296863 0.003043179 -0.16607825 0.206785 -0.002678276 -0.147199 0.1003312 0.14397827
-0.15461294 -0.079154335 -0.04571665 -0.18033755 0.18415068 -0.1147729 0.12080611 0.0801633
-0.18091898 -0.18369392 -0.14253135 0.05793135 -0.14699431 -0.038108163 0.06640318 -0.18550031
0.07076646 0.19065058 -0.024068752 -0.1637718 -0.08350834 -0.014352846 0.19439314 -0.19413216
0.12608206 -0.16395636 -0.13317333 0.09974138 0.1763605 0.10737476 0.12143 -0.08190115
0.13474919 -0.062385008 -0.05818318 0.032601282 -0.15230273 0.15771776 -0.005944 -0.04334285
-0.024420803 0.15005872 0.029489039 -0.09613322 0.1205207 -0.08848346 -0.113985136 -0.20594479
-0.009489562 -0.16590238 0.13312332 -0.14988826 0.11723208 -0.06296164 -0.07716931 -0.05598571
0.04594365 0.20547535 0.14103559 -0.18198738 -0.13544093 0.11197153 -0.0058090836 -0.06266317
-0.10687722 -0.12056178 -0.07570733 -0.010929211 0.10263357 0.11371509 0.13320673 0.054325014
0.16163538 -0.074322835 -0.21303989 -0.012428347 0.1553369 0.19439505 0.110998794 0.008321935
-0.19685803 -0.0711186 0.21330552 0.08393119 -0.20094018 0.059878074 -0.08309827 -0.19951296
-0.072404705 0.0884227 -0.2055712 0.117386945 0.12404408 0.1055463 0.09811368 -0.037891056
00000000: 2855 ee3b c95c 27be 4ce4 59be 515d 1fbe
00000010: 7762 fbbd 67bc dabc 6e2d 0b3e 53fe 3d3e
00000020: 4740 15bd 4c94 de3d 3f89 493d c872 3abe
00000030: 973f ac3d 6bf3 523e 24d2 39be 222c 84bd
00000040: 49ca b63d 6b29 8f3d 60fb f3bd 9d55 87bd
00000050: 6282 c7bd e1e2 e2bd 1a0e 303e 85ce 3bbe
00000060: 8c6b babc 622a fe3d ab69 153e 1daa 843d
00000070: cb8c 06be 0648 cf3b cb5b 41be baea f8bd
00000080: 757f ff3c e301 32be 24ef 253e bd57 443e
00000090: 83f1 7e3d 6929 d03d 8a1e e6bd 2b30 2cbd
000000a0: 55e6 403e 39dd 853c 4b87 6c3d b864 a6bd
000000b0: 0ce3 9d3d 7cee 43bc 6e8d 573e b6ac b8bd
000000c0: 64e3 853d f157 593e 1542 e5bd 1a7d 32bc
000000d0: d526 203e eddf 9bbc ac96 76bd 6210 a23a
000000e0: e780 a0bd 07d9 d53d 90d3 2e3e c35a 043e
000000f0: a5f9 cebc 7f2d 58be b2c4 35bd e575 de3d
00000100: e8c8 fbbd d059 1bbe 045c 943d 5263 06be
00000110: 9f25 9e3d 83d9 18be 0070 a33d 6ca5 5c3d
00000120: c0f6 2e3e e014 17bd 757e efbd a63d 3e3e
00000130: d1b9 323e 5530 313e 774c 443d 1f9b bcbd
00000140: d6b9 033e 3831 44be 7360 043d 3a07 793b
00000150: 7989 4f3e 184c 263e 012d c1bd 884c a5bd
00000160: 88e1 1d3c c3fa 163e b515 00be 4784 cf3d
00000170: afdb 17be cee0 2abe f092 47be 9f38 24be
00000180: d5dd 2fbe b861 0abe 40c1 153b 3b49 a7bc
00000190: f672 553e 7f3b 1fbe 0448 45bd 491d 1f3e
000001a0: d046 303e 060c 3a3e 9bbf 03be 4173 233d
000001b0: b871 40be 1364 413e bee8 333e 8d34 933d
000001c0: d2dd 10be 8c46 73bd 1d08 35be d91d 31be
000001d0: 43b9 453e 3dab d9bd 63c6 22bd 79e0 4e3e
000001e0: f11f 343e 5a3a 463e 838c 413e d33c d9bd
000001f0: ae2d ffbd d905 303d a7a5 493e 7e10 d33c
00000200: 5f21 423d c5a7 3e3e 36c7 7d3d e87d 6abd
00000210: f7ec 6ab9 14a6 e4bd 8ef1 d3bd 4833 653d
00000220: f5c0 af3a 0541 1abd 1017 e2bc e794 083e
00000230: 094d 333e 9477 17be 385a 08be 3ab9 4bbe
00000240: 1434 a5bd 6d2c 50be ee88 99bc adac f43d
00000250: f805 533e 117c 753d 7943 363e 89f5 d13b
00000260: e9a7 b63c 1270 473b 6b10 2abe 72bf 533e
00000270: 0486 2fbb 56bb 16be 727a cd3d 0a6f 133e
00000280: db52 1ebe ab1b a2bd 6241 3bbd 68aa 38be
00000290: ff91 3c3e 0e0e ebbd 3269 f73d a82c a43d
000002a0: d342 39be 421a 3cbe bdf3 11be 6c49 6d3d
000002b0: ad85 16be 4e17 1cbd 64fe 873d cbf3 3dbe
000002c0: 01ee 903d e839 433e d52b c5bc cbb3 27be
000002d0: 6c06 abbd 3328 6bbc ff0e 473e 95ca 46be
000002e0: a81b 013e 2de4 27be 975e 08be 3545 cc3d
000002f0: d997 343e 4ce7 db3d 4bb0 f83d cabb a7bd
00000300: b1fb 093e 6c87 7fbd 7c51 6ebd ec88 053d
00000310: 3ff5 1bbe c480 213e e3c5 c2bb 4688 31bd
00000320: 230e c8bc fea8 193e ff92 f13c 7ee1 c4bd
00000330: 8fd3 f63d d136 b5bd 0a71 e9bd 31e3 52be
00000340: 1c7a 1bbc 50e2 29be 7b51 083e 4f7c 19be
00000350: 5f17 f03d 08f2 80bd f10a 9ebd 4651 65bd
00000360: 692f 3c3d 2168 523e a26b 103e e65a 3abe
00000370: 07b1 0abe 5451 e53d 205a bebb 8c55 80bd
00000380: 72e2 dabd 18e9 f6bd 720c 9bbd 6f10 33bc
00000390: 8d31 d23d 75e3 e83d 5867 083e e883 5e3d
000003a0: bf83 253e 9236 98bd 2127 5abe 44a0 4bbc
000003b0: a310 1f3e 7f0f 473e 5653 e33d ba58 083c
000003c0: 2795 49be a1a6 91bd c36c 5a3e 1ee4 ab3d
000003d0: 43c3 4dbe b642 753d 6d2f aabd 204d 4cbe
000003e0: eb48 94bd f616 b53d 4281 52be 9168 f03d
000003f0: d30a fe3d a928 d83d d3ef c83d a733 1bbd

decoder.conv.bias f4 [128]
-0.35674727 -0.2797485 0.2666577 -0.31341973 0.3018816 0.015744418 -0.59961045 0.23747262
-0.11647626 -0.49093273 0.22729652 0.21761575 -0.6660854 -0.38684136 0.630041 0.61213756
0.575234 0.09186473 -0.25825796 0.22525792 -0.026680658 0.5029894 0.19675325 0.32545283
-0.05545822 0.31573087 -0.29734087 0.61236984 -0.34343502 -0.25887483 0.5197683 0.037898395
0.5717893 0.33894366 0.64965594 0.15007043 -0.4073587 -0.42720503 -0.058453787 0.06467808
-0.6828488 0.54106736 0.513074 -0.01924486 -0.08701381 -0.6043254 -0.2652548 -0.45216888
-0.5523401 0.14774664 -0.32248732 0.5911234 0.38783208 -0.44481075 0.6507806 0.58428264
-0.59154433 0.011343051 -0.2533214 0.019700475 0.5286691 -0.39393556 0.3036034 -0.5699518
-0.33901072 -0.02758066 0.64740866 0.6037264 -0.12991089 -0.010365021 0.14459333 0.6495418
-0.4385345 0.5735571 0.62169 0.17578629 0.62735635 0.027484287 -0.5332622 -0.6063623
-0.043302726 -0.45760623 0.42036796 -0.03742159 0.62273365 -0.26829576 0.67149127 -0.41182005
-0.28159484 -0.37454647 0.36705524 -0.36313337 -0.42550108 -0.043347772 0.20777994 0.26141468
0.4836827 -0.65613806 -0.68449163 0.5487933 0.08225552 -0.45897183 0.53198785 0.4135209
-0.16326027 -0.36820245 0.059962247 -0.39175794 -0.32807097 0.66209346 -0.31179747 -0.4821913
-0.6507628 0.42868644 0.06460194 0.22190797 -0.38021275 -0.6321224 0.56610525 -0.25986338
0.20025328 0.6271714 -0.08577046 0.12994313 -0.16915461 -0.46424976 0.6145052 0.14791285
00000000: 94a7 b6be 323b 8fbe 5c87 883e 8d78 a0be
00000010: 3a90 9a3e 70fa 803c 1280 19bf 062c 733e
00000020: 1b8b eebd 895b fbbe 6bc0 683e aad6 5e3e
00000030: 9384 2abf 1210 c6be 5e4a 213f 0cb5 1c3f
00000040: 8942 133f 9323 bc3d 633a 84be 03aa 663e
00000050: 6591 dabc eac3 003f af79 493e c1a1 a63e
00000060: 2928 63bd 7aa7 a13e 103d 98be 45c4 1c3f
00000070: b7d6 afbe 3e8b 84be 890f 053f 593b 1b3d
00000080: c960 123f 068a ad3e da4f 263f 10ac 193e
00000090: 5291 d0be 9eba dabe 3d6d 6fbd f175 843d
000000a0: 2ecf 2ebf 6483 0a3f d158 033f 66a7 9dbc
000000b0: 4c34 b2bd 12b5 1abf 7acf 87be ae82 e7be
000000c0: 2966 0dbf e54a 173e 0f1d a5be dd53 173f
000000d0: ed91 c63e 3cbe e3be 8f99 263f 8c93 153f
000000e0: 736f 17bf 34d8 393c 58b3 81be e462 a13c
000000f0: dc56 073f ecb1 c9be e871 9b3e 5ce8 11bf
00000100: d092 adbe d6f0 e1bc 93bc 253f d08d 1a3f
00000110: 5c07 05be 0dd2 29bc 4610 143e 5f48 263f
00000120: 9887 e0be a3d4 123f 1327 1f3f 5201 343e
00000130: 6d9a 203f ba26 e13c df83 08bf 8f3a 1bbf
00000140: 335e 31bd 5d4b eabe 783a d73e 6247 19bd
00000150: 796b 1f3f 105e 89be dae6 2b3f 14da d2be
00000160: 332d 90be 8ec4 bfbe aaee bb3e 9eec b9be
00000170: 47db d9be 6f8d 31bd 44c4 543e 25d8 853e
00000180: 42a5 f73e aaf8 27bf d83a 2fbf b87d 0c3f
00000190: 9575 a83d 5bfe eabe 5b30 083f 03b9 d33e
000001a0: b32d 27be 0885 bcbe f99a 753d 7f94 c8be
000001b0: ebf8 a7be f57e 293f eba3 9fbe c7e1 f6be
000001c0: 6498 26bf ca7c db3e 064e 843d d83b 633e
000001d0: 3fab c2be c6d2 21bf 46ec 103f d00c 85be
000001e0: 320f 4d3e 4e8e 203f 6ca8 afbd d00f 053e
000001f0: de36 2dbe 25b2 edbe 3650 1d3f 7776 173e

pointer.v f4 [1, 1, 128]
-0.06416841 0.08600843 -0.0735404 -0.06697433 -0.10033811 -0.066925265 0.08688581 0.013748013
-0.07795857 -0.08879076 0.12746571 0.14576021 0.10070658 0.022629915 -0.062851146 0.14109208
-0.14844707 0.052867576 0.13016874 0.03514158 0.10237518 0.08056477 -0.11964236 0.08142249
-0.075139515 -0.12662297 -0.124369435 -0.09592959 0.0075437543 -0.06530263 0.14703149 0.016531277
0.14732625 -0.14322534 -0.025646292 -0.10356447 0.0973863 -0.04656909 0.06687685 -0.0013619323
0.11420963 0.038217172 -0.04230105 0.13564968 0.040871937 -0.14036874 0.1434666 -0.04099918
-0.08948934 0.034528002 0.046258006 -0.10334233 0.13917018 0.034883566 0.093822636 -0.07068115
0.094992876 0.020899814 -0.053361904 0.02819909 0.0049482584 0.10371941 0.056747332 -0.1301993
0.020898055 -0.0957306 0.14773883 -0.04175569 0.012772214 -0.14548913 -0.14363845 -0.14296857
-0.021697983 0.122406766 0.10945039 -0.07185916 0.1409668 -0.010454267 -0.08349901 0.14397427
0.12549196 0.13065656 -0.0042902282 -0.05249532 0.025605509 0.053428017 0.040434524 -0.08798801
0.07722629 0.13241108 0.0942738 -0.07141083 -0.06754674 -0.0038839916 0.0838685 0.123629086
-0.07420394 -0.08972469 -0.03661124 -0.13762955 -0.14737767 0.00920713 0.04724202 0.10536734
-0.123215266 -0.084444225 0.13930653 0.046159077 -0.0765391 -0.019312214 0.042528473 -0.12651186
0.13742055 0.14296538 -0.008080626 -0.11905273 0.07507649 0.116210304 0.042437565 0.12004812
-0.08776416 -0.06708589 -0.043821774 -0.11899798 -0.081064 -0.07307894 -0.0879472 -0.03448706
00000000: ba6a 83bd 3025 b03d 599c 96bd d629 89bd
00000010: 117e cdbd 1d10 89bd 30f1 b13d 593f 613c
00000020: bea8 9fbd eed7 b5bd 5f86 023e 2a42 153e
00000030: 403f ce3d 5f62 b93c 1ab8 80bd 717a 103e
00000040: 8202 18be ac8b 583d f44a 053e 9ef0 0f3d
00000050: 14aa d13d 24ff a43d 0e07 f5bd d6c0 a63d
00000060: bfe2 99bd 74a9 01be 67b5 febd bc76 c4bd
00000070: 9931 f73b 63bd 85bd 6c8f 163e 9a6c 873c
00000080: b1dc 163e aaa9 12be 2c18 d2bc 9c19 d4bd
00000090: 7872 c73d 3bbf 3ebd bbf6 883d dd82 b2ba
000000a0: bde6 e93d 9c89 1c3d de43 2dbd c0e7 0a3e
000000b0: 5569 273d d3bc 0fbe e9e8 123e c2ee 27bd
000000c0: 3046 b7bd 3c6d 0d3d 0979 3d3d 25a5 d3bd
000000d0: a182 0e3e 12e2 0e3d 1526 c03d 47c1 90bd
000000e0: a08b c23d 1636 ab3c 0392 5abd c701 e73c
000000f0: 0025 a23b d86a d43d e46f 683d f752 05be
00000100: 6632 ab3c 680e c4bd d948 173e 0408 2bbd
00000110: 8c42 513c 1afb 14be f515 13be 5a66 12be
00000120: f8bf b1bc 66b0 fa3d 8727 e03d e52a 93bd
00000130: 9a59 103e 6048 2bbc 8701 abbd fe6d 133e
00000140: f780 003e d5ca 053e 0b95 8cbb 5505 57bd
00000150: a5c2 d13c 56d7 5a3d ac9e 253d 0f33 b4bd
00000160: d128 9e3d c596 073e 9f12 c13d d73f 92bd
00000170: f255 8abd 918a 7ebb 40c3 ab3d 3f31 fd3d
00000180: 3cf8 97bd 94c1 b7bd abf5 15bd c3ee 0cbe
00000190: 2cea 16be 81d9 163c d980 413d d5ca d73d
000001a0: 4958 fcbd 18f1 acbd 5fa6 0e3e 4d11 3d3d
000001b0: 88c0 9cbd a634 9ebc 5632 2e3d 538c 01be
000001c0: f9b7 0c3e 8465 123e 9a64 04bc ebd1 f3bd
000001d0: b4c1 993d abff ed3d 03d3 2d3d cadb f53d
000001e0: b2bd b3bd 5464 89bd 767e 33bd 37b5 f3bd
000001f0: e204 a6bd 69aa 95bd a91d b4bd 4e42 0dbd

pointer.W f4 [1, 128, 256]
0.010753432 0.0030554978 -0.012801769 -0.00545813 -0.0119304145 -8.992835e-05 0.0034777028 -0.0035834042
0.012857646 -0.00012992209 -0.0026248852 0.0036081395 0.006071722 0.009027972 0.0028234085 0.005527338
-0.0030844994 0.006695659 -0.0005996325 0.0136542795 0.0049402 0.0024310616 -0.0012614032 -0.00050274207
-0.011205306 -0.0051791007 -0.0044401395 -0.005473656 -0.011712662 0.0028683264 -0.0081287045 -0.012640108
0.00845025 -0.003724288 -0.0023082113 0.004361822 0.012269554 0.0017709482 0.0028631408 -0.009233108
-0.005948965 0.0010888963 -0.005848647 -0.0026347989 0.011903112 0.0106979245 0.009660268 -0.0052521513
0.006532552 -0.00476591 -0.004568219 -0.009985708 -0.0017853626 -0.008314769 0.0015249972 0.007578583
-0.012754797 0.0133069465 0.0010435489 0.012027844 -0.011702847 0.008425853 0.008134426 0.012839011
-0.013491548 0.0020207635 0.004096961 0.0053648213 0.0066773 0.0039454135 0.012915474 -0.0012083545
0.0022509247 0.0076701446 -0.010268311 -0.007611216 -0.006423673 0.008756045 -0.0053734435 -0.002641792
0.005403537 0.006172578 -0.012200152 -0.0048300102 0.0009969012 0.0036114883 0.007279538 0.011897456
0.007813609 -0.012801776 0.006210632 0.0057776542 0.0021716908 -0.0093803685 -0.011067468 0.0028894916
0.00857514 -0.011663349 -0.007563628 -0.0005543062 -0.0035205795 -0.007059683 0.0043647857 0.00801577
-0.0010377022 -0.0050718454 -0.0058525116 0.00039153168 0.0071182167 -0.010632471 0.0089849895 -0.01371299
-0.0027205378 -0.0075040297 0.010160331 -0.009074093 0.0061834236 -0.0025610696 -0.00990185 -0.00024302339
-0.003348616 -0.0045818975 0.00944645 -0.0011786793 -0.0026457876 0.008660055 0.0007332168 -0.01234636
-0.009094209 -0.008670702 0.0037387048 -0.000991514 -0.006545588 0.011507715 0.004699334 0.0040104487
-0.008809581 0.0007940898 -0.0028575405 -0.0015255722 -0.006387136 0.014235871 0.003659128 -0.011427313
0.006195321 0.0057246382 0.009105649 -7.433706e-05 -0.002714565 0.010185656 -0.008940583 -0.011267447
-0.011762538 -0.0065955035 -0.011039694 -0.010566033 -0.008302499 0.0020442037 0.00320553 -0.00049188256
0.01223449 -0.001189797 -0.0063777254 0.007845617 0.009517949 0.003747946 -0.013712499 -0.010922078
-0.0068378043 0.00834845 -0.010596982 0.00063647237 -0.0006353871 -0.010555785 0.0017705064 0.00614349
-0.0058011566 -0.006007633 -0.0075436966 -0.004730087 0.0007493654 2.7052098e-05 0.005876102 0.012750213
0.0048861424 -0.0039451867 0.0034145403 0.0029714433 -0.011544775 0.0058100093 -0.002071842 -0.013922616
0.0027670825 -0.004825844 -0.013814173 -0.014087249 -0.0030421345 0.0064593805 -0.004649328 0.0032175786
-0.0033478828 0.011571044 0.0044770944 0.008811228 -0.008455462 -0.0005815204 0.012067196 -0.005618485
0.0093715275 -0.009542881 -0.0011401062 0.012078873 -0.009403547 0.0009344844 0.0044684317 0.008802226
0.007528397 -0.002820235 0.0028215619 -2.7417293e-05 0.011021352 0.0013011261 0.005519445 -0.011753977
0.012748595 0.0042473273 0.008291321 -0.008006673 0.006758336 -0.0010261125 0.0038115692 0.011266523
0.001608315 0.00194957 -0.0011335895 0.0007229822 0.002138312 -0.010506492 0.010542854 -0.0055979453
-0.0012748116 -0.0025301587 0.011913388 -0.006457294 0.00063972094 -0.00037907102 0.00873152 -0.0060635726
0.0036022835 -0.0019815352 -0.006726189 -0.0028638162 -0.014281344 -0.0125177475 0.008634374 -0.0105183795
00000000: 2a2f 303c bf3e 483b 83be 51bc 1dda b2bb
00000010: c977 43bc ea97 bcb8 2cea 633b 8cd7 6abb
00000020: e0a8 523c b23b 08b9 4406 2cbb 8976 6c3b
00000030: 4cf5 c63b 0fea 133c ef08 393b ac1e b53b
00000040: 5025 4abb 4267 db3b a830 1dba 33b6 5f3c
00000050: 67e1 a13b 7252 1f3b ab55 a5ba 73ca 03ba
00000060: 7696 37bc 72b5 a9bb 977e 91bb 5b5c b3bb
00000070: 77e6 3fbc 88fa 3b3b 422e 05bc 7518 4fbc
00000080: eb72 0a3c 2f13 74bb 5c45 17bb 9ded 8e3b
00000090: 3d06 493c 291f e83a 88a3 3b3b 7646 17bc
000000a0: 89ef c2bb 4cb9 8e3a 02a6 bfbb 97ac 2cbb
000000b0: 4505 433c 5946 2f3c 1a46 1e3c 3d1a acbb
000000c0: 050f d63b 5a2b 9cbb 00b1 95bb 189b 23bc
000000d0: d402 eaba ab3a 08bc 6ae2 c73a c355 f83b
000000e0: 7ff9 50bc 6105 5a3c b1c7 883a 6f10 453c
000000f0: 4cbd 3fbc 970c 0a3c 4146 053c b75a 523c
00000100: a70b 5dbc c96e 043b cd3f 863b 62cb af3b
00000110: 41cd da3b 8748 813b 6d9b 533c a661 9eba
00000120: 4084 133b d655 fb3b 6b3c 28bc 8267 f9bb
00000130: ad7d d2bb 8475 0f3c b613 b0bb ea21 2dbb
00000140: 2710 b13b 5643 ca3b 25e3 47bc 1045 9ebb
00000150: 74aa 823a b8ae 6c3b 3189 ee3b 8ced 423c
00000160: a704 003c 8abe 51bc 8f82 cb3b 7a52 bd3b
00000170: ed52 0e3b 1eb0 19bc 5354 35bc a05d 3d3b
00000180: be7e 0c3c a217 3fbc 4fd8 f7bb dc4e 11ba
00000190: 86b9 66bb ea54 e7bb 7a06 8f3b 9454 033c
000001a0: 8203 88ba b931 a6bb 6dc6 bfbb 7e46 cd39
000001b0: ee3f e93b d133 2ebc c735 133c 73ac 60bc
000001c0: 0d4b 32bb 5de4 f5bb 8477 263c 81ab 14bc
000001d0: 519e ca3b 9ed7 27bb 5e3b 22bc 18d4 7eb9
000001e0: 7474 5bbb be23 96bb 48c5 1a3c ea7d 9aba
000001f0: f364 2dbb e7e2 0d3c 5935 403a 6348 4abc
00000200: e1ff 14bc 8f0f 0ebc 0f05 753b b0f5 81ba
00000210: 5f7c d6bb db8a 3c3c dffc 993b 156a 833b
00000220: 1056 10bc 772a 503a 9345 3bbb b5f5 c7ba
00000230: 2e4b d1bb 923d 693c fbcd 6f3b a039 3bbc
00000240: 1f02 cb3b bf95 bb3b dc2f 153c 68e5 9bb8
00000250: d8e6 31bb bde1 263c 867b 12bc 199b 38bc
00000260: a9b7 40bc 181f d8bb d5df 34bc 281d 2dbc
00000270: 3407 08bc 0cf8 053b df13 523b aef1 00ba
00000280: 2c73 483c f6f2 9bba 3dfc d0bb e78a 003c
00000290: 2cf1 1b3c 19a0 753b 64aa 60bc 84f2 32bc
000002a0: a90f e0bb f0c7 083c f79e 2dbc f0d8 263a
000002b0: 1b90 26ba 2cf2 2cbc 5610 e83a 544f c93b
000002c0: a117 bebb aedb c4bb 1d31 f7bb d8fe 9abb
000002d0: 1071 443a f0ed e237 518c c03b 45e6 503c
000002e0: ef1b a03b a046 81bb 7bc6 5f3b 8cbc 423b
000002f0: 4c26 3dbc e461 be3b bec7 07bb af1b 64bc
00000300: f157 353b 1d22 9ebb d754 62bc 34ce 66bc
00000310: 8c5e 47bb 36a9 d33b 6459 98bb 03de 523b
00000320: 2768 5bbb 7a94 3d3c 97b4 923b f85c 103c
00000330: c788 0abc 2c71 18ba 7db5 453c 451b b8bb
00000340: 098b 193c be59 1cbc 9e6f 95ba 77e6 453c
00000350: 5611 1abc 30f8 743a ec6b 923b 3637 103c
00000360: c5b0 f63b b1d3 38bb f4e9 383b 30fe e5b7
00000370: e792 343c 8c8a aa3a 76dc b43b c193 40bc
00000380: 7cdf 503c 2a2d 8b3b 52d8 073c 6c2e 03bc
00000390: 0875 dd3b 9f7e 86ba 85cb 793b 3997 383c
000003a0: 19ce d23a b788 ff3a f494 94ba 8486 3d3a
000003b0: ec22 0c3b 6c23 2cbc efbb 2c3c f86e b7bb
000003c0: 9417 a7ba 05d1 25bb 5f30 433c b597 d3bb
000003d0: f2b2 273a 0dbe c6b9 a60e 0f3c efb0 c6bb
000003e0: 4a14 6c3b a5dc 01bb 5d67 dcbb ddae 3bbb
000003f0: 4cfc 69bc 3d17 4dbc 3077 0d3c 4855 2cbc

pointer.gru.weight_ih_l0 f4 [384, 128]
-0.0009250565 0.004064836 -0.07363467 -0.1071242 -0.018623322 -0.041225895 -0.023094207 -0.043421052
-0.05136575 -0.09590695 -0.092253715 -0.07320535 0.09834396 -0.024932235 0.09887593 0.066609286
0.033976637 -0.030834407 0.06257603 0.015064977 0.055566438 0.016384646 0.0019717736 -0.07268876
-0.008529201 0.011324555 -0.0657769 0.02747301 0.006404616 0.032354303 -0.08614054 -0.035779327
0.042020686 0.0031652225 -0.10656737 0.071849294 0.08728243 0.03742484 -0.0649993 0.024738781
-0.01331567 0.061375834 0.06926305 -0.07665463 -0.014279403 0.02684649 -0.08129817 -0.0054566856
-0.089321196 0.08769063 0.10445445 -0.039793305 0.087060444 0.018258609 -0.05889147 0.023070835
-0.100545906 0.08173702 -0.0805744 0.051132984 0.024964727 -0.037056103 -0.10135381 0.030681051
-0.040374704 0.07887068 -0.037472755 0.100126944 -0.012502737 0.056397907 0.0009852647 -0.08650883
0.09548678 0.07664242 0.018335722 -0.08433629 -0.08493371 -0.07607059 0.105651535 0.072104685
-0.046136577 0.017118536 -0.0035969021 0.0013688353 -0.01820302 0.04414753 -0.024360321 -0.013040803
0.0439241 -0.009156987 0.10156392 0.015337944 0.09281816 0.044368096 0.0034833772 -0.016269535
-0.00014573359 0.06082908 -0.085846186 -0.09337343 -0.07680474 0.0034107342 0.039216466 0.097477935
0.05236829 0.080819406 0.06935359 -0.0669954 0.003971018 -0.077569276 -0.07553491 -0.0033524332
0.106194146 -0.052016076 0.0650327 -0.0646808 0.07881134 -0.0647908 -0.0967398 0.029415227
-0.045164987 0.012455888 -0.07119995 -0.015493132 0.036542602 -0.054964315 -0.022691555 -0.012910657
0.090132944 0.061047275 -0.082545914 -0.07915681 -0.09761557 -0.047035255 -0.051343314 0.058846332
-0.0684803 -0.03097727 -0.06954345 0.009686062 -0.08444712 0.08230483 -0.047083836 0.10073751
-0.08560073 -0.024835786 0.1033422 -0.053126235 -0.017992571 -0.023664895 0.0060456493 0.008308623
0.07157291 0.073273905 0.09177134 -0.09259768 -0.017947989 -0.015979799 -0.06339672 -0.01869677
0.06262222 -0.027721858 -0.04227208 0.09977474 0.09278766 0.0072016898 -0.04058162 0.019001
0.075259626 -0.026954938 0.0797482 -0.08403258 0.081104286 0.08066365 0.094294794 0.07563491
0.038237065 -0.03121267 -0.020595329 -0.078268796 -0.048127834 -0.00879882 0.099301144 0.084612116
-0.09888462 0.013145006 0.091884516 -0.0300057 0.06011562 0.046455313 0.04666775 -0.08716124
-0.07042882 0.07679603 0.040021088 0.08844556 0.04390692 -0.037951022 -0.04265462 0.069655076
0.033624474 -0.08591558 -0.022658706 -0.10330753 -0.01950103 0.07623661 -0.10805001 -0.09265108
-0.08024382 -0.052927878 0.081935346 -0.0007981058 0.041522752 0.10188832 -0.066334836 0.025852699
0.011469243 -0.03349418 0.10115462 -0.058680367 0.022071648 0.1056037 -0.043636594 0.09176669
0.027576294 0.082720116 -0.030614994 0.026805323 -0.02175807 0.032483984 -0.10730163 -0.0033188506
0.05415501 0.040893022 0.05048614 0.07873846 0.08681577 -0.009532475 -0.092796266 0.093977496
0.08939777 0.0064596874 -0.06320928 -0.019554188 -0.002423342 0.039393708 -0.0036064766 -0.022808785
0.0016411031 -0.07510602 0.023790723 0.029122941 0.07064249 -0.089594744 -0.052334297 -0.0821441
00000000: 7e7f 72ba 5132 853b c6cd 96bd ef63 dbbd
00000010: f08f 98bc 7cdc 28bd 1030 bdbc 46da 31bd
00000020: e564 52bd dd6a c4bd 84ef bcbd b0ec 95bd
00000030: 8f68 c93d b03e ccbc 777f ca3d 736a 883d
00000040: 162b 0b3d 7098 fcbc dd27 803d 18d3 763c
00000050: a299 633d 1839 863c df38 013b d8dd 94bd
00000060: 10be 0bbc a08a 393c 0ab6 86bd 140f e13c
00000070: d0dd d13b f285 043d 746a b0bd 588d 12bd
00000080: e21d 2c3d 9f6f 4f3b fe3f dabd b925 933d
00000090: 21c1 b23d ca4a 193d 5a1e 85bd fca8 ca3c
000000a0: f829 5abc 3a65 7b3d c9d9 8d3d 1afd 9cbd
000000b0: 28f4 69bc 2ced db3c a87f a6bd ffcd b2bb
000000c0: 08ee b6bd 2597 b33d 37ec d53d 4efe 22bd
000000d0: bf4c b23d 1493 953c 2f38 71bd 0cff bc3c
000000e0: 03eb cdbd bd65 a73d 3104 a5bd d270 513d
000000f0: d482 cc3c 24c8 17bd 9692 cfbd d456 fb3c
00000100: f25f 25bd f386 a13d 087d 19bd 5b0f cd3d
00000110: 48d8 4cbc 7e01 673d ff23 813a 8b2b b1bd
00000120: 938e c33d b3f6 9c3d cc34 963c 81b8 acbd
00000130: baf1 adbd e6ca 9bbd d55f d83d 9fab 933d
00000140: b5f9 3cbd 2c3c 8c3c 01ba 6bbb 7e6a b33a
00000150: 801e 95bc 0ad4 343d 4c8f c7bc 18a9 55bc
00000160: c2e9 333d 3007 16bc bf00 d03d 004c 7b3c
00000170: 7317 be3d 52bb 353d 5f49 643b b047 85bc
00000180: 10d0 18b9 ea27 793d 20d0 afbd 923a bfbd
00000190: ce4b 9dbd a086 5f3b 72a1 203d 83a2 c73d
000001a0: 2280 563d a584 a53d 4109 8e3d e234 89bd
000001b0: 501f 823b a4dc 9ebd 0cb2 9abd 7fb4 5bbb
000001c0: 517c d93d cf0e 55bd dd2f 853d 5e77 84bd
000001d0: d767 a13d 0ab1 84bd 841f c6bd 34f8 f03c
000001e0: ecfe 38bd c813 4c3c 48d1 91bd e8d6 7dbc
000001f0: b2ad 153d 4322 61bd a4e3 b9bc 3887 53bc
00000200: 9f97 b83d b50c 7a3d d50d a9bd f71c a2bd
00000210: acea c7bd 0aa8 40bd 5e4d 52bd da08 713d
00000220: 663f 8cbd 0bc4 fdbc cc6c 8ebd 4ab2 1e3c
00000230: 9df2 acbd 6f8f a83d fbda 40bd 784f ce3d
00000240: 6f4f afbd 6b74 cbbc 13a5 d33d e59a 59bd
00000250: 2865 93bc e2dc c1bc 951a c63b e420 083c
00000260: d194 923d a110 963d 9df2 bb3d daa3 bdbd
00000270: a907 93bc 11e8 82bc 24d6 81bd f829 99bc
00000280: 1440 803d f318 e3bc 7d25 2dbd b356 cc3d
00000290: 7507 be3d 27fc eb3b ea38 26bd fca7 9b3c
000002a0: b821 9a3d 9ad0 dcbc 0653 a33d 4619 acbd
000002b0: 011a a63d fc32 a53d a11d c13d 7ae6 9a3d
000002c0: 789e 1c3d b7b1 ffbc 89b7 a8bc 644b a0bd
000002d0: b121 45bd ed28 10bc 665e cb3d 1e49 ad3d
000002e0: 0584 cabd 275e 573c f32d bc3d 84ce f5bc
000002f0: cc3b 763d ed47 3e3d af26 3f3d 9881 b2bd
00000300: fc3c 90bd 3d47 9d3d 27ed 233d f222 b53d
00000310: bed7 333d 8872 1bbd 9cb6 2ebd 52a7 8e3d
00000320: d1b9 093d 82f4 afbd c09e b9bc e692 d3bd
00000330: a0c0 9fbc f121 9c3d 5349 ddbd d9bf bdbd
00000340: df56 a4bd e7ca 58bd b8cd a73d f937 51ba
00000350: c313 2a3d d3aa d03d 8fda 87bd 0ac9 d33c
00000360: 7ee9 3b3c 3131 09bd 272a cf3d d35a 70bd
00000370: 9acf b43c c146 d83d 49bc 32bd 2df0 bb3d
00000380: aee7 e13c 2a69 a93d 4ccc fabc d696 db3c
00000390: fb3d b2bc ed0d 053d f5c0 dbbd 1381 59bb
000003a0: a5d1 5d3d 717f 273d 8eca 4e3d a141 a13d
000003b0: 77cc b13d 192e 1cbc f80b bebd 4677 c03d
000003c0: 2e16 b73d c9ab d33b de73 81bd 1b30 a0bc
000003d0: efd0 1ebb 4c5b 213d a35a 6cbb 7dd9 babc
000003e0: 481a d73a 2fd1 99bd c3e4 c23c 3c93 ee3c
000003f0: 03ad 903d 737d b7bd 7d5c 56bd 2a3b a8bd

pointer.gru.weight_hh_l0 f4 [384, 128]
-0.029257327 -0.012284696 -0.08745392 0.0921052 0.092076324 -0.055112705 -0.038006663 -0.008281216
0.02380342 0.02301427 0.02336391 -0.061488792 0.0678506 -0.08434387 -0.07482711 -0.06098673
0.008730769 -0.04713275 0.02069915 -0.09303678 -0.026915997 -0.0030198097 0.0174428 0.046164997
0.025477506 0.014694378 0.07157316 -0.033657253 -0.09359436 0.10029525 0.0841536 -0.10760526
-0.050136622 0.07479008 0.037963636 0.060295604 -0.07984641 0.06114752 -0.022382729 0.1001747
-0.0671714 -0.02586279 0.006747663 -0.008693241 0.038996182 0.0869912 0.0031119215 -0.036855623
-0.04281588 0.009922989 0.014261968 0.06718867 0.06151528 -0.020651579 -0.044997126 -0.051330548
0.081524275 -0.10080802 0.05793207 -0.09943703 -0.09233338 -0.0648147 0.101716675 -0.016826443
0.014540568 0.0923306 -0.028357513 0.017826788 -0.036899395 -0.061070934 0.026400812 -0.014657535
-0.025286302 0.058106564 -0.07075564 0.008718446 -0.088288985 0.011839159 0.00094164856 -0.10025003
-0.10663664 0.02684205 0.042815484 0.05959522 -0.054728065 0.10467512 -0.030417338 0.10544375
-0.014805555 -0.07096763 0.08391792 0.025597148 -0.021167316 0.056720562 0.007216327 -0.016358837
-0.014763705 0.09236539 -0.0852622 0.034491546 0.05345487 -0.048848763 0.081093244 -0.08790704
-0.041703425 0.09484015 -0.09526367 -0.016294725 -0.055209648 0.043357022 0.040925793 -0.027096823
-0.09716039 0.10764348 -0.071560204 0.063619874 0.04556469 0.046681933 -0.07049038 -0.07839516
0.07648697 -0.0074920948 0.02230785 0.07476648 -0.04770008 0.050434105 0.028075479 0.08603632
0.07436021 0.053235017 -0.06789653 0.029490512 0.02603633 0.05125069 0.1033422 -0.034873642
-0.09132726 0.10095769 0.10156425 0.02763564 -0.09032081 -0.02021359 0.03279863 0.029047495
0.07483313 0.0514209 -0.091560155 0.09366983 -0.08043189 -0.036858305 -0.044483 0.031356174
0.01385869 -0.038266495 0.027952736 0.0132400915 0.021588065 -0.10634187 0.018372769 -0.03857759
-0.09312359 0.009643409 -0.00066105 0.06420074 0.06357705 0.05198478 -0.07177897 0.092691876
-0.0012926307 -0.043214455 -0.07660207 0.064698346 -0.056812603 -0.02508493 -0.096956775 -0.07806386
-0.06874609 -0.09405844 -0.072088525 -0.049576 0.043672048 -0.07548171 0.066633485 -0.0029062198
-0.049694467 0.06472149 -0.09098145 0.046543576 0.06944483 0.09731648 -0.080160126 -0.042396855
0.098642 0.04512725 -0.0053002 -0.030066455 0.029657057 -0.069471404 -0.105904505 -0.024629489
0.09816437 0.017352004 0.05257111 0.054263942 0.04857591 -0.012536111 -0.0877084 0.018183285
0.07763385 0.04330169 -0.029123953 0.10331624 0.0005886421 -0.10491655 0.06921039 0.03344346
0.09462603 0.019782253 -0.031036356 0.0035325834 -0.071493946 0.056174494 0.038630795 -0.049716793
0.0768382 -0.10476955 -0.032323737 0.047980838 0.042789556 0.05190582 0.04496927 -0.06573559
-0.02052064 -0.043638043 -0.10801436 0.020283746 -0.016650088 -0.013324767 -0.06841011 -0.09469554
-0.0885731 -0.06390444 -0.064877406 0.0797157 0.06769138 0.03885148 0.0489899 0.05329519
0.04418107 -0.033455346 0.08257158 0.1047496 -0.049664527 -0.04413038 0.052417684 0.051660694
00000000: 10ad efbc c045 49bc 0a1b b3bd a7a1 bc3d
00000010: 8392 bc3d dcbd 61bd e0ac 1bbd f0ad 07bc
00000020: 64ff c23c 6c88 bc3c ac65 bf3c acdb 7bbd
00000030: 41f5 8a3d 7bbc acbd f53e 99bd 39cd 79bd
00000040: 800b 0f3c 450e 41bd 4491 a93c 118a bebd
00000050: f07e dcbc 00e8 45bb 34e4 8e3c 8217 3d3d
00000060: 34b6 d03c b0c0 703c f394 923d 30dc 09bd
00000070: 66ae bfbd 9967 cd3d b958 ac3d 2660 dcbd
00000080: 0f5c 4dbd 8b2b 993d c27f 1b3d 86f8 763d
00000090: 8486 a3bd d275 7a3d fc5b b7bc 6528 cd3d
000000a0: 2991 89bd 34de d3bc 801b dd3b 186e 0ebc
000000b0: 76ba 1f3d 7128 b23d 61f1 4b3b ecf5 16bd
000000c0: b45f 2fbd 0894 223c 08ab 693c 379a 893d
000000d0: 72f7 7b3d 802d a9bc e84e 38bd fb3f 52bd
000000e0: 33f6 a63d 6f74 cebd 2e4a 6d3d a4a5 cbbd
000000f0: 4819 bdbd 92bd 84bd d550 d03d 9cd7 89bc
00000100: 903b 6e3c d317 bd3d 044e e8bc 7c09 923c
00000110: d223 17bd 8425 7abd 8446 d83c 2826 70bc
00000120: 3825 cfbc 2601 6e3d 55e8 90bd d0d7 0e3c
00000130: dbd0 b4bd 08f9 413c f7d8 763a e34f cdbd
00000140: 5064 dabd dce3 db3c 4a5f 2f3d 1e1a 743d
00000150: 892a 60bd e95f d63d c82d f9bc e5f2 d73d
00000160: 0093 72bc 7a57 91bd 29dd ab3d 1cb1 d13c
00000170: 1467 adbc d253 683d f076 ec3b f802 86bc
00000180: 78e3 71bc 112a bd3d f39d aebd 0247 0d3d
00000190: 7ef3 5a3d a415 48bd 3714 a63d 9b08 b4bd
000001a0: 36d1 2abd 8d3b c23d 9919 c3bd 847c 85bc
000001b0: 8323 62bd 2297 313d cea1 273d 28fa ddbc
000001c0: 07fc c6bd 2f74 dc3d 288e 92bd 234b 823d
000001d0: 0aa2 3a3d 8e35 3f3d 435d 90bd a48d a0bd
000001e0: 33a5 9c3d 3f80 f5bb f4be b63c 2b1f 993d
000001f0: 2961 43bd fe93 4e3d 8cfe e53c cf33 b03d
00000200: 2a4a 983d f60c 5a3d 560d 8bbd 1696 f13c
00000210: 244a d53c 3eec 513d 13a5 d33d aad7 0ebd
00000220: c909 bbbd e8c2 ce3d eb00 d03d 2364 e23c
00000230: 1efa b8bd f896 a5bc db57 063d 03f5 ed3c
00000240: 1d42 993d b99e 523d e483 bbbd f8d5 bf3d
00000250: 7ab9 a4bd bcf8 16bd ce33 36bd 556f 003d
00000260: 8f0f 633c 54bd 1cbd 23fd e43c f8ec 583c
00000270: 74d9 b03c c4c9 d9bd 7d82 963c 8903 1ebd
00000280: 95b7 bebd 64ff 1d3c 514a 2dba ad7b 833d
00000290: af34 823d feed 543d da00 93bd 3dd5 bd3d
000002a0: 7d6d a9ba a401 31bd 8ce1 9cbd 9180 843d
000002b0: 55b4 68bd e97e cdbc 4691 c6bd f2df 9fbd
000002c0: c0ca 8cbd b6a1 c0bd 26a3 93bd 3410 4bbd
000002d0: 76e1 323d 2896 9abd 2377 883d 4776 3ebb
000002e0: 6d8c 4bbd b38c 843d 7c54 babd 7aa4 3e3d
000002f0: 1739 8e3d dd4d c73d fe2a a4bd 53a8 2dbd
00000300: d104 ca3d 5ad7 383d 4dad adbb ed4d f6bc
00000310: 5bf3 f23c 0647 8ebd 76e4 d8bd c8c3 c9bc
00000320: 670a c93d ca25 8e3c ce54 573d de43 5e3d
00000330: 89f7 463d 4364 4dbc 76a0 b3bd 1df5 943c
00000340: 7ffe 9e3d 1d5d 313d 5b95 eebc 7797 d33d
00000350: 1a4f 1a3a 7dde d6bd 2dbe 8d3d 02fc 083d
00000360: 4bcb c13d 640e a23c f53f febc ea82 673b
00000370: 6b6b 92bd 3a17 663d 533b 1e3d d6a3 4bbd
00000380: 595d 9d3d 6b91 d6bd e565 04bd 8e87 443d
00000390: 1a44 2f3d 329b 543d b231 383d 62a0 86bd
000003a0: e71a a8bc cebd 32bd a236 ddbd 192a a63c
000003b0: c465 88bc 2050 5abc 9a1a 8cbd bcef c1bd
000003c0: d065 b5bd 55e0 82bd 72de 84bd fc41 a33d
000003d0: c7a1 8a3d bb22 1f3d a2a9 483d 0f4c 5a3d
000003e0: 36f7 343d 7908 09bd 4a1b a93d f586 d63d
000003f0: 086d 4bbd 0fc2 34bd edb3 563d 2a9a 533d
