Task assignment/drl4vrp/vrp/10/20_22_33.603681/checkpoints/3/critic.pt (torch, 29011 bytes, 9 tensors)

static_encoder.conv.weight f4 [128, 2, 1]
000000 82 f0 df bd 77 2c c9 bd bd 8c 53 3e cc 55 44 3d
       -0.10934545 -0.09822934 0.20659156 0.047933385
000010 5b 75 5f 3e e2 f3 6b bc 81 2a e2 3d 7b e6 70 3d
       0.21822111 -0.014401408 0.11043263 0.058813553
000020 10 f7 e5 bd 8c 82 61 3d a9 0d 12 be a1 e9 a4 bd
       -0.11228764 0.05505614 -0.14263023 -0.08052374
000030 fb 6d 58 be de ca 89 bc 9c 15 8a bd 3c 6a 07 3e
       -0.21135704 -0.016820367 -0.06742403 0.13224119
000040 60 5a c0 bd 57 41 48 3e 33 59 22 3e a9 91 58 3e
       -0.09392238 0.19556175 0.1585434 0.21149315
000050 18 a1 87 3c ac 14 10 3e 1c a5 c3 3d 5b 18 5f 3e
       0.016556308 0.14070386 0.095529765 0.21786635
000060 1e bb 5c be 99 40 45 be bf 54 19 bd a6 15 07 3e
       -0.21555755 -0.19262923 -0.037434336 0.13191852
000070 f9 c6 26 be 9a 2a 01 bd cd a3 f5 bd 85 1f b6 3d
       -0.1628684 -0.03153477 -0.11994133 0.088927306
000080 5f d0 1b be a2 ea 44 be 36 46 24 3e 59 0f fb bc
       -0.15216206 -0.1923013 0.16042408 -0.030646967
000090 00 5c 81 3c c0 ff f2 bd 6a ef b6 bd 01 d9 47 be
       0.01579094 -0.11865187 -0.08932383 -0.19516374
0000a0 d3 2a 51 3e d3 6e 41 be 57 c7 52 be d0 1d 33 3e
       0.20426492 -0.18889932 -0.20583855 0.17491841
0000b0 a1 74 33 3e af 3f 3d 3e 86 65 31 3e fa 03 b5 3c
       0.17524959 0.18481325 0.17323884 0.022096623
0000c0 bc d1 f7 3d 21 73 1c 3e 65 c2 29 3e 47 5a cc bd
       0.121005505 0.15278293 0.16578062 -0.099781565
0000d0 73 30 15 3e c2 7d 9b bd 83 68 20 be 33 b7 0c be
       0.14569263 -0.07592346 -0.15664868 -0.1374176
0000e0 92 5d 99 3d c2 f5 03 3e 58 4b 30 3e fa 0a 3f be
       0.0748855 0.12886718 0.17216241 -0.18656531
0000f0 e5 aa 84 bd 71 90 fe 3d 5d 3c 5c 3e ab 41 54 3e
       -0.06477908 0.12429894 0.21507402 0.20728175
000100 6c 59 4e 3c 61 2c 3f 3e 19 4a af bd 04 c0 ed bd
       0.012594562 0.18669273 -0.08559055 -0.1160889
000110 c6 fc 35 3d c3 ac ee bc 78 c0 6d 3d f2 7f 08 3e
       0.044430517 -0.029135114 0.05804488 0.13330057
000120 ec 4f 1b be d9 69 d8 bc 9c be 23 3e ab d8 e3 bd
       -0.15167207 -0.02641766 0.1599068 -0.111253105
000130 a9 5b 08 be 12 37 39 3e ec 82 05 be 76 d4 46 3e
       -0.13316216 0.18087414 -0.13038224 0.19416985
000140 3a 7d 54 be 08 df f5 3d 52 84 1f be 6d c7 ad 3d
       -0.20750895 0.120054305 -0.1557782 0.08485303
000150 13 13 c6 bd 4c 91 0a 3c 2a 63 50 be ab ef 38 bd
       -0.09671607 0.008457493 -0.20350328 -0.04515044
000160 18 c0 c3 3d 9e 6e 18 3e 38 60 9f bc 9b 60 51 be
       0.09558123 0.14885947 -0.01945506 -0.20447008
000170 3f 81 f2 3d 91 fb 77 bd 07 f3 11 be f7 d7 15 3e
       0.11841058 -0.060542647 -0.14252864 0.14633165
000180 40 a0 29 be ac b2 7d bd d1 df f0 3d 14 5d 88 bc
       -0.16565037 -0.061937973 0.117614396 -0.016645946
000190 d1 06 29 be 51 e1 aa 3d b4 cd 1a 3e c2 c2 6a 3d
       -0.16506507 0.08343757 0.15117532 0.05731464
0001a0 8d 2e 06 be 92 ab d4 3c 6e 7e 46 bd 20 3b e4 bd
       -0.13103695 0.025960717 -0.048460416 -0.1114409
0001b0 de f2 7c bd 84 c9 45 bd 6c 53 94 bc 9f 7e 8f 3d
       -0.061755054 -0.048287883 -0.018106185 0.07006573
0001c0 e2 41 b4 bd f3 5e 13 be 33 aa 7c 3c 21 86 1e 3d
       -0.08801629 -0.14391689 0.015421438 0.038702134
0001d0 ef 01 37 be 30 80 df 3d 64 3d 5e bd a2 e1 2c be
       -0.17871831 0.10913122 -0.054257765 -0.16882947
0001e0 bf b1 c1 3d 9e d0 d5 bd 75 3d c7 bd 39 72 f3 bd
       0.094577305 -0.10440181 -0.09728519 -0.118870206
0001f0 60 0e e4 bd 13 f6 35 3e 66 4e c3 bd e1 0e 33 bd
       -0.11135554 0.17769651 -0.09536438 -0.04371536
000200 2f 26 35 3e 59 20 04 3e c9 bb 06 be 88 3c 5d be
       0.17690347 0.12902965 -0.13157572 -0.21605122
000210 ad 34 a7 bc 12 b2 66 bd 9b b1 84 bd 38 7e 78 bd
       -0.02041086 -0.056322165 -0.06479188 -0.060667247
000220 ab d1 58 3e c9 65 16 3e 71 c2 19 be f7 27 47 3d
       0.21173732 0.14687265 -0.1501558 0.048622098
000230 c5 0d 58 3d c9 32 54 be 09 08 85 3d e4 5e 93 bd
       0.052747507 -0.20722498 0.06495673 -0.07195833
000240 79 0a 2b 3e 8b 54 7b 3d 02 6b ff bd 79 ba de 3d
       0.16703214 0.061359923 -0.12471582 0.108754106
000250 cc 23 26 3e 12 8f db 3d dd f5 5c 3e bd b3 f0 bc
       0.16224593 0.10720648 0.21578164 -0.02938258
000260 b8 b2 10 bc 9d 83 f4 bd c7 88 29 3e d0 c1 3c 3e
       -0.008831672 -0.11939166 0.16556083 0.18433309
000270 ee 17 88 3d 03 32 e6 3d c5 bc e2 3b 61 4e c7 3c
       0.06645189 0.11240008 0.0069194757 0.024329366
000280 83 51 39 3e 69 8f fb bd 0f d4 cb bd cd 5a 34 bd
       0.180975 -0.12283213 -0.09952556 -0.044031907
000290 c5 1c 0d 3e 53 90 26 3c 15 f9 87 bd 3e 6d d1 bd
       0.13780506 0.0101662455 -0.066393055 -0.102259144
0002a0 cc 73 11 bd 60 a6 a8 bd 8a 9c 2b be 4c e4 40 3e
       -0.035510823 -0.082348585 -0.16758934 0.18837088
0002b0 33 a5 d4 3d 9d c0 a7 3d cc 50 12 be 9c 09 ac bc
       0.10383072 0.08191035 -0.14288634 -0.021000676
0002c0 98 b1 54 be 5c 7a 43 3e ec 87 0c be 76 64 1b be
       -0.20770872 0.19089645 -0.13723725 -0.15175042
0002d0 1f c5 32 3e 5f cd 2e 3e a0 0c 1a 3e 45 c0 0d 3d
       0.17458008 0.1707053 0.15043879 0.03460719
0002e0 94 8d dc 3d 8a 95 26 bc 68 6d 46 3e 49 ca be bc
       0.107691914 -0.010167489 0.19377673 -0.023289816
0002f0 df 38 6a bd ff 5f 56 3e e9 86 00 be c1 5e 5b be
       -0.057183143 0.20935057 -0.12551464 -0.21422864
000300 65 1a a5 bd f7 b9 d8 3d c7 83 18 be ad e3 b6 bd
       -0.08061675 0.10582345 -0.14894019 -0.089301445
000310 a9 85 5b bd 3a aa 2b 3e d2 df 26 3c f4 e0 04 3d
       -0.053594265 0.16764155 0.010185199 0.032441095
000320 d1 90 5f bd aa e6 66 bd 4a 86 1f 3e 43 00 01 3e
       -0.054581467 -0.056372322 0.15578571 0.12597756
000330 a1 ea dc bd 3b ce f7 bd ff 4c bd 3c 38 0e 5c be
       -0.107869394 -0.12099882 0.023108004 -0.21489799
000340 2c e8 46 be 41 f7 87 bc d6 b0 4d 3e 69 92 4c 3e
       -0.19424504 -0.016597392 0.20086989 0.19977726
000350 1c 14 28 3c eb 3d d6 bd b9 41 db 3c e6 5c 56 3e
       0.010258701 -0.10461029 0.026764737 0.20933875
000360 fe 64 3f be f2 e1 c7 3d f3 b9 07 be c9 78 85 bd
       -0.18690869 0.097598925 -0.13254528 -0.065171786
000370 45 51 1e be 6f 64 bd bd d6 c8 e5 bd 75 c2 36 3e
       -0.1546069 -0.09247672 -0.11219947 0.17847617
000380 e2 90 da 3b 06 34 46 be 17 cc 45 3d bf 02 1e be
       0.0066701034 -0.19355783 0.04829034 -0.15430735
000390 6a b6 a8 3d ee de b5 3a 0c 70 3f 3e d9 82 4a be
       0.08237918 0.0013875642 0.18695086 -0.19776477
0003a0 13 a5 3b be f2 f9 aa bd 4d 16 86 bd 33 19 4c 3c
       -0.1832469 -0.083484545 -0.06547222 0.01245718
0003b0 b9 a2 ce bd 20 f2 03 3e 06 e9 47 3e 0c 7e c9 3d
       -0.10089631 0.12885332 0.19522485 0.09838495
0003c0 38 71 3c 3d d3 00 90 3d f0 a1 2c bd 96 1c 5a 3e
       0.04600641 0.07031407 -0.042146623 0.21299967
0003d0 f6 b1 87 3d d0 79 9b bd 08 ab 00 3e 78 27 18 3e
       0.0662574 -0.07591593 0.12565243 0.14858806
0003e0 33 d2 43 be d7 48 b2 bd 95 64 d7 bd 29 8a a9 3d
       -0.19123153 -0.08705299 -0.105172314 0.08278305
0003f0 a6 88 27 be cb d5 f2 3c 35 83 a2 bc 19 cc fb 3c
       -0.16360721 0.02964296 -0.019837955 0.03073697

static_encoder.conv.bias f4 [128]
000000 8e e1 26 be 9d 82 db 3e bc 9a 0a 3f d3 ec f4 3d
       -0.1629698 0.42873088 0.54142356 0.11959233
000010 ad 1b 75 3e 5d 5c df be 4e be 07 bf c0 5b ce 3e
       0.23936339 -0.43625155 -0.53024757 0.40304375
000020 88 1e 03 bf 8e c0 85 3d 5b 3a 12 bf ae e7 0c 3f
       -0.5121846 0.065308675 -0.57120293 0.55041015
000030 34 94 97 3e 49 72 b2 3e 55 98 32 bf de b1 cb 3e
       0.29605258 0.34852818 -0.6976369 0.3978414
000040 3e 41 d8 be ff 4b 5f be f0 09 1e bf 28 6d 8f 3e
       -0.42237276 -0.21806334 -0.61733913 0.28012967
000050 58 88 87 3e 91 71 32 3f d3 e6 b4 3e c6 09 cc bc
       0.2647121 0.6970454 0.35332355 -0.024907004
000060 9b 23 d7 3e 50 5e d9 3e b0 55 b5 bd fa 15 2d 3f
       0.42019352 0.42454767 -0.08854234 0.6761166
000070 8e 93 19 be 20 24 9a 3e 19 86 dd be 86 4d 28 3e
       -0.14997694 0.30105686 -0.4326637 0.16435823
000080 9f 6c f9 be 11 a6 09 be c5 e1 a2 3e bc d5 af 39
       -0.48715684 -0.13442256 0.31812873 0.00033537846
000090 40 e3 03 3e 7a a9 1d bf b8 9a 35 3d 75 43 42 be
       0.12879658 -0.61586726 0.044337004 -0.18971045
0000a0 eb 4f a3 3d 6f b8 2d bf a7 52 29 3d 8e a9 17 bf
       0.079742275 -0.6785955 0.04133859 -0.59243095
0000b0 49 06 c8 bb 42 09 8a be c5 e5 ec 3e 27 c0 a2 be
       -0.006104265 -0.26960188 0.4626905 -0.31787226
0000c0 19 3d 12 3f 8a 37 72 be 7b bb 2b bf 8e 55 06 bf
       0.5712448 -0.23653999 -0.6708295 -0.52474296
0000d0 00 4e 96 3e f5 fe 6a 3d 3b 9f ee 3e 4c 27 13 bf
       0.29356384 0.057372052 0.46605858 -0.5748184
0000e0 70 15 98 be b7 c6 21 bf 70 52 fe 3d e0 12 5f 3e
       -0.29703856 -0.6319384 0.124180675 0.21784544
0000f0 d6 ca 30 3f 3e 20 83 3e 91 0e 8f be 46 6a 34 bf
       0.69059503 0.25610536 -0.279408 -0.7047466
000100 4c bd 2d 3f e9 6a 74 be f0 0c 31 3d be ae 60 be
       0.6786697 -0.23868908 0.04322523 -0.21941659
000110 5c 30 0f 39 9f c8 c1 be f0 a0 f8 3e 39 f1 0d bf
       0.00013655558 -0.37848374 0.48560286 -0.554462
000120 c5 95 1c bf aa e2 bc be 22 a5 14 bf e5 39 ce 3e
       -0.6116603 -0.3689168 -0.5806447 0.40278545
000130 27 1a 68 be 0a 16 ef be ca ea 23 3e 12 a8 fd be
       -0.22666226 -0.46696502 0.16007534 -0.4954229
000140 90 1d 30 bf 5b e4 ed 3e 66 85 0f bf 73 75 c3 3e
       -0.6879511 0.46463284 -0.56062925 0.38175544
000150 92 c3 ad be 92 8b d2 3e 16 91 f6 3e 5e 3e c9 bd
       -0.3393827 0.4112211 0.48157567 -0.09826349
000160 94 6d 2f be 8a 29 3b be 7e 95 45 3e 27 d4 1a bf
       -0.17131644 -0.18277565 0.19295308 -0.6047997
000170 70 e2 d4 3e a4 4e a7 3e 49 5e b6 bd 45 e2 e4 be
       0.41579008 0.32677186 -0.08904702 -0.4470388
000180 ea e5 2d bf a2 cd 10 3f 11 01 20 bf cf 26 07 bf
       -0.67928946 0.5656377 -0.6250163 -0.5279359
000190 ab 5b a4 be e4 af d0 3d 2d 80 2c bf f3 ab f6 bd
       -0.32101187 0.101897985 -0.6738308 -0.120445155
0001a0 4e d3 c1 3e 38 d4 28 bd 12 52 e3 be a0 30 1b 3f
       0.37856525 -0.041218013 -0.44398552 0.6062107
0001b0 1f a4 78 3e cf 07 f9 3e cd 1f 79 3e 93 12 f1 3e
       0.24281357 0.4863877 0.24328537 0.47084484
0001c0 c9 0c d5 3d 78 e1 63 be 93 f7 e8 be 4b a4 82 bd
       0.10402829 -0.22253978 -0.45501384 -0.06378993
0001d0 e6 e8 da bc f8 6a 0b bf c3 78 06 bf c3 6f 23 3f
       -0.026722383 -0.54460096 -0.5252802 0.6384241
0001e0 5b ce 62 be 22 17 a5 ba cc 04 c2 be 94 2f dc bd
       -0.22149031 -0.0012595395 -0.37894285 -0.10751262
0001f0 1e 7f e5 be ed c9 b3 be 5d a0 a3 bd 98 55 d3 3e
       -0.44823545 -0.35114995 -0.07989571 0.4127624

dynamic_encoder.conv.weight f4 [128, 2, 1]
000000 e0 a2 1a 3e a4 65 5e 3c c2 92 09 bd 5c 32 49 be
       0.15101194 0.013574038 -0.033587225 -0.19648117
000010 d1 26 d7 3d f7 eb 12 be b2 af 18 3e 27 2f 98 3c
       0.105054505 -0.14347826 0.14910772 0.018577171
000020 19 2d 51 3e 0f ac a8 bd 75 2d 41 3e 72 e2 80 3d
       0.2042736 -0.082359426 0.18864997 0.06293191
000030 63 c2 dc 3d 88 db f8 3d b0 95 ba bd 5b c3 eb 3d
       0.10779264 0.12151247 -0.09110582 0.115118705
000040 b0 4d 38 3e bd c7 41 3e ce a0 46 3e 9c c7 28 be
       0.17998385 0.1892385 0.1939728 -0.16482395
000050 f3 b2 6c 3b 0f 46 28 3d a6 ce fc bd 11 cb 0a 3e
       0.0036117404 0.041082438 -0.123441026 0.13554026
000060 70 63 02 3e ab 2e 09 3e 3f 6e 05 3e 28 9d 41 3e
       0.12733245 0.13396709 0.13030337 0.18907607
000070 17 5e a5 3d 14 d1 0b bd 3e e2 03 bc 7f cd 84 3d
       0.08074587 -0.03413494 -0.008049546 0.06484508
000080 2a 2d 9d 3d 99 64 d1 bc 89 12 0f 3e f4 21 fa bd
       0.0767463 -0.025560664 0.13971914 -0.12213507
000090 5a 3c c8 bd e8 6c d3 bd f7 a1 86 bd 59 ab 67 3d
       -0.09777136 -0.103235066 -0.06573861 0.056559894
0000a0 5b fd 06 be e8 04 fb 3d 2a 52 1d 3e 1f 4b 4e 3e
       -0.13182585 0.12256795 0.15363374 0.20145844
0000b0 30 a7 53 bd c4 be 40 be 97 97 02 3e 92 79 0f 3e
       -0.051673114 -0.18822771 0.1275314 0.14011219
0000c0 a2 c8 04 3e e6 ff 09 be be a7 c3 3d 24 02 8e 3d
       0.1296716 -0.13476524 0.09553479 0.06934002
0000d0 3c 72 71 bd d6 29 3a be 78 79 36 be 10 81 6c 3d
       -0.058946833 -0.18180022 -0.17819774 0.05774027
0000e0 24 30 be 3c 5c 3c 5d 3e 0c ce 0c be 36 dd 4a 3e
       0.023216315 0.21605057 -0.13750476 0.19810948
0000f0 42 60 b7 bd 04 4f 06 3e 30 a3 43 be 4f 0f 33 be
       -0.089539066 0.1311608 -0.1910522 -0.17486309
000100 8b 11 61 bd 8c 2c f3 bd 02 cc 92 3c 3d df 4e 3c
       -0.05494837 -0.11873731 0.017919544 0.012626466
000110 6b ba 40 be 28 5b 8f 3c 96 f3 1f be cb e2 49 bb
       -0.18821113 0.017499521 -0.15620264 -0.0030805345
000120 a6 28 cf bc 47 db 16 be 73 c3 f5 3d c3 89 1c 3e
       -0.025287937 -0.14732085 0.120001696 0.15286927
000130 66 2f 41 be c1 02 cb bd 6d e1 4b bd fe 66 85 bc
       -0.18865737 -0.09912635 -0.04977553 -0.016284462
000140 83 75 1c 3e 9f 5f de bc 1b 10 9e bd 26 e1 14 be
       0.15279202 -0.027145205 -0.077179156 -0.14539012
000150 5d c0 44 be a9 b6 f2 bd 28 e5 44 3e 47 54 31 be
       -0.19214006 -0.11851246 0.19228041 -0.17317306
000160 e3 78 50 be ee 60 30 3d 29 5e 15 3e 22 96 4b be
       -0.20358615 0.04306119 0.145867 -0.1988149
000170 96 32 fa bd cb c8 ef 3d 2c c6 1f 3e e9 1a c4 bd
       -0.1221668 0.1170822 0.1560294 -0.09575445
000180 9b 0b 82 3d 07 ad 1f bd 66 70 b1 bc 75 dd 36 be
       0.0634987 -0.03898337 -0.021660041 -0.17857917
000190 ce 7b bf bd 24 d6 02 be c3 1c c0 bd 95 ea ac bd
       -0.09349786 -0.12777 -0.09380486 -0.084431805
0001a0 3b 7d 88 bd 97 ed 28 3e 05 e6 a5 3d 50 0b 2d be
       -0.06664511 0.16496883 0.08100513 -0.16898847
0001b0 f8 ba 1f 3e 55 62 46 3e dd bd cd bd a3 62 0d 3e
       0.15598667 0.19373448 -0.10045979 0.13807158
0001c0 ed c1 e3 bc f2 5a f8 3d e2 4e 50 be 02 db 2a 3e
       -0.027802432 0.121267214 -0.20342591 0.16685107
0001d0 0c 1b 2a 3e be a9 d5 bd f4 36 de 3d 79 19 6b 3d
       0.1661188 -0.104327664 0.10850325 0.05739734
0001e0 b9 d4 31 be 80 64 03 3d 73 9d 35 be e8 94 57 bc
       -0.17366304 0.032078266 -0.17735843 -0.013158061
0001f0 d5 aa a6 bd 78 1e 4a be a6 0c 1f be 1a ca bd 3d
       -0.081380524 -0.19738185 -0.15532169 0.092670634
000200 b4 ca 16 be 7d 13 e0 3c 6d 0c ea 3d 20 16 26 bc
       -0.14725763 0.027353043 0.11428151 -0.010137111
000210 85 18 23 3e 6c 01 4f 3e 0c 92 15 3d f0 8b 9a 3a
       0.15927322 0.20215386 0.036516234 0.0011790972
000220 3d 68 0f bd cd 80 18 be 02 1a 85 bd f9 d6 f7 bd
       -0.03501152 -0.14892884 -0.06499101 -0.1210155
000230 b9 f6 2a 3e 6c a3 bd bd 35 62 ad bc 60 72 29 be
       0.1669568 -0.09259686 -0.021164993 -0.16547537
000240 cc f3 0a be a8 9f 94 bc 3a 43 14 be f8 92 88 bc
       -0.13569564 -0.018142536 -0.1447877 -0.016671643
000250 51 da fa 3b dc 7d 15 3e 39 ec 55 be 63 ec 85 bd
       0.00765542 0.14598793 -0.20890893 -0.06539228
000260 ff 90 82 bd d0 ef cf bd 25 4f 47 3c 23 bf 78 3d
       -0.06375312 -0.101531625 0.012164866 0.060729157
000270 86 b1 11 3d b5 c7 ec 3d 40 64 4b bc 3a dd 23 3e
       0.03556969 0.115615286 -0.012414038 0.1600236
000280 f2 41 29 be 43 63 42 3e 79 64 5a 3b f3 f6 2b be
       -0.16529062 0.18983178 0.0033324047 -0.16793422
000290 68 ca 12 bc ee 0c 54 bd 25 54 99 bd c8 39 f9 3c
       -0.00895939 -0.051770143 -0.074867524 0.03042306
0002a0 7a 48 e4 bc bd 51 46 bd 63 6f ed 3d 2a d4 bc 3d
       -0.02786659 -0.048417795 0.11593511 0.092201546
0002b0 91 d7 ee 3d 50 c6 9a 3c 32 2b 02 bd 24 db 00 be
       0.1166221 0.01889339 -0.031779476 -0.12583596
0002c0 bb 8a ae 3c 30 30 24 be 1d 9f ce bd ac 1d 8c ba
       0.021306386 -0.16034007 -0.10088942 -0.0010689995
0002d0 d2 d4 40 be e5 da 3a be 6d 1b 01 bd 08 e8 1d 3d
       -0.18831185 -0.18247564 -0.031520296 0.03855136
0002e0 1e 9c 82 3d 9b 77 8e 3d de a7 48 be ce 2b 25 3c
       0.06377433 0.06956407 -0.19595286 0.010081245
0002f0 f1 c6 b3 bc 1f 68 e5 3d f7 90 32 3e 78 dc a1 bd
       -0.021945449 0.112015 0.17438112 -0.07903379
000300 aa 65 22 be 6c d3 6c 3c b3 4f 30 3e b2 cd 3e 3e
       -0.15859094 0.014454704 0.17217903 0.18633154
000310 a5 7e 3f 3e f2 5a 2f 3e 6d 21 bb 3d a0 6e d9 3d
       0.18700655 0.17124537 0.09137235 0.10616803
000320 ee b0 29 be ff 1f d2 3d fc 85 47 be 28 a9 40 bd
       -0.165714 0.10260009 -0.19484705 -0.04703632
000330 12 40 34 3c 68 07 46 3e a1 21 5c 3e 88 76 fe 3d
       0.011001604 0.19338763 0.21497203 0.12424952
000340 71 8f 4a 3d 81 fa 40 3c bc ca 0e be 75 52 af bd
       0.049453203 0.011778475 -0.13944525 -0.08560649
000350 5c dc 1d 3e 3c d8 fb bd ea b3 11 be 4d 52 0b be
       0.15416092 -0.12297103 -0.14228788 -0.13605614
000360 d9 b3 1e 3d d7 17 42 bb e3 2c 0d be 48 e1 42 bd
       0.038745735 -0.002961626 -0.13786654 -0.047578126
000370 22 6c 2e be 54 9b c4 3d c9 4c ae 3d 7d ee cf 3d
       -0.17033437 0.09599939 0.08510739 0.1015291
000380 31 ad 52 be e0 98 86 bd 84 35 e5 3d fb 68 a2 3d
       -0.2057388 -0.06572127 0.11191848 0.0793018
000390 32 df 90 bd 6f 05 54 be 53 58 42 be a3 c0 33 3e
       -0.07073821 -0.20705198 -0.18979006 0.17553954
0003a0 2f 0c 35 bd 9b 63 d3 bd 4f 36 25 3c 73 7a 7b bc
       -0.044201072 -0.103217326 0.010083749 -0.015349018
0003b0 d9 f7 01 3d 72 37 99 bd 53 c6 32 be 54 d4 bd 3c
       0.031730507 -0.074812785 -0.17458467 0.023172535
0003c0 58 d5 0c be 02 fb 45 3e e6 12 26 3e a9 47 e4 3d
       -0.13753259 0.19334033 0.16218147 0.111464806
0003d0 b2 c4 0c bc 99 2c c0 3a c3 8b 18 be 07 62 56 be
       -0.008591818 0.0014661729 -0.14897065 -0.20935832
0003e0 1c 01 b1 3d d7 86 e5 bc 13 7c 90 bd e7 80 48 3e
       0.0864279 -0.028018398 -0.07054915 0.19580422
0003f0 8d f6 f6 bd 8a e4 0a be 2a 42 65 3b fb 08 0e 3e
       -0.120587446 -0.13563743 0.0034982064 0.13870613

dynamic_encoder.conv.bias f4 [128]
000000 99 44 25 3f 90 ff d1 3e b1 9e 9c 3e 2a 1b a2 3e
       0.64557797 0.4101529 0.30589822 0.3166135
000010 2c 86 1c bf dd ac 08 bf 75 39 de 3e 5f e0 92 3e
       -0.6114223 -0.5338877 0.4340321 0.28686807
000020 91 14 57 be a4 d1 c4 3e 9e e2 37 be bc 41 0e bf
       -0.21003939 0.38441193 -0.17957541 -0.5556905
000030 7d 31 2e bf 2a af 07 3e 45 e6 93 3d d2 16 54 3e
       -0.68044263 0.13250414 0.07221655 0.2071183
000040 37 f3 07 be 3f fb fe be 65 f1 25 bd be 0e 31 3f
       -0.13276373 -0.4980106 -0.040513415 0.6916312
000050 88 29 cc 3d cc 7e a4 be 4d c2 0f bf b9 46 89 be
       0.09968859 -0.32127988 -0.56155854 -0.2681177
000060 ff cc 15 3d 46 fa 19 3f 5f a7 12 be 8b 37 02 bf
       0.036572453 0.6014751 -0.1432166 -0.50866
000070 a6 96 98 be 13 92 d1 3e 18 74 cb be 12 38 0c 3f
       -0.29802436 0.40931758 -0.3973701 0.54773057
000080 c0 2c 2b bf 18 68 2a bf c9 37 3b 3e 0f b2 33 3f
       -0.6686516 -0.66565084 0.18282999 0.7019357
000090 59 3e b7 be d6 b1 0d bf 13 ba a6 3d e0 fb 42 3e
       -0.35789755 -0.5534948 0.081409596 0.19041395
0000a0 4e 9f 94 3e 3b ae f1 3e f3 63 09 be 90 0e 8e be
       0.2902779 0.4720324 -0.13417034 -0.27745485
0000b0 92 f7 01 bd 83 42 0c bf dc 85 4e be 89 80 19 3f
       -0.031730242 -0.5478899 -0.20168251 0.59961754
0000c0 7e 92 13 3f 27 bb 5f be 42 f4 86 bd 62 36 89 be
       0.57645404 -0.21848737 -0.06589557 -0.26799303
0000d0 4c fb f5 3e 89 b6 96 bd e3 82 42 3e e3 6e a6 3e
       0.48043287 -0.073590346 0.18995242 0.32506475
0000e0 3b 55 10 bf f1 7d f9 be 13 6f d7 bd a0 3c d8 be
       -0.5638005 -0.48728898 -0.105192326 -0.42233753
0000f0 6b a6 b7 be dc d4 0f 3f 77 a8 a1 3d 69 32 7f 3e
       -0.35869154 0.5618417 0.0789346 0.24921574
000100 c9 da 2d bf cf 98 00 3f 8b c9 cc 3e d8 e1 22 bd
       -0.67911965 0.5023317 0.39997515 -0.039766163
000110 65 f0 8d be b7 1e db 3e 6a dd 10 3f 04 6c 87 bd
       -0.2772247 0.4279687 0.5658785 -0.06612399
000120 a7 c4 5d be be ef db be 38 46 e6 be 82 bd a7 be
       -0.21657048 -0.42956346 -0.44975448 -0.3276177
000130 b4 4d ee 3e 82 cf fd be 8c 07 fe 3e e2 30 e1 be
       0.46543658 -0.49572378 0.49615133 -0.43982607
000140 dd f0 30 3f c0 14 ca be 37 0a 1e bf 3a e5 3f be
       0.6911753 -0.39468956 -0.61734337 -0.18739787
000150 52 cf 14 3f ad de 1b 3f 55 5b d1 3c 64 b8 ee bc
       0.58128846 0.6088665 0.025556246 -0.029140659
000160 86 ea f3 be 52 12 b3 be 72 95 66 be 34 d4 c9 be
       -0.47639865 -0.34974915 -0.22517946 -0.3941971
000170 d7 b5 56 3d 80 74 e5 3e ba de 18 bf 53 e8 c4 3e
       0.05241951 0.44815445 -0.59714854 0.384585
000180 b2 fc 50 3d 74 4e 32 bf 6d 36 04 3f d2 da 4d be
       0.05102224 -0.6965096 0.5164555 -0.20103005
000190 2b 4f 19 be 9c f7 ea 3e d7 b7 f6 3e b5 22 1e bf
       -0.14971606 0.45892036 0.48187134 -0.6177171
0001a0 20 41 11 3f 0c 26 11 bf ca 93 12 3f 24 32 0c bf
       0.5674 -0.5669868 0.5725676 -0.5476401
0001b0 c2 9f 2b 3f 9b 4d b3 3e 5a f6 1c 3f 51 14 0c 3e
       0.67040646 0.35020146 0.613134 0.13679625
0001c0 ac 7d 20 be 95 6f 26 be ff 69 00 be e4 d0 27 3f
       -0.1567294 -0.16253503 -0.12540434 0.65553117
0001d0 38 67 2b bf 93 c8 d4 3e 38 1a b3 be b8 be 17 3e
       -0.66954374 0.41559276 -0.3498094 0.14818847
0001e0 20 f3 f3 3c e2 58 81 3e 19 bc a7 3e ce c2 b7 3e
       0.029779017 0.25263125 0.32760695 0.35890812
0001f0 12 29 a6 3e 42 c0 55 3e e3 91 d7 be 95 f1 2d bf
       0.3245321 0.20874122 -0.4210349 -0.6794675

fc1.weight f4 [20, 256, 1]
000000 f3 5e df 3d 5d 4f b0 3d 0a f0 18 3e f8 99 2a bc
       0.10906782 0.08608887 0.14935318 -0.010412686
000010 33 aa 8f bd 98 43 cd 3d 30 bd 9e 3d 45 23 03 be
       -0.07014885 0.10022658 0.077509284 -0.12806423
000020 72 36 48 3d ef 9f a2 3d 94 ca 88 3d a5 f2 e6 3c
       0.048880048 0.07940661 0.06679264 0.028191874
000030 42 56 e8 bd f0 68 c2 bd 61 fd 17 be d8 1d 84 bd
       -0.11344577 -0.094926715 -0.1484275 -0.06451005
000040 2a ac 2a bd 8f 55 86 bd 76 7a 66 bd bb fa 0b be
       -0.041668095 -0.06559288 -0.05626913 -0.13669865
000050 1e 01 a2 3d 3c ba b1 bb ce 8c dc bd cf 08 8e 3d
       0.07910369 -0.005423812 -0.10769044 0.06935274
000060 17 5c b4 3d 2f 69 17 bd 51 11 f0 3d a8 05 81 3d
       0.08806627 -0.036965545 0.11722053 0.06299907
000070 4a 61 a5 bd 13 4a 69 3d bf 12 35 bd 4e 57 82 bd
       -0.08075197 0.05695541 -0.04420733 -0.06364308
000080 fe b4 e2 3d f1 a5 11 be fb d3 91 3d 55 55 e8 3d
       0.11069678 -0.14223458 0.0712051 0.11344401
000090 4b 6d fb bd 58 a6 cd bd e4 80 96 3d ce b1 0f bd
       -0.12276705 -0.10041493 0.07348803 -0.035081677
0000a0 da e8 12 3e 4d 22 24 3d 8a 70 19 bd b1 2f a0 bd
       0.14346638 0.040071774 -0.03746084 -0.078215964
0000b0 b0 27 34 3d dc 18 07 3b e7 03 67 3d c6 47 84 bd
       0.04398316 0.0020614183 0.056400206 -0.06459002
0000c0 ed 4a c1 bd ae 5e ec 3d 24 83 35 3d dc da 97 3d
       -0.09438119 0.11541496 0.04431452 0.07414791
0000d0 59 eb ba bd f8 41 13 be 4e 9f c8 bd 8a 34 28 bd
       -0.0912692 -0.14380634 -0.0979601 -0.04106573
0000e0 0e 84 0a 3b 87 01 a4 3d e9 ae 5a bd 22 d6 09 3e
       0.002113584 0.08008104 -0.053389464 0.13460591
0000f0 90 c5 fa bd 52 8b ea 3d e5 59 5f bc 3a 3c 68 bc
       -0.12244713 0.114523545 -0.013632272 -0.014174515
000100 79 65 8a 3d b3 a3 97 3d 1c 61 2c 3c 06 13 f4 bd
       0.067576356 0.0740427 0.0105212 -0.11917691
000110 86 26 ee bd ab a9 90 bd ad 94 7e 3c 0c 64 20 bd
       -0.116284415 -0.070636116 0.015538377 -0.039157912
000120 38 4e 9b 3d f0 b8 5a bd c8 ca 0e be 05 b5 fb 3c
       0.075832784 -0.053399026 -0.13944542 0.030725965
000130 20 1c 3d bd d9 8f 16 be cd 8b 35 3d 05 3c d7 bc
       -0.0461694 -0.14703311 0.044322778 -0.026273737
000140 3f 8a 08 3e ff 17 05 be 78 57 15 bd 71 6d 4a bc
       0.13333987 -0.12997435 -0.03646037 -0.012355194
000150 41 f5 3f bc b4 23 0f be 3e 7e 9f 3d 83 19 0f be
       -0.011716188 -0.13978463 0.07787751 -0.13974576
000160 35 bb 9a bd f1 54 ec bd 8b 58 b9 3d a3 28 4c 3d
       -0.07555238 -0.11539639 0.09050091 0.04984344
000170 6c 56 0e 3d a0 88 f6 3d 02 97 03 3e 7d c0 0b be
       0.034750387 0.12037778 0.12850574 -0.13647647
000180 5e c7 fd bd b8 cd ba 3d 76 85 5a 3c 79 42 88 3d
       -0.12391542 0.09121269 0.013337484 0.06653304
000190 ea 99 e2 3d fe 9a 8a 3d 28 53 bb 3d 32 4a bc bd
       0.11064513 0.06767844 0.0914672 -0.09193839
0001a0 c2 81 b8 bd 1e 91 db bc 19 32 b6 3d a1 8b c5 bd
       -0.09009124 -0.026802596 0.08896274 -0.09645773
0001b0 d8 bf 01 be d6 3d 72 bd 4d 27 7f bc 13 e2 f0 bc
       -0.12670839 -0.059141003 -0.015573335 -0.029404676
0001c0 0c c9 46 3b ba 1c e8 3d 5d 18 10 be 80 13 cc bd
       0.0030332236 0.11333604 -0.14071794 -0.09964657
0001d0 48 61 0f be 39 48 80 3d 67 17 14 be f3 68 c8 3d
       -0.14001954 0.062637754 -0.14462052 0.097856425
0001e0 63 d2 05 3d 18 ac 5a bd f1 08 e3 bd c5 ff 98 bd
       0.032671344 -0.053386778 -0.1108569 -0.07470659
0001f0 7d 8d e9 3d d6 e2 bd 3c 48 38 31 3d f5 e4 94 3d
       0.1140394 0.023179453 0.043266565 0.072702326
000200 6e 15 04 3e 48 72 bf 3c 70 29 c2 3d da 15 97 3b
       0.128988 0.023369923 0.0948056 0.004610759
000210 ff 20 63 bd c4 b6 cd bc f4 73 a8 3d 88 13 8b 3d
       -0.05545139 -0.025111564 0.08225241 0.06790835
000220 cd 0f f1 bc cf 1b cc bd b6 5c 8d bd 03 05 cb 3d
       -0.02942648 -0.099662416 -0.06902449 0.09913065
000230 c3 46 cc bd b2 9d 91 bd 6f 7a 17 bd dc cb c2 3d
       -0.09974434 -0.07110156 -0.036981996 0.09511539
000240 f7 b9 04 be 62 e9 2c bc 8f 17 6e bd 9c 82 bd bd
       -0.12961565 -0.01055369 -0.058127936 -0.092534274
000250 7d 0b 0a 3d f8 a7 f8 bd fb 9f 81 3d 39 c7 d2 3d
       0.033702362 -0.121414125 0.06329342 0.10291905
000260 3e 85 7f bd e0 54 0e be 6e 07 07 be 52 71 ae bd
       -0.06238293 -0.13899565 -0.13186428 -0.08517708
000270 d8 d7 b1 3d f9 3b f9 bd 54 8b f1 3d 9c 5f 11 3e
       0.08683747 -0.12169642 0.11794153 0.14196628
000280 b4 53 ea bd ec 4d 16 bd fc ec 5c bc f2 c4 f4 3d
       -0.11441746 -0.036695406 -0.013484236 0.11951627
000290 c4 58 a3 3d 84 98 04 be 90 f9 33 3b ab 1c ad 3d
       0.07975915 -0.12948805 0.0027461983 0.084527336
0002a0 11 fa 06 3e fa 21 f8 bd 12 2a 2a bd 09 9e ad bd
       0.1318133 -0.121158555 -0.041544028 -0.084774084
0002b0 b1 fc e0 bd 0d e6 eb 3d 96 1c e9 3d 82 46 71 bd
       -0.10985697 0.11518488 0.113824055 -0.058905132
0002c0 31 ce bc bd ae b1 91 3d 57 c2 0c be 04 7d b6 3d
       -0.092190154 0.07113968 -0.1374601 0.089105636
0002d0 f2 cd 18 3e b9 62 84 bd 87 93 de 3d c5 64 f1 3d
       0.14922312 -0.06464142 0.10867982 0.117867984
0002e0 e0 52 1a bd 12 c9 ca 3d bf 7d 0c bd 9c 6c 6c 3d
       -0.037676692 0.09901632 -0.03429961 0.057720765
0002f0 41 3a c7 bc 74 bc 51 bd d3 17 ab 3d 59 fd c2 bd
       -0.02431977 -0.051205114 0.083541535 -0.095209785
000300 7d 9b e9 bd 05 5d 70 3b f2 42 f2 bd 89 e5 9f bb
       -0.1140661 0.0036676538 -0.11829175 -0.0048796576
000310 4f b1 5e 3d 5b ef b1 3c 40 20 37 3d 56 58 1d bd
       0.054368313 0.021720579 0.04470849 -0.03841432
000320 35 0f a4 bd 41 60 15 be c0 66 0f 3c a6 59 f6 bb
       -0.08010713 -0.14587499 0.008752525 -0.007518011
000330 ef fc fc 3d 92 cf 24 bd f6 cf 0f be 60 57 8c 3b
       0.12352931 -0.040237017 -0.14044175 0.004282877
000340 50 66 05 bd 38 94 f6 3c dc 14 10 3e ca 8e 6b bc
       -0.032568276 0.030099973 0.14070457 -0.014377305
000350 68 a1 1c bc 29 af 41 bd f6 ac 17 bd 64 60 f9 bd
       -0.009559967 -0.047286186 -0.037030183 -0.12176588
000360 ce 5b 05 3e 47 57 dc bd bc e0 53 bd 93 d1 20 3d
       0.13023302 -0.10758834 -0.051727995 0.039262366
000370 7a 6e a9 bc ba 44 dd 3d ba 89 58 bd 3b 38 f0 3c
       -0.020682562 0.10804124 -0.05286572 0.029323688
000380 6f 5e d0 3d 42 41 81 3d 05 77 f2 bc 3b c0 1b 3d
       0.10174262 0.06311275 -0.029597769 0.038025122
000390 0b 82 a2 3b 55 a5 a3 bd 4c 96 d5 bd 32 fc 02 3e
       0.00495935 -0.07990519 -0.104290575 0.12791517
0003a0 c6 9a 9d 3d 47 4c 6d 3d 0d 8a af bd f0 a4 28 3c
       0.07695536 0.057934072 -0.08571253 0.01029323
0003b0 b9 e3 a5 3b ca 71 04 3e 56 90 0a 3d 81 71 0a be
       0.005062547 0.12934032 0.033829056 -0.13519861
0003c0 e6 43 10 be f7 aa c2 bd 79 99 b4 bd bb 46 4e bd
       -0.14088401 -0.09505265 -0.08818335 -0.050360423
0003d0 f9 7b bd bc 50 58 b2 bd b5 66 89 bb 1b 8f 89 bc
       -0.023130404 -0.087082505 -0.004193152 -0.01679187
0003e0 79 26 8d bc 48 10 5a bd a3 22 11 bd 72 be 62 3d
       -0.01723026 -0.053238183 -0.035433423 0.055357404
0003f0 33 62 97 3d d8 e6 05 3e 78 e3 0c be be 6b ad 3d
       0.07391777 0.13076341 -0.13758647 0.08467816

fc1.bias f4 [20]
000000 7c f4 11 3d b3 58 60 bd e4 64 f6 bc 14 8b 72 bd
       0.03563355 -0.05477209 -0.030077405 -0.059214666
000010 59 bb 03 bd fc b2 c4 3c 9a 98 1f 3d 3b fb 06 3d
       -0.03216109 0.024011128 0.03896389 0.032954436
000020 9e c0 0f 39 86 a9 6a 3d 0e ff e5 3b ae 01 fb bb
       0.00013709298 0.057290576 0.0070189303 -0.0076601123
000030 60 b7 cc 3b 1b a8 ed 3c 0c 7c 8f bc 80 7a 15 bc
       0.006247446 0.029010823 -0.017515205 -0.009123445
000040 50 10 14 bc fa f4 fa 3c b0 45 39 bd b3 db b1 3c
       -0.009037092 0.030634392 -0.045232475 0.021711206

fc2.weight f4 [20, 20, 1]
000000 ac 6c 5f bc 08 22 86 be fc 1b 8b 3d 48 81 1b 3e
       -0.013636749 -0.2619784 0.06792447 0.15186036
000010 58 fa bd 3e 38 f5 63 be 6c d6 e3 3d d7 ff a9 3e
       0.3710506 -0.22261512 0.11124882 0.33203003
000020 bf 6b 25 3e 0b 3d 78 be 90 e4 fb 3d 00 04 1e 3e
       0.16154383 -0.24242036 0.12299454 0.15431213
000030 70 a5 b1 3c 46 7c 46 3d 98 34 5c 3e 58 52 c3 3e
       0.021685332 0.04845836 0.21504438 0.3814876
000040 b0 19 06 bd 1d 8d 52 be 63 02 bf be ed 30 75 3e
       -0.03273934 -0.20561643 -0.37306508 0.23944445
000050 60 57 62 3c ce 4d c2 be 1d 01 ae be 40 50 3a be
       0.013814777 -0.37949985 -0.33985224 -0.18194675
000060 9e 74 86 3e 3a 50 bf 3e 50 1c 71 3e 78 76 a3 bd
       0.26260847 0.37365896 0.23545957 -0.079815805
000070 94 8c 75 3e 85 b1 98 be 91 64 ac be b0 3b 89 bd
       0.23979408 -0.29822937 -0.33670476 -0.067008376
000080 44 bb b1 be 60 77 27 3e f0 49 54 3d f0 ab 54 bd
       -0.34713185 0.16354132 0.051828325 -0.051921785
000090 4e 0a aa 3e 1d 90 72 be 88 e8 dd 3d 96 30 78 be
       0.33210987 -0.23687787 0.108353674 -0.24237284
0000a0 98 88 07 3d 3e e1 91 3e 1e 4b b3 3e 9a b1 a7 be
       0.03308925 0.2849216 0.35018247 -0.32752687
0000b0 5c 96 33 be 44 2a d0 3d d8 9c 7a be 50 9b 5d bd
       -0.17537826 0.101643115 -0.24473894 -0.054103196
0000c0 10 20 9a 3d 9a fc 06 be 10 bc c3 3c 58 6b 11 3e
       0.07525647 -0.13182297 0.023893386 0.14201105
0000d0 89 7b 18 be 7e f5 4e be 75 1d 12 be 78 37 67 bd
       -0.14890875 -0.20210835 -0.1426905 -0.056449383
0000e0 60 2e 48 bc 82 f4 8d 3e e0 4f a7 be d8 cb e7 3d
       -0.012218088 0.27725607 -0.32678127 0.11318177
0000f0 47 83 b0 be 8c 04 64 3e 6e 27 be 3e 8c 50 1d 3e
       -0.34475157 0.2226736 0.37139457 0.15362757
000100 b8 d6 76 3d 2c 01 a2 3d 78 79 fc 3d 70 76 8a bc
       0.060263366 0.0791038 0.12327856 -0.016902179
000110 70 ae 61 3e c9 ec 61 be 40 70 92 bd ac 97 c0 3e
       0.22039199 -0.22062983 -0.07150316 0.37615716
000120 50 53 03 be 0c c9 9b bd 2c 0f ea bd 8a ef a6 3e
       -0.1282475 -0.07606706 -0.11428675 0.3260463
000130 f4 79 1a 3e c3 15 78 be da a9 85 be 36 e2 96 3e
       0.15085584 -0.24227051 -0.2610615 0.2946946
000140 04 24 74 3e 70 c1 fe bc d7 65 91 be 00 67 9c bd
       0.23841864 -0.031098098 -0.2839801 -0.07636833
000150 07 e7 3f be e8 5e 87 3d ec f9 3d 3e a0 dd b9 3c
       -0.18740474 0.06609899 0.18552369 0.022688687
000160 60 11 95 bc 76 8b a9 3e 8c 3a f5 bd 60 86 12 3c
       -0.018196762 0.33114213 -0.119740576 0.00894317
000170 36 56 8a 3e 81 e5 c2 be d6 5c c0 3e ba f7 c0 be
       0.270189 -0.38065723 0.37570828 -0.37689
000180 38 ce 24 3e d6 9d 38 be f2 5a 7b be e4 a0 a7 be
       0.16094291 -0.1802896 -0.24546412 -0.32739937
000190 08 b5 d6 3d b6 64 93 be c3 93 8d be 22 ab 6b be
       0.10483748 -0.28787774 -0.27651796 -0.230145
0001a0 36 ca 42 3e a5 8d b0 be 78 6b 79 3e 03 04 dd bd
       0.1902245 -0.34483066 0.24357402 -0.10791781
0001b0 68 58 c0 3e ad 08 b7 3e 17 78 24 be 7d 20 61 be
       0.3756745 0.35748807 -0.16061436 -0.2198505
0001c0 ac ba 7a 3e 8d d4 d7 3d ac 96 8a 3e df 3c a2 be
       0.24485272 0.10538588 0.2706808 -0.31687066
0001d0 60 8f ce bd 5d 85 88 3e 3f 12 28 bc 8e 66 07 3d
       -0.1008594 0.26664248 -0.010258256 0.03305679
0001e0 e7 65 97 be ef 5b 9b be d4 d8 b2 3e 70 f3 f0 bd
       -0.29569933 -0.30343577 0.34931052 -0.11765182
0001f0 46 3a 86 be 2c 23 40 3e 13 d9 80 be 33 e5 16 be
       -0.26216334 0.18763417 -0.25165614 -0.1473587
000200 c0 44 e1 3c ec 3c 94 3d f4 e2 50 3e c0 b4 ac 3d
       0.027498603 0.072381824 0.20399076 0.08432913
000210 e8 10 c6 be 8f 6d 96 be 3c 60 9c be f8 cd 58 bd
       -0.38684773 -0.29380462 -0.3054217 -0.052930802
000220 44 1e 81 be 20 b2 60 3c e0 1b 08 bc 3e bf 41 be
       -0.25218403 0.013714343 -0.008307427 -0.1892061
000230 f1 30 11 be a9 d2 56 3e 7d 84 4e be ca 45 c1 be
       -0.14178826 0.20978798 -0.20167728 -0.37748557
000240 e2 23 24 3e 77 86 2d be 5a fe b8 3e 5b fa aa 3d
       0.16029313 -0.16945826 0.36131555 0.08348533
000250 80 4e 49 bd b7 15 ce 3d 4c 59 b6 be 33 7d 6a bd
       -0.04914713 0.100627355 -0.35615003 -0.057248306
000260 bb e5 a6 be 0e 6b 99 be 34 8b c2 bd 5a f0 bc 3e
       -0.32597145 -0.2996449 -0.09499207 0.36902124
000270 05 36 b0 be cc 6c 0d be e9 fa 9a 3e 51 7f d4 3c
       -0.34416214 -0.13811034 0.30269554 0.025939615
000280 73 d5 8a be 20 4e 1f bd 71 b5 bc be da cf 45 be
       -0.27115974 -0.038892865 -0.3685718 -0.1931757
000290 30 6b ad 3e fd d4 2c be 5c c7 6c 3e fc 34 a5 3e
       0.3387084 -0.16878124 0.23122925 0.32266986
0002a0 84 c3 a7 3e 50 d9 ec 3d 2a 3e 9c 3e 20 9e 55 3d
       0.32766354 0.115648866 0.30516177 0.052152753
0002b0 a4 b1 af bd 34 5b 88 bd 20 9f 5a 3d ac a6 9f 3e
       -0.08578804 -0.066580206 0.05337441 0.31181848
0002c0 90 3f 36 3e 03 d2 b2 be 60 b6 c9 bd 83 c4 ad be
       0.17797685 -0.3492585 -0.098492384 -0.3393899
0002d0 44 36 f4 bd 9a 82 42 3d 00 22 89 3b 06 e0 ad 3e
       -0.11924413 0.047487833 0.0041849613 0.3395998
0002e0 83 4d f7 3d 18 b5 27 3e 80 92 59 bd 41 d7 99 3e
       0.12075331 0.16377676 -0.05311823 0.30047038
0002f0 51 29 46 be 77 cd 80 3e c9 93 a8 3d b6 a8 8f 3d
       -0.19351698 0.25156757 0.08231313 0.07014601
000300 9e 89 c0 3e 20 12 96 bd 9c 9b af 3e 88 72 8c 3d
       0.37604994 -0.07327676 0.34298408 0.068577826
000310 54 b4 3b 3e f1 f5 ea bc 33 97 6b be 04 5d 12 3d
       0.18330508 -0.028681727 -0.23006897 0.035733238
000320 85 a3 9e be 9e 87 48 3e 20 47 b4 3d 60 5b f7 bd
       -0.3098413 0.19582984 0.088026285 -0.12077975
000330 4a 51 b9 be c6 23 b5 3e ae b4 89 3e 8b 85 bc 3e
       -0.3619483 0.35378855 0.2689566 0.36820635
000340 be 6b af 3e a0 c5 73 be 83 5d ae bd 5b 47 13 3e
       0.34261888 -0.23805857 -0.0851393 0.14382689
000350 ae 93 a5 3e 61 cb 82 bd b1 4d 30 be b0 8a f5 3c
       0.32339233 -0.06386448 -0.17217137 0.029973358
000360 a0 2d bd bd 64 41 9e be 1c ab a2 3e ef 31 9b 3e
       -0.09237218 -0.30909264 0.3177117 0.30311534
000370 f0 dd 21 3e 13 ec 84 be 0f 16 ba be c2 e9 bb 3e
       0.15807319 -0.2596136 -0.36344954 0.3670178
000380 5b 12 40 be 18 64 2d be a2 52 be 3e 25 ef 9e be
       -0.18757002 -0.16932714 0.3717242 -0.31041828
000390 c0 5d 3e 3e 80 71 51 3b 30 11 c4 bc c4 02 8c bd
       0.1859045 0.003195852 -0.023933977 -0.06836465
0003a0 38 6e 9a be 00 91 19 3d 96 b1 b4 3e 48 e2 80 3e
       -0.30162215 0.0374918 0.35291737 0.2517264
0003b0 9b bb 92 be c0 10 7a 3d 88 2c b8 bd d0 05 73 bd
       -0.28658757 0.06105113 -0.08992869 -0.059331715
0003c0 01 b3 9b be 9a 26 28 3e 2a b5 ae 3e fc 01 bb be
       -0.30410007 0.16420975 0.34122592 -0.3652495
0003d0 6c eb 52 3e 14 72 a5 3d 40 9b 65 bd f0 77 6b 3e
       0.20597619 0.08078399 -0.05605626 0.22994971
0003e0 90 20 99 bd 43 7f 47 be df 82 91 3e 28 8f 0e bd
       -0.07476914 -0.1948214 0.2842016 -0.034804493
0003f0 34 5c 4c 3e 62 98 1f 3e ae 40 88 3e c8 21 9f bd
       0.19957048 0.15585473 0.26611847 -0.07770115

fc2.bias f4 [20]
000000 de c8 9c bc 90 67 90 3d 34 c4 83 bd b0 d0 7c bd
       -0.01913875 0.07051003 -0.06433907 -0.061722457
000010 00 4e 00 3e fa 71 e5 bc 2c 73 e3 3d 4c 62 3d be
       0.12529755 -0.02800845 0.11105952 -0.18494529
000020 78 bc 51 be 5d e7 23 3e 57 40 61 be 48 3a 19 3e
       -0.20482051 0.16006227 -0.219972 0.14963639
000030 36 11 d1 3d c6 95 c8 3d 08 84 4a 3e 79 f4 37 3c
       0.10208361 0.09794192 0.19776928 0.01122772
000040 b4 1a 1c bd 06 21 b7 3d 4c f1 92 3d 7c 86 56 3e
       -0.038111404 0.089418456 0.0717493 0.20949739

fc3.weight f4 [1, 20, 1]
000000 68 4c bb be 99 1d 07 bf 67 fb fc be 36 8c a0 be
       -0.3658173 -0.5277954 -0.49410555 -0.31356972
000010 ae 31 99 be 2c 24 a8 be a2 49 31 be 4a 4c 6a be
       -0.29920715 -0.32840097 -0.17313245 -0.22880664
000020 0c 2c 69 be 31 d2 b3 3d 9b ff 24 be 28 97 d7 bd
       -0.22770709 0.08780325 -0.16113131 -0.10526878
000030 af 9d ee 3d 02 8d 60 be b0 8e 8f bd c8 0a e7 3d
       0.116511695 -0.2192879 -0.07009637 0.11281353
000040 10 44 9a bd 14 2a a7 3e 01 6e 87 3e 18 10 68 be
       -0.07532513 0.3264929 0.26451114 -0.2266239
