Task assignment/drl4vrp/vrp/10/19_20_26.716625/checkpoints/0/critic.pt (torch, 29011 bytes, 9 tensors)

static_encoder.conv.weight f4 [128, 2, 1]
000000 d2 7b 1e 3e 59 0d 49 be 90 60 1e 3e c8 f6 5c 3e
       0.15476921 -0.19633998 0.15466523 0.21578515
000010 f4 74 08 be 8e e1 96 bd 65 ba c3 3d b4 ff 1c 3e
       -0.13325864 -0.0736724 0.09557036 0.15331918
000020 ad b5 06 3e 3c 7a 4a 3e e4 69 58 3e fe db 5b be
       0.13155241 0.19773191 0.21134144 -0.21470639
000030 de 9e f6 bd 4b 15 41 be 3c 04 0b be de ae d6 3d
       -0.1204202 -0.18855779 -0.13575834 0.10482572
000040 7e 3d 96 3d 2e f7 4c 3e a3 b5 04 be dc 0d a3 3d
       0.073359475 0.20016167 -0.12959914 0.07961628
000050 e1 db 02 be b3 56 b5 bc 03 7c d8 3d 1a cd db 3d
       -0.1277919 -0.022136068 0.10570528 0.107324794
000060 8a aa d2 3d de 4f e5 bd 8a 86 45 be a3 e3 3f be
       0.10286434 -0.11196874 -0.19289604 -0.1873918
000070 9c dc 1d be 77 a3 bc 3d 8b 1e 08 be 47 c9 90 3d
       -0.15416187 0.09210866 -0.13292901 0.070696406
000080 d5 08 0d 3d d0 ce 18 3e 90 39 19 3e de 48 3d 3e
       0.03443225 0.14922643 0.14963365 0.18484828
000090 60 e9 02 be 73 55 4d 3e 9a 43 33 3e 00 01 21 be
       -0.12784338 0.20052128 0.17506257 -0.15723038
0000a0 25 26 1d 3e c6 9b 0f be d0 d4 3a 3e 54 0f f2 bd
       0.15346582 -0.14024267 0.18245244 -0.1181933
0000b0 3a b2 45 bd f6 eb 09 be f0 4a dc 3c 7e 67 26 bd
       -0.048265673 -0.13468918 0.026891202 -0.04062604
0000c0 49 b6 33 be b0 b6 37 3e cc 2c b3 bd 0e 81 3a be
       -0.17550005 0.17940784 -0.08748779 -0.18213293
0000d0 7d d2 ef bd f6 a4 2f be da ba 15 be eb 46 47 be
       -0.11710069 -0.17152771 -0.1462206 -0.19460647
0000e0 86 38 12 3e f1 78 c8 bd 88 30 b0 3d 5a c6 b4 3d
       0.14279374 -0.09788693 0.086030066 0.08826895
0000f0 64 75 ae 3d 77 7b c4 3d b2 4e 40 bd d9 4f da bc
       0.08518484 0.095938616 -0.04695005 -0.026649402
000100 18 09 b9 bc 57 3d fb 3b 26 52 4c be 08 8e d8 bd
       -0.022587344 0.0076672244 -0.19953212 -0.10573965
000110 ae bb 41 bd ff 7f be bc eb e6 1b 3e 7f d6 c0 3c
       -0.047298126 -0.023254393 0.15224807 0.02353978
000120 12 b4 4a be 5f d6 3e 3e a8 69 95 3d f3 15 07 be
       -0.19795254 0.18636464 0.07295543 -0.13191967
000130 63 2c ad bd 47 d7 01 bb 2c 1d 58 3e a4 65 06 be
       -0.08455732 -0.0019812153 0.21104878 -0.1312471
000140 f5 a4 40 bc f0 33 b5 bc fb 96 5c be ca db 76 3d
       -0.011758079 -0.022119492 -0.2154197 0.0602682
000150 39 1d 26 bc b8 15 cf 3d 2f 08 cb 3d 3a 4a db bc
       -0.010138803 0.101115644 0.0991367 -0.026768792
000160 4c e1 29 be 58 13 4c 3d f6 66 35 3e 86 a9 02 3e
       -0.1658985 0.049823135 0.17715058 0.1275998
000170 81 4f c4 bd d7 b8 18 3e c3 3b 48 bd d1 5a 31 be
       -0.09585477 0.14914261 -0.04888512 -0.173198
000180 d4 a9 83 bc fc 61 de bc 14 29 ea bd 87 72 19 be
       -0.016072191 -0.027146332 -0.11433616 -0.14985095
000190 d8 75 f2 bd e4 89 a6 bd 7a 91 46 bd f0 dd b2 3d
       -0.11838883 -0.08131769 -0.04847858 0.087337375
0001a0 64 a4 0e be 81 f5 3c 3e d2 62 0e be 9f d2 17 bd
       -0.13929898 0.18453027 -0.13904884 -0.0370661
0001b0 91 20 1d 3d e0 17 fb 3c f3 de dd 3c 38 d1 b8 bc
       0.038361136 0.030651033 0.02708385 -0.0225607
0001c0 7f cb a6 3d 59 30 84 3d 0c cd f4 3d 95 82 b0 3c
       0.081442825 0.06454534 0.11953172 0.021546641
0001d0 7a 7a 52 be 58 c6 ff bd f1 df a2 3c 07 4c 46 3e
       -0.20554534 -0.12489003 0.019882174 0.1936494
0001e0 0d 20 4d be b3 5e be bd 90 d9 8e 3d 8a cc 00 3e
       -0.20031758 -0.09295406 0.069750905 0.12578025
0001f0 d5 7b 19 3d c6 69 1c 3e 49 1b 06 bc 1e a7 e4 3d
       0.03747161 0.15274724 -0.008185216 0.111646876
000200 8f fe 45 be f2 58 24 be 1c 04 8d bd 24 2b 97 3d
       -0.19335388 -0.16049555 -0.068855494 0.07381275
000210 64 e8 30 bd 78 c9 b7 bd e8 48 db bd 47 e7 56 be
       -0.043190375 -0.08973974 -0.10707265 -0.20986663
000220 f8 a1 0e 3e 0d fe 79 3d 1b 30 e1 bd 9b 66 d4 bd
       0.13928974 0.061033297 -0.109955035 -0.10371133
000230 79 02 4d 3d 71 79 45 3e 49 2e 9f 3d 50 76 be 3c
       0.050051186 0.19284607 0.077725 0.023249775
000240 79 a9 1b 3e 2a a2 4a be b3 6a 3a bd 04 05 5d 3e
       0.15201367 -0.19788423 -0.045511913 0.21583945
000250 a2 80 f2 bd e2 b7 0b 3e dc 83 53 bd fd a3 86 bd
       -0.11840941 0.13644364 -0.051639423 -0.06574247
000260 6a e2 23 3c 6e 2a 17 3c af 04 55 3e b0 41 67 bd
       0.010002712 0.009226425 0.20802568 -0.05645913
000270 2b cf a7 3d c3 bb 6b bb ad dc 9d bd 24 97 59 3e
       0.08193811 -0.003597007 -0.07708106 0.21249062
000280 8d 10 48 be 07 c5 ae bd b8 b9 1a be d9 70 2f 3c
       -0.19537564 -0.08533674 -0.15109909 0.010708057
000290 db e4 4e 3e 85 11 00 3e 03 7d 3b 3d 11 62 9b bd
       0.20204489 0.12506683 0.045773517 -0.07587064
0002a0 e7 51 a7 3d ba 02 29 bd e5 93 54 bd c3 37 26 3e
       0.081699185 -0.041262366 -0.051898856 0.16232209
0002b0 6b fe 02 3e a3 dc ff 3d 27 88 5a 3e fb 71 0f 3e
       0.12792365 0.12493255 0.21341 0.14008324
0002c0 fa 2f 07 3e aa f8 3a 3e 18 0a 06 3e 95 96 64 bd
       0.13201895 0.1825892 0.13089788 -0.05580767
0002d0 ec 6b ae 3d c8 f4 27 be fb ef 8b 3d 40 3e 20 3d
       0.08516678 -0.1640197 0.06832882 0.039121866
0002e0 3d d6 1a 3e 36 2a 6c bd 7e a8 88 bd 07 58 14 be
       0.15120788 -0.057657443 -0.06672762 -0.14486705
0002f0 3f cb bb 3d ba 8d 43 be 85 2a f5 bd 49 4d 33 3d
       0.091696255 -0.19097033 -0.119710006 0.043774877
000300 bf 0a 5b be b2 a5 4e 3e c3 aa a8 3d 8b f0 84 3d
       -0.21390818 0.20180395 0.08235695 0.064911924
000310 44 2d 50 3e f7 0d 43 be 17 04 1c be 03 37 5f 3d
       0.20329767 -0.19048296 -0.15235935 0.054495823
000320 a4 6d 05 3e 7e 2d e2 3d 77 11 4b 3d a9 01 14 3e
       0.13030106 0.11043833 0.049577203 0.14453758
000330 d1 a5 5c 3e e6 a5 35 be 62 3c 85 3d a1 4f 45 3e
       0.21547629 -0.17739066 0.06505658 0.19268657
000340 a1 19 8e 3d 46 ca 56 be ce ec 43 3e f5 13 c0 bd
       0.06938482 -0.20975599 0.19133303 -0.093788065
000350 7f e5 8f 3d 14 3c 82 bc 3e ea 25 3e 44 77 83 bd
       0.07026195 -0.015897788 0.16202638 -0.064192325
000360 da 5d 13 3e 44 9d 1e be 7f ec 06 be cb 82 ef bd
       0.1439127 -0.1548968 -0.13176154 -0.11694869
000370 61 33 05 3e 27 bc 27 3e 5c bc 45 3e 14 db 27 be
       0.13007881 0.16380368 0.19310135 -0.16392165
000380 c1 a9 3d 3d 8d f5 43 bd 42 8d 17 bd 39 f7 30 be
       0.046304468 -0.047841597 -0.03699995 -0.17281808
000390 da 27 65 bc ac 1a 28 3e 37 b4 06 3e c6 5a b0 3c
       -0.013986552 0.16416425 0.13154684 0.02152766
0003a0 07 f1 11 bd 10 14 5a 3e 54 c4 da bc 5f d4 38 be
       -0.035630252 0.21296716 -0.026704945 -0.18049763
0003b0 ee 8b 0f be fc 9d 0c be 04 8e f5 3d a1 f2 36 3d
       -0.14018223 -0.13732141 0.11989978 0.044664983
0003c0 43 ef 37 be a0 6a 49 3e 7c 23 03 be 36 83 15 3e
       -0.17962365 0.1966958 -0.12806505 0.14600834
0003d0 3a 7a ad bc 20 ed 1e be c3 b3 5d 3e e2 9b 0e 3e
       -0.021176446 -0.15520144 0.21650605 0.13926652
0003e0 0d a8 58 3d cf e4 64 bc d4 69 f9 3c 94 fc 37 3e
       0.05289464 -0.013970568 0.03044597 0.17967445
0003f0 82 16 5b 3c c3 7a 1e be 8e 56 55 be 92 a2 43 be
       0.0133720655 -0.15476517 -0.20833799 -0.19104984

static_encoder.conv.bias f4 [128]
000000 ab fb d8 3d 61 6f e2 be 22 3b 60 be 68 38 10 be
       0.10594877 -0.442256 -0.21897557 -0.14084017
000010 4e 83 a1 3e 4a 9d 6b be 9d 07 a8 3e 3e ab 98 3d
       0.3154549 -0.2300922 0.32818308 0.07454537
000020 8d 3e df be 08 d1 7a 3e d1 67 87 3e 1c 56 30 3f
       -0.4360241 0.24493802 0.26446393 0.6888139
000030 21 7a f1 3e e6 50 d5 3e 17 c6 34 3d 25 26 8f be
       0.4716349 0.41663283 0.044134226 -0.2795879
000040 e5 a3 f3 3e d8 21 0a 3f 82 2e 26 3f 22 21 e7 3e
       0.4758598 0.5395789 0.64914715 0.45142466
000050 65 b0 9d 3e 5b eb 15 3f 30 62 c4 be 82 f8 c7 be
       0.3079864 0.5856225 -0.3835616 -0.39056784
000060 c3 f4 0b 3f d3 36 85 3e 0c 60 6b 3e f8 b8 00 bf
       0.5467035 0.2601839 0.22985858 -0.5028224
000070 29 c5 a8 be 95 82 05 3f 36 02 a4 3e f2 d6 b0 be
       -0.3296292 0.5215238 0.32032937 -0.3453899
000080 80 45 dd 3e 31 eb d1 3d 81 95 3d be 2b 26 10 3e
       0.43217087 0.10249937 -0.18514062 0.1407706
000090 f1 15 0a bf 92 6b a1 be aa 20 fb 3e bf 31 b3 3e
       -0.5393973 -0.31527382 0.49048358 0.3499889
0000a0 04 a4 50 3c ac f3 c6 3e d9 f8 b9 3e 70 d0 74 3e
       0.012734417 0.38857782 0.36322668 0.23907638
0000b0 71 6f e1 3d 80 7e 4a bd f6 7b 26 bf 01 1e 4e be
       0.11007584 -0.049437046 -0.650329 -0.20128633
0000c0 74 8c 0a 3f 64 b8 d9 be 24 5c bb 3e ac 8f 7a 3d
       0.54120564 -0.4252349 0.36593735 0.061172172
0000d0 7f cd 31 bf d3 e7 7b 3e f1 a8 62 3e 7e 60 96 bd
       -0.6945419 0.24600153 0.22134759 -0.07342623
0000e0 47 3a 30 bf c0 e8 0a bf 81 53 ae 3e 3a 46 d7 be
       -0.68838924 -0.542614 0.34048083 -0.42045766
0000f0 15 e1 ac 3e 4f 82 12 3f 66 d5 16 bf b4 93 ef be
       0.33765474 0.57230085 -0.5891937 -0.46792376
000100 04 32 1d 3f a4 2e 0e bc af f2 bc 3e 40 44 a3 3d
       0.6140444 -0.008678112 0.36903903 0.07972002
000110 80 6f a1 be 51 5c 1c bd 70 fd 05 bf 12 c1 b7 be
       -0.3153038 -0.038173977 -0.5233984 -0.35889488
000120 8b 40 b0 be bb 76 83 be 6f ed 20 3f 3f 03 44 bd
       -0.34424242 -0.25676522 0.62862295 -0.04785466
000130 1e ef b5 3d db aa bc be 14 9b 1f 3e a1 b5 00 bf
       0.088834986 -0.36849102 0.15586501 -0.50277144
000140 a7 f7 6a bd 5e 95 e5 3d d4 1e 40 be 73 60 70 3e
       -0.057365086 0.1121013 -0.1876176 0.23474292
000150 9b 96 19 bf f0 9a 31 3f 33 bd f2 bd 96 63 18 bf
       -0.5999543 0.6937704 -0.11852493 -0.59526956
000160 45 fd 20 bd 0d 1b c3 3e b3 61 3f 3e db ce 2b bf
       -0.039304037 0.38106576 0.18689613 -0.6711251
000170 e1 71 02 be 01 b5 13 3f 73 ba 22 3f 7c ed de be
       -0.12738754 0.57698065 0.6356575 -0.4354056
000180 39 c4 25 bf 64 5b a8 bd 0c fe d2 3e f2 cd 0f 3f
       -0.64752537 -0.082205564 0.41209447 0.5617362
000190 f6 7a 1b 3f ba 68 40 ba b8 93 28 bf 07 75 cd 3e
       0.607345 -0.0007339824 -0.658504 0.40128347
0001a0 bf 31 31 bf 2d be 2a 3e 06 b8 4f 3e b9 cd 11 3e
       -0.6921653 0.16674109 0.20285043 0.14238633
0001b0 90 70 01 3f 27 a0 de be dd 7a 31 3f fd 34 1d bf
       0.5056238 -0.43481562 0.693281 -0.6140898
0001c0 91 bd 1b 3f 20 3a 9c be 9d 53 0a be d1 e5 f8 3d
       0.6083613 -0.30513096 -0.13508458 0.12153209
0001d0 49 ac f8 3e 3d 99 df be f5 93 fa bc 5c 3a b3 3e
       0.48568943 -0.436716 -0.03058813 0.35005462
0001e0 28 1e ac 3d 28 0e 06 be cf 2f 1f 3f 4b 07 bd 3e
       0.08404189 -0.13091338 0.62182325 0.36919627
0001f0 07 1b da 3e bd 5f b3 3e b0 08 11 bf f8 9d 8a bd
       0.42598745 0.3503398 -0.5665388 -0.067684114

dynamic_encoder.conv.weight f4 [128, 2, 1]
000000 ef 0e 34 3e fd 71 16 be cc c2 65 ba e7 d2 a2 3d
       0.17583822 -0.1469192 -0.0008764684 0.07950383
000010 cd 8e 6f 3d 87 0d d5 bd dc ca b3 3d b9 b2 3b 3c
       0.058485795 -0.10402971 0.08778927 0.011456185
000020 9c 28 0c 3e 73 08 e8 bd 44 74 f6 3d 15 1b 47 3e
       0.13687366 -0.113297366 0.12033895 0.19443925
000030 19 7d 7c 3d 0b e3 53 3e 69 65 9e bd 53 47 56 3e
       0.06164274 0.20692079 -0.07734186 0.20925646
000040 c2 29 b4 3c 42 5e 21 3e 93 29 9d bd aa 7a c7 3d
       0.021992568 0.15758613 -0.07673945 0.09740193
000050 ab 46 0a be 48 d2 34 be b3 35 33 be 5b 23 1b be
       -0.1350352 -0.17658341 -0.17500953 -0.15150206
000060 00 9d 93 3d 33 90 fb 3d 01 10 2c be a4 59 08 3e
       0.0720768 0.12283363 -0.1680298 0.13315445
000070 33 f6 2b be 3b 67 2d 3e 69 f3 12 3e 79 35 e3 bc
       -0.16793136 0.1693391 0.14350666 -0.027735459
000080 45 4d 07 3e 6a ca 32 3d 21 a1 ed 3d 46 bb 46 be
       0.1321307 0.04365007 0.116029985 -0.19407377
000090 77 26 42 be e7 5e 56 3e 42 45 96 bd 71 71 2e be
       -0.18959986 0.2093464 -0.07337429 -0.17035462
0000a0 a9 69 c7 bd b9 15 e0 3d 58 62 0f 3e 6e 31 df 3d
       -0.0973695 0.10941643 0.14002359 0.108981
0000b0 f4 17 3f 3c 48 5a fb bd a7 d4 a5 bd 6c c0 40 be
       0.011663426 -0.12273079 -0.08097201 -0.18823403
0000c0 54 c8 cb 3d 87 38 00 be c8 e8 04 be 7f ba 55 be
       0.09950319 -0.12521563 -0.12979424 -0.20871924
0000d0 39 75 7b 3d f9 1c 4b 3e e3 c0 83 3c 77 5e f9 bd
       0.06139109 0.19835271 0.016083186 -0.12176221
0000e0 5d 11 2b 3e 1c 1b bb bd 6b 12 35 3e 8c 0d cc bc
       0.16705842 -0.0913603 0.17682807 -0.024908803
0000f0 9d cc a4 bd eb 0a 34 3e 77 14 9d bd 73 85 37 be
       -0.080468394 0.1758229 -0.07669919 -0.17922
000100 50 9d 33 3e a3 9d cd 3d 50 a9 25 3e ec f8 6e bd
       0.17540479 0.100398324 0.16177869 -0.05834286
000110 53 0d 3f be f9 bc e1 bd 6a f8 7f bb 18 4f 7f 3d
       -0.18657427 -0.11022372 -0.0039057978 0.06233129
000120 f7 11 27 3e 7d aa f6 3b d6 f6 ef 39 7a 4a 56 3d
       0.16315447 0.007527648 0.0004576954 0.05231712
000130 b0 1f 71 bd 40 d8 58 3e f6 4f 52 bd ff 29 cc bd
       -0.05886811 0.21176243 -0.051345788 -0.099689476
000140 2e d1 c0 bd 7e cb 0c 3e ae a4 4b 3e 2e 86 6e 3d
       -0.09414898 0.13749501 0.19887039 0.058233432
000150 fb ac 20 be d8 37 05 3e c8 d5 40 3e e6 58 10 3e
       -0.15690987 0.13009584 0.18831551 0.14096412
000160 33 ad 23 be bd 48 27 3e 9a 61 06 be de a0 46 be
       -0.15984039 0.16336341 -0.1312317 -0.19397303
000170 de e6 08 3e 27 a0 d5 bd 3b b8 1b 3e 1c 92 4a bd
       0.13369319 -0.10430937 0.15206997 -0.049455747
000180 79 88 c5 3c f6 a0 35 ba bd 39 2a 3e ef df 30 be
       0.024112927 -0.0006928587 0.16623588 -0.17272924
000190 0b 2a 17 bd 43 c0 00 3e 85 e6 3e be ba c5 1d be
       -0.03690533 0.12573342 -0.18642624 -0.15407458
0001a0 12 5c 1c be 25 4a 19 3d 19 e6 f1 3d fa 57 c5 bb
       -0.15269497 0.037424225 0.11811466 -0.0060224505
0001b0 fe 65 4e 3e b7 b0 f9 bd 5f c4 de 3d 66 ce 00 bd
       0.20156094 -0.12191909 0.108772986 -0.031446837
0001c0 16 10 11 bd 7d c0 31 3e aa f1 54 be e4 2d 4b be
       -0.03541573 0.17358585 -0.20795313 -0.19841725
0001d0 b5 bc 86 bd b2 3c 4d bd ab 72 ee 3c 81 06 33 be
       -0.06578962 -0.05010671 0.029107412 -0.1748295
0001e0 96 3d 5a 3e 92 0d 86 3d 18 bf 9f bb f4 f8 0d bd
       0.21312556 0.06545557 -0.004875075 -0.03466125
0001f0 7b 91 99 bd 53 55 32 be 01 ea 58 be d6 77 3c bd
       -0.07498451 -0.17415361 -0.21183015 -0.046012722
000200 8a ef 59 be ef 08 2b 3e 7d f9 2e be d2 e1 47 be
       -0.21282783 0.16702627 -0.1708736 -0.19519737
000210 74 c5 b7 3d 76 85 4d 3e 3d 12 40 3e 11 4d 80 3d
       0.08973208 0.20070443 0.18756957 0.06264699
000220 14 65 1a 3d ea 34 bb bd 4d 5b 15 3e f3 29 17 3e
       0.03769405 -0.09140952 0.1458561 0.14762096
000230 64 8c 57 3e 7c f6 85 bc 23 57 39 3e 4d 04 42 be
       0.21049649 -0.016352884 0.18099646 -0.18946953
000240 45 72 c5 3d 29 2b 15 3e b1 9f 6e 3d db 4b aa 3c
       0.09640936 0.14567246 0.058257762 0.020788124
000250 41 a7 db 3d 0b 24 c4 3d 52 bd 7d bc 11 be 3e be
       0.107252605 0.09577187 -0.015487032 -0.18627192
000260 6c bb 36 be 14 7b aa bd f3 47 42 3e 7d 53 35 3d
       -0.17844933 -0.083242565 0.18972759 0.044269074
000270 b9 6c 04 3e 96 0c 55 3e 49 47 1a 3e e4 bd 39 3d
       0.129321 0.20805582 0.15066256 0.04534711
000280 fc 8d ec bd ee 2d a5 bd 33 42 15 3e 25 05 7f bd
       -0.11550519 -0.08065401 0.14576034 -0.062260766
000290 ed 51 76 bc 4a d3 1f be 17 f7 2f 3d da 2e 9e bc
       -0.015034181 -0.15607944 0.042960253 -0.01930945
0002a0 bd 02 4d 3e 38 4e 63 bd 7d b8 a8 bd a3 c5 9f 3d
       0.20020576 -0.055494517 -0.08238313 0.07801368
0002b0 5c 32 0b 3e 93 e6 15 be 17 07 24 3e c1 13 13 be
       0.1359343 -0.14638738 0.1601833 -0.14363004
0002c0 96 ce 70 3d 17 64 54 bd 6b 7e a7 3d c0 b0 34 3e
       0.058790766 -0.051853266 0.08178409 0.1764555
0002d0 31 7c 54 be f4 e4 39 be 14 11 40 bd f3 d5 04 3e
       -0.207505 -0.18153745 -0.046891287 0.1297224
0002e0 a8 87 3b 3e 31 fd e4 3d 53 3a b7 bc 1c f8 d5 bd
       0.18313468 0.11181105 -0.022366678 -0.10447714
0002f0 2e c6 0b 3e c7 d9 40 3e 5f d8 2b 3d fa 35 d1 3c
       0.13649818 0.18833075 0.041954394 0.025538433
000300 a6 a2 32 be fb a2 d5 3d b9 21 8c 3c 4c 36 e0 bd
       -0.17444858 0.10431477 0.017105924 -0.10947856
000310 c3 75 c1 bd 56 43 b9 bc 1a bf 97 bd 65 da da bd
       -0.094462894 -0.022615116 -0.074094966 -0.10686187
000320 61 b5 12 be 02 2e 63 3d 5d 44 cb bd 60 7a 3d 3e
       -0.14327003 0.0554638 -0.09925149 0.18503714
000330 08 95 13 3e e1 65 ff bd b5 d8 de 3d 2c 3a 32 be
       0.1441232 -0.12470604 0.10881177 -0.17405003
000340 62 7f 53 be 6a 8f 12 3c a0 ed be 3d 67 7e 93 bd
       -0.20654061 0.008945325 0.09322667 -0.07201844
000350 a3 c4 40 be 2a e7 36 be 8d 42 16 3e 26 a9 6f 3d
       -0.18825011 -0.1786162 0.14673825 0.058510922
000360 5c d6 3c bc 3c 20 78 bd ad a3 ee bd 92 d2 8c 3d
       -0.011525717 -0.060577616 -0.116523124 0.068761006
000370 5b 17 c7 bd f5 98 2c 3d 56 7b af bd 4e a0 ad bd
       -0.097212516 0.04213806 -0.08568446 -0.08477841
000380 3a 68 07 3e 8f 5f 2d 3d 76 fb 38 be 3a 12 ae 3d
       0.13223353 0.04232746 -0.18064675 0.0849957
000390 e8 d3 56 be 1c 2d de bc e2 16 f0 3c 51 bf 0b 3e
       -0.20979273 -0.02712112 0.029307786 0.136472
0003a0 d4 05 53 3d 5e ca 32 3d 33 06 d0 bd 75 2a b4 3d
       0.05151923 0.043650024 -0.101574324 0.087971605
0003b0 5e d9 5b bd 73 fa 21 be 56 ff 98 b9 ca bc 56 be
       -0.053674094 -0.15818195 -0.0002918194 -0.20970455
0003c0 70 a6 0a 3e 44 cf 15 be dc 80 33 3e f2 e1 26 3e
       0.13540053 -0.14629847 0.17529625 0.16297129
0003d0 e0 f1 9c 3d f0 90 25 3e 88 fd 3c 3e 37 dc 09 3e
       0.076633215 0.1616857 0.1845609 0.13462912
0003e0 24 e2 58 be be f2 d9 bd 5d e4 ae bd 95 08 06 3e
       -0.21180016 -0.106420025 -0.085396506 0.13089211
0003f0 69 84 b8 3d 37 08 4f be 8f a4 c9 3d 12 51 45 3e
       0.0900963 -0.20217977 0.0984584 0.19269207

dynamic_encoder.conv.bias f4 [128]
000000 fe 5d 6c 3e ef c7 1f bf ba 21 95 3e b1 aa 50 bd
       0.2308273 -0.6241445 0.29127294 -0.050944034
000010 37 3c ca bd b6 11 b6 3e c0 ec 2a bf f4 eb 9e 3e
       -0.09874766 0.35560387 -0.667675 0.31039393
000020 a8 44 74 be ae 0f f5 be 88 db c3 3e b2 06 14 3e
       -0.23854315 -0.47863525 0.38253427 0.14455679
000030 9d 76 e5 3e f8 22 cc 3e 48 8a 01 bf 2e da b1 be
       0.44817057 0.3987043 -0.50601625 -0.3473677
000040 16 01 a5 3d a9 3c 0a bf 4b 70 29 bf a5 fc 13 3f
       0.08056848 -0.5399881 -0.6618697 0.5780738
000050 02 78 a6 be f8 ab b8 be 18 88 d5 3e 99 ca 29 bf
       -0.32513434 -0.36068702 0.41705394 -0.66324764
000060 49 9a 64 be 84 54 08 bf 54 13 9f be 9c 4d 12 3f
       -0.2232448 -0.5325396 -0.31069434 0.5714967
000070 14 3d e9 3d 8e 98 3c be 20 69 48 be 65 b0 5b be
       0.11388603 -0.1841757 -0.19571352 -0.21454008
000080 eb 14 3f 3e 03 d1 09 bf eb af 86 3e c1 8c 9f be
       0.18660323 -0.5383455 0.2630609 -0.31162074
000090 cc bc 0d 3f 4a d7 7a be cc ff 47 3d 7f 4b 25 3e
       0.55366206 -0.24496189 0.04882793 0.1614208
0000a0 d7 6b 33 3e db 4e 65 be db 0c 16 3f 4c b9 ae 3e
       0.17521606 -0.22393362 0.58613366 0.34125745
0000b0 2e 5a 19 3f 52 b6 89 be ad af d0 3e b8 ed 11 bf
       0.5990323 -0.26896912 0.4075903 -0.57003355
0000c0 66 52 5a 3e 17 31 b3 3e b9 70 08 3f 05 63 d9 be
       0.21320495 0.3499839 0.53297 -0.42458358
0000d0 54 6e b4 be f4 5d 21 bf 77 bf 74 be 83 4d ac be
       -0.35240424 -0.63033986 -0.23901163 -0.33652887
0000e0 33 4b e4 be d9 47 1e bf ed e0 25 3f 49 73 2b be
       -0.44588622 -0.6182838 0.64796335 -0.16743197
0000f0 f1 53 3e 3e b3 8f 20 3f 09 6a a9 bd 61 57 86 3e
       0.18586709 0.6271927 -0.08272178 0.2623854
000100 69 3b 8b 3e 70 cc f8 3e c6 ad f2 3e d0 f1 f1 3e
       0.27193764 0.48593473 0.47398204 0.472548
000110 a0 dd b3 bd 95 7d 26 3f 00 e7 29 bf 78 97 8a be
       -0.08782506 0.6503537 -0.66368103 -0.27068686
000120 c9 47 07 3f 7e e5 2d bf 4b e5 21 bf b5 e8 32 3f
       0.5284391 -0.679283 -0.632405 0.6988633
000130 6c b9 03 3e 32 fd f8 3d ad 1a f2 3e 7f 4a 94 bd
       0.12863702 0.12157668 0.47285977 -0.072407715
000140 ca 9b 13 3f 54 44 03 bf 2b 36 4f be ef a8 ec be
       0.5765959 -0.51276135 -0.20235507 -0.46222636
000150 9a 5e aa bd a7 64 01 3e 37 bd b0 be 00 94 15 bd
       -0.08318825 0.12636052 -0.3451936 -0.036518097
000160 5d 23 b7 3e 3d 60 92 3e 59 0e 0a 3f a6 a4 ef 3e
       0.35769168 0.2858905 0.5392814 0.46805304
000170 54 cb cb bc ac bd c7 be b6 76 31 bf 37 9b 99 3c
       -0.024877228 -0.39011896 -0.69321764 0.01875077
000180 90 04 bc 3e f8 ba 9d 3d cb 54 ae be f0 05 62 3e
       0.3672223 0.07701677 -0.34049067 0.22072577
000190 70 78 fb 3e 33 06 8d 3e 03 f8 e5 3d 0d f4 20 3f
       0.49115324 0.27543792 0.11228945 0.6287239
0001a0 0b 48 95 3d eb 6f be be 08 a6 0d bf bb 38 22 bf
       0.07289132 -0.37194762 -0.5533147 -0.63367814
0001b0 26 22 e3 be 83 08 aa 3e 0b 19 2b bf ad 6b d2 3e
       -0.4436199 0.3320962 -0.6683509 0.41097775
0001c0 ab 22 f1 3d 12 72 79 be b9 fa 45 3e 15 63 18 be
       0.117741905 -0.2435992 0.19333924 -0.14881547
0001d0 c2 b8 d4 3e d2 8f 11 bf a7 3b 2c bf ed a8 43 3d
       0.4154721 -0.5686008 -0.6727852 0.047768522
0001e0 35 0d 10 bf 51 09 20 3f d3 36 11 bf e6 b0 da 3e
       -0.5627015 0.62514216 -0.5672428 0.42713088
0001f0 c1 ce bc be dc 0a a7 be 89 85 f8 bd 6e 90 11 3e
       -0.3687649 -0.32625473 -0.12134845 0.14215252

fc1.weight f4 [20, 256, 1]
000000 4e 27 12 be d2 9a c7 3d f8 e2 83 3d 8c 47 e2 bd
       -0.14272806 0.097463265 0.06439775 -0.11048803
000010 7e dd d1 3d 9c ac 24 3d 68 72 fc bd e4 49 b2 bd
       0.102473244 0.040203676 -0.12326509 -0.087055
000020 f6 1a d1 3d 20 1e 04 be 86 f3 06 3e 33 fd c0 bd
       0.102102205 -0.12902117 0.13178834 -0.09423294
000030 6c 73 04 3e 09 e2 a3 bd fa 37 0d 3e 44 1e 08 3d
       0.12934655 -0.08002097 0.13790885 0.03323199
000040 00 b4 67 bb 40 b8 e0 bb a2 9c ae bd 56 aa 8f bd
       -0.003535509 -0.006857902 -0.08525969 -0.07014911
000050 4c bd 00 3e 38 5b bb 3d e6 93 b0 3d 12 cb 96 3d
       0.12572211 0.09148258 0.086219594 0.07362951
000060 6a 65 c5 bd be e5 c7 3d 26 ce de bd b4 66 a5 bd
       -0.09638484 0.09760617 -0.108791634 -0.0807623
000070 c0 b7 04 bd 40 98 33 3b 0e 28 28 bd a8 74 81 3d
       -0.0324018 0.002740398 -0.041053824 0.063210785
000080 bc 8c 13 3e 2e 45 a6 3d 20 eb b2 3b ca cb b2 bd
       0.14409155 0.08118664 0.005460158 -0.08730276
000090 55 2f 8a bd 20 6c a1 bb 70 1d 14 3e c3 60 ab bd
       -0.06747309 -0.0049262196 0.14464355 -0.08368065
0000a0 79 ae bc bd 60 75 ef 3d 80 94 12 bb d2 86 ae 3d
       -0.092129655 0.116923094 -0.0022366345 0.08521809
0000b0 bc 89 db bc ca 1b 16 3e 7c bc 55 bd c2 d6 48 bd
       -0.026799075 0.14659038 -0.052181706 -0.049032934
0000c0 f0 a0 cc bd 68 1e ec bc c6 29 c4 bd 6e e1 0b 3e
       -0.09991634 -0.028823093 -0.0957828 0.13660213
0000d0 1c 7e f0 3d a8 c5 f7 bd 3c 2c 13 3d 4c 2f 6f bd
       0.117428035 -0.12098247 0.035930857 -0.058394715
0000e0 2f 19 0a be a0 9e 68 3d 8c 16 fc 3d 14 ec c9 3d
       -0.1348617 0.0567919 0.12308988 0.098594815
0000f0 8c 71 0d 3d b4 2b 07 3e 59 0d 93 bd ac 1c ab bd
       0.034532115 0.13200265 -0.0718028 -0.08355078
000100 5f 82 f6 bd 14 b0 f6 bc 58 2e b3 bc 24 24 46 bd
       -0.12036585 -0.030113257 -0.021872684 -0.04837431
000110 52 92 01 3e a8 94 83 bc 10 2d 71 3d a4 4f e7 3d
       0.12653473 -0.016062096 0.058880866 0.11294487
000120 0c 36 d7 bd ac 34 0a 3d 49 a6 d0 bd 46 52 c9 3d
       -0.105083555 0.033741638 -0.101879664 0.098301455
000130 7c 06 4c bd 3c 9f 08 3e 08 27 ff 3d 80 62 81 ba
       -0.04981087 0.13341993 0.124586165 -0.0009871274
000140 d6 9c 43 bd 2a 6f 77 bd dd ac ea bd 94 90 e7 bc
       -0.047756992 -0.06040875 -0.11458752 -0.028267182
000150 3c 1c f5 3d 58 4f 0f 3e 2a e2 0b be fb 98 16 be
       0.11968276 0.13995111 -0.13660493 -0.14706795
000160 47 5d 01 be 5c f1 51 3d 86 d7 cb 3d 03 28 84 bd
       -0.12633239 0.05125557 0.09953217 -0.06452944
000170 74 d5 ef 3d ec 0f a0 3d 10 63 5a 3d dc 2c d9 bd
       0.11710635 0.07815537 0.05331713 -0.10604259
000180 74 72 c1 3d f2 0b 8d 3d 80 d4 a0 3a d0 6b 55 3d
       0.09445658 0.06887044 0.0012270361 0.05210477
000190 33 a6 ab bd 04 39 78 bd d0 c8 d7 3d 90 39 0b be
       -0.08381309 -0.06060125 0.10536349 -0.13596177
0001a0 c0 cc 0e be 80 e7 ea 3b 62 e5 b0 3d e2 8a b5 3d
       -0.13945293 0.00716871 0.08637501 0.088643804
0001b0 50 0e 4e 3d 50 09 4f 3c dc 92 8c 3d e0 b5 7e bd
       0.05030662 0.012636498 0.06863949 -0.06218517
0001c0 4e c6 43 bd 2c 3f e9 bd c4 1b 02 3e 64 30 6f 3d
       -0.04779654 -0.11389002 0.12705904 0.05839576
0001d0 80 2a 3d 3b 5c 9f c3 3d 42 fa 0a 3e c4 26 87 3d
       0.0028864443 0.0955188 0.13572028 0.06599191
0001e0 9e 73 11 3e 2c ef d8 3d 14 f1 22 3d dc 8c 11 3d
       0.1420426 0.105924934 0.03978069 0.035534725
0001f0 a6 35 9c bd 60 cb 80 bc 86 42 af bd 2a f7 03 be
       -0.0762742 -0.015721977 -0.0855761 -0.12887254
000200 18 dd e0 3c 40 fb 09 bb aa 98 1e bd 1c c3 16 3d
       0.027449176 -0.0021054298 -0.03871981 0.036807165
000210 c0 b4 ca 3c 56 63 08 3e d4 73 7f 3d d8 1a 04 3e
       0.024744391 0.13319144 0.06236632 0.12900865
000220 20 1a 0c 3e 88 d9 9e 3d 10 9d f4 3d 74 e3 f1 bd
       0.13681841 0.077563345 0.1194402 -0.11810961
000230 0c 33 1a 3d fc 4e de 3d 58 c6 0f 3e ae bf 53 bd
       0.03764634 0.10854909 0.14040506 -0.051696472
000240 23 63 e7 bd 74 2d 78 bd 7c a8 10 3e 86 a0 d3 bd
       -0.11298206 -0.060590222 0.14126772 -0.10333352
000250 78 de 53 3d 3c a7 0b 3d 80 ed 90 3a 28 00 bb 3d
       0.051725835 0.034095034 0.0011057109 0.09130889
000260 4c aa 88 3d 9a db 8c 3d c0 8f ce 3c 10 a2 89 3c
       0.066731066 0.06877823 0.02521503 0.01680091
000270 68 c6 b1 bc 08 cf e7 3d cc 4f 06 bd 6c d0 01 be
       -0.021701053 0.11318785 -0.032790944 -0.12677163
000280 64 57 8f 3d 5c 6d db 3d 08 33 95 3c 34 c9 ef bc
       0.0699909 0.10714218 0.01821281 -0.029270746
000290 d0 30 8e 3d 30 9b 0f 3e 40 12 f0 bd 6e 4e 61 bd
       0.06942904 0.14024043 -0.11722231 -0.055006437
0002a0 f0 31 10 bd 48 f5 3d 3d 3a 39 b7 3d ad 52 9a bd
       -0.035203874 0.046376497 0.08946462 -0.075353004
0002b0 87 b3 82 bd 64 00 61 3d e7 94 c5 bd 60 a0 c3 3b
       -0.063818984 0.054932013 -0.096475415 0.005970046
0002c0 38 65 12 3e 04 da 7e 3d 8c bc 0a be 51 41 8e bd
       0.14296424 0.062219635 -0.13548487 -0.06946052
0002d0 c4 a5 0c 3d 40 f7 c1 3c 4a 1d 01 3e 10 4d 8b bc
       0.034337774 0.023677468 0.12608829 -0.01700452
0002e0 bc fe 0a bd 6c 40 10 3e 10 44 a0 bd b4 39 df 3d
       -0.03393434 0.14087075 -0.07825482 0.10899678
0002f0 2f 5a 13 be 00 20 d1 b7 b8 72 8f bc 47 cc d5 bd
       -0.14389871 -2.4929643e-05 -0.017510757 -0.104393534
000300 64 c5 09 3e e0 37 b6 bc 54 4a ff bd b2 15 cc bd
       0.13454205 -0.02224344 -0.12465349 -0.099650756
000310 60 75 8c 3d 48 6f 83 3c 80 d1 63 3b d2 05 d0 3d
       0.06858325 0.016044274 0.0034762323 0.1015736
000320 78 1a fb bd 50 39 00 bd 48 93 b1 3c c6 f3 3e bd
       -0.12260908 -0.031304657 0.021676674 -0.0466192
000330 8a c7 ea bd 40 fe c4 3b b1 84 f7 bd 70 f0 d7 3c
       -0.1146384 0.0060117543 -0.12085856 0.026359767
000340 60 a6 cb 3c 24 f5 2f 3d c0 0e 28 bc 88 50 b5 bc
       0.024859607 0.042958394 -0.010257423 -0.022133127
000350 94 1c ee 3d 3c 48 d7 bd 10 92 0f 3e 5e 33 02 be
       0.116265446 -0.105118245 0.14020562 -0.12714908
000360 92 f4 20 bd c0 a8 97 bc 00 b6 86 3d 0a 47 db bd
       -0.03929574 -0.018513083 0.065776825 -0.10706909
000370 b0 6c ed bd 24 25 cf 3d ae ad 99 bd ca cd 0e bd
       -0.11592996 0.10114506 -0.0750383 -0.034864224
000380 82 1c 12 3e 32 45 10 be e0 86 e2 3d 16 cf f2 bd
       0.14268687 -0.14088896 0.110608816 -0.11855905
000390 c8 de c2 3d 14 c7 16 3e ac bc cd 3d b6 07 40 bd
       0.095151484 0.1472438 0.10045752 -0.046882354
0003a0 53 a0 02 be e0 96 33 3d fe 40 fb bd b8 e6 2d bd
       -0.12756471 0.043845057 -0.12268256 -0.04245636
0003b0 c0 6d ac bb a4 ca a8 3d 45 00 14 be 7e ae 9b bd
       -0.0052621067 0.08241776 -0.14453228 -0.07601641
0003c0 60 d2 4b 3d 58 07 ea 3d af 89 0d be 96 c8 0b be
       0.049761176 0.11427182 -0.13822053 -0.13650736
0003d0 ca cf 89 bd fb 50 80 bd 98 c7 b8 3d 24 3d c9 3d
       -0.06729086 -0.06265446 0.090224445 0.09826115
0003e0 e0 5c 8f bd e9 0e d4 bd 54 e3 e7 bd ac 1a 5c bd
       -0.070001364 -0.103544064 -0.11322656 -0.053736374
0003f0 0c ab 57 3d dc 0f df bc 97 1b 82 bd 6c 6e 74 3d
       0.052653357 -0.027229242 -0.063529186 0.05967562

fc1.bias f4 [20]
000000 64 26 f8 bc 2c a8 4f 39 68 66 58 bc de 73 19 bd
       -0.030291744 0.00019803707 -0.013208009 -0.037464015
000010 2c 03 89 bc f6 31 d6 bb be 66 48 bd 3a 8f b1 bc
       -0.016725145 -0.0065367175 -0.048926108 -0.021674741
000020 d8 7a 0d 3d d3 49 8d bb 24 1d e6 bc 00 13 3d 3d
       0.03454098 -0.004311779 -0.028090067 0.046160698
000030 02 0d 14 bd 0f 45 66 bd 18 c1 18 3c d2 fa ec bc
       -0.036145218 -0.056218203 0.009323381 -0.028928194
000040 85 80 6e 3d ce b1 9c bc 1a 3e 99 3c 90 b9 a5 bc
       0.058228035 -0.019127753 0.01870637 -0.020230085

fc2.weight f4 [20, 20, 1]
000000 40 e0 37 bc 7b 2a e1 bc 58 0a 60 3e b9 51 4c 3e
       -0.011222899 -0.027486077 0.21878946 0.1995305
000010 00 d5 af bb 02 35 f7 ba 97 ec 1b 3e 05 b0 33 bd
       -0.0053659678 -0.0018860402 0.1522697 -0.043869037
000020 a9 5e ba be 1d 47 02 3e ce 52 48 be ed c4 a5 be
       -0.36400345 0.1272244 -0.19562837 -0.32376805
000030 33 ea 31 be 50 ff 56 be 7c 02 44 3e 42 b6 b9 3d
       -0.17374496 -0.20995831 0.19141573 0.09067966
000040 d9 13 8a bc f3 e3 c5 3e ad 83 a2 3d 1f 1b 5a be
       -0.016855167 0.38650474 0.079352714 -0.21299408
000050 4c 91 9a 3e eb f0 4a bd f8 ad 11 3e 77 ce 1f be
       0.30188978 -0.049546164 0.1422652 -0.15606104
000060 1c 60 a4 3d 77 19 a3 3e 4d 01 62 bd c4 61 10 bd
       0.08026144 0.31855366 -0.05517702 -0.035249487
000070 b0 e9 25 3e 05 fa 44 3e 42 37 9e be a4 e2 91 be
       0.16202426 0.19236 -0.30901533 -0.28493226
000080 ed 9d 4d be ad 51 20 3e 3a 6c b2 3e 77 f3 62 bd
       -0.20079775 0.15656157 0.34848195 -0.055407967
000090 0a 76 c3 be 33 ec 39 3e 08 63 7b 3e 08 9e 35 3e
       -0.38175994 0.18156509 0.24549496 0.17736065
0000a0 20 d1 4c 3e d0 56 fa 3d 77 bf c2 be d9 18 a6 3e
       0.2000165 0.122235894 -0.380367 0.32440832
0000b0 73 f3 90 be a7 fd 9a be f0 68 9d 3d af f8 f0 3b
       -0.28310737 -0.30271646 0.07686031 0.007353864
0000c0 26 d3 76 be 21 02 99 be 3b 7e 4e be 09 71 7e be
       -0.24103984 -0.29884437 -0.2016534 -0.24847807
0000d0 4c 59 e0 3d 77 ac 93 be 80 8e 96 bd 4e 6f 49 3d
       0.10954532 -0.28842518 -0.073513985 0.049178414
0000e0 a3 6d b1 3e 3b 77 a6 3e be d2 05 3e 00 36 e8 ba
       0.3465396 0.3251284 0.13068673 -0.0017716289
0000f0 b4 cd c2 3e c2 cf 8c 3e 74 7c 0a be 18 c4 b4 3d
       0.38047564 0.27502257 -0.13524038 0.088264644
000100 66 68 a4 3e 78 23 64 3e 09 1f 8e be 22 e2 81 3d
       0.321109 0.22279155 -0.27758053 0.063419595
000110 e8 d0 9d bc 03 4a 95 3e b8 f8 e0 bd 79 33 35 be
       -0.019264653 0.2915803 -0.10984939 -0.17695417
000120 ac 47 8e bd 72 a7 bd bd 08 e7 8b bd 6e 3d bd 3e
       -0.06947264 -0.09260453 -0.06831175 0.3696093
000130 3b 82 fe bd 5e 71 5b be 4c d0 82 3e 94 55 c4 3e
       -0.12427183 -0.21429965 0.25549543 0.3834654
000140 b8 2e 46 3e 5a ba 67 bd 78 ef 1c 3e a7 35 d3 bd
       0.1935376 -0.056574203 0.15325725 -0.10312968
000150 d0 0f 79 bd 24 f1 ea bc a8 02 06 be 39 68 4d 3e
       -0.060806096 -0.028679438 -0.13086951 0.20059289
000160 eb 1e b3 bd 11 48 98 3e 10 10 e5 3c 4e f7 b8 3e
       -0.087461315 0.29742482 0.02796176 0.36126179
000170 64 6e 99 bd 5c 79 ab 3e b0 0c e8 bc 9e fa ba 3d
       -0.074917585 0.33491027 -0.028326362 0.09129833
000180 87 40 19 be 6d 26 bc be 4a 30 25 3e e8 11 21 3e
       -0.14966021 -0.36748067 0.16131702 0.15729487
000190 68 47 3f 3e b8 88 e1 bd bc d6 64 3e a8 5a 07 bd
       0.18679583 -0.11012405 0.2234754 -0.03304544
0001a0 e4 7e b4 3e 00 9e 2a be 84 ce 73 3e 58 32 d4 3c
       0.3525306 -0.16661835 0.23809248 0.025902912
0001b0 40 99 e2 bd 44 05 05 3e ec 78 af 3e 32 3c ba 3e
       -0.11064386 0.1299029 0.34271944 0.3637405
0001c0 04 c5 c1 3e 12 8c ad be 64 72 91 3e c5 9a 49 3e
       0.37845623 -0.33895928 0.28407586 0.19687946
0001d0 88 a5 c5 3e b1 9c 90 3c 5e af 76 be 90 67 fb 3d
       0.38602853 0.017652841 -0.24090335 0.12275612
0001e0 5a 51 bc 3e 0d 1a 5a 3e 60 9c 8e bc fb f4 ab be
       0.36780816 0.21299 -0.01740855 -0.33585343
0001f0 dc 21 70 3e 77 01 a5 be 29 e5 71 be aa ee 60 3e
       0.23450416 -0.3222768 -0.23622574 0.21966043
000200 c4 87 7f bd 7c f4 a5 be b6 1c 67 be 30 7e a8 3c
       -0.062385336 -0.3241309 -0.22569546 0.020567983
000210 64 26 34 3e c3 54 10 be 2c ec 2a 3e 28 a2 a3 3c
       0.1759277 -0.14094834 0.16691655 0.019974783
000220 d1 62 07 3e a0 d3 0f 3d 72 d4 04 3e 80 39 84 3e
       0.13221289 0.03511393 0.12971666 0.2582512
000230 cc 69 a9 3d 30 4b a1 3e 20 1c bb 3e f0 02 a3 3d
       0.08272132 0.31502676 0.36544895 0.07959545
000240 24 d9 b0 3d 70 5e 5d be ac c0 a4 3e 68 63 b6 bd
       0.08635166 -0.21618056 0.32178247 -0.08905679
000250 38 20 9f 3e d0 ca 46 3d 88 a2 87 3d 00 31 9f bb
       0.31079268 0.04853326 0.06622797 -0.004858136
000260 a0 cc d0 3d 84 ff 4a 3e 83 76 94 be 95 65 72 be
       0.10195279 0.19824034 -0.28996667 -0.23671563
000270 9f 53 96 be 08 54 88 be 26 ec 1d be 18 cf c4 3e
       -0.29360673 -0.2662661 -0.15422115 0.3843925
000280 8a d5 af 3e 2b 2a ae bd 20 ef 63 3e c2 1b c1 be
       0.34342605 -0.08504137 0.22259188 -0.3771649
000290 30 e0 ba 3e 89 a6 3b bb c5 a6 d3 bd c7 dc 60 3e
       0.36499166 -0.0028633198 -0.10334543 0.2195922
0002a0 98 6f 2f 3d 47 e3 46 be 10 17 e5 3c 88 3b a0 3e
       0.042831033 -0.19422637 0.027965099 0.3129542
0002b0 d0 29 79 be bc b7 b0 3e 34 90 b7 be 28 0f c4 be
       -0.24332356 0.34515178 -0.35852206 -0.38292813
0002c0 6c 3a d3 bd 3b a7 9c 3e b2 b0 7d 3d b8 c9 f9 bd
       -0.103138775 0.30596337 0.061936088 -0.12196678
0002d0 94 21 d5 3d ea 0e c4 3e a8 99 87 3e fd 8a 79 be
       0.10406795 0.3829263 0.26484418 -0.24369426
0002e0 20 9d 2c 3e 76 72 a9 be 20 39 98 be 68 b5 6a 3e
       0.16856813 -0.3309514 -0.29731083 0.22920763
0002f0 66 1f 55 bd 6c 1a 3a 3e 90 06 6a be 77 69 52 be
       -0.052031897 0.18174142 -0.22854066 -0.20548044
000300 bc 62 6c 3e 29 70 26 bd b4 79 b8 3d ce 16 39 be
       0.23084539 -0.040634308 0.09007588 -0.18075106
000310 df 21 16 3e 68 ce 7a 3e be de 9f be 4a f1 30 be
       0.14661358 0.244928 -0.31224626 -0.17279544
000320 20 17 4b bc 1e ed 43 3d b5 b7 83 be ac ed 6d 3e
       -0.01239565 0.047833554 -0.25726095 0.23235196
000330 6c 2c 7c 3e 90 c1 c1 be d5 8d 8d 3e b3 59 9c bd
       0.2462632 -0.3784299 0.27647272 -0.07634296
000340 84 87 28 3e db c9 be 3e d0 10 82 bc 04 35 1e 3e
       0.16457945 0.37263379 -0.015877157 0.15449911
000350 90 5a 4d 3e 13 30 c5 be da de b8 be 37 be a6 3e
       0.20054078 -0.3851324 -0.36107522 0.32566997
000360 2f e1 c1 3d 4c dd 9c 3e f4 d2 dc bd f0 6d bb 3c
       0.094667785 0.30637586 -0.107824236 0.02287957
000370 9c c9 8e bd 47 2d 80 be 24 03 03 be 18 6a a8 bd
       -0.06972048 -0.25034544 -0.12794167 -0.08223361
000380 20 21 18 3e d0 c9 d7 bd 7a 84 90 be ae 08 36 be
       0.14856386 -0.105365396 -0.28226072 -0.17776749
000390 fa b3 42 be 1c 52 a6 be f0 f3 8a 3e fc f7 a0 bd
       -0.19013968 -0.3248452 0.27139235 -0.07859799
0003a0 12 40 b8 3e fc 9a 99 bd 78 cf 15 be e4 c2 b3 be
       0.35986382 -0.07500264 -0.14629924 -0.35109627
0003b0 30 2e 36 3e f4 98 8d bd 64 10 46 3e e4 9a 2b 3e
       0.17791057 -0.06913939 0.1934219 0.16758305
0003c0 a2 b6 c3 be f8 f7 24 bd ce b5 84 3e e0 51 8b bd
       -0.38225275 -0.040275544 0.25919956 -0.06802726
0003d0 68 81 65 3d b0 1b ab 3e fa 84 10 be bc b0 bf bd
       0.056031615 0.3341956 -0.14113227 -0.09359881
0003e0 2f 4c 1d be 7a e8 75 be 6e 02 aa 3e 84 f9 69 3e
       -0.15361093 -0.24014464 0.3320498 0.22849089
0003f0 cc 03 b0 be f0 8b 8d be 30 49 fe bc 1c 25 ba 3d
       -0.34377897 -0.27645826 -0.031040758 0.09089109

fc2.bias f4 [20]
000000 85 22 41 3e e1 08 3f be 23 be 48 bd 8d c7 be 3d
       0.18860824 -0.18655731 -0.049009454 0.09315405
000010 68 8b 29 3e d2 c7 eb 3d c5 d9 09 3d b8 35 3a be
       0.16557086 0.11512722 0.033654947 -0.18184555
000020 fc 2e 04 3e 6b e0 90 bd 8b c9 3e 3e 44 4a f1 3d
       0.12908548 -0.07074054 0.1863157 0.11781743
000030 84 e5 10 3e 42 d4 4d bd 50 83 80 3c 26 03 92 bd
       0.14150053 -0.050251253 0.015687615 -0.07129507
000040 44 d7 b1 bd 19 ce 30 be 13 eb 41 3e d5 98 63 be
       -0.08683637 -0.1726612 0.1893733 -0.2222627

fc3.weight f4 [1, 20, 1]
000000 84 ab 33 3e 4a 00 c8 be 47 75 05 be db fe d5 bd
       0.17545897 -0.3906272 -0.13033019 -0.104490004
000010 c1 19 86 be 8f 52 a0 3e 9b 3e 72 3e 0e b7 ff 3e
       -0.26191524 0.31312987 0.23656695 0.49944347
000020 e9 38 07 be 85 b3 0e 3e 53 e6 0f 3e 05 56 03 3f
       -0.13205303 0.13935669 0.14052705 0.5130313
000030 e8 de 18 3e ed 2d f9 3e 2e 85 f1 3e 88 3a aa 3e
       0.14928782 0.4866785 0.4717192 0.3324778
000040 4e 92 b4 3e 2f c1 cc bd 15 99 d1 3c e0 69 c6 3d
       0.35267872 -0.09997784 0.02558569 0.09688163
