Task assignment/drl4vrp/vrp/10/20_22_33.603681/checkpoints/7/critic.pt (torch, 29011 bytes, 9 tensors)

static_encoder.conv.weight f4 [128, 2, 1]
0	0xbde75605	-0.11295704
1	0xbdd05a9a	-0.10173531
2	0x3e55df19	0.20885886
3	0x3d4e45eb	0.050359648
4	0x3e63a0d9	0.22229327
5	0xbc29a470	-0.010354146
6	0x3ddccacb	0.10780867
7	0x3d65a881	0.0560689
8	0xbde43bba	-0.111442044
9	0x3d653303	0.05595685
10	0xbe158485	-0.14601333
11	0xbdabc982	-0.08388044
12	0xbe5bdddc	-0.21471351
13	0xbca50ead	-0.0201486
14	0xbd90fd06	-0.070795104
15	0x3e03f59e	0.12886664
16	0xbdc3854b	-0.09546908
17	0x3e46928d	0.19391842
18	0x3e255c24	0.1614843
19	0x3e5ba207	0.21448527
20	0x3c4fe83b	0.012689645
21	0x3e0c17a4	0.13680893
22	0x3dc8869e	0.09791301
23	0x3e61902e	0.22027656
24	0xbe603b4c	-0.2189762
25	0xbe48c62c	-0.19606847
26	0xbd0d6a99	-0.034525488
27	0x3e0a1f1c	0.1348843
28	0xbe29bc1b	-0.16575663
29	0xbd0d2f50	-0.03446895
30	0xbdfccb85	-0.12343506
31	0x3dae98fe	0.08525275
32	0xbe1aa6b8	-0.1510266
33	0xbe43918b	-0.19098489
34	0x3e23096a	0.1592156
35	0xbd020bf6	-0.031749688
36	0x3c9fc651	0.019503744
37	0xbdeb71a4	-0.114962846
38	0xbdbcca39	-0.092182584
39	0xbe4ad169	-0.19806446
40	0x3e55051e	0.20802733
41	0xbe3d8e0f	-0.18511222
42	0xbe51b554	-0.20479327
43	0x3e341f24	0.17590004
44	0x3e2fba61	0.17160942
45	0x3e399fc8	0.18127358
46	0x3e309b44	0.17246729
47	0x3cac9c41	0.021070601
48	0x3df05326	0.11734609
49	0x3e18b660	0.1491332
50	0x3e2d3d97	0.16918026
51	0xbdc544a9	-0.096322365
52	0x3e17f5eb	0.14839904
53	0xbd95ce85	-0.07314781
54	0xbe24831e	-0.16065642
55	0xbe10e1fc	-0.14148706
56	0x3d93f0f4	0.072236925
57	0x3e012723	0.12612586
58	0x3e2fa92d	0.17154379
59	0xbe3fd981	-0.18735315
60	0xbd8cf090	-0.06881821
61	0x3df65cac	0.120293945
62	0x3e5e1cb8	0.21690643
63	0x3e5627b6	0.20913586
64	0x3c2e0a9c	0.010622647
65	0x3e3d10c7	0.18463431
66	0xbdb70f0c	-0.08938417
67	0xbdf59365	-0.11991004
68	0x3d41401b	0.047180276
69	0xbcdb22ff	-0.026750086
70	0x3d7d52ef	0.06184667
71	0x3e0c60eb	0.13708846
72	0xbe1ee199	-0.15515746
73	0xbcf4a543	-0.02986396
74	0x3e2236e6	0.15841255
75	0xbde76616	-0.11298768
76	0xbe06c5aa	-0.1316134
77	0x3e3aa728	0.18227828
78	0xbe074b6f	-0.1321237
79	0x3e44b9f3	0.19211559
80	0xbe520463	-0.20509486
81	0x3dfb0655	0.12257067
82	0xbe2073cc	-0.15669173
83	0x3dab4463	0.08362653
84	0xbdc848ae	-0.097794876
85	0x3beba2f0	0.0071910545
86	0xbe542b26	-0.20719585
87	0xbd47e0fc	-0.048798546
88	0x3dcafb12	0.09911169
89	0x3e1c070f	0.15237068
90	0xbcc08075	-0.023498753
91	0xbe558204	-0.20850378
92	0x3dea1aed	0.11430917
93	0xbd845bb5	-0.06462804
94	0xbe163ca3	-0.14671569
95	0x3e118a4b	0.14212911
96	0xbe2cf521	-0.16890384
97	0xbd858d72	-0.06521119
98	0x3dee05c2	0.11622192
99	0xbc94f5cb	-0.01818361
100	0xbe2b5178	-0.16730297
101	0x3da5933b	0.080847226
102	0x3e1b98d8	0.15195024
103	0x3d6c8bdb	0.057750564
104	0xbe025da2	-0.1273103
105	0x3cf3883f	0.029728053
106	0xbd54c5a2	-0.05194629
107	0xbdeb27d8	-0.11482209
108	0xbd73117e	-0.059342854
109	0xbd3b5e54	-0.045744255
110	0xbca84db5	-0.020544866
111	0x3d8a27fe	0.06745909
112	0xbdbb12a2	-0.09134413
113	0xbe16bc91	-0.1472037
114	0x3c9420b3	0.018081998
115	0x3d2958c5	0.041344423
116	0xbe3a4132	-0.18188933
117	0x3dd8f144	0.10592893
118	0xbd577035	-0.052597243
119	0xbe2baf90	-0.1676619
120	0x3dbcc8bb	0.09217974
121	0xbddb1605	-0.10697559
122	0xbdcd20d8	-0.1001603
123	0xbdf9563e	-0.121746525
124	0xbddc9112	-0.107698575
125	0x3e39b93b	0.18137066
126	0xbdcb99cc	-0.09941444
127	0xbd43be23	-0.04778875
128	0x3e33cf02	0.17559436
129	0x3e0295d0	0.12752461
130	0xbe080bdf	-0.13285778
131	0xbe5e9752	-0.21737412
132	0xbc8cd85c	-0.017193012
133	0xbd598cb1	-0.05311269
134	0xbd80129c	-0.062535495
135	0xbd6ecf4d	-0.058303166
136	0x3e5cdbfc	0.21568292
137	0x3e1a63b6	0.15077099
138	0xbe194a83	-0.1496983
139	0x3d47ec3f	0.048809286
140	0x3d5d0fa8	0.05397001
141	0xbe52a6c4	-0.20571429
142	0x3d8b4513	0.06800284
143	0xbd8d18f9	-0.06889529
144	0x3e2b147a	0.1670703
145	0x3d7c1bff	0.061550137
146	0xbe023897	-0.127169
147	0x3ddaa811	0.106765874
148	0x3e23d0a5	0.1599756
149	0x3dd6c492	0.104867116
150	0x3e602d6d	0.21892329
151	0xbcd6ae08	-0.026206031
152	0xbc3ab668	-0.011396028
153	0xbdf88c2e	-0.12136112
154	0x3e2555e7	0.1614605
155	0x3e388496	0.18019328
156	0x3d80a90a	0.06282242
157	0x3ddebbfb	0.10875698
158	0x3bae968b	0.0053280047
159	0x3cb8db88	0.022565618
160	0x3e35f10c	0.17767733
161	0xbe0121cb	-0.12610547
162	0xbdccad5a	-0.09994002
163	0xbd36221b	-0.04446612
164	0x3e0db918	0.13840139
165	0x3c324cb6	0.010882547
166	0xbd8db2b3	-0.0691885
167	0xbdd74a77	-0.1051225
168	0xbd08012d	-0.033204246
169	0xbda41f6b	-0.08013805
170	0xbe2c88fb	-0.16849129
171	0x3e4004fa	0.18751898
172	0x3dcd7304	0.10031703
173	0x3da00276	0.078129694
174	0xbe1658b0	-0.14682269
175	0xbccc774c	-0.024959229
176	0xbe57a634	-0.21059495
177	0x3e4065d1	0.1878884
178	0xbe0a1ee1	-0.13488342
179	0xbe18f1fb	-0.14936058
180	0x3e30d436	0.17268452
181	0x3e2cb3f3	0.1686552
182	0x3e163f7a	0.14672652
183	0x3cfcdba6	0.030866455
184	0x3de34b78	0.11098379
185	0xbbdeda44	-0.0068009216
186	0x3e44c9cc	0.19217604
187	0xbccc0c0b	-0.024908086
188	0xbd5b487b	-0.05353592
189	0x3e5a28ba	0.21304598
190	0xbe047103	-0.12933736
191	0xbe5f4d7a	-0.21806899
192	0xbd9df1eb	-0.07712158
193	0x3ddfe3b1	0.109321006
194	0xbe1554ea	-0.14583173
195	0xbdb079c3	-0.08616974
196	0xbd511da0	-0.051053643
197	0x3e2e52d7	0.17023788
198	0x3bf0fc0e	0.007354266
199	0x3cf20490	0.029543191
200	0xbd4f6704	-0.050635353
201	0xbd56d7a5	-0.05245175
202	0x3e2137ca	0.15743938
203	0x3e02cf85	0.12774475
204	0xbdd9c89c	-0.10633966
205	0xbdf47e61	-0.11938167
206	0x3c9cac80	0.019125223
207	0xbe6024f6	-0.218891
208	0xbe4329f2	-0.1905897
209	0xbc538cbb	-0.012911971
210	0x3e5149a0	0.20438242
211	0x3e502960	0.20328283
212	0x3c5ac27f	0.013352036
213	0xbdcfedf2	-0.10152806
214	0x3cf86eaa	0.030326206
215	0x3e5a07d2	0.21292046
216	0xbe436dca	-0.1908485
217	0x3dbfd0f8	0.093660295
218	0xbe06f948	-0.13181031
219	0xbd83de45	-0.06438879
220	0xbe1bccbd	-0.1521482
221	0xbdb8148f	-0.08988296
222	0xbde363b8	-0.11103004
223	0x3e3829d7	0.1798471
224	0x3b375e09	0.0027979633
225	0xbe4a258a	-0.19740883
226	0x3d50cc40	0.050976038
227	0xbe1b2ae9	-0.15153088
228	0x3da12a2d	0.078693725
229	0xbb1ca85d	-0.0023904063
230	0x3e40a915	0.188145
231	0xbe491f64	-0.19640881
232	0xbe3efc62	-0.18650964
233	0xbdb1ca4f	-0.086811654
234	0xbd82b0b1	-0.063813575
235	0x3c68812b	0.014190952
236	0xbdc7f4b5	-0.09763471
237	0x3e074e57	0.13213478
238	0x3e4b134f	0.19831584
239	0x3dcfdff8	0.101501405
240	0x3d4a73e6	0.049426936
241	0x3d971e38	0.07378811
242	0xbd385f9c	-0.045013055
243	0x3e574953	0.21024065
244	0x3d80b6a1	0.06284834
245	0xbda26f2d	-0.07931361
246	0x3e03c00d	0.1286623
247	0x3e1b42f6	0.15162262
248	0xbe406fae	-0.18792602
249	0xbdab6c84	-0.08370307
250	0xbdcfc5e6	-0.10145168
251	0x3db13a40	0.086536884
252	0xbe2b045b	-0.1670088
253	0x3cd80c42	0.026373032
254	0xbc832454	-0.016008534
255	0x3d0da3a8	0.034579903

static_encoder.conv.bias f4 [128]
0	0xbe2aa6d7	-0.16665207
1	0x3edcc6df	0.43120477
2	0x3f0ba7e3	0.5455305
3	0x3def584e	0.11686765
4	0x3e762502	0.24037555
5	0xbee11bf1	-0.4396663
6	0xbf0897fc	-0.5335691
7	0x3ecc9c63	0.39963064
8	0xbf039254	-0.51395154
9	0x3d8be0e1	0.068300016
10	0xbf13348d	-0.5750206
11	0x3f0d9074	0.5529854
12	0x3e95d4a6	0.292638
13	0x3eb3face	0.35152286
14	0xbf3359ee	-0.70059097
15	0x3ec9e538	0.39432693
16	0xbed78f09	-0.42101315
17	0xbe6078fa	-0.21921149
18	0xbf1d1746	-0.6136364
19	0x3e8de760	0.27715588
20	0x3e897898	0.26849818
21	0x3f32a98f	0.69789976
22	0x3eb31831	0.34979394
23	0xbcd395c8	-0.025828257
24	0x3ed5400b	0.41650423
25	0x3edb1e29	0.42796448
26	0xbdafa807	-0.085769705
27	0x3f2c0cd7	0.6720709
28	0xbe1c6506	-0.15272912
29	0x3e99cb5a	0.30037957
30	0xbedf963e	-0.43669313
31	0x3e2a3920	0.16623354
32	0xbefa7b02	-0.48921973
33	0xbe0d8ee3	-0.13824038
34	0x3ea43ba2	0.32076746
35	0x3b87ec54	0.0041480456
36	0x3e005977	0.12534128
37	0xbf1e18ca	-0.61756575
38	0x3d3b6181	0.045747284
39	0xbe447a5b	-0.191873
40	0x3da89066	0.08230667
41	0xbf2e02cb	-0.6797301
42	0x3d2415e1	0.040059928
43	0xbf18989e	-0.59607875
44	0xbb2ad7fb	-0.0026068676
45	0xbe8c1bb4	-0.27364886
46	0x3eeacc33	0.45858917
47	0xbea4e714	-0.3220755
48	0x3f11685d	0.5679987
49	0xbe73c70b	-0.23806398
50	0xbf2c5903	-0.6732332
51	0xbf0642a4	-0.52445436
52	0x3e9840d3	0.29736957
53	0x3d5ce165	0.05392589
54	0x3eefe702	0.46855932
55	0xbf13cd83	-0.5773546
56	0xbe99cc71	-0.3003879
57	0xbf21162e	-0.6292447
58	0x3df7a416	0.12091844
59	0x3e603c34	0.21897966
60	0x3f3026a0	0.6880894
61	0x3e819e01	0.2531586
62	0xbe8d2e89	-0.27574566
63	0xbf3575ee	-0.7088307
64	0x3f2d5ce8	0.6771989
65	0xbe75c05e	-0.23999164
66	0x3d3e175f	0.046409007
67	0xbe5e3a10	-0.21701837
68	0x3b871990	0.0041229203
69	0xbec1ac70	-0.37826872
70	0x3ef96615	0.48710695
71	0xbf0d21e6	-0.5512985
72	0xbf1c8a0a	-0.6114813
73	0xbebe2f4a	-0.37145454
74	0xbf154175	-0.58303005
75	0x3ecfda9f	0.40596482
76	0xbe6a6ae8	-0.22892344
77	0xbef13219	-0.47108534
78	0x3e2032cf	0.15644382
79	0xbefe8e1d	-0.497178
80	0xbf30f11c	-0.69117904
81	0x3eeda9c6	0.4641859
82	0xbf0f5d28	-0.5600152
83	0x3ec1ffef	0.37890574
84	0xbeac9116	-0.33704442
85	0x3ed23554	0.4105631
86	0x3ef49eb6	0.47777337
87	0xbdd16edc	-0.10226223
88	0xbe328ea5	-0.17437227
89	0xbe38aee2	-0.18035462
90	0x3e4378e0	0.19089079
91	0xbf1bccf7	-0.60859627
92	0x3ed69a32	0.41914517
93	0x3ea669cb	0.3250259
94	0xbdaeef38	-0.08541721
95	0xbee6dc16	-0.45089787
96	0xbf2d02e4	-0.67582536
97	0x3f119b87	0.5687794
98	0xbf1f5771	-0.622428
99	0xbf07f3cd	-0.53106385
100	0xbea2569a	-0.31706697
101	0x3dd460ab	0.103700005
102	0xbf2c1282	-0.6721574
103	0xbdff1266	-0.12454681
104	0x3ec3b539	0.382242
105	0xbd1a8d58	-0.037732452
106	0xbee1ba2c	-0.4408735
107	0x3f1c179f	0.6097354
108	0x3e749001	0.23883058
109	0x3ef95fc8	0.48705888
110	0x3e7b7f34	0.24560243
111	0x3ef1cebf	0.47228047
112	0x3dcd3910	0.100206494
113	0xbe610efe	-0.21978375
114	0xbeeadc1c	-0.45871055
115	0xbd7fd5f1	-0.06245989
116	0xbcf69b3a	-0.030103315
117	0xbf0af25b	-0.54276055
118	0xbf05a278	-0.5220103
119	0x3f243ef6	0.6415857
120	0xbe5f4198	-0.21802366
121	0xbb905a5c	-0.004405303
122	0xbec3c13e	-0.3823337
123	0xbdd5dbf2	-0.10442342
124	0xbee3cac7	-0.44490644
125	0xbeb1da1d	-0.3473672
126	0xbdaa9273	-0.08328714
127	0x3ed54ae5	0.41658702

dynamic_encoder.conv.weight f4 [128, 2, 1]
0	0x3e1952ae	0.14972946
1	0x3c483f74	0.01222216
2	0xbcf983f0	-0.03045842
3	0xbe45f725	-0.1933256
4	0x3dd45541	0.103678234
5	0xbe145d34	-0.14488679
6	0x3e16e839	0.14737023
7	0x3c898ef5	0.0167918
8	0x3e5031d6	0.20331511
9	0xbdaadb13	-0.08342566
10	0x3e447512	0.19185284
11	0x3d87858b	0.06617268
12	0x3de370cf	0.11105501
13	0x3dff98ff	0.124803536
14	0xbdb75eb3	-0.08953609
15	0x3def1394	0.11673656
16	0x3e348b4b	0.17631261
17	0x3e3dfe51	0.18554045
18	0x3e4adf7d	0.19811817
19	0xbe248865	-0.16067655
20	0x3b35ffaa	0.0027770796
21	0x3d25b067	0.040451434
22	0xbe021dae	-0.12706634
23	0x3e0709fa	0.131874
24	0x3dfea323	0.124334596
25	0x3e061a03	0.1309586
26	0x3e0286d1	0.12746741
27	0x3e3eabda	0.18620244
28	0x3da33695	0.07969395
29	0xbd10034a	-0.035159387
30	0xbc3557a0	-0.011068255
31	0x3d7d1a7f	0.061792847
32	0x3da22876	0.079178736
33	0xbcbd6001	-0.023117067
34	0x3e128038	0.14306724
35	0xbdf34292	-0.11877932
36	0xbdc9fbd0	-0.098624825
37	0xbdd51cb6	-0.10405867
38	0xbd7ea497	-0.062168684
39	0x3d764671	0.060125772
40	0xbe09c352	-0.13453415
41	0x3df56a1f	0.119831316
42	0x3e2050ee	0.15655872
43	0x3e514c09	0.20439161
44	0xbd4562f5	-0.048190076
45	0xbe3d28f0	-0.18472648
46	0x3e028d11	0.12749125
47	0x3e0f70d4	0.14007884
48	0x3e07434f	0.1320927
49	0xbe079e86	-0.13244066
50	0x3dc5ed2e	0.09664379
51	0x3d905d2f	0.07049023
52	0xbd644852	-0.055733033
53	0xbe36f082	-0.17865184
54	0xbe39a3a1	-0.18128826
55	0x3d5fbdd6	0.0546244
56	0x3ca5475d	0.02017563
57	0x3e5a2940	0.21304798
58	0xbe0a0f17	-0.13482319
59	0x3e4d9742	0.20077232
60	0xbdb3c33a	-0.08777471
61	0x3e0828ac	0.13296765
62	0xbe40b11e	-0.18817565
63	0xbe3017d7	-0.17196594
64	0xbd714088	-0.058899432
65	0xbdfb3d7a	-0.12267585
66	0x3caf3cef	0.02139136
67	0x3c83f975	0.016110161
68	0xbe3ca28c	-0.18421382
69	0x3cb03d81	0.021513702
70	0xbe1d33c5	-0.1535178
71	0xb9c4453f	-0.00037435626
72	0xbccb6450	-0.024828106
73	0xbe164b0a	-0.14677063
74	0x3def0f75	0.1167287
75	0x3e192a0e	0.14957449
76	0xbe3de6bb	-0.18545048
77	0xbdc46ee9	-0.09591467
78	0xbd4fadf8	-0.05070302
79	0xbc8d3b8b	-0.017240306
80	0x3e2016b0	0.15633655
81	0xbcc12283	-0.023576027
82	0xbd963a4f	-0.0733534
83	0xbe10f30b	-0.14155214
84	0xbe441c4e	-0.19151422
85	0xbdf146ba	-0.11781068
86	0x3e459d84	0.19298369
87	0xbe30da9a	-0.1727089
88	0xbe546be2	-0.20744279
89	0x3d208d4d	0.039197255
90	0x3e192edb	0.1495928
91	0xbe47c286	-0.19507799
92	0xbdf2c407	-0.118537955
93	0x3df749f6	0.12074654
94	0x3e216420	0.15760851
95	0xbdc0c0cf	-0.09411775
96	0x3d88a752	0.06672539
97	0xbd126831	-0.035743896
98	0xbc952e2c	-0.018210493
99	0xbe334ded	-0.17510195
100	0xbdc829a6	-0.09773569
101	0xbe0726e9	-0.13198437
102	0xbdc0fa3c	-0.094227284
103	0xbdad7892	-0.084702626
104	0xbd8d38b3	-0.0689558
105	0x3e26d484	0.16292006
106	0x3d9ff0f4	0.0780963
107	0xbe2ffc3e	-0.17186067
108	0x3e1f5798	0.15560758
109	0x3e45f2f4	0.1933096
110	0xbdcb1118	-0.0991537
111	0x3e0ec4e3	0.13942294
112	0xbcf60ae2	-0.030034486
113	0x3df3b846	0.11900382
114	0xbe4ca718	-0.19985616
115	0x3e2e8b28	0.17045271
116	0x3e2ce7a4	0.16885239
117	0xbdd00690	-0.10157502
118	0x3dd9ac27	0.106285386
119	0x3d62d1cd	0.055375863
120	0xbe2e49e4	-0.17020375
121	0x3d11abbb	0.035564166
122	0xbe323323	-0.1740232
123	0xbc20ca45	-0.00981385
124	0xbdaa87c3	-0.08326676
125	0xbe4c16f0	-0.19930625
126	0xbe1da372	-0.1539438
127	0x3dc0b8d9	0.09410257
128	0xbe188153	-0.14893083
129	0x3cd1e2b5	0.025620798
130	0x3dedf734	0.11619416
131	0xbc05e187	-0.008171446
132	0x3e20e238	0.15711296
133	0x3e4cc044	0.19995219
134	0x3d140223	0.03613485
135	0x3a40622e	0.00073388487
136	0xbd053629	-0.032522354
137	0xbe15f02c	-0.146424
138	0xbd8b29f3	-0.067951106
139	0xbdfdfe19	-0.12401981
140	0x3e2eff12	0.17089489
141	0xbdb589c8	-0.0886417
142	0xbcc62b99	-0.02419071
143	0xbe2c95fc	-0.1685409
144	0xbe0a1338	-0.13483894
145	0xbc8d3126	-0.01723535
146	0xbe148b43	-0.14506249
147	0xbc8a3eb8	-0.01687561
148	0x3bb9cd91	0.0056702574
149	0x3e137ace	0.14402315
150	0xbe52e00b	-0.20593278
151	0xbd801ff2	-0.06256093
152	0xbd7763f0	-0.060398042
153	0xbdc905da	-0.09815569
154	0x3c072d4e	0.008250548
155	0x3d68d1be	0.05684065
156	0x3d011fd0	0.03152448
157	0x3de47f27	0.11157065
158	0xbc1b2ae2	-0.009470673
159	0x3e26e633	0.16298752
160	0xbe275581	-0.16341211
161	0x3e445fc6	0.1917716
162	0x3bde4c1d	0.0067839758
163	0xbe2868d8	-0.16446245
164	0xbbc526e1	-0.0060165976
165	0xbd47faef	-0.048823293
166	0xbda0348a	-0.07822521
167	0x3cdd7bba	0.027036536
168	0xbccbe0c8	-0.024887457
169	0xbd3a0d5b	-0.045422893
170	0x3df3a983	0.11897566
171	0x3dc31faa	0.09527524
172	0x3df75395	0.12076489
173	0x3cbc9ea3	0.023024863
174	0xbcf47626	-0.029841494
175	0xbdfda891	-0.12385667
176	0x3ca7e60d	0.020495439
177	0xbe24f73d	-0.16109939
178	0xbdd2ed59	-0.10299177
179	0xbb5282d1	-0.003212143
180	0xbe42a40c	-0.19007891
181	0xbe3c9688	-0.18416798
182	0xbd0a1fe9	-0.03372184
183	0x3d14a025	0.03628554
184	0x3d816138	0.06317371
185	0x3d8d1144	0.06888059
186	0xbe4bd8e9	-0.19906963
187	0x3be47a69	0.0069726002
188	0xbcd46a18	-0.025929496
189	0x3ddd38ce	0.1080185
190	0x3e35c5af	0.17751192
191	0xbd9b842d	-0.0759357
192	0xbe265d80	-0.16246605
193	0x3c2d1b1f	0.010565548
194	0x3e2c0e3b	0.16802303
195	0x3e3a8df5	0.18218215
196	0x3e3f9d72	0.18712404
197	0x3e2f69d3	0.17130212
198	0x3dc27c93	0.09496417
199	0x3de0c8ea	0.10975821
200	0xbe2662f4	-0.16248685
201	0x3dd8bdba	0.105830625
202	0xbe48462f	-0.19558023
203	0xbd440fce	-0.047866635
204	0x3c5d8db2	0.013522552
205	0x3e487947	0.19577514
206	0x3e58fe7d	0.2119083
207	0x3df86149	0.12127931
208	0x3d5aed67	0.05344906
209	0x3c815a3d	0.0157901
210	0xbe0c49d9	-0.13700046
211	0xbdaa3813	-0.083114766
212	0x3e1b7baf	0.151839
213	0xbe005682	-0.12533
214	0xbe0fb4d3	-0.14033823
215	0xbe09481c	-0.13406414
216	0x3d148c30	0.036266506
217	0xbbb3cdcc	-0.0054871794
218	0xbe0d9c8c	-0.13829249
219	0xbd44de5f	-0.048063632
220	0xbe2c6d21	-0.16838504
221	0x3dc8a0e6	0.09796314
222	0x3db4e617	0.08832949
223	0x3dd65d6b	0.10467037
224	0xbe569b19	-0.20957603
225	0xbd8e7a20	-0.06956887
226	0x3dddd6e6	0.10832004
227	0x3d9b0058	0.07568425
228	0xbd98a279	-0.07452864
229	0xbe57e030	-0.21081614
230	0xbe3e4173	-0.18579654
231	0x3e37d55f	0.17952488
232	0xbd32d5a5	-0.04366078
233	0xbdd1ee7f	-0.10250568
234	0x3bf816d5	0.007571081
235	0xbc9013bc	-0.017587535
236	0x3d0d4e4b	0.034498494
237	0xbd93b0be	-0.07211445
238	0xbe365387	-0.178053
239	0x3ca14967	0.019688321
240	0xbe0e65c3	-0.13906007
241	0x3e449014	0.19195586
242	0x3e268b84	0.16264158
243	0x3de48d48	0.1115976
244	0xbbc7eef2	-0.0061014825
245	0x3b8094ec	0.003924003
246	0xbe1a500a	-0.15069595
247	0xbe5832a5	-0.2111307
248	0x3dac99cd	0.08427773
249	0xbcf771a0	-0.030205548
250	0xbd95d7e1	-0.07316566
251	0x3e460003	0.19335942
252	0xbdf0ab73	-0.11751451
253	0xbe07b1ba	-0.13251391
254	0x3b4a96d5	0.0030912657
255	0x3e0dc428	0.13844359

dynamic_encoder.conv.bias f4 [128]
0	0x3f24f08d	0.6442955
1	0x3ed399aa	0.41328174
2	0x3e9bea4e	0.30452198
3	0x3ea1376e	0.31487602
4	0xbf1cc4fd	-0.6123808
5	0xbf07daf5	-0.53068477
6	0x3edfe510	0.43729448
7	0x3e93ae1e	0.28843778
8	0xbe5ad6f6	-0.21371064
9	0x3ec6f0fc	0.3885573
10	0xbe38bd6b	-0.18041007
11	0xbf0f2f53	-0.55931586
12	0xbf2ef5f5	-0.6834405
13	0x3e04c7bc	0.12966818
14	0x3d91bec3	0.07116463
15	0x3e50ff7d	0.20409961
16	0xbe057590	-0.13033128
17	0xbefd4466	-0.49466246
18	0xbd297053	-0.041366886
19	0x3f31f8b3	0.6952011
20	0x3dc69d99	0.09698028
21	0xbea2ff6b	-0.31835493
22	0xbf0ede09	-0.5580755
23	0xbe894bfc	-0.26815784
24	0x3d1fb7af	0.038993534
25	0x3f1a42f4	0.6025841
26	0xbe0f5ce4	-0.14000279
27	0xbf030216	-0.5117506
28	0xbe9a2532	-0.30106503
29	0x3ed2f18f	0.4119992
30	0xbeca8cd7	-0.39560577
31	0x3f0cf497	0.55060714
32	0xbf2c2fb0	-0.67260265
33	0xbf298490	-0.662179
34	0x3e3f4fa8	0.1868273
35	0x3f346202	0.7046205
36	0xbeb70213	-0.3574377
37	0xbf0e8856	-0.5567678
38	0x3dad4b6a	0.0846165
39	0x3e4208bf	0.18948649
40	0x3e966fe4	0.2938224
41	0x3ef3a3ae	0.47585815
42	0xbe08bfe4	-0.1335445
43	0xbe8db263	-0.2767516
44	0xbd11c395	-0.035586912
45	0xbf0b4e56	-0.54416406
46	0xbe4ace94	-0.19805366
47	0x3f19e806	0.60119665
48	0x3f1465f6	0.5796808
49	0xbe5c32e0	-0.21503782
50	0xbd8fa21a	-0.0701334
51	0xbe896dbf	-0.26841542
52	0x3ef4cc6e	0.47812217
53	0xbd9cab9a	-0.07649918
54	0x3e421f83	0.18957333
55	0x3ea71a15	0.32637087
56	0xbf10e783	-0.5660326
57	0xbef7aa0b	-0.4837192
58	0xbdd1d5e5	-0.10245875
59	0xbed95f53	-0.4245554
60	0xbeb5e100	-0.35523224
61	0x3f10af71	0.565177
62	0x3d9dcb89	0.07704837
63	0x3e804dcf	0.25059363
64	0xbf2e4871	-0.68079287
65	0x3f011627	0.50424427
66	0x3ecbae64	0.39781487
67	0xbd2471c1	-0.040147547
68	0xbe8caa23	-0.27473554
69	0x3ed99abb	0.42500862
70	0x3f11df80	0.5698166
71	0xbd8d9e5d	-0.06914971
72	0xbe5ce413	-0.21571378
73	0xbedc13c3	-0.42983827
74	0xbee74a6c	-0.45173967
75	0xbea6376b	-0.32464156
76	0x3ef00575	0.46879163
77	0xbeffd090	-0.49963808
78	0x3efbf557	0.49210617
79	0xbedfaf18	-0.43688273
80	0x3f316bf9	0.6930538
81	0xbec85058	-0.39123797
82	0xbf1d495a	-0.6144005
83	0xbe43556d	-0.19075556
84	0x3f159291	0.5842677
85	0x3f1ca5f1	0.61190706
86	0x3cf34b63	0.029699033
87	0xbcded826	-0.027202677
88	0xbef454d0	-0.47720957
89	0xbeb425e1	-0.3518515
90	0xbe6864ac	-0.22694653
91	0xbecaf4c3	-0.39639863
92	0x3d54400c	0.051818892
93	0x3ee3dbf9	0.44503763
94	0xbf19e3d4	-0.60113263
95	0x3ec682b0	0.38771582
96	0x3d411d5f	0.04714715
97	0xbf335ed0	-0.7006655
98	0x3f043e20	0.51657295
99	0xbe4a2d3e	-0.19743821
100	0xbe160131	-0.14648892
101	0x3eea9782	0.45818716
102	0x3ef80244	0.4843923
103	0xbf1eeb7d	-0.62078077
104	0x3f124700	0.5713959
105	0xbf1085d4	-0.56454206
106	0x3f11fb9d	0.57024556
107	0xbf0bb260	-0.54569054
108	0x3f2afd48	0.66792727
109	0x3eb315c8	0.34977555
110	0x3f1d7619	0.6150833
111	0x3e0f60f8	0.14001834
112	0xbe246b94	-0.16056663
113	0xbe2a1ee4	-0.16613346
114	0xbe044ba3	-0.12919478
115	0x3f28d69c	0.6595247
116	0xbf2b43cf	-0.6690034
117	0x3ed37f3c	0.4130801
118	0xbeb1af6a	-0.34704143
119	0x3e143184	0.14472014
120	0x3ce76fc0	0.028251529
121	0x3e819530	0.25309134
122	0x3ea90282	0.33009726
123	0x3eb6e0aa	0.3571828
124	0x3ea50f3f	0.32238194
125	0x3e53125b	0.20612471
126	0xbed5ff1d	-0.41796198
127	0xbf2e0c41	-0.6798745

fc1.weight f4 [20, 256, 1]
0	0x3dd7007a	0.10498138
1	0x3db8b385	0.09018616
2	0x3e1d2386	0.15345582
3	0xbbd06df4	-0.0063607637
4	0xbd8722f3	-0.06598463
5	0x3dc4da8c	0.09611997
6	0x3d96566e	0.07340704
7	0xbdfdd5be	-0.12394284
8	0x3d37525d	0.044756282
9	0x3daaf2c1	0.08347083
10	0x3d80507d	0.06265352
11	0x3d04507e	0.032303326
12	0xbddfcc01	-0.109275825
13	0xbdb9f236	-0.09079401
14	0xbe1c331f	-0.15253876
15	0xbd7747e7	-0.060371306
16	0xbd3b6dad	-0.04575889
17	0xbd8ee191	-0.06976617
18	0xbd77571f	-0.06038582
19	0xbe07b623	-0.13253073
20	0x3daa603e	0.08319138
21	0xbaa88c5a	-0.0012859211
22	0xbdd42f51	-0.103605874
23	0x3d95d6d5	0.073163666
24	0x3dbcbe2c	0.0921596
25	0xbd0696b0	-0.03285855
26	0x3de79ab7	0.113088064
27	0x3d898247	0.067143016
28	0xbdadf6e5	-0.08494357
29	0x3d7a0f52	0.061049767
30	0xbd45fa51	-0.048334423
31	0xbd74029d	-0.059572805
32	0x3dda3899	0.106553264
33	0xbe15d8a2	-0.1463342
34	0x3d9a4094	0.075318485
35	0x3df0b084	0.11752418
36	0xbdf31da5	-0.118708886
37	0xbdd622f4	-0.104558855
38	0x3d9efd8c	0.07763204
39	0xbd207bba	-0.039180495
40	0x3e166e2e	0.14690468
41	0x3d134a13	0.035959315
42	0xbd221c79	-0.039577935
43	0xbda897cc	-0.08232078
44	0x3d44c17f	0.048036095
45	0xbb06ce9e	-0.002056993
46	0x3d77ce49	0.060499463
47	0xbd8cb202	-0.0686989
48	0xbdb8cda5	-0.090235986
49	0x3de3d26e	0.11124121
50	0x3d24ac1e	0.040203206
51	0x3d8f57ec	0.06999192
52	0xbdb2614b	-0.087099634
53	0xbe1747bb	-0.14773457
54	0xbdc02267	-0.09381562
55	0xbd391eac	-0.045195267
56	0xbb02b9b2	-0.0019947109
57	0x3d9b905c	0.07595894
58	0xbd49abca	-0.049236096
59	0x3e0e1c67	0.13878022
60	0xbdf259d5	-0.1183354
61	0x3df31090	0.118683934
62	0xbc91230e	-0.01771691
63	0xbc95daa0	-0.018292725
64	0x3d92cb00	0.071676254
65	0x3d8f4235	0.0699505
66	0x3c69e3d3	0.014275509
67	0xbdfc723a	-0.123264745
68	0xbde5ecee	-0.112268314
69	0xbd9910c4	-0.07473901
70	0x3ca11ff8	0.019668564
71	0xbd31485c	-0.043281898
72	0x3d92d08b	0.07168683
73	0xbd6b8564	-0.057500258
74	0xbe130d52	-0.1436055
75	0x3d0ea189	0.03482202
76	0xbd4df19a	-0.050279237
77	0xbe1ad7e8	-0.15121424
78	0x3d463e98	0.048399538
79	0xbcf915e3	-0.030405944
80	0x3e044bc3	0.12919526
81	0xbe00db1a	-0.1258358
82	0xbd264cfb	-0.040600758
83	0xbc06a7a3	-0.008218679
84	0xbc81ac6b	-0.015829286
85	0xbe0ae4b1	-0.13563801
86	0x3da7e52f	0.0819801
87	0xbe134582	-0.14381984
88	0xbda30c6e	-0.07961355
89	0xbdf4a927	-0.11946326
90	0x3dc1aa7a	0.09456344
91	0x3d3b2624	0.04569067
92	0x3d1f3008	0.038864166
93	0x3dfee6a7	0.12446337
94	0x3e001121	0.12506534
95	0xbe0ff4f8	-0.14058292
96	0xbe0319ca	-0.12802806
97	0x3dc351a3	0.09537055
98	0x3c171197	0.009220502
99	0x3d7f9b92	0.062404223
100	0x3dda346e	0.106545314
101	0x3d92f0c7	0.07174831
102	0x3db2ea66	0.08736114
103	0xbdc4bd7a	-0.09606452
104	0xbdaff2c8	-0.08591229
105	0xbcbaf6a1	-0.02282268
106	0x3dadc514	0.08484855
107	0xbdbd1be5	-0.09233836
108	0xbdfafc75	-0.122551836
109	0xbd613f8d	-0.054992247
110	0xbc3a67a9	-0.011377254
111	0xbccefb01	-0.025266172
112	0x3bdd66be	0.0067566326
113	0x3ddfb024	0.10922268
114	0xbe14571a	-0.14486352
115	0xbdd482db	-0.10376521
116	0xbe1381d8	-0.14405
117	0x3d6fbb0d	0.058527995
118	0xbe184be1	-0.14872696
119	0x3dd0d198	0.10196227
120	0x3ce9cbec	0.02853962
121	0xbd49fdd1	-0.049314324
122	0xbdeb8361	-0.11499668
123	0xbd91895c	-0.07106277
124	0x3de12e8e	0.10995208
125	0x3c9c5838	0.019085035
126	0x3d20b01b	0.039230447
127	0x3d9d5cbb	0.076837026
128	0x3e084d93	0.13310842
129	0x3ce154f1	0.027506324
130	0x3dca980e	0.098922834
131	0x3c0f01f7	0.008728496
132	0xbd740b49	-0.059581075
133	0xbcef6985	-0.02922512
134	0x3db0e930	0.08638227
135	0x3d938b51	0.07204307
136	0xbcd2e433	-0.02574358
137	0xbdc3a55e	-0.09553026
138	0xbd95d436	-0.07315867
139	0x3dc28f69	0.095000096
140	0xbdd4bcf8	-0.103876054
141	0xbd8932c1	-0.06699134
142	0xbd068a60	-0.03284681
143	0x3dcb3450	0.09922087
144	0xbe08e48f	-0.13368438
145	0xbc704de2	-0.014667006
146	0xbd7eecf3	-0.06223769
147	0xbdb50d6c	-0.08840451
148	0x3cfe33d5	0.031030575
149	0xbe00869e	-0.12551352
150	0x3d726283	0.05917598
151	0x3dca48b7	0.098771505
152	0xbd6ea340	-0.058261156
153	0xbe0a1af1	-0.1348684
154	0xbe0b3f60	-0.13598394
155	0xbdb6e665	-0.08930663
156	0x3da963d6	0.08270995
157	0xbdf0c746	-0.117567584
158	0x3de91c14	0.113823086
159	0x3e159bf9	0.1461028
160	0xbdf2c842	-0.118546024
161	0xbd272c68	-0.040813833
162	0xbc74515e	-0.014911978
163	0x3dfd3a67	0.12364655
164	0x3d9aea6d	0.075642444
165	0xbe08d44f	-0.1336224
166	0xbab08924	-0.0013468605
167	0x3db5850c	0.08863267
168	0x3e0b3571	0.13594605
169	0xbdefa9f4	-0.11702338
170	0xbd3b0602	-0.045660026
171	0xbdb61450	-0.08890593
172	0xbde97762	-0.113997236
173	0x3de3792f	0.11107098
174	0x3de0b07e	0.10971163
175	0xbd605d7e	-0.05477666
176	0xbdb458e3	-0.08806016
177	0x3d8947bf	0.067031376
178	0xbe11002a	-0.14160219
179	0x3dae0e12	0.084987774
180	0x3e1d071b	0.15334742
181	0xbd8cedbd	-0.068812825
182	0x3de70170	0.11279571
183	0x3df9db6d	0.12200055
184	0xbd2b3e14	-0.04180725
185	0x3dc25986	0.094897315
186	0xbcf687a4	-0.030093975
187	0x3d5b8a21	0.053598527
188	0xbce8f4a7	-0.028436972
189	0xbd40d50e	-0.047078185
190	0x3da28e48	0.07937294
191	0xbdba927b	-0.0910997
192	0xbdf20cd1	-0.11818851
193	0x3bff7cdf	0.007796868
194	0xbde9d42c	-0.11417422
195	0xbbeb3130	-0.0071774945
196	0x3d4dd865	0.050255198
197	0x3cd3a3fd	0.025835032
198	0x3d480ae3	0.048838507
199	0xbd2e5171	-0.042558137
200	0xbdac7d5d	-0.08422349
201	0xbe19988c	-0.14999598
202	0x3b97705c	0.0046215486
203	0xbc3ebd00	-0.011641741
204	0x3e02ba4f	0.12766384
205	0xbd35bae0	-0.04436767
206	0xbe0b98e1	-0.13632537
207	0x392df570	0.00016589998
208	0xbce8fa1d	-0.028439576
209	0x3cd4e0a8	0.02598603
210	0x3e0bdd4b	0.13658635
211	0xbc97aeab	-0.018515905
212	0xbbb1e62a	-0.005429049
213	0xbd30c7a7	-0.043159153
214	0xbd06af50	-0.032882035
215	0xbe00de36	-0.12584767
216	0x3e0121c4	0.12610537
217	0xbde4cd47	-0.11171966
218	0xbd64c0a5	-0.055847783
219	0x3d0feeb1	0.035139743
220	0xbc87d792	-0.016582284
221	0x3de5af6c	0.112151
222	0xbd6975b0	-0.056997
223	0x3d090737	0.033454146
224	0x3dc7d9d7	0.097583465
225	0x3d719478	0.05897948
226	0xbcd0b67d	-0.025477642
227	0x3d0b0953	0.03394444
228	0x3a5dea6a	0.00084654114
229	0xbd9b3551	-0.07578529
230	0xbdcd2552	-0.10016884
231	0x3dfd8471	0.12378777
232	0x3da61033	0.081085585
233	0x3d5c6d4e	0.05381518
234	0xbda71a0f	-0.08159267
235	0x3bca51ca	0.006174301
236	0x3c166f77	0.009181849
237	0x3e08a7ae	0.13345215
238	0x3d1b7309	0.037951503
239	0xbe063885	-0.13107498
240	0xbe147f7a	-0.14501753
241	0xbdcb4d52	-0.09926857
242	0xbdbd1257	-0.09232014
243	0xbd3d5bea	-0.046230234
244	0xbcdf483c	-0.027256124
245	0xbda9e738	-0.082960546
246	0xbc08414b	-0.008316348
247	0xbcac4259	-0.02102773
248	0xbcaed8e2	-0.021343652
249	0xbd492ed0	-0.04911691
250	0xbd00406d	-0.03131144
251	0x3d739395	0.059466917
252	0x3d9fd086	0.078034446
253	0x3e0a1ffe	0.13488767
254	0xbe111aa6	-0.14170322
255	0x3da4fad4	0.08055654

fc1.bias f4 [20]
0	0x3d22d8f3	0.03975768
1	0xbd649e9a	-0.055815317
2	0xbcf664e4	-0.030077405
3	0xbd728b14	-0.059214666
4	0xbd0601a3	-0.032716405
5	0x3cc4b2fc	0.024011128
6	0x3d1f989a	0.03896389
7	0x3d135f7d	0.035979737
8	0xbb018e09	-0.0019768497
9	0x3d6ca1a9	0.05777136
10	0x3c36510b	0.011127721
11	0xbc38a435	-0.011269619
12	0x3bccb760	0.006247446
13	0x3d04a5a6	0.032384537
14	0xbc8f7c0c	-0.017515205
15	0xbc157a80	-0.009123445
16	0xbc141050	-0.009037092
17	0x3d0ca529	0.034337196
18	0xbd28516b	-0.04109327
19	0x3ca14230	0.019684881

fc2.weight f4 [20, 20, 1]
0	0xbc69361b	-0.014234091
1	0xbe8670ec	-0.26258028
2	0x3d8b1bfc	0.06792447
3	0x3e1b8148	0.15186036
4	0x3ebdac0b	0.3704532
5	0xbe63f538	-0.22261512
6	0x3de3d66c	0.11124882
7	0x3ea9b0cd	0.331427
8	0x3e24cd9b	0.16094057
9	0xbe78db72	-0.24302462
10	0x3dfbe490	0.12299454
11	0x3e1d65d0	0.1537087
12	0x3cb1a570	0.021685332
13	0x3d4402ab	0.047854107
14	0x3e5c3498	0.21504438
15	0x3ec35258	0.3814876
16	0xbd0619b0	-0.03273934
17	0xbe532b4d	-0.20621987
18	0xbebf516b	-0.37366804
19	0x3e7492d6	0.23884138
20	0x3c625760	0.013814777
21	0xbec24dce	-0.37949985
22	0xbeae011d	-0.33985224
23	0xbe3a5040	-0.18194675
24	0x3e86749e	0.26260847
25	0x3ebf503a	0.37365896
26	0x3e711c50	0.23545957
27	0xbda37678	-0.079815805
28	0x3e758c94	0.23979408
29	0xbe98b185	-0.29822937
30	0xbeac6491	-0.33670476
31	0xbd893bb0	-0.067008376
32	0xbeb1bb44	-0.34713185
33	0x3e277760	0.16354132
34	0x3d5449f0	0.051828325
35	0xbd54abf0	-0.051921785
36	0x3eaa0a4e	0.33210987
37	0xbe72901d	-0.23687787
38	0x3ddde888	0.108353674
39	0xbe783096	-0.24237284
40	0x3d078898	0.03308925
41	0x3e91e13e	0.2849216
42	0x3eb34b1e	0.35018247
43	0xbea7b19a	-0.32752687
44	0xbe33965c	-0.17537826
45	0x3dd02a44	0.101643115
46	0xbe7a9cd8	-0.24473894
47	0xbd5d9b50	-0.054103196
48	0x3d9a2010	0.07525647
49	0xbe06fc9a	-0.13182297
50	0x3cc3bc10	0.023893386
51	0x3e116b58	0.14201105
52	0xbe187b89	-0.14890875
53	0xbe4ef57e	-0.20210835
54	0xbe121d75	-0.1426905
55	0xbd673778	-0.056449383
56	0xbc482e60	-0.012218088
57	0x3e8df482	0.27725607
58	0xbea74fe0	-0.32678127
59	0x3de7cbd8	0.11318177
60	0xbeb08347	-0.34475157
61	0x3e64048c	0.2226736
62	0x3ebe276e	0.37139457
63	0x3e1d508c	0.15362757
64	0x3d76d6b8	0.060263366
65	0x3da2012c	0.0791038
66	0x3dfc7978	0.12327856
67	0xbc8a7670	-0.016902179
68	0x3e61ae70	0.22039199
69	0xbe61ecc9	-0.22062983
70	0xbd927040	-0.07150316
71	0x3ec097ac	0.37615716
72	0xbe035350	-0.1282475
73	0xbd9bc90c	-0.07606706
74	0xbdea0f2c	-0.11428675
75	0x3ea6ef8a	0.3260463
76	0x3e1a79f4	0.15085584
77	0xbe7815c3	-0.24227051
78	0xbe85a9da	-0.2610615
79	0x3e96e236	0.2946946
80	0x3e742404	0.23841864
81	0xbcfec170	-0.031098098
82	0xbe9165d7	-0.2839801
83	0xbd9c6700	-0.07636833
84	0xbe3fe707	-0.18740474
85	0x3d875ee8	0.06609899
86	0x3e3df9ec	0.18552369
87	0x3cb9dda0	0.022688687
88	0xbc951160	-0.018196762
89	0x3ea98b76	0.33114213
90	0xbdf53a8c	-0.119740576
91	0x3c128660	0.00894317
92	0x3e8a5636	0.270189
93	0xbec2e581	-0.38065723
94	0x3ec05cd6	0.37570828
95	0xbec0f7ba	-0.37689
96	0x3e24ce38	0.16094291
97	0xbe389dd6	-0.1802896
98	0xbe7b5af2	-0.24546412
99	0xbea7a0e4	-0.32739937
100	0x3dce59fe	0.100757584
101	0xbe93d421	-0.2887278
102	0xbe8d93c3	-0.27651796
103	0xbe6bab22	-0.230145
104	0x3e421385	0.18952759
105	0xbeb08da5	-0.34483066
106	0x3e796b78	0.24357402
107	0xbde57344	-0.11203626
108	0x3ebf84ec	0.374061
109	0x3eb50224	0.35353196
110	0xbe288457	-0.16456734
111	0xbe63f54e	-0.22261545
112	0x3e7abaac	0.24485272
113	0x3dcf2a0f	0.10115444
114	0x3e8a96ac	0.2706808
115	0xbea23cdf	-0.31687066
116	0xbdce8f60	-0.1008594
117	0x3e865ea1	0.2624407
118	0xbc6cc1d6	-0.014450511
119	0x3d00d195	0.031449873
120	0xbe9765e7	-0.29569933
121	0xbe9b5bef	-0.30343577
122	0x3eb2d8d4	0.34931052
123	0xbdf0f370	-0.11765182
124	0xbe863a46	-0.26216334
125	0x3e40232c	0.18763417
126	0xbe80d913	-0.25165614
127	0xbe16e533	-0.1473587
128	0x3ce144c0	0.027498603
129	0x3d943cec	0.072381824
130	0x3e50e2f4	0.20399076
131	0x3dacb4c0	0.08432913
132	0xbec610e8	-0.38684773
133	0xbe966d8f	-0.29380462
134	0xbe9c603c	-0.3054217
135	0xbd58cdf8	-0.052930802
136	0xbe811e44	-0.25218403
137	0x3c60b220	0.013714343
138	0xbc081be0	-0.008307427
139	0xbe41bf3e	-0.1892061
140	0xbe1294f1	-0.14314629
141	0x3e55fafb	0.20896523
142	0xbe4e847d	-0.20167728
143	0xbec145ca	-0.37748557
144	0x3e236d48	0.15959656
145	0xbe2d8677	-0.16945826
146	0x3eb8fe5a	0.36131555
147	0x3da841a8	0.08215648
148	0xbd4e5a6c	-0.0503792
149	0x3dcb5680	0.09928608
150	0xbeb6f288	-0.35731912
151	0xbd6fc8ee	-0.05854123
152	0xbea6e5bb	-0.32597145
153	0xbe9a1d14	-0.3010031
154	0xbdc28b34	-0.09499207
155	0x3ebcf05a	0.36902124
156	0xbeb03605	-0.34416214
157	0xbe0ed09b	-0.13946764
158	0x3e9a4990	0.3013425
159	0x3cca6f99	0.024711417
160	0xbe8ad573	-0.27115974
161	0xbd1f4e20	-0.038892865
162	0xbebcb571	-0.3685718
163	0xbe45cfda	-0.1931757
164	0x3ead6b30	0.3387084
165	0xbe2cd4fd	-0.16878124
166	0x3e6cc75c	0.23122925
167	0x3ea534fc	0.32266986
168	0x3ea7c384	0.32766354
169	0x3decd950	0.115648866
170	0x3e9c3e2a	0.30516177
171	0x3d559e20	0.052152753
172	0xbdafb1a4	-0.08578804
173	0xbd885b34	-0.066580206
174	0x3d5a9f20	0.05337441
175	0x3e9fa6ac	0.31181848
176	0x3e363f90	0.17797685
177	0xbeb2d203	-0.3492585
178	0xbdc9b660	-0.098492384
179	0xbeadc483	-0.3393899
180	0xbdebe009	-0.11517341
181	0x3d45ff8e	0.04833942
182	0x3b892200	0.0041849613
183	0x3eade006	0.3395998
184	0x3df8bb3d	0.12145088
185	0x3e27b518	0.16377676
186	0xbd599280	-0.05311823
187	0x3e9bf691	0.30461553
188	0xbe448006	-0.19189462
189	0x3e82d90b	0.25556216
190	0x3db0a7a0	0.08625722
191	0x3d9562fa	0.07294269
192	0x3ec0899e	0.37604994
193	0xbd8d6315	-0.06903664
194	0x3eaf9b9c	0.34298408
195	0x3d8c7288	0.068577826
196	0x3e3bb454	0.18330508
197	0xbcc86af7	-0.024465067
198	0xbe6747dc	-0.22586006
199	0x3d18fadb	0.03734861
200	0xbea0ba7f	-0.31392285
201	0x3e47a8df	0.19498013
202	0x3db44720	0.088026285
203	0xbdf75b60	-0.12077975
204	0xbeb9ac9e	-0.3626451
205	0x3eb523c6	0.35378855
206	0x3e89b4ae	0.2689566
207	0x3eba6a62	0.3640929
208	0x3eae987e	0.34100717
209	0xbe77d0d7	-0.2420076
210	0xbdb676cb	-0.08909377
211	0x3e107428	0.1410681
212	0x3ea593ae	0.32339233
213	0xbd8b750c	-0.06809434
214	0xbe304db1	-0.17217137
215	0x3cf58ab0	0.029973358
216	0xbdbd2da0	-0.09237218
217	0xbea067c4	-0.31329167
218	0x3ea08606	0.31352252
219	0x3e9a5f8a	0.30151016
220	0x3e21ddf0	0.15807319
221	0xbe84ec13	-0.2596136
222	0xbeba160f	-0.36344954
223	0x3ebbe9c2	0.3670178
224	0xbe40125b	-0.18757002
225	0xbe2d6418	-0.16932714
226	0x3ebe52a2	0.3717242
227	0xbe9eef25	-0.31041828
228	0x3e3e5dc0	0.1859045
229	0x3b517180	0.003195852
230	0xbcc41130	-0.023933977
231	0xbd8c02c4	-0.06836465
232	0xbe9a6e38	-0.30162215
233	0x3d199100	0.0374918
234	0x3eb4b196	0.35291737
235	0x3e80e248	0.2517264
236	0xbe92bb9b	-0.28658757
237	0x3d7a10c0	0.06105113
238	0xbdb82c88	-0.08992869
239	0xbd7305d0	-0.059331715
240	0xbe999d3d	-0.30002776
241	0x3e2905c3	0.16506104
242	0x3eaeb52a	0.34122592
243	0xbebb01fc	-0.3652495
244	0x3e53a23f	0.2066736
245	0x3da57214	0.08078399
246	0xbd659b40	-0.05605626
247	0x3e6fb574	0.23409063
248	0xbd95cee5	-0.073148526
249	0xbe4369bf	-0.19083308
250	0x3e938805	0.28814712
251	0xbd0320c4	-0.03201367
252	0x3e4c5c34	0.19957048
253	0x3e23ef9c	0.16009372
254	0x3e8840ae	0.26611847
255	0xbd9f21c8	-0.07770115

fc2.bias f4 [20]
0	0xbca1ba45	-0.01974214
1	0x3d906790	0.07051003
2	0xbd83c434	-0.06433907
3	0xbd7cd0b0	-0.061722457
4	0x3e004e00	0.12529755
5	0xbd036c71	-0.03208584
6	0x3de3732c	0.11105952
7	0xbe3ec095	-0.18628152
8	0xbe51bc78	-0.20482051
9	0x3e281bc9	0.16416849
10	0xbe656bcf	-0.22404407
11	0x3e193a48	0.14963639
12	0x3dd977ac	0.10618529
13	0x3dc03db3	0.09386768
14	0x3e4a8408	0.19776928
15	0x3c7b2a3b	0.015329893
16	0xbd1c1ab4	-0.038111404
17	0x3dbf8186	0.093508765
18	0x3d9b5282	0.075840965
19	0x3e56867c	0.20949739

fc3.weight f4 [1, 20, 1]
0	0xbebafe04	-0.36521924
1	0xbf071d99	-0.5277954
2	0xbefcfb67	-0.49410555
3	0xbea08c36	-0.31356972
4	0xbe9931ae	-0.29920715
5	0xbea5ffb8	-0.3242166
6	0xbe3149a2	-0.17313245
7	0xbe6924e2	-0.22767976
8	0xbe692c0c	-0.22770709
9	0x3dbb6d43	0.091516994
10	0xbe21cfb0	-0.15801883
11	0xbdd79728	-0.10526878
12	0x3df73cf6	0.12072174
13	0xbe5c5dcf	-0.2152016
14	0xbd8f8eb0	-0.07009637
15	0x3defb985	0.11705307
16	0xbd9a4410	-0.07532513
17	0x3ea9534b	0.3307136
18	0x3e89966c	0.26872575
19	0xbe681018	-0.2266239
