Task assignment/drl4vrp/vrp/10/19_20_26.716625/checkpoints/12/critic.pt (torch, 29011 bytes, 9 tensors)

static_encoder.conv.weight f4 [128, 2, 1]
00000000: c29d 1d3e d201 48be a35f 213e 0232 613e
00000010: 5d55 03be 6469 8cbd fa1c c03d ab34 1b3e
00000020: 4316 023e d7f7 443e 9c7d 523e 1395 62be
00000030: c61a fabd 53f1 40be 4fd2 09be 14e9 d33d
00000040: 8935 9a3d 8808 4e3e 9d9f 04be 16f6 a63d
00000050: 9033 fcbd bcdd 8dbc 474c d83d ea99 df3d
00000060: f6ab c73d 5781 efbd 3c63 46be 407d 3ebe
00000070: 6bb1 27be 0bca aa3d 430e 09be a2ec 933d
00000080: 4dc3 f23c 71ef 123e 4ec7 183e a853 3b3e
00000090: ecb2 02be f4ac 4b3e 74a4 343e 00ec 1fbe
000000a0: 4acd 233e 751e 0abe d08f 333e 5375 f9bd
000000b0: 3c3e 43bd eea2 07be 3b64 013d b80f 19bd
000000c0: 36aa 33be 103a 393e 5f23 b0bd 7309 3bbe
000000d0: 604f eebd e1f0 30be a944 17be 3160 4abe
000000e0: 2e3d 0f3e e7a6 cfbd f881 bb3d 8567 bf3d
000000f0: c65a ad3d 2b9d bf3d 2cb7 3fbd fda6 e7bc
00000100: 79ea cbbc e19f f53b a9d9 47be 4cbc cdbd
00000110: 90a4 41bd b00c cebc eeb8 153e cf36 be3c
00000120: 6b88 46be cc1b 413e fb73 943d 877a 09be
00000130: 5503 acbd 5ade 8bbb 68ee 573e 065f 07be
00000140: 4841 49bc 68e6 aabc 1d60 5cbe 1205 703d
00000150: a463 eebb 2c32 d83d 2682 cc3d ff17 c6bc
00000160: 607d 32be d5f8 2c3d 880e 363e 0cd9 013e
00000170: 00b3 bcbd 3cd3 1a3e 574d 51bd e105 35be
00000180: f905 87bc 430f eebc b95e edbd 4144 19be
00000190: c610 febd bb16 a7bd 3200 56bd cbef a73d
000001a0: fb39 0cbe 2a3e 3c3e c317 0dbe 0a26 0cbd
000001b0: 4341 173d 8fe3 e73c 0e83 e43c 0dbc a2bc
000001c0: 43a2 a73d 2668 843d d716 ed3d 64db 893c
000001d0: b972 52be fbe6 01be 2d13 fb3c 97da 4a3e
000001e0: 18a0 4cbe 99d0 bfbd c9d5 883d 9e92 f83d
000001f0: c104 0d3d b0b8 173e 667e 8e3a 04f5 f43d
00000200: 6bab 46be efd9 26be 4b06 7dbd 7e13 a73d
00000210: 790d 22bd a010 adbd 274c d8bd aa93 53be
00000220: ebab 1a3e 1501 913d 24ec ddbd 2ab5 d7bd
00000230: 2bd2 333d e55b 483e 7b46 9f3d 3ce1 cd3c
00000240: 300c 1f3e 3dc6 49be ddec 32bd 95b4 603e
00000250: 0c88 f6bd ed68 073e 8d2f 5cbd f903 85bd
00000260: 9a91 553c 6d62 2d3c 2703 583e 1e48 55bd
00000270: f49d a73d 2c28 c0ba 5c96 90bd 50a3 5e3e
00000280: de3c 48be 8436 b2bd d63c 1abe 74df 553c
00000290: a898 4c3e 464f ff3d b1a0 3e3d ac84 95bd
000002a0: 80a7 a83d 9ec9 2fbd bfe3 60bd a0b2 243e
000002b0: 8bd8 033e f385 023e bd55 5b3e 3c92 123e
000002c0: c244 053e 67b3 3a3e d58a 023e 7293 76bd
000002d0: 3bf6 ba3d 4f72 21be 4453 913d 485e 353d
000002e0: 727c 193e d223 6bbd 52c1 90bd 919b 19be
000002f0: b2ac be3d e027 44be 0784 f9bd 3a01 233d
00000300: 2700 5abe f816 4d3e 70f5 b43d 03af 8c3d
00000310: 0036 4f3e 01da 45be 72cc 1ebe 74a1 5c3d
00000320: 6b38 0d3e c949 ee3d 8162 473d 27e3 103e
00000330: 2341 643e 7c2f 2ebe 122c 833d 1336 463e
00000340: ea81 8e3d 8135 55be 1c7f 4a3e ca93 b2bd
00000350: 2810 8f3d c0f0 6cbc c13d 1e3e 153b 91bd
00000360: b60e 123e 9b6b 21be 5b2f 04be e7a5 eabd
00000370: 2b04 053e 199e 293e 1a2d 473e 3804 24be
00000380: 7e41 663d 95d4 1ebd 183b 37bd c11d 39be
00000390: 12d9 8cbb 19c2 303e 8f99 053e be4d ba3c
000003a0: 3cee 0bbd 16ec 5c3e d1fc d2bc f1bc 3bbe
000003b0: cb1a 0dbe 62e7 0bbe 3daa f23d f3f0 393d
000003c0: d7fc 36be 348d 473e 6b93 02be 556e 173e
000003d0: 1985 3dbc a776 16be 6759 5c3e 6498 0f3e
000003e0: 2c56 633d f5b8 1dbc 8873 f63c 4e1c 393e
000003f0: 0044 453c 7965 1dbe 1fcf 56be b24c 43be
0.15392211 -0.19531944 0.15759139 0.21991733 -0.12825532 -0.06856039 0.09380527 0.1515681
0.12703805 0.19235168 0.20555729 -0.2212718 -0.12212138 -0.18842058 -0.13459133 0.103471905
0.07529742 0.20120442 -0.12951513 0.08152406 -0.12314522 -0.017317645 0.10561424 0.10918029
0.09749596 -0.116945915 -0.19373792 -0.18602467 -0.16376273 0.08339318 -0.13384347 0.072228685
0.029634142 0.14349152 0.14919779 0.18293631 -0.12763566 0.19890195 0.17640859 -0.1561737
0.1599628 -0.13488181 0.17535329 -0.12180581 -0.047666773 -0.13245746 0.031589728 -0.037368506
-0.17545399 0.18088555 -0.086004965 -0.18265323 -0.11636233 -0.17279388 -0.14772286 -0.19763257
0.13988182 -0.10139256 0.09155649 0.09345917 0.08464579 0.09356149 -0.046805546 -0.028277868
-0.024892079 0.0074958657 -0.19516625 -0.100456804 -0.04727608 -0.025152534 0.14621326 0.023219494
-0.19387977 0.1885826 0.07248684 -0.13425647 -0.08399073 -0.0042684497 0.21087039 -0.13219842
-0.012283631 -0.02086182 -0.2152104 0.058598585 -0.0072750617 0.105564445 0.09985761 -0.024181364
-0.1743064 0.042229492 0.1777898 0.12680453 -0.09213829 0.15119642 -0.051099148 -0.17678024
-0.01648234 -0.029060012 -0.115903325 -0.14967443 -0.12405543 -0.08158632 -0.05224628 0.08200034
-0.13693993 0.18383089 -0.13778596 -0.034215964 0.036927473 0.02830675 0.027894523 -0.01986506
0.08185246 0.06465177 0.11576622 0.016828246 -0.20551576 -0.12685768 0.030648792 0.19809948
-0.19982946 -0.09365959 0.06681401 0.1213734 0.03442836 0.14816546 0.001087141 0.119607955
-0.19401328 -0.16294073 -0.06177358 0.08158015 -0.03956363 -0.084504366 -0.105614 -0.20661798
0.15104644 0.070802845 -0.10836056 -0.10532601 0.043901604 0.19566305 0.07777115 0.025131814
0.15531993 -0.19704528 -0.04368292 0.21943887 -0.12037668 0.1322362 -0.053756285 -0.06494898
0.013035202 0.010582549 0.21094953 -0.05207073 0.08184424 -0.001466041 -0.07059929 0.21741986
-0.19554469 -0.08701804 -0.1506227 0.013053764 0.19980109 0.12466292 0.046539966 -0.07300696
0.08235073 -0.042916887 -0.054904696 0.16083765 0.12875573 0.1274641 0.21419425 0.14313596
0.1301451 0.18232499 0.12748273 -0.06019921 0.09128996 -0.15766262 0.0709596 0.044279367
0.14988878 -0.057407208 -0.07068123 -0.1500075 0.09310283 -0.19155836 -0.12183385 0.03979609
-0.2128912 0.20028293 0.08835876 0.06869318 0.20235443 -0.19321443 -0.15507677 0.05386491
0.13791053 0.11635167 0.048677925 0.14149152 0.22290473 -0.17010301 0.0640489 0.19356565
0.06958373 -0.20821191 0.19775051 -0.08719595 0.069855034 -0.014461696 0.15453245 -0.07091347
0.14263424 -0.15763704 -0.1290869 -0.114574246 0.12989871 0.16564216 0.19450799 -0.16017234
0.056214802 -0.038776953 -0.04473409 -0.18077756 -0.0042983377 0.17261542 0.13046859 0.022742148
-0.034162745 0.21574435 -0.025755318 -0.18333794 -0.13779752 -0.13662484 0.118488766 0.045395803
-0.17869888 0.19487458 -0.12751548 0.14788182 -0.0115673775 -0.146937 0.2151848 0.14022976
0.0555021 -0.009626617 0.030084386 0.18077204 0.012040138 -0.1537074 -0.20977448 -0.19072226

static_encoder.conv.bias f4 [128]
00000000: 2721 de3d 56dc dfbe a756 5abe fce6 0fbe
00000010: 007a 9e3e 4a00 71be 48e8 a83e e658 933d
00000020: 1fae dfbe 2130 7e3e 9705 8a3e ef29 313f
00000030: b42f ee3e 7fb6 d63e b36f 173d 35b3 8dbe
00000040: de8c f03e a23d 093f a664 253f 217b e63e
00000050: 9aa1 9f3e 8934 153f 938c c2be 352c c7be
00000060: 27bf 0c3f b72f 843e dc9e 683e 03c8 01bf
00000070: d02f abbe 1274 063f d91b a23e 3a66 b2be
00000080: 7af0 dd3e 68ae dd3d c2ef 40be 7ed6 0f3e
00000090: 520e 09bf 9f47 a3be cf6f f93e bcb5 b13e
000000a0: 1443 7e3c 025e c53e 2d93 bc3e 9cba 783e
000000b0: 5558 d33d 5165 55bd e659 26bf 08ef 52be
000000c0: 24ab 093f 29c9 d8be de35 bb3e 1f58 633d
000000d0: 313e 32bf fa0a 803e 8892 5e3e e439 8ebd
000000e0: b590 2fbf 861a 0cbf 54a2 ac3e ae98 d4be
000000f0: 1f9f ab3e 1e2c 113f 4138 18bf 309f ebbe
00000100: d13b 1c3f 2396 3fbb e4c9 bf3e a45c ac3d
00000110: 01b9 9cbe 0bed 26bd a9b8 05bf a00e b6be
00000120: 407c b0be 311a 81be 36a1 1f3f 0ae2 3bbd
00000130: e35b b53d bf0b babe a70c 233e 6ca9 ffbe
00000140: 6a1e 78bd b312 ed3d ab53 3fbe 675c 743e
00000150: 3859 1abf 7ea7 313f 8838 ebbd be57 17bf
00000160: 3e62 1bbd 955d c03e ae5b 453e f581 2abf
00000170: 9f71 00be 1a4c 123f d52a 223f 7856 e1be
00000180: f079 26bf e147 a2bd 45f2 d03e 1500 103f
00000190: adae 1c3f 8e54 a0bb 8dd1 26bf 6db1 ce3e
000001a0: 1562 30bf b5e6 303e a19c 523e 02d6 0a3e
000001b0: 4562 003f 3381 debe 2849 323f e30a 1cbf
000001c0: 17af 1d3f 9888 9fbe 83b8 02be f42e fe3d
000001d0: 82c0 fa3e 753e e1be cc27 01bd 8655 b43e
000001e0: 0cd1 a63d e079 02be 8404 213f d238 be3e
000001f0: c294 dc3e 63c7 b43e 7e6c 10bf 1daf 86bd
0.10846167 -0.4372279 -0.21322118 -0.14052957 0.30952454 -0.23535267 0.32989717 0.071946904
-0.4368753 0.24823047 0.2695739 0.6920461 0.4652077 0.41936108 0.03697176 -0.27675787
0.46982473 0.5360967 0.646067 0.45015815 0.3117798 0.5828329 -0.37997875 -0.38900915
0.54979175 0.25817654 0.2271685 -0.5069582 -0.33434916 0.5252086 0.3166187 -0.34843618
0.43347532 0.10824281 -0.1884146 0.14046666 -0.53537476 -0.3189058 0.48718116 0.34708965
0.015518922 0.38548285 0.36831036 0.24289936 0.103195824 -0.052098576 -0.64980924 -0.20598996
0.53776765 -0.42340973 0.36564535 0.05550396 -0.69626147 0.25008374 0.21735585 -0.069446355
-0.6858018 -0.5472797 0.33717597 -0.41522735 0.33519837 0.5670794 -0.59460837 -0.46019888
0.6102877 -0.0029233776 0.37458718 0.08416107 -0.30609897 -0.040753406 -0.52234894 -0.35558033
-0.34469795 -0.25215295 0.62355363 -0.045869865 0.088554166 -0.36337087 0.15922795 -0.49933946
-0.06057588 0.11575832 -0.1868426 0.23863374 -0.60292387 0.693962 -0.11485392 -0.5911826
-0.037935488 0.37571397 0.19273254 -0.6660455 -0.12543343 0.5714737 0.63346606 -0.44011283
-0.6502981 -0.07923866 0.40809837 0.56250125 0.61204034 -0.004892892 -0.651635 0.4036974
-0.6889966 0.17275508 0.20567562 0.135582 0.5014995 -0.43457946 0.6964288 -0.6095411
0.6159529 -0.311589 -0.12765698 0.12411299 0.48974997 -0.43992963 -0.031532094 0.352215
0.08145341 -0.12741804 0.62897515 0.37152725 0.43082243 0.3530837 -0.56415546 -0.06576369

dynamic_encoder.conv.weight f4 [128, 2, 1]
00000000: 7ac8 313e d6db 1ebe f1bf 00bc deb8 a23d
00000010: 2f9f 5c3d 93e0 e6bd 3041 bb3d ea9d 9f3c
00000020: 30af 053e 3bac eabd 1b18 ed3d 04cb 3d3e
00000030: 1242 733d 446c 4b3e a51f 98bd 3e4a 5f3e
00000040: 6ab8 913c 8f13 1c3e 5f60 aabd e6a0 c33d
00000050: 758d 0ebe 007d 3ebe e550 36be f6f9 23be
00000060: 78ad 823d 44df f63d 6869 2abe 2768 103e
00000070: 21db 2abe d8ae 273e 16a2 113e 229c 10bd
00000080: eff8 093e c79f 553d 141e f43d 21bb 3dbe
00000090: 4022 49be b728 543e d43e 9cbd 4e5b 37be
000000a0: 31b6 cfbd 5b2e ce3d ea5c 113e 3f4b f03d
000000b0: 6c77 6d3b 768a ffbd 020c 96bd 3cbf 3cbe
000000c0: 8b74 c93d dc44 f5bd 8c3a 01be 6a95 4cbe
000000d0: eb51 893d e688 543e 5203 2a3c 5e5b 05be
000000e0: 695f 243e 3ea1 babd 0fea 2e3e 6dc9 c7bc
000000f0: f8c8 a6bd 917f 2c3e 0412 8ebd 1419 35be
00000100: c672 2d3e 6f0f bc3d 6674 223e bda7 89bd
00000110: b68c 3cbe 05b2 d0bd 58be 0936 20c6 913d
00000120: d5a3 2d3e 0428 2d3c e803 c33b 8b47 793d
00000130: aebc 6cbd 7252 533e 5723 68bd e82c c9bd
00000140: 5600 cbbd 1f52 0e3e 095d 443e e8b0 6d3d
00000150: 175a 1abe f861 0a3e 9549 3e3e 8fbd 073e
00000160: 77ec 20be 66ea 2f3e e029 0bbe e46e 4fbe
00000170: c759 003e 5ec5 d9bd 4204 1c3e f702 64bd
00000180: 0424 d83c a841 bf3b 7150 2c3e 7820 36be
00000190: 8022 0dbd 5f70 093e e840 41be 13fa 18be
000001a0: bc5d 1dbe 5993 f63c 4b10 003e a3f2 d7b9
000001b0: c04f 4b3e 3cbd 05be a477 e53d f298 b9bc
000001c0: ecfe 05bd 5385 3a3e a032 4ebe b849 45be
000001d0: 805b 83bd f44f 62bd d146 f43c 5c9a 2bbe
000001e0: c26e 603e 918e 8f3d 4e7b 96bb f8e9 e3bc
000001f0: a550 a0bd ea45 3bbe aea5 5bbe 6c16 60bd
00000200: 79e3 53be 4da7 2c3e 4ee5 2cbe f2c4 3fbe
00000210: 37df bd3d 4e54 563e f9cf 3d3e 46e2 893d
00000220: 5f42 273d a811 a9bd 5045 163e 15a8 1e3e
00000230: 8617 5d3e 1828 e0bb 7db2 383e 9bcb 3bbe
00000240: 9fc1 ca3d 7ce5 1d3e e964 633d 17e6 473c
00000250: 766c d73d f329 b33d f929 acbc c132 3fbe
00000260: a69e 2ebe 76e9 a5bd 65f6 433e 5745 4f3d
00000270: 71bd 063e aa7d 5d3e 36bb 1b3e d7be 593d
00000280: 20d8 e4bd 53e1 92bd fb77 143e 7099 8dbd
00000290: 453c 9bbc 34d1 28be 8034 293d e339 debc
000002a0: e32b 493e 6a25 84bd 57b9 b2bd 2c29 8f3d
000002b0: abc5 073e 4eab 1ebe 84d5 203e 7733 1cbe
000002c0: bb09 5e3d 3c80 78bd 106c ab3d be95 383e
000002d0: 3c35 5cbe c1b3 3dbe 27b7 3ebd 15b6 fc3d
000002e0: 8699 3f3e 74e2 ea3d 61a9 cfbc 0f81 e6bd
000002f0: 318f 063e a6c2 383e d06b 193d e66d 8a3c
00000300: b2dd 35be f2f4 c23d ba8e a53c 5158 cebd
00000310: 40a4 afbd 0a11 a6bc 8af5 9abd cca8 eabd
00000320: 2551 11be 5170 813d 428c c4bd f171 463e
00000330: 2b2f 133e ebf9 06be 14d3 d13d 22fe 31be
00000340: 229c 4fbe 2705 943c 379c b03d 0c24 94bd
00000350: 100b 45be 6ad9 3fbe 82f4 123e 65b2 4b3d
00000360: 8be0 3fbc b8e3 89bd 3e89 e2bd a0d1 993d
00000370: f040 bcbd b42b 4f3d 4351 a7bd aef6 9bbd
00000380: 7971 0a3e 1bf2 503d c49c 3bbe 0f4f 9d3d
00000390: 4c9b 4fbe a22b c5bc 6b0f cf3c 982e 033e
000003a0: 82fe 4b3d c939 123d 3fb9 c0bd 2c31 bd3d
000003b0: 8d0a 4dbd 63c9 18be a10a a53a 2032 5cbe
000003c0: 9e5b 0e3e dc94 0cbe 392d 353e 0490 2e3e
000003d0: d6df a73d 81b6 2e3e 9991 3f3e 7f49 123e
000003e0: e2d8 52be bf33 c7bd 3ab7 b1bd 4772 fc3d
000003f0: 7f7d bb3d 6623 47be 3419 c53d d9ef 3c3e
0.17361632 -0.15513548 -0.007858262 0.07945417 0.053862747 -0.11273303 0.09143293 0.019484479
0.1305511 -0.114586316 0.115768634 0.18534476 0.05938918 0.19865519 -0.07427911 0.21805665
0.01778813 0.15241836 -0.083191626 0.09552173 -0.13921149 -0.18602371 -0.17804296 -0.16013321
0.06380743 0.12054303 -0.16641772 0.14102231 -0.16685154 0.16375291 0.14221987 -0.03530515
0.13473867 0.05215433 0.119197994 -0.18528415 -0.19641972 0.20718656 -0.07629171 -0.17905924
-0.10142172 0.10067435 0.141956 0.11733102 0.003623451 -0.12477581 -0.07326509 -0.18432325
0.09836682 -0.119760245 -0.1261999 -0.19978872 0.06705078 0.20755348 0.010376768 -0.13023135
0.16052021 -0.09112786 0.17081474 -0.02438804 -0.081438005 0.16845538 -0.0693703 -0.17685348
0.16938314 0.09182631 0.15864715 -0.06721447 -0.18413052 -0.101902045 2.0525385e-06 0.071178675
0.16957028 0.0105686225 0.0059513934 0.060859244 -0.057797126 0.20636919 -0.056674328 -0.09823018
-0.099121734 0.13898514 0.19176115 0.05803004 -0.15073429 0.13513935 0.18582757 0.13255905
-0.15715204 0.1717926 -0.13590193 -0.20257145 0.12534247 -0.10633348 0.15235999 -0.05566689
0.026384361 0.0058366843 0.16827561 -0.17785823 -0.03445673 0.13421772 -0.18872416 -0.14939146
-0.15367788 0.030099558 0.12506215 -0.00041188774 0.19854641 -0.13060468 0.1120446 -0.022655938
-0.032713816 0.18214922 -0.201365 -0.19266403 -0.064139366 -0.05525203 0.029818924 -0.16758102
0.21917251 0.07009614 -0.004592336 -0.027821526 -0.07827882 -0.18288389 -0.2144992 -0.054708883
-0.20692243 0.16860695 -0.16884348 -0.18727472 0.092710905 0.20930597 0.18536367 0.06732611
0.04083478 -0.08255321 0.14674878 0.15493806 0.21591005 -0.006840717 0.18036838 -0.18339388
0.099002115 0.15419573 0.055516157 0.012200854 0.10518734 0.087482356 -0.021016108 -0.18671705
-0.17052707 -0.0810117 0.19136961 0.050603237 0.13158204 0.21629968 0.15208134 0.053160515
-0.11174035 -0.071718834 0.14498894 -0.069140315 -0.018949637 -0.16486055 0.041309834 -0.027127212
0.19645648 -0.06452449 -0.08726757 0.06990275 0.13258998 -0.15495035 0.1570645 -0.15254007
0.0542085 -0.06066917 0.08370221 0.18025872 -0.21504682 -0.18525602 -0.046561386 0.12339417
0.18710908 0.11468974 -0.02534932 -0.11255085 0.1314056 0.18043002 0.037456334 0.016898107
-0.17760351 0.09519376 0.020209659 -0.10075439 -0.0857625 -0.020271797 -0.07566364 -0.11457977
-0.1419111 0.06320251 -0.095970646 0.19379403 0.14373462 -0.13181274 0.10245338 -0.173821
-0.20274404 0.018068863 0.086235456 -0.07233438 -0.19242501 -0.1873528 0.14351085 0.049730677
-0.01171125 -0.06732887 -0.11061333 0.07510686 -0.09192073 0.050578788 -0.08169796 -0.0761541
0.13519849 0.05101214 -0.1832152 0.07681095 -0.20274085 -0.024068657 0.025275907 0.12810743
0.049803264 0.03569964 -0.09410333 0.092378944 -0.05005889 -0.14920573 0.0012591669 -0.21503496
0.13902137 -0.1372866 0.17693032 0.17047125 0.0819699 0.17061807 0.18707885 0.14285849
-0.20590547 -0.09726667 -0.08677526 0.12326484 0.09154796 -0.19447097 0.09623948 0.1845087

dynamic_encoder.conv.bias f4 [128]
00000000: 8917 6a3e 7e91 21bf c5c3 923e 0dbe 41bd
00000010: 0f2f d7bd adba b33e 7080 2bbf 677d a03e
00000020: d392 78be 5e5d f8be 23b8 c13e 82eb 103e
00000030: b83a e13e 43f6 cc3e 8143 01bf d782 b2be
00000040: 6558 aa3d 076d 09bf 402f 2bbf 703d 133f
00000050: 238b a8be b1ae b7be 476a d13e 87d1 27bf
00000060: 30c4 65be f668 07bf 812d 9cbe a0d7 103f
00000070: 30d9 db3d e9c0 42be 4e67 49be 2a2f 54be
00000080: 61ea 383e 409e 0abf 35f0 873e 8c8c 9dbe
00000090: 4561 0f3f 2537 75be cb62 4c3d a6d6 1f3e
000000a0: 4a54 2e3e 8196 6cbe 95a1 173f 2f73 ad3e
000000b0: 5b0a 1a3f 791a 8cbe 2169 cc3e b4da 11bf
000000c0: d6a5 5c3e 743c b43e 3111 093f 3690 dabe
000000d0: 27ef b4be a796 1fbf b5d5 77be b4a0 aabe
000000e0: 0ce9 e2be 1498 1cbf 154d 263f c4b8 2abe
000000f0: 1d85 443e 37a2 203f 3229 b0bd 89f9 843e
00000100: 7041 8e3e 86d6 f93e 3734 f43e b1d0 f03e
00000110: f86e adbd 15b8 263f 3684 28bf cce9 8abe
00000120: b5f1 073f 2b99 2ebf a16c 22bf 5d7e 313f
00000130: 32d6 0b3e 1c5a fc3d 0843 f33e a462 91bd
00000140: 8992 143f e376 03bf 9638 53be 4481 edbe
00000150: 4e0c b2bd 75c8 f83d 9173 b2be 5f5a 22bd
00000160: c5ca b43e a85b 933e 1520 083f e6cf ef3e
00000170: 463c abbc 9b44 c9be 75c4 32bf 3884 693c
00000180: 0b67 ba3e 3916 a43d 69e0 a9be b86a 603e
00000190: 912a fc3e 37b4 8e3e 452c e53d 5a53 1f3f
000001a0: 8b0e 9d3d 4304 c2be a3b7 0ebf 3f0c 23bf
000001b0: 763a e3be 1e0f ad3e 3cbe 29bf 3476 d43e
000001c0: 3635 f73d 5f13 7cbe 5433 4d3e 0684 1cbe
000001d0: d5d7 d33e 30a6 0fbf ba4e 2bbf 4403 4a3d
000001e0: e81f 0fbf 6574 203f 16d9 0fbf ecfa db3e
000001f0: 24ca b9be 92bf a7be 728c f5bd bd4a 0f3e
0.2286054 -0.6311263 0.28664985 -0.047300387 -0.105070226 0.3510336 -0.66992855 0.31345674
-0.24274759 -0.48508734 0.37835798 0.14152339 0.4399011 0.40031633 -0.5049363 -0.34865448
0.08317641 -0.5368199 -0.6686897 0.5751562 -0.32918653 -0.35875466 0.40901396 -0.6555409
-0.22438121 -0.5289453 -0.30503467 0.5657902 0.107347846 -0.19018902 -0.19668314 -0.20721117
0.18058158 -0.5414772 0.2655045 -0.3077129 0.56007797 -0.23946817 0.049898904 0.15609226
0.17024341 -0.23104288 0.5923093 0.3387694 0.6017205 -0.27363947 0.39923957 -0.5697434
0.21547636 0.35202372 0.53541857 -0.4268815 -0.3533871 -0.6233925 -0.24202617 -0.33325732
-0.44318426 -0.6116955 0.6496137 -0.16672045 0.19191404 0.6274752 -0.086016074 0.2597163
0.277843 0.4879648 0.47696087 0.4703422 -0.08468431 0.65124637 -0.6582674 -0.27131498
0.5310319 -0.68202466 -0.63447005 0.6933344 0.13655928 0.123218745 0.47512078 -0.07098892
0.58036095 -0.5135328 -0.20627055 -0.46387684 -0.08693753 0.12147609 -0.34853795 -0.039636966
0.3531095 0.28780866 0.53173953 0.468383 -0.020902764 -0.39310154 -0.6983102 0.014252715
0.3640674 0.08012051 -0.33179024 0.2191571 0.49251226 0.27871868 0.11190084 0.6223656
0.076687895 -0.37893876 -0.5574896 -0.6369056 -0.4438054 0.33800596 -0.663059 0.41496432
0.12070696 -0.24616764 0.20039111 -0.15284738 0.41375604 -0.56112957 -0.66917 0.04931952
-0.5590806 0.62677604 -0.5619062 0.42964876 -0.36287034 -0.32763344 -0.119896784 0.13993354

fc1.weight f4 [20, 256, 1]
00000000: 4e27 12be d29a c73d f8e2 833d 8c47 e2bd
00000010: 7edd d13d 9cac 243d 6872 fcbd e449 b2bd
00000020: f61a d13d 201e 04be 86f3 063e 33fd c0bd
00000030: 6c73 043e 09e2 a3bd fa37 0d3e 441e 083d
00000040: 00b4 67bb 40b8 e0bb a29c aebd 56aa 8fbd
00000050: 4cbd 003e 385b bb3d e693 b03d 12cb 963d
00000060: 6a65 c5bd bee5 c73d 26ce debd b466 a5bd
00000070: c0b7 04bd 4098 333b 0e28 28bd a874 813d
00000080: bc8c 133e 2e45 a63d 20eb b23b cacb b2bd
00000090: 552f 8abd 206c a1bb 701d 143e c360 abbd
000000a0: 79ae bcbd 6075 ef3d 8094 12bb d286 ae3d
000000b0: bc89 dbbc ca1b 163e 7cbc 55bd c2d6 48bd
000000c0: f0a0 ccbd 681e ecbc c629 c4bd 6ee1 0b3e
000000d0: 1c7e f03d a8c5 f7bd 3c2c 133d 4c2f 6fbd
000000e0: 2f19 0abe a09e 683d 8c16 fc3d 14ec c93d
000000f0: 8c71 0d3d b42b 073e 590d 93bd ac1c abbd
00000100: 5f82 f6bd 14b0 f6bc 582e b3bc 2424 46bd
00000110: 5292 013e a894 83bc 102d 713d a44f e73d
00000120: 0c36 d7bd ac34 0a3d 49a6 d0bd 4652 c93d
00000130: 7c06 4cbd 3c9f 083e 0827 ff3d 8062 81ba
00000140: d69c 43bd 2a6f 77bd ddac eabd 9490 e7bc
00000150: 3c1c f53d 584f 0f3e 2ae2 0bbe fb98 16be
00000160: 475d 01be 5cf1 513d 86d7 cb3d 0328 84bd
00000170: 74d5 ef3d ec0f a03d 1063 5a3d dc2c d9bd
00000180: 7472 c13d f20b 8d3d 80d4 a03a d06b 553d
00000190: 33a6 abbd 0439 78bd d0c8 d73d 9039 0bbe
000001a0: c0cc 0ebe 80e7 ea3b 62e5 b03d e28a b53d
000001b0: 500e 4e3d 5009 4f3c dc92 8c3d e0b5 7ebd
000001c0: 4ec6 43bd 2c3f e9bd c41b 023e 6430 6f3d
000001d0: 802a 3d3b 5c9f c33d 42fa 0a3e c426 873d
000001e0: 9e73 113e 2cef d83d 14f1 223d dc8c 113d
000001f0: a635 9cbd 60cb 80bc 8642 afbd 2af7 03be
00000200: 18dd e03c 40fb 09bb aa98 1ebd 1cc3 163d
00000210: c0b4 ca3c 5663 083e d473 7f3d d81a 043e
00000220: 201a 0c3e 88d9 9e3d 109d f43d 74e3 f1bd
00000230: 0c33 1a3d fc4e de3d 58c6 0f3e aebf 53bd
00000240: 2363 e7bd 742d 78bd 7ca8 103e 86a0 d3bd
00000250: 78de 533d 3ca7 0b3d 80ed 903a 2800 bb3d
00000260: 4caa 883d 9adb 8c3d c08f ce3c 10a2 893c
00000270: 68c6 b1bc 08cf e73d cc4f 06bd 6cd0 01be
00000280: 6457 8f3d 5c6d db3d 0833 953c 34c9 efbc
00000290: d030 8e3d 309b 0f3e 4012 f0bd 6e4e 61bd
000002a0: f031 10bd 48f5 3d3d 3a39 b73d ad52 9abd
000002b0: 87b3 82bd 6400 613d e794 c5bd 60a0 c33b
000002c0: 3865 123e 04da 7e3d 8cbc 0abe 5141 8ebd
000002d0: c4a5 0c3d 40f7 c13c 4a1d 013e 104d 8bbc
000002e0: bcfe 0abd 6c40 103e 1044 a0bd b439 df3d
000002f0: 2f5a 13be 0020 d1b7 b872 8fbc 47cc d5bd
00000300: 64c5 093e e037 b6bc 544a ffbd b215 ccbd
00000310: 6075 8c3d 486f 833c 80d1 633b d205 d03d
00000320: 781a fbbd 5039 00bd 4893 b13c c6f3 3ebd
00000330: 8ac7 eabd 40fe c43b b184 f7bd 70f0 d73c
00000340: 60a6 cb3c 24f5 2f3d c00e 28bc 8850 b5bc
00000350: 941c ee3d 3c48 d7bd 1092 0f3e 5e33 02be
00000360: 92f4 20bd c0a8 97bc 00b6 863d 0a47 dbbd
00000370: b06c edbd 2425 cf3d aead 99bd cacd 0ebd
00000380: 821c 123e 3245 10be e086 e23d 16cf f2bd
00000390: c8de c23d 14c7 163e acbc cd3d b607 40bd
000003a0: 53a0 02be e096 333d fe40 fbbd b8e6 2dbd
000003b0: c06d acbb a4ca a83d 4500 14be 7eae 9bbd
000003c0: 60d2 4b3d 5807 ea3d af89 0dbe 96c8 0bbe
000003d0: cacf 89bd fb50 80bd 98c7 b83d 243d c93d
000003e0: e05c 8fbd e90e d4bd 54e3 e7bd ac1a 5cbd
000003f0: 0cab 573d dc0f dfbc 971b 82bd 6c6e 743d
-0.14272806 0.097463265 0.06439775 -0.11048803 0.102473244 0.040203676 -0.12326509 -0.087055
0.102102205 -0.12902117 0.13178834 -0.09423294 0.12934655 -0.08002097 0.13790885 0.03323199
-0.003535509 -0.006857902 -0.08525969 -0.07014911 0.12572211 0.09148258 0.086219594 0.07362951
-0.09638484 0.09760617 -0.108791634 -0.0807623 -0.0324018 0.002740398 -0.041053824 0.063210785
0.14409155 0.08118664 0.005460158 -0.08730276 -0.06747309 -0.0049262196 0.14464355 -0.08368065
-0.092129655 0.116923094 -0.0022366345 0.08521809 -0.026799075 0.14659038 -0.052181706 -0.049032934
-0.09991634 -0.028823093 -0.0957828 0.13660213 0.117428035 -0.12098247 0.035930857 -0.058394715
-0.1348617 0.0567919 0.12308988 0.098594815 0.034532115 0.13200265 -0.0718028 -0.08355078
-0.12036585 -0.030113257 -0.021872684 -0.04837431 0.12653473 -0.016062096 0.058880866 0.11294487
-0.105083555 0.033741638 -0.101879664 0.098301455 -0.04981087 0.13341993 0.124586165 -0.0009871274
-0.047756992 -0.06040875 -0.11458752 -0.028267182 0.11968276 0.13995111 -0.13660493 -0.14706795
-0.12633239 0.05125557 0.09953217 -0.06452944 0.11710635 0.07815537 0.05331713 -0.10604259
0.09445658 0.06887044 0.0012270361 0.05210477 -0.08381309 -0.06060125 0.10536349 -0.13596177
-0.13945293 0.00716871 0.08637501 0.088643804 0.05030662 0.012636498 0.06863949 -0.06218517
-0.04779654 -0.11389002 0.12705904 0.05839576 0.0028864443 0.0955188 0.13572028 0.06599191
0.1420426 0.105924934 0.03978069 0.035534725 -0.0762742 -0.015721977 -0.0855761 -0.12887254
0.027449176 -0.0021054298 -0.03871981 0.036807165 0.024744391 0.13319144 0.06236632 0.12900865
0.13681841 0.077563345 0.1194402 -0.11810961 0.03764634 0.10854909 0.14040506 -0.051696472
-0.11298206 -0.060590222 0.14126772 -0.10333352 0.051725835 0.034095034 0.0011057109 0.09130889
0.066731066 0.06877823 0.02521503 0.01680091 -0.021701053 0.11318785 -0.032790944 -0.12677163
0.0699909 0.10714218 0.01821281 -0.029270746 0.06942904 0.14024043 -0.11722231 -0.055006437
-0.035203874 0.046376497 0.08946462 -0.075353004 -0.063818984 0.054932013 -0.096475415 0.005970046
0.14296424 0.062219635 -0.13548487 -0.06946052 0.034337774 0.023677468 0.12608829 -0.01700452
-0.03393434 0.14087075 -0.07825482 0.10899678 -0.14389871 -2.4929643e-05 -0.017510757 -0.104393534
0.13454205 -0.02224344 -0.12465349 -0.099650756 0.06858325 0.016044274 0.0034762323 0.1015736
-0.12260908 -0.031304657 0.021676674 -0.0466192 -0.1146384 0.0060117543 -0.12085856 0.026359767
0.024859607 0.042958394 -0.010257423 -0.022133127 0.116265446 -0.105118245 0.14020562 -0.12714908
-0.03929574 -0.018513083 0.065776825 -0.10706909 -0.11592996 0.10114506 -0.0750383 -0.034864224
0.14268687 -0.14088896 0.110608816 -0.11855905 0.095151484 0.1472438 0.10045752 -0.046882354
-0.12756471 0.043845057 -0.12268256 -0.04245636 -0.0052621067 0.08241776 -0.14453228 -0.07601641
0.049761176 0.11427182 -0.13822053 -0.13650736 -0.06729086 -0.06265446 0.090224445 0.09826115
-0.070001364 -0.103544064 -0.11322656 -0.053736374 0.052653357 -0.027229242 -0.063529186 0.05967562

fc1.bias f4 [20]
00000000: 6426 f8bc b51d c3ba 6866 58bc 5aee 30bd
00000010: 2c03 89bc 408b 4dbc 2da3 54bd 5df5 a6bc
00000020: 34e1 ef3c d540 c4bb 241d e6bc 0013 3d3d
00000030: 020d 14bd f808 73bd 18c1 183c 697f ddbc
00000040: a1e4 783d a266 86bc e214 4c3c 90b9 a5bc
-0.030291744 -0.0014886173 -0.013208009 -0.04319606 -0.016725145 -0.012545407 -0.05191343 -0.02038067
0.02928219 -0.005989174 -0.028090067 0.046160698 -0.036145218 -0.059334725 0.009323381 -0.027038293
0.060764913 -0.016406361 0.012456151 -0.020230085

fc2.weight f4 [20, 20, 1]
00000000: 40e0 37bc b4f4 bebc 580a 603e 7e34 523e
00000010: 00d5 afbb 60bd 443b bb95 1e3e 2253 32bd
00000020: 2217 b8be e0a5 033e ce52 48be edc4 a5be
00000030: 33ea 31be 2c74 52be 7c02 443e f27e b83d
00000040: a383 86bc c673 c63e 2efa ad3d 1f1b 5abe
00000050: 4c91 9a3e 8748 58bd f8ad 113e c319 23be
00000060: 1c60 a43d f774 a13e ca96 6cbd ef24 1ebd
00000070: c999 223e b56e 433e 4237 9ebe a4e2 91be
00000080: ed9d 4dbe fdf8 1c3e 3a6c b23e 08bf 70bd
00000090: b72f c5be 0a80 363e f90f 783e 089e 353e
000000a0: 20d1 4c3e df92 f13d 77bf c2be 9629 a33e
000000b0: 73f3 90be 347b 9dbe cf0a 983d 9bfb e03b
000000c0: 396d 7bbe 3fa7 99be 3b7e 4ebe 0971 7ebe
000000d0: 4c59 e03d 91ff 95be 808e 96bd 6445 4b3d
000000e0: 1c20 b13e 38d2 a53e e51f 003e 0036 e8ba
000000f0: b4cd c23e b5a2 8a3e 747c 0abe 6607 a93d
00000100: 6668 a43e 2f2d 5f3e a072 8fbe 3df8 803d
00000110: 38f8 c2bc 29ae 943e b8f8 e0bd 7933 35be
00000120: ac47 8ebd 10e0 c6bd 08e7 8bbd cc7c bd3e
00000130: 299e ffbd 50af 5cbe 93f1 7f3e 9455 c43e
00000140: b82e 463e f43f 7dbd 78ef 1c3e a953 dcbd
00000150: d00f 79bd 8183 06bd 92aa 08be 5343 473e
00000160: 5d28 bdbd b38b 973e 1010 e53c 4ef7 b83e
00000170: 646e 99bd 7dbe a83e b00c e8bc 1e7f ae3d
00000180: 0366 1fbe e225 bfbe 0b03 203e e811 213e
00000190: 6847 3f3e 0965 dbbd bcd6 643e 2c3c e4bc
000001a0: e47e b43e 6832 25be 866a 763e 74a2 cf3c
000001b0: b9c8 dbbd 4405 053e ec78 af3e 323c ba3e
000001c0: 04c5 c13e 0ce0 abbe 6472 913e 7538 483e
000001d0: a272 c53e 40ca 913c 08ee 70be 9067 fb3d
000001e0: 5a51 bc3e ed63 5e3e 609c 8ebc ce03 a9be
000001f0: dc21 703e 5a81 a2be 343c 6fbe 774a 613e
00000200: 0e47 6dbd 6b3b a5be b61c 67be 307e a83c
00000210: 6426 343e 84c6 0bbe 2cec 2a3e 4ee7 9e3c
00000220: 75d9 073e 5465 143d 7d8e 0a3e 8039 843e
00000230: cc69 a93d 304b a13e 201c bb3e f002 a33d
00000240: 24d9 b03d 705e 5dbe acc0 a43e 6863 b6bd
00000250: 3820 9f3e d0ca 463d 88a2 873d 0031 9fbb
00000260: a0cc d03d 84ff 4a3e 8376 94be 9565 72be
00000270: 9f53 96be 0854 88be 26ec 1dbe 18cf c43e
00000280: 8ad5 af3e 1eee b6bd 20ef 633e 2b0b c4be
00000290: 30e0 ba3e 9dc6 fcbb a0f5 d8bd a85d 603e
000002a0: bd08 1d3d 952e 48be 1017 e53c 883b a03e
000002b0: d029 79be 4765 ae3e 3490 b7be 4dd4 c3be
000002c0: 376d d4bd ff02 9c3e e6ee 663d b8c9 f9bd
000002d0: 9421 d53d d930 c63e a899 873e c4a7 73be
000002e0: 209d 2c3e 3aef a6be 5fdb 96be bc07 6b3e
000002f0: 5de3 42bd ac67 3b3e 9006 6abe 7769 52be
00000300: bc62 6c3e 484e 14bd b479 b83d 01b7 39be
00000310: 178f 163e 0fe9 7b3e e5fe 9cbe 4af1 30be
00000320: 2017 4bbc 32ff 543d b5b7 83be d4d0 733e
00000330: 6c2c 7c3e 6140 bfbe 7ce2 8e3e 99b2 9bbd
00000340: c615 2d3e d470 bf3e d010 82bc 0435 1e3e
00000350: 905a 4d3e b1eb c2be dade b8be b86e a63e
00000360: 9dbd c23d 256b 9d3e 535a d1bd f06d bb3c
00000370: 9cc9 8ebd 472d 80be 2403 03be 186a a8bd
00000380: 2021 183e d0c9 d7bd 7a84 90be ae08 36be
00000390: fab3 42be 1c52 a6be f0f3 8a3e fcf7 a0bd
000003a0: 1240 b83e fc9a 99bd 78cf 15be e4c2 b3be
000003b0: 302e 363e f498 8dbd 6410 463e e49a 2b3e
000003c0: a2b6 c3be f8f7 24bd ceb5 843e e051 8bbd
000003d0: 6881 653d b01b ab3e fa84 10be bcb0 bfbd
000003e0: 2f4c 1dbe 7ae8 75be 6e02 aa3e 84f9 693e
000003f0: cc03 b0be f08b 8dbe 3049 febc 1c25 ba3d
-0.011222899 -0.023310043 0.21878946 0.20527837 -0.0053659678 0.0030020103 0.15486805 -0.043536313
-0.3595515 0.12856245 -0.19562837 -0.32376805 -0.17374496 -0.20552129 0.19141573 0.09008588
-0.016420191 0.38760203 0.084949836 -0.21299408 0.30188978 -0.052803542 0.1422652 -0.15927796
0.08026144 0.3153455 -0.05776099 -0.03860944 0.15878977 0.190852 -0.30901533 -0.28493226
-0.20079775 0.15329356 0.34848195 -0.05877593 -0.38512966 0.1782228 0.24224843 0.17736065
0.2000165 0.117955916 -0.380367 0.31867665 -0.28310737 -0.3075806 0.074239366 0.006865931
-0.24553384 -0.3001041 -0.2016534 -0.24847807 0.10954532 -0.29296544 -0.073513985 0.049626723
0.3459481 0.32386947 0.12512167 -0.0017716289 0.38047564 0.2707726 -0.13524038 0.08253364
0.321109 0.2179458 -0.2801714 0.06297348 -0.0238 0.29039124 -0.10984939 -0.17695417
-0.06947264 -0.09710705 -0.06831175 0.37009275 -0.124813385 -0.21551251 0.24994497 0.3834654
0.1935376 -0.06182857 0.15325725 -0.107581444 -0.060806096 -0.032840256 -0.13346317 0.19459276
-0.09236214 0.2959877 0.02796176 0.36126179 -0.074917585 0.3295783 -0.028326362 0.085203394
-0.15566258 -0.3733359 0.15626161 0.15729487 0.18679583 -0.1071263 0.2234754 -0.027860723
0.3525306 -0.1613251 0.24064073 0.025346018 -0.10731644 0.1299029 0.34271944 0.3637405
0.37845623 -0.33569372 0.28407586 0.19552787 0.3856402 0.017796636 -0.23528302 0.12275612
0.36780816 0.21717806 -0.01740855 -0.33010715 0.23450416 -0.31739312 -0.2336281 0.22001062
-0.05792909 -0.32271895 -0.22569546 0.020567983 0.1759277 -0.13649946 0.16691655 0.019397404
0.13266547 0.036229447 0.13530917 0.2582512 0.08272132 0.31502676 0.36544895 0.07959545
0.08635166 -0.21618056 0.32178247 -0.08905679 0.31079268 0.04853326 0.06622797 -0.004858136
0.10195279 0.19824034 -0.28996667 -0.23671563 -0.29360673 -0.2662661 -0.15422115 0.3843925
0.34342605 -0.08932136 0.22259188 -0.3828977 0.36499166 -0.0077141062 -0.10593724 0.21910727
0.03833841 -0.1954902 0.027965099 0.3129542 -0.24332356 0.34061643 -0.35852206 -0.3824791
-0.103723936 0.30471036 0.056380175 -0.12196678 0.10406795 0.38709143 0.26484418 -0.23794466
0.16856813 -0.3260439 -0.29464242 0.22952169 -0.04758011 0.18301266 -0.22854066 -0.20548044
0.23084539 -0.036207467 0.09007588 -0.18136217 0.14703022 0.24600624 -0.3066322 -0.17279544
-0.01239565 0.052001186 -0.25726095 0.2381013 0.2462632 -0.37353805 0.2790717 -0.07602424
0.16902837 0.3739077 -0.015877157 0.15449911 0.20054078 -0.38070443 -0.36107522 0.32506347
0.09508822 0.30745807 -0.10222306 0.02287957 -0.06972048 -0.25034544 -0.12794167 -0.08223361
0.14856386 -0.105365396 -0.28226072 -0.17776749 -0.19013968 -0.3248452 0.27139235 -0.07859799
0.35986382 -0.07500264 -0.14629924 -0.35109627 0.17791057 -0.06913939 0.1934219 0.16758305
-0.38225275 -0.040275544 0.25919956 -0.06802726 0.056031615 0.3341956 -0.14113227 -0.09359881
-0.15361093 -0.24014464 0.3320498 0.22849089 -0.34377897 -0.27645826 -0.031040758 0.09089109

fc2.bias f4 [20]
00000000: 328a 433e 0171 42be 9708 53bd 2abd b93d
00000010: b8bd 233e 4144 ee3d ea8b 133d b835 3abe
00000020: 2a9e 013e 361b 8cbd 2c2d 413e 444a f13d
00000030: 84e5 103e ea05 44bd 5083 803c 2603 92bd
00000040: 44d7 b1bd 6517 31be f5ef 433e d598 63be
0.19095686 -0.1898842 -0.051521864 0.09069283 0.1599034 0.11634112 0.036022104 -0.18184555
0.12657991 -0.068411276 0.18864888 0.11781743 0.14150053 -0.047857203 0.015687615 -0.07129507
-0.08683637 -0.1729408 0.19134505 -0.2222627

fc3.weight f4 [1, 20, 1]
00000000: 3441 343e 9d9b c6be 3d83 05be 2b39 d0bd
00000010: add5 83be 164e 9f3e 8ba8 723e 0eb7 ff3e
00000020: 1ad4 03be 586a 0f3e fbdb 0f3e 0556 033f
00000030: e8de 183e 134a f93e 2e85 f13e 883a aa3e
00000040: 4e92 b43e 1db9 cfbd 0acb dd3c e069 c63d
0.17602998 -0.387906 -0.13038345 -0.10167154 -0.2574896 0.31114262 0.23697107 0.49944347
-0.12873879 0.1400541 0.1404876 0.5130313 0.14928782 0.48689327 0.4717192 0.3324778
0.35267872 -0.101427294 0.027074356 0.09688163
