Task assignment/drl4vrp/vrp/10/19_20_26.716625/checkpoints/8/actor.pt (torch, 734651 bytes, 14 tensors)

static_encoder.conv.weight f4 [128, 2, 1]
00000000: f655 1bbe 987a 193e 91d9 ec3d 9207 a53b
00000010: fc7e ddbd c894 673d 6143 b9bd c5b8 7dbd
00000020: 2280 e83d 97ba f63d cb08 acbd 6fd5 49bd
00000030: b4f9 493e 30bd 09bd a0f6 f2bd 8ae0 413e
00000040: f1a1 3dbe 617e 3a3d e046 c53d d5b2 e83d
00000050: 0def 0fbe 79a9 a0bd fc4b 15be f829 3ebe
00000060: 8c36 3abd aaff 52be 13d5 3cbe f448 8ebb
00000070: 20cc 363e 7151 fbbd 0784 303e 37cb a53c
00000080: b688 3a3e 81a7 4bbb 2545 12be 8ae3 07bd
00000090: aa6e b0bc ba60 3c3e 2ae3 46be 3574 44bd
000000a0: 2e71 183e 28bb 43be f86e d4bd c7f1 e9bd
000000b0: ac68 ecbb 2176 adbd 1096 da3d f9d0 bebd
000000c0: 3bbf 2b3d b186 b93c 274b 4e3e 5eae 273c
000000d0: e3ef ea3c 02ae 173d 0212 15be 3e5d 28bd
000000e0: d560 10be 3cc2 c33d e93f 683b 24b7 433e
000000f0: 836e a2bd f312 3a3c 8c81 9bbd 9704 2ebd
00000100: 37e3 493e 9132 04be de6b 123e be23 14be
00000110: 449a 02bd f721 a53d 6e42 46be 5e39 df3d
00000120: 8804 c5bd 2a34 27be f2c7 cbbd 14d3 0a3e
00000130: db36 7f3d b729 e53d e706 303e a7a1 ddbd
00000140: 068a 0dbe 592b 173d 7428 b6bd 739b 023e
00000150: 07d7 fdbd c9e6 2ebe a6cb 243e 36c9 b0bd
00000160: 74a1 78bb 3b18 163c 606f 013e 06b0 eb3d
00000170: dbd1 123e 5ea7 343d 08bc 493e 544c e1bc
00000180: 7ade 7d3d e2a3 8b3d cd70 a13d dcee 03be
00000190: fc00 4a3e 9774 92bc 6bf5 cbbc 7fe5 dabd
000001a0: 1b68 06bd dc24 d83d a38e a1bd 53da 59be
000001b0: 295c 99bc 4ba0 c4bd ec53 18bc 29c1 b13c
000001c0: de90 323e e2f5 4f3e 2462 33be 0f42 553e
000001d0: 16bf 4b3e c625 0d3d 2f67 123e 628b bc3d
000001e0: f913 9a3d e431 64bd 8f7e aa3d a78e 44be
000001f0: fa28 46be 83ba 34be 40b3 873d 90c8 133e
00000200: d7ee cd3d 21d8 ff3c 10cf 4dbe 655c 73bd
00000210: 5168 11be 2bf6 11be 71c5 a2bb 4dc7 7dbc
00000220: 2464 59be 337f df3c 2f9a 893c d31b 453e
00000230: 570b 253d cbed 4a3e c8dd 75bd c87f d43b
00000240: 19a0 92bd 8fb9 e7bd 9d1c 793d 965f 023e
00000250: fc23 8b3d 10ef c0bb 9f28 b53b 4b7f d5bb
00000260: 1a96 7dbd f8d7 063d 0670 d73d 13af 083d
00000270: fc41 3d3e c9dd 033e f6cb fcbd 12a4 50be
00000280: 7424 85bd aa11 54be 327c 54be dab7 16be
00000290: 0191 06be a1c2 02be 1567 4dbe 38c0 75bd
000002a0: c07a 4fbe 5047 5638 cc60 8a3d f9e9 063e
000002b0: ec1c 553e fa77 33be 3a52 e5bc 3d08 a9bd
000002c0: 49a6 8dbc 72fd 93bd 06bb 40be 11cc 0abd
000002d0: 8c8c 033e 3f77 f53d 4aee 45be 3352 95bd
000002e0: b19e 4dbd e38e 83bd 67e3 03be a7ff 1c3e
000002f0: d02d 363e d48e 10bd 506b cbbc ebe0 3dbd
00000300: a5ee 0fbe 8c9e 48be 4a61 813c 6d88 123e
00000310: a7c3 29be dfdc 1e3e 9a7f 763d 3767 54be
00000320: f191 a43d 9adf 5b3d c332 f5bd c1f4 9e3d
00000330: b4ab 3b3e 7a27 41be a359 913c 8230 f33c
00000340: 0953 4cbe f760 443c 3a22 f6bc 5eda bbbc
00000350: 1e67 edbd d7bd 5bbd 3f78 33be 3bce 843c
00000360: f174 013e f475 10be e3d1 933d 5231 3cbd
00000370: d4cb 263e 94fa cebd be34 42be 0685 5ebc
00000380: a95d 0a3e 2811 5ebd c2d4 25be ffd9 8c3d
00000390: ebb1 3e3e 117a 303c c131 dbbd 6dd3 293e
000003a0: 52aa 8d3d 3f6c 3ebe f261 1a3e 7044 97bd
000003b0: 4ec7 ad3c a3c9 de3d 6c94 033e ced1 38bd
000003c0: cfbf 093e d68b 343b 5983 46be 9a05 2fbe
000003d0: 9604 c13d 94aa 423e 0030 553d 61f5 2f3e
000003e0: 5ab8 173e 77ff bebd 8c4c 953d bacf b8bd
000003f0: e00c c6bd da8a 59bc e885 b7bd 7b57 bb3c
-0.1516951 0.14988172 0.11564935 0.005036303 -0.10815236 0.056538373 -0.09046055 -0.061943788
0.113525644 0.12047308 -0.084001146 -0.04927581 0.1972416 -0.03362769 -0.11863446 0.18933311
-0.18518807 0.04553068 0.09632659 0.113622345 -0.14056034 -0.07844824 -0.14579767 -0.18570697
-0.045462176 -0.2060534 -0.18440656 -0.004342193 0.17851305 -0.12271393 0.17237864 0.020238502
0.18216214 -0.0031075182 -0.14284189 -0.033175983 -0.021537144 0.18396273 -0.19422594 -0.047962386
0.14886925 -0.19114363 -0.10372728 -0.114230685 -0.0072146263 -0.08469797 0.106731534 -0.09317202
0.04193042 0.022647234 0.20145856 0.0102344435 0.02867884 0.03703118 -0.1455765 -0.041104548
-0.14099438 0.09558532 0.0035438484 0.19112831 -0.07931235 0.011357057 -0.075930685 -0.042484846
0.19715582 -0.12909915 0.1429896 -0.1446676 -0.0318854 0.08063119 -0.19361278 0.10899614
-0.09620005 -0.16328493 -0.09950246 0.13557082 0.062308174 0.11189597 0.17190133 -0.10821848
-0.13822183 0.036906574 -0.088944346 0.12754612 -0.12394529 -0.17080225 0.1609331 -0.08632128
-0.003793803 0.00916105 0.12640142 0.11508183 0.14337866 0.044104926 0.19700634 -0.027502216
0.06197975 0.068183675 0.07882843 -0.12884086 0.19726938 -0.01787786 -0.024897298 -0.10688304
-0.032814126 0.10553905 -0.07888534 -0.2127469 -0.018720703 -0.09600886 -0.009297352 0.021698551
0.17438075 0.2030864 -0.17517906 0.2082598 0.19897112 0.03445985 0.14297174 0.09206273
0.07523341 -0.055711642 0.083249204 -0.19195043 -0.19351569 -0.17649274 0.06625986 0.14431977
0.10055321 0.031230988 -0.2009852 -0.059414286 -0.1419995 -0.14254062 -0.0049673845 -0.015489412
-0.21229607 0.027282333 0.016797153 0.19248895 0.040294018 0.19817273 -0.06002596 0.0064849593
-0.071594425 -0.11314689 0.060818303 0.12731776 0.06793973 -0.0058878735 0.005528524 -0.0065154186
-0.061910726 0.032920808 0.10519414 0.03337009 0.18482202 0.12877573 -0.1234359 -0.20375088
-0.065010935 -0.20709863 -0.20750502 -0.14718571 -0.13141252 -0.12769558 -0.20058854 -0.059997767
-0.20261669 5.108799e-05 0.06756744 0.13175191 0.20811814 -0.17526236 -0.02799331 -0.082535245
-0.017291205 -0.07226075 -0.18821344 -0.03388602 0.12846583 0.11985635 -0.19329181 -0.07291069
-0.050200168 -0.06423738 -0.12879716 0.15331899 0.17790914 -0.03529246 -0.024831444 -0.046357077
-0.1405588 -0.19591731 0.015793461 0.14309855 -0.16578542 0.15513943 0.060180284 -0.20742498
0.080356486 0.05368004 -0.11972573 0.07761527 0.18327218 -0.18862715 0.017742937 0.029686216
-0.1995355 0.011986009 -0.030045617 -0.022931274 -0.11591934 -0.053647842 -0.17526339 0.01621162
0.12642266 -0.14107496 0.07217767 -0.045945473 0.16288692 -0.10106388 -0.18965432 -0.01358152
0.13512291 -0.05421558 -0.16194442 0.06877517 0.18622558 0.01077129 -0.10702849 0.16584559
0.06917252 -0.1859598 0.15076426 -0.073861 0.0212132 0.10878303 0.12849587 -0.04512196
0.13452075 0.002754917 -0.19386043 -0.1709198 0.09424703 0.19010383 0.05204773 0.17183448
0.14816418 -0.0932607 0.07289991 -0.09023996 -0.096704245 -0.013277734 -0.089610875 0.022868862

static_encoder.conv.bias f4 [128]
00000000: 573b d9be 3b04 82be e495 293f ef1b 8c3d
00000010: 094f 33bf c56a aa3e 5be7 c4be 5338 20bf
00000020: 621e 873e 91ee 0a3e a95d 06bf 04e9 053f
00000030: b07c b53e ff02 10bf 4d54 dd3e e1f3 d63e
00000040: 63bf bb3c 9d7f 1abf e0f1 30bf 81e0 0b3e
00000050: 1350 31bd 8073 973e aa4b a1be 7235 463c
00000060: c2b7 92bc 7e82 28bf 5eed e53e d5eb fc3d
00000070: bd2e e5be f360 5d3e 8b34 033e eed2 8c3d
00000080: c044 513d 8d5b 2d3f 959f 0c3c 25ad 0c3f
00000090: f12c bdbe 2a1a 153f 1fbe 0a3f da6d 21bf
000000a0: 23dc aebe b9e8 e1be e5a5 04bf 4661 083f
000000b0: 0cf7 3b3d 2577 163f eb5f ba3e 1e2e ce3e
000000c0: fdf0 2dbf 099f 5a3e 2d8f 6dbe fec0 af3e
000000d0: a811 343f 3224 b6be f92c a23e ee55 f43e
000000e0: 445a d53e 5df5 b2be 28e2 143f 0c12 1c3f
000000f0: 943e 043f b8c7 e73d 1b65 843d 8a16 99be
00000100: 9ac9 28be f77b d2be 34d8 cc3e fbbd d4be
00000110: 679e 5f3e 65fd d4be 9953 02be 132d 133f
00000120: 5c9b e73e cd9d 433d 1483 ec3e 99f9 413e
00000130: 79d3 f23d aaa2 ff3e bb7f d33e a221 02bf
00000140: 2ac9 14bf 0775 30bf 127e 2ebf 669c 9d3e
00000150: c055 efbe 9435 24bf 189c d7be 43e7 193f
00000160: fa08 ef3d ab52 f03e 257a ed3e 76d1 cdbe
00000170: e6ba c53e 74d0 1f3f e771 003f b6c1 79bd
00000180: aa1d 7dbe f776 bdbe f1fc 71be a5cf 61be
00000190: 4092 cabe 9d8b 413e 1a7c 22bf d846 05bf
000001a0: 6a00 31bf b267 edbe b218 b73e c7fc 1a3f
000001b0: c2fe 26be 9497 34bf 4328 cf3e ab00 04bf
000001c0: 65e5 333f 74c5 113f 6997 7a3e df75 f43e
000001d0: 3e92 a4be 7d00 d23d 4496 03be a916 d8be
000001e0: fda3 f8bd 2cff 503d d8c2 873d d503 f3bd
000001f0: 5f8f 8d3e 9f0a 983d 5103 83be a7ee b13d
-0.42428085 -0.25393853 0.6624434 0.068412654 -0.70042473 0.33284584 -0.3845776 -0.62585944
0.26390368 0.13567568 -0.52486664 0.5230868 0.35446692 -0.5625457 0.4322838 0.4198294
0.022918409 -0.6035097 -0.6911907 0.1365986 -0.043289255 0.29580307 -0.3150304 0.012097703
-0.017909888 -0.65824115 0.4490766 0.12349669 -0.4476222 0.21619014 0.12813012 0.06876169
0.051090956 0.6771782 0.008582969 0.549517 -0.3694835 0.5824305 0.5419635 -0.63058245
-0.34152326 -0.44122866 -0.51815635 0.5327343 0.0458899 0.5877555 0.36401305 0.4026956
-0.67945844 0.2134973 -0.23199148 0.3432693 0.7033944 -0.3557449 0.31674936 0.4772181
0.4167043 -0.34952822 0.5815759 0.6096504 0.51657987 0.1131739 0.06464597 -0.29900008
-0.16483155 -0.41110203 0.400087 -0.41551194 0.2183777 -0.41599575 -0.12727202 0.5749065
0.45235717 0.047757912 0.46193755 0.1894287 0.118567415 0.4992879 0.41308388 -0.5083257
-0.5811945 -0.6892857 -0.6816112 0.30783385 -0.4674511 -0.64144254 -0.42111278 0.601185
0.11671634 0.4693807 0.4638225 -0.4019887 0.38619155 0.6242745 0.501738 -0.060975753
-0.24718347 -0.37004825 -0.23631646 -0.22051866 -0.39564705 0.18900914 -0.63470614 -0.52061224
-0.69141257 -0.46368176 0.3576103 0.6054196 -0.1630812 -0.7054379 0.40460405 -0.5156352
0.70271903 0.56941915 0.24471821 0.47746179 -0.32142824 0.102539994 -0.1285029 -0.42204788
-0.12140653 0.0510246 0.0662896 -0.11865965 0.27648446 0.07423901 -0.25588468 0.086880974

dynamic_encoder.conv.weight f4 [128, 2, 1]
00000000: b4e1 f33d 1505 2d3e 4a86 763d 7ba4 843d
00000010: 50cf 03be 3aeb 3abe 6bf4 0abe dc2b 443e
00000020: 4912 abbd 19cc 57be 1ff3 133e ab98 023d
00000030: a13f bc3d 86ca 66bd b2fc fc3d 0448 b3bc
00000040: 3042 503d dbc9 49be c5d0 cc3d 9fd3 bc3c
00000050: f3ae 7dbd 84c1 043e e544 e23d 1fd6 56be
00000060: 62e4 e73d 6e78 573c 10cc 1e3e 8ef0 46be
00000070: 7484 983c ce79 163e a3cc d93d 92f5 423e
00000080: 08a9 8ebd 08bf 0a3e bad9 693c c331 4abe
00000090: b666 8fbd 6696 503e dbea 5ebd 251b 113e
000000a0: 6a0e 3a3e 6bbd 3b3e e3cd abbd 0b5e 243d
000000b0: 384c 3dbe 0c28 e43d 7d59 d83d 58cd ed3c
000000c0: 28df 8fbd 7bbc fe3d 3c07 453d b0d4 fe3d
000000d0: 05cf 593d 1d14 34be f80c 22be 6d72 543e
000000e0: f0a1 3b3e 3084 59bd 28bc 47be 7365 47be
000000f0: 13e3 53bd 0d7c 643e a4bd 20be ef7c 12bc
00000100: 1ce2 6cbd 7b40 f9bd 7256 0e3d 3c80 b13d
00000110: 48d6 3f3e af58 bebd 9c2a 06be 7d4a 083e
00000120: c5fb b5bd cf81 3c3e ebfb 11be a715 633e
00000130: 5a66 8b3d dba2 853d 3a2d a23d 4389 263e
00000140: df28 43be 3d61 2b3e 7ec1 4cbc 52a4 09be
00000150: e2ec ee3d b11f 31be 4ca1 dbbc d3cb 993d
00000160: 998d e337 e03c 0b3e 8713 483e c0c7 dd3d
00000170: 1076 e23c 834d 683d 07a3 5bbe d894 1a3d
00000180: 8004 3d3e 9447 68bb 7830 213e c698 463e
00000190: 5f8a 52be efc4 cc3d 6e7a 4fbe 140d 5c3e
000001a0: e914 783c db48 f83d 1372 eabc 2d6c ef3c
000001b0: 449a 49be b20a 21be b51a b0bc 06f6 47bd
000001c0: 0237 08be 3882 55be 478f 363e 85f4 da3c
000001d0: 96b8 54be 44f0 0bbe 885c 443e fe98 69bc
000001e0: c855 123e 6f14 4dbd d06b 103e e836 7dbc
000001f0: 16dd 37be e3f8 3d3e c795 a9bc 97f2 1ebe
00000200: c48b 4bbe aa42 07be 1f83 43be 9347 5ebe
00000210: cbb7 ae3d 1cb1 5a3e 143a 5c3d e10f e83d
00000220: 8bd9 c4bd bacc a43d f0f6 f43d eb78 513e
00000230: e29e 3b3e 19f8 3f3e e191 ff3c 2b4e 293e
00000240: b2b1 8ebd 5b6a 07be 64e1 afbd 834e 25be
00000250: 45b2 19be 1b39 22be 29b0 963d ddb5 dcbd
00000260: 6a64 15be 3d4d 163c 29e6 3bbe 4b99 1d3e
00000270: 1ccc 4e3d c980 47be 6800 1e3e d379 33be
00000280: c638 213e ad87 42bd c74a 14be 022e 23be
00000290: 7b8a 033e efe8 4b3e fe01 08be a9c0 3dbe
000002a0: 1a1d 133c 2085 40be 338f eb3b a9d1 3abe
000002b0: f2f1 0f3e ff0b 1f3d 57e3 13be b99d 9d3d
000002c0: ffa1 41be 7913 453d 8991 523e de07 cfbd
000002d0: 4219 103e 0cbd e73c 4600 923c efb3 253e
000002e0: 2508 bb3c 0824 07be 32ba f6bd 3747 633e
000002f0: 118b 2e3e a094 133e 99bd 513d 08ed 24be
00000300: b00c c33c 7ea3 08be 4069 573e 0f16 ec3d
00000310: dce5 0c3e ab42 633e adcd c83c 6bc9 d6bc
00000320: b9bd 04be 7eef acbd 9da3 febd 21b1 fdbd
00000330: 5178 0ebe 7e63 233e 5bc5 bb3d 9c4e 0c3d
00000340: c4fa 3f3e 748a e33d 363c 0c3e a2c9 823d
00000350: ea22 3b3e a5a7 2abe 7224 57be 769d 283e
00000360: 4ca6 3e3e 4d5e cf3c c97d 67bd f745 2f3e
00000370: cc4a 3f3e b95a f5bd ee87 1bbe 6a12 d43d
00000380: b1b7 c23d f965 b6bd 1da4 eebd c46f a1bc
00000390: 988e fe3d c85c a4bd 1985 aebc 0b49 cd3c
000003a0: a2e6 15be 5680 a13d 01ad c73d ec70 4dbe
000003b0: c459 57be 0b69 34be a144 053e d540 0cbd
000003c0: d3b4 28bd 687a 9b39 b58f 573d e1dc 8a3d
000003d0: 6d6d 09be 8a9a 5cbe 6004 963d 5c5a 43be
000003e0: defd d1bd 79ae 21be 3de9 1bbe 99f0 8dbd
000003f0: c9e3 07bd 11c5 42be b1ef 953d 921f efbd
0.11908284 0.1689647 0.06018666 0.06476685 -0.12872052 -0.18253794 -0.135698 0.19157356
-0.08353097 -0.21073951 0.14448212 0.031883877 0.09191824 -0.056345485 0.12352885 -0.021884926
0.05084437 -0.19705908 0.10000757 0.023050128 -0.061934423 0.12964445 0.11048297 -0.20980118
0.113228574 0.013151271 0.15507531 -0.19427702 0.018617846 0.14694902 0.106347345 0.1903899
-0.06965834 0.13549435 0.014273101 -0.19745545 -0.070020124 0.20369872 -0.054423194 0.14170511
0.18169561 0.18333976 -0.08388879 0.04012875 -0.18486106 0.11140451 0.105639435 0.02902858
-0.070249856 0.124382935 0.048102602 0.12442911 0.053175945 -0.17585798 -0.1582526 0.20746775
0.18323493 -0.05310458 -0.1950537 -0.19472294 -0.051730227 0.22312947 -0.15697342 -0.008940919
-0.057832822 -0.12170502 0.03475041 0.08667037 0.18734086 -0.09294259 -0.13102192 0.13309665
-0.08885912 0.18408893 -0.14256255 0.22176228 0.068066314 0.06525203 0.079187825 0.16263299
-0.1905856 0.16736312 -0.012497304 -0.1344159 0.116662756 -0.17297246 -0.02681031 0.075095795
2.7126445e-05 0.1359744 0.19538699 0.10829115 0.027644187 0.056714546 -0.21448909 0.037739605
0.18458748 -0.0035443055 0.15741146 0.19394216 -0.20560597 0.099984996 -0.20261547 0.21489364
0.015141704 0.12123271 -0.028618848 0.029226387 -0.19687754 -0.15726736 -0.02149711 -0.04881861
-0.13302234 -0.20850456 0.17828093 0.026727924 -0.20773539 -0.13665873 0.19175923 -0.014257668
0.14290535 -0.050068315 0.14103627 -0.015454985 -0.17955431 0.18551974 -0.020701302 -0.15522228
-0.19877535 -0.13209024 -0.19092987 -0.21706991 0.085311495 0.21356624 0.053766325 0.11331154
-0.096118055 0.08046861 0.11961162 0.20456283 0.18322328 0.18746985 0.03119749 0.16533725
-0.069674864 -0.13224165 -0.08587912 -0.16143231 -0.1500941 -0.15842097 0.07357819 -0.10776875
-0.14589086 0.0091736885 -0.18349518 0.15390508 0.050487623 -0.19482721 0.15429842 -0.17526941
0.15744314 -0.04749267 -0.1448165 -0.1593552 0.12845795 0.19913076 -0.1328201 -0.18530525
0.008979106 -0.18800783 0.0071887015 -0.18244042 0.14057139 0.0388298 -0.14442192 0.07696099
-0.18909453 0.048114274 0.2056333 -0.101089224 0.14072135 0.028288387 0.017822396 0.1618192
0.022831032 -0.13197339 -0.12047233 0.22195135 0.17045237 0.14412165 0.051206205 -0.16106045
0.02380976 -0.13343617 0.21036243 0.11527645 0.1375956 0.221934 0.024512136 -0.02621909
-0.12962998 -0.08444117 -0.124335505 -0.123873 -0.13913085 0.15955922 0.09168502 0.034254655
0.18748003 0.11110392 0.13694844 0.06386115 0.18275037 -0.16665514 -0.21009997 0.16466317
0.18618125 0.02531352 -0.056516442 0.17116533 0.18680876 -0.119801946 -0.15188572 0.10355075
0.095076926 -0.089061685 -0.11652396 -0.019706614 0.12429541 -0.08025509 -0.0213037 0.025059244
-0.1463876 0.07885806 0.09749795 -0.20062608 -0.21030337 -0.17618196 0.13014461 -0.034241516
-0.041188072 0.00029655104 0.052627284 0.067804106 -0.13420649 -0.21543327 0.07325053 -0.19077438
-0.102534994 -0.15789212 -0.15225692 -0.06930656 -0.033176217 -0.19020487 0.07321108 -0.116759434

dynamic_encoder.conv.bias f4 [128]
00000000: 3df0 d43e 8070 9a3e 2163 2b3f 79d1 ef3d
00000010: c920 19be 0657 823e 1624 dd3e 99a8 eabe
00000020: 7345 533d a933 23be 422c 78be c4f8 b2bd
00000030: 2037 2a3f 9d8f 803e 4180 343e 70b7 053e
00000040: a84b 223f 12ff 503e 1c02 09be efb8 aebd
00000050: c230 2f3e 8b33 683e 0310 f53e 4dfc a73d
00000060: 176a 9ebe dbeb 183f 7a8b 60be 5e20 593e
00000070: e5bb 263f c25c b4be 4d93 913e ff76 003f
00000080: b200 083f 3a17 0d3e e51b dcbe 3856 d6be
00000090: 69cc c7be bda4 95be 6121 cbbd 2cf4 09bf
000000a0: 6140 033f 0133 a13e a86d 143f 2c81 f3bd
000000b0: d540 32be 993c 4abe ab6c c8be 1ede 093e
000000c0: 63e8 193f 5494 cfbd 1405 b7bd 92fd 9d3e
000000d0: 9288 7c3e add8 e43e 4bde 9abe 1f5f e53e
000000e0: 8c46 1c3f 055e 26bf ad2d 8bbe 61f7 8e3e
000000f0: 95e3 e73e 58f0 b53e e8ac 71be 57e3 153e
00000100: 926e c7be ca4d 2abd ba91 16bf 8f57 15bf
00000110: 9020 a43e 146f d03e d9d2 313f a958 80be
00000120: 8fec 1d3f 4744 e7be 26f0 933d 688a 283f
00000130: e076 fa3e 8c9b ae3e a3d0 46be 41d1 8dbe
00000140: c986 30bd 4048 b33e 8da0 a3bd 0296 2abf
00000150: 0906 b6be 1fa5 d53e 5021 00be a0c3 7cbe
00000160: 72f0 c63d d7cb 2abf bfb0 33bd 144b 8ebd
00000170: 7a02 56be 6375 2b3f f60b 36be 43c5 06bd
00000180: 63e9 c7be e831 0dbf 890e 013f c5b5 27bf
00000190: 2e14 2cbf 21dc 7c3d 4cc5 20bf 5432 0a3f
000001a0: f80b 913e 7e3e 08bf f2a6 c7bd ad62 df3e
000001b0: a690 c23e cf48 a43e e097 bfbe 857f 71be
000001c0: 345e 6e3e c6f5 1a3e d15e e3be 2998 6cbd
000001d0: 866a 82be 24bc 0e3e d2ef 89be 0864 19be
000001e0: 98a1 833d 60d3 b0be e12d 063f 5fc5 09bf
000001f0: f5f6 113f c782 ad3e c947 aabe 921d cebe
0.41589537 0.30163956 0.66948134 0.117098756 -0.14953913 0.2545702 0.43191594 -0.45831755
0.051579904 -0.15937676 -0.24235633 -0.087388545 0.66490364 0.25109568 0.1762705 0.13058257
0.6339669 0.20409802 -0.13379711 -0.08531367 0.17108443 0.22675912 0.47863778 0.082024194
-0.30940315 0.59734887 -0.21928206 0.21203753 0.65130454 -0.3522702 0.28432694 0.50181574
0.5312606 0.13778391 -0.42990032 -0.41862655 -0.3902314 -0.29227248 -0.09918476 -0.538882
0.5127011 0.31484225 0.5797982 -0.11889872 -0.17407544 -0.19749679 -0.39145407 0.13463637
0.6012022 -0.10135713 -0.089365155 0.3085752 0.24661472 0.4469656 -0.3024772 0.44799134
0.61045146 -0.6498721 -0.27183285 0.2792311 0.4529082 0.3553493 -0.23601115 0.14637505
-0.38951546 -0.04157809 -0.5881611 -0.5833673 0.32056093 0.40709746 0.69462353 -0.25067642
0.61689085 -0.4516928 0.07223539 0.6583619 0.4891882 0.34103048 -0.19415526 -0.2769871
-0.04309729 0.3501606 -0.07989607 -0.66635144 -0.3555148 0.4172754 -0.12512708 -0.24684
0.0971383 -0.66717285 -0.04386973 -0.06947914 -0.20899382 0.6697599 -0.17778 -0.032902967
-0.39045247 -0.55154276 0.50412804 -0.65511733 -0.6721829 0.06173337 -0.6280105 0.53983045
0.28329444 -0.53220356 -0.09748639 0.4362997 0.38000983 0.320868 -0.3742056 -0.23583801
0.23278123 0.15132818 -0.44408277 -0.0577623 -0.25471896 0.13938957 -0.2694078 -0.14979565
0.06427306 -0.34536266 0.52413756 -0.5381679 0.5701745 0.33888838 -0.33257893 -0.40256935

decoder.conv.weight f4 [128, 2, 1]
00000000: 386a 2abe 3b88 e4bd 2695 083e baed 4cbd
00000010: edf8 9e3d a1a8 96bd 6daf 0bbe 706a 33bc
00000020: f55e 463e 3878 4d3e 1712 01be c883 c6bd
00000030: fe03 113e 3c3f f53c 2540 df3b b0a1 533e
00000040: ecf9 a93d 5b52 433e 4703 3abe 7840 0d3e
00000050: bb86 523e fbf5 403e cf9b 543d ddcb 503e
00000060: 1750 7abd 1bf7 b43c fb3a 14bb 9d8d e4bc
00000070: b64f 383e 72f2 c5bd 5db4 33be ec07 00be
00000080: 5066 cdbc 6707 f53d 8ad1 e43d e3db 31be
00000090: 0e4c 4bbd 87e0 293e c1e3 443e c3cc ba3c
000000a0: 8f47 323e f0ec 19be 4b37 10be bf80 0c3e
000000b0: 87fa 09be d055 41be f705 d23c 2c7a f63d
000000c0: 17c2 c33d 6189 1cbe f6c8 4abe 1bee 25be
000000d0: b994 10bd 3bf3 0e3d 2da4 c83d ca1d fa3d
000000e0: 68e2 9abd d03f 84bd 2c51 143e 66c5 adbc
000000f0: 0769 d8bd cf0a 753d 2a04 0bbe 76a8 1ebe
00000100: 55bd 41be 85ec 563e 072e c93c feb4 913d
00000110: 7e86 223b 144b 813b 15e2 b53c 2c21 3fbe
00000120: 7655 b23c 7d67 473e 44c6 be3d 6426 16be
00000130: f8e1 313e 19d9 063e cbb9 b73d 5413 de3d
00000140: b40f 263e bf20 f63d e197 6dbd ccd1 bb3d
00000150: 41fb 0d3d ddc7 373d 8aee 18bd 7187 5a3d
00000160: cbc8 953d 03a6 b2bd e801 91bd 99b4 26be
00000170: 4eeb ec3c 6c06 09be 5cb1 9e3d b57d 1b3e
00000180: dde5 92bd b699 5a3e 77ee 173e b505 713c
00000190: 801a 583e b41d 353e ae46 653d 5e60 d83c
000001a0: 0a96 703d 5615 f8bd cf79 1c3e b887 283e
000001b0: aef7 aabb 97af 593c 892f 39be d0a8 653c
000001c0: 728c c5bd 69e9 1cbd 0d35 a63d 6adc 0d3e
000001d0: 9361 103e 3843 e53d 8e0b c43d b624 57be
000001e0: 45ab 493c 97c4 153e c159 2b3e 95b3 823d
000001f0: 274a 55be 35fc 3c3e 59ab 0ebe 2ad6 5bbe
00000200: c872 1fbc 0307 bd3c 8e4a 53be bba6 38bd
00000210: 5b9f 41be 3d75 2c3e 055d 973d 7fcc 363e
00000220: d1f3 f5bd 0794 3a3d 1fdf c6ba 449f 313e
00000230: a635 fcbd 2dbd d8bb c103 e43d 24d9 283e
00000240: dba2 29be ff7b a9bc 018f 3c3d 049c c6bd
00000250: 55c4 48be b2f1 c3bc 469a 03be 7f61 3c3e
00000260: c81d c6bb d08c f93d 1146 223d 8a5c dbbd
00000270: 54f3 083e c61e 613c 40f1 67bd 83bc 623d
00000280: 89e2 f33d 9767 27bd ff32 9f3d bdc3 28be
00000290: 3009 b23b fb28 f83c ecf3 393e e742 393e
000002a0: 960e c9bd 8df5 173e 6019 33bd 119c fc3d
000002b0: f2a2 1f3e d531 dabb 51dd e33d 3f58 213e
000002c0: 36ab 163e 1ef9 a23a a77f 43be 03d4 c1bd
000002d0: a0b0 43be 5347 0cbe 4624 9fbd 09fc d63d
000002e0: 1956 bf3c ba69 0cbb efc8 ce3d cd15 1e3e
000002f0: 50a5 1bbe 429c ee3d aead 58be 0829 0bbe
00000300: 7ab4 b3bd 170e cf3d 4d51 8e3b 35a5 1fbe
00000310: bcd3 e8bc c35f 3b3e c778 343e 8a92 073e
00000320: 5196 38be 36b6 5f3d f71a 04bc 6da1 9f3d
00000330: 1a94 ddbd 5c59 503d 80e1 0a3c 0b2e 14bd
00000340: 133e af3c 0825 c23d 7db0 9dbc 9f7a 3c3d
00000350: b01e 07be c7bc 8f3d 5117 89bc 91e8 293e
00000360: 08b5 f1bd 42ef 953d 608d 383e d3c0 143d
00000370: 9973 35be acbc 883c eceb 193e adf6 0b3e
00000380: f375 873c 8cf3 2d3d 112f 473e 5b76 dbbd
00000390: 5863 b3bc cc24 45be 9b9c 97bd fcfd 083d
000003a0: 49f0 e03d 930b 29bd e810 34be 0256 4abe
000003b0: a72a 163e 88cf d2bd 5b13 f43d d4f2 41be
000003c0: 0a3f 1e3e 0dfe 2abd b1d8 363e 1f56 55bd
000003d0: 5191 283e c286 a4bd dc48 b7bd 3f68 303d
000003e0: fd28 f03d 9f55 2f3e 6781 4ebd fb4f 303e
000003f0: cf50 e6bd 282b 16be a834 ab3d c7f9 553e
-0.16642082 -0.111587964 0.13338146 -0.0500314 0.077623226 -0.07356382 -0.13641138 -0.01095067
0.1937216 0.20065391 -0.12604557 -0.09693104 0.14161679 0.029937379 0.0068130665 0.20667148
0.08299622 0.19074385 -0.18165313 0.13794124 0.20559208 0.18843834 0.051906403 0.20390268
-0.061111536 0.022090485 -0.0022618163 -0.027899558 0.17999157 -0.096653834 -0.17549272 -0.12503022
-0.0250732 0.119643025 0.11172779 -0.17369036 -0.04963308 0.16589557 0.19227506 0.022802716
0.1741011 -0.1503179 -0.14083593 0.13720988 -0.13474475 -0.18880391 0.02563761 0.12035021
0.09558504 -0.15286781 -0.19803223 -0.16204111 -0.035298083 0.03489993 0.09796939 0.12212713
-0.07562715 -0.06457484 0.1448409 -0.021212291 -0.105669074 0.05982476 -0.13575807 -0.1549395
-0.1891988 0.20988663 0.02455808 0.071146 0.0024799402 0.0039457176 0.02220253 -0.18664998
0.021769267 0.19473071 0.0931516 -0.14663082 0.17371356 0.13168754 0.08970984 0.1084353
0.16216928 0.120179646 -0.05800617 0.09170875 0.034663443 0.04486834 -0.037336864 0.053351823
0.07313689 -0.087230705 -0.07080442 -0.1627983 0.028920796 -0.13381356 0.07748672 0.15184672
-0.07172749 0.21347699 0.14837061 0.014710833 0.21103859 0.17687112 0.05597561 0.026413139
0.05873684 -0.121134445 0.15280841 0.16458023 -0.005217514 0.013286493 -0.1808454 0.014017299
-0.096459284 -0.038308535 0.081155874 0.13853613 0.14099722 0.111944616 0.095725164 -0.21010098
0.0123089 0.14625774 0.16733457 0.06381909 -0.20829068 0.18455584 -0.13932551 -0.21468416
-0.009731956 0.023074633 -0.20633909 -0.04508088 -0.18908446 0.16841598 0.07390789 0.17851447
-0.12009395 0.045551326 -0.0015172696 0.17345911 -0.1231492 -0.0066143484 0.111335285 0.16489083
-0.1656603 -0.020689009 0.046034817 -0.09697726 -0.19606145 -0.02391896 -0.1285182 0.18396567
-0.0060460307 0.12185061 0.0396176 -0.1071101 0.13374072 0.013740247 -0.05662656 0.05535556
0.119084425 -0.040870275 0.077733986 -0.16480918 0.005433224 0.030292979 0.18159455 0.18091927
-0.09817235 0.14839764 -0.04372537 0.12334455 0.15589502 -0.0066587725 0.11126197 0.1575632
0.1471375 0.0012433862 -0.19091664 -0.09464266 -0.19110346 -0.13699083 -0.077705905 0.10497291
0.023356484 -0.0021425323 0.10096919 0.15438004 -0.1519978 0.116508976 -0.21160004 -0.13589871
-0.087746575 0.10110109 0.004343188 -0.15590365 -0.028421275 0.18298249 0.17624198 0.13239494
-0.18026091 0.05461713 -0.00806307 0.077944614 -0.10819264 0.05086647 0.008476615 -0.036176722
0.021391904 0.094797194 -0.019249195 0.046015378 -0.131953 0.07018428 -0.016734751 0.16592623
-0.11802107 0.073210254 0.1802268 0.036316704 -0.17719878 0.016691528 0.15031403 0.13668318
0.016535735 0.042468593 0.19451548 -0.10715934 -0.021897957 -0.19252318 -0.07402917 0.033445343
0.10983331 -0.041270804 -0.17584574 -0.19759372 0.14664708 -0.1029349 0.11917754 -0.18940288
0.15453735 -0.041746188 0.17856099 -0.052084085 0.16461684 -0.080335155 -0.08949444 0.043068167
0.11726568 0.17122506 -0.050416376 0.1721801 -0.11245882 -0.146649 0.08359653 0.20896064

decoder.conv.bias f4 [128]
00000000: b2e8 2ebe c67a 883d ab2b 0c3f 746e febd
00000010: d7aa acbe 5cad 093e 31e4 84be 7c75 803d
00000020: e0f1 1d3e 2353 d43e 2411 06bf 29ee 233f
00000030: e0ed f9be de1e c73d 2ccc 943e 5a45 0ebf
00000040: b678 743e a0bf 343f 0a71 9fbe 6680 8fbe
00000050: f723 30bf 65d4 76be 23d4 d53e b4ad 053e
00000060: 3647 253f 0627 cfbe d72d 1fbf 947e 60be
00000070: a5f8 8abe 2fa1 903e cd4e 1c3f b257 91bc
00000080: 43a6 46be b0da 873e d36c e13d 9064 043f
00000090: 45da e9be 25a8 1e3f 4cf7 703e dd90 8b3e
000000a0: 3976 c43d 3e96 e73e 725a 0dbe ce65 f5be
000000b0: 676b 2bbd 0f4a 053f aa53 86be 7dec f3bd
000000c0: 6b01 263e 38c4 113f cc36 3fbe 1c16 593e
000000d0: 7753 d63e d7ec f6bb 1c83 f2be 3898 32bf
000000e0: c102 0fbe 1b2c 663c 8300 ec3e 240b 85be
000000f0: 6043 0fbf f8a9 98be a2a1 f53e 09cc 6fbe
00000100: 4228 853e 7004 013f 86f5 14bf 2a43 1c3f
00000110: 9954 2bbf d322 173f 3d67 ffbd f011 b7be
00000120: b6ab 13bf c979 e7be 6dd5 d93e 7e4b e13e
00000130: 3b0e c53d a200 a73d 3338 9cbd afdc 213f
00000140: dfcd 0fbf 48ee 8c3e b7ec c8be 78ef 38be
00000150: 9697 b13e 6750 ecbe 2504 f73e d523 7abe
00000160: 1859 e4be f2f7 0a3f 3f8b 0dbe fa16 7a3e
00000170: 2c80 fa3e 8504 8e3c 1e50 14bf 2436 093e
00000180: b77c a3be 5b69 213f f693 08bf 65cb 79bd
00000190: d09f e03d 9fc1 253f a311 f53e e47a d33e
000001a0: cc06 19bf 4be1 c9be 8cce a33e 57ac a93e
000001b0: 4b81 fbbc 509c 2b3f 0866 38be 1369 b0bd
000001c0: b799 143f c38a 2f3f 7562 8d3e 70c3 febd
000001d0: 417e 203e 287c 1dbf 6fc7 043c 6dd5 893e
000001e0: 3401 653e 57e4 f73e 4f6e 0bbf 0b57 1d3f
000001f0: b34e f7be e670 353d 94ba efbe b9ca 79be
-0.17080954 0.06664042 0.5475413 -0.12423411 -0.3372409 0.13445038 -0.25955346 0.06272408
0.15424299 0.41469678 -0.52369905 0.6403528 -0.48814297 0.09722684 0.2906202 -0.5557457
0.23874173 0.70604897 -0.3114093 -0.28027648 -0.6880488 -0.2410446 0.4176341 0.13054544
0.64561784 -0.4045946 -0.6217932 -0.21923286 -0.27142826 0.28247973 0.6105774 -0.017742012
-0.19399361 0.26534033 0.11007085 0.51715946 -0.4567434 0.6197532 0.23531836 0.2725896
0.09592862 0.45231813 -0.13804033 -0.47929233 -0.041850474 0.5206613 -0.26235706 -0.11910341
0.16211478 0.5694003 -0.18673247 0.2119984 0.41860554 -0.0075355577 -0.47365654 -0.6976352
-0.13965894 0.0140486015 0.4609414 -0.25985062 -0.5596218 -0.29817176 0.4797488 -0.23417677
0.26007277 0.50397396 -0.5818714 0.61039984 -0.6692596 0.5903751 -0.12470863 -0.35755873
-0.57683885 -0.45210102 0.42545643 0.44002908 0.09621855 0.081544176 -0.07627907 0.6322736
-0.5617351 0.27525544 -0.392431 -0.180601 0.34685963 -0.46155092 0.4824535 -0.24427731
-0.44599223 0.54284585 -0.1382265 0.24422827 0.48925912 0.01733614 -0.5793475 0.1339956
-0.31931087 0.63051385 -0.5335077 -0.060984988 0.10967982 0.6474857 0.47865018 0.41304696
-0.59775996 -0.39429697 0.3199352 0.33139297 -0.0307013 0.6703539 -0.18007672 -0.08613791
0.5804705 0.6857111 0.2761418 -0.124396205 0.15673162 -0.6151757 0.008104189 0.26920643
0.2236374 0.48416397 -0.5446519 0.6146094 -0.4830223 0.04429712 -0.46822035 -0.24393739

pointer.v f4 [1, 1, 128]
00000000: 83e5 f5bd c9ee 0c3e d331 aebd 0273 d5bd
00000010: c123 11be 6b17 0c3e 6700 843c 0428 853d
00000020: 4e3c aa3d 44b7 863d ecf6 503d 3e80 0d3d
00000030: 7cdb 0a3d a125 17be 0d57 973d c105 9ebd
00000040: 113c adbd d525 2d3c 4558 f93d 23b8 7abd
00000050: ea3c 66bd e4ee ccbb 265c 7c3c e317 67bc
00000060: e64b 8ebd fffd 06bd 9fbd a5bd 6fb9 ec3d
00000070: 7b60 ee3d b18a c63d 6433 82bd fc5d f3bd
00000080: 853b 4abd 0621 983c ba02 d7bd a748 a43c
00000090: 1743 eb3d d7ab ddbd bfd2 d53d fccc c639
000000a0: 429f ef3c 1cbf d23c 5d96 e33c 2259 a13c
000000b0: 38de 363d 5abd 94bd 242e 923d d2cd 513d
000000c0: 674c c33b 8016 c7bd fe13 03be d0ff 17be
000000d0: 11da debd e18e 09bc a089 bdbd 738b 0abe
000000e0: 78fa cfbc 0c29 8bba 42c8 0f3e d223 b83d
000000f0: c93b f3bd bfb3 73bd 5e61 d63d e062 2c3c
00000100: 398c 63bd 2329 2abb c3a6 5b3d c5d1 dbbd
00000110: 84dc 0ebe 6e33 f63c 45ed 9d3d ff59 503d
00000120: e3c6 953d 9a6a 16bd a60b 0ebe 9225 9dba
00000130: d6ac 6e3d 4a57 9dbd a6ee 19be 9f1e 43bc
00000140: dcef 063c 31ac c8bd 82eb e3bd 6681 803d
00000150: 3dfc 12be b4f3 d43d bcb3 52bc cb4d f7bc
00000160: f837 b53d 897c c83d 50c4 c4bd 45f3 30bd
00000170: 4b3c 80bd 803b bbbd b6ea 033d 0223 01be
00000180: 43b9 f33d 45d4 55bd b0ca cebd 44ae 41ba
00000190: d15b abbd 46fa 2fbb 5de3 af3d 4472 5bbd
000001a0: 4949 1bbe e0be 14be 3a15 4f3d cee8 74ba
000001b0: 7c59 f93d 62a3 a63d b626 c83d bd1c e03d
000001c0: 6156 973d 632e 973c d2e4 423d a972 193e
000001d0: e479 babd 58ef cbbd b9a3 04be 18c6 6bbd
000001e0: 61e7 c7bd 402d 13be cbf6 67bc 226d c03a
000001f0: d810 20bd f84c a93d 2e7d b1bd 1ede debd
-0.120066665 0.13762964 -0.08505597 -0.104223266 -0.14173795 0.13680808 0.016113473 0.06501773
0.083122835 0.06577924 0.051016733 0.03454613 0.033900723 -0.14760448 0.073896505 -0.07715941
-0.084587224 0.010568102 0.12175039 -0.061210763 -0.056210436 -0.006254064 0.015402829 -0.014104816
-0.0694807 -0.032957073 -0.08092808 0.11558806 0.11639496 0.09694422 -0.06357458 -0.118831605
-0.04937317 0.018570434 -0.10498567 0.020054175 0.11487406 -0.108237915 0.10440587 0.00037918228
0.029250745 0.025725894 0.02778166 0.019695822 0.044645518 -0.072626784 0.07137707 0.051221676
0.0059600356 -0.097210884 -0.12800595 -0.14843678 -0.108814366 -0.008395881 -0.092547655 -0.13529758
-0.025387987 -0.0010617091 0.14041236 0.08991207 -0.118766375 -0.05949759 0.1046779 0.0105216205
-0.05555365 -0.002596446 0.053625833 -0.1073337 -0.13951308 0.03005382 0.07711271 0.050867077
0.07313325 -0.036722757 -0.13871631 -0.0011989346 0.058270298 -0.07682665 -0.15032443 -0.011909156
0.008235898 -0.09798468 -0.11128904 0.06274681 -0.14354034 0.10398045 -0.012860235 -0.030188462
0.08848566 0.09789378 -0.09607756 -0.04320075 -0.062615 -0.09142208 0.03220626 -0.1261101
0.1190057 -0.05220439 -0.10097253 -0.00073883333 -0.08367122 -0.0026852055 0.08588288 -0.05357577
-0.15164675 -0.14525938 0.050557353 -0.0009342552 0.12175271 0.081366315 0.097730085 0.109429814
0.07389522 0.018454736 0.0475815 0.14985146 -0.0910528 -0.099577606 -0.1295308 -0.057561964
-0.09760929 -0.1437273 -0.014157961 0.0014680962 -0.039078563 0.08266634 -0.08666454 -0.10882209

pointer.W f4 [1, 128, 256]
00000000: 8270 86ba c0c6 22bc 1d54 16bc 1bbc 03bc
00000010: bf81 233b 2c85 5c3b 0d22 cfba a990 ba39
00000020: 6724 a73b 8cb7 4ebc 5b52 54bc 9afd 323c
00000030: 5fce 493c 1262 89bb eae0 4d3a e375 cf3b
00000040: 4b03 ecbb 0a09 26bc e840 10bc 2de0 fabb
00000050: a7e9 4f3c 712d 1539 6425 b83a df3c 2e3c
00000060: b8f9 6b3c efea 193c 6657 01b8 c7ff 30bc
00000070: 645c 64bc a7cc aa3a a42b 2b3c c569 01bc
00000080: 7bef 2fbc 190e fabb d9c5 dcbb 0683 373c
00000090: 7416 933b 3714 283c 37eb 083c 3bf2 323c
000000a0: e9ea 023b 57a9 283a a7ac 2ebc 3279 cabb
000000b0: 0e04 44bb 5c3a 173c f0ca 0fbb 27d1 f73b
000000c0: 26e1 cfbb fed9 f1bb d11e 263c 4630 de3b
000000d0: 2fd8 70bb 1eb2 eebb fdb0 143c c111 5fbc
000000e0: 0e02 8b3b b4e0 bd3b 8580 27bb 6b6d 1bbc
000000f0: 3adb 683c 4cf1 373c d36a 683b fc0c 753b
00000100: dc6a 043c 2102 8cbb 7b1e 0d3c def0 d83a
00000110: 3e5b 30bc ebdb 1fbc 6b26 55bc f99f 14bc
00000120: ef1e a1ba 5484 513c 96cb 803b 4487 14b9
00000130: 7be7 013a 1e03 4d3b a148 e6bb 5f5f 31bc
00000140: fffb 893b a291 14bb 51c0 26bc 8e27 1abc
00000150: 9c6a b13b 60cd 8dbb b504 873b b166 203b
00000160: d1c6 b2ba 7521 483c 016e 21bb dd81 07bc
00000170: d9d4 743b efce c9bb 4612 073c 1f36 8b3a
00000180: fd8c aa3b 24b0 0ebc fe74 2a3c f93a a1ba
00000190: 5d93 d9b9 791c 97bb bbd7 623b f189 edbb
000001a0: c1ce 843a 0f17 33bc 5bf1 66bc c2aa 37bc
000001b0: e48c 293c 9404 39bc d129 363c 604a 853b
000001c0: b817 f33b b544 2fbc 7e36 283c bde1 09bc
000001d0: 3384 613c 39a0 f93a 1b35 0a3c 1ac1 0d3c
000001e0: 7e6d 5b3c 3dd7 3abc 6048 1cbc ef98 fa3b
000001f0: 8c6c 20bc dc26 ae3a 6fa7 28bb 968f 9e3b
00000200: 88fd eebb 61ad f33b 2689 063c a2ad 9abb
00000210: 2728 1a3c 5b72 14bc bb3f bb3a d476 253c
00000220: 6a39 65bc 5984 4abc 3607 24b8 5a1d 313b
00000230: 11c8 49bc 4d0d 9a3b b7f7 013c 399a d5bb
00000240: b3ac 223b 04e3 8bbb 37d7 593b 7d3f f5bb
00000250: bf42 713c 5c31 253c d371 603c 802d a4bb
00000260: 2a04 70bc b37a acbb 83a9 49bc 9a57 35bc
00000270: 59ef 203a 6b4e be3b 7c5e 6cbc 7e9c 443b
00000280: 5e31 79bc da8f 87bc 3342 e23a 3907 42bc
00000290: c779 0ebc e125 dbbb 489b 633b 768c b23b
000002a0: 56f7 45bb 0461 823c 2788 293c 24f3 d0ba
000002b0: e124 f4ba 32df ccbb 1235 163c a9ae 66bc
000002c0: 9539 92bb ac6e cc3b 6222 6bbb 1ac7 763a
000002d0: afde d83b 1853 2d3b 8173 29bc c6e8 c8bb
000002e0: e466 173c 978d 1d3c a158 85bc 3738 5ebc
000002f0: 36b4 ce39 463d 6f3b 8a17 dd3a 5f21 f638
00000300: 1f4b 9b3b 3a79 a13b 0a07 77bc 13bf d53a
00000310: 3bd2 193c 0d10 323b 71ed 603c da47 133c
00000320: a9f1 de3b 7c84 9c3b 7488 90bb d37e 2bbc
00000330: b883 7dbb 2c88 8239 a496 0bbc 3c29 693c
00000340: c65f 313c fcc1 23bc ce01 8f3b a102 d93b
00000350: 1a26 f8b9 6729 873b bb36 00bc 4492 903b
00000360: c2c7 5e3b 7818 14bc f1c9 dcbb ae9c f2bb
00000370: a345 c33a 6db8 193c 5c99 48bc 74a8 3b3c
00000380: 8dff b53b 3e25 09ba fdc3 203c 0c39 9e38
00000390: 0494 8eba 2fa5 ccbb 9368 f2bb fe40 6f3c
000003a0: abe4 1ebc 4946 983b 16c5 11bc ca9e 3fbc
000003b0: 60d7 bc3a c040 813c 7401 83bc 4820 6b3c
000003c0: f363 3abc f793 5dbc f5c3 65bc bb20 3dbc
000003d0: d7fd bf3b 0c08 6abc f2b6 7e3c 59b0 24bc
000003e0: 287a 20bb 0ae4 003c 75ba a53b d7ad 0a3c
000003f0: 066e 38bc 6a88 8dbc e627 4e3b 564f 64bc
-0.0010256919 -0.009935081 -0.009175328 -0.008040453 0.002494916 0.0033648713 -0.0015802995 0.00035584465
0.005100775 -0.012617003 -0.012959088 0.010924721 0.012317269 -0.004192599 0.0007853644 0.006331192
-0.007202541 -0.010133991 -0.008804537 -0.0076561184 0.012689984 0.00014226676 0.0014049229 0.01063463
0.014402799 0.009394391 -3.0837393e-05 -0.01080317 -0.013938043 0.0013030962 0.010447416 -0.007898753
-0.010738249 -0.007631075 -0.0067374525 0.011200672 0.0044887606 0.010258726 0.008356861 0.01092201
0.0019976443 0.0006433925 -0.010661281 -0.0061789984 -0.0029909643 0.009230223 -0.0021941029 0.0075627747
-0.0063439785 -0.007380723 0.010139183 0.006780657 -0.003674995 -0.007284417 0.0090754 -0.013615073
0.0042421883 0.005794609 -0.0025558781 -0.0094865365 0.014212424 0.011226963 0.0035464063 0.0037391772
0.008082118 -0.0042727147 0.008613224 0.0016551276 -0.010763941 -0.009757022 -0.013009648 -0.009071344
-0.0012292544 0.012787897 0.0039305193 -0.0001416477 0.0004955453 0.0031282376 -0.007027701 -0.010825961
0.0042109485 -0.0022669812 -0.010177688 -0.009408845 0.00541432 -0.004327461 0.004120434 0.0024475271
-0.0013639574 0.012215008 -0.0024632218 -0.008270708 0.0037358312 -0.0061587016 0.008244103 0.0010620988
0.0052047954 -0.008708987 0.01040387 -0.00123009 -0.0004149926 -0.0046115485 0.0034613449 -0.00724911
0.0010132418 -0.010930791 -0.01409563 -0.011210145 0.010348532 -0.011292595 0.011118368 0.004067704
0.007418599 -0.010697533 0.010266898 -0.008415637 0.013764429 0.0019044942 0.008435513 0.008651996
0.013392804 -0.011403856 -0.00953874 0.0076476256 -0.009791505 0.0013286727 -0.0025734564 0.004838894
-0.007293407 0.00743644 0.00821141 -0.0047204057 0.009408987 -0.009060468 0.0014285961 0.010099132
-0.013990739 -0.012360656 -3.9107363e-05 0.0027025552 -0.012315766 0.0047012926 0.007932595 -0.006518629
0.0024822175 -0.0042690057 0.003323985 -0.007484375 0.014725386 0.010082569 0.013699013 -0.005010307
-0.01464943 -0.0052636503 -0.012308481 -0.011068249 0.0006139181 0.005807688 -0.014426824 0.0030000503
-0.015209524 -0.016548086 0.001726216 -0.011842542 -0.008696026 -0.006687865 0.0034730006 0.005448873
-0.0030207238 0.015915401 0.010347403 -0.0015941602 -0.0018626713 -0.006252193 0.009167926 -0.014079728
-0.0044624307 0.006238779 -0.0035878648 0.0009413824 0.006618343 0.0026447233 -0.01034248 -0.0061312644
0.00924084 0.009616277 -0.016277613 -0.013563207 0.0003942565 0.0036505028 0.0016867977 0.0001173641
0.0047391797 0.0049277814 -0.015077362 0.0016307555 0.009388502 0.0027170212 0.013728485 0.008989299
0.0068037105 0.0047765356 -0.0044107977 -0.010467249 -0.0038683247 0.00024896988 -0.008519802 0.014231022
0.010826057 -0.00999498 0.004364229 0.006622628 -0.00047330634 0.0041248086 -0.007825549 0.0044119675
0.0033993577 -0.009039037 -0.0067379405 -0.0074039316 0.0014898073 0.009382349 -0.012243595 0.011453737
0.0055541457 -0.0005231685 0.009812352 7.544653e-05 -0.0010877852 -0.0062452774 -0.00739772 0.014602898
-0.009698073 0.0046470505 -0.008897087 -0.011695573 0.0014407448 0.015777946 -0.015991904 0.014350958
-0.011376369 -0.013524047 -0.014023771 -0.011543448 0.0058591175 -0.014284145 0.015546547 -0.01005181
-0.0024486873 0.007866869 0.005057628 0.008464298 -0.0112567 -0.017276961 0.0031456887 -0.013934931

pointer.gru.weight_ih_l0 f4 [384, 128]
00000000: d603 5abd 2e95 b8bc 8703 32bd 2062 65bd
00000010: df65 35bd fd17 a1bd d11e f73c f54a ca3d
00000020: caf3 b2bd 8cf4 c6bd e009 ce3d af4a 0f3d
00000030: 67b1 a5bd 24bf 6cbd b716 873d ac3a bfbd
00000040: c618 9abc e731 ce3d 5601 ad3d 0d59 90bd
00000050: 2e7e 15bd 96ba 923b a710 b3bd ece3 db3c
00000060: 4fd9 1fbd 4237 b63d dbee 36bc b3b2 d73c
00000070: 8e84 08bd 94cc 96bd c0b1 003d e673 a7bd
00000080: 9283 4a3d 12bf 623d 5d5b adbd c1ca 86bd
00000090: 99f4 cf3d 2c74 c0bd 92dc 723d b6eb 5e3d
000000a0: f8d3 f8bc d8dc cebc 8fb5 f43c 2bc3 4a3c
000000b0: 45e4 cf3d 2736 c63d 17e1 333d 3f38 b7bd
000000c0: e091 42bc 031c d0bd ce69 b83d 7f3b ac3d
000000d0: 94db 4f3c 4fe2 4ebd 5ab4 60bd 4a9a b13d
000000e0: 4b7b b03d 9037 c13d a019 97bd 51b5 a2bd
000000f0: 754a f7ba 6b2d 57bd 9e9b cd3a 9dec 97bc
00000100: 03cb 37bd 8b6c 59bd 5e57 06bd b9c2 bbbc
00000110: ff32 eb3c 5fab 25bc e8c5 91bd 48b9 ba38
00000120: f2d1 d23c 9cb0 2ebd 2ed8 dabd 3b25 7b3d
00000130: f3f3 bb3d 7448 07bd 8684 483b 5807 d63d
00000140: 41cb acbd 56cb d63d 60ef 863c ffec 9abd
00000150: 1362 a53d 4280 11bd 6763 803c 8cbe ebbc
00000160: 0bf8 e23c f0f7 c1bd e137 493c 1aa6 96bc
00000170: 4c9a 34bd f10f 2dbd 9dc0 65bd c065 56bc
00000180: aada d7bd 94e3 86bc 893e abbc e042 8a3d
00000190: 4d5a 9bbd 8d7e f5bc a585 c0bd 85ee 3dbd
000001a0: 81d9 2b3c 2be2 6b3d bb2c c23d 9930 bcbb
000001b0: 67e2 c73d dae3 a33a 74e8 cebd 5a19 f8bc
000001c0: ed9e bc3d df50 d8bd 53a0 aabd c0a9 c6bc
000001d0: 20de 41bd 5937 083c 350f ae3d 9841 9ebc
000001e0: 01c5 ce3c 251c 8bbd d01c 9f3d ebd8 c03d
000001f0: 95b8 b83c 5f40 bdbc fad5 d6bc 6700 48bd
00000200: 2a06 11bd 5835 313d 8de7 813c 31bf 4bbd
00000210: cd56 9c3c 8242 c43c e021 96bd fab8 d2bd
00000220: 1171 51bd 4def 8c3d ccd9 0d3d 4f06 d23d
00000230: 2c3e 773d eccb 4fbd b5c4 a83d a811 16bd
00000240: e5bc da3d 6fa3 bc3d 05e8 26bd e3d2 78bc
00000250: 7a8e 87bd 27af 82bd d4e3 b03d 2381 8d3d
00000260: f6ba f13c 5415 bd3c 3057 233d db4b 823d
00000270: 2401 38bd c239 e6bc 9d9f 37bd c740 15bd
00000280: ba3e babd 2cbf b5bd b05e d9bd b7f9 a3bd
00000290: 869b 7e3b c459 07bd 3966 afbd 0c18 d0bd
000002a0: 8503 813d 04a7 b03c 5bd7 6abd ce22 69bd
000002b0: ce60 fb3c 35d1 afbd 1210 66bd dd8e 953d
000002c0: 2eb5 623d d6d9 9c3d 37d5 68bd c72f 4e3b
000002d0: 80a5 89bd 10df 2e3c 052a 8fbc fc3c abbd
000002e0: ac0d 673d b0cc 0dbd df9b 35bd a0ac e1bc
000002f0: 6d15 c7bd 1006 e43c 8445 b53c 8c96 5dbd
00000300: 9f26 82bd 9bbf c7bd 8332 bc3d 8c25 1ebc
00000310: 9a91 13bd fd71 94bd 7ac8 b1bd ff86 3c3d
00000320: e768 1a3d acc6 d33d 33f7 a0bd 4bf2 a53d
00000330: 5e7e 9abd 1c9f dabd 03ab 593d 7e39 1a3c
00000340: aecf 053d a68e 47bd 5d4e d03b 8411 94bc
00000350: 36e4 d13d 3cbe 68bd 9a76 e2bc fceb 503a
00000360: 7e97 613d a7f2 c43c 2587 c33b ea09 6ebd
00000370: 2206 d23d cfba 14bd 8436 9fbc e44c a1bd
00000380: b126 143d dad3 1dbd 982b c53d 5cb1 08bd
00000390: 37b0 c43c 1535 bebc f53b 83bd 9be2 8ebd
000003a0: 1c31 9fbd 69df 25bd ba62 a9bc d441 563d
000003b0: 2159 343d 3e63 693b 2da6 dfbc 61c0 683d
000003c0: d21f bd3d 66b5 8ebd 7489 b0bd cdcc 663b
000003d0: 710e 08bd f85c babd d262 a0bb 3c80 a0bd
000003e0: 07cd 9dbd 3544 3cbd 8ea7 31bd 0f58 04bd
000003f0: 033a cf3d 7c93 98bd e7c1 bdbd ddf9 30bd
-0.053226314 -0.022532072 -0.043460395 -0.056001782 -0.044286605 -0.078659035 0.030166062 0.09877578
-0.08737905 -0.09714612 0.10060477 0.034983333 -0.080904774 -0.057799473 0.065961294 -0.09337363
-0.018810641 0.10068112 0.084475204 -0.07048235 -0.036497287 0.004477809 -0.087434106 0.02684208
-0.0390256 0.08897258 -0.011165346 0.026330328 -0.03332954 -0.07363239 0.031419516 -0.08176403
0.04944188 0.055358 -0.08464692 -0.06581641 0.10154075 -0.09397158 0.059292383 0.05442401
-0.030374512 -0.02525179 0.02987173 0.012375633 0.10150961 0.096782975 0.043915834 -0.08946275
-0.0118756 -0.10161593 0.09004556 0.084097855 0.012686629 -0.050508793 -0.054859497 0.086720064
0.08617266 0.09434426 -0.073779345 -0.079447396 -0.0018866794 -0.05253355 0.0015686636 -0.018545443
-0.04487134 -0.05308203 -0.032798164 -0.02292 0.02871084 -0.010111659 -0.07117826 8.9036825e-05
0.025734875 -0.042648897 -0.10685764 0.061314803 0.09177389 -0.03302808 0.0030596568 0.104506195
-0.08437205 0.10488002 0.016471565 -0.07564735 0.08075347 -0.035522707 0.015672399 -0.028777383
0.027706167 -0.094711185 0.012281389 -0.01838975 -0.04409246 -0.04225153 -0.056091893 -0.0130857825
-0.10539754 -0.01646594 -0.020903843 0.06751037 -0.07585583 -0.02996757 -0.09400491 -0.046370048
0.010488869 0.057588737 0.09481188 -0.005743098 0.0975998 0.0012503818 -0.10102931 -0.030285526
0.0921 -0.105623 -0.08331361 -0.024250865 -0.047330976 0.008313977 0.08498994 -0.019318387
0.025240423 -0.067924775 0.077691674 0.09416374 0.022548953 -0.023101984 -0.026225079 -0.04882851
-0.03540627 0.043263763 0.015857482 -0.04974288 0.019084359 0.023957495 -0.0733068 -0.10289188
-0.05113322 0.068815805 0.034631535 0.102551095 0.060362026 -0.050731584 0.08240644 -0.036637932
0.1068056 0.0921086 -0.040748615 -0.015186998 -0.06618972 -0.06381064 0.08637205 0.069093965
0.029508095 0.02308146 0.03987807 0.063621245 -0.044922963 -0.028103713 -0.044829953 -0.03643873
-0.090939954 -0.08874354 -0.10613763 -0.08006614 0.0038850023 -0.03304459 -0.08564419 -0.101608366
0.062994994 0.021564014 -0.057334285 -0.056917958 0.030685809 -0.08584825 -0.05616767 0.0730264
0.055348568 0.076587364 -0.056843963 0.0031461583 -0.0672102 0.010673299 -0.017476091 -0.08361241
0.056409523 -0.034619033 -0.044338103 -0.027548134 -0.097208835 0.027834922 0.022127874 -0.05409865
-0.06355023 -0.09753343 0.09189322 -0.009652507 -0.03602753 -0.07248304 -0.08680816 0.04602718
0.0376977 0.10340628 -0.078596495 0.08102854 -0.07543634 -0.10674879 0.053141605 0.009413121
0.032668762 -0.048720025 0.006356998 -0.018074758 0.10248606 -0.056822047 -0.027644444 0.0007969735
0.055076115 0.024041487 0.005967038 -0.058114924 0.10255076 -0.036310967 -0.019435175 -0.07875994
0.03616971 -0.038532116 0.096274555 -0.033372268 0.024009807 -0.02321867 -0.0640792 -0.06976815
-0.07773039 -0.040496264 -0.02067696 0.052308872 0.044030312 0.0035612131 -0.027300918 0.05682409
0.09234585 -0.06968193 -0.08619967 0.0035217286 -0.033216897 -0.09099764 -0.004894593 -0.07836959
-0.077051215 -0.045963485 -0.043372683 -0.03231054 0.10118487 -0.074500054 -0.092654996 -0.04320704

pointer.gru.weight_hh_l0 f4 [384, 128]
00000000: ec53 53bd b4a9 53bd 015e b6bd ae0a a93c
00000010: 2c95 40bd c0af 78bd 500d 93bd baa2 bfbd
00000020: 46f2 783d b04e 57bd ba43 d13d 8899 193c
00000030: 0a84 e9bc 8974 8a3d 0e3b da3c 2044 e7bc
00000040: 6d49 32bd 2138 c83d a71c da3a 2541 cabd
00000050: 8158 8bbd 5f90 87bd eeaf be3d b2d9 a93c
00000060: 60f5 16bd 235a b0bd b828 353d 0100 493d
00000070: eaeb 37bb 7ded 03bd 512f 36bd a1e4 1ebc
00000080: 73be dabd 77c7 a13c 4ea4 b43d 7d2a 593d
00000090: 79e2 a03c e508 afbc 2801 8d3d 974a 85bb
000000a0: 2287 e1bc 2e06 3f3d f718 c3bd 8a56 1dbb
000000b0: 0877 7d3d c0fc 41bc 585a 2fbc c4fb a8bd
000000c0: 9d5f dbbc 87ec cdbd 4d47 7b3b 013c afbd
000000d0: a17a d23c 1373 3abd 2ad3 c8bb 3ca8 90bc
000000e0: 7b0a 15bd 4b94 053d 890f 943d 428a c5bd
000000f0: 9ab9 143c 6ff1 803d 25cf dc3d 66c0 b93d
00000100: 349f 093d 4344 0b3d 6995 16bd 5c78 c43d
00000110: 19ac 9cbd 1081 aebd 1be2 cd3d dd84 a13d
00000120: c57a 92bd 3908 97bd a29f c63c 9b6a 01bd
00000130: 2097 ed3c d05e 25bd 8f88 493d efae 24bd
00000140: 9e5a a2bb 24da c8bd 360c d8bc a5d1 35bd
00000150: b2aa 2d3d 34e9 cbbd 33b5 3c3c c528 e6bc
00000160: 9b76 a83d 8462 cebc 1770 86bd 5dcf fa3c
00000170: e6c9 c13d 8813 b7bd ccb8 8b3c db86 70bb
00000180: 6cb5 5bbd 014e 4f3d 9b80 b3bc c168 983d
00000190: 2f0d be3d 3de1 d03c 7b36 62bd 0f10 953d
000001a0: 63c8 c0bd b544 c0bd 8c8d f1bb 3449 303d
000001b0: 0923 c93d c03b 933c a7e8 c53c a431 13bd
000001c0: bbb2 b63d 3481 493d 1093 ae3d 5a12 76bd
000001d0: 76dd 353d f50d 7fbd 22e1 823d 8870 2e3d
000001e0: 13d0 763d 8d22 b53d cb16 0f3d 2779 96bd
000001f0: 31ec 60bd 5b54 593b 1ecd 1cbd e47a 12bd
00000200: 0821 bcbd df78 c7bd f3b5 70bc 633e 9c3d
00000210: 7121 913c 867d 95bd d54d 7c3d e5d6 a3bb
00000220: d83d c2bc 6b30 a83d 965c 8fbd ac5a dbbd
00000230: 4508 273d 001c d03d dd50 42bb 5834 b63d
00000240: 5b75 c4bd 3162 9ebd 0225 a83c 7ec1 97bd
00000250: 4766 bfbc e17a adbd bc71 5ebd d8ed 473d
00000260: 1c95 32bb 733e cc3d 7769 9abd 17c5 4d3c
00000270: 152c 6d3d ce44 37bb ded9 babc 8745 503d
00000280: c97d babd 9c7d babd af36 ad3d dbe6 8d3d
00000290: da06 aebd abfc b2bd 90d8 1c3c 3aed 663b
000002a0: cd37 d63d 6547 ca3d b0ab 1d3c 8cb8 95bd
000002b0: 52f2 b4bd 172f 9ebc b12a 8abd f94e 73bd
000002c0: b788 1e3d 7de3 2d3d 98fc 753d e84d 28bd
000002d0: de7b cbbd 4e96 19ba 0f31 fc3b fa28 843d
000002e0: bc71 1d3d b68b 7d3b f75b e0b9 ceb8 ac3b
000002f0: e482 9f3d f53f c63d 0239 233d 1c37 1fbd
00000300: 189f 10bd 8b09 d9bc 6d7c afbc 21c5 a0bd
00000310: 90b3 713d 6905 dabd ba2a 233d 2f1c 54bd
00000320: a581 3e3c a752 c03d 3e17 9b3d a9d7 33bc
00000330: a3d9 8d3c 1a6a 92bd 42ca 7e3d 7b68 783d
00000340: 8dbf c3bd 716b 313c 61cb 483d 78e8 4dbd
00000350: fdd4 c53d d40d b9bd a741 4b3d 17cb 08bd
00000360: 2530 113d 6442 c6bd 851f a7bb 574b d5bc
00000370: d454 50bd 9e6e 87bc 8238 a5bd 3f2b 113d
00000380: 67c5 a1bd 7fc8 603d 28f2 c43c 0003 79bd
00000390: d37d af3c ef7a a23d ce60 cb3d 2bdc 113d
000003a0: 3fbf bcbd 5e46 adbd bb2b 663d a2fb 01bd
000003b0: 7315 24bc 83b3 983c 0537 9abc e059 9abb
000003c0: 675b 0c3d 56d5 fabc 54d3 723c 147d 81bc
000003d0: 4291 2a3d b84d 81bd 4734 3f3d a8c8 54bd
000003e0: 6b76 953d b0b9 55bc f285 3a3c fea3 8fbd
000003f0: d925 d2bd b849 09bc 1c7a cd3c 08bc 103d
-0.051593706 -0.051675513 -0.089046486 0.020634975 -0.04701726 -0.060714483 -0.071802735 -0.093572095
0.060777925 -0.052565277 0.10217996 0.009374984 -0.028505344 0.067605086 0.026639488 -0.028230727
-0.043527056 0.09776331 0.0016640619 -0.098757066 -0.0680399 -0.066193335 0.093109 0.020733688
-0.0368551 -0.08610942 0.044228286 0.04907227 -0.00280642 -0.03220891 -0.04447872 -0.009698064
-0.106808566 0.019748433 0.08820401 0.053019036 0.01963924 -0.021366546 0.06884986 -0.0040677297
-0.027530257 0.046636753 -0.09526246 -0.002400788 0.061881095 -0.011840045 -0.010702692 -0.082511455
-0.02677899 -0.1005488 0.003834206 -0.08556367 0.02569324 -0.0455199 -0.0061286883 -0.017658345
-0.036386948 0.032612126 0.072295256 -0.09645511 0.009077454 0.0629605 0.10781697 0.090699
0.033599094 0.034000646 -0.036763582 0.09593269 -0.076500125 -0.085207105 0.10052892 0.0788667
-0.07152323 -0.07374615 0.02424604 -0.031595808 0.029002726 -0.040373623 0.049202498 -0.040205892
-0.00495465 -0.09807232 -0.02637301 -0.044389386 0.042399116 -0.09956589 0.011517811 -0.028095612
0.08225747 -0.02519346 -0.06564348 0.030616457 0.09462337 -0.08939272 0.017055891 -0.0036701474
-0.053639814 0.0506115 -0.02191191 0.07441855 0.09279858 0.025498027 -0.055227738 0.072784536
-0.09413221 -0.09388105 -0.00737161 0.043038562 0.098211356 0.017972827 0.024158789 -0.035936013
0.08920809 0.049195483 0.08524144 -0.060076095 0.044400655 -0.06226917 0.06390597 0.042587787
0.06025703 0.08844481 0.034933846 -0.07347327 -0.05491275 0.0033161852 -0.038281552 -0.03576173
-0.09185988 -0.09739851 -0.014691818 0.07629087 0.017716141 -0.07299332 0.061597664 -0.0049999827
-0.02371113 0.0821236 -0.07000081 -0.10710654 0.04077937 0.101615906 -0.002965025 0.088967025
-0.09592696 -0.07733572 0.02052546 -0.074099526 -0.0233642 -0.08470703 -0.054307684 0.04881081
-0.002724952 0.09972849 -0.07539647 0.012559197 0.057903368 -0.0027964595 -0.022808965 0.050847556
-0.09106023 -0.09105989 0.08457696 0.06928798 -0.084974006 -0.08739599 0.009573117 0.0035236613
0.10459862 0.09876899 0.009623453 -0.0731059 -0.088352814 -0.019309564 -0.06746424 -0.059401486
0.0387046 0.042453278 0.060055345 -0.041089922 -0.09935735 -0.0005858884 0.007696278 0.06453128
0.038438544 0.003868801 -0.00042793129 0.005271054 0.07788637 0.096801676 0.03984929 -0.038870916
-0.035307974 -0.026493808 -0.021421636 -0.07850099 0.059009135 -0.10645563 0.03983567 -0.05178469
0.011627589 0.09390765 0.075727925 -0.01097671 0.017315691 -0.071491435 0.062204607 0.060646515
-0.0955802 0.010828839 0.049022082 -0.050270528 0.09659765 -0.09035841 0.049623158 -0.033396807
0.035446305 -0.09680632 -0.005100193 -0.026036901 -0.05086215 -0.016532239 -0.08067419 0.035441633
-0.0789898 0.054878708 0.02404125 -0.060793877 0.021422302 0.07933604 0.099305734 0.03561036
-0.09216165 -0.08460687 0.05619405 -0.031734116 -0.0100148795 0.018640285 -0.018825063 -0.004710421
0.034266856 -0.030619305 0.014820892 -0.015806712 0.041642435 -0.06313652 0.046680715 -0.051949173
0.07297977 -0.01304476 0.011384474 -0.07013701 -0.10261125 -0.008379392 0.02508264 0.03533557
