Task assignment/drl4vrp/vrp/10/19_07_57.994352/checkpoints/0/critic.pt (torch, 29011 bytes, 9 tensors)

static_encoder.conv.weight f4 [128, 2, 1]
0	0x3e1fbb9c	0.15598911
1	0xbe47cbb0	-0.19511294
2	0x3e220900	0.15823746
3	0x3e6068ae	0.21914932
4	0xbe036f04	-0.12835318
5	0xbd8e44fd	-0.06946752
6	0x3dc3302a	0.09530671
7	0x3e1b51e5	0.15167959
8	0x3e0245b7	0.12721907
9	0x3e465621	0.19368793
10	0x3e532b1b	0.20621912
11	0xbe62b17c	-0.22138017
12	0xbdf5c6f2	-0.120008364
13	0xbe40e174	-0.18836004
14	0xbe0bfb0f	-0.1366999
15	0x3dd37756	0.10325496
16	0x3d9625a0	0.07331395
17	0x3e4de7a0	0.20107889
18	0xbe02c29e	-0.12769553
19	0x3da6ff3d	0.081541516
20	0xbdfb42ef	-0.12268626
21	0xbc8df2a9	-0.017327623
22	0x3ddc1d16	0.10747735
23	0x3ddfa345	0.10919813
24	0x3dc94ca3	0.098290704
25	0xbdea20a2	-0.114320055
26	0xbe442bb1	-0.19157292
27	0xbe3e264c	-0.18569297
28	0xbe24fd4e	-0.16112253
29	0x3dad1486	0.0845118
30	0xbe070d73	-0.13188724
31	0x3d93f90e	0.07225238
32	0x3cf23202	0.029564861
33	0x3e1377a7	0.14401112
34	0x3e171053	0.14752321
35	0x3e3b7aef	0.18308614
36	0xbe048600	-0.12941742
37	0x3e4bcc3b	0.19902126
38	0x3e32925d	0.17438646
39	0xbe1ffdbc	-0.15624136
40	0x3e216539	0.1576127
41	0xbe0a7dab	-0.13524501
42	0x3e361f29	0.17785324
43	0xbdf90494	-0.12159076
44	0xbd3c81f5	-0.046022374
45	0xbe07adde	-0.13249919
46	0x3cf0b861	0.029384794
47	0xbd1aa0c6	-0.03775098
48	0xbe31e38e	-0.17371961
49	0x3e390e3d	0.18071838
50	0xbdb45c1a	-0.088066295
51	0xbe3b0b69	-0.18266071
52	0xbdf27259	-0.11838216
53	0xbe311116	-0.17291674
54	0xbe19001b	-0.14941446
55	0xbe4aa2cf	-0.19788669
56	0x3e0e3474	0.13887197
57	0xbdcecfb5	-0.10098211
58	0x3db78e26	0.089626595
59	0x3dbe2543	0.09284451
60	0x3da9ebba	0.082969144
61	0x3dbfc5e5	0.09363917
62	0xbd470fc3	-0.048599016
63	0xbce70a2e	-0.028203096
64	0xbcb94b71	-0.022618981
65	0x3bfa4054	0.007637063
66	0xbe47a950	-0.19498181
67	0xbdcec515	-0.10096184
68	0xbd4944b5	-0.04913779
69	0xbcce78ef	-0.02520415
70	0x3e177e95	0.14794381
71	0x3cbd5232	0.023110483
72	0xbe474a35	-0.19461901
73	0x3e3f0514	0.18654281
74	0x3d90df57	0.07073849
75	0xbe098096	-0.13427958
76	0xbdafdf33	-0.08587494
77	0xbb941fc7	-0.0045203897
78	0x3e56832f	0.2094848
79	0xbe06d209	-0.1316606
80	0xbc29b054	-0.010356981
81	0xbcab162e	-0.0208846
82	0xbe5e41e8	-0.21704829
83	0x3d703076	0.058639966
84	0xbbcc4dc2	-0.0062348554
85	0x3dd83771	0.105574496
86	0x3dcfd925	0.10148839
87	0xbcc66e0d	-0.024222398
88	0xbe306ddb	-0.17229407
89	0x3d31a863	0.043373477
90	0x3e34409f	0.17602776
91	0x3e024584	0.1272183
92	0xbdc15c22	-0.09441401
93	0x3e1a98b5	0.15097316
94	0xbd562176	-0.052278005
95	0xbe34b6b3	-0.17647819
96	0xbc94dd66	-0.018171977
97	0xbcece94f	-0.028919844
98	0xbde9068a	-0.113782
99	0xbe19429e	-0.14966819
100	0xbdf7a912	-0.120927945
101	0xbda3d3b5	-0.07999364
102	0xbd5737a7	-0.05254331
103	0x3da8c6bd	0.08241031
104	0xbe0ecc93	-0.13945226
105	0x3e3b77d9	0.18307437
106	0xbe0b9c8b	-0.13633935
107	0xbd0d4e10	-0.034498274
108	0x3d125437	0.035724845
109	0x3cecbdf9	0.02889918
110	0x3cf216e7	0.029551936
111	0xbca213dd	-0.019784862
112	0x3daa2a3e	0.08308838
113	0x3d839311	0.06424535
114	0x3dec4138	0.11535877
115	0x3c87fce1	0.016600074
116	0xbe543a23	-0.20725302
117	0xbe01c023	-0.1267095
118	0x3ce5de66	0.02806015
119	0x3e4a69d5	0.19766934
120	0xbe4e431a	-0.20142785
121	0xbdbf283f	-0.09333848
122	0x3d871cca	0.06597288
123	0x3df93146	0.12167601
124	0x3d094fca	0.03352336
125	0x3e17f4c9	0.14839472
126	0xbab7437a	-0.0013981902
127	0x3df001df	0.11719107
128	0xbe484ea8	-0.19561255
129	0xbe26bb2b	-0.16282336
130	0xbd824613	-0.06361022
131	0x3da4dd42	0.08050014
132	0xbd201f21	-0.039092187
133	0xbdad8f6d	-0.08474622
134	0xbdd5745e	-0.10422586
135	0xbe53dcde	-0.20689723
136	0x3e16af15	0.14715226
137	0x3d8c9a93	0.0686542
138	0xbde2e8f3	-0.11079588
139	0xbdd9531e	-0.106115565
140	0x3d3f3a05	0.04668619
141	0x3e49a319	0.19691123
142	0x3da2d642	0.07951023
143	0x3cccc92f	0.024998276
144	0x3e1c9707	0.15291987
145	0xbe4a1c9f	-0.1973748
146	0xbd2e12df	-0.042498466
147	0x3e605e89	0.21911062
148	0xbdf8d41e	-0.12149833
149	0x3e07a5c4	0.13246828
150	0xbd5342f4	-0.051577523
151	0xbd84b0ef	-0.0647906
152	0x3c30fe33	0.010802793
153	0x3c2c6821	0.010522873
154	0x3e5904a7	0.21193181
155	0xbd55394b	-0.052056592
156	0x3dab6f0f	0.08370792
157	0xbab6598c	-0.0013912185
158	0xbd95b1f9	-0.07309336
159	0x3e5e3852	0.21701172
160	0xbe4a0c34	-0.19731218
161	0xbdb21c49	-0.08696801
162	0xbe1866a5	-0.14882906
163	0x3c578acd	0.013155651
164	0x3e4e90b2	0.20172384
165	0x3dff9725	0.124800004
166	0x3d4508ab	0.04810397
167	0xbd959e09	-0.073055334
168	0x3da48056	0.08032291
169	0xbd306cbd	-0.04307245
170	0xbd57cdcb	-0.052686494
171	0x3e24dd41	0.16100027
172	0x3e0574f4	0.13032895
173	0x3e028e10	0.12749505
174	0x3e5cd8a7	0.21567021
175	0x3e126233	0.14295273
176	0x3e078017	0.13232456
177	0x3e3adb0b	0.18247621
178	0x3e01fd25	0.12694223
179	0xbd738fbf	-0.05946326
180	0x3db8e9fe	0.090290055
181	0xbe21e5a7	-0.15810262
182	0x3d92682d	0.07148776
183	0x3d362c3a	0.04447577
184	0x3e1b923f	0.15192507
185	0xbd6b4827	-0.057441857
186	0xbd9163db	-0.07099124
187	0xbe194564	-0.14967877
188	0x3dbae060	0.091248274
189	0xbe43f7cf	-0.191375
190	0xbdfc315e	-0.123141035
191	0x3d2233af	0.03960007
192	0xbe5c273b	-0.2149934
193	0x3e4cdd9f	0.20006417
194	0x3dafca22	0.08583476
195	0x3d88bfa7	0.0667718
196	0x3e4db1f3	0.20087413
197	0xbe459a89	-0.19297232
198	0xbe1cb23e	-0.15302369
199	0x3d5d3a7d	0.054010857
200	0x3e0ad246	0.13556775
201	0x3ded856a	0.11597712
202	0x3d41499f	0.04718935
203	0x3e110115	0.14160569
204	0x3e62e6b5	0.2215832
205	0xbe2f141e	-0.17097518
206	0x3d876bd5	0.06612364
207	0x3e464bb8	0.19364822
208	0x3d925e62	0.07146908
209	0xbe54f63d	-0.20797057
210	0x3e49a62c	0.19692296
211	0xbdb34ee3	-0.08755281
212	0x3d92f07a	0.071747735
213	0xbc6cdad6	-0.014456471
214	0x3e1f7f5d	0.15575929
215	0xbd8e6600	-0.06953049
216	0x3e109b0f	0.1412165
217	0xbe211eda	-0.15734425
218	0xbe068733	-0.13137512
219	0xbdeb7e3f	-0.11498689
220	0x3e06e7f0	0.13174415
221	0x3e29a7d9	0.16567935
222	0x3e4891bf	0.19586848
223	0xbe23fff7	-0.16015612
224	0x3d5bded4	0.053679302
225	0xbd2340f5	-0.03985687
226	0xbd2f9830	-0.042869747
227	0xbe38593e	-0.18002793
228	0xbbdc40a2	-0.006721572
229	0x3e2f95db	0.17147009
230	0x3e07dfeb	0.13269012
231	0x3cbd259e	0.023089226
232	0xbd061015	-0.03273018
233	0x3e5cc7c6	0.21560583
234	0xbce7893c	-0.02826368
235	0xbe3d431c	-0.18482631
236	0xbe0f4f2a	-0.13995042
237	0xbe0c0115	-0.13672288
238	0x3df7309b	0.12069818
239	0x3d3ab3e6	0.04558172
240	0xbe38b2f1	-0.1803701
241	0x3e4707ac	0.1943652
242	0xbe00e7a3	-0.12588362
243	0x3e1726ce	0.14760897
244	0xbc6a9b30	-0.014319226
245	0xbe179fe3	-0.14807086
246	0x3e5e8cb8	0.21733367
247	0x3e0fcdf0	0.14043403
248	0x3d6764f4	0.05649276
249	0xbc1c741a	-0.009549165
250	0x3d0260d0	0.03183061
251	0x3e38db14	0.18052322
252	0x3c67308f	0.014110698
253	0xbe1d3ddd	-0.1535563
254	0xbe546a93	-0.2074378
255	0xbe43207f	-0.19055365

static_encoder.conv.bias f4 [128]
0	0x3ddde100	0.10833931
1	0xbee04836	-0.43805093
2	0xbe5b2617	-0.21401249
3	0xbe108139	-0.14111795
4	0x3e9f18d2	0.31073624
5	0xbe71a314	-0.23597366
6	0x3ea8c84e	0.3296532
7	0x3d9386e3	0.07203462
8	0xbedf85ea	-0.43656856
9	0x3e7de2e0	0.24793577
10	0x3e8a0cda	0.2696293
11	0x3f3116e3	0.6917555
12	0x3eef61ec	0.46754396
13	0x3ed6b17b	0.41932282
14	0x3d19d671	0.037558023
15	0xbe8ddbe9	-0.2770684
16	0x3ef0d9ef	0.4704127
17	0x3f0959dd	0.53652745
18	0x3f257fa4	0.6464789
19	0x3ee6a430	0.4504714
20	0x3e9fa216	0.3117835
21	0x3f153693	0.582864
22	0xbec2b592	-0.38029152
23	0xbec71b76	-0.3888814
24	0x3f0ca14a	0.5493361
25	0x3e845296	0.25844258
26	0x3e68cc4b	0.22734182
27	0xbf01c6fa	-0.5069424
28	0xbeaaf316	-0.33388585
29	0x3f0664f4	0.5249779
30	0x3ea24eeb	0.31700835
31	0xbeb2392c	-0.34809244
32	0x3edddfd9	0.43334845
33	0x3ddc44b1	0.10755289
34	0xbe40a920	-0.18814516
35	0x3e0f149b	0.13972704
36	0xbf09905e	-0.5373591
37	0xbea31fea	-0.31860286
38	0x3ef98c46	0.48739833
39	0x3eb236de	0.34807485
40	0x3c791a8c	0.015204083
41	0x3ec588b0	0.38580847
42	0x3ebc7008	0.36804223
43	0x3e786257	0.24256264
44	0x3dd51415	0.10404221
45	0xbd52471f	-0.051337358
46	0xbf2650e8	-0.64967203
47	0xbe526beb	-0.2054898
48	0x3f09c665	0.5381835
49	0xbed8ecbe	-0.4236812
50	0x3ebbbf60	0.36669445
51	0x3d6614bb	0.056172114
52	0xbf325454	-0.69659925
53	0x3e7f965f	0.24959706
54	0x3e5f6835	0.21817096
55	0xbd8ee2b4	-0.06976834
56	0xbf2fcbd2	-0.6867038
57	0xbf0c1dbc	-0.5473287
58	0x3eacd898	0.33758998
59	0xbed48faf	-0.41515872
60	0x3eabf786	0.33587283
61	0x3f11516d	0.5676487
62	0xbf1814cb	-0.5940673
63	0xbeec769c	-0.46184242
64	0x3f1c57ac	0.61071277
65	0xbb53a278	-0.0032292884
66	0x3ebf8ec5	0.37413612
67	0x3dab34ff	0.083597176
68	0xbe9dca80	-0.30818558
69	0xbd286d69	-0.041119967
70	0xbf055b55	-0.52092487
71	0xbeb6466a	-0.35600597
72	0xbeb07f46	-0.34472102
73	0xbe816895	-0.25275102
74	0x3f1fc947	0.624165
75	0xbd3ca9e8	-0.046060473
76	0x3db5cf5b	0.088774405
77	0xbeba326b	-0.3636659
78	0x3e22cb14	0.1589778
79	0xbeffb5b8	-0.49943328
80	0xbd76be6d	-0.060240198
81	0x3dec8fe7	0.11550885
82	0xbe3f4d15	-0.18681748
83	0x3e73fff8	0.23828113
84	0xbf1a4b62	-0.60271275
85	0x3f319b9f	0.69378084
86	0xbdeb973e	-0.115034565
87	0xbf17785d	-0.59168035
88	0xbd1bc9b5	-0.03803416
89	0x3ec0cc5b	0.3765591
90	0x3e44f93d	0.19235702
91	0xbf2a7f3f	-0.6660041
92	0xbe00c952	-0.12576798
93	0x3f126d26	0.571978
94	0x3f22510e	0.6340493
95	0xbee144ee	-0.43997902
96	0xbf2670c2	-0.65015805
97	0xbda317cd	-0.07963524
98	0x3ed137c5	0.4086286
99	0x3f0fee12	0.5622264
100	0x3f1cafd1	0.61205775
101	0xbb906e80	-0.004407704
102	0xbf2702b2	-0.6523849
103	0x3ece961a	0.40348893
104	0xbf306b3a	-0.68913615
105	0x3e30b482	0.17256358
106	0x3e525b8b	0.20542733
107	0x3e0bc008	0.13647473
108	0x3f0086f6	0.50205934
109	0xbede83a5	-0.43459812
110	0x3f323773	0.6961586
111	0xbf1c219c	-0.60988784
112	0x3f1d854c	0.6153152
113	0xbe9f5381	-0.31118396
114	0xbe0393ae	-0.12849304
115	0x3dfe289f	0.124100916
116	0x3efa9076	0.4893834
117	0xbee1b2f9	-0.44081858
118	0xbd0028a5	-0.03128876
119	0x3eb44879	0.35211542
120	0x3da70629	0.08155472
121	0xbe030471	-0.12794663
122	0x3f20cad0	0.6280947
123	0x3ebe2879	0.37140253
124	0x3edc7eea	0.43065578
125	0x3eb4816f	0.35255
126	0xbf107a03	-0.56436175
127	0xbd86a5dd	-0.06574605

dynamic_encoder.conv.weight f4 [128, 2, 1]
0	0x3e318060	0.17334127
1	0xbe1bd43c	-0.1521768
2	0xbbf1ae1a	-0.007375491
3	0x3d9c8be4	0.076438695
4	0x3d5e04e3	0.05420388
5	0xbde2037c	-0.11035821
6	0x3dbb1fab	0.091368996
7	0x3c8f3d7e	0.017485376
8	0x3e064100	0.13110733
9	0xbdee35a9	-0.116313286
10	0x3dee6038	0.11639446
11	0x3e409f50	0.18810773
12	0x3d73d0eb	0.05952541
13	0x3e4e4661	0.20144035
14	0xbd987041	-0.07443286
15	0x3e5c729c	0.21528095
16	0x3c93cc9d	0.018041903
17	0x3e1beaf4	0.15226346
18	0xbda7aeb2	-0.08187617
19	0x3dbfac0c	0.09358987
20	0xbe0d9a03	-0.13828282
21	0xbe3b59c5	-0.18295963
22	0xbe369108	-0.17828763
23	0xbe214638	-0.15749443
24	0x3d8451a8	0.06460887
25	0x3df27889	0.118393965
26	0xbe2a8751	-0.16653182
27	0x3e0d8a7d	0.1382236
28	0xbe2b6801	-0.16738893
29	0x3e2a2d5c	0.16618866
30	0x3e11e5dd	0.14247842
31	0xbd04f442	-0.032459505
32	0x3e09b4e9	0.13447918
33	0x3d4a18c5	0.04934003
34	0x3df3ce2b	0.11904558
35	0xbe40a36b	-0.18812339
36	0xbe48872e	-0.19582817
37	0x3e5217ae	0.20516846
38	0xbd9ba5e4	-0.076000005
39	0xbe344b95	-0.17606957
40	0xbdcf08d0	-0.10109103
41	0x3dd34d2b	0.10317453
42	0x3e10d12a	0.1414229
43	0x3de9b3b1	0.114112265
44	0x3b956bfc	0.004559992
45	0xbe01ec4f	-0.12687801
46	0xbd98a8a9	-0.07454044
47	0xbe3b99f4	-0.18320447
48	0x3dc923c5	0.098212756
49	0xbdfb2761	-0.1226337
50	0xbe01969b	-0.12655108
51	0xbe4f6c99	-0.2025627
52	0x3d87e909	0.06636245
53	0x3e51d3ac	0.20490903
54	0x3c3dca10	0.01158382
55	0xbe033325	-0.12812479
56	0x3e24dfb4	0.16100961
57	0xbdc057a1	-0.09391714
58	0x3e2f56d9	0.17122974
59	0xbcddc1fb	-0.027070036
60	0xbda6a0df	-0.081361525
61	0x3e2f5271	0.17121293
62	0xbd90c457	-0.07068699
63	0xbe337cc7	-0.17528068
64	0x3e2e0beb	0.16996734
65	0x3dc020e0	0.093812704
66	0x3e22c59c	0.15895694
67	0xbd843b09	-0.064565726
68	0xbe3cda34	-0.18442613
69	0xbdd64a67	-0.1046341
70	0xb9c75690	-0.00038020732
71	0x3d8c4fd6	0.06851165
72	0x3e2d28ec	0.16910142
73	0x3c4a48fc	0.012346502
74	0x3bb5f66a	0.0055530565
75	0x3d70b7d1	0.05876905
76	0xbd6b33c8	-0.05742243
77	0x3e5639cb	0.20920484
78	0xbd664bd6	-0.056224667
79	0xbdcecb06	-0.100973174
80	0xbdca1349	-0.098669596
81	0x3e0b8391	0.13624407
82	0x3e44d801	0.19223024
83	0x3d619d97	0.05508193
84	0xbe1ae790	-0.15127397
85	0x3e0aa1b3	0.13538246
86	0x3e3e88cd	0.18606873
87	0x3e0aa952	0.13541153
88	0xbe21114e	-0.15729257
89	0x3e2d2aeb	0.16910903
90	0xbe0ad335	-0.13557132
91	0xbe4d27df	-0.20034741
92	0x3e017ef3	0.12646084
93	0xbdde437c	-0.108527154
94	0x3e1c1805	0.15243538
95	0xbd58938f	-0.052875098
96	0x3cd55887	0.02604319
97	0x3b7c2e9b	0.0038479927
98	0x3e2c83b7	0.1684712
99	0xbe32d15f	-0.17462681
100	0xbd0e7136	-0.034775935
101	0x3e067d69	0.13133778
102	0xbe4181f7	-0.18897234
103	0xbe1c1e32	-0.15245894
104	0xbe1d24f3	-0.15346126
105	0x3d068d25	0.03284945
106	0x3dfe4450	0.12415373
107	0xb9963843	-0.00028652148
108	0x3e4b917a	0.19879714
109	0xbe02e337	-0.12781988
110	0x3de5124b	0.1118513
111	0xbcd09b4f	-0.025464682
112	0xbd07415d	-0.03302132
113	0x3e3797be	0.17928979
114	0xbe4eccbb	-0.20195286
115	0xbe4554a6	-0.19270572
116	0xbd82dd92	-0.063899174
117	0xbd55bc52	-0.05218155
118	0x3cf289fd	0.029606814
119	0xbe2e9c94	-0.17051917
120	0x3e600fad	0.2188098
121	0x3d90ce89	0.070706435
122	0xbb949fe6	-0.004535663
123	0xbcfa7e06	-0.03057767
124	0xbd9fc250	-0.07800734
125	0xbe388b30	-0.18021846
126	0xbe5b6b95	-0.21427758
127	0xbd53c477	-0.051701035
128	0xbe5472a4	-0.20746857
129	0x3e2e5b59	0.17027034
130	0xbe2cfc3f	-0.16893099
131	0xbe426906	-0.18985376
132	0x3dbdd0dc	0.092683524
133	0x3e539569	0.20662464
134	0x3e3db495	0.18525918
135	0x3d83e072	0.06439294
136	0x3d255ae1	0.040369872
137	0xbdaf15a6	-0.08549051
138	0x3e15cdfe	0.14629361
139	0x3e1ba480	0.1519947
140	0x3e5c9f37	0.2154511
141	0xbc1babc3	-0.0095014
142	0x3e385256	0.18000159
143	0xbe3edec2	-0.18639663
144	0x3dca5cb3	0.09880962
145	0x3e1b00fe	0.15137097
146	0x3d64703d	0.0557711
147	0x3c75d8cf	0.0150053045
148	0x3dd8b9fb	0.10582348
149	0x3db94dd2	0.09048046
150	0xbca55742	-0.02018321
151	0xbe4110e1	-0.18854095
152	0xbe2fbddc	-0.1716227
153	0xbda1b278	-0.07895368
154	0x3e44d9bd	0.19223686
155	0x3d491e6a	0.04910127
156	0x3e06894b	0.1313831
157	0x3e5aacac	0.21354932
158	0x3e1b7d42	0.15184501
159	0x3d4df284	0.05028011
160	0xbde5a75a	-0.112135604
161	0xbd9857bf	-0.07438611
162	0x3e142e09	0.14470686
163	0xbd88b117	-0.06674402
164	0xbc98cb21	-0.018651547
165	0xbe263f12	-0.16234997
166	0x3d29884a	0.04138974
167	0xbcc78d06	-0.024359237
168	0x3e496835	0.19668658
169	0xbd7cf1fe	-0.06175422
170	0xbdb0a932	-0.086260214
171	0x3d93497e	0.07191752
172	0x3e0822fc	0.13294595
173	0xbe1bfa15	-0.15232117
174	0x3e21424a	0.15747944
175	0xbe192ddb	-0.14958899
176	0x3d60254f	0.05472308
177	0xbd6e43d0	-0.05817014
178	0x3da8df10	0.08245671
179	0x3e37ba7b	0.1794223
180	0xbe5b6104	-0.21423727
181	0xbe3f0c05	-0.18656929
182	0xbd3dee4c	-0.046369836
183	0x3e0160cc	0.12634581
184	0x3e3face0	0.1871829
185	0x3debbd95	0.11510769
186	0xbcd590ff	-0.026070116
187	0xbde195df	-0.11014914
188	0x3e07009b	0.13183825
189	0x3e3a8f7a	0.18218794
190	0x3d1b3a6b	0.03789751
191	0x3c9df21f	0.019280491
192	0xbe354cf9	-0.17705144
193	0x3dc957ec	0.09831223
194	0x3ca3a140	0.01997435
195	0xbdd3eeb8	-0.10348266
196	0xbdb25902	-0.08708383
197	0xbc94aa31	-0.01814756
198	0xbd9c0a7e	-0.07619189
199	0xbde4d7e6	-0.11173992
200	0xbe11803d	-0.14209075
201	0x3d7720ce	0.06033402
202	0xbdc5195a	-0.09623976
203	0x3e43a9b6	0.19107708
204	0x3e13904b	0.14410512
205	0xbe03c7f8	-0.12869251
206	0x3dd2a449	0.10285241
207	0xbe34b9e8	-0.17649043
208	0xbe4fbe29	-0.20287384
209	0x3c79f0d2	0.01525517
210	0x3db1d873	0.086838625
211	0xbd998104	-0.07495311
212	0xbe44ce59	-0.1921934
213	0xbe3d60f5	-0.18494017
214	0x3e135047	0.14386092
215	0x3d5704b4	0.05249472
216	0xbc3ee0c2	-0.011650266
217	0xbd842e2a	-0.064541176
218	0xbde3a07a	-0.11114593
219	0x3d98eba3	0.07466819
220	0xbdbd7f3b	-0.09252783
221	0x3d467d1a	0.04845915
222	0xbda79493	-0.08182635
223	0xbda0c86b	-0.07850727
224	0x3e0a1a06	0.1348649
225	0x3d456fdb	0.048202377
226	0xbe3bdd63	-0.18346171
227	0x3da26845	0.07930044
228	0xbe503d1b	-0.2033581
229	0xbcb7d26f	-0.02243921
230	0x3cd363ea	0.025804479
231	0x3e058430	0.13038707
232	0x3d4ca52e	0.049962215
233	0x3d1e1332	0.038592525
234	0xbdc5984d	-0.0964819
235	0x3dbec917	0.093156986
236	0xbd4f009e	-0.050537698
237	0xbe1bb5b8	-0.15206039
238	0x3ac626ec	0.0015117801
239	0xbe58ff2f	-0.21191095
240	0x3e0dfa94	0.13865119
241	0xbe0f7af1	-0.14011742
242	0x3e34bfff	0.17651366
243	0x3e2c0765	0.16799696
244	0x3da624fd	0.08112524
245	0x3e2c4617	0.16823612
246	0x3e3f689c	0.18692249
247	0x3e0fa81c	0.14028972
248	0xbe53dbbc	-0.20689291
249	0xbdcc4fea	-0.0997618
250	0xbdb151a7	-0.08658152
251	0x3e010670	0.12600112
252	0x3dbb9980	0.09160137
253	0xbe49fcf4	-0.197254
254	0x3dc553f6	0.09635155
255	0x3e4015ec	0.18758363

dynamic_encoder.conv.bias f4 [128]
0	0x3e69cf6e	0.22833034
1	0xbf2171da	-0.6306435
2	0x3e92f07c	0.286991
3	0xbd42011c	-0.04736434
4	0xbdd60b70	-0.104514
5	0x3eb40cb0	0.3516593
6	0xbf2b7782	-0.6697923
7	0x3ea0693b	0.31330284
8	0xbe78504e	-0.24249384
9	0xbef7b0f3	-0.4837719
10	0x3ec231de	0.3792867
11	0x3e10ab5c	0.14127868
12	0x3ee1a3c6	0.44070262
13	0x3ecce754	0.4002024
14	0xbf0166bc	-0.50547385
15	0xbeb260f5	-0.34839597
16	0x3da9d064	0.082917005
17	0xbf097709	-0.5369726
18	0xbf2b087a	-0.6680981
19	0x3f135092	0.57544816
20	0xbea85fcd	-0.3288559
21	0xbeb7f490	-0.35928774
22	0x3ed1e508	0.4099505
23	0xbf28251d	-0.6568163
24	0xbe65ec94	-0.22453529
25	0xbf077ff8	-0.5292964
26	0xbe9c87b5	-0.30572286
27	0x3f1126bc	0.5669973
28	0x3ddcd9bd	0.10783718
29	0xbe425421	-0.18977405
30	0xbe495340	-0.19660664
31	0xbe558858	-0.20852792
32	0x3e398387	0.1811658
33	0xbf0a89f1	-0.5411673
34	0x3e87c97c	0.26520908
35	0xbe9dbea3	-0.30809507
36	0x3f0f4286	0.5596088
37	0xbe759f90	-0.2398665
38	0x3d4debb5	0.050273616
39	0x3e204c89	0.15654196
40	0x3e2ecac8	0.17069542
41	0xbe6c1b88	-0.23057377
42	0x3f177e33	0.5917694
43	0x3ead92cd	0.33901063
44	0x3f1a012a	0.60158026
45	0xbe8bef1f	-0.27330872
46	0x3eccfbb9	0.400358
47	0xbf11d5c8	-0.5696683
48	0x3e5c4c68	0.21513522
49	0x3eb45616	0.35221928
50	0x3f08fc44	0.53509927
51	0xbedab0c1	-0.42712978
52	0xbeb4d2c7	-0.3531706
53	0xbf1fd230	-0.62430096
54	0xbe7793fb	-0.24177544
55	0xbeaaba05	-0.33345047
56	0xbee3115b	-0.4434918
57	0xbf1cbe9e	-0.6122836
58	0x3f265cd4	0.64985394
59	0xbe2af05e	-0.16693255
60	0x3e442608	0.19155133
61	0x3f20a5f0	0.627532
62	0xbdaf9ade	-0.085744604
63	0x3e851698	0.259938
64	0x3e8df9da	0.27729684
65	0x3ef9cb11	0.4878774
66	0x3ef430a0	0.47693348
67	0x3ef0c2fe	0.47023767
68	0xbdae62b6	-0.08514921
69	0x3f269a41	0.6507912
70	0xbf28a24c	-0.65872645
71	0xbe8b19df	-0.27168176
72	0x3f07e518	0.53083944
73	0xbf2e8875	-0.68176967
74	0xbf2242f4	-0.6338341
75	0x3f31b4ef	0.6941671
76	0x3e0ab6fa	0.13546363
77	0x3dfe20c5	0.12408594
78	0x3ef328f4	0.47492182
79	0xbd91de8a	-0.07122524
80	0x3f14789f	0.57996553
81	0xbf03895c	-0.5138147
82	0xbe52ea72	-0.20597246
83	0xbeed76c8	-0.46379685
84	0xbdb193ac	-0.08670744
85	0x3dfad89a	0.12248345
86	0xbeb244e4	-0.34818184
87	0xbd20a73b	-0.039221983
88	0x3eb50e36	0.35362405
89	0x3e92b867	0.28656313
90	0x3f085526	0.53254926
91	0x3eefe8fe	0.46857446
92	0xbcaaa195	-0.020829001
93	0xbec9a317	-0.3938224
94	0xbf32a817	-0.69787735
95	0x3c70bea3	0.014693889
96	0x3ebaaf68	0.3646195
97	0x3da39adb	0.07988521
98	0xbeaa8d9a	-0.33311158
99	0x3e5fe03e	0.21862885
100	0x3efc1303	0.49233255
101	0x3e8e90f7	0.27844974
102	0x3de5ee84	0.11227134
103	0x3f1f6d81	0.62276465
104	0x3d9cca87	0.076558165
105	0xbec1b53a	-0.37833577
106	0xbf0ea875	-0.55725795
107	0xbf22f54c	-0.63655543
108	0xbee3327b	-0.4437445
109	0x3eacc94f	0.33747336
110	0xbf29e604	-0.663666
111	0x3ed4655e	0.41483587
112	0x3df68643	0.12037327
113	0xbe7c5400	-0.24641418
114	0x3e4c9186	0.19977388
115	0xbe1bf973	-0.15231876
116	0x3ed3ecae	0.4139151
117	0xbf104213	-0.5635082
118	0xbf2b6e1c	-0.6696489
119	0x3d4b0c25	0.04957213
120	0xbf0f382c	-0.55945086
121	0x3f20591c	0.6263597
122	0xbf101072	-0.56275094
123	0x3edbe671	0.4294925
124	0xbeba4b89	-0.36385754
125	0xbea7a62a	-0.3274396
126	0xbdf57073	-0.119843386
127	0x3e0f6821	0.14004566

fc1.weight f4 [20, 256, 1]
0	0xbe12274e	-0.14272806
1	0x3dc79ad2	0.097463265
2	0x3d83e2f8	0.06439775
3	0xbde2478c	-0.11048803
4	0x3dd1dd7e	0.102473244
5	0x3d24ac9c	0.040203676
6	0xbdfc7268	-0.12326509
7	0xbdb249e4	-0.087055
8	0x3dd11af6	0.102102205
9	0xbe041e20	-0.12902117
10	0x3e06f386	0.13178834
11	0xbdc0fd33	-0.09423294
12	0x3e04736c	0.12934655
13	0xbda3e209	-0.08002097
14	0x3e0d37fa	0.13790885
15	0x3d081e44	0.03323199
16	0xbb67b400	-0.003535509
17	0xbbe0b840	-0.006857902
18	0xbdae9ca2	-0.08525969
19	0xbd8faa56	-0.07014911
20	0x3e00bd4c	0.12572211
21	0x3dbb5b38	0.09148258
22	0x3db093e6	0.086219594
23	0x3d96cb12	0.07362951
24	0xbdc5656a	-0.09638484
25	0x3dc7e5be	0.09760617
26	0xbddece26	-0.108791634
27	0xbda566b4	-0.0807623
28	0xbd04b7c0	-0.0324018
29	0x3b339840	0.002740398
30	0xbd28280e	-0.041053824
31	0x3d8174a8	0.063210785
32	0x3e138cbc	0.14409155
33	0x3da6452e	0.08118664
34	0x3bb2eb20	0.005460158
35	0xbdb2cbca	-0.08730276
36	0xbd8a2f55	-0.06747309
37	0xbba16c20	-0.0049262196
38	0x3e141d70	0.14464355
39	0xbdab60c3	-0.08368065
40	0xbdbcae79	-0.092129655
41	0x3def7560	0.116923094
42	0xbb129480	-0.0022366345
43	0x3dae86d2	0.08521809
44	0xbcdb89bc	-0.026799075
45	0x3e161bca	0.14659038
46	0xbd55bc7c	-0.052181706
47	0xbd48d6c2	-0.049032934
48	0xbdcca0f0	-0.09991634
49	0xbcec1e68	-0.028823093
50	0xbdc429c6	-0.0957828
51	0x3e0be16e	0.13660213
52	0x3df07e1c	0.117428035
53	0xbdf7c5a8	-0.12098247
54	0x3d132c3c	0.035930857
55	0xbd6f2f4c	-0.058394715
56	0xbe0a192f	-0.1348617
57	0x3d689ea0	0.0567919
58	0x3dfc168c	0.12308988
59	0x3dc9ec14	0.098594815
60	0x3d0d718c	0.034532115
61	0x3e072bb4	0.13200265
62	0xbd930d59	-0.0718028
63	0xbdab1cac	-0.08355078
64	0xbdf6825f	-0.12036585
65	0xbcf6b014	-0.030113257
66	0xbcb32e58	-0.021872684
67	0xbd462424	-0.04837431
68	0x3e019252	0.12653473
69	0xbc8394a8	-0.016062096
70	0x3d712d10	0.058880866
71	0x3de74fa4	0.11294487
72	0xbdd7360c	-0.105083555
73	0x3d0a34ac	0.033741638
74	0xbdd0a649	-0.101879664
75	0x3dc95246	0.098301455
76	0xbd4c067c	-0.04981087
77	0x3e089f3c	0.13341993
78	0x3dff2708	0.124586165
79	0xba816280	-0.0009871274
80	0xbd439cd6	-0.047756992
81	0xbd776f2a	-0.06040875
82	0xbdeaacdd	-0.11458752
83	0xbce79094	-0.028267182
84	0x3df51c3c	0.11968276
85	0x3e0f4f58	0.13995111
86	0xbe0be22a	-0.13660493
87	0xbe1698fb	-0.14706795
88	0xbe015d47	-0.12633239
89	0x3d51f15c	0.05125557
90	0x3dcbd786	0.09953217
91	0xbd842803	-0.06452944
92	0x3defd574	0.11710635
93	0x3da00fec	0.07815537
94	0x3d5a6310	0.05331713
95	0xbdd92cdc	-0.10604259
96	0x3dc17274	0.09445658
97	0x3d8d0bf2	0.06887044
98	0x3aa0d480	0.0012270361
99	0x3d556bd0	0.05210477
100	0xbdaba633	-0.08381309
101	0xbd783904	-0.06060125
102	0x3dd7c8d0	0.10536349
103	0xbe0b3990	-0.13596177
104	0xbe0eccc0	-0.13945293
105	0x3beae780	0.00716871
106	0x3db0e562	0.08637501
107	0x3db58ae2	0.088643804
108	0x3d4e0e50	0.05030662
109	0x3c4f0950	0.012636498
110	0x3d8c92dc	0.06863949
111	0xbd7eb5e0	-0.06218517
112	0xbd43c64e	-0.04779654
113	0xbde93f2c	-0.11389002
114	0x3e021bc4	0.12705904
115	0x3d6f3064	0.05839576
116	0x3b3d2a80	0.0028864443
117	0x3dc39f5c	0.0955188
118	0x3e0afa42	0.13572028
119	0x3d8726c4	0.06599191
120	0x3e11739e	0.1420426
121	0x3dd8ef2c	0.105924934
122	0x3d22f114	0.03978069
123	0x3d118cdc	0.035534725
124	0xbd9c35a6	-0.0762742
125	0xbc80cb60	-0.015721977
126	0xbdaf4286	-0.0855761
127	0xbe03f72a	-0.12887254
128	0x3ce0dd18	0.027449176
129	0xbb09fb40	-0.0021054298
130	0xbd1e98aa	-0.03871981
131	0x3d16c31c	0.036807165
132	0x3ccab4c0	0.024744391
133	0x3e086356	0.13319144
134	0x3d7f73d4	0.06236632
135	0x3e041ad8	0.12900865
136	0x3e0c1a20	0.13681841
137	0x3d9ed988	0.077563345
138	0x3df49d10	0.1194402
139	0xbdf1e374	-0.11810961
140	0x3d1a330c	0.03764634
141	0x3dde4efc	0.10854909
142	0x3e0fc658	0.14040506
143	0xbd53bfae	-0.051696472
144	0xbde76323	-0.11298206
145	0xbd782d74	-0.060590222
146	0x3e10a87c	0.14126772
147	0xbdd3a086	-0.10333352
148	0x3d53de78	0.051725835
149	0x3d0ba73c	0.034095034
150	0x3a90ed80	0.0011057109
151	0x3dbb0028	0.09130889
152	0x3d88aa4c	0.066731066
153	0x3d8cdb9a	0.06877823
154	0x3cce8fc0	0.02521503
155	0x3c89a210	0.01680091
156	0xbcb1c668	-0.021701053
157	0x3de7cf08	0.11318785
158	0xbd064fcc	-0.032790944
159	0xbe01d06c	-0.12677163
160	0x3d8f5764	0.0699909
161	0x3ddb6d5c	0.10714218
162	0x3c953308	0.01821281
163	0xbcefc934	-0.029270746
164	0x3d8e30d0	0.06942904
165	0x3e0f9b30	0.14024043
166	0xbdf01240	-0.11722231
167	0xbd614e6e	-0.055006437
168	0xbd1031f0	-0.035203874
169	0x3d3df548	0.046376497
170	0x3db7393a	0.08946462
171	0xbd9a52ad	-0.075353004
172	0xbd82b387	-0.063818984
173	0x3d610064	0.054932013
174	0xbdc594e7	-0.096475415
175	0x3bc3a060	0.005970046
176	0x3e126538	0.14296424
177	0x3d7eda04	0.062219635
178	0xbe0abc8c	-0.13548487
179	0xbd8e4151	-0.06946052
180	0x3d0ca5c4	0.034337774
181	0x3cc1f740	0.023677468
182	0x3e011d4a	0.12608829
183	0xbc8b4d10	-0.01700452
184	0xbd0afebc	-0.03393434
185	0x3e10406c	0.14087075
186	0xbda04410	-0.07825482
187	0x3ddf39b4	0.10899678
188	0xbe135a2f	-0.14389871
189	0xb7d12000	-2.4929643e-05
190	0xbc8f72b8	-0.017510757
191	0xbdd5cc47	-0.104393534
192	0x3e09c564	0.13454205
193	0xbcb637e0	-0.02224344
194	0xbdff4a54	-0.12465349
195	0xbdcc15b2	-0.099650756
196	0x3d8c7560	0.06858325
197	0x3c836f48	0.016044274
198	0x3b63d180	0.0034762323
199	0x3dd005d2	0.1015736
200	0xbdfb1a78	-0.12260908
201	0xbd003950	-0.031304657
202	0x3cb19348	0.021676674
203	0xbd3ef3c6	-0.0466192
204	0xbdeac78a	-0.1146384
205	0x3bc4fe40	0.0060117543
206	0xbdf784b1	-0.12085856
207	0x3cd7f070	0.026359767
208	0x3ccba660	0.024859607
209	0x3d2ff524	0.042958394
210	0xbc280ec0	-0.010257423
211	0xbcb55088	-0.022133127
212	0x3dee1c94	0.116265446
213	0xbdd7483c	-0.105118245
214	0x3e0f9210	0.14020562
215	0xbe02335e	-0.12714908
216	0xbd20f492	-0.03929574
217	0xbc97a8c0	-0.018513083
218	0x3d86b600	0.065776825
219	0xbddb470a	-0.10706909
220	0xbded6cb0	-0.11592996
221	0x3dcf2524	0.10114506
222	0xbd99adae	-0.0750383
223	0xbd0ecdca	-0.034864224
224	0x3e121c82	0.14268687
225	0xbe104532	-0.14088896
226	0x3de286e0	0.110608816
227	0xbdf2cf16	-0.11855905
228	0x3dc2dec8	0.095151484
229	0x3e16c714	0.1472438
230	0x3dcdbcac	0.10045752
231	0xbd4007b6	-0.046882354
232	0xbe02a053	-0.12756471
233	0x3d3396e0	0.043845057
234	0xbdfb40fe	-0.12268256
235	0xbd2de6b8	-0.04245636
236	0xbbac6dc0	-0.0052621067
237	0x3da8caa4	0.08241776
238	0xbe140045	-0.14453228
239	0xbd9bae7e	-0.07601641
240	0x3d4bd260	0.049761176
241	0x3dea0758	0.11427182
242	0xbe0d89af	-0.13822053
243	0xbe0bc896	-0.13650736
244	0xbd89cfca	-0.06729086
245	0xbd8050fb	-0.06265446
246	0x3db8c798	0.090224445
247	0x3dc93d24	0.09826115
248	0xbd8f5ce0	-0.070001364
249	0xbdd40ee9	-0.103544064
250	0xbde7e354	-0.11322656
251	0xbd5c1aac	-0.053736374
252	0x3d57ab0c	0.052653357
253	0xbcdf0fdc	-0.027229242
254	0xbd821b97	-0.063529186
255	0x3d746e6c	0.05967562

fc1.bias f4 [20]
0	0xbcf82664	-0.030291744
1	0xba832841	-0.0010006503
2	0xbc586668	-0.013208009
3	0xbd316554	-0.043309525
4	0xbc89032c	-0.016725145
5	0xbc4970d7	-0.0122949695
6	0xbd5477c6	-0.051872037
7	0xbca9ee03	-0.020743376
8	0x3cf6cff6	0.03012846
9	0xbbc32105	-0.005954864
10	0xbce61d24	-0.028090067
11	0x3d3d1300	0.046160698
12	0xbd140d02	-0.036145218
13	0xbd71e53b	-0.0590565
14	0x3c18c118	0.009323381
15	0xbce0137c	-0.02735304
16	0x3d77ef71	0.060531083
17	0xbc881062	-0.016609374
18	0x3c5b0760	0.013368458
19	0xbca5b990	-0.020230085

fc2.weight f4 [20, 20, 1]
0	0xbc37e040	-0.011222899
1	0xbcc565de	-0.024096426
2	0x3e600a58	0.21878946
3	0x3e526821	0.20547535
4	0xbbafd500	-0.0053659678
5	0x3b41e807	0.0029587762
6	0x3e1e9205	0.1548539
7	0xbd3073e8	-0.043079287
8	0xbeb8800f	-0.360352
9	0x3e03b5c4	0.12862307
10	0xbe4852ce	-0.19562837
11	0xbea5c4ed	-0.32376805
12	0xbe31ea33	-0.17374496
13	0xbe533c19	-0.20628394
14	0x3e44027c	0.19141573
15	0x3dba0424	0.09082821
16	0xbc8449b3	-0.016148424
17	0x3ec6822b	0.38771185
18	0x3dadae76	0.084805414
19	0xbe5a1b1f	-0.21299408
20	0x3e9a914c	0.30188978
21	0xbd57f3bf	-0.05272269
22	0x3e11adf8	0.1422652
23	0xbe2305e7	-0.1592022
24	0x3da4601c	0.08026144
25	0x3ea17f27	0.31542322
26	0xbd6c8a00	-0.057748795
27	0xbd1dc844	-0.038521066
28	0x3e22ae99	0.15886916
29	0x3e436aa0	0.19083643
30	0xbe9e3742	-0.30901533
31	0xbe91e2a4	-0.28493226
32	0xbe4d9ded	-0.20079775
33	0x3e1d0e5d	0.1533751
34	0x3eb26c3a	0.34848195
35	0xbd706271	-0.05868763
36	0xbec52406	-0.38504046
37	0x3e3696c1	0.17830946
38	0x3e7824e5	0.24232824
39	0x3e359e08	0.17736065
40	0x3e4cd120	0.2000165
41	0x3df33b99	0.11876602
42	0xbec2bf77	-0.380367
43	0x3ea3103a	0.31848317
44	0xbe90f373	-0.28310737
45	0xbe9d7552	-0.3075357
46	0x3d980fdf	0.07424902
47	0x3bd3b179	0.0064603654
48	0xbe7a9d35	-0.24474032
49	0xbe99b19e	-0.30018324
50	0xbe4e7e3b	-0.2016534
51	0xbe7e7109	-0.24847807
52	0x3de0594c	0.10954532
53	0xbe959808	-0.29217553
54	0xbd968e80	-0.073513985
55	0x3d486b54	0.04893048
56	0x3eb10399	0.34573057
57	0x3ea5cb2d	0.32381573
58	0x3e004541	0.12526418
59	0xbae83600	-0.0017716289
60	0x3ec2cdb4	0.38047564
61	0x3e8b085c	0.27154815
62	0xbe0a7c74	-0.13524038
63	0x3da8a291	0.08234132
64	0x3ea46866	0.321109
65	0x3e5f3930	0.21799159
66	0xbe8f70cc	-0.28015745
67	0x3d800ccb	0.0625244
68	0xbcbc3535	-0.02297459
69	0x3e94a1c7	0.29029676
70	0xbde0f8b8	-0.10984939
71	0xbe353379	-0.17695417
72	0xbd8e47ac	-0.06947264
73	0xbdc556b3	-0.09635677
74	0xbd8be708	-0.06831175
75	0x3ebd1ce2	0.36936098
76	0xbe0014ac	-0.12507886
77	0xbe5cc983	-0.21561246
78	0x3e800b7b	0.2500876
79	0x3ec45594	0.3834654
80	0x3e462eb8	0.1935376
81	0xbd7cefe7	-0.061752226
82	0x3e1cef78	0.15325725
83	0xbddc3918	-0.10753077
84	0xbd790fd0	-0.060806096
85	0xbd061508	-0.0327349
86	0xbe08a6e8	-0.1334492
87	0x3e474b7b	0.19462387
88	0xbdbcf81b	-0.0922701
89	0x3e978719	0.2959526
90	0x3ce51010	0.02796176
91	0x3eb8f74e	0.36126179
92	0xbd996e64	-0.074917585
93	0x3ea8c7ee	0.32965034
94	0xbce80cb0	-0.028326362
95	0x3dae88b1	0.085221656
96	0xbe1f5ce0	-0.15562773
97	0xbebf1f98	-0.37328792
98	0x3e201629	0.15633453
99	0x3e2111e8	0.15729487
100	0x3e3f4768	0.18679583
101	0xbddd59b4	-0.10808125
102	0x3e64d6bc	0.2234754
103	0xbce2985b	-0.02766054
104	0x3eb47ee4	0.3525306
105	0xbe251aad	-0.16123457
106	0x3e765bbf	0.24058436
107	0x3cd30929	0.025761204
108	0xbdde34c9	-0.10849912
109	0x3e050544	0.1299029
110	0x3eaf78ec	0.34271944
111	0x3eba3c32	0.3637405
112	0x3ec1c504	0.37845623
113	0xbeac5a0f	-0.3366246
114	0x3e917264	0.28407586
115	0x3e48f310	0.19623971
116	0x3ec59141	0.38587382
117	0x3c92553d	0.01786291
118	0xbe711b79	-0.23545636
119	0x3dfb6790	0.12275612
120	0x3ebc515a	0.36780816
121	0x3e5d9513	0.21638899
122	0xbc8e9c60	-0.01740855
123	0xbea8ea0e	-0.3299107
124	0x3e7021dc	0.23450416
125	0xbea28707	-0.31743643
126	0xbe6f3fea	-0.23364225
127	0x3e61c0d7	0.22046219
128	0xbd708d59	-0.05872855
129	0xbea535ef	-0.3226771
130	0xbe671cb6	-0.22569546
131	0x3ca87e30	0.020567983
132	0x3e342664	0.1759277
133	0xbe0c8f3c	-0.13726515
134	0x3e2aec2c	0.16691655
135	0x3ca4f1c2	0.02013481
136	0x3e081f32	0.1329315
137	0x3d14d23e	0.036333315
138	0x3e0a68ab	0.1351649
139	0x3e843980	0.2582512
140	0x3da969cc	0.08272132
141	0x3ea14b30	0.31502676
142	0x3ebb1c20	0.36544895
143	0x3da302f0	0.07959545
144	0x3db0d924	0.08635166
145	0xbe5d5e70	-0.21618056
146	0x3ea4c0ac	0.32178247
147	0xbdb66368	-0.08905679
148	0x3e9f2038	0.31079268
149	0x3d46cad0	0.04853326
150	0x3d87a288	0.06622797
151	0xbb9f3100	-0.004858136
152	0x3dd0cca0	0.10195279
153	0x3e4aff84	0.19824034
154	0xbe947683	-0.28996667
155	0xbe726595	-0.23671563
156	0xbe96539f	-0.29360673
157	0xbe885408	-0.2662661
158	0xbe1dec26	-0.15422115
159	0x3ec4cf18	0.3843925
160	0x3eafd58a	0.34342605
161	0xbdb545ea	-0.08851226
162	0x3e63ef20	0.22259188
163	0xbec4246c	-0.38309038
164	0x3ebae030	0.36499166
165	0xbbfb48a7	-0.007668573
166	0xbdd8ee50	-0.105923295
167	0x3e5ff2a4	0.21869904
168	0x3d2045c5	0.039129037
169	0xbe484315	-0.1955684
170	0x3ce51710	0.027965099
171	0x3ea03b88	0.3129542
172	0xbe7929d0	-0.24332356
173	0x3eaecc3c	0.34140193
174	0xbeb79034	-0.35852206
175	0xbec42f88	-0.38317513
176	0xbdd4e199	-0.10394592
177	0x3e9bfb4c	0.30465162
178	0x3d67848a	0.056522883
179	0xbdf9c9b8	-0.12196678
180	0x3dd52194	0.10406795
181	0x3ec5ca1a	0.38630754
182	0x3e8799a8	0.26484418
183	0xbe737405	-0.23774727
184	0x3e2c9d20	0.16856813
185	0xbea6f4ba	-0.32608587
186	0xbe96dbcc	-0.29464567
187	0x3e6b811e	0.22998473
188	0xbd462d5a	-0.048383094
189	0x3e3b7bb9	0.18308915
190	0xbe6a0690	-0.22854066
191	0xbe526977	-0.20548044
192	0x3e6c62bc	0.23084539
193	0xbd176b67	-0.03696766
194	0x3db879b4	0.09007588
195	0xbe38f2e1	-0.18061401
196	0x3e16d7ec	0.14730805
197	0x3e7c0784	0.24612242
198	0xbe9d11be	-0.306776
199	0xbe30f14a	-0.17279544
200	0xbc4b1720	-0.01239565
201	0x3d51c881	0.051216606
202	0xbe83b7b5	-0.25726095
203	0x3e740493	0.2382987
204	0x3e7c2c6c	0.2462632
205	0xbebf4608	-0.37358117
206	0x3e8ee0a1	0.27905753
207	0xbd9ac07f	-0.07556247
208	0x3e2c43c6	0.16822729
209	0x3ebf7ac6	0.37398356
210	0xbc8210d0	-0.015877157
211	0x3e1e3504	0.15449911
212	0x3e4d5a90	0.20054078
213	0xbec34f54	-0.3814646
214	0xbeb8deda	-0.36107522
215	0x3ea6d089	0.32580975
216	0x3dc34ed5	0.095365204
217	0x3e9d7a45	0.30757347
218	0xbdd1a61c	-0.10236761
219	0x3cbb6df0	0.02287957
220	0xbd8ec99c	-0.06972048
221	0xbe802d47	-0.25034544
222	0xbe030324	-0.12794167
223	0xbda86a18	-0.08223361
224	0x3e182120	0.14856386
225	0xbdd7c9d0	-0.105365396
226	0xbe90847a	-0.28226072
227	0xbe3608ae	-0.17776749
228	0xbe42b3fa	-0.19013968
229	0xbea6521c	-0.3248452
230	0x3e8af3f0	0.27139235
231	0xbda0f7fc	-0.07859799
232	0x3eb84012	0.35986382
233	0xbd999afc	-0.07500264
234	0xbe15cf78	-0.14629924
235	0xbeb3c2e4	-0.35109627
236	0x3e362e30	0.17791057
237	0xbd8d98f4	-0.06913939
238	0x3e461064	0.1934219
239	0x3e2b9ae4	0.16758305
240	0xbec3b6a2	-0.38225275
241	0xbd24f7f8	-0.040275544
242	0x3e84b5ce	0.25919956
243	0xbd8b51e0	-0.06802726
244	0x3d658168	0.056031615
245	0x3eab1bb0	0.3341956
246	0xbe1084fa	-0.14113227
247	0xbdbfb0bc	-0.09359881
248	0xbe1d4c2f	-0.15361093
249	0xbe75e87a	-0.24014464
250	0x3eaa026e	0.3320498
251	0x3e69f984	0.22849089
252	0xbeb003cc	-0.34377897
253	0xbe8d8bf0	-0.27645826
254	0xbcfe4930	-0.031040758
255	0x3dba251c	0.09089109

fc2.bias f4 [20]
0	0x3e433b97	0.190657
1	0xbe425a7a	-0.18979827
2	0xbd519166	-0.051164053
3	0x3dba5c98	0.09099692
4	0x3e23cd91	0.15996386
5	0x3ded89a1	0.11598516
6	0x3d124af0	0.035715997
7	0xbe3a35b8	-0.18184555
8	0x3e01fa2c	0.12693089
9	0xbd8cb537	-0.068705015
10	0x3e40e019	0.18835486
11	0x3df14a44	0.11781743
12	0x3e10e584	0.14150053
13	0xbd4550b4	-0.048172668
14	0x3c808350	0.015687615
15	0xbd920326	-0.07129507
16	0xbdb1d744	-0.08683637
17	0xbe30d497	-0.17268597
18	0x3e43c0c8	0.19116509
19	0xbe6398d5	-0.2222627

fc3.weight f4 [1, 20, 1]
0	0x3e34747e	0.17622563
1	0xbec6a25c	-0.38795745
2	0xbe0532b5	-0.13007624
3	0xbdce96b9	-0.10087342
4	0xbe83e10f	-0.25757644
5	0x3e9f87a2	0.31158167
6	0x3e72f22e	0.23725197
7	0x3effb70e	0.49944347
8	0xbe0468f5	-0.12930663
9	0x3e0f69dc	0.14005226
10	0x3e10195a	0.14072171
11	0x3f035605	0.5130313
12	0x3e18dee8	0.14928782
13	0x3ef97941	0.48725322
14	0x3ef1852e	0.4717192
15	0x3eaa3a88	0.3324778
16	0x3eb4924e	0.35267872
17	0xbdcbf7d1	-0.099593766
18	0x3cdec481	0.02719331
19	0x3dc669e0	0.09688163
