Task assignment/drl4vrp/vrp/10/19_20_26.716625/checkpoints/16/critic.pt (torch, 29011 bytes, 9 tensors)

static_encoder.conv.weight f4 [128, 2, 1]
00000000: f6a0 1b3e 23ba 48be 2526 203e e0cf 603e
00000010: d0e5 03be 8ab0 8cbd 671b bd3d 309e 1a3e
00000020: 78f6 023e 0428 453e 6d25 513e 57e9 62be
00000030: f14c febd 6fb5 41be f4d7 07be 7b45 d53d
00000040: c055 9e3d 7ed0 4e3e 928d 06be cc98 a53d
00000050: e358 fdbd fc2a 90bc 0668 d43d 843d de3d
00000060: c7d0 c83d 774a efbd 6471 48be 7c37 3fbe
00000070: e4fd 29be 5520 a93d f819 0bbe 638b 923d
00000080: 83d1 f73c 030f 133e 9eaf 1a3e 72fc 3b3e
00000090: bbbd 00be 425c 4c3e 39b2 363e da2c 1fbe
000000a0: 2ff0 253e 785a 09be 8d64 313e 840b fbbd
000000b0: 28af 4abd 8948 08be f8d5 093d b0d1 15bd
000000c0: 769a 35be c787 383e 2f13 acbd f64f 3abe
000000d0: e766 eabd 6541 30be 6aa7 15be 6cce 49be
000000e0: 8f9d 103e 9f9c cebd bb2b bf3d 4682 c03d
000000f0: 1d21 b13d a7e6 c03d e3fa 37bd 8a1b e2bc
00000100: fdd6 dcbc 56f0 dc3b 00ea 48be 4a3c cebd
00000110: dfe6 39bd 9ba0 c8bc 0bc4 133e 059e b83c
00000120: 5b2c 47be e4ef 403e 6933 983d 75d2 08be
00000130: 0329 a8bd a86e 6fbb 6adb 593e adab 06be
00000140: 8305 6abc 5ba3 b0bc eb6c 5abe 89bc 723d
00000150: 258f 0bbc 7d63 d73d 1ddb c83d 4319 cbbc
00000160: 273b 34be db8e 2a3d 3234 383e 9098 023e
00000170: 606d b8bd 189f 1b3e 5d0d 4bbd 3a7d 34be
00000180: 2eb4 6fbc eebc e8bc a189 f1bd a402 1abe
00000190: 4333 01be 7195 a8bd e28d 52bd a25a a83d
000001a0: 9e21 0abe d000 3d3e 89e0 0ebe 1fa4 0ebd
000001b0: b448 1e3d b9d2 ec3c ad2a d63c 9c6c a7bc
000001c0: 6408 a43d d013 833d 4bbe ed3d cb8a 8a3c
000001d0: 7190 50be b641 01be cb4f 063d 1aa8 4b3e
000001e0: 0dc1 4abe 096c bebd fa81 8b3d 685e f93d
000001f0: 3ac0 123d d825 183e a8e6 1f3b 7245 f63d
00000200: cdd5 44be a939 26be 7bcc 76bd bc34 a83d
00000210: 6eea 25bd 2b90 adbd eafc dbbd 902d 54be
00000220: 67f7 1c3e dab8 923d 52e9 d9bd 6059 d6bd
00000230: 9f5b 2c3d c7dc 473e 1a6d 9b3d 3589 c83c
00000240: eb31 213e 85fc 48be a967 39bd 9430 603e
00000250: 3244 f3bd b9e0 073e c89f 64bd 7577 86bd
00000260: 35d0 773c dad2 393c 4cc6 563e 71bb 56bd
00000270: 3cc0 a33d 6885 0abb d941 8cbd 2f71 5f3e
00000280: 4658 46be dfdb b0bd 932a 1cbe a13b 4b3c
00000290: ab20 4b3e c334 fe3d d88e 373d 7cb7 96bd
000002a0: 1dae ac3d 8cff 2cbd d856 69bd 61eb 233e
000002b0: 9f4a 023e 4afd 013e c28a 593e 53fe 113e
000002c0: e23e 033e a3f4 393e 28d1 033e ed16 75bd
000002d0: 8dd3 bc3d 5f2e 21be d304 903d 9613 353d
000002e0: 4480 173e 0ff9 6dbd 7c4b 8fbd dd6b 19be
000002f0: 3ad1 c23d 9470 43be ea85 f6bd 0aeb 243d
00000300: 63f6 57be 03cd 4d3e e73e ba3d eeac 8e3d
00000310: 7807 513e 9b3e 45be 24e9 20be be8f 593d
00000320: 0b60 0f3e 30db ef3d 89cd 4e3d 697b 113e
00000330: d822 653e 08d8 2dbe 3b34 7e3d d779 453e
00000340: 05b4 8a3d 09d9 55be 596e 4b3e 9e0e b2bd
00000350: 3b22 8b3d 445e 78bc 29ef 1d3e ebd1 91bd
00000360: 0dd6 133e 9ed2 20be 0f1c 02be 1312 e9bd
00000370: 8d14 033e 2ef1 283e 2082 453e a686 24be
00000380: 1f70 6e3d 33ef 1bbd c369 3ebd 30b7 39be
00000390: 72d0 1cbb dd72 313e e992 033e 0090 b43c
000003a0: aaa5 12bd e753 5c3e b386 c5bc 1b30 3bbe
000003b0: fc07 0bbe 6d21 0bbe 608e ee3d 0701 373d
000003c0: d088 35be 9cfc 473e 247a 04be 09c2 163e
000003d0: e9db 1dbc d1d2 15be 1e4e 5a3e 92de 0e3e
000003e0: c757 5e3d ecc1 23bc cac3 e63c dd63 383e
000003f0: 2993 243c 3319 1ebe 7b02 59be fe0e 44be
0.1519812 -0.19602256 0.15639551 0.21954298 -0.12880635 -0.0686961 0.09233742 0.15099406
0.12789333 0.19253546 0.20424433 -0.22159325 -0.12417019 -0.18916868 -0.13265973 0.10413643
0.07731199 0.20196721 -0.13139942 0.08085784 -0.123704694 -0.017598622 0.103714034 0.10851577
0.09805446 -0.11684125 -0.19574505 -0.1867351 -0.16600758 0.0825812 -0.13584125 0.07155492
0.03025127 0.14361195 0.15106055 0.18358019 -0.12572376 0.19957069 0.17841424 -0.15544453
0.16204904 -0.13413417 0.17323513 -0.12258056 -0.04948345 -0.1330892 0.033651322 -0.036576927
-0.17734703 0.18020545 -0.084020965 -0.18194565 -0.11445408 -0.17212446 -0.14614645 -0.1970765
0.14122604 -0.10088467 0.09334513 0.09399848 0.08648894 0.094189934 -0.044917 -0.027601022
-0.026957983 0.0067425175 -0.19620514 -0.10070093 -0.04538619 -0.024490645 0.14430253 0.022536287
-0.19450514 0.18841511 0.07431681 -0.13361533 -0.08210947 -0.0036534462 0.21275106 -0.13151427
-0.014283541 -0.021562269 -0.21330611 0.059261832 -0.008518015 0.10517023 0.098074175 -0.02479232
-0.1760069 0.041640144 0.17988661 0.1275351 -0.090052366 0.15197408 -0.04957329 -0.17625895
-0.0146303605 -0.028410401 -0.11793829 -0.1504007 -0.12617211 -0.08231629 -0.05140484 0.08220412
-0.13489386 0.18457341 -0.13952841 -0.034824487 0.038643554 0.028909074 0.026143396 -0.020437531
0.08009413 0.06400263 0.11608561 0.016911885 -0.203676 -0.12622723 0.03279094 0.19888344
-0.19800206 -0.0929795 0.068119004 0.1217621 0.035827853 0.14858186 0.0024398956 0.120249644
-0.19222184 -0.16232933 -0.0602536 0.08213183 -0.040506773 -0.084747635 -0.10741599 -0.20720506
0.15328752 0.07164164 -0.106402054 -0.10466266 0.042079564 0.19517814 0.07589169 0.024479488
0.15741698 -0.19627579 -0.045264874 0.21893531 -0.118782416 0.13269319 -0.05581644 -0.06565753
0.015125324 0.011341775 0.20974082 -0.05242485 0.0799565 -0.0021136645 -0.06848497 0.2182052
-0.19369611 -0.08635687 -0.15250616 0.012404353 0.1983668 0.12412407 0.04481396 -0.073592156
0.08431647 -0.042235896 -0.056967586 0.16007759 0.12723778 0.12694278 0.21244338 0.14257173
0.12816957 0.18159728 0.12872756 -0.059836317 0.092200376 -0.15740345 0.0703217 0.04420813
0.14795023 -0.05809885 -0.069968194 -0.14982553 0.09512563 -0.19085914 -0.12037261 0.040263213
-0.21090083 0.20097737 0.09094029 0.069665775 0.20413005 -0.19262163 -0.15713936 0.0531156
0.14001481 0.117117286 0.050488982 0.14207233 0.22376573 -0.1697694 0.06206153 0.1928476
0.06772617 -0.20883574 0.19866313 -0.08694194 0.06793638 -0.015159193 0.15423264 -0.07120117
0.14437123 -0.15705344 -0.12706016 -0.113804005 0.12800808 0.16498253 0.1928792 -0.1606699
0.058212396 -0.038069915 -0.04648758 -0.18136287 -0.0023927954 0.17328973 0.1284901 0.02204132
-0.03580252 0.21516381 -0.024112081 -0.1828007 -0.13577265 -0.1358697 0.116482496 0.044678714
-0.17727971 0.19529957 -0.12937218 0.14722456 -0.00963495 -0.14631201 0.21318862 0.13952091
0.05428293 -0.009994965 0.028169531 0.18006845 0.010044851 -0.154393 -0.21192352 -0.19146344

static_encoder.conv.bias f4 [128]
00000000: 3a0f de3d 41d7 dfbe cc44 5abe 56e8 0fbe
00000010: ab6d 9e3e ecd4 70be c7e2 a83e 9862 933d
00000020: 8ba6 dfbe e229 7e3e 6ef4 893e d828 313f
00000030: db09 ee3e cab1 d63e 883c 173d 59b2 8dbe
00000040: bc85 f03e 1d3c 093f fc64 253f 167d e63e
00000050: 63a3 9f3e fd30 153f 1990 c2be 391f c7be
00000060: 7dbe 0c3f ba32 843e 5aa3 683e 1cc5 01bf
00000070: 012b abbe 456e 063f 071c a23e 6261 b2be
00000080: 62ea dd3e bddb dd3d e0eb 40be c4c2 0f3e
00000090: fe05 09bf 0045 a3be 306d f93e 63b1 b13e
000000a0: c020 7e3c af5f c53e f191 bc3e 73b7 783e
000000b0: 4824 d33d 7588 55bd d655 26bf 1bef 52be
000000c0: 6dab 093f 00cb d8be e92d bb3e 2300 633d
000000d0: 0538 32bf 1008 803e ad8a 5e3e 8523 8ebd
000000e0: 478f 2fbf 271a 0cbf f6a2 ac3e 7b90 d4be
000000f0: b5a0 ab3e 8e28 113f 163c 18bf 5988 ebbe
00000100: 853b 1c3f 4eae 3ebb f3cd bf3e 3465 ac3d
00000110: 7aa1 9cbe 07b1 26bd 8fab 05bf 430e b6be
00000120: 7575 b0be 0617 81be b99c 1f3f b1eb 3bbd
00000130: e872 b53d 6807 babe 5207 233e 47a1 ffbe
00000140: ea0e 78bd db0c ed3d 5060 3fbe f756 743e
00000150: 6058 1abf f7a4 313f 9644 ebbd 4757 17bf
00000160: 0b9b 1bbd 5c53 c03e 1d66 453e 767e 2abf
00000170: 5071 00be e248 123f 7a29 223f 3c51 e1be
00000180: e277 26bf b759 a2bd 68f0 d03e f6fc 0f3f
00000190: 40b1 1c3f a821 a1bb d0cb 26bf 72ad ce3e
000001a0: b15f 30bf 6ee1 303e ea8b 523e c0ae 0a3e
000001b0: 9760 003f ea78 debe 6047 323f b70a 1cbf
000001c0: 04b2 1d3f b68d 9fbe a7a7 02be 2421 fe3d
000001d0: 97bd fa3e a437 e1be ebf6 00bd 1e50 b43e
000001e0: 8091 a63d dd78 02be 5a03 213f 0d35 be3e
000001f0: 038f dc3e 00c4 b43e 936c 10bf 0bc2 86bd
0.10842748 -0.43718913 -0.21315306 -0.14053473 0.30943045 -0.23518723 0.32985517 0.0719654
-0.4368175 0.24820665 0.26944298 0.6920295 0.46491894 0.41932517 0.03692296 -0.2767513
0.4697703 0.5360735 0.64607215 0.45017308 0.31179342 0.58277875 -0.38000563 -0.38891008
0.5497816 0.2581995 0.22718564 -0.5069139 -0.33431247 0.5251201 0.31662008 -0.34839922
0.43342882 0.108329274 -0.18839979 0.14039141 -0.5352477 -0.3188858 0.48716116 0.34705648
0.015510738 0.38549563 0.36830094 0.2428873 0.103096545 -0.05213209 -0.64974725 -0.20599024
0.537772 -0.42342377 0.36558464 0.055420052 -0.6961673 0.2500615 0.21732588 -0.069403686
-0.68578 -0.54727405 0.3371808 -0.4151648 0.33521047 0.56702507 -0.59466684 -0.46002463
0.6102832 -0.0029095593 0.37461814 0.084177405 -0.30591947 -0.04069617 -0.522149 -0.35557756
-0.34464613 -0.25212878 0.62348515 -0.04587907 0.08859807 -0.36333776 0.15920761 -0.49927732
-0.0605611 0.115747176 -0.18689084 0.238613 -0.602911 0.6939234 -0.11487691 -0.5911755
-0.037989657 0.37563598 0.19277234 -0.66599214 -0.12543225 0.5714246 0.6334454 -0.4400729
-0.65026677 -0.07927268 0.40808415 0.5624536 0.6120796 -0.004917342 -0.65154743 0.40366703
-0.68896013 0.17273495 0.20561185 0.13543224 0.50147384 -0.43451625 0.6964016 -0.6095385
0.61599755 -0.31162804 -0.12759267 0.12408665 0.4897277 -0.43987763 -0.03148548 0.35217375
0.08133221 -0.12741418 0.6289574 0.3714985 0.4307786 0.35305786 -0.5641567 -0.065799795

dynamic_encoder.conv.weight f4 [128, 2, 1]
00000000: 62c1 313e 91fe 22be 0b55 01bc 81fc aa3d
00000010: 2392 5c3d e81a edbd 2f11 bb3d 8101 b93c
00000020: ab83 053e a362 e8bd 2c02 ed3d 967d 3a3e
00000030: e165 733d 6a82 473e 682e 98bd 3534 633e
00000040: a98e 933c 8de8 1c3e 6c5a aabd 942f cb3d
00000050: 2c9d 0ebe 3149 42be eb48 36be a30e 28be
00000060: 5389 823d 80ab fe3d f471 2abe ab70 143e
00000070: ebb7 2abe 8ac1 233e f1ac 113e 289b 20bd
00000080: aef2 093e d621 653d 2a11 f43d c8f5 39be
00000090: f828 49be 2895 573e 7047 9cbd 6252 3bbe
000000a0: ffb7 cfbd 5c85 c73d 8d53 113e 7773 f83d
000000b0: 133e 683b d6cd f7bd 549f 95bd 87ab 3fbe
000000c0: ed5c c93d a832 edbd 993a 01be c2e7 48be
000000d0: 1e86 893d badb 573e 86f7 293c 1e87 07be
000000e0: c643 243e 38af b2bd 08dc 2e3e 64bb a8bc
000000f0: e8ab a6bd ed85 283e 3bc6 8dbd 61b9 38be
00000100: 2853 2d3e 31a8 b73d 7597 223e a837 91bd
00000110: 3195 3cbe fc2a c9bd d0e6 1a37 56e2 983d
00000120: f795 2d3e 2769 ff3b 3dc6 c53b a2de 813d
00000130: 71bd 6cbd be92 503e 646f 68bd 0347 c1bd
00000140: 371c cbbd acad 123e 0659 443e 476c 7f3d
00000150: 9c5e 1abe 2f73 093e ef4a 3e3e 95d8 033e
00000160: eef9 20be 7ec7 333e 9e25 0bbe 7276 52be
00000170: b338 003e 13e9 d1bd b412 1c3e c55b 74bd
00000180: f32c d73c ecb9 0d3c 3555 2c3e aa5b 3abe
00000190: 6640 0dbd ad64 0d3e 6146 41be 68d8 14be
000001a0: 3951 1dbe ced0 d63c 1535 003e 892f c8ba
000001b0: 3455 4b3e 909e 09be 7974 e53d 1755 9bbc
000001c0: af07 06bd 6c72 3e3e 5022 4ebe ce18 46be
000001d0: dd53 83bd 51d3 72bd 4017 f43c 7592 27be
000001e0: 8e70 603e 4deb 8c3d 0ca5 98bb 8a7f c3bc
000001f0: 4240 a0bd b609 3fbe b4ad 5bbe 8f99 70bd
00000200: ffd9 53be 60e8 293e 60fd 2cbe c403 3cbe
00000210: 8ecc bd3d ad1e 5a3e 45c4 3d3e 5a1f 923d
00000220: b140 273d 92a7 a1bd f23e 163e feb2 223e
00000230: 7d2d 5d3e d584 71bb 74a8 383e 1bfb 37be
00000240: e8b4 ca3d c7ce 213e c07f 633d 3b39 0a3c
00000250: 2a78 d73d 184b ab3d 2d85 acbc acaa 3bbe
00000260: a68c 2ebe 12ff adbd fcb0 433e a96c 5c3d
00000270: 75b5 063e 3669 613e 90b2 1b3e 10eb 693d
00000280: 68e0 e4bd 56b8 8bbd 938a 143e 336a 95bd
00000290: 3c19 9bbc 9b67 2cbe 3c6c 293d dad5 fdbc
000002a0: b829 493e 84a4 8bbd b6d4 b2bd 8e37 8b3d
000002b0: bccc 073e 8852 22be eed4 203e 6a22 20be
000002c0: 4dee 5d3d dea5 82bd 1e51 ab3d d014 3a3e
000002d0: 3f49 5cbe a1fe 3abe f3a2 3ebd 5e7d f43d
000002e0: 2285 3f3e 7382 e93d af60 cfbc 7310 eebd
000002f0: dd91 063e df8b 363e 6a5f 193d 0169 633c
00000300: 54e1 35be 392c bb3d b868 a53c 84f6 c6bd
00000310: c259 afbd d45f c6bc 59ec 9abd 4dd6 f2bd
00000320: 1d5b 11be 4183 893d 2096 c4bd b233 4a3e
00000330: 7b26 133e 5930 0bbe b3b1 d13d b205 2ebe
00000340: 4e97 4fbe 2c55 b23c c09d b03d a7e2 8bbd
00000350: 0c06 45be b635 43be 00fc 123e 9bcd 3c3d
00000360: 4701 3fbc d702 92bd 718e e2bd 8377 9a3d
00000370: 6d27 bcbd 7743 593d 0265 a7bd 7749 95bd
00000380: 2c6c 0a3e aa48 603d 668e 3bbe b7a1 953d
00000390: df86 4fbe 6d61 dfbc d83e cf3c 0360 003e
000003a0: 4907 4c3d 301b 023d 5162 c0bd 5361 b83d
000003b0: 620f 4dbd b21e 15be 8c77 a83a 0696 60be
000003c0: 505f 0e3e 33dc 08be 90f6 343e 8929 323e
000003d0: 42ee a73d 688f 313e f77f 3f3e 710f 163e
000003e0: 25a1 52be 29f2 c1bd eea0 b1bd b6a1 f43d
000003f0: dd6e bb3d e347 43be 18ff c43d 2620 393e
0.17358926 -0.15917422 -0.007893811 0.083489425 0.053850304 -0.115773976 0.09134137 0.022583725
0.13038509 -0.113469385 0.1157268 0.1821197 0.05942333 0.19483343 -0.07430726 0.22187884
0.018012362 0.15323086 -0.08318028 0.09921184 -0.13927144 -0.18973233 -0.17801253 -0.16411833
0.06373849 0.12435055 -0.16645032 0.14496104 -0.16671722 0.15991798 0.14226128 -0.03921047
0.13471481 0.05594047 0.11917336 -0.18160164 -0.19644535 0.21052992 -0.07630813 -0.18293145
-0.10142516 0.09742233 0.14192028 0.12131398 0.003543739 -0.12099807 -0.0730578 -0.18717776
0.09832177 -0.115819275 -0.1262001 -0.19619659 0.06715034 0.21079913 0.010373956 -0.13235137
0.16041479 -0.087248266 0.17076123 -0.020597167 -0.08138257 0.16457339 -0.06922575 -0.18039466
0.16926253 0.08967627 0.15878089 -0.07090694 -0.18416287 -0.09822652 9.2328555e-06 0.07465045
0.16951738 0.0077945176 0.0060355947 0.06341292 -0.057797853 0.20368478 -0.056746855 -0.094373725
-0.09917491 0.14324063 0.19174585 0.06235912 -0.15075153 0.13422845 0.18583272 0.12875588
-0.1572034 0.17556569 -0.13588569 -0.20552996 0.12521629 -0.102495335 0.1524151 -0.05965783
0.02626655 0.008650284 0.16829379 -0.1819903 -0.034485243 0.13807936 -0.18874504 -0.14535677
-0.15363015 0.026222613 0.12520249 -0.0015272956 0.19856721 -0.13439393 0.11203856 -0.018961472
-0.03272217 0.18598336 -0.20130277 -0.193454 -0.0641248 -0.05928356 0.029796243 -0.16364463
0.21917936 0.068808176 -0.004658347 -0.023864526 -0.07824756 -0.18656048 -0.21452981 -0.058740195
-0.20688628 0.1659255 -0.1689353 -0.18360811 0.09267531 0.21300764 0.18531902 0.07134886
0.04083318 -0.078932896 0.14672449 0.15888593 0.21599384 -0.0036852856 0.1803301 -0.17966883
0.098977864 0.15801536 0.055541754 0.008436496 0.10520966 0.08363932 -0.021059597 -0.18326825
-0.1704584 -0.084959164 0.19110483 0.053814564 0.13155158 0.22012791 0.15204835 0.05710894
-0.111756146 -0.06822269 0.14505987 -0.072956465 -0.018932931 -0.16836397 0.041362986 -0.030985761
0.1964482 -0.06818488 -0.08731978 0.067977056 0.13261694 -0.15851796 0.15706226 -0.15638128
0.05418234 -0.06379293 0.08365081 0.18172002 -0.21512316 -0.18261196 -0.04654212 0.119379744
0.1870313 0.11401834 -0.025314657 -0.11624231 0.1314158 0.17826794 0.03744451 0.013880015
-0.17761737 0.09139294 0.020191535 -0.09714988 -0.08562042 -0.024215616 -0.07564611 -0.11857281
-0.14194913 0.06714488 -0.095989466 0.19746283 0.14370148 -0.13592662 0.102389716 -0.1699436
-0.20272562 0.021769129 0.086238384 -0.0683034 -0.19240588 -0.19063458 0.14353943 0.04609452
-0.011658019 -0.07129448 -0.11062325 0.07542326 -0.09187207 0.053042855 -0.081735626 -0.07289403
0.13517827 0.054756798 -0.1831604 0.07306235 -0.20266293 -0.027268136 0.02529852 0.12536626
0.049811635 0.03176421 -0.09393752 0.09002938 -0.0500635 -0.1456249 0.001285301 -0.2193223
0.13903546 -0.1336525 0.17672181 0.17398657 0.08199741 0.17339861 0.18701158 0.14654328
-0.20569284 -0.094700165 -0.08673273 0.119449064 0.09152005 -0.19070391 0.09618968 0.1807867

dynamic_encoder.conv.bias f4 [128]
00000000: 7010 6a3e d393 21bf 20c2 923e 0f1e 42bd
00000010: 1786 d7bd 32b5 b33e 327e 2bbf b879 a03e
00000020: 0e58 78be e05b f8be 4ab0 c13e 7df3 103e
00000030: ad31 e13e fdf1 cc3e b33a 01bf 697d b2be
00000040: de4b aa3d a26e 09bf f030 2bbf 5c3c 133f
00000050: 978b a8be 5eb3 b7be d65f d13e f3c3 27bf
00000060: fecf 65be fb68 07bf 7620 9cbe 72d7 103f
00000070: eba1 db3d f0ce 42be c658 49be 4609 54be
00000080: c3ca 383e 7e95 0abf f7eb 873e 9b8b 9dbe
00000090: cd5d 0f3f 1221 75be 0962 4c3d a3c3 1f3e
000000a0: 5946 2e3e 859a 6cbe 74a0 173f dc73 ad3e
000000b0: fc06 1a3f 5918 8cbe 9658 cc3e 17d7 11bf
000000c0: f386 5c3e d33e b43e 520f 093f f292 dabe
000000d0: e6e8 b4be 748d 1fbf 41d0 77be 7da1 aabe
000000e0: 23ea e2be ff93 1cbf 084e 263f b6be 2abe
000000f0: e886 443e e39d 203f cf18 b0bd 86f5 843e
00000100: 3046 8e3e 7cca f93e 8b2f f43e d6ca f03e
00000110: ce6f adbd 7bb6 263f b77e 28bf cfee 8abe
00000120: 1ff0 073f 7e97 2ebf 296b 22bf 817b 313f
00000130: 32e8 0b3e 47cf fb3d 0a3f f33e f373 91bd
00000140: 8391 143f 3e72 03bf 3534 53be 4e7a edbe
00000150: a410 b2bd 16ad f83d 0b70 b2be b15c 22bd
00000160: 59c7 b43e ee54 933e 151b 083f 6cd2 ef3e
00000170: 6cdf abbc 1240 c9be c9c3 32bf 9d52 693c
00000180: 3965 ba3e b70c a43d c9cd a9be 506f 603e
00000190: 9625 fc3e bfb1 8e3e e91a e53d 2d4f 1f3f
000001a0: 3618 9d3d e303 c2be 61b6 0ebf 5e0a 23bf
000001b0: 7b33 e3be d10d ad3e 09bb 29bf 4371 d43e
000001c0: a02a f73d 0005 7cbe c147 4d3e 177e 1cbe
000001d0: eed8 d33e 529b 0fbf 064f 2bbf aa1e 4a3d
000001e0: fc1e 0fbf bd66 203f 48d7 0fbf 1cf2 db3e
000001f0: 45ae b9be feb9 a7be 149b f5bd ad3d 0f3e
0.22857833 -0.63116187 0.2866373 -0.047391947 -0.105236225 0.3509918 -0.66989434 0.31342864
-0.2425234 -0.48507595 0.3782981 0.14155383 0.43983212 0.40028372 -0.5048019 -0.34861305
0.08315252 -0.5368444 -0.6687155 0.57513976 -0.32919 -0.35879034 0.4089343 -0.6553337
-0.22442624 -0.5289456 -0.30493516 0.56578743 0.10724243 -0.19024253 -0.1966277 -0.20706663
0.18046097 -0.54134357 0.26547214 -0.30770573 0.56002504 -0.23938397 0.04989818 0.15601973
0.17019023 -0.2310582 0.5922921 0.33877456 0.6016691 -0.27362326 0.39911336 -0.56968826
0.21535854 0.3520418 0.53539 -0.42690235 -0.35333937 -0.62325215 -0.24200536 -0.3332633
-0.44319257 -0.61163324 0.64962816 -0.16674313 0.19192088 0.62740916 -0.08598482 0.2596857
0.27787924 0.48787296 0.47692522 0.47029752 -0.08468591 0.65122193 -0.6581835 -0.27135321
0.5310077 -0.6819991 -0.63444763 0.69329077 0.13662794 0.122953944 0.47509032 -0.07102194
0.58034533 -0.51346195 -0.20625384 -0.46382374 -0.0869458 0.121423885 -0.34851107 -0.03963918
0.3530834 0.28775734 0.53166324 0.46840227 -0.02098056 -0.39306694 -0.69829994 0.014240888
0.36405352 0.08010238 -0.33164814 0.21917462 0.49247426 0.27869985 0.11186773 0.6223019
0.076706335 -0.3789359 -0.5574704 -0.63687694 -0.44375214 0.33799604 -0.6630102 0.41492662
0.12068677 -0.24611282 0.20046903 -0.15282474 0.41376442 -0.56096375 -0.66917455 0.04934565
-0.55906653 0.62656766 -0.5618787 0.42958152 -0.3626577 -0.32759088 -0.119924694 0.13988371

fc1.weight f4 [20, 256, 1]
00000000: 4e27 12be d29a c73d f8e2 833d 8c47 e2bd
00000010: 7edd d13d 9cac 243d 6872 fcbd e449 b2bd
00000020: f61a d13d 201e 04be 86f3 063e 33fd c0bd
00000030: 6c73 043e 09e2 a3bd fa37 0d3e 441e 083d
00000040: 00b4 67bb 40b8 e0bb a29c aebd 56aa 8fbd
00000050: 4cbd 003e 385b bb3d e693 b03d 12cb 963d
00000060: 6a65 c5bd bee5 c73d 26ce debd b466 a5bd
00000070: c0b7 04bd 4098 333b 0e28 28bd a874 813d
00000080: bc8c 133e 2e45 a63d 20eb b23b cacb b2bd
00000090: 552f 8abd 206c a1bb 701d 143e c360 abbd
000000a0: 79ae bcbd 6075 ef3d 8094 12bb d286 ae3d
000000b0: bc89 dbbc ca1b 163e 7cbc 55bd c2d6 48bd
000000c0: f0a0 ccbd 681e ecbc c629 c4bd 6ee1 0b3e
000000d0: 1c7e f03d a8c5 f7bd 3c2c 133d 4c2f 6fbd
000000e0: 2f19 0abe a09e 683d 8c16 fc3d 14ec c93d
000000f0: 8c71 0d3d b42b 073e 590d 93bd ac1c abbd
00000100: 5f82 f6bd 14b0 f6bc 582e b3bc 2424 46bd
00000110: 5292 013e a894 83bc 102d 713d a44f e73d
00000120: 0c36 d7bd ac34 0a3d 49a6 d0bd 4652 c93d
00000130: 7c06 4cbd 3c9f 083e 0827 ff3d 8062 81ba
00000140: d69c 43bd 2a6f 77bd ddac eabd 9490 e7bc
00000150: 3c1c f53d 584f 0f3e 2ae2 0bbe fb98 16be
00000160: 475d 01be 5cf1 513d 86d7 cb3d 0328 84bd
00000170: 74d5 ef3d ec0f a03d 1063 5a3d dc2c d9bd
00000180: 7472 c13d f20b 8d3d 80d4 a03a d06b 553d
00000190: 33a6 abbd 0439 78bd d0c8 d73d 9039 0bbe
000001a0: c0cc 0ebe 80e7 ea3b 62e5 b03d e28a b53d
000001b0: 500e 4e3d 5009 4f3c dc92 8c3d e0b5 7ebd
000001c0: 4ec6 43bd 2c3f e9bd c41b 023e 6430 6f3d
000001d0: 802a 3d3b 5c9f c33d 42fa 0a3e c426 873d
000001e0: 9e73 113e 2cef d83d 14f1 223d dc8c 113d
000001f0: a635 9cbd 60cb 80bc 8642 afbd 2af7 03be
00000200: 18dd e03c 40fb 09bb aa98 1ebd 1cc3 163d
00000210: c0b4 ca3c 5663 083e d473 7f3d d81a 043e
00000220: 201a 0c3e 88d9 9e3d 109d f43d 74e3 f1bd
00000230: 0c33 1a3d fc4e de3d 58c6 0f3e aebf 53bd
00000240: 2363 e7bd 742d 78bd 7ca8 103e 86a0 d3bd
00000250: 78de 533d 3ca7 0b3d 80ed 903a 2800 bb3d
00000260: 4caa 883d 9adb 8c3d c08f ce3c 10a2 893c
00000270: 68c6 b1bc 08cf e73d cc4f 06bd 6cd0 01be
00000280: 6457 8f3d 5c6d db3d 0833 953c 34c9 efbc
00000290: d030 8e3d 309b 0f3e 4012 f0bd 6e4e 61bd
000002a0: f031 10bd 48f5 3d3d 3a39 b73d ad52 9abd
000002b0: 87b3 82bd 6400 613d e794 c5bd 60a0 c33b
000002c0: 3865 123e 04da 7e3d 8cbc 0abe 5141 8ebd
000002d0: c4a5 0c3d 40f7 c13c 4a1d 013e 104d 8bbc
000002e0: bcfe 0abd 6c40 103e 1044 a0bd b439 df3d
000002f0: 2f5a 13be 0020 d1b7 b872 8fbc 47cc d5bd
00000300: 64c5 093e e037 b6bc 544a ffbd b215 ccbd
00000310: 6075 8c3d 486f 833c 80d1 633b d205 d03d
00000320: 781a fbbd 5039 00bd 4893 b13c c6f3 3ebd
00000330: 8ac7 eabd 40fe c43b b184 f7bd 70f0 d73c
00000340: 60a6 cb3c 24f5 2f3d c00e 28bc 8850 b5bc
00000350: 941c ee3d 3c48 d7bd 1092 0f3e 5e33 02be
00000360: 92f4 20bd c0a8 97bc 00b6 863d 0a47 dbbd
00000370: b06c edbd 2425 cf3d aead 99bd cacd 0ebd
00000380: 821c 123e 3245 10be e086 e23d 16cf f2bd
00000390: c8de c23d 14c7 163e acbc cd3d b607 40bd
000003a0: 53a0 02be e096 333d fe40 fbbd b8e6 2dbd
000003b0: c06d acbb a4ca a83d 4500 14be 7eae 9bbd
000003c0: 60d2 4b3d 5807 ea3d af89 0dbe 96c8 0bbe
000003d0: cacf 89bd fb50 80bd 98c7 b83d 243d c93d
000003e0: e05c 8fbd e90e d4bd 54e3 e7bd ac1a 5cbd
000003f0: 0cab 573d dc0f dfbc 971b 82bd 6c6e 743d
-0.14272806 0.097463265 0.06439775 -0.11048803 0.102473244 0.040203676 -0.12326509 -0.087055
0.102102205 -0.12902117 0.13178834 -0.09423294 0.12934655 -0.08002097 0.13790885 0.03323199
-0.003535509 -0.006857902 -0.08525969 -0.07014911 0.12572211 0.09148258 0.086219594 0.07362951
-0.09638484 0.09760617 -0.108791634 -0.0807623 -0.0324018 0.002740398 -0.041053824 0.063210785
0.14409155 0.08118664 0.005460158 -0.08730276 -0.06747309 -0.0049262196 0.14464355 -0.08368065
-0.092129655 0.116923094 -0.0022366345 0.08521809 -0.026799075 0.14659038 -0.052181706 -0.049032934
-0.09991634 -0.028823093 -0.0957828 0.13660213 0.117428035 -0.12098247 0.035930857 -0.058394715
-0.1348617 0.0567919 0.12308988 0.098594815 0.034532115 0.13200265 -0.0718028 -0.08355078
-0.12036585 -0.030113257 -0.021872684 -0.04837431 0.12653473 -0.016062096 0.058880866 0.11294487
-0.105083555 0.033741638 -0.101879664 0.098301455 -0.04981087 0.13341993 0.124586165 -0.0009871274
-0.047756992 -0.06040875 -0.11458752 -0.028267182 0.11968276 0.13995111 -0.13660493 -0.14706795
-0.12633239 0.05125557 0.09953217 -0.06452944 0.11710635 0.07815537 0.05331713 -0.10604259
0.09445658 0.06887044 0.0012270361 0.05210477 -0.08381309 -0.06060125 0.10536349 -0.13596177
-0.13945293 0.00716871 0.08637501 0.088643804 0.05030662 0.012636498 0.06863949 -0.06218517
-0.04779654 -0.11389002 0.12705904 0.05839576 0.0028864443 0.0955188 0.13572028 0.06599191
0.1420426 0.105924934 0.03978069 0.035534725 -0.0762742 -0.015721977 -0.0855761 -0.12887254
0.027449176 -0.0021054298 -0.03871981 0.036807165 0.024744391 0.13319144 0.06236632 0.12900865
0.13681841 0.077563345 0.1194402 -0.11810961 0.03764634 0.10854909 0.14040506 -0.051696472
-0.11298206 -0.060590222 0.14126772 -0.10333352 0.051725835 0.034095034 0.0011057109 0.09130889
0.066731066 0.06877823 0.02521503 0.01680091 -0.021701053 0.11318785 -0.032790944 -0.12677163
0.0699909 0.10714218 0.01821281 -0.029270746 0.06942904 0.14024043 -0.11722231 -0.055006437
-0.035203874 0.046376497 0.08946462 -0.075353004 -0.063818984 0.054932013 -0.096475415 0.005970046
0.14296424 0.062219635 -0.13548487 -0.06946052 0.034337774 0.023677468 0.12608829 -0.01700452
-0.03393434 0.14087075 -0.07825482 0.10899678 -0.14389871 -2.4929643e-05 -0.017510757 -0.104393534
0.13454205 -0.02224344 -0.12465349 -0.099650756 0.06858325 0.016044274 0.0034762323 0.1015736
-0.12260908 -0.031304657 0.021676674 -0.0466192 -0.1146384 0.0060117543 -0.12085856 0.026359767
0.024859607 0.042958394 -0.010257423 -0.022133127 0.116265446 -0.105118245 0.14020562 -0.12714908
-0.03929574 -0.018513083 0.065776825 -0.10706909 -0.11592996 0.10114506 -0.0750383 -0.034864224
0.14268687 -0.14088896 0.110608816 -0.11855905 0.095151484 0.1472438 0.10045752 -0.046882354
-0.12756471 0.043845057 -0.12268256 -0.04245636 -0.0052621067 0.08241776 -0.14453228 -0.07601641
0.049761176 0.11427182 -0.13822053 -0.13650736 -0.06729086 -0.06265446 0.090224445 0.09826115
-0.070001364 -0.103544064 -0.11322656 -0.053736374 0.052653357 -0.027229242 -0.063529186 0.05967562

fc1.bias f4 [20]
00000000: 6426 f8bc 1aa5 bfba 6866 58bc 4624 31bd
00000010: 2c03 89bc b560 4ebc ccbb 54bd c45a a7bc
00000020: ce3a ef3c 37af c4bb 241d e6bc 0013 3d3d
00000030: 020d 14bd 0f0a 73bd 18c1 183c 2fa2 ddbc
00000040: 94c9 783d f1a5 86bc ef3f 4b3c 90b9 a5bc
-0.030291744 -0.0014621348 -0.013208009 -0.043247484 -0.016725145 -0.012596299 -0.05193691 -0.020429023
0.029202845 -0.0060023325 -0.028090067 0.046160698 -0.036145218 -0.059335764 0.009323381 -0.027054874
0.060739115 -0.016436549 0.01240538 -0.020230085

fc2.weight f4 [20, 20, 1]
00000000: 40e0 37bc 7d50 c6bc 580a 603e 1741 523e
00000010: 00d5 afbb 2a5a 473b 149b 1e3e 63a5 33bd
00000020: 2b14 b8be 17a8 033e ce52 48be edc4 a5be
00000030: 33ea 31be 8203 53be 7c02 443e 5d6f b73d
00000040: 6cda 87bc 0166 c63e 6612 ae3d 1f1b 5abe
00000050: 4c91 9a3e 5f63 58bd f8ad 113e 6220 23be
00000060: 1c60 a43d aa71 a13e 16ac 6cbd 9f40 1ebd
00000070: 1e93 223e ef6b 433e 4237 9ebe a4e2 91be
00000080: ed9d 4dbe 41f2 1c3e 3a6c b23e c8da 70bd
00000090: 3133 c5be 2979 363e 4909 783e 089e 353e
000000a0: 20d1 4c3e b465 f33d 77bf c2be 4f23 a33e
000000b0: 73f3 90be 6580 9dbe 0200 983d 4751 eb3b
000000c0: 6573 7bbe 3da8 99be 3b7e 4ebe 0971 7ebe
000000d0: 4c59 e03d deb8 95be 808e 96bd cb5e 4d3d
000000e0: 5934 b13e bfde a53e e013 003e 0036 e8ba
000000f0: b4cd c23e 1f1b 8b3e 747c 0abe 4eee a83d
00000100: 6668 a43e d522 5f3e 4d75 8fbe ecbd 813d
00000110: 972b c3bc 42ad 943e b8f8 e0bd 7933 35be
00000120: ac47 8ebd e9b5 c5bd 08e7 8bbd 72c7 bd3e
00000130: 3c2a ffbd 1985 5cbe 95e5 7f3e 9455 c43e
00000140: b82e 463e 716c 7dbd 78ef 1c3e 1d66 dcbd
00000150: d00f 79bd f8a5 06bd e8af 08be 6836 473e
00000160: f93c bdbd 6e8a 973e 1010 e53c 4ef7 b83e
00000170: 646e 99bd d6b8 a83e b00c e8bc cd64 ae3d
00000180: ee72 1fbe 292c bfbe 5bf8 1f3e e811 213e
00000190: 6847 3f3e 4164 ddbd bcd6 643e 92df e3bc
000001a0: e47e b43e 8d26 25be c16f 763e 02f5 cc3c
000001b0: 87c5 dbbd 4405 053e ec78 af3e 323c ba3e
000001c0: 04c5 c13e d131 acbe 6472 913e e6af 473e
000001d0: f85c c53e 8ee7 903c 6fe1 70be 9067 fb3d
000001e0: 5a51 bc3e e978 5d3e 609c 8ebc 81fd a8be
000001f0: dc21 703e 227c a2be db36 6fbe 26f6 603e
00000200: 432f 6dbd 323a a5be b61c 67be 307e a83c
00000210: 6426 343e 7955 0cbe 2cec 2a3e daaa 9a3c
00000220: deae 073e 43f8 133d 959a 0a3e 8039 843e
00000230: cc69 a93d 304b a13e 201c bb3e f002 a33d
00000240: 24d9 b03d 705e 5dbe acc0 a43e 6863 b6bd
00000250: 3820 9f3e d0ca 463d 88a2 873d 0031 9fbb
00000260: a0cc d03d 84ff 4a3e 8376 94be 9565 72be
00000270: 9f53 96be 0854 88be 26ec 1dbe 18cf c43e
00000280: 8ad5 af3e 8c20 b5bd 20ef 633e 7211 c4be
00000290: 30e0 ba3e 2512 febb 4f00 d9bd d1af 603e
000002a0: f9ef 1c3d 9430 48be 1017 e53c 883b a03e
000002b0: d029 79be e4aa ae3e 3490 b7be 9191 c3be
000002c0: 701c d4bd 850f 9c3e e1be 663d b8c9 f9bd
000002d0: 9421 d53d dbba c53e a899 873e 2a9b 73be
000002e0: 209d 2c3e fae9 a6be a0d8 96be e7b2 6a3e
000002f0: cfcb 42bd b569 3b3e 9006 6abe 7769 52be
00000300: bc62 6c3e 838d 16bd b479 b83d 063f 3abe
00000310: eb63 163e 33cd 7b3e d3f8 9cbe 4af1 30be
00000320: 2017 4bbc 3052 513d b5b7 83be 6edd 733e
00000330: 6c2c 7c3e 263b bfbe 2be5 8e3e e15b 9cbd
00000340: ac1b 2d3e d771 bf3e d010 82bc 0435 1e3e
00000350: 905a 4d3e 4833 c3be dade b8be d52a a63e
00000360: 8667 c23d 455d 9d3e 1a42 d1bd f06d bb3c
00000370: 9cc9 8ebd 472d 80be 2403 03be 186a a8bd
00000380: 2021 183e d0c9 d7bd 7a84 90be ae08 36be
00000390: fab3 42be 1c52 a6be f0f3 8a3e fcf7 a0bd
000003a0: 1240 b83e fc9a 99bd 78cf 15be e4c2 b3be
000003b0: 302e 363e f498 8dbd 6410 463e e49a 2b3e
000003c0: a2b6 c3be f8f7 24bd ceb5 843e e051 8bbd
000003d0: 6881 653d b01b ab3e fa84 10be bcb0 bfbd
000003e0: 2f4c 1dbe 7ae8 75be 6e02 aa3e 84f9 693e
000003f0: cc03 b0be f08b 8dbe 3049 febc 1c25 ba3d
-0.011222899 -0.024208302 0.21878946 0.20532642 -0.0053659678 0.0030418732 0.15488845 -0.043858897
-0.35952887 0.1285709 -0.19562837 -0.32376805 -0.17374496 -0.20606807 0.19141573 0.08956788
-0.016583644 0.38749698 0.08499603 -0.21299408 0.30188978 -0.052829143 0.1422652 -0.15930322
0.08026144 0.3153203 -0.0577813 -0.038635846 0.15876433 0.19084142 -0.30901533 -0.28493226
-0.20079775 0.15326788 0.34848195 -0.058802396 -0.38515618 0.17819656 0.24222292 0.17736065
0.2000165 0.11884633 -0.380367 0.31862876 -0.28310737 -0.3076202 0.074218765 0.00718132
-0.24555738 -0.30011168 -0.2016534 -0.24847807 0.10954532 -0.29242605 -0.073513985 0.05013923
0.3461025 0.32396504 0.12507582 -0.0017716289 0.38047564 0.2716913 -0.13524038 0.08248578
0.321109 0.21790631 -0.2801918 0.06335053 -0.023824496 0.29038435 -0.10984939 -0.17695417
-0.06947264 -0.09653837 -0.06831175 0.37066227 -0.124592274 -0.21535148 0.24989922 0.3834654
0.1935376 -0.061870996 0.15325725 -0.10761664 -0.060806096 -0.032873124 -0.13348353 0.19454348
-0.09240145 0.295978 0.02796176 0.36126179 -0.074917585 0.3295352 -0.028326362 0.0851532
-0.15571186 -0.3733838 0.15622084 0.15729487 0.18679583 -0.108101375 0.2234754 -0.027816568
0.3525306 -0.16127987 0.24066068 0.025019173 -0.10731035 0.1299029 0.34271944 0.3637405
0.37845623 -0.33631757 0.28407586 0.19500694 0.38547492 0.017688539 -0.23523496 0.12275612
0.36780816 0.21628155 -0.01740855 -0.33005908 0.23450416 -0.3173533 -0.2336077 0.21968898
-0.0579064 -0.32270962 -0.22569546 0.020567983 0.1759277 -0.1370448 0.16691655 0.018880296
0.132503 0.036125433 0.13535531 0.2582512 0.08272132 0.31502676 0.36544895 0.07959545
0.08635166 -0.21618056 0.32178247 -0.08905679 0.31079268 0.04853326 0.06622797 -0.004858136
0.10195279 0.19824034 -0.28996667 -0.23671563 -0.29360673 -0.2662661 -0.15422115 0.3843925
0.34342605 -0.088440984 0.22259188 -0.3829456 0.36499166 -0.007753628 -0.10595762 0.21942069
0.038314793 -0.19549781 0.027965099 0.3129542 -0.24332356 0.34114754 -0.35852206 -0.38196996
-0.103569865 0.3048059 0.05633438 -0.12196678 0.10406795 0.38619122 0.26484418 -0.23789659
0.16856813 -0.32600385 -0.29462147 0.22919808 -0.04755765 0.18302043 -0.22854066 -0.20548044
0.23084539 -0.03675605 0.09007588 -0.18188104 0.14686553 0.24589996 -0.30658588 -0.17279544
-0.01239565 0.05110377 -0.25726095 0.23814937 0.2462632 -0.37349814 0.27909216 -0.07634712
0.16905087 0.3739154 -0.015877157 0.15449911 0.20054078 -0.38125062 -0.36107522 0.32454553
0.09492402 0.30735222 -0.10217686 0.02287957 -0.06972048 -0.25034544 -0.12794167 -0.08223361
0.14856386 -0.105365396 -0.28226072 -0.17776749 -0.19013968 -0.3248452 0.27139235 -0.07859799
0.35986382 -0.07500264 -0.14629924 -0.35109627 0.17791057 -0.06913939 0.1934219 0.16758305
-0.38225275 -0.040275544 0.25919956 -0.06802726 0.056031615 0.3341956 -0.14113227 -0.09359881
-0.15361093 -0.24014464 0.3320498 0.22849089 -0.34377897 -0.27645826 -0.031040758 0.09089109

fc2.bias f4 [20]
00000000: ea84 433e db77 42be b7fd 52bd 19e7 b93d
00000010: 9eb1 233e 4337 ee3d e877 133d b835 3abe
00000020: f7a0 013e 6e26 8cbd a427 413e 444a f13d
00000030: 84e5 103e 2c18 44bd 5083 803c 2603 92bd
00000040: 44d7 b1bd 5f11 31be efe4 433e d598 63be
0.19093671 -0.18991034 -0.051511493 0.090772815 0.15985724 0.11631634 0.036003023 -0.18184555
0.1265906 -0.068432674 0.18862778 0.11781743 0.14150053 -0.047874615 0.015687615 -0.07129507
-0.08683637 -0.17291783 0.191303 -0.2222627

fc3.weight f4 [1, 20, 1]
00000000: 9234 343e cf98 c6be a2a6 05be f2fd d3bd
00000010: 0fd1 83be 6d43 9f3e af54 723e 0eb7 ff3e
00000020: a4ca 03be f218 0f3e 27b9 0f3e 0556 033f
00000030: e8de 183e be2e f93e 2e85 f13e 883a aa3e
00000040: 4e92 b43e c5d7 d0bd d741 dd3c e069 c63d
0.17598179 -0.3878846 -0.13051847 -0.103511706 -0.25745437 0.3110613 0.23665117 0.49944347
-0.1287027 0.1397436 0.14035474 0.5130313 0.14928782 0.48668474 0.4717192 0.3324778
0.35267872 -0.10197405 0.027008934 0.09688163
