Task assignment/drl4vrp/vrp/10/19_20_26.716625/checkpoints/5/actor.pt (torch, 734651 bytes, 14 tensors)

static_encoder.conv.weight f4 [128, 2, 1]
-0.15294984 0.14935818 0.1171114 0.0058107344 -0.10940756 0.05586832 -0.0915183 -0.063130766
0.114908874 0.12136327 -0.0855925 -0.050207373 0.19841918 -0.032938495 -0.11859042 0.19004832
-0.18623549 0.04478617 0.098005 0.114668556 -0.14202455 -0.079301454 -0.14714636 -0.18660013
-0.045354977 -0.2060745 -0.1858822 -0.005175678 0.17929186 -0.12229481 0.17341067 0.021168232
0.18335205 -0.0024070253 -0.14439073 -0.03407812 -0.022330947 0.18350574 -0.1957375 -0.04879973
0.14908318 -0.19165526 -0.10538154 -0.115259245 -0.006476316 -0.08443643 0.10800551 -0.09260778
0.042146225 0.022616094 0.20148888 0.009930657 0.029768048 0.037810154 -0.14711821 -0.041965928
-0.1421321 0.09498745 0.0037367549 0.19233385 -0.08036508 0.010536048 -0.077422515 -0.04334971
0.19840214 -0.12849064 0.14413695 -0.14411531 -0.032923557 0.08024709 -0.19479011 0.10836445
-0.097611524 -0.16423152 -0.10054728 0.13502187 0.06362176 0.112799905 0.17307033 -0.10759539
-0.13839355 0.037182115 -0.09004598 0.12705016 -0.12552416 -0.17179927 0.16201536 -0.085701115
-0.0046881377 0.008779726 0.12799473 0.11604789 0.1447474 0.04488363 0.19845898 -0.026779568
0.063183 0.069005035 0.0799232 -0.12846227 0.1985679 -0.017158352 -0.024859909 -0.10692392
-0.033741552 0.105091214 -0.08076057 -0.21424626 -0.018123243 -0.09588702 -0.0103767 0.021285364
0.17592315 0.20403457 -0.17621148 0.20770474 0.20026666 0.03520495 0.14415562 0.09329675
0.07619761 -0.055109754 0.08402213 -0.1917822 -0.19518301 -0.17761613 0.06791675 0.14545679
0.10171656 0.031968854 -0.20250818 -0.060359843 -0.1433707 -0.14341755 -0.0063730413 -0.016615802
-0.21362928 0.02656609 0.016882833 0.19333783 0.03998917 0.19803903 -0.061118502 0.0058054333
-0.07300434 -0.11408285 0.0621862 0.12827215 0.069001615 -0.0052212817 0.006552746 -0.006021377
-0.0631041 0.032298177 0.106374286 0.034103166 0.18627071 0.12964167 -0.12493587 -0.20473363
-0.06657063 -0.20831162 -0.20865676 -0.1479573 -0.13291694 -0.12894997 -0.20217185 -0.060935855
-0.20404658 -0.0006952481 0.06891386 0.13269217 0.20938046 -0.17468432 -0.02911613 -0.08345378
-0.018904645 -0.074074864 -0.18926765 -0.03458856 0.12966363 0.12065432 -0.19477843 -0.073944725
-0.051609766 -0.065144755 -0.12977308 0.15274349 0.17896435 -0.0346358 -0.026482606 -0.047427814
-0.1422793 -0.19714396 0.015209097 0.14301333 -0.16701528 0.15459445 0.061060898 -0.20719256
0.0819802 0.05474458 -0.12085846 0.076995745 0.18431453 -0.18804985 0.019047787 0.030578831
-0.20000626 0.011803664 -0.03164348 -0.023945093 -0.11743292 -0.054514818 -0.17643417 0.0155113945
0.12763646 -0.14057222 0.07345451 -0.045339704 0.16403572 -0.10044591 -0.19079164 -0.014493695
0.13590582 -0.053663284 -0.1631083 0.06811984 0.18754652 0.011507207 -0.108094186 0.1653242
0.07003404 -0.1854397 0.1518254 -0.073230416 0.021812178 0.10937298 0.12984224 -0.04444292
0.1360108 0.003542793 -0.19529265 -0.17180361 0.09495077 0.19098121 0.05402814 0.17362185
0.14861362 -0.09328964 0.07403383 -0.08971399 -0.09822735 -0.014146271 -0.090712175 0.022211095
00000000: e29e 1cbe 5af1 183e 1ad8 ef3d f967 be3b
00000010: 1211 e0bd 2ed6 643d f26d bbbd b44a 81bd
00000020: 5855 eb3d 4e8d f83d 1f4b afbd 3fa6 4dbd
00000030: 662e 4b3e 84ea 06bd 89df f2bd 079c 423e
00000040: 84b4 3ebe b471 373d d8b6 c83d 59d7 ea3d
00000050: e26e 11be cd68 a2bd 89ad 16be 1b14 3fbe
00000060: 24c6 39bd 3205 53be e757 3ebe bc98 a9bb
00000070: 4998 373e b475 fabd 9192 313e 0069 ad3c
00000080: a4c0 3b3e 2fbf 1dbb 2adb 13be 8095 0bbd
00000090: 64ef b6bc eee8 3b3e 696f 48be 3ae2 47bd
000000a0: 43a9 183e 4741 44be 47d2 d7bd 0a0d ecbd
000000b0: 4737 d4bb 02ed acbd fe31 dd3d 26a9 bdbd
000000c0: 85a1 2c3d 6345 b93c 1a53 4e3e 32b4 223c
000000d0: 1fdc f33c d2de 1a3d 28a6 16be 77e4 2bbd
000000e0: 148b 11be c888 c23d 58e4 743b 2af3 443e
000000f0: 7296 a4bd 639f 2c3c b28f 9ebd 778f 31bd
00000100: ee29 4b3e 0d93 03be a398 133e f792 13be
00000110: dada 06bd 9658 a43d 0f77 47be 2eee dd3d
00000120: 8de8 c7bd 4f2c 28be bbeb cdbd 2c43 0a3e
00000130: 204c 823d a303 e73d 5939 313e f95a dcbd
00000140: 0ab7 0dbe 464c 183d 076a b8bd 7019 023e
00000150: 6889 00be 26ec 2fbe 5be7 253e 1184 afbd
00000160: f39e 99bb d7d8 0f3c 0d11 033e 84aa ed3d
00000170: aa38 143e e6d7 373d d538 4b3e d360 dbbc
00000180: 1766 813d 8352 8d3d c6ae a33d 9d8b 03be
00000190: 6255 4b3e ac8f 8cbc 02a7 cbbc eefa dabd
000001a0: 9534 0abd 103a d73d cc65 a5bd 5f63 5bbe
000001b0: 3277 94bc 6a60 c4bd 0903 2abc a55e ae3c
000001c0: 3325 343e 70ee 503e c870 34be 8db0 543e
000001d0: b412 4d3e 1133 103d 889d 133e 5e12 bf3d
000001e0: 7e0d 9c3d c4ba 61bd cb13 ac3d 8e62 44be
000001f0: 0ede 47be 01e1 35be f017 8b3d a0f2 143e
00000200: c650 d03d c6f1 023d 4e5e 4fbe e23b 77bd
00000210: c5cf 12be 0ddc 12be f2d4 d0bb dd1d 88bc
00000220: a2c1 5abe 21a1 d93c de4d 8a3c 5afa 453e
00000230: afcb 233d beca 4a3e 6557 7abd 813b be3b
00000240: 4d83 95bd 45a4 e9bd f5b6 7e3d c659 033e
00000250: b850 8d3d 4917 abbb 6bb8 d63b f94e c5bb
00000260: b93c 81bd 184b 043d c3da d93d c3af 0b3d
00000270: c0bd 3e3e c9c0 043e 61de ffbd b1a5 51be
00000280: 2f56 88bd a44f 55be 1eaa 55be 1e82 17be
00000290: 611b 08be 760b 04be 2306 4fbe e097 79bd
000002a0: 96f1 50be 4f41 36ba b622 8d3d 75e0 073e
000002b0: d567 563e 72e0 32be f384 eebc d1e9 aabd
000002c0: eadd 9abc 90b4 97bd 61cf 41be bcac 0dbd
000002d0: 8bc6 043e 9d19 f73d ff73 47be 5570 97bd
000002e0: c364 53bd 9d6a 85bd 3ce3 04be ca68 1c3e
000002f0: 6e42 373e 45de 0dbd 0df2 d8bc ab43 42bd
00000300: aab1 11be 1be0 49be 942f 793c 1672 123e
00000310: 0e06 2bbe 024e 1e3e fe1a 7a3d 492a 54be
00000320: 3ce5 a73d da3b 603d a484 f7bd f2af 9d3d
00000330: f3bc 3c3e 2490 40be 1b0a 9c3c 7580 fa3c
00000340: 71ce 4cbe 2864 413c 989c 01bd 8028 c4bc
00000350: ac80 f0bd ee4a 5fbd 29ab 34be 8123 7e3c
00000360: 22b3 023e 2af2 0fbe 516f 963d 20b6 39bd
00000370: fbf8 273e 96b6 cdbd e25e 43be f776 6dbc
00000380: e52a 0b3e 08ce 5bbd dd05 27be 6a82 8b3d
00000390: 320c 403e b988 3c3c 7c60 ddbd bf4a 293e
000003a0: 026e 8f3d e8e3 3dbe 1e78 1b3e d4f9 95bd
000003b0: 74af b23c f1fe df3d 5df5 043e c709 36bd
000003c0: 6a46 0b3e 342e 683b ccfa 47be 49ed 2fbe
000003d0: 8d75 c23d 9490 433e 9c4c 5d3d edc9 313e
000003e0: 2b2e 183e a40e bfbd 0c9f 973d f8bb b7bd
000003f0: 6c2b c9bd c3c5 67bc 4ec7 b9bd 0bf4 b53c

static_encoder.conv.bias f4 [128]
-0.42257714 -0.25216833 0.66103 0.069473505 -0.69893956 0.33133295 -0.38319334 -0.6249409
0.2633744 0.13423724 -0.5235757 0.52171487 0.353091 -0.56106037 0.4308535 0.41828108
0.021568706 -0.60208374 -0.68989 0.13859625 -0.043208852 0.29375312 -0.31408525 0.010712186
-0.017739613 -0.65732825 0.4472626 0.12257109 -0.44596013 0.21476547 0.12690969 0.06978256
0.04987688 0.675733 0.008713333 0.54774666 -0.3684414 0.580806 0.5404637 -0.6311822
-0.34049913 -0.4399378 -0.5171752 0.531466 0.044606704 0.58599514 0.3626994 0.40116873
-0.6780061 0.21189871 -0.2310678 0.34218672 0.7018839 -0.35436478 0.31513757 0.4766136
0.41499886 -0.34806466 0.5800791 0.6082487 0.5151724 0.1121159 0.0659729 -0.2977175
-0.16358532 -0.41056088 0.39883885 -0.4141287 0.21733472 -0.4150779 -0.12596609 0.5739989
0.4504476 0.046819296 0.46034643 0.18819337 0.11729498 0.4979196 0.4119055 -0.50730824
-0.5798206 -0.6880176 -0.68003356 0.308323 -0.46666628 -0.6397957 -0.4197125 0.59997374
0.11536383 0.46721685 0.46232396 -0.40099847 0.38514757 0.62239873 0.5004575 -0.06014444
-0.24617442 -0.36862773 -0.23490013 -0.22183724 -0.3944671 0.18770024 -0.6334944 -0.51965624
-0.6898316 -0.46232837 0.35621744 0.603998 -0.16200753 -0.7041549 0.40348795 -0.51409596
0.7012968 0.56793946 0.24339141 0.47640496 -0.32020813 0.10125887 -0.12748262 -0.420698
-0.12030576 0.052281942 0.06509988 -0.1173301 0.27520272 0.0731561 -0.25442934 0.08608252
00000000: 085c d8be 351c 81be 4339 293f 2048 8e3d
00000010: b4ed 32bf 79a4 a93e eb31 c4be 20fc 1fbf
00000020: 02d9 863e 7d75 093e 0f09 06bf 1b8f 053f
00000030: 58c8 b43e a7a1 0fbf d498 dc3e f028 d63e
00000040: dbb0 b03c 2922 1abf a29c 30bf 2dec 0d3e
00000050: c4fb 30bd cf66 963e c8cf a0be 2a82 2f3c
00000060: aa52 91bc aa46 28bf 9aff e43e 8d06 fb3d
00000070: e354 e4be 7beb 5b3e 9df4 013e 29ea 8e3d
00000080: b34b 4c3d d6fc 2c3f 5ec2 0e3c 2039 0c3f
00000090: 5aa4 bcbe b4af 143f d45b 0a3f 2895 21bf
000000a0: e755 aebe 873f e1be 9865 04bf 280e 083f
000000b0: 85b5 363d c703 163f bcb3 b93e fd65 cd3e
000000c0: cf91 2dbf fafb 583e 0a9d 6cbe 1933 af3e
000000d0: aaae 333f 4d6f b5be b659 a13e b306 f43e
000000e0: bb7a d43e 8835 b2be 1080 143f 30b6 1b3f
000000f0: 57e2 033f 059d e53d cd1c 873d 6e6e 98be
00000100: e982 27be 0935 d2be 9b34 cc3e ad08 d4be
00000110: fe8c 5e3e 1785 d4be 41fd 00be 98f1 123f
00000120: 11a1 e63e 97c5 3f3d 87b2 eb3e c3b5 403e
00000130: 5a38 f03d 51ef fe3e 47e5 d23e f4de 01bf
00000140: 1f6f 14bf ec21 30bf ae16 2ebf 83dc 9d3e
00000150: e2ee eebe a7c9 23bf 8fe4 d6be e197 193f
00000160: df43 ec3d 0c37 ef3e bab5 ec3e ac4f cdbe
00000170: 1032 c53e 8655 1f3f fc1d 003f 045a 76bd
00000180: 2615 7cbe c6bc bcbe a989 70be 4d29 63be
00000190: 97f7 c9be 7e34 403e b02c 22bf 3108 05bf
000001a0: ce98 30bf 4eb6 ecbe 2262 b63e 9d9f 1a3f
000001b0: 4de5 25be 7f43 34bf f995 ce3e cb9b 03bf
000001c0: 3088 333f 7b64 113f 993b 793e 5aeb f33e
000001d0: 52f2 a3be cf60 cf3d ce8a 02be ba65 d7be
000001e0: de62 f6bd 9725 563d 1653 853d c34a f0bd
000001f0: 5fe7 8c3e ded2 953d 9044 82be 084c b03d

dynamic_encoder.conv.weight f4 [128, 2, 1]
0.11922818 0.16307566 0.06033909 0.060105547 -0.12885436 -0.17704207 -0.1355121 0.1856574
-0.08370961 -0.20488074 0.14457567 0.026925525 0.09188177 -0.052214563 0.123551495 -0.021880243
0.050726544 -0.19121958 0.10002539 0.018459074 -0.0618256 0.12402806 0.11037123 -0.20404287
0.11329565 0.008884906 0.1548686 -0.18837366 0.018758915 0.14119577 0.10648886 0.18468039
-0.069483764 0.12988937 0.014144917 -0.19166817 -0.06984154 0.19784334 -0.054266274 0.13608706
0.18186823 0.17761439 -0.083764635 0.03508173 -0.1847369 0.10587122 0.10575127 0.02420985
-0.07015852 0.11866331 0.048234493 0.11880821 0.05307024 -0.17013319 -0.1580997 0.20173153
0.18317744 -0.047853243 -0.19521149 -0.18893465 -0.05151892 0.21731871 -0.1569926 -0.0076840487
-0.057935398 -0.11666934 0.034934025 0.08105139 0.18724358 -0.087986805 -0.13091539 0.12748985
-0.08869611 0.1783339 -0.14241116 0.21598196 0.06816267 0.06003702 0.07936962 0.15675506
-0.19042602 0.16156292 -0.012612735 -0.1290009 0.116582654 -0.16731523 -0.026667606 0.0696196
0.00019577911 0.13024306 0.19548054 0.10274887 0.027714761 0.051599097 -0.21446191 0.03414862
0.18460561 -0.0025181205 0.15759571 0.18801655 -0.20545928 0.09449493 -0.20242706 0.20911276
0.015228962 0.11567531 -0.028538063 0.024665691 -0.19708478 -0.15144931 -0.02156469 -0.043756418
-0.1331546 -0.2026624 0.17833097 0.022142082 -0.2078498 -0.13118881 0.19174616 -0.010266935
0.14283611 -0.04543468 0.1410407 -0.012323146 -0.17935424 0.17959353 -0.020843552 -0.14943427
-0.1989494 -0.12641406 -0.19111581 -0.21130043 0.08546316 0.20768842 0.053827133 0.10767043
-0.09599188 0.07533015 0.11976707 0.19874448 0.18343486 0.18162744 0.03131955 0.15947284
-0.06980233 -0.12643717 -0.08603763 -0.15560837 -0.15030889 -0.15254913 0.07345737 -0.102121174
-0.14588079 0.0076867905 -0.18334454 0.14806144 0.050302997 -0.18907325 0.15415917 -0.16946879
0.15735276 -0.042458408 -0.14492002 -0.1535313 0.12867106 0.19330643 -0.13297078 -0.1795313
0.008789648 -0.18219212 0.007047534 -0.17665698 0.14063123 0.03412319 -0.14434856 0.071589604
-0.18901709 0.043518018 0.20550548 -0.09551984 0.14079425 0.023731697 0.017936515 0.15605974
0.022727316 -0.1262796 -0.12029955 0.21610977 0.17063513 0.13845779 0.051024668 -0.15527526
0.02364977 -0.12774166 0.2104402 0.10963232 0.13778698 0.21619219 0.024473047 -0.022733852
-0.12974474 -0.07907816 -0.12447625 -0.11832004 -0.13899139 0.15372236 0.09173786 0.029376304
0.18767023 0.10538537 0.13702789 0.058582496 0.18261991 -0.16091277 -0.20993409 0.15884618
0.18624726 0.022022827 -0.056301035 0.16522695 0.18660167 -0.11395789 -0.15175578 0.09808904
0.0949722 -0.083540455 -0.11659108 -0.01627539 0.12422655 -0.075020626 -0.021267796 0.021872563
-0.14624836 0.073686026 0.097386464 -0.19470246 -0.2104437 -0.17051582 0.1300733 -0.02895369
-0.041205835 0.0019198452 0.052695505 0.062765844 -0.13441217 -0.20955622 0.073118195 -0.18495342
-0.10270438 -0.15210582 -0.15230627 -0.0642446 -0.033353813 -0.18444638 0.07308887 -0.11108193
00000000: e72d f43d 4efd 263e 1f26 773d 3c31 763d
00000010: 66f2 03be 844a 35be afc3 0abe f91c 3e3e
00000020: f26f abbd 42cc 51be a50b 143e eb92 dc3c
00000030: 822c bc3d f0de 55bd 9108 fd3d 323e b3bc
00000040: a3c6 4f3d 11cf 43be 1dda cc3d 7c37 973c
00000050: d73c 7dbd 6c02 fe3d 500a e23d 9df0 50be
00000060: 8d07 e83d ff91 113c e095 1e3e 06e5 40be
00000070: 4cac 993c a095 103e d516 da3d db1c 3d3e
00000080: 814d 8ebd b801 053e 15c0 673c a944 44be
00000090: 1509 8fbd 7297 4a3e 5046 5ebd 685a 0b3e
000000a0: aa3b 3a3e 8ce0 353e cb8c abbd dcb1 0f3d
000000b0: ab2b 3dbe 03d3 d83d 1f94 d83d bc53 c63c
000000c0: 45af 8fbd c005 f33d 8891 453d b851 f33d
000000d0: 2e60 593d 6537 2ebe e3e4 21be b692 4e3e
000000e0: de92 3b3e c301 44bd 85e5 47be 1678 41be
000000f0: 8105 53bd cc88 5e3e abc2 20be 79ca fbbb
00000100: ab4d 6dbd 56f0 eebd fb16 0f3d 45fe a53d
00000110: c8bc 3f3e 6d32 b4bd af0e 06be b38c 023e
00000120: 4ea6 b5bd 299d 363e 3bd4 11be 602a 5d3e
00000130: df98 8b3d 61e9 753d 8a8c a23d 6684 203e
00000140: 0aff 42be c070 253e a5a5 4ebc d018 04be
00000150: e3c2 ee3d af54 2bbe 0676 dabc b994 8e3d
00000160: 0e4a 4d39 705e 053e 0d2c 483e 006e d23d
00000170: 110a e33c 9359 533d e79b 5bbe 6cdf 0b3d
00000180: 4109 3d3e 0d07 25bb c560 213e 6987 403e
00000190: eb63 52be 8f86 c13d 0a49 4fbe a821 563e
000001a0: e582 793c 2de7 ec3d a8c8 e9bc b40f ca3c
000001b0: 98d0 49be 8715 1bbe 6fa8 b0bc ee39 33bd
000001c0: ae59 08be bb86 4fbe 659c 363e 5063 b53c
000001d0: 94d6 54be 5c56 06be 1b59 443e a636 28bc
000001e0: a143 123e b719 3abd f96c 103e 05e7 49bc
000001f0: a3a8 37be 5ee7 373e 19c0 aabc 4c05 19be
00000200: 64b9 4bbe b072 01be ddb3 43be 245f 58be
00000210: 4f07 af3d 46ac 543e d779 5c3d 5082 dc3d
00000220: 6497 c4bd b246 9a3d 7048 f53d ac83 4b3e
00000230: 59d6 3b3e 8bfc 393e ee48 003d d94c 233e
00000240: 86f4 8ebd bf78 01be 7f34 b0bd cd57 1fbe
00000250: 93ea 19be d735 1cbe d170 963d e824 d1bd
00000260: c661 15be 79e1 fb3b acbe 3bbe 6b9d 173e
00000270: 840a 4e3d 6b9c 41be e7db 1d3e 3a89 2dbe
00000280: 1521 213e dee8 2dbd ea65 14be 4f37 1dbe
00000290: 59c2 033e 1ff2 453e 7e29 08be 0ed7 37be
000002a0: 7502 103c 9290 3abe 00ef e63b 91e5 34be
000002b0: a201 103e c2c4 0b3d 1cd0 13be 929d 923d
000002c0: b28d 41be f33f 323d 0770 523e e89f c3bd
000002d0: 5e2c 103e fa68 c23c 99ef 923c 20ce 1f3e
000002e0: a32e ba3c 714f 01be 9c5f f6bd e14b 5d3e
000002f0: faba 2e3e e1c7 0d3e 3eff 503d 7a00 1fbe
00000300: 2abd c13c b6ce 02be a37d 573e e986 e03d
00000310: 0818 0d3e 7c61 5d3e b37b c83c 583c babc
00000320: cedb 04be bbf3 a1bd 67ed febd c751 f2bd
00000330: c253 0ebe 6569 1d3e 0fe1 bb3d 93a6 f03c
00000340: a02c 403e 49d4 d73d 0a51 0c3e 33f4 6f3d
00000350: b700 3b3e 51c6 24be f6f8 56be 93a8 223e
00000360: 9ab7 3e3e 3769 b43c ea9b 66bd 4131 293e
00000370: 8214 3f3e c162 e9bd de65 1bbe e8e2 c83d
00000380: c980 c23d 4217 abbd 4ec7 eebd f753 85bc
00000390: 7d6a fe3d 6aa4 99bd cd39 aebc 172e b33c
000003a0: 21c2 15be b3e8 963d 8e72 c73d 1560 47be
000003b0: 8e7e 57be b39b 2ebe ef31 053e 4a30 edbc
000003c0: 73c7 28bd 51a3 fb3a 3ed7 573d 618b 803d
000003d0: 58a3 09be e895 56be febe 953d 6e64 3dbe
000003e0: ad56 d2bd a1c1 1bbe 2df6 1bbe ac92 83bd
000003f0: 029e 08bd 83df 3cbe 9eaf 953d ec7e e3bd

dynamic_encoder.conv.bias f4 [128]
0.41609433 0.30187517 0.6692937 0.11735924 -0.14978968 0.25470874 0.43186817 -0.45827946
0.051423557 -0.15935968 -0.24220698 -0.08753822 0.6650072 0.25080094 0.17646542 0.13078311
0.63422257 0.2039226 -0.13354145 -0.08508557 0.1713339 0.22694595 0.4788146 0.082194746
-0.30928522 0.59753525 -0.21942256 0.21225318 0.65122837 -0.35249633 0.2846346 0.5017858
0.5311163 0.13805294 -0.43003982 -0.41848072 -0.3899983 -0.2920618 -0.09904575 -0.5386272
0.51292646 0.31467652 0.5796931 -0.118689924 -0.17383118 -0.197369 -0.3913565 0.13467139
0.6012291 -0.10110033 -0.08915171 0.30884722 0.24673072 0.44708684 -0.3027793 0.44789714
0.61027145 -0.6498025 -0.27199408 0.27921695 0.45281038 0.3553617 -0.23572713 0.1461762
-0.38976765 -0.041848738 -0.587951 -0.58329475 0.32074597 0.4073149 0.6949294 -0.25051454
0.6167174 -0.4519151 0.07192402 0.65819323 0.4892012 0.34123883 -0.19442177 -0.27717835
-0.043229435 0.3500255 -0.079584844 -0.66656214 -0.35578853 0.41708058 -0.12503992 -0.24674225
0.09725158 -0.66735536 -0.04376152 -0.0693263 -0.20913383 0.670005 -0.17751174 -0.033166096
-0.39068192 -0.5514475 0.5044048 -0.6551752 -0.6723502 0.061531935 -0.62781656 0.53990376
0.28357166 -0.53209186 -0.09766761 0.43653238 0.38011298 0.3211749 -0.37450483 -0.235651
0.23263364 0.15122493 -0.44417483 -0.057708707 -0.25451377 0.13924822 -0.26960328 -0.14989786
0.06424541 -0.34526765 0.5238421 -0.53834534 0.56993175 0.33882216 -0.33283442 -0.40273893
00000000: 510a d53e 628f 9a3e d556 2b3f 0b5a f03d
00000010: 7762 19be 2f69 823e d31d dd3e 9ba3 eabe
00000020: 82a1 523d 2f2f 23be 1b05 78be 3d47 b3bd
00000030: e93d 2a3f fb68 803e 5ab3 343e 02ec 053e
00000040: 695c 223f 16d1 503e 17bf 08be 5841 aebd
00000050: 2772 2f3e 8564 683e 3027 f53e b855 a83d
00000060: a25a 9ebe 12f8 183f 4fb0 60be e658 593e
00000070: e7b6 263f 667a b4be a0bb 913e 0975 003f
00000080: 3df7 073f c05d 0d3e 2e2e dcbe 1b43 d6be
00000090: dbad c7be 2089 95be 80d8 cabd 79e3 09bf
000000a0: 264f 033f 481d a13e c466 143f b413 f3bd
000000b0: cd00 32be 191b 4abe e15f c8be 4ce7 093e
000000c0: 26ea 193f b10d cfbd 2c95 b6bd 3921 9e3e
000000d0: faa6 7c3e 91e8 e43e e305 9bbe c652 e53e
000000e0: c03a 1c3f 7559 26bf cf42 8bbe 86f5 8e3e
000000f0: c3d6 e73e f8f1 b53e 7462 71be 37af 153e
00000100: a08f c7be 9569 2bbd f583 16bf ce52 15bf
00000110: d138 a43e 948b d03e e5e6 313f 7143 80be
00000120: 31e1 1d3f 6a61 e7be e74c 933d 5a7f 283f
00000130: 9478 fa3e dbb6 ae3e 8016 47be 52ea 8dbe
00000140: 5911 31bd 8b36 b33e 61fd a2bd d1a3 2abf
00000150: ea29 b6be 968b d53e 770a 00be 00aa 7cbe
00000160: d62b c73d cdd7 2abf 483f 33bd f2fa 8dbd
00000170: 2e27 56be 7385 2b3f a3c5 35be 2cd9 07bd
00000180: 7607 c8be aa2b 0dbf ac20 013f 90b9 27bf
00000190: 251f 2cbf e908 7c3d 96b8 20bf 2237 0a3f
000001a0: 4e30 913e 2c37 08bf f505 c8bd 2c81 df3e
000001b0: 2b9e c23e 0971 a43e 19bf bfbe 7f4e 71be
000001c0: 8337 6e3e b5da 1a3e e26a e3be f75f 6cbd
000001d0: a14f 82be 1697 0e3e 7109 8abe d37e 19be
000001e0: 1993 833d ecc6 b0be 841a 063f 00d1 09bf
000001f0: 0ce7 113f 197a ad3e 4669 aabe cc33 cebe

decoder.conv.weight f4 [128, 2, 1]
-0.1664029 -0.1115698 0.13340357 -0.050018415 0.0776159 -0.07357504 -0.13641089 -0.010946786
0.19375679 0.20067245 -0.12605813 -0.09693937 0.14163752 0.029945701 0.006816457 0.20667323
0.08298153 0.19073138 -0.18165992 0.13793609 0.20559303 0.18843572 0.051916305 0.20390804
-0.06113303 0.022080367 -0.0022480185 -0.027875414 0.17997308 -0.096647546 -0.17551833 -0.12505142
-0.025044765 0.11966074 0.11174021 -0.17369033 -0.049598217 0.16592152 0.19224298 0.022779053
0.17413755 -0.1502948 -0.14082798 0.1372157 -0.13473663 -0.18880527 0.025610888 0.120334834
0.09556407 -0.1528793 -0.19806314 -0.1620699 -0.03531829 0.034883115 0.097946696 0.122118026
-0.07561861 -0.06457523 0.14483848 -0.02120522 -0.10565584 0.05983595 -0.1357248 -0.15492222
-0.18918738 0.20989697 0.024568608 0.071163185 0.0025068377 0.0039674975 0.022211963 -0.18664758
0.02172422 0.19470829 0.0931893 -0.14659908 0.17366436 0.1316511 0.0897245 0.10845209
0.16213739 0.120157644 -0.05801544 0.09170897 0.03465623 0.04485966 -0.03739067 0.053311434
0.07312183 -0.08723861 -0.07077895 -0.16277844 0.028898051 -0.13383128 0.07749912 0.1518506
-0.07174104 0.21346529 0.14838794 0.014726884 0.2110132 0.17685089 0.05597416 0.026415935
0.058710095 -0.121153265 0.15279762 0.16457358 -0.0052559557 0.013264252 -0.18088569 0.013983761
-0.09645518 -0.03831248 0.081175625 0.13854541 0.14101449 0.11195335 0.09571623 -0.21010794
0.012273489 0.14623192 0.16733876 0.06382146 -0.2083008 0.18455876 -0.13931753 -0.21468446
-0.009776665 0.023043074 -0.20632532 -0.04507441 -0.18911201 0.16839848 0.07389854 0.1785092
-0.12009496 0.0455503 -0.0015513017 0.17344329 -0.123150274 -0.0066201095 0.11134723 0.16489385
-0.16560268 -0.02064652 0.046001863 -0.097014755 -0.19600914 -0.023878148 -0.12854593 0.18393497
-0.0059754546 0.12188793 0.039593104 -0.10713155 0.13374552 0.013741923 -0.056619164 0.055369098
0.119088165 -0.040865827 0.07773251 -0.16480733 0.0054462785 0.03029853 0.18159908 0.1809201
-0.09814295 0.14841887 -0.04375191 0.123330705 0.15593477 -0.006635981 0.11128555 0.15758318
0.14712195 0.0012389866 -0.19089672 -0.09462643 -0.19113663 -0.13701046 -0.077670135 0.10499539
0.023374893 -0.0021342526 0.100973785 0.15438873 -0.15197626 0.116521515 -0.21160288 -0.13590388
-0.087726906 0.10111869 0.0043166582 -0.15592018 -0.028495137 0.18293504 0.17622171 0.13238615
-0.18024991 0.054625228 -0.008094688 0.077924974 -0.10813023 0.050908282 0.008517768 -0.036148783
0.021363268 0.094776936 -0.019289277 0.045991194 -0.13195188 0.07018626 -0.016718961 0.16593468
-0.117978744 0.073243864 0.1802838 0.036357954 -0.177191 0.01669712 0.15027864 0.13665
0.016549136 0.042477053 0.19454733 -0.10712514 -0.021947071 -0.19256005 -0.074004926 0.033460837
0.109824955 -0.041265693 -0.17583807 -0.19759528 0.14666934 -0.102920435 0.11920551 -0.18938014
0.15450391 -0.041774925 0.1785496 -0.05209368 0.16460143 -0.08034843 -0.089530475 0.043043472
0.11725769 0.17122358 -0.050447248 0.17216246 -0.11241286 -0.14661501 0.0835776 0.20895462
00000000: 8665 2abe b57e e4bd f29a 083e 1ce0 4cbd
00000010: 16f5 9e3d 83ae 96bd 4caf 0bbe 265a 33bc
00000020: 2e68 463e 147d 4d3e 6215 01be 2688 c6bd
00000030: 6d09 113e b050 f53c 965c df3b 26a2 533e
00000040: 38f2 a93d 164f 433e 0f05 3abe 1e3f 0d3e
00000050: fb86 523e 4bf5 403e 31a6 543d 45cd 503e
00000060: a166 7abd e3e1 b43c 7e53 13bb fb5a e4bc
00000070: dd4a 383e 26ef c5bd 14bb 33be 7b0d 00be
00000080: ae2a cdbc b110 f53d 0dd8 e43d e1db 31be
00000090: 8027 4bbd 55e7 293e 58db 443e 239b ba3c
000000a0: 1d51 323e e1e6 19be 3635 10be 4682 0c3e
000000b0: 66f8 09be 2b56 41be edcd d13c 1c72 f63d
000000c0: 18b7 c33d 648c 1cbe 10d1 4abe a7f5 25be
000000d0: e9a9 10bd 99e1 0e3d 4798 c83d 0419 fa3d
000000e0: eedd 9abd 0540 84bd 8a50 143e 92b6 adbc
000000f0: 1762 d8bd 8b16 753d 71fb 0abe eea3 1ebe
00000100: 56ba 41be 3bef 563e 1b44 c93c 01be 913d
00000110: c249 243b c801 823b ddf5 b53c 8b20 3fbe
00000120: fef6 b13c 9c61 473e 08da be3d 121e 16be
00000130: 12d5 313e 8ccf 063e 7bc1 b73d 211c de3d
00000140: 5807 263e 3615 f63d 99a1 6dbd ead1 bb3d
00000150: b1f3 0d3d c3be 373d f626 19bd 175d 5a3d
00000160: e6c0 953d 28aa b2bd 8ef4 90bd 64af 26be
00000170: 9bbb ec3c 110b 09be dcb7 9e3d b97e 1b3e
00000180: f7ec 92bd a596 5a3e 02f3 173e 0749 713c
00000190: d813 583e 6618 353e 2945 653d 3b66 d83c
000001a0: ff79 703d 341f f8bd fb76 1c3e fa85 283e
000001b0: 273a acbb 4e52 593c 193a 39be 251c 653c
000001c0: 4b8a c5bd 8ced 1cbd 683f a63d d9de 0d3e
000001d0: 1a66 103e cc47 e53d df06 c43d 8926 57be
000001e0: be16 493c d2bd 153e da5a 2b3e d3b4 823d
000001f0: ce4c 55be f9fc 3c3e 41a9 0ebe 3ed6 5bbe
00000200: 4e2e 20bc d4c4 bc3c f246 53be f29f 38bd
00000210: 94a6 41be a770 2c3e 1e58 973d 1ecb 363e
00000220: 59f4 f5bd f492 3a3d 0c55 cbba 1e9b 313e
00000230: 3636 fcbd 81ed d8bb 040a e43d efd9 283e
00000240: c093 29be e422 a9bc 736c 3c3d acaf c6bd
00000250: 9fb6 48be 1b9c c3bc 8ba1 03be 7359 3c3e
00000260: bfcd c3bb 61a0 f93d 612c 223d c967 dbbd
00000270: 96f4 083e cd25 613c 7fe9 67bd b5ca 623d
00000280: 7fe4 f33d ed62 27bd 3932 9f3d 41c3 28be
00000290: b276 b23b 9f34 f83c 1cf5 393e 1e43 393e
000002a0: 2cff c8bd 1efb 173e 3435 33bd cf94 fc3d
000002b0: 5dad 1f3e a572 d9bb aee9 e33d 7c5d 213e
000002c0: 23a7 163e 7e65 a23a 6e7a 43be 80cb c1bd
000002d0: 52b9 43be 784c 0cbe 8511 9fbd d307 d73d
000002e0: b47c bf3c d1de 0bbb 58cb ce3d 1418 1e3e
000002f0: aa9f 1bbe d5a2 ee3d 6dae 58be 632a 0bbe
00000300: 2aaa b3bd 5117 cf3d c172 8d3b 8aa9 1fbe
00000310: a26e e9bc 5353 3b3e 7773 343e 3c90 073e
00000320: 6f93 38be b4be 5f3d 959f 04bc 2197 9f3d
00000330: 6273 ddbd 3485 503d 1c8e 0b3c bf10 14bd
00000340: 0502 af3c 691a c23d 8c04 9ebc 4361 3c3d
00000350: 651e 07be d0bd 8f3d 34f6 88bc c8ea 293e
00000360: d79e f1bd e100 963d 519c 383e 14ec 143d
00000370: 8f71 35be 66c8 883c a5e2 193e faed 0b3e
00000380: 0e92 873c 6bfc 2d3d 6a37 473e 6d64 dbbd
00000390: 58ca b3bc 762e 45be e58f 97bd 3b0e 093d
000003a0: e8eb e03d 3706 29bd e50e 34be 6b56 4abe
000003b0: 7d30 163e f3c7 d2bd 0522 f43d deec 41be
000003c0: 4636 1e3e 2f1c 2bbd b5d5 363e 2f60 55bd
000003d0: 478d 283e b88d a4bd c15b b7bd 5a4e 303d
000003e0: cd24 f03d 3c55 2f3e c6a1 4ebd 5b4b 303e
000003f0: b738 e6bd 3f22 16be bc2a ab3d 33f8 553e

decoder.conv.bias f4 [128]
-0.1707708 0.066664934 0.54751074 -0.12422732 -0.33720565 0.13443427 -0.2595303 0.06272808
0.15421605 0.41468775 -0.52370137 0.64035773 -0.4881659 0.09727623 0.29062703 -0.5557883
0.2387765 0.70605475 -0.31135312 -0.2803229 -0.6879976 -0.24103059 0.41763112 0.13050781
0.64559126 -0.40465808 -0.62182504 -0.2192506 -0.27142525 0.2824922 0.6105992 -0.017701263
-0.1939715 0.26536748 0.110114954 0.5171626 -0.45678872 0.61981803 0.23524116 0.2726193
0.09587631 0.45230827 -0.1380537 -0.47937372 -0.04186475 0.5207013 -0.2623929 -0.119093746
0.16208838 0.5694291 -0.18677375 0.21200377 0.41856718 -0.007555259 -0.4737046 -0.6976985
-0.13966385 0.014070126 0.46096084 -0.25986 -0.55967826 -0.29816335 0.47975495 -0.2341776
0.26000556 0.503988 -0.58191174 0.61038345 -0.6692609 0.590338 -0.12471857 -0.35755464
-0.57675 -0.45217487 0.42553824 0.43996015 0.09629675 0.08149832 -0.076271705 0.63229704
-0.5617281 0.2752568 -0.39241904 -0.1805983 0.3469012 -0.46157897 0.48250335 -0.2442399
-0.4460048 0.54288393 -0.13827252 0.24427672 0.4892774 0.017356422 -0.5793193 0.13398595
-0.319269 0.6304774 -0.53361034 -0.06100666 0.1096964 0.6474455 0.4787359 0.41310084
-0.5978025 -0.39434835 0.3199406 0.33141178 -0.030631697 0.6704392 -0.18006358 -0.0862082
0.5804896 0.6857795 0.27606928 -0.124367945 0.15674126 -0.61517835 0.008132142 0.26925486
0.22357725 0.4841411 -0.5446739 0.6145614 -0.48302653 0.04425932 -0.4681513 -0.2439501
00000000: 8ade 2ebe a087 883d aa29 0c3f e56a febd
00000010: 38a6 acbe 23a9 093e 28e1 84be 9477 803d
00000020: d0ea 1d3e f451 d43e 4b11 06bf 7cee 233f
00000030: e1f0 f9be c338 c73d 11cd 943e 2448 0ebf
00000040: d481 743e 01c0 343f ad69 9fbe 7c86 8fbe
00000050: 9c20 30bf b9d0 76be bfd3 d53e d7a3 053e
00000060: 7845 253f 582f cfbe ed2f 1fbf 3b83 60be
00000070: 40f8 8abe d1a2 903e 3b50 1c3f 3d02 91bc
00000080: 77a0 46be 3fde 873e f383 e13d c564 043f
00000090: 36e0 e9be 65ac 1e3f 0fe3 703e c294 8b3e
000000a0: cc5a c43d f394 e73e f35d 0dbe 7970 f5be
000000b0: 5f7a 2bbd ae4c 053f 5d58 86be 6ce7 f3bd
000000c0: 7ffa 253e 1bc6 113f 9e41 3fbe 8417 593e
000000d0: 704e d63e 1b92 f7bb 6989 f2be 5e9c 32bf
000000e0: 0a04 0fbe 6386 663c 0f03 ec3e 5f0c 85be
000000f0: 1347 0fbf dea8 98be 71a2 f53e 41cc 6fbe
00000100: 731f 853e 5c05 013f 2bf8 14bf 1742 1c3f
00000110: af54 2bbf 6420 173f 736c ffbd 6711 b7be
00000120: e3a5 13bf 7783 e7be 26e0 d93e 7542 e13e
00000130: 3b37 c53d 97e8 a63d 5734 9cbd 38de 213f
00000140: 6acd 0fbf 76ee 8c3e 26eb c8be c3ee 38be
00000150: 099d b13e 1454 ecbe ae0a f73e 061a 7abe
00000160: be5a e4be 71fa 0a3f 5097 0dbe ad23 7a3e
00000170: 9182 fa3e 0e2f 8e3c 454e 14bf 9d33 093e
00000180: 3a77 a3be f866 213f b09a 08bf 1fe2 79bd
00000190: 82a8 e03d fdbe 253f df1c f53e f481 d33e
000001a0: 9609 19bf 07e8 c9be 41cf a33e ceae a93e
000001b0: 53ef fabc e7a1 2b3f 9662 38be ed8d b0bd
000001c0: f79a 143f 3f8f 2f3f f458 8d3e 9fb4 febd
000001d0: c880 203e 547c 1dbf ad3c 053c c6db 893e
000001e0: 6ff1 643e 58e1 f73e c06f 0bbf e553 1d3f
000001f0: 414f f7be 4349 353d 87b1 efbe 0ece 79be

pointer.v f4 [1, 1, 128]
-0.12105865 0.13814329 -0.08659623 -0.10487858 -0.14290982 0.13790996 0.01738739 0.06627692
0.08473866 0.067293085 0.051570542 0.03615974 0.035409357 -0.14894748 0.07555405 -0.07788092
-0.08593667 0.011990311 0.12282818 -0.06261238 -0.057892736 -0.007326082 0.016649988 -0.01541414
-0.07018269 -0.03358333 -0.082531735 0.116666235 0.11798978 0.098143786 -0.0637568 -0.11949939
-0.05075723 0.019805837 -0.10638417 0.020389907 0.11521452 -0.10992232 0.10549263 -0.00056614337
0.0305585 0.026020162 0.028867515 0.020530391 0.045813546 -0.073660955 0.07252823 0.05275747
0.007147117 -0.0982901 -0.1294233 -0.14991112 -0.110538356 -0.009828236 -0.093471624 -0.1363062
-0.026420185 -0.0006485352 0.14153562 0.091394685 -0.120049424 -0.061160352 0.10623779 0.011310417
-0.05707501 -0.0037167491 0.055007957 -0.10904778 -0.14045389 0.031058647 0.0785733 0.0523454
0.0748103 -0.037549432 -0.14033876 -0.0024061596 0.0597635 -0.07802244 -0.15168157 -0.013215076
0.009421462 -0.09919576 -0.11199573 0.06321003 -0.1452511 0.10543265 -0.014474812 -0.031957243
0.08982059 0.098622695 -0.09756294 -0.04474598 -0.06394504 -0.092588335 0.033662274 -0.12743975
0.120364316 -0.05388021 -0.10238238 -0.0009404544 -0.085292146 -0.0040221526 0.08695671 -0.054639056
-0.15275237 -0.14672321 0.052122105 3.978335e-05 0.123151965 0.08294012 0.0993788 0.11099881
0.0753861 0.019856142 0.049185555 0.15077344 -0.092483744 -0.101277865 -0.13124774 -0.0592836
-0.098982885 -0.14516811 -0.015563486 0.0027965077 -0.04056795 0.08365903 -0.088107005 -0.109762855
00000000: 99ed f7bd 6f75 0d3e 5d59 b1bd 95ca d6bd
00000010: f456 12be 4538 0d3e 0070 8e3c 32bc 873d
00000020: 768b ad3d f5d0 893d a23b 533d 3c1c 143d
00000030: 6709 113d b085 18be 15bc 9a3d 0880 9fbd
00000040: 91ff afbd 0273 443c 578d fb3d eb3a 80bd
00000050: ef20 6dbd a10f f0bb 8e65 883c 978b 7cbc
00000060: f1bb 8fbd ad8e 09bd 6606 a9bd b5ee ee3d
00000070: a0a4 f13d 9cff c83d ed92 82bd 19bc f4bd
00000080: d0e6 4fbd da3f a23c f2df d9bd bc08 a73c
00000090: 97f5 eb3d f41e e1bd 850c d83d 3d69 14ba
000000a0: d255 fa3c 3c28 d53c 917b ec3c 5a2f a83c
000000b0: fca6 3b3d 8edb 96bd ae89 943d 3818 583d
000000c0: 5d32 ea3b 524c c9bd 8b87 04be 4d82 19be
000000d0: ef61 e2bd 9c06 21bc 0d6e bfbd da93 0bbe
000000e0: 256f d8bc 7602 2aba b7ee 103e 232d bb3d
000000f0: 79dc f5bd 4783 7abd 3393 d93d 544f 393c
00000100: 7cc7 69bd b494 73bb 0650 613d 7154 dfbd
00000110: 25d3 0fbe b46e fe3c 0aeb a03d 2168 563d
00000120: 2436 993d 6fcd 19bd f7b4 0fbe a9b0 1dbb
00000130: 92ca 743d 3bca 9fbd 6a52 1bbe 0c84 58bc
00000140: 7a5c 1a3c 2627 cbbd 045e e5bd 4374 813d
00000150: b4bc 14be 13ed d73d c327 6dbc 99e5 02bd
00000160: dcf3 b73d b2fa c93d 14cf c7bd 9047 37bd
00000170: 9ef5 82bd f49e bdbd 74e1 093d 917f 02be
00000180: 9181 f63d 7fb1 5cbd daad d1bd d488 76ba
00000190: a6ad aebd 43cc 83bb 5c16 b23d 34cd 5fbd
000001a0: 1e6b 1cbe 9c3e 16be fd7d 553d 0cdd 2638
000001b0: 1937 fc3d 82dc a93d 1d87 cb3d 5853 e33d
000001c0: 0764 9a3d 59a9 a23c cb76 493d 5a64 1a3e
000001d0: 1e68 bdbd c56a cfbd cf65 06be 5cd3 72bd
000001e0: 8ab7 cabd f3a6 14be fefd 7ebc 9d45 373b
000001f0: 942a 26bd 6d55 ab3d 7271 b4bd 59cb e0bd

pointer.W f4 [1, 128, 256]
-0.0012497414 -0.009235726 -0.009580336 -0.008977288 0.0035083715 0.002457486 -0.0009769419 0.00033092668
0.0045460495 -0.011598973 -0.01389194 0.009895634 0.011479468 -0.004893849 0.0011321782 0.0070751696
-0.0065152827 -0.010932251 -0.008358343 -0.008455719 0.012796339 -0.00086419284 0.0006941288 0.010900092
0.01527454 0.010093509 0.0010558678 -0.011614994 -0.014300686 0.0019435221 0.0098474845 -0.008823302
-0.0103744995 -0.0074071963 -0.0065888735 0.010799645 0.0034514137 0.010177172 0.009401313 0.011289913
0.001450923 0.00055947644 -0.011702839 -0.005749163 -0.0029892488 0.010231088 -0.0013518047 0.008181496
-0.0053282906 -0.007360124 0.010784528 0.0059482553 -0.0034091948 -0.008244405 0.008281025 -0.013466245
0.00527442 0.005643035 -0.0017720241 -0.008543488 0.014562846 0.011101756 0.0025532593 0.0047316733
0.008924328 -0.005096598 0.0076000863 0.0006042161 -0.011389132 -0.0090567265 -0.012182121 -0.009705475
-0.0022545997 0.013799725 0.0046085105 0.00010229774 6.581934e-05 0.0039843046 -0.006059887 -0.011863673
0.003267841 -0.0032423951 -0.011184168 -0.010227322 0.004718995 -0.003324311 0.0043922816 0.0015212635
-0.0022064336 0.011436241 -0.0014446152 -0.009126897 0.0027087107 -0.006296503 0.008844715 5.92918e-05
0.0041772057 -0.00799121 0.010162137 -0.001501428 0.00050866825 -0.0049786265 0.0036585268 -0.0062438995
0.00035468247 -0.011880165 -0.014979989 -0.011851591 0.01051641 -0.010937494 0.011505406 0.0033439735
0.007907214 -0.011166994 0.010992391 -0.008445087 0.013574538 0.002351876 0.009242508 0.009157713
0.014083974 -0.012403724 -0.008542607 0.008553125 -0.009422265 0.0014687896 -0.0033216604 0.0042697545
-0.008232162 0.006595961 0.009097396 -0.005904198 0.008524 -0.008191026 0.00059301825 0.009176728
-0.0131838415 -0.011425416 -0.0009623206 0.003565766 -0.011428149 0.0037714536 0.008872278 -0.005585338
0.0035233414 -0.005191603 0.0024150868 -0.008082993 0.014123285 0.010928543 0.012799626 -0.0037741722
-0.0136621175 -0.0061320737 -0.011399844 -0.010828575 -0.0003184068 0.006704174 -0.013622898 0.0028433674
-0.014119244 -0.015622956 0.0024878038 -0.010978637 -0.009614756 -0.0058026854 0.0043848534 0.0045736553
-0.0039541586 0.014990726 0.009428095 -0.0006635019 -0.0010019006 -0.005332737 0.010099586 -0.013138781
-0.0053567397 0.007182956 -0.0043363916 0.0018387386 0.007516086 0.0017308171 -0.00944311 -0.005232561
0.010169318 0.0086621875 -0.015347759 -0.012642555 0.0013122926 0.0046602804 0.00066964683 -0.0007507268
0.003951693 0.0039920146 -0.014229484 0.0007273131 0.010100848 0.0018144365 0.013635964 0.009880398
0.0076886797 0.0057051335 -0.0034937162 -0.009562807 -0.0030408471 0.0011697898 -0.007587663 0.013312396
0.009915711 -0.010919973 0.003446629 0.0074122893 -0.0014088746 0.0032326945 -0.008673393 0.005310564
0.004282402 -0.00818819 -0.005815645 -0.008339253 0.0023776197 0.010264116 -0.011310644 0.010538563
0.004624058 -0.0014248246 0.008844454 -0.0008014901 -0.001965833 -0.005423673 -0.008270605 0.013704558
-0.0106252665 0.0037376801 -0.008037172 -0.010825454 0.0006258391 0.014885707 -0.015052883 0.013418951
-0.010455243 -0.0126523385 -0.013071934 -0.010664155 0.0049791685 -0.013286794 0.014674823 -0.010918551
-0.0030333572 0.0068558855 0.0059878514 0.008745736 -0.01030853 -0.016280018 0.0022144173 -0.013237336
00000000: 5dce a3ba 7151 17bc d7f6 1cbc 7a15 13bc
00000010: b5ec 653b c60d 213b bb0c 80ba 3a80 ad39
00000020: 07f7 943b 9e09 3ebc 059b 63bc 4c21 223c
00000030: 6114 3c3c 955c a0bb 9965 943a d3d6 e73b
00000040: 277e d5bb 2f1d 33bc 6ef1 08bc db89 0abc
00000050: bca7 513c 008b 62ba 32f6 353a 4d96 323c
00000060: 1042 7a3c 3f5f 253c 0b65 8a3a d14c 3ebc
00000070: 6d4d 6abc c8bd fe3a 5857 213c 9c8f 10bc
00000080: cef9 29bc 11b8 f2bb 7ae7 d7bb fff0 303c
00000090: 1d31 623b 27be 263c f707 1a3c 54f9 383c
000000a0: e62c be3a d4a9 123a 44bd 3fbc 7a63 bcbb
000000b0: 46e7 43bb 4ba0 273c 0a2f b1ba ae0b 063c
000000c0: f198 aebb 322d f1bb 97b1 303c 95e9 c23b
000000d0: cc6c 5fbb 8a13 07bc 23ad 073c 86a1 5cbc
000000e0: 0bd5 ac3b 35e9 b83b 4343 e8ba fcf9 0bbc
000000f0: 0199 6e3c 24e4 353c 9554 273b 270c 9b3b
00000100: 5837 123c 5d01 a7bb 250a f93b 4264 1e3a
00000110: 7b99 3abc aa62 14bc 8597 47bc b603 1fbc
00000120: e8c1 13bb 3e18 623c fd02 973b ae88 d638
00000130: 7d08 8a38 c58e 823b 0492 c6bb da5f 42bc
00000140: 4629 563b 5d7e 54bb cd3d 37bc 7f90 27bc
00000150: cda1 9a3b afdc 59bb 21ed 8f3b 2265 c73a
00000160: d099 10bb 125f 3b3c 3e59 bdba fb88 15bc
00000170: a084 313b e552 cebb 6ce9 103c 16b0 7838
00000180: f1e0 883b 90ed 02bc 187f 263c 90cb c4ba
00000190: 2658 053a bf23 a3bb e5c3 6f3b a099 ccbb
000001a0: adf4 b939 06a5 42bc a16e 75bc 2d2d 42bc
000001b0: 054d 2c3c 2d33 33bc 2c81 3c3c 9126 5b3b
000001c0: 428d 013c c5f5 36bc 6e19 343c 435d 0abc
000001d0: bd67 5e3c ef21 1a3b e36d 173c 3b0a 163c
000001e0: 78c0 663c fd38 4bbc 4af6 0bbc 6822 0c3c
000001f0: d85f 1abc 6784 c03a 37b0 59bb 4ce9 8b3b
00000200: 31e0 06bc ee22 d83b 3f0d 153c 0178 c1bb
00000210: 3fa8 0b3c a733 06bc c874 1b3a fd59 163c
00000220: 0a01 58bc ab31 3bbc 3e44 7cba a0af 693b
00000230: 223d 3bbc 7e2a 773b 085d 113c 3605 b7bb
00000240: dce7 663b 531e aabb 6f46 1e3b 886e 04bc
00000250: 5a65 673c a20d 333c 86b5 513c 1a58 77bb
00000260: 13d7 5fbc 90ef c8bb 69c6 3abc 566a 31bc
00000270: d6ef a6b9 b0ae db3b 9332 5fbc ca57 3a3b
00000280: 6754 67bc 6df7 7fbc 6c0a 233b bedf 33bc
00000290: 3687 1dbc 7424 bebb d1ae 8f3b 9ade 953b
000002a0: e391 81bb a99b 753c 4c78 1a3c dcee 2dba
000002b0: 3552 83ba 3ebe aebb bc78 253c 0b44 57bc
000002c0: 9787 afbb 015f eb3b 4a18 8ebb d401 f13a
000002d0: 8049 f63b 96dc e23a 46b7 1abc e775 abbb
000002e0: 369d 263c d9eb 0d3c 2b75 7bbc b822 4fbc
000002f0: 3c01 ac3a 44b5 983b 3d8b 2f3a 6ccc 44ba
00000300: 347d 813b 72cf 823b c822 69bc 28a9 3e3a
00000310: 077e 253c 63d2 ed3a 6169 5f3c 65e1 213c
00000320: 52f1 fb3b 21f2 ba3b d5f6 64bb 52ad 1cbc
00000330: f348 47bb a253 993a eea1 f8bb 3c1c 5a3c
00000340: 8275 223c b0e9 32bc d7e0 613b cae2 f23b
00000350: fda9 b8ba 9ddb 533b d91a 0ebc 3d04 ae3b
00000360: 6453 8c3b c227 06bc 2b91 bebb 5da1 08bc
00000370: d7d1 1b3b d32a 283c 4850 39bc f0a9 2c3c
00000380: 6985 973b 2ec1 baba 54e8 103c 171b 52ba
00000390: 34d5 00bb 11b9 b1bb 6e81 07bc 1589 603c
000003a0: 9915 2ebc def3 743b 58ae 03bc 3f5d 31bc
000003b0: 5a0f 243a 2ee3 733c 5ea0 76bc 29db 5b3c
000003c0: 784c 2bbc c14b 4fbc aa2b 56bc b5b8 2ebc
000003d0: 4b28 a33b dab0 59bc ab6e 703c b9e3 32bc
000003e0: 4acb 46bb 56a7 e03b bd35 c43b 474a 0f3c
000003f0: 1ce5 28bc ac5d 85bc c21f 113b 69e1 58bc

pointer.gru.weight_ih_l0 f4 [384, 128]
-0.05322793 -0.022531485 -0.043457754 -0.05600282 -0.044287086 -0.07865904 0.030165333 0.09877665
-0.08737755 -0.09714432 0.1006034 0.034987103 -0.08090722 -0.05779909 0.06596296 -0.09337714
-0.018809253 0.10068436 0.08447402 -0.07048305 -0.036500454 0.0044766087 -0.08743304 0.026843106
-0.039022647 0.0889696 -0.011168323 0.026329907 -0.033331238 -0.07363066 0.031422272 -0.08176494
0.049440954 0.05535953 -0.08464638 -0.065814376 0.10153917 -0.09396874 0.05929438 0.05442588
-0.03037324 -0.025249563 0.029871296 0.0123733785 0.101509385 0.0967848 0.043914307 -0.089462675
-0.0118744625 -0.101612724 0.09004578 0.08409911 0.012688472 -0.050507918 -0.054861736 0.08671624
0.08617161 0.09434494 -0.07377643 -0.0794489 -0.0018889144 -0.052534297 0.0015708262 -0.018547565
-0.04487007 -0.053080373 -0.03280106 -0.022916382 0.028707413 -0.010108377 -0.07117924 8.811511e-05
0.02573157 -0.04265118 -0.10685626 0.061317015 0.09177466 -0.033027865 0.0030597334 0.10450919
-0.08437449 0.104881115 0.016469793 -0.07564717 0.08075523 -0.035524707 0.01567515 -0.028777784
0.027704488 -0.094709426 0.01227978 -0.018388538 -0.044090062 -0.042250726 -0.056094795 -0.01308615
-0.10539906 -0.016463343 -0.020905975 0.06751097 -0.075855695 -0.029964298 -0.09400281 -0.046368156
0.01048634 0.057586923 0.0948132 -0.0057411157 0.0975995 0.0012542208 -0.10103066 -0.030285114
0.09210294 -0.10561942 -0.08331287 -0.024251591 -0.04733001 0.008309978 0.08499014 -0.019317256
0.025241844 -0.06792207 0.07768935 0.0941665 0.022547467 -0.023101458 -0.026228048 -0.04882885
-0.03540652 0.043263856 0.015857883 -0.04974304 0.019084282 0.023957495 -0.073306896 -0.10289177
-0.051133007 0.06881605 0.034631334 0.10255165 0.06036166 -0.050731536 0.0824067 -0.036638457
0.106805794 0.09210909 -0.040748805 -0.015187095 -0.06619017 -0.063810825 0.08637221 0.069094114
0.029508548 0.023081021 0.03987762 0.063621156 -0.04492322 -0.028103448 -0.04482955 -0.036438867
-0.09094012 -0.08874331 -0.106137544 -0.08006582 0.003884755 -0.03304416 -0.085643895 -0.10160809
0.06299518 0.021564335 -0.057334352 -0.0569183 0.030685786 -0.085847974 -0.056167886 0.0730264
0.05534872 0.07658784 -0.05684393 0.0031463446 -0.06720991 0.010673423 -0.017476426 -0.083612986
0.056409363 -0.03461894 -0.04433767 -0.027548343 -0.09720917 0.027834814 0.022128172 -0.05409896
-0.06355004 -0.09753319 0.09189279 -0.0096519785 -0.036028042 -0.07248256 -0.08680831 0.04602704
0.037697203 0.103405945 -0.07859629 0.08102886 -0.07543625 -0.106748775 0.053141605 0.00941356
0.032668408 -0.048719857 0.0063567334 -0.01807474 0.102486305 -0.056822356 -0.027644029 0.0007969076
0.055075873 0.024041746 0.005966801 -0.058114756 0.1025511 -0.03631085 -0.019435616 -0.07876001
0.036169477 -0.038531717 0.09627422 -0.03337218 0.024009814 -0.02321819 -0.06407889 -0.06976786
-0.07773077 -0.04049654 -0.020676773 0.052309148 0.044030268 0.0035617875 -0.027301127 0.056824137
0.09234627 -0.06968138 -0.08619955 0.003521616 -0.033216745 -0.090998225 -0.004894552 -0.0783694
-0.07705099 -0.04596307 -0.04337301 -0.032310136 0.101184644 -0.074499965 -0.09265542 -0.0432071
00000000: 8805 5abd f393 b8bc c200 32bd 3763 65bd
00000010: 6066 35bd fe17 a1bd 4a1d f73c 6a4b ca3d
00000020: 00f3 b2bd 9af3 c6bd 2809 ce3d a34e 0f3d
00000030: afb2 a5bd bdbe 6cbd 9717 873d 843c bfbd
00000040: dd15 9abc 9a33 ce3d b700 ad3d 6b59 90bd
00000050: 8081 15bd 84b0 923b 1810 b3bd 13e6 db3c
00000060: 36d6 1fbd b235 b63d 58fb 36bc d1b1 d73c
00000070: 5686 08bd accb 96bd a4b4 003d 6074 a7bd
00000080: 9982 4a3d adc0 623d 155b adbd b0c9 86bd
00000090: c5f3 cf3d af72 c0bd aade 723d aced 5e3d
000000a0: 4dd1 f8bc 2cd8 cebc a6b4 f43c b6b9 4a3c
000000b0: 27e4 cf3d 1c37 c63d 7ddf 333d 3538 b7bd
000000c0: 1b8d 42bc 551a d0bd ec69 b83d 273c ac3d
000000d0: 4fe3 4f3c 64e1 4ebd b3b6 60bd 4998 b13d
000000e0: be7a b03d eb37 c13d 1918 97bd 1bb6 a2bd
000000f0: 7395 f7ba 342e 57bd 2ee4 cd3a 10f1 97bc
00000100: aec9 37bd ce6a 59bd 675a 06bd 23bb bbbc
00000110: cf2b eb3c 9b9d 25bc 6cc6 91bd 71ca b838
00000120: 03cb d23c 01b3 2ebd 74d7 dabd 8d27 7b3d
00000130: 5af4 bb3d 3a48 07bd cf85 483b ea08 d63d
00000140: 88cc acbd e9cb d63d a9eb 863c e7ec 9abd
00000150: ff62 a53d 5b82 11bd 2c69 803c 63bf ebbc
00000160: 86f4 e23c 04f7 c1bd 2131 493c 8fa3 96bc
00000170: c897 34bd 190f 2dbd a8c3 65bd 4b67 56bc
00000180: 76db d7bd 22de 86bc 0243 abbc 3143 8a3d
00000190: 3b5a 9bbd b077 f5bc 8c84 c0bd 89ec 3dbd
000001a0: e6ce 2b3c 44e0 6b3d 6c2d c23d f81f bcbb
000001b0: 3fe2 c73d ab64 a43a 2ae9 cebd 7d18 f8bc
000001c0: 77a0 bc3d ff4e d8bd f09f aabd 46ab c6bc
000001d0: 1ddd 41bd 9326 083c 4f0f ae3d 393f 9ebc
000001e0: fcc7 ce3c ba1a 8bbd 981b 9f3d 5eda c03d
000001f0: 77b5 b83c 453f bdbc 34dc d6bc c300 48bd
00000200: 6d06 11bd 7135 313d 64e8 813c 5cbf 4bbd
00000210: a456 9c3c 8242 c43c ed21 96bd ecb8 d2bd
00000220: d870 51bd 6eef 8c3d 96d9 0d3d 9906 d23d
00000230: ca3d 773d dfcb 4fbd d8c4 a83d 3512 16bd
00000240: ffbc da3d b1a3 bc3d 38e8 26bd 4bd3 78bc
00000250: b68e 87bd 40af 82bd eae3 b03d 3781 8d3d
00000260: e9bb f13c 6914 bd3c b756 233d cf4b 823d
00000270: 6901 38bd 3439 e6bc 319f 37bd ec40 15bd
00000280: d03e babd 0dbf b5bd a45e d9bd 8cf9 a3bd
00000290: 6097 7e3b 5059 07bd 1166 afbd e717 d0bd
000002a0: 9e03 813d b0a7 b03c 6dd7 6abd 2a23 69bd
000002b0: c260 fb3c 10d1 afbd 4c10 66bd dd8e 953d
000002c0: 57b5 623d 16da 9c3d 2ed5 68bd e732 4e3b
000002d0: 59a5 89bd 95df 2e3c b92a 8fbc 493d abbd
000002e0: 810d 673d 97cc 0dbd 6b9b 35bd 10ad e1bc
000002f0: 9a15 c7bd d605 e43c 2446 b53c df96 5dbd
00000300: 8626 82bd 7bbf c7bd 4932 bc3d 5523 1ebc
00000310: 2492 13bd bd71 94bd 8ec8 b1bd d986 3c3d
00000320: 6268 1a3d 7fc6 d33d 17f7 a0bd 75f2 a53d
00000330: 527e 9abd 1a9f dabd 03ab 593d 553b 1a3c
00000340: 4fcf 053d 798e 47bd 254c d03b 7a11 94bc
00000350: 57e4 d13d 8fbe 68bd bb75 e2bc 90e7 503a
00000360: 3d97 613d 32f3 c43c 2885 c33b bd09 6ebd
00000370: 5006 d23d b0ba 14bd 7137 9fbc ee4c a1bd
00000380: 7226 143d 6fd3 1dbd 6b2b c53d 44b1 08bd
00000390: 3bb0 c43c 1334 bebc cb3b 83bd 74e2 8ebd
000003a0: 4f31 9fbd b3df 25bd 5662 a9bc 1e42 563d
000003b0: 1559 343d e16c 693b 9da6 dfbc 6dc0 683d
000003c0: 0b20 bd3d 1db5 8ebd 6489 b0bd eaca 663b
000003d0: 480e 08bd 475d babd 7a62 a0bb 2380 a0bd
000003e0: e9cc 9dbd c643 3cbd e6a7 31bd a257 04bd
000003f0: e539 cf3d 7093 98bd 20c2 bdbd eef9 30bd

pointer.gru.weight_hh_l0 f4 [384, 128]
-0.05159338 -0.051673222 -0.089047596 0.020632347 -0.047018226 -0.06071559 -0.07180229 -0.09357109
0.060776602 -0.052564975 0.10218264 0.009372597 -0.028506795 0.06760694 0.026640795 -0.02822943
-0.043530438 0.09776439 0.0016635673 -0.098755054 -0.068039574 -0.06619259 0.093111016 0.020731593
-0.03685506 -0.08610836 0.044228837 0.049071994 -0.0028068684 -0.03220776 -0.04447806 -0.009695962
-0.106809825 0.019751 0.088204026 0.053018022 0.019637207 -0.021368759 0.06885003 -0.0040662154
-0.027531212 0.046634167 -0.09526416 -0.0024007864 0.061880376 -0.011840507 -0.01070153 -0.08251451
-0.026778556 -0.10054848 0.0038356145 -0.0855642 0.025693892 -0.0455218 -0.0061270865 -0.017660169
-0.036386356 0.032613695 0.07229604 -0.096455514 0.009079108 0.06296206 0.10781778 0.09069882
0.0336026 0.034001727 -0.03676402 0.09593375 -0.076503634 -0.08520862 0.100528836 0.07886663
-0.071524575 -0.0737438 0.024247544 -0.031594675 0.029000247 -0.040374916 0.049200498 -0.040205207
-0.0049555567 -0.098071635 -0.026373599 -0.04438705 0.042397194 -0.099563666 0.011516726 -0.02809634
0.08225523 -0.02519195 -0.065645084 0.030615536 0.09462215 -0.08939277 0.017057119 -0.003668292
-0.05363979 0.050609402 -0.02191146 0.074419506 0.09280031 0.025498983 -0.05522694 0.07278587
-0.0941308 -0.09388008 -0.007371836 0.0430374 0.09820894 0.017973583 0.024158651 -0.0359365
0.089207314 0.04919345 0.0852391 -0.060076702 0.044403065 -0.062266782 0.063905396 0.042586148
0.060258973 0.08844484 0.03493422 -0.073473185 -0.054913547 0.0033158348 -0.038282454 -0.0357625
-0.0918598 -0.09739817 -0.014691952 0.0762905 0.017715981 -0.07299345 0.06159774 -0.0049998355
-0.023711326 0.082123674 -0.07000044 -0.10710692 0.0407792 0.101616144 -0.0029648214 0.08896726
-0.09592739 -0.077335596 0.02052539 -0.07409926 -0.023364147 -0.084706925 -0.054307386 0.048810497
-0.002724944 0.099728644 -0.07539638 0.012559147 0.0579033 -0.0027962958 -0.022808855 0.050847907
-0.091060415 -0.091059566 0.08457696 0.06928785 -0.0849743 -0.087396316 0.009573136 0.0035238753
0.10459848 0.098768614 0.009623207 -0.0731059 -0.0883529 -0.019309642 -0.06746409 -0.059401907
0.038704664 0.042453323 0.060055513 -0.041090023 -0.09935726 -0.0005861135 0.00769648 0.06453106
0.038438622 0.0038690045 -0.00042781484 0.0052710045 0.0778866 0.09680187 0.039849374 -0.03887096
-0.035307445 -0.026493644 -0.0214217 -0.07850081 0.05900865 -0.10645584 0.039835647 -0.05178469
0.011627391 0.09390794 0.07572816 -0.010976525 0.017315319 -0.07149161 0.062204324 0.06064662
-0.09558032 0.010828932 0.049022 -0.05027017 0.09659739 -0.090358086 0.049623016 -0.033396907
0.035445973 -0.0968061 -0.0051004076 -0.026037026 -0.050862353 -0.016532257 -0.08067403 0.035441887
-0.0789898 0.05487842 0.02404132 -0.060793716 0.021422543 0.07933619 0.09930582 0.03561054
-0.09216146 -0.084606774 0.056194004 -0.03173429 -0.010015253 0.01864039 -0.018825086 -0.0047104917
0.03426672 -0.0306196 0.014820597 -0.015806796 0.041642744 -0.06313617 0.046680618 -0.051949363
0.072980046 -0.013044744 0.011384513 -0.07013701 -0.10261139 -0.008379436 0.025082516 0.03533546
00000000: 9453 53bd 4da7 53bd 965e b6bd 2b05 a93c
00000010: 2f96 40bd e9b0 78bd 140d 93bd 33a2 bfbd
00000020: e3f0 783d 5f4e 57bd 2245 d13d 858f 193c
00000030: 1587 e9bc 8275 8a3d cc3d da3c 6841 e7bc
00000040: f94c 32bd b238 c83d 0e0c da3a 1740 cabd
00000050: 5558 8bbd fb8f 87bd fdb0 be3d 4dd5 a93c
00000060: 55f5 16bd 9459 b0bd 4c29 353d b7ff 483d
00000070: 70f3 37bb 49ec 03bd a02e 36bd d0db 1ebc
00000080: 1cbf dabd d9cc a13c 50a4 b43d 6d29 593d
00000090: 35de a03c 890d afbc 3f01 8d3d e33d 85bb
000000a0: 2389 e1bc 7803 3f3d db19 c3bd 8356 1dbb
000000b0: 4776 7d3d b0fe 41bc 7855 2fbc 5efd a8bd
000000c0: b45e dbbc 5dec cdbd ef5e 7b3b 493c afbd
000000d0: ff7b d23c 1175 3abd bac5 c8bb 0fac 90bc
000000e0: dc09 15bd f095 053d f20f 943d 788a c5bd
000000f0: 8ac0 143c 41f2 803d 91cf dc3d 4ec0 b93d
00000100: e1a2 093d 6545 0b3d de95 16bd ea78 c43d
00000110: f0ad 9cbd db81 aebd 10e2 cd3d d484 a13d
00000120: 7a7b 92bd fd06 97bd c9a2 c63c 6b69 01bd
00000130: ed91 ed3c 2b60 25bd 7686 493d 37ae 24bd
00000140: 3962 a2bb c8d9 c8bd 720d d8bc 32cf 35bd
00000150: aea8 2d3d 09e8 cbbd a6b0 3c3c 4c2a e6bc
00000160: 6e75 a83d 595f cebc ee70 86bd 6fcd fa3c
00000170: 42c9 c13d 8e13 b7bd 5fbb 8b3c ba67 70bb
00000180: 65b5 5bbd ce4b 4f3d aa7f b3bc 4169 983d
00000190: 170e be3d 3ee3 d03c a535 62bd c210 953d
000001a0: a6c7 c0bd 3344 c0bd 718f f1bb fc47 303d
000001b0: c521 c93d 563d 933c 5de8 c53c 2732 13bd
000001c0: 53b2 b63d 127f 493d d691 ae3d fd12 76bd
000001d0: fddf 353d 740b 7fbd d5e0 823d d06e 2e3d
000001e0: 1dd2 763d 9122 b53d 2f17 0f3d 1c79 96bd
000001f0: 07ed 60bd 7a4e 593b 10ce 1cbd b37b 12bd
00000200: fe20 bcbd b178 c7bd 83b6 70bc 323e 9c3d
00000210: 1b21 913c 977d 95bd e94d 7c3d a9d5 a3bb
00000220: 413e c2bc 7530 a83d 645c 8fbd df5a dbbd
00000230: 1708 273d 201c d03d 734d 42bb 7834 b63d
00000240: 9475 c4bd 2062 9ebd dd24 a83c 5ac1 97bd
00000250: 2b66 bfbc d37a adbd 6c71 5ebd 84ed 473d
00000260: f994 32bb 883e cc3d 6b69 9abd e1c4 4d3c
00000270: 032c 6d3d 0f42 37bb a3d9 babc e545 503d
00000280: e27d babd 707d babd af36 ad3d cae6 8d3d
00000290: 0107 aebd d7fc b2bd a5d8 1c3c d1f0 663b
000002a0: ba37 d63d 3347 ca3d a8aa 1d3c 8cb8 95bd
000002b0: 5ef2 b4bd 412f 9ebc 9d2a 8abd 6a4f 73bd
000002c0: c888 1e3d 89e3 2d3d c5fc 753d 034e 28bd
000002d0: d27b cbbd 69a5 19ba c132 fc3b dc28 843d
000002e0: d171 1d3d 208f 7d3b 564c e0b9 64b8 ac3b
000002f0: 0283 9f3d 0f40 c63d 1939 233d 2837 1fbd
00000300: 8a9e 10bd 3309 d9bc 907c afbc 08c5 a0bd
00000310: 0eb3 713d 8505 dabd b42a 233d 2f1c 54bd
00000320: d080 3e3c ce52 c03d 5e17 9b3d e2d6 33bc
00000330: dbd8 8d3c 316a 92bd f6c9 7e3d 9768 783d
00000340: 9dbf c3bd d56b 313c 4bcb 483d 18e8 4dbd
00000350: dad4 c53d a90d b9bd 8141 4b3d 32cb 08bd
00000360: cc2f 113d 4742 c6bd 5221 a7bb 9a4b d5bc
00000370: 0b55 50bd a86e 87bc 6d38 a5bd 832b 113d
00000380: 67c5 a1bd 32c8 603d 4df2 c43c d502 79bd
00000390: 547e af3c 037b a23d da60 cb3d 5cdc 113d
000003a0: 26bf bcbd 5146 adbd af2b 663d d1fb 01bd
000003b0: 0417 24bc bbb3 983c 1137 9abc 785a 9abb
000003c0: 435b 0c3d f5d5 fabc 17d2 723c 417d 81bc
000003d0: 9591 2a3d 894d 81bd 2d34 3f3d dbc8 54bd
000003e0: 9076 953d 9fb9 55bc 1c86 3a3c fea3 8fbd
000003f0: ec25 d2bd e749 09bc d979 cd3c eabb 103d
