Task assignment/drl4vrp/vrp/10/19_07_57.994352/checkpoints/12/critic.pt (torch, 29011 bytes, 9 tensors)

static_encoder.conv.weight f4 [128, 2, 1]
0	0x3e18372b	0.14864795
1	0xbe4f2d5c	-0.20232147
2	0x3e1ffedc	0.15624565
3	0x3e5e3511	0.2169993
4	0xbe02d429	-0.12776245
5	0xbd9081f9	-0.0705604
6	0x3dc0066a	0.093762234
7	0x3e1b07f2	0.1513975
8	0x3e02b4c4	0.12764269
9	0x3e473695	0.19454415
10	0x3e55c1f5	0.2087477
11	0xbe63afaf	-0.22234987
12	0xbe0276ff	-0.12740706
13	0xbe480999	-0.19534911
14	0xbe05b425	-0.13057001
15	0x3ddef22b	0.108860336
16	0x3da57caa	0.080804184
17	0x3e553562	0.20821145
18	0xbe09b463	-0.13447718
19	0x3d995570	0.07486999
20	0xbe0e1045	-0.13873394
21	0xbcf10017	-0.029418988
22	0x3dcec286	0.10095696
23	0x3dd299c3	0.10283234
24	0x3db9e4a1	0.09076811
25	0xbdf68af4	-0.12038222
26	0xbe4bfba4	-0.19920212
27	0xbe459700	-0.19295883
28	0xbe2ca636	-0.1686028
29	0x3d9eb97b	0.07750221
30	0xbe0cdb62	-0.13755563
31	0x3d88de90	0.066830754
32	0x3cf1c440	0.029512525
33	0x3e141288	0.14460194
34	0x3e1c9147	0.15289794
35	0x3e40adc7	0.18816291
36	0xbdfca126	-0.12335424
37	0x3e51d308	0.20490658
38	0x3e38311a	0.17987481
39	0xbe1a41b2	-0.15064123
40	0x3e27a6de	0.16372249
41	0xbe045242	-0.12922004
42	0x3e2e68f8	0.1703223
43	0xbe03ce1f	-0.12871598
44	0xbd54a274	-0.05191274
45	0xbe0d64ab	-0.13807933
46	0x3d1b3f73	0.037902307
47	0xbcf6c70e	-0.030124214
48	0xbe3858f0	-0.18002677
49	0x3e326a92	0.17423466
50	0xbda7ac48	-0.08187157
51	0xbe34e79c	-0.17666477
52	0xbde6e332	-0.11273803
53	0xbe2b348e	-0.16719267
54	0xbe111818	-0.14169347
55	0xbe4328f3	-0.1905859
56	0x3e14c481	0.14528085
57	0xbdc03c74	-0.093865305
58	0x3dbc6f10	0.09200871
59	0x3dc5147a	0.09623046
60	0x3db5c1b5	0.08874837
61	0x3dcbcf7d	0.099516846
62	0xbd2abb05	-0.041682262
63	0xbcb119fe	-0.02161884
64	0xbcf5c13a	-0.029999364
65	0x3a30ca71	0.00067440333
66	0xbe4ba9d7	-0.19889008
67	0xbdd721c6	-0.10504489
68	0xbd2e7c2d	-0.042598892
69	0xbc99a87e	-0.018757101
70	0x3e0cd04a	0.13751331
71	0x3c7141df	0.014725178
72	0xbe4426a3	-0.19155364
73	0x3e409aae	0.18809006
74	0x3d9ecfe9	0.077544995
75	0xbe0282b1	-0.12745167
76	0xbda3f68b	-0.08006009
77	0x3a739c90	0.0009293044
78	0x3e5be65d	0.21474595
79	0xbe01f483	-0.1269093
80	0xbc8c177c	-0.017101042
81	0xbce08044	-0.027404912
82	0xbe5817b9	-0.211028
83	0x3d8413d0	0.064490914
84	0xbc507df2	-0.01272534
85	0x3dcac5e4	0.09901026
86	0x3dc2ffa5	0.095214166
87	0xbcf87b1d	-0.030332142
88	0xbe37a00d	-0.17932148
89	0x3d167b47	0.03673866
90	0x3e3abca3	0.18236022
91	0x3e0860d3	0.13318186
92	0xbdb1f74e	-0.08689748
93	0x3e21d3f0	0.15803504
94	0xbd4037f3	-0.046928357
95	0xbe2e7392	-0.17036274
96	0xbc4be491	-0.012444631
97	0xbcbcafb1	-0.023032995
98	0xbdf5f49c	-0.12009546
99	0xbe1fb2fe	-0.15595624
100	0xbe046571	-0.12929322
101	0xbdb4198b	-0.087939344
102	0xbd50744d	-0.050892163
103	0x3daca5fa	0.08430095
104	0xbe057796	-0.130339
105	0x3e44142b	0.19148318
106	0xbe12b2b5	-0.14325984
107	0xbd282d35	-0.041058738
108	0x3d246c7d	0.040142525
109	0x3d0b62b9	0.034029696
110	0x3ccaf53e	0.024775144
111	0xbccb0826	-0.024784159
112	0x3da26dda	0.07931109
113	0x3d7829db	0.06058679
114	0x3df5e2fa	0.12006183
115	0x3ccceb2b	0.02501448
116	0xbe4eaba3	-0.20182662
117	0xbdf8dbdb	-0.12151309
118	0x3d19201e	0.037384145
119	0x3e52a816	0.20571932
120	0xbe486648	-0.19570267
121	0xbdb49aaf	-0.08818566
122	0x3d8e5e78	0.06951612
123	0x3e00a62b	0.12563388
124	0x3d1c9cc7	0.038235452
125	0x3e1e372c	0.15450734
126	0x3c6a349c	0.01429477
127	0x3e0503e6	0.12989768
128	0xbe429e24	-0.19005638
129	0xbe20edc1	-0.15715696
130	0xbd6da890	-0.05802208
131	0x3daeb44d	0.085304834
132	0xbd337273	-0.04381032
133	0xbdb61a75	-0.08891765
134	0xbde19eea	-0.110166386
135	0xbe59c254	-0.21265537
136	0x3e201251	0.15631987
137	0x3d9e2f91	0.07723916
138	0xbdd445e6	-0.103648946
139	0xbdcbfd2f	-0.099604
140	0x3d440558	0.04785666
141	0x3e487f16	0.1957973
142	0x3d96ffb1	0.07372988
143	0x3c9e912b	0.01935633
144	0x3e24a136	0.16077122
145	0xbe4290bf	-0.19000529
146	0xbd3f9bf6	-0.046779595
147	0x3e5b891a	0.21439019
148	0xbdf0eaa2	-0.11763503
149	0x3e0b8dc3	0.13628297
150	0xbd6dc771	-0.05805153
151	0xbd913404	-0.07089999
152	0x3c8e6b19	0.017385053
153	0x3c8a7459	0.016901182
154	0x3e563c09	0.20921339
155	0xbd63c11b	-0.05560408
156	0x3d9dfe44	0.07714513
157	0xbbfd16e8	-0.007723678
158	0xbd865eed	-0.065610744
159	0x3e658b69	0.22416462
160	0xbe43af15	-0.19109757
161	0xbda50ae1	-0.080587156
162	0xbe1f3852	-0.15548828
163	0x3bd7818a	0.0065767216
164	0x3e4cc11b	0.19995539
165	0x3e0066c1	0.12539198
166	0x3d27c04d	0.040954877
167	0xbda362f6	-0.0797786
168	0x3db22415	0.08698288
169	0xbd14f55a	-0.036366798
170	0xbd74c2e1	-0.059756164
171	0x3e1dd6e0	0.15414
172	0x3e00f969	0.12595142
173	0x3dfc3088	0.12313944
174	0x3e579bf0	0.21055579
175	0x3e0d3508	0.13789761
176	0x3e009f0c	0.12560672
177	0x3e33f1f8	0.17572773
178	0x3e03cc33	0.12870865
179	0xbd66e820	-0.056373715
180	0x3db52ce5	0.088464536
181	0xbe213dd3	-0.1574624
182	0x3d97b0a1	0.07406736
183	0x3d41a097	0.04727229
184	0x3e15c720	0.14626741
185	0xbd81b8ce	-0.06334077
186	0xbd8f0448	-0.069832385
187	0xbe18a41f	-0.14906357
188	0x3dc48bf9	0.0959701
189	0xbe3e84ce	-0.18605348
190	0xbdef77d7	-0.116927795
191	0x3d3ddf4a	0.046355523
192	0xbe54d797	-0.20785366
193	0x3e53e64d	0.20693322
194	0x3dc36011	0.095398076
195	0x3d9a61ae	0.07538162
196	0x3e531664	0.2061401
197	0xbe4017cd	-0.1875908
198	0xbe24521f	-0.16046952
199	0x3d3ec826	0.046577595
200	0x3e11a55f	0.1422324
201	0x3dfa9a7b	0.12236496
202	0x3d57b944	0.052666917
203	0x3e16a44e	0.14711115
204	0x3e68ab48	0.22721589
205	0xbe2a4213	-0.16626768
206	0x3d723057	0.05912813
207	0x3e3f5972	0.18686464
208	0x3d894336	0.067022726
209	0xbe5a188e	-0.2129843
210	0x3e494464	0.19654995
211	0xbdaf12d2	-0.085485116
212	0x3d83dda4	0.06438759
213	0xbcaf8131	-0.021423908
214	0x3e17b114	0.14813644
215	0xbd9c7392	-0.07639231
216	0x3e1580c5	0.14599903
217	0xbe1bbe97	-0.15209423
218	0xbdfe8143	-0.124269985
219	0xbddd06c5	-0.10792307
220	0x3e002024	0.1251226
221	0x3e231013	0.159241
222	0x3e43396b	0.19064872
223	0xbe28d3ee	-0.16487095
224	0x3d7330f1	0.059372846
225	0xbd0b4962	-0.03400553
226	0xbd426b27	-0.04746547
227	0xbe3c1754	-0.18368274
228	0x3a1b3107	0.00059200864
229	0x3e369e02	0.17833713
230	0x3e00ab9c	0.12565464
231	0x3c83dc6a	0.016096313
232	0xbd1fa0f1	-0.038971845
233	0x3e564242	0.20923713
234	0xbc66f5b2	-0.014096664
235	0xbe323d27	-0.1740614
236	0xbe07c4c2	-0.13258651
237	0xbe04dc83	-0.12974744
238	0x3de8b91c	0.11363432
239	0x3d1e780d	0.038688708
240	0xbe368241	-0.17823125
241	0x3e4aaf59	0.19793452
242	0xbe06a861	-0.13150169
243	0x3e113a0b	0.14182298
244	0xbc36bd2c	-0.0111535005
245	0xbe137d43	-0.14403252
246	0x3e576697	0.21035229
247	0x3e08e306	0.13367853
248	0x3d4f7625	0.05064978
249	0xbc800b20	-0.015630305
250	0x3ccc989c	0.024975114
251	0x3e32165c	0.17391342
252	0x3c03d29d	0.00804582
253	0xbe235b3c	-0.15952772
254	0xbe5abb53	-0.21360521
255	0xbe493ef2	-0.19652918

static_encoder.conv.bias f4 [128]
0	0x3dd97deb	0.1061972
1	0xbedfd7ee	-0.4371943
2	0xbe5a1738	-0.2129792
3	0xbe0dd832	-0.13852003
4	0x3e9e22ce	0.3088593
5	0xbe6c5596	-0.23079523
6	0x3ea7d491	0.32779363
7	0x3d9535c9	0.07285649
8	0xbede6ef2	-0.4344402
9	0x3e7bf57b	0.24605362
10	0x3e83ba9f	0.25728318
11	0x3f30b34e	0.690236
12	0x3ee9735d	0.45595828
13	0x3ed5950a	0.4171527
14	0x3d156f11	0.036482874
15	0xbe8e035c	-0.27736938
16	0x3ef0528c	0.46937978
17	0x3f096417	0.5366835
18	0x3f25beab	0.6474406
19	0x3ee6db6b	0.45089278
20	0x3e9fed10	0.31235552
21	0x3f14beb9	0.5810352
22	0xbec353b3	-0.38149795
23	0xbec59332	-0.38588864
24	0x3f0c42b6	0.5478929
25	0x3e84dbdb	0.25948986
26	0x3e69be22	0.22826436
27	0xbf00d9c9	-0.50332314
28	0xbea9176e	-0.33025688
29	0x3f05d8ba	0.52283823
30	0x3ea2d8d0	0.3180604
31	0xbeb1378a	-0.34612685
32	0x3edceb9f	0.43148515
33	0x3ddbb939	0.10728688
34	0xbe3f0b65	-0.1865669
35	0x3e0ab578	0.13545787
36	0xbf08843c	-0.53326774
37	0xbea20999	-0.31647947
38	0x3ef9d33d	0.48793975
39	0x3eb22888	0.34796548
40	0x3c670a78	0.014101617
41	0x3ec60e71	0.38682893
42	0x3ebaab5c	0.36458862
43	0x3e76c48f	0.24098419
44	0x3dd0038b	0.10156926
45	0xbd514511	-0.051091257
46	0xbf25cef8	-0.64768934
47	0xbe507bdf	-0.20359753
48	0x3f0a08ce	0.53919685
49	0xbed96cd9	-0.42465857
50	0x3eba6d97	0.36411735
51	0x3d6125be	0.054967634
52	0xbf3162be	-0.69291294
53	0x3e7d4d5f	0.24736546
54	0x3e5f9ff2	0.21838358
55	0xbd8ef0ed	-0.06979547
56	0xbf2f9320	-0.6858387
57	0xbf0a8fbf	-0.5412559
58	0x3ead2ada	0.33821756
59	0xbed329d0	-0.41242838
60	0x3eac53aa	0.3365758
61	0x3f115a60	0.56778526
62	0xbf17bd86	-0.59273565
63	0xbee733a9	-0.451566
64	0x3f1c9661	0.6116696
65	0xbb540768	-0.0032353047
66	0x3ebeacb3	0.37241134
67	0x3da959a3	0.0826905
68	0xbe9c0ab3	-0.30476913
69	0xbd200a8c	-0.03907256
70	0xbf03fcd6	-0.5155767
71	0xbeb6ac7f	-0.3567848
72	0xbeaf6264	-0.34254754
73	0xbe81af73	-0.2532917
74	0x3f1fa144	0.62355447
75	0xbd401c2a	-0.04690186
76	0x3db83f2d	0.08996425
77	0xbeba4737	-0.36382458
78	0x3e2127b4	0.15737802
79	0xbefebcaf	-0.4975333
80	0xbd70829b	-0.058718305
81	0x3de9260d	0.11384211
82	0xbe3d38b6	-0.18478665
83	0x3e717a34	0.23581773
84	0xbf19e640	-0.6011696
85	0x3f313217	0.69217056
86	0xbded9457	-0.11600559
87	0xbf17a367	-0.5923371
88	0xbd2382ba	-0.039919592
89	0x3ec04cc5	0.3755857
90	0x3e43ba1e	0.19113967
91	0xbf298586	-0.66219366
92	0xbe016fe9	-0.12640347
93	0x3f122b80	0.57097626
94	0x3f224598	0.6338744
95	0xbedfa9f0	-0.4368434
96	0xbf25f641	-0.6482888
97	0xbda0f85b	-0.0785987
98	0x3ed19296	0.4093215
99	0x3f0f61ee	0.56008804
100	0x3f1cf815	0.61316043
101	0xbb79a904	-0.0038095126
102	0xbf263c4e	-0.6493577
103	0x3ecdafec	0.4017328
104	0xbf3057c2	-0.6888391
105	0x3e2f5deb	0.1712567
106	0x3e4fd661	0.20296623
107	0x3e05ac54	0.13054019
108	0x3f00a328	0.50248957
109	0xbedd7da6	-0.43259925
110	0x3f31c7b9	0.6944538
111	0xbf1c5b47	-0.6107678
112	0x3f1dbb49	0.616139
113	0xbe9f239d	-0.31081858
114	0xbe01c879	-0.1267413
115	0x3dfa522f	0.122227065
116	0x3ef971d8	0.48719668
117	0xbedde79e	-0.43340772
118	0xbcf01130	-0.02930507
119	0x3eb353a6	0.35024756
120	0x3da19283	0.07889273
121	0xbe03eabe	-0.12882516
122	0x3f2075a9	0.62679535
123	0x3ebd4980	0.3697014
124	0x3edacf17	0.42736122
125	0x3eb397b9	0.35076693
126	0xbf10aabd	-0.56510526
127	0xbd87bb7e	-0.06627558

dynamic_encoder.conv.weight f4 [128, 2, 1]
0	0x3e31d364	0.17365795
1	0xbe5ffbac	-0.21873349
2	0xbbf2a748	-0.0074051954
3	0x3e144b64	0.14481884
4	0x3d625cdc	0.05526434
5	0xbe2b41f9	-0.16724385
6	0x3db06860	0.08613658
7	0x3da645bf	0.08118772
8	0x3e087a4d	0.13327904
9	0xbe4f2749	-0.2022983
10	0x3dee00c1	0.116212375
11	0x3e0bcb0e	0.13651678
12	0x3d7b0dee	0.06129258
13	0x3e126c24	0.14299065
14	0xbd9c8f32	-0.076445
15	0x3e8fbc19	0.28073195
16	0x3cab766a	0.020930488
17	0x3e711aef	0.2354543
18	0xbda59108	-0.08084303
19	0x3e288d55	0.16460164
20	0xbe0d855a	-0.13820401
21	0xbe80fc3d	-0.25192443
22	0xbe34423c	-0.17603391
23	0xbe6bfccb	-0.23045652
24	0x3d7d2f84	0.061812893
25	0x3e354c83	0.17704968
26	0xbe2c3336	-0.1681641
27	0x3e4d9f56	0.20080313
28	0xbe258921	-0.16165592
29	0x3e00695d	0.12540193
30	0x3e13b677	0.14425074
31	0xbdc14988	-0.09437853
32	0x3e07f921	0.13278629
33	0x3ddf678e	0.10908423
34	0x3df293c3	0.118445896
35	0xbe04b172	-0.12958315
36	0xbe494238	-0.19654167
37	0x3e875ce4	0.26438057
38	0xbd9b4b09	-0.07582671
39	0xbe7a1642	-0.24422553
40	0xbdcb406b	-0.09924396
41	0x3d5a3579	0.05327365
42	0x3e0fae65	0.1403137
43	0x3e3b73cc	0.18305892
44	0x3b07e5cc	0.0020736335
45	0xbd939919	-0.072069354
46	0xbd8b517c	-0.06802651
47	0xbe70c628	-0.2351309
48	0x3dc775db	0.09739276
49	0xbd83a844	-0.064285785
50	0xbe02b147	-0.12762938
51	0xbe143618	-0.1447376
52	0x3d890b2a	0.066915825
53	0x3e9164ff	0.28397366
54	0x3c4c8592	0.0124830175
55	0xbe3dfb74	-0.18552953
56	0x3e217f17	0.15771137
57	0xbd2bddef	-0.0419597
58	0x3e2e4052	0.17016724
59	0x3d034ecb	0.032057565
60	0xbda2da42	-0.079517856
61	0x3de86a5c	0.113484114
62	0xbd892a41	-0.066975124
63	0xbe7645fa	-0.24050131
64	0x3e2b287d	0.16714664
65	0x3d436073	0.047699403
66	0x3e2716aa	0.1631724
67	0xbe04027a	-0.1289157
68	0xbe3ea28f	-0.18616699
69	0xbd5a4a6a	-0.053293623
70	0xbab5ef85	-0.0013880586
71	0x3e031302	0.1280022
72	0x3e2ac052	0.16674927
73	0xbd363905	-0.04448797
74	0x3bd83649	0.006598268
75	0x3df6f433	0.12058296
76	0xbd7b9336	-0.06141969
77	0x3e8cfe18	0.27537608
78	0xbd716833	-0.058937263
79	0xbd69a9ee	-0.057046823
80	0xbdcf1440	-0.10111284
81	0x3e5a39d8	0.21311128
82	0x3e432e13	0.19060545
83	0x3e09ccfe	0.13457105
84	0xbe22c9fb	-0.15897362
85	0x3de0ee83	0.109829925
86	0x3e3f283a	0.18667689
87	0x3d9a62a6	0.07538347
88	0xbe234614	-0.15944701
89	0x3e6d1f37	0.23156439
90	0xbe08a9d3	-0.13346033
91	0xbe843352	-0.25820404
92	0x3dfb7ac5	0.12279276
93	0xbd6c747c	-0.057728276
94	0x3e1e0c7a	0.15434447
95	0xbdeb97b0	-0.115035415
96	0x3ca714ea	0.020395715
97	0x3d721f38	0.059111804
98	0x3e2d22a5	0.16907747
99	0xbe797a3f	-0.2436304
100	0xbd15da1d	-0.036584962
101	0x3e4611c9	0.19342722
102	0xbe424710	-0.1897242
103	0xbdba413a	-0.09094472
104	0xbe1afe7a	-0.15136138
105	0xbcd16a36	-0.02556334
106	0x3e05ca50	0.13065457
107	0xbca9fd25	-0.020750592
108	0x3e4d684f	0.20059322
109	0xbe45031a	-0.19239464
110	0x3de2c7e8	0.11073285
111	0x3d0aca27	0.033884194
112	0xbd0b336a	-0.03398458
113	0x3e788259	0.24268474
114	0xbe4bd3ae	-0.19904968
115	0xbe64bd08	-0.22337735
116	0xbd81a929	-0.06331093
117	0xbdedc193	-0.11609187
118	0x3ceb6887	0.028736366
119	0xbde5cf3b	-0.11221167
120	0x3e5dc07a	0.21655455
121	0x3cf68fbe	0.030097838
122	0xbbd8f382	-0.0066208253
123	0x3cf0f353	0.029412901
124	0xbd9b6e03	-0.075893424
125	0xbe78bf18	-0.24291646
126	0xbe5a559e	-0.21321723
127	0xbe0356a4	-0.1282602
128	0xbe5c7c86	-0.21531877
129	0x3e418d15	0.18901475
130	0xbe2f6fae	-0.17132446
131	0xbe095dff	-0.13414763
132	0x3db90659	0.09034414
133	0x3e878cb3	0.26474532
134	0x3e3bdb74	0.18345433
135	0x3e010f2b	0.12603442
136	0x3d23923b	0.039934378
137	0xbd095974	-0.033532575
138	0x3e143bba	0.14475909
139	0x3e5b7c63	0.21434169
140	0x3e5d7db5	0.21629985
141	0x3d51fa35	0.051264007
142	0x3e3835c2	0.17989257
143	0xbe172dcb	-0.14763562
144	0x3dc72ae8	0.097249806
145	0x3e5911d9	0.21198215
146	0x3d6addfc	0.057340607
147	0xbd36d1cf	-0.044633683
148	0x3ddc504d	0.10757504
149	0x3cfca1b1	0.03083882
150	0xbcc0923f	-0.023507236
151	0xbe171994	-0.14755851
152	0xbe2c8d0a	-0.16850677
153	0xbe1a4356	-0.15064749
154	0x3e3e4eb6	0.18584713
155	0x3de74c9d	0.1129391
156	0x3e04b2e8	0.12958872
157	0x3e8c43a0	0.27395344
158	0x3e197e61	0.14989616
159	0x3de72656	0.11286609
160	0xbde912f6	-0.1138057
161	0xbc8981cd	-0.016785527
162	0x3e178342	0.14796165
163	0xbdfcb79b	-0.123397075
164	0xbc894efc	-0.016761295
165	0xbe689210	-0.22711968
166	0x3d323ab9	0.043513034
167	0xbdab79f6	-0.083728716
168	0x3e4a528f	0.19758056
169	0xbe00e097	-0.12585674
170	0xbdb9d447	-0.09073692
171	0x3de75017	0.11294573
172	0x3e0a7351	0.13520552
173	0xbe59a229	-0.21253265
174	0x3e225744	0.15853602
175	0xbe5d657a	-0.21620741
176	0x3d624dfc	0.055250153
177	0xbdedc67a	-0.11610122
178	0x3da0b59c	0.07847139
179	0x3e7b86c0	0.24563122
180	0xbe5e5ecc	-0.2171585
181	0xbe37a4c1	-0.17933942
182	0xbd3a85f5	-0.045537908
183	0x3d8460c1	0.06463767
184	0x3e382e2b	0.17986362
185	0x3e277d94	0.16356498
186	0xbcbe2540	-0.023211122
187	0xbe2fe7c6	-0.17178258
188	0x3e0a7197	0.13519894
189	0x3e18baab	0.14914958
190	0x3d1f124b	0.038835805
191	0xbd0f4a89	-0.03498319
192	0xbe3579e9	-0.17722286
193	0x3d153278	0.036425084
194	0x3c9790ff	0.018501757
195	0xbd5448a7	-0.0518271
196	0xbda915ad	-0.082560875
197	0xbd98781d	-0.07444785
198	0xbd98ed5b	-0.07467147
199	0xbe379e21	-0.17931415
200	0xbe1329c7	-0.14371406
201	0x3df9ecdb	0.1220338
202	0xbdc8bcc0	-0.09801626
203	0x3e80cbd0	0.25155497
204	0x3e13fcbb	0.14451878
205	0xbe48142b	-0.19538943
206	0x3dce9ba7	0.10088282
207	0xbdf3ba76	-0.11900799
208	0xbe503119	-0.2033123
209	0x3da3a9c3	0.07991364
210	0x3db1a08a	0.086731985
211	0xbc751543	-0.0149586825
212	0xbe42cecd	-0.190242
213	0xbe794073	-0.24340992
214	0x3e155424	0.14582878
215	0xbba4149f	-0.005007341
216	0xbc1c0df4	-0.009524811
217	0xbdfdd10c	-0.12393388
218	0xbdeed416	-0.11661546
219	0x3dc1fe57	0.094723396
220	0xbdbd6ff0	-0.09249866
221	0x3dcda512	0.1004125
222	0xbdad2ca2	-0.08455779
223	0xbcd8baeb	-0.026456317
224	0x3e088248	0.13330948
225	0x3ddeb9f7	0.10875314
226	0xbe395e61	-0.18102409
227	0x3caabac2	0.020841006
228	0xbe4ce079	-0.20007505
229	0xbdcdf4a2	-0.10056426
230	0x3ce0fed8	0.027465269
231	0x3e0a78e1	0.13522674
232	0x3d4fb249	0.050707135
233	0xbcbff318	-0.023431346
234	0xbdb12973	-0.08650484
235	0x3dfe03b0	0.12403047
236	0xbd52ac2c	-0.051433727
237	0xbdbf1547	-0.0933023
238	0x3b544264	0.0032388205
239	0xbe940fea	-0.2891839
240	0x3e0d513a	0.13800517
241	0xbda73076	-0.0816354
242	0x3e2eba46	0.17063245
243	0x3e68160a	0.22664657
244	0x3da555bc	0.08072993
245	0x3e6cd961	0.23129798
246	0x3e3c7093	0.18402319
247	0x3e4c0449	0.1992351
248	0xbe4c6de3	-0.19963793
249	0xbd5d18d9	-0.053978775
250	0xbdad15bf	-0.08451413
251	0x3d8fdf71	0.0702504
252	0x3dba9d91	0.09112085
253	0xbe1e5e10	-0.1546557
254	0x3dc2f2a7	0.095189385
255	0x3e18c667	0.14919434

dynamic_encoder.conv.bias f4 [128]
0	0x3e6a2278	0.22864711
1	0xbf2173d0	-0.6306734
2	0x3e937b7e	0.28805155
3	0xbd576fc5	-0.052596826
4	0xbdd198d3	-0.10234227
5	0x3eb3f4d8	0.35147738
6	0xbf2b03b2	-0.66802514
7	0x3e9f6188	0.31129098
8	0xbe755b1d	-0.23960538
9	0xbef72989	-0.48273876
10	0x3ec23c37	0.37936565
11	0x3e12fa29	0.14353241
12	0x3ee0354a	0.43790656
13	0x3ecc1159	0.39856985
14	0xbeffde0d	-0.499741
15	0xbeb178aa	-0.34662372
16	0x3da658e2	0.08122422
17	0xbf099e4f	-0.53757185
18	0xbf2b3734	-0.6688111
19	0x3f135bf2	0.5756217
20	0xbea76db5	-0.32700887
21	0xbeb885f2	-0.36039692
22	0x3ed09f14	0.40746367
23	0xbf267a36	-0.6503023
24	0xbe66c37d	-0.2253551
25	0xbf07c6a6	-0.5303749
26	0xbe9c3f2f	-0.30516955
27	0x3f1161a9	0.5678964
28	0x3dd618a6	0.1045392
29	0xbe436aa7	-0.19083653
30	0xbe476ff9	-0.19476308
31	0xbe51bb43	-0.20481591
32	0x3e36a012	0.178345
33	0xbf0975a8	-0.53695154
34	0x3e86e558	0.2634685
35	0xbe9e42be	-0.30910295
36	0x3f0ea864	0.55725694
37	0xbe748d98	-0.23882139
38	0x3d3d8c46	0.046276353
39	0x3e1d856e	0.1538293
40	0x3e2c4a4f	0.16825221
41	0xbe6dc573	-0.23219852
42	0x3f158596	0.5840696
43	0x3eade27f	0.33961865
44	0x3f1973f2	0.59942544
45	0xbe8ada77	-0.271198
46	0x3ecb1aeb	0.39668974
47	0xbf11589d	-0.5677584
48	0x3e5683fa	0.20948783
49	0x3eb4a581	0.3528252
50	0x3f0885bb	0.53329057
51	0xbedb1347	-0.42788145
52	0xbeb3bf7d	-0.3510703
53	0xbf1e2827	-0.6178002
54	0xbe75bd26	-0.23997936
55	0xbeab4cab	-0.3345693
56	0xbee38f9f	-0.44445512
57	0xbf1c0061	-0.6093808
58	0x3f268369	0.65044266
59	0xbe2bd48b	-0.16780297
60	0x3e41d6d2	0.18929604
61	0x3f201d43	0.6254465
62	0xbdab4690	-0.08363068
63	0x3e85a19c	0.2609986
64	0x3e89f4ea	0.26944667
65	0x3ef89163	0.4854842
66	0x3ef2fe04	0.47459424
67	0x3eefd678	0.46843314
68	0xbdaf4713	-0.08558478
69	0x3f2635a7	0.64925617
70	0xbf286ab4	-0.65787816
71	0xbe8b2836	-0.27179116
72	0x3f077edb	0.5292794
73	0xbf2e219a	-0.6802002
74	0xbf21d01e	-0.63208187
75	0x3f30db18	0.6908431
76	0x3e0de7ce	0.13857958
77	0x3df10ac2	0.1176963
78	0x3ef23dc2	0.47312742
79	0xbd95dc41	-0.07317401
80	0x3f140b31	0.57829577
81	0xbf02b417	-0.51056045
82	0xbe50faf2	-0.20408228
83	0xbeec6079	-0.46167353
84	0xbdafbf03	-0.085813545
85	0x3df1ad7e	0.11800669
86	0xbeb11cc9	-0.34592274
87	0xbd1c5351	-0.038165394
88	0x3eb5534e	0.3541512
89	0x3e90adfb	0.28257737
90	0x3f0795b6	0.52962816
91	0x3ef05612	0.46940666
92	0xbce69708	-0.02814819
93	0xbec82c53	-0.39096317
94	0xbf31cbdb	-0.69451684
95	0x3c800f1f	0.01563221
96	0x3eba98ea	0.3644479
97	0x3da096c3	0.078412555
98	0xbea83ccd	-0.32858887
99	0x3e616edf	0.2201495
100	0x3efb3e4c	0.49070966
101	0x3e8da819	0.2766731
102	0x3de6c75b	0.11268493
103	0x3f1eec6e	0.62079513
104	0x3d9be4b2	0.076119795
105	0xbec1c33f	-0.37844273
106	0xbf0e289d	-0.5553072
107	0xbf227453	-0.63458747
108	0xbee21bec	-0.44161928
109	0x3ea9fc61	0.33200362
110	0xbf29e41e	-0.66363704
111	0x3ed2ff57	0.41210434
112	0x3df356bd	0.118817784
113	0xbe79d504	-0.24397665
114	0x3e4fee2a	0.20305696
115	0xbe1a4621	-0.15065815
116	0x3ed44e51	0.41466
117	0xbf0db43e	-0.5535315
118	0xbf2ba8ce	-0.6705445
119	0x3d521f14	0.05129917
120	0xbf0f627a	-0.5600964
121	0x3f1ed7b2	0.62047875
122	0xbf102a5d	-0.5631464
123	0x3eda6a6d	0.4265932
124	0xbeb69494	-0.3566023
125	0xbea69736	-0.3253724
126	0xbdf66c5f	-0.12032389
127	0x3e0e3776	0.13888344

fc1.weight f4 [20, 256, 1]
0	0xbe12274e	-0.14272806
1	0x3dc79ad2	0.097463265
2	0x3d83e2f8	0.06439775
3	0xbde2478c	-0.11048803
4	0x3dd1dd7e	0.102473244
5	0x3d24ac9c	0.040203676
6	0xbdfc7268	-0.12326509
7	0xbdb249e4	-0.087055
8	0x3dd11af6	0.102102205
9	0xbe041e20	-0.12902117
10	0x3e06f386	0.13178834
11	0xbdc0fd33	-0.09423294
12	0x3e04736c	0.12934655
13	0xbda3e209	-0.08002097
14	0x3e0d37fa	0.13790885
15	0x3d081e44	0.03323199
16	0xbb67b400	-0.003535509
17	0xbbe0b840	-0.006857902
18	0xbdae9ca2	-0.08525969
19	0xbd8faa56	-0.07014911
20	0x3e00bd4c	0.12572211
21	0x3dbb5b38	0.09148258
22	0x3db093e6	0.086219594
23	0x3d96cb12	0.07362951
24	0xbdc5656a	-0.09638484
25	0x3dc7e5be	0.09760617
26	0xbddece26	-0.108791634
27	0xbda566b4	-0.0807623
28	0xbd04b7c0	-0.0324018
29	0x3b339840	0.002740398
30	0xbd28280e	-0.041053824
31	0x3d8174a8	0.063210785
32	0x3e138cbc	0.14409155
33	0x3da6452e	0.08118664
34	0x3bb2eb20	0.005460158
35	0xbdb2cbca	-0.08730276
36	0xbd8a2f55	-0.06747309
37	0xbba16c20	-0.0049262196
38	0x3e141d70	0.14464355
39	0xbdab60c3	-0.08368065
40	0xbdbcae79	-0.092129655
41	0x3def7560	0.116923094
42	0xbb129480	-0.0022366345
43	0x3dae86d2	0.08521809
44	0xbcdb89bc	-0.026799075
45	0x3e161bca	0.14659038
46	0xbd55bc7c	-0.052181706
47	0xbd48d6c2	-0.049032934
48	0xbdcca0f0	-0.09991634
49	0xbcec1e68	-0.028823093
50	0xbdc429c6	-0.0957828
51	0x3e0be16e	0.13660213
52	0x3df07e1c	0.117428035
53	0xbdf7c5a8	-0.12098247
54	0x3d132c3c	0.035930857
55	0xbd6f2f4c	-0.058394715
56	0xbe0a192f	-0.1348617
57	0x3d689ea0	0.0567919
58	0x3dfc168c	0.12308988
59	0x3dc9ec14	0.098594815
60	0x3d0d718c	0.034532115
61	0x3e072bb4	0.13200265
62	0xbd930d59	-0.0718028
63	0xbdab1cac	-0.08355078
64	0xbdf6825f	-0.12036585
65	0xbcf6b014	-0.030113257
66	0xbcb32e58	-0.021872684
67	0xbd462424	-0.04837431
68	0x3e019252	0.12653473
69	0xbc8394a8	-0.016062096
70	0x3d712d10	0.058880866
71	0x3de74fa4	0.11294487
72	0xbdd7360c	-0.105083555
73	0x3d0a34ac	0.033741638
74	0xbdd0a649	-0.101879664
75	0x3dc95246	0.098301455
76	0xbd4c067c	-0.04981087
77	0x3e089f3c	0.13341993
78	0x3dff2708	0.124586165
79	0xba816280	-0.0009871274
80	0xbd439cd6	-0.047756992
81	0xbd776f2a	-0.06040875
82	0xbdeaacdd	-0.11458752
83	0xbce79094	-0.028267182
84	0x3df51c3c	0.11968276
85	0x3e0f4f58	0.13995111
86	0xbe0be22a	-0.13660493
87	0xbe1698fb	-0.14706795
88	0xbe015d47	-0.12633239
89	0x3d51f15c	0.05125557
90	0x3dcbd786	0.09953217
91	0xbd842803	-0.06452944
92	0x3defd574	0.11710635
93	0x3da00fec	0.07815537
94	0x3d5a6310	0.05331713
95	0xbdd92cdc	-0.10604259
96	0x3dc17274	0.09445658
97	0x3d8d0bf2	0.06887044
98	0x3aa0d480	0.0012270361
99	0x3d556bd0	0.05210477
100	0xbdaba633	-0.08381309
101	0xbd783904	-0.06060125
102	0x3dd7c8d0	0.10536349
103	0xbe0b3990	-0.13596177
104	0xbe0eccc0	-0.13945293
105	0x3beae780	0.00716871
106	0x3db0e562	0.08637501
107	0x3db58ae2	0.088643804
108	0x3d4e0e50	0.05030662
109	0x3c4f0950	0.012636498
110	0x3d8c92dc	0.06863949
111	0xbd7eb5e0	-0.06218517
112	0xbd43c64e	-0.04779654
113	0xbde93f2c	-0.11389002
114	0x3e021bc4	0.12705904
115	0x3d6f3064	0.05839576
116	0x3b3d2a80	0.0028864443
117	0x3dc39f5c	0.0955188
118	0x3e0afa42	0.13572028
119	0x3d8726c4	0.06599191
120	0x3e11739e	0.1420426
121	0x3dd8ef2c	0.105924934
122	0x3d22f114	0.03978069
123	0x3d118cdc	0.035534725
124	0xbd9c35a6	-0.0762742
125	0xbc80cb60	-0.015721977
126	0xbdaf4286	-0.0855761
127	0xbe03f72a	-0.12887254
128	0x3ce0dd18	0.027449176
129	0xbb09fb40	-0.0021054298
130	0xbd1e98aa	-0.03871981
131	0x3d16c31c	0.036807165
132	0x3ccab4c0	0.024744391
133	0x3e086356	0.13319144
134	0x3d7f73d4	0.06236632
135	0x3e041ad8	0.12900865
136	0x3e0c1a20	0.13681841
137	0x3d9ed988	0.077563345
138	0x3df49d10	0.1194402
139	0xbdf1e374	-0.11810961
140	0x3d1a330c	0.03764634
141	0x3dde4efc	0.10854909
142	0x3e0fc658	0.14040506
143	0xbd53bfae	-0.051696472
144	0xbde76323	-0.11298206
145	0xbd782d74	-0.060590222
146	0x3e10a87c	0.14126772
147	0xbdd3a086	-0.10333352
148	0x3d53de78	0.051725835
149	0x3d0ba73c	0.034095034
150	0x3a90ed80	0.0011057109
151	0x3dbb0028	0.09130889
152	0x3d88aa4c	0.066731066
153	0x3d8cdb9a	0.06877823
154	0x3cce8fc0	0.02521503
155	0x3c89a210	0.01680091
156	0xbcb1c668	-0.021701053
157	0x3de7cf08	0.11318785
158	0xbd064fcc	-0.032790944
159	0xbe01d06c	-0.12677163
160	0x3d8f5764	0.0699909
161	0x3ddb6d5c	0.10714218
162	0x3c953308	0.01821281
163	0xbcefc934	-0.029270746
164	0x3d8e30d0	0.06942904
165	0x3e0f9b30	0.14024043
166	0xbdf01240	-0.11722231
167	0xbd614e6e	-0.055006437
168	0xbd1031f0	-0.035203874
169	0x3d3df548	0.046376497
170	0x3db7393a	0.08946462
171	0xbd9a52ad	-0.075353004
172	0xbd82b387	-0.063818984
173	0x3d610064	0.054932013
174	0xbdc594e7	-0.096475415
175	0x3bc3a060	0.005970046
176	0x3e126538	0.14296424
177	0x3d7eda04	0.062219635
178	0xbe0abc8c	-0.13548487
179	0xbd8e4151	-0.06946052
180	0x3d0ca5c4	0.034337774
181	0x3cc1f740	0.023677468
182	0x3e011d4a	0.12608829
183	0xbc8b4d10	-0.01700452
184	0xbd0afebc	-0.03393434
185	0x3e10406c	0.14087075
186	0xbda04410	-0.07825482
187	0x3ddf39b4	0.10899678
188	0xbe135a2f	-0.14389871
189	0xb7d12000	-2.4929643e-05
190	0xbc8f72b8	-0.017510757
191	0xbdd5cc47	-0.104393534
192	0x3e09c564	0.13454205
193	0xbcb637e0	-0.02224344
194	0xbdff4a54	-0.12465349
195	0xbdcc15b2	-0.099650756
196	0x3d8c7560	0.06858325
197	0x3c836f48	0.016044274
198	0x3b63d180	0.0034762323
199	0x3dd005d2	0.1015736
200	0xbdfb1a78	-0.12260908
201	0xbd003950	-0.031304657
202	0x3cb19348	0.021676674
203	0xbd3ef3c6	-0.0466192
204	0xbdeac78a	-0.1146384
205	0x3bc4fe40	0.0060117543
206	0xbdf784b1	-0.12085856
207	0x3cd7f070	0.026359767
208	0x3ccba660	0.024859607
209	0x3d2ff524	0.042958394
210	0xbc280ec0	-0.010257423
211	0xbcb55088	-0.022133127
212	0x3dee1c94	0.116265446
213	0xbdd7483c	-0.105118245
214	0x3e0f9210	0.14020562
215	0xbe02335e	-0.12714908
216	0xbd20f492	-0.03929574
217	0xbc97a8c0	-0.018513083
218	0x3d86b600	0.065776825
219	0xbddb470a	-0.10706909
220	0xbded6cb0	-0.11592996
221	0x3dcf2524	0.10114506
222	0xbd99adae	-0.0750383
223	0xbd0ecdca	-0.034864224
224	0x3e121c82	0.14268687
225	0xbe104532	-0.14088896
226	0x3de286e0	0.110608816
227	0xbdf2cf16	-0.11855905
228	0x3dc2dec8	0.095151484
229	0x3e16c714	0.1472438
230	0x3dcdbcac	0.10045752
231	0xbd4007b6	-0.046882354
232	0xbe02a053	-0.12756471
233	0x3d3396e0	0.043845057
234	0xbdfb40fe	-0.12268256
235	0xbd2de6b8	-0.04245636
236	0xbbac6dc0	-0.0052621067
237	0x3da8caa4	0.08241776
238	0xbe140045	-0.14453228
239	0xbd9bae7e	-0.07601641
240	0x3d4bd260	0.049761176
241	0x3dea0758	0.11427182
242	0xbe0d89af	-0.13822053
243	0xbe0bc896	-0.13650736
244	0xbd89cfca	-0.06729086
245	0xbd8050fb	-0.06265446
246	0x3db8c798	0.090224445
247	0x3dc93d24	0.09826115
248	0xbd8f5ce0	-0.070001364
249	0xbdd40ee9	-0.103544064
250	0xbde7e354	-0.11322656
251	0xbd5c1aac	-0.053736374
252	0x3d57ab0c	0.052653357
253	0xbcdf0fdc	-0.027229242
254	0xbd821b97	-0.063529186
255	0x3d746e6c	0.05967562

fc1.bias f4 [20]
0	0xbcf82664	-0.030291744
1	0xb918cdcb	-0.00014572513
2	0xbc586668	-0.013208009
3	0xbd324bd7	-0.043529358
4	0xbc89032c	-0.016725145
5	0xbc4cb480	-0.012494206
6	0xbd54db16	-0.05196675
7	0xbcb6bd95	-0.022307197
8	0x3cf4f1c6	0.029900443
9	0xbbc4dda0	-0.006007865
10	0xbce61d24	-0.028090067
11	0x3d3d1300	0.046160698
12	0xbd140d02	-0.036145218
13	0xbd6e2744	-0.058142915
14	0x3c18c118	0.009323381
15	0xbcead647	-0.028666629
16	0x3d71f4cb	0.059071343
17	0xbc94cddf	-0.018164573
18	0x3c5858fe	0.013204811
19	0xbca5b990	-0.020230085

fc2.weight f4 [20, 20, 1]
0	0xbc37e040	-0.011222899
1	0xbd0cfec5	-0.034422655
2	0x3e600a58	0.21878946
3	0x3e529e7d	0.20568271
4	0xbbafd500	-0.0053659678
5	0x3b4ca4d2	0.003122617
6	0x3e1ea7c4	0.15493685
7	0xbd390f89	-0.04518083
8	0xbeb877a5	-0.36028782
9	0x3e03bfa5	0.12866075
10	0xbe4852ce	-0.19562837
11	0xbea5c4ed	-0.32376805
12	0xbe31ea33	-0.17374496
13	0xbe5ae493	-0.21376257
14	0x3e44027c	0.19141573
15	0x3db54f17	0.08852976
16	0xbc816e68	-0.015799716
17	0x3ec70ff0	0.38879347
18	0x3dae0f3c	0.084989995
19	0xbe5a1b1f	-0.21299408
20	0x3e9a914c	0.30188978
21	0xbd585f52	-0.05282528
22	0x3e11adf8	0.1422652
23	0xbe23206d	-0.15930338
24	0x3da4601c	0.08026144
25	0x3ea171e9	0.3153222
26	0xbd6ce093	-0.05783136
27	0xbd1e3710	-0.03862673
28	0x3e2293ea	0.15876737
29	0x3e435edc	0.19079155
30	0xbe9e3742	-0.30901533
31	0xbe91e2a4	-0.28493226
32	0xbe4d9ded	-0.20079775
33	0x3e1cf363	0.1532722
34	0x3eb26c3a	0.34848195
35	0xbd70d17e	-0.058793537
36	0xbec531e5	-0.3851463
37	0x3e367b37	0.1782044
38	0x3e780a19	0.24222602
39	0x3e359e08	0.17736065
40	0x3e4cd120	0.2000165
41	0x3e03d9bd	0.1287603
42	0xbec2bf77	-0.380367
43	0x3ea2f52e	0.31827682
44	0xbe90f373	-0.28310737
45	0xbe9d8aa7	-0.30769846
46	0x3d97e3f4	0.074165255
47	0x3c0788ff	0.0082724085
48	0xbe7aaf06	-0.24480829
49	0xbe99b625	-0.30021778
50	0xbe4e7e3b	-0.2016534
51	0xbe7e7109	-0.24847807
52	0x3de0594c	0.10954532
53	0xbe91ed8a	-0.2850154
54	0xbd968e80	-0.073513985
55	0x3d50a2cb	0.0509365
56	0x3eb0aec2	0.3450833
57	0x3ea515d7	0.32243225
58	0x3e00152c	0.12508076
59	0xbae83600	-0.0017716289
60	0x3ec2cdb4	0.38047564
61	0x3e9086c7	0.28227827
62	0xbe0a7c74	-0.13524038
63	0x3da83664	0.08213499
64	0x3ea46866	0.321109
65	0x3e5f0eb3	0.21782951
66	0xbe8f7ba3	-0.28024015
67	0x3d852d8c	0.06502828
68	0xbcbcc613	-0.023043668
69	0x3e949d98	0.29026484
70	0xbde0f8b8	-0.10984939
71	0xbe353379	-0.17695417
72	0xbd8e47ac	-0.06947264
73	0xbdb56448	-0.08857018
74	0xbd8be708	-0.06831175
75	0x3ebe7811	0.37200978
76	0xbe00239f	-0.12513588
77	0xbe5da882	-0.21646312
78	0x3e7fe708	0.24990475
79	0x3ec45594	0.3834654
80	0x3e462eb8	0.1935376
81	0xbd7da4be	-0.06192469
82	0x3e1cef78	0.15325725
83	0xbddc83ca	-0.10767324
84	0xbd790fd0	-0.060806096
85	0xbd069eff	-0.032866474
86	0xbe08bc9e	-0.13353202
87	0x3e471638	0.1944207
88	0xbdbd4b56	-0.09242885
89	0x3e97819e	0.29591078
90	0x3ce51010	0.02796176
91	0x3eb8f74e	0.36126179
92	0xbd996e64	-0.074917585
93	0x3ea8b0ea	0.32947475
94	0xbce80cb0	-0.028326362
95	0x3dae1bd1	0.08501399
96	0xbe1f9217	-0.15583073
97	0xbebf395c	-0.3734845
98	0x3e1feabd	0.1561689
99	0x3e2111e8	0.15729487
100	0x3e3f4768	0.18679583
101	0xbdf2e6ec	-0.11860451
102	0x3e64d6bc	0.2234754
103	0xbce103c4	-0.027467616
104	0x3eb47ee4	0.3525306
105	0xbe24e842	-0.16104224
106	0x3e7670c2	0.24066451
107	0x3cc21919	0.023693608
108	0xbdde3e80	-0.10851765
109	0x3e050544	0.1299029
110	0x3eaf78ec	0.34271944
111	0x3eba3c32	0.3637405
112	0x3ec1c504	0.37845623
113	0xbeb05169	-0.3443711
114	0x3e917264	0.28407586
115	0x3e46a331	0.1939819
116	0x3ec5c4d3	0.38626727
117	0x3c9b8bde	0.018987592
118	0xbe70e96b	-0.23526542
119	0x3dfb6790	0.12275612
120	0x3ebc515a	0.36780816
121	0x3e5314ec	0.2061345
122	0xbc8e9c60	-0.01740855
123	0xbea8cee4	-0.32970345
124	0x3e7021dc	0.23450416
125	0xbea27197	-0.31727287
126	0xbe6f2a2d	-0.23355933
127	0x3e5fa414	0.21839935
128	0xbd704987	-0.05866387
129	0xbea53098	-0.32263637
130	0xbe671cb6	-0.22569546
131	0x3ca87e30	0.020567983
132	0x3e342664	0.1759277
133	0xbe14266c	-0.14467782
134	0x3e2aec2c	0.16691655
135	0x3c926a00	0.01787281
136	0x3e0882a3	0.13331084
137	0x3d195ee6	0.037444018
138	0x3e0a9901	0.13534929
139	0x3e843980	0.2582512
140	0x3da969cc	0.08272132
141	0x3ea14b30	0.31502676
142	0x3ebb1c20	0.36544895
143	0x3da302f0	0.07959545
144	0x3db0d924	0.08635166
145	0xbe5d5e70	-0.21618056
146	0x3ea4c0ac	0.32178247
147	0xbdb66368	-0.08905679
148	0x3e9f2038	0.31079268
149	0x3d46cad0	0.04853326
150	0x3d87a288	0.06622797
151	0xbb9f3100	-0.004858136
152	0x3dd0cca0	0.10195279
153	0x3e4aff84	0.19824034
154	0xbe947683	-0.28996667
155	0xbe726595	-0.23671563
156	0xbe96539f	-0.29360673
157	0xbe885408	-0.2662661
158	0xbe1dec26	-0.15422115
159	0x3ec4cf18	0.3843925
160	0x3eafd58a	0.34342605
161	0xbda0e010	-0.078552365
162	0x3e63ef20	0.22259188
163	0xbec43f78	-0.38329673
164	0x3ebae030	0.36499166
165	0xbc004d10	-0.007830873
166	0xbdd919b3	-0.10600605
167	0x3e61cc15	0.22050507
168	0x3d1ffe0a	0.03906063
169	0xbe484c2f	-0.19560312
170	0x3ce51710	0.027965099
171	0x3ea03b88	0.3129542
172	0xbe7929d0	-0.24332356
173	0x3eb27200	0.348526
174	0xbeb79034	-0.35852206
175	0xbec32a2c	-0.38118112
176	0xbdd636a3	-0.1045964
177	0x3e9b45e5	0.30326763
178	0x3d66c490	0.0563398
179	0xbdf9c9b8	-0.12196678
180	0x3dd52194	0.10406795
181	0x3ec0816a	0.37598735
182	0x3e8799a8	0.26484418
183	0xbe733da3	-0.23753981
184	0x3e2c9d20	0.16856813
185	0xbea6df2b	-0.3259214
186	0xbe96d09b	-0.29456028
187	0x3e6953d6	0.22785887
188	0xbd45ea95	-0.048319418
189	0x3e3b84ed	0.18312426
190	0xbe6a0690	-0.22854066
191	0xbe526977	-0.20548044
192	0x3e6c62bc	0.23084539
193	0xbd360bd1	-0.044444863
194	0x3db879b4	0.09007588
195	0xbe3b54d7	-0.18294083
196	0x3e172967	0.14761887
197	0x3e7d1865	0.24716337
198	0xbe9cf97e	-0.30659097
199	0xbe30f14a	-0.17279544
200	0xbc4b1720	-0.01239565
201	0x3d2769ee	0.040872507
202	0xbe83b7b5	-0.25726095
203	0x3e743af5	0.23850615
204	0x3e7c2c6c	0.2462632
205	0xbebf308f	-0.37341735
206	0x3e8eeb7d	0.27914038
207	0xbd9f1cae	-0.07769142
208	0x3e2c5485	0.16829117
209	0x3ebf7f63	0.37401876
210	0xbc8210d0	-0.015877157
211	0x3e1e3504	0.15449911
212	0x3e4d5a90	0.20054078
213	0xbec725dc	-0.38896072
214	0xbeb8deda	-0.36107522
215	0x3ea59fa0	0.32348347
216	0x3dc3f4d7	0.09568184
217	0x3e9e03ba	0.30862218
218	0xbdd1453e	-0.10218285
219	0x3cbb6df0	0.02287957
220	0xbd8ec99c	-0.06972048
221	0xbe802d47	-0.25034544
222	0xbe030324	-0.12794167
223	0xbda86a18	-0.08223361
224	0x3e182120	0.14856386
225	0xbdd7c9d0	-0.105365396
226	0xbe90847a	-0.28226072
227	0xbe3608ae	-0.17776749
228	0xbe42b3fa	-0.19013968
229	0xbea6521c	-0.3248452
230	0x3e8af3f0	0.27139235
231	0xbda0f7fc	-0.07859799
232	0x3eb84012	0.35986382
233	0xbd999afc	-0.07500264
234	0xbe15cf78	-0.14629924
235	0xbeb3c2e4	-0.35109627
236	0x3e362e30	0.17791057
237	0xbd8d98f4	-0.06913939
238	0x3e461064	0.1934219
239	0x3e2b9ae4	0.16758305
240	0xbec3b6a2	-0.38225275
241	0xbd24f7f8	-0.040275544
242	0x3e84b5ce	0.25919956
243	0xbd8b51e0	-0.06802726
244	0x3d658168	0.056031615
245	0x3eab1bb0	0.3341956
246	0xbe1084fa	-0.14113227
247	0xbdbfb0bc	-0.09359881
248	0xbe1d4c2f	-0.15361093
249	0xbe75e87a	-0.24014464
250	0x3eaa026e	0.3320498
251	0x3e69f984	0.22849089
252	0xbeb003cc	-0.34377897
253	0xbe8d8bf0	-0.27645826
254	0xbcfe4930	-0.031040758
255	0x3dba251c	0.09089109

fc2.bias f4 [20]
0	0x3e41f469	0.18940891
1	0xbe4275e7	-0.18990289
2	0xbd4dbede	-0.050230853
3	0x3dbdc502	0.09266092
4	0x3e239c15	0.1597751
5	0x3deb0f37	0.114775114
6	0x3d0d59ac	0.034509346
7	0xbe3a35b8	-0.18184555
8	0x3e02eee6	0.12786445
9	0xbd8f51c8	-0.069980204
10	0x3e3f90c3	0.18707566
11	0x3df14a44	0.11781743
12	0x3e10e584	0.14150053
13	0xbd4a11d0	-0.049333394
14	0x3c808350	0.015687615
15	0xbd920326	-0.07129507
16	0xbdb1d744	-0.08683637
17	0xbe2ef0dd	-0.1708407
18	0x3e41bd5c	0.18919891
19	0xbe6398d5	-0.2222627

fc3.weight f4 [1, 20, 1]
0	0x3e359eff	0.17736433
1	0xbec69718	-0.3878715
2	0xbe03d042	-0.12872413
3	0xbe02c6b7	-0.12771116
4	0xbe83ce7e	-0.2574348
5	0x3ea0497f	0.31306073
6	0x3e70d023	0.23516898
7	0x3effb70e	0.49944347
8	0xbe03f1d1	-0.12885214
9	0x3e0da323	0.13831763
10	0x3e10bf85	0.14135559
11	0x3f035605	0.5130313
12	0x3e18dee8	0.14928782
13	0x3ef9c144	0.48780262
14	0x3ef1852e	0.4717192
15	0x3eaa3a88	0.3324778
16	0x3eb4924e	0.35267872
17	0xbdcbab64	-0.099447995
18	0x3ce5ba54	0.02804295
19	0x3dc669e0	0.09688163
